LSTM/code/model/old_model/model_mk6_150epoch_0.9778trainloss_1.0675validloss.pt (torch, 46404 bytes, 32 tensors)

weight_ih_l0 f4 [40, 22]
000000 6f 53 0b 3e 4d 3e ab 39 f5 67 8f be 62 7c 75 3e
       0.13606046 0.0003266208 -0.28009 0.2397323
000010 78 5f 93 bc db e9 57 3e b9 64 6b bd e1 5d cc bd
       -0.017989859 0.21085303 -0.057469103 -0.099788435
000020 94 c7 08 be 59 6f 01 3e b4 bf 10 3d 7e a8 9b 3e
       -0.13357383 0.12640132 0.035339072 0.30401987
000030 62 0f 87 be b2 8d da ba d0 eb a5 3d b9 95 2a be
       -0.26378924 -0.0016674309 0.08101618 -0.16658677
000040 78 37 ab bd 33 63 27 be 61 3b 34 3e 93 93 99 3e
       -0.08360189 -0.16346435 0.17600776 0.29995403
000050 b9 98 cb 3d 52 2c c9 bd 18 49 0e 3e 9c 02 4f bb
       0.09941239 -0.098229066 0.1389507 -0.0031587249
000060 16 07 10 bc a0 33 db bd 92 bf 0e be b3 0c 83 3e
       -0.008790752 -0.10703206 -0.13940266 0.25595626
000070 bf 21 3c 3e 89 7b 4c 3e cf 42 f7 bc d3 6c 65 3e
       0.18372248 0.19969 -0.030183224 0.22404794
000080 89 5f 81 3e 1d 09 b4 3e dd f5 38 be 7d 3c 21 3e
       0.252682 0.35163203 -0.1806254 0.1574573
000090 59 7b 0e 3e 57 10 ab 3d 8b 3f c0 3d f5 c6 71 3e
       0.13914241 0.08352726 0.0938712 0.23611052
0000a0 12 e1 d2 3d 5a 6a 6e 3d a2 c8 51 3e ec d4 fc bd
       0.10296835 0.058206894 0.20486692 -0.12345299
0000b0 c3 9a 84 3e 6c be df 3d 22 c3 3c 3d 11 c9 4c be
       0.25899324 0.10924992 0.04608453 -0.19998576
0000c0 77 3d 6f 3e 63 fb a1 3e f2 3f b4 3c e5 52 84 be
       0.2336329 0.31637105 0.022003148 -0.25844494
0000d0 c6 4b 8e 3e 31 57 1a be 8d d9 b9 be 21 73 83 be
       0.27792186 -0.15072323 -0.3629879 -0.25673774
0000e0 9d da 0d 3e 8b 50 5e be 89 50 3f 3e 77 07 a9 3e
       0.13852926 -0.21710412 0.18683065 0.33013508
0000f0 e7 ae 3b be af 7a 4a 3e 10 26 70 be d5 fe 7b be
       -0.18328439 0.19773363 -0.2345202 -0.2460893
000100 54 73 06 3e aa 31 38 3e 9f 34 d4 3d 25 ad b3 be
       0.13129932 0.17987695 0.10361599 -0.35093036
000110 fa 42 f2 bd 2c b3 35 3e 0f 90 78 3e 4f 6a 2d be
       -0.11829181 0.1774413 0.24273704 -0.16935085
000120 4c 90 63 bd b4 5a b6 3c 57 6c c7 3d a6 47 7f 3e
       -0.055557534 0.022260047 0.09737461 0.24929675
000130 26 a0 7f be a2 51 6b 3d 21 6a 8c be e3 8b af bd
       -0.24963436 0.057450898 -0.2742472 -0.08571603
000140 0f 14 d6 3d dd 06 6a be 61 23 5b 3e 20 3c a6 be
       0.104530446 -0.2285418 0.21400215 -0.32467747
000150 2c 51 2a be db 7a b2 3e 58 02 53 bd fb 78 7a bd
       -0.16632527 0.34859356 -0.051515907 -0.061150532
000160 4c 5b e9 bd c8 e3 9d 3e ee f8 65 bc a3 0a 18 bd
       -0.113943666 0.30837846 -0.0140364 -0.03711952
000170 95 68 6a 3e ef b7 28 be bf df 0b 3c 96 3f 8d 3d
       0.22891457 -0.16476415 0.008537232 0.06896894
000180 9e 7e a5 be 98 00 2a 3d 3c c7 57 3e 01 cc 53 be
       -0.32323164 0.041504472 0.21072096 -0.2068329
000190 f0 c0 1c 3e 63 10 fd 3d de c1 49 be 28 3d 88 3e
       0.15307975 0.12356641 -0.1970286 0.2660916
0001a0 96 bb 13 3d 0c 0c 73 bb dc 5f 46 be f3 fb 07 be
       0.036067568 -0.0037086038 -0.19372505 -0.13279705
0001b0 44 ef 83 be 8c 3b f4 3d a8 da f8 3d 55 07 75 3e
       -0.25768483 0.1192542 0.1215108 0.23928578
0001c0 d3 da af 3d 42 17 5d 3e 36 0f af 3d 8f 97 1b 3e
       0.08586659 0.21590903 0.08547823 0.15194534
0001d0 68 77 84 be 82 ea 5e bd fd 57 19 be 5d 05 2c be
       -0.2587235 -0.054422863 -0.14974971 -0.16798921
0001e0 b6 41 72 3d 25 d2 a7 3e 28 af 46 be 41 c3 26 be
       0.059144698 0.32777515 -0.19402754 -0.16285421
0001f0 9b 6b 2e 3e 74 1d 18 3e 0e 26 f7 3d f4 ed 42 3d
       0.17033236 0.14854985 0.12067805 0.04759021
000200 5c a3 12 be d0 04 7d 3e 64 59 92 3e d9 a0 21 3e
       -0.14320129 0.24708867 0.28583825 0.15784015
000210 a0 2e 5c 3e 7f 12 50 be 0d 96 a6 bd 70 34 02 3d
       0.21502161 -0.20319556 -0.08134089 0.03178829
000220 8a 75 9a bc 89 82 d0 bd d4 aa 77 3e 54 1c d5 3d
       -0.018854875 -0.101811476 0.2418626 0.10405794
000230 ab 9d 3a bd 8d 10 8e 3e fb fe 1f 3d 86 fb ea 3d
       -0.04556052 0.27747002 0.039061528 0.114737555
000240 f7 62 87 3d 9a 57 08 3c 99 54 d0 bd 78 10 7f 3e
       0.06610673 0.008321667 -0.10172386 0.24908626
000250 a3 88 f8 bc 25 5d 31 bd cc 98 33 3e 3f ba 27 be
       -0.030338591 -0.04330172 0.17538756 -0.16379641
000260 a0 11 39 bd f6 fe 04 3e cc 18 08 be ac 4c b4 bd
       -0.045182824 0.12987885 -0.1329071 -0.088036865
000270 81 fb 07 be 3b 2a 2c bd ed 50 a4 be 02 3d 92 be
       -0.13279535 -0.04203246 -0.3209299 -0.2856217
000280 62 30 8d 3e 17 d3 22 3e 04 bf 24 3e b4 3d f1 3d
       0.27575976 0.15900837 0.16088492 0.11779347
000290 2f 08 eb 3d aa 40 82 be a3 0e 57 3e 53 52 98 be
       0.1147617 -0.2543996 0.21001677 -0.29750308
0002a0 5c ea 4d 3e 67 51 a8 bd 09 a2 fb bd db ad 65 3e
       0.20108932 -0.08218651 -0.12286765 0.22429602
0002b0 94 14 62 be 92 f9 4d 3e 46 89 76 bd 9a dc 92 bd
       -0.22078162 0.20114735 -0.060189508 -0.07170983
0002c0 b9 60 82 be 2d c2 96 be d5 75 b7 bd d9 e1 b1 bd
       -0.2546442 -0.2944502 -0.089580216 -0.08685655
0002d0 92 92 67 be 2a 69 35 3e e1 89 a6 be de af 53 3d
       -0.22614506 0.17715898 -0.32527068 0.051681392
0002e0 40 af 6e bd 22 c0 57 be 30 16 b3 be 91 02 0b be
       -0.0582726 -0.21069387 -0.34977865 -0.13575198
0002f0 7a 58 9d 3e 7e cf 81 be f9 ad a7 be b6 00 b2 bd
       0.30731565 -0.25353616 -0.32749918 -0.08691542
000300 5a 19 33 be 64 fd 33 be 6c ca 96 3d 51 8c b8 3d
       -0.1749014 -0.1757713 0.07362828 0.09011138
000310 42 f7 bc bc 8f 1c 77 3e f9 fc 65 3e d8 17 95 3d
       -0.02306712 0.24131988 0.22459783 0.072799385
000320 6d ec 0f be 69 dc c4 3e b3 51 44 be 5c 0e fd 3d
       -0.14055033 0.3844941 -0.19171791 0.123562545
000330 ef a5 18 3d 55 40 97 bd f6 b9 3b be 67 69 b0 be
       0.03726762 -0.07385317 -0.18332657 -0.34455416
000340 86 5a 4c 3d f5 05 5e 3e d8 d6 e5 bd 80 86 43 3e
       0.049891017 0.2168196 -0.11222619 0.19094276
000350 7b a6 ed 3c 66 ea b8 3e c7 8b 78 3d df f8 1c 3e
       0.029010048 0.36116332 0.060680177 0.15329312
000360 54 c8 ba be ff 75 c4 3e 71 cd 8f bd 8f 5b c3 3e
       -0.36480963 0.38371274 -0.07021607 0.3815579
000370 59 3b 71 3e 2a cb 18 3d 4c 73 72 bd 12 cf 43 3d
       0.23557796 0.037303127 -0.059191987 0.0478049
000380 a0 7d 46 3e 0a db 47 bd 11 0b 57 be 32 0c 38 be
       0.1938386 -0.048792876 -0.21000315 -0.17973402
000390 5a 44 f4 bd 93 f3 b1 3d 71 b4 34 3e fe 70 9a bd
       -0.119270995 0.08689036 0.17646958 -0.07541083
0003a0 90 60 92 3e 27 6b 92 be ac b5 3d 3e 72 50 38 be
       0.28589296 -0.28597376 0.18526334 -0.17999437
0003b0 2e e9 45 bd 2b 4a 9e be 4a 71 61 be 2f b6 c7 3e
       -0.04831808 -0.3091596 -0.22015873 0.39006183
0003c0 bc 67 2b 3e 2a 47 6d 3e 0d 0c 3d be bb 1f 8f be
       0.1673879 0.23171678 -0.18461628 -0.27953896
0003d0 d4 1f a2 bc c3 f1 cf 3e dc a2 42 3d c5 0c 3c be
       -0.019790567 0.40614137 0.047518596 -0.18364246
0003e0 04 26 07 be 4a 06 fa bd 14 92 34 3e 10 09 a5 3d
       -0.13198096 -0.12208231 0.1763385 0.08058369
0003f0 f8 15 aa be 2a 65 2a be 52 08 32 3e 85 20 e8 3c
       -0.33219886 -0.16640154 0.17385986 0.028335819

weight_hh_l0 f4 [40, 10]
000000 81 97 b6 3d 40 9f ae 3e 6d 53 6e be 31 e2 1a be
       0.08915616 0.34105873 -0.23274012 -0.15125348
000010 e6 50 cb 3c fd 0c 61 bd 18 2d 4b 3e df 01 46 3e
       0.024818849 -0.054944027 0.1984142 0.19336651
000020 f8 e7 c1 bd 15 02 85 be 75 a4 08 3c 37 f4 4f bd
       -0.09468073 -0.2597815 0.008339991 -0.05077001
000030 08 8b 4e be 4c b9 01 3e 29 cf 58 be 18 45 f7 3d
       -0.20170224 0.12668341 -0.21172775 0.120737255
000040 d1 7f be be 6f ed bc be 31 79 2a be 66 05 e5 3d
       -0.3720689 -0.36899897 -0.16647793 0.1118267
000050 5e 2e bf bc 58 be 52 be ed 95 30 3e ea 02 c7 bd
       -0.02333754 -0.20580423 0.17244692 -0.09717353
000060 d6 82 94 3e b1 4e 64 be 42 ca a5 bc c9 c6 4a be
       0.2900607 -0.22295643 -0.020238046 -0.19802393
000070 89 27 b7 3d ec 90 2b bd 15 49 81 be 4f 65 2c 3e
       0.089430876 -0.041886255 -0.2525107 0.16835521
000080 f8 4b 82 3e 1c 97 e0 bd 9f 33 1c be b3 ea 3a 3e
       0.25448585 -0.10966322 -0.15254067 0.18253593
000090 fc 71 9d be 0c 26 26 3e 5c 2b 2f 3e a5 a8 43 be
       -0.30751026 0.16225451 0.17106384 -0.19107302
0000a0 e4 29 6f be 37 e9 8d bd a8 96 82 3e 2e 67 8c be
       -0.23355824 -0.06929248 0.25505567 -0.2742247
0000b0 fc 14 9f 3e a8 8b 0e 3d 5d 3d 68 be e0 f5 3a be
       0.31070697 0.034801155 -0.22679658 -0.18257856
0000c0 4d ba eb bd d8 07 9e bd b1 78 5a 3e 76 d9 8a 3e
       -0.115101434 -0.0771634 0.21335103 0.27119035
0000d0 61 74 38 3e b7 fb 79 3e 15 35 ae 3e a4 5e 57 bd
       0.18013145 0.24412428 0.34024873 -0.05258049
0000e0 30 86 9f 3d e4 60 63 3e 3c 3c bc 3d f7 64 63 be
       0.07789266 0.2220493 0.09191176 -0.22206484
0000f0 3d cf ac 3e cd cf 13 3e 50 e1 ab 3d 38 1b 81 3e
       0.3375186 0.14434738 0.08392584 0.2521608
000100 42 25 d1 bc 9d 77 33 3e 47 d5 3f be eb bd 9d bd
       -0.025530461 0.17526098 -0.18733703 -0.077022396
000110 7b e4 7e be e1 67 34 3e 0d cd 2d be bc 5b 46 be
       -0.24891846 0.17617752 -0.16972752 -0.19370931
000120 43 ce 90 bd 54 1e 32 be 0d ce 15 be 5e b6 d9 3d
       -0.07070591 -0.17394382 -0.14629383 0.10630487
000130 1c ea a7 3d 63 4e 07 3e f8 91 4e 3e 9c 9d b5 3d
       0.0819895 0.13213496 0.2017287 0.08867952
000140 a0 da 00 3e 60 5b 4f 3e 21 f5 93 3e 47 c3 c4 3d
       0.12583399 0.202497 0.28897956 0.09607559
000150 5f 4c 1c be 21 63 69 3d 52 a3 81 bd fd 9d 9f be
       -0.15263508 0.056979302 -0.06329979 -0.31175223
000160 e5 06 a0 3d fb 11 9b be c2 7f 10 be c9 b9 28 bc
       0.07813815 -0.30287156 -0.14111236 -0.010298201
000170 80 d2 4e 3e df 20 36 3e d8 cc 5c 3d 13 03 68 be
       0.20197487 0.17785977 0.05390629 -0.22657423
000180 65 15 36 bc b5 ee 1e be 4d 4d 29 3d f8 1e af be
       -0.011113499 -0.15520747 0.041333485 -0.34203315
000190 5e 33 98 3e 37 dc bf bd fd 9a d0 3e f1 be 61 3d
       0.2972669 -0.093681745 0.40743247 0.055113737
0001a0 bd 6a 2d 3e 8e f6 c0 3e 84 ba cd bd a6 c0 85 3d
       0.16935249 0.37688106 -0.10045341 0.065308854
0001b0 1f 77 9b bc 85 86 cc 3c 11 c4 8a 3d 35 4a d9 3e
       -0.0189777 0.024966488 0.06775678 0.42439428
0001c0 a7 d5 0f 3e 66 7a 46 3c cf 0e 81 3e a7 2e fb bd
       0.14046346 0.012114143 0.2520661 -0.122647576
0001d0 27 1a ae bd 63 81 4e be b2 b0 cc be 74 c5 ad bc
       -0.08501082 -0.20166545 -0.39978558 -0.021212317
0001e0 99 a8 51 3e c7 41 e0 3d be 8a ac 3e 6b 1a 11 3e
       0.20474471 0.10950046 0.33699602 0.14170234
0001f0 9f f4 28 3e 71 7e ac 3e 65 33 ed bd da 6d 26 be
       0.16499566 0.33690217 -0.11582068 -0.16252843
000200 ea 0a b7 be d4 2c 0d be f9 d6 54 3e 07 51 cd 3e
       -0.35750514 -0.13786632 0.2078513 0.4010088
000210 ed f1 90 3e 13 3b ab be 6c 24 9b 3d 10 5c fa bd
       0.28309575 -0.33443508 0.07575306 -0.12224591
000220 af 3f 01 3e 91 31 e9 bd 2e 0e dd be 5d 80 c5 bd
       0.1262195 -0.11386407 -0.4317488 -0.09643624
000230 6c c0 c1 3d fd f3 84 be c5 7d c0 bd 81 f7 26 3e
       0.0946053 -0.25967398 -0.09398989 0.16305353
000240 82 4d aa 3d 45 20 69 bb 72 52 85 3e c4 b0 81 3e
       0.08315565 -0.0035572213 0.26039463 0.25330174
000250 53 a4 13 3a fc 6a 21 be dd b3 92 bd 9b 58 42 3e
       0.0005632091 -0.15763468 -0.071632124 0.18979113
000260 70 28 3c 3e 75 37 48 3c 4c ad 90 3e ad 1e f1 bc
       0.183748 0.012220253 0.28257215 -0.029433573
000270 59 33 ad be 57 ed 49 bd d4 0e c1 bc ef 39 c8 be
       -0.33828238 -0.04929861 -0.02356664 -0.391067
000280 4b 96 5e 3d 1e c2 21 3e 78 41 5f bd a8 ea c8 3d
       0.05434255 0.15796706 -0.054505795 0.09810382
000290 45 a5 04 be 73 6e b5 3e 4c 17 f0 bd 01 c7 69 bd
       -0.1295367 0.3543583 -0.117231935 -0.05707455
0002a0 0a f0 ba 3d 0f 77 83 3b 0e e6 42 3e 96 f3 32 be
       0.09127815 0.0040119956 0.19033071 -0.17475733
0002b0 b9 3a 04 3e 2d 72 2f bd df 2e bd 3e c1 cb e5 3d
       0.12913026 -0.042833496 0.36949822 0.112205036
0002c0 83 48 85 3e 2d c9 e3 bc 72 2b d5 bd d7 bd a3 be
       0.26031885 -0.027805889 -0.10408677 -0.31980774
0002d0 fd b9 ba 3c 32 43 4c bb 54 8c d1 3e bd 6b 4b be
       0.022793764 -0.0031167981 0.40927374 -0.19865318
0002e0 40 ca 90 3e 30 33 f1 3d 8c ee f1 bd 49 24 13 3d
       0.28279305 0.11777341 -0.11813077 0.035923276
0002f0 9c f0 ab be 62 dd 1d 3e d4 f5 23 3e 34 a8 8a 3e
       -0.33582008 0.15416482 0.16011745 0.27081454
000300 22 bc da 3d b1 c2 08 be e6 20 76 be cd 76 cf bc
       0.10680415 -0.13355519 -0.24035987 -0.025325203
000310 d8 44 66 bd ff 7f 6d bb 5c 57 14 3e 0d 75 23 bd
       -0.056218 -0.0036239622 0.1448645 -0.03990655
000320 92 6f 27 be 84 8e 6e 3e 84 2e 32 3e bd 48 e0 bd
       -0.16351154 0.23296553 0.17400557 -0.10951374
000330 d3 bf 14 be a1 fb aa bc 77 71 9c 3d 04 de 91 3b
       -0.145263 -0.02087194 0.07638829 0.004451515
000340 e1 8e 18 bc 20 fe 03 3d 0f 98 8e be 3a 47 d7 bd
       -0.009311409 0.032224774 -0.27850387 -0.10511632
000350 3a 3b c8 3e 51 7c 8f bc 85 49 34 3e 6d 74 15 be
       0.39107686 -0.017515333 0.1760617 -0.14595194
000360 46 bf 75 bd 9c b7 32 be de 38 89 3d 0a 42 d0 be
       -0.059996866 -0.17452854 0.067003 -0.40675384
000370 cf 78 a1 bd 68 8c c2 bd 2a 6e b5 3e 35 13 0a b9
       -0.078843705 -0.094994366 0.3543561 -0.00013167861
000380 24 ca 9e 3d 16 8f bf 3e 6f 4d d3 bd 63 2d 4b be
       0.07753399 0.37413853 -0.10317504 -0.19841532
000390 da 31 09 3e 7f b6 d8 3c b4 e6 5a be 19 f8 23 bc
       0.13397923 0.026454208 -0.21377069 -0.010007882
0003a0 59 b5 04 be 27 fa af 3d 8d d2 61 bc 2f 14 5f 3e
       -0.12959804 0.08592635 -0.013783109 0.21785043
0003b0 44 2f 9e 3d 8b f0 80 be ee 59 e2 3d b5 96 1d bc
       0.07723859 -0.2518352 0.11052309 -0.009618451
0003c0 69 84 92 be b5 a8 9a bd e7 fc b9 3e 14 c7 f8 3d
       -0.28616646 -0.075517096 0.36325762 0.12147346
0003d0 35 e2 4c be 01 e3 b3 bd 16 91 56 bd aa d4 ef bd
       -0.20008166 -0.08783532 -0.05238446 -0.11710484
0003e0 08 e9 db 3d 3a d2 89 be a5 88 ad 3c ab 54 11 be
       0.107378066 -0.26918203 0.021183321 -0.14192455
0003f0 70 22 9d 3e 94 43 9c be 5f 5d dd 3b 8c b2 72 3e
       0.30690336 -0.30520308 0.0067555155 0.23700923

bias_ih_l0 f4 [40]
000000 ea 2a 42 bd ed 3d aa 3e 92 e4 e4 3d 94 d9 ac bc
       -0.047404207 0.3325037 0.11176409 -0.021099843
000010 f8 dc 32 3d d2 8d 3b be e0 49 24 3e a2 73 82 be
       0.043667763 -0.18315819 0.16043806 -0.25478846
000020 7e 22 b5 3d de b4 92 3e 94 b4 72 3e d6 93 9d bd
       0.088444695 0.28653616 0.23701698 -0.07694213
000030 44 b0 f8 3d a8 94 a7 3d f6 26 ac 3e f1 eb a1 3d
       0.12142995 0.08182651 0.33623475 0.079063304
000040 16 c1 a5 bc 15 ab 8c be 1b c9 1f be fd 6b 4d bd
       -0.020233672 -0.27474275 -0.1560406 -0.050151814
000050 d0 7d 2f 3e bc fb b3 3e 5e f4 a5 bd af be 4a be
       0.17137837 0.35152996 -0.0810325 -0.19799303
000060 29 6e 1e bd c4 eb 1c 3e 45 d4 38 be f3 73 0e be
       -0.038679276 0.15324312 -0.18049724 -0.13911419
000070 f6 ad a8 be b4 7b 90 be 46 58 37 be c2 9e 45 bd
       -0.32945222 -0.28219378 -0.17904767 -0.048247106
000080 a0 2b 8c 3e e6 09 b3 bd 9b 8f c2 bd e8 ab 7a be
       0.27377033 -0.08742122 -0.09500047 -0.2447964
000090 5a 81 48 3b e4 eb 1b 3e b2 61 dc bd d7 ae a6 3e
       0.0030594678 0.15226704 -0.107608214 0.32555267

bias_hh_l0 f4 [40]
000000 68 f9 d9 bc a5 79 1e 3e c4 99 5d be 32 10 a1 3d
       -0.026608184 0.15476091 -0.21640688 0.07864417
000010 e7 7f e8 3d 0c e3 9b 3e 7e f4 4c be e9 e7 9d 3e
       0.113525204 0.3044666 -0.20015141 0.30840996
000020 4b 25 ec bd 90 d4 08 be f5 93 5f bd ba dd 46 3b
       -0.115305506 -0.13362336 -0.054584462 0.0030344562
000030 7e 52 a6 3e 00 21 27 be 96 35 ab 3c 51 48 80 bd
       0.32484812 -0.16321182 0.020899575 -0.06263793
000040 ed 7c 17 3d 8b 8b 10 3e 42 79 6f 3e 14 8c 66 3e
       0.036984373 0.14115731 0.233861 0.22514373
000050 98 2b b5 3e d5 3d 35 bd 97 ba 88 3e 0d 30 8c 3d
       0.35384822 -0.04424842 0.26704857 0.068451025
000060 65 4d 03 bb 1d 7a a6 3e 9b 3e b5 be 7c 34 5e 3e
       -0.0020035144 0.3251504 -0.35399327 0.21699709
000070 25 f3 aa be 6d 3e 1f 3e a5 6d b8 3e 13 34 4f bd
       -0.3338863 0.15551157 0.36021152 -0.05058677
000080 96 43 b5 bc 31 69 c5 3e 06 14 b2 3e 05 23 55 3e
       -0.022126954 0.38556817 0.34780902 0.2081414
000090 e0 ed 7f 3e 2f 7f 5c be 55 fe 4f bd fc 33 c2 3d
       0.24993086 -0.21532892 -0.05077966 0.094825715

weight_ih_l0 f4 [40, 22]
000000 c0 3d 86 3e 72 8f 99 3e 8c c3 6d be 35 7a 1f be
       0.26218987 0.29992253 -0.23219126 -0.15573962
000010 2e b1 92 3e 93 8b ff bd 38 49 04 be 0f ce 71 3e
       0.28650802 -0.124777935 -0.12918556 0.23613761
000020 c1 c6 66 3e 35 eb 83 3e 02 87 88 be 89 ab ab 3e
       0.22536756 0.25765386 -0.26665503 0.33529308
000030 09 09 45 be 7c c9 a0 3e e1 e9 b4 bc c9 3e 16 be
       -0.19241728 0.3140372 -0.022084178 -0.14672388
000040 78 35 30 be a8 1c 3c be 63 ee 73 3e 6c 0a a2 3e
       -0.17207897 -0.18370306 0.23821406 0.31648576
000050 34 80 83 3e 2d b7 95 3e 67 b4 fa bd 16 f8 df 3d
       0.2568375 0.29241315 -0.1224144 0.109359905
000060 88 39 6d bd de c1 5e bd cc ee 1e be 8e 05 29 3d
       -0.057916194 -0.054384105 -0.15520781 0.041265063
000070 a6 eb 59 be 7d 5e 2e 3d 69 48 28 be 99 ad 53 3e
       -0.21281299 0.04257058 -0.16433872 0.20671691
000080 55 3f f0 3d bd 45 93 3e be cf 77 be c9 9e 74 3e
       0.117308296 0.28764144 -0.24200341 0.23888697
000090 c2 89 0f 3e 2f 6b 45 be 58 2a 19 3e 89 3f 9c 3e
       0.14017394 -0.19279169 0.14957559 0.30517223
0000a0 56 7c 97 be 24 50 48 ba 72 2f 68 3e e8 e5 ae bd
       -0.29587048 -0.00076413364 0.22674349 -0.08539945
0000b0 aa 92 3f be b2 69 20 be 8e 80 d7 bd 5c 97 8b 3e
       -0.18708292 -0.1566532 -0.10522567 0.27263916
0000c0 92 4d f4 bd 8b 33 47 3e 8a 61 91 3e 55 8c 07 be
       -0.11928858 0.19453256 0.2839473 -0.13237126
0000d0 db 8e 87 be 24 16 7d 3e 39 b6 85 3e 72 80 84 bd
       -0.26476178 0.24715477 0.26115587 -0.064698115
0000e0 cf b1 9d 3d b8 46 4d 3e d3 b6 c2 bd 8a eb b3 3e
       0.0769993 0.20046508 -0.09507527 0.3514064
0000f0 f5 d7 7e 3c b5 57 5f be 3f f6 46 be 98 57 dd 3a
       0.015554418 -0.21810801 -0.19429873 0.0016887067
000100 16 6c 86 3e 92 da 71 3e e3 c9 f3 3d 78 07 04 3e
       0.26254338 0.23618534 0.11903741 0.12893474
000110 9b 48 ca 3d 77 dd b9 3e 99 f9 86 be 9f 16 70 3d
       0.0987713 0.36301777 -0.26362303 0.058615323
000120 da e5 ea 3d fa 0a 19 be d6 82 ed bd 5d 6a da 3c
       0.11469622 -0.14945593 -0.115972206 0.026662046
000130 1d c7 17 3e a1 79 46 3e 52 ef 26 be 71 9a b2 3e
       0.1482205 0.19382335 -0.16302231 0.34883454
000140 59 da 9e be 3f 8f a2 3e c6 9f 95 3e 0c 55 83 be
       -0.3102596 0.31749913 0.2922346 -0.25650823
000150 a4 81 18 3e 16 b2 3f bc 77 63 19 be d4 a9 86 3e
       0.14893204 -0.011700174 -0.14979349 0.26301444
000160 38 d8 e6 3d 93 fb a4 3e bf f9 79 3e c0 a2 4c 3d
       0.11271709 0.32223186 0.24411677 0.049959898
000170 18 62 6a 3e fc a8 92 be 4b 31 87 be 2b 8f 4d 3e
       0.22888982 -0.2864455 -0.26404795 0.20074145
000180 48 d7 93 be e6 e0 01 be 35 5e 79 3e 07 5f 3a 3d
       -0.28875184 -0.12683448 0.24352343 0.04550078
000190 87 93 96 3e e5 73 80 be 81 82 a2 be de 3d 1b 3e
       0.2940943 -0.2508842 -0.31740192 0.15160319
0001a0 80 f2 99 3e 46 57 a3 3e 6a ef 44 be da f9 87 be
       0.30067825 0.31902522 -0.19231954 -0.2655781
0001b0 70 2b 64 be c9 ae 3b be 1f ff 91 bd 12 6f ba bd
       -0.22282195 -0.18328394 -0.071287386 -0.09103216
0001c0 b9 34 ac bd 1f f4 17 be b5 b6 b3 bd 6a 1f 85 3d
       -0.084084935 -0.14839219 -0.08775083 0.065001324
0001d0 81 35 10 3e 94 3a 71 be ba f6 6a be bd 37 94 3e
       0.1408291 -0.23557502 -0.22945681 0.28948775
0001e0 c0 a7 9a 3e dc d7 32 3e 55 af 44 3e 2d 82 76 3e
       0.30206108 0.17465156 0.19207509 0.24073096
0001f0 1e 4c 9b 3d 66 fc 87 be 80 9d 42 be 74 48 6c 3e
       0.075828776 -0.26559752 -0.19005394 0.23074514
000200 d4 c3 25 bc b3 f4 76 3d 20 71 f9 3c 3a 32 fb 3d
       -0.01011749 0.060291957 0.03044945 0.12265439
000210 e0 21 5d be b5 c6 3a 3e 24 2a 39 3e 08 1b 61 be
       -0.21594954 0.18239863 0.18082482 -0.21982968
000220 70 48 2e 3e a9 d7 19 be 42 26 6e 3e 89 c9 86 3e
       0.1701982 -0.15023674 0.23256782 0.26325634
000230 dd 2a 16 be f5 a8 3f be 0d cb 18 3e a9 57 94 3e
       -0.14664789 -0.18716796 0.14921208 0.2897313
000240 1b 70 03 3e 44 29 79 3e 6f b7 88 be de 8b 55 be
       0.12835734 0.24332148 -0.2670245 -0.20854136
000250 69 62 b7 bd 78 b8 6f be e3 77 b6 ba b0 de bd 3e
       -0.08954317 -0.23410213 -0.0013921227 0.3708396
000260 40 e7 92 3e 0f 91 93 3d d0 85 aa 3d 81 f9 d6 3b
       0.28692055 0.07205402 0.08326304 0.006560505
000270 08 8a ab 3e b0 90 3f 3e 23 e1 e7 3d fa 5b 28 be
       0.33503747 0.18707538 0.11322238 -0.16441336
000280 7a 4b 99 3e 1f f0 dd bd de dc 8b 3e 91 97 50 bd
       0.29940397 -0.10836815 0.27316946 -0.050925795
000290 7a e0 5a be cb 9a 1b be 17 8e 1e 3e f6 c2 01 3e
       -0.21374694 -0.15195768 0.1548389 0.12672028
0002a0 0b 9c b6 3d 23 9a 29 3e f2 72 80 3e f4 ce 00 3d
       0.089164816 0.16562705 0.25087696 0.031447366
0002b0 bb 8b 34 3d 0f 12 24 be e4 12 53 bd 73 62 25 3d
       0.04407857 -0.16022514 -0.051531687 0.04037709
0002c0 98 6b 31 be 53 2d 61 be 01 61 83 be d0 10 e3 bd
       -0.173262 -0.21989946 -0.25659946 -0.11087191
0002d0 17 8a 5f be 8b a6 9b 3e 81 64 27 3d 6a 3d 00 be
       -0.21830021 0.304005 0.040867332 -0.12523428
0002e0 bd 43 29 3e 0b 21 3d be be 8a 27 3d db 4e d2 3d
       0.16529746 -0.18469636 0.0409038 0.10268947
0002f0 c3 83 83 be 09 8f 88 be a2 2f b0 be 36 de 27 be
       -0.25686464 -0.26671627 -0.3441134 -0.1639336
000300 a4 0a d4 bd b3 44 9c be 7f 67 49 be 56 f6 50 be
       -0.10353592 -0.30521163 -0.19668387 -0.2040647
000310 17 0a a0 3e 15 df 4b be b5 8e eb bd 1b 52 7c bd
       0.31257698 -0.19909318 -0.115018286 -0.06160174
000320 92 cf 86 be c7 d3 ce bd 6b a0 82 3e f5 87 68 bc
       -0.2633024 -0.10098987 0.25513014 -0.014192571
000330 3c fd 32 3e 2c 62 aa 3d fe 9c 81 ba 2a bc bb bd
       0.17479414 0.08319506 -0.0009888706 -0.09166749
000340 f6 d9 87 3e aa 36 71 3e b2 b6 b5 3e 50 a2 68 3e
       0.26533478 0.23556009 0.35490948 0.22718167
000350 c6 70 55 bd b0 79 66 3e 1e 81 62 3e 9b a6 95 be
       -0.052109502 0.22507358 0.22119567 -0.29228672
000360 06 8b c0 bd 60 e4 97 be 59 e5 60 3e 0b 69 8f 3e
       -0.094015166 -0.29666424 0.21962489 0.2800983
000370 43 d2 d3 bd f6 13 c8 bd ac 5b 58 be 99 58 3d 3e
       -0.103428386 -0.09769432 -0.2112872 0.18490829
000380 83 78 f9 bd a6 eb 96 3e 1b 9b d5 bd 4e 01 a1 3e
       -0.12181189 0.2947666 -0.10429975 0.31446308
000390 b8 ee 39 3e 04 4d 88 3e 95 a6 05 be 0f 6f 1b bc
       0.1815747 0.26621258 -0.13051827 -0.009486928
0003a0 0e 3a 7a be 6a 44 28 be f1 3c be 3d fc 46 c6 3d
       -0.24436209 -0.16432348 0.092889674 0.09681508
0003b0 b8 3e c1 3c 40 d1 0b 3e 5f e4 58 bd 34 4d 1d 3e
       0.023589477 0.13654041 -0.052952167 0.15361482
0003c0 04 28 73 3d 53 22 48 be 22 87 02 3e 31 14 60 be
       0.059364334 -0.19544344 0.12746862 -0.21882702
0003d0 69 18 5a be 27 8c cb 3d 68 80 c2 bd f9 77 f2 bc
       -0.21298374 0.09938841 -0.09497148 -0.029598223
0003e0 a1 c2 99 3d 6d 24 46 3e a8 b1 be 3d 93 dc 8d be
       0.07507826 0.19349833 0.09311229 -0.27707347
0003f0 53 33 9e be 3e 78 8a 3e 09 c4 a7 3e fb c2 02 3e
       -0.30898532 0.27044863 0.3276675 0.12769692

weight_hh_l0 f4 [40, 10]
000000 57 89 1f bd 84 fe 37 3e 6e bd 8e 3d f2 aa 0c bd
       -0.038949337 0.17968184 0.069697246 -0.034342714
000010 0a c0 82 be 06 15 65 3e d8 89 28 3d fb 4d 6d be
       -0.2553714 0.22371301 0.041147083 -0.23174278
000020 9e d1 30 be a4 5e a8 3d d3 cb 9e 3c 89 d0 4d 3e
       -0.17267463 0.08221176 0.0193843 0.20099081
000030 df 15 82 3e 79 15 06 be 09 3a 8e be fe 40 24 bd
       0.2540731 -0.13094129 -0.27778652 -0.040101044
000040 9d 0b b4 bd 29 67 1e 3c a3 bf 97 be fa e3 ab 3e
       -0.087912776 0.00966815 -0.29638395 0.3357237
000050 18 c1 96 3d af 55 65 be e6 29 b3 3e 7e d9 f2 3d
       0.073610485 -0.22395967 0.34992903 0.118578896
000060 7d fa 43 be a7 9b 36 3e 45 76 af be f1 17 21 3d
       -0.19138522 0.17832814 -0.3426992 0.039329473
000070 0b cb 02 bd 12 67 12 be 33 80 f3 3b c5 fb 9a be
       -0.031931918 -0.1429713 0.007431054 -0.3027021
000080 8a 89 b1 3d 40 7a c0 bd 6f f6 bc 3d 1f 76 04 3e
       0.086688116 -0.09398317 0.09226691 0.12935685
000090 9b 6e 5c be 1a 4c 82 3e 2b 9f b9 3d 56 f8 46 be
       -0.21526568 0.25448686 0.09063562 -0.1943067
0000a0 60 99 46 3e 9c 4b 62 3e 1d eb 64 3e fc 2e 17 3c
       0.19394445 0.22099155 0.22355314 0.009227511
0000b0 4c 0a 91 be 0e 80 a8 be b2 6f 2c be cc 04 8c 3e
       -0.28328168 -0.32910198 -0.16839483 0.2734741
0000c0 13 8a 89 bd a8 74 61 3e 81 73 8b 3e 23 04 9d be
       -0.06715789 0.22017157 0.2723656 -0.3066722
0000d0 e5 b3 47 bd 5b 5a b4 be ef a2 8b bc 99 c7 a4 bd
       -0.048755545 -0.35225186 -0.017045466 -0.08045883
0000e0 d4 3a 85 be 7b 47 12 bc e1 39 93 be 7d 5b d9 bd
       -0.26021445 -0.008928175 -0.28755096 -0.10613153
0000f0 fc 95 5d 3e 83 79 d8 bc 4c dc 29 be 2b 9f bc bd
       0.21639246 -0.026425129 -0.16587943 -0.092100464
000100 fa 85 d3 bd 8e 25 bf be 8e 53 09 3e 9c 84 46 be
       -0.103282884 -0.3733334 0.1341078 -0.19386524
000110 96 7c 36 3e c9 73 13 be c6 48 56 bd 6d fc 7e be
       0.17820963 -0.14399637 -0.052315496 -0.2490098
000120 42 d4 cc bc 02 c0 34 3e b1 67 43 be f4 d3 58 be
       -0.025003556 0.1765137 -0.19082524 -0.21174604
000130 74 e8 3e 3e 92 b6 f8 3d ca 0d eb 3d 1a 97 a0 be
       0.18643361 0.121441975 0.114772394 -0.3136528
000140 f4 0b e3 3d 97 6b 8b be 66 78 78 bd ba 91 33 3c
       0.11086264 -0.27230522 -0.060661696 0.010960037
000150 05 da 8b 3c d2 c0 51 bc 2f ba 6d 3d a2 40 b2 3e
       0.017071733 -0.01280232 0.058038887 0.34814936
000160 79 35 10 3e 5b 4c e3 bc 30 9c 8d 3e 68 42 27 3e
       0.14082898 -0.02774637 0.27658224 0.16333926
000170 d8 80 2f 3e 97 d3 a5 be e9 27 69 be 2b 39 95 be
       0.17138994 -0.32387993 -0.22769131 -0.29145178
000180 55 72 13 3e d6 cd 82 be b9 bb 4a bc cd 3c 8b 3e
       0.14399083 -0.25547665 -0.012373858 0.27194825
000190 c1 e1 74 be 9f e8 9f 3d b9 62 a2 bd 2a 1e 59 3d
       -0.23914243 0.07808041 -0.07928986 0.053007282
0001a0 03 34 cb bd 0c 2d 1a 3e e4 68 24 be a3 db 76 bd
       -0.0992203 0.15056247 -0.16055638 -0.060268056
0001b0 b3 a7 3c 3d ba c7 23 3e 54 2a c3 be 9f f6 50 3e
       0.046058368 0.15994158 -0.3811823 0.20406578
0001c0 d0 c0 12 3d ae c7 31 3e 2a a6 13 3e 27 47 47 bd
       0.03582841 0.17361328 0.14418855 -0.04865184
0001d0 f3 0e a4 be c8 e1 3d 3e 38 fd 6b 3e 7a c5 81 3c
       -0.32042655 0.1854316 0.23045814 0.015841234
0001e0 fb 43 0e bd 22 e0 bd 3d 1a 3f 70 3e 2e a8 40 3e
       -0.0347328 0.092712656 0.23461571 0.18814155
0001f0 ff 88 2a 3e ed d8 f0 bc 0a 11 a7 be 9d 8a c5 3d
       0.16653822 -0.029400313 -0.32630187 0.09645579
000200 fa ed ce 3c d1 fb 25 3e c6 df d8 be 5f e4 a7 bd
       0.02525996 0.16209342 -0.42358226 -0.08197855
000210 93 35 07 3d d1 64 25 3e 81 dd 1d 3e 1a 73 ce bd
       0.033010077 0.1615174 0.15416528 -0.10080548
000220 fe 4a 07 3e 4a e1 59 bd 57 ba 9f 3c 73 e3 89 3e
       0.13212201 -0.053193368 0.019498033 0.26931342
000230 a6 bf a8 bc a8 90 2b 3e e4 9e 5d 3c 27 f5 d4 bc
       -0.020599198 0.167544 0.013526652 -0.025995804
000240 79 72 dd bd c8 b6 43 bd 7e 75 4e 3e 45 08 a8 3d
       -0.108128496 -0.047781736 0.20162007 0.08204702
000250 ef 41 0c be ef 9b 22 3e f3 df 14 3e 5f 2b 35 be
       -0.13697027 0.15879796 0.14538555 -0.17692326
000260 04 97 23 3d e2 78 80 3d 48 da e9 bd 7b 37 97 3e
       0.03993894 0.062730566 -0.11418587 0.29534516
000270 5e c9 39 be a5 2b f0 bd 03 f2 e4 3d 3f 0c ad bd
       -0.18143222 -0.117270745 0.111789726 -0.084496014
000280 30 c8 5f 3e f6 7f 41 be 1c 49 8a 3e 30 a5 b5 bd
       0.21853709 -0.1889647 0.27008903 -0.08869398
000290 01 de 41 3e 16 bc 29 be 83 e0 b3 bd 77 ff 1d be
       0.18932344 -0.16575655 -0.087830566 -0.15429483
0002a0 25 44 89 3e 7b d3 68 3e fb 02 b8 bd a6 0b 00 3e
       0.26809803 0.22736923 -0.089849435 0.12504444
0002b0 bf a9 67 3e 22 e7 e0 3d 95 49 e6 bd 1e 4c 21 be
       0.22623347 0.10981585 -0.112445034 -0.15751693
0002c0 fb bb 70 3e 0f 8a 66 bd ef 20 b4 bd b2 e9 46 be
       0.23509209 -0.056284007 -0.08795344 -0.19425085
0002d0 65 39 88 be b1 b7 d0 3c 89 16 9f 3e ed 4c b4 be
       -0.2660629 0.025478216 0.3107188 -0.3521494
0002e0 6f 91 8b bd b1 79 67 bc e0 f7 3b 3e b5 c9 95 3e
       -0.06814849 -0.014128135 0.18356276 0.29255453
0002f0 59 54 48 3e 24 bf 51 be 66 a4 dd bc eb 1e de 3d
       0.19563426 -0.2048307 -0.02705593 0.10845741
000300 05 0e c9 bd 2a fa 04 3c 60 de 06 be cc 09 b5 3c
       -0.09817127 0.008116284 -0.13170767 0.022099398
000310 d9 e8 82 3e 6f 85 83 3e 34 8a b3 bc b1 84 a1 bd
       0.25568274 0.2568774 -0.021916486 -0.07886637
000320 f7 ef af ba 32 29 09 bd 1c 67 2e be da a3 8b be
       -0.0013422956 -0.033486553 -0.1703152 -0.27273446
000330 a2 7e 9d 3b c6 94 8c be b7 2a a6 3e b7 1e 6f 3e
       0.0048063556 -0.27457255 0.32454464 0.2335156
000340 13 01 5c be 32 77 28 3e 4d b0 05 be c1 9e 58 be
       -0.21484785 0.1645172 -0.13055535 -0.2115431
000350 23 2f 34 be f4 93 00 3d 8c fd 6b bd 1e 18 3f be
       -0.17596106 0.0313911 -0.057614848 -0.18661544
000360 ff 72 d8 3d 9e f1 69 3d c5 57 7f 3e fe 64 55 be
       0.10568809 0.05711519 0.24935825 -0.20839307
000370 32 40 7c 3e 58 82 73 be 39 a7 52 be d4 64 70 be
       0.24633864 -0.23780191 -0.20571603 -0.23475963
000380 94 bb 36 be 3c fc 2c 3e 93 a2 54 3e f8 13 b0 bd
       -0.17844993 0.16893095 0.20765142 -0.08597559
000390 cd 3d 72 bd d3 a1 3b 3e 58 bc 84 bd 8f ad 51 3e
       -0.05914097 0.1832345 -0.06481236 0.20476364
0003a0 68 fa 21 3e 65 2d 80 3e fd 58 66 3e 86 8b 7f 3e
       0.15818179 0.25034633 0.22494884 0.24955568
0003b0 09 2d 75 bd e6 ec e5 bd 06 69 bc 3d 58 4f f0 bd
       -0.059857402 -0.112268254 0.09199719 -0.117338836
0003c0 5d f8 82 3e e3 55 e8 3d 7d 9c 8e 3e 4d 05 3e 3e
       0.2558011 0.113445066 0.27853766 0.1855671
0003d0 b8 0d 5a 3e 3b 45 8b 3e 1a 1e 93 be bf 0e b3 bd
       0.21294296 0.27201256 -0.28733903 -0.08743047
0003e0 1e f0 7f 3e 63 af 84 be 54 28 07 3e 0a 3a 83 3d
       0.24993941 -0.2591506 0.13198978 0.064075544
0003f0 a0 5a a2 bb 69 fb 11 3e bb b4 6a 3d b6 75 b9 3d
       -0.004954651 0.14256062 0.057301264 0.09055655

bias_ih_l0 f4 [40]
000000 b6 63 43 be 55 10 80 3e 36 d8 1a 3e 58 ec 9a bd
       -0.19081005 0.2501246 0.1512154 -0.0756461
000010 60 c5 df bd 44 17 f4 bb 2d 4f 60 3e 00 74 ae be
       -0.10926318 -0.0074490625 0.21905203 -0.34072876
000020 3d d7 9d 3e 53 cf 3f 3d 8a 1b 60 bd 91 8e ab 3e
       0.30828276 0.04682858 -0.054713763 0.33507207
000030 04 f3 57 bd 37 f4 15 3e de 81 8b 3e b8 8a 63 be
       -0.052721992 0.14643942 0.27247518 -0.22220886
000040 83 f9 d7 bd af 8f 4f bc 03 ac 2e 3e 13 6c c1 3d
       -0.105456375 -0.012668534 0.17057805 0.09444442
000050 9a ca 9a be b1 29 45 3d 5f 83 0c ba f9 45 82 bc
       -0.30232698 0.048135463 -0.0005360152 -0.015902506
000060 90 be 03 3d 94 f1 94 bd 0f f4 06 bd dc 41 b8 bd
       0.032164156 -0.0727264 -0.032947596 -0.08996937
000070 8f 64 8c 3d 71 2a 5f be f9 fb 35 3e 82 7e 73 3d
       0.068551175 -0.21793534 0.17771901 0.05944682
000080 b7 61 05 be 80 20 1f 3e 76 38 c5 bd 10 1c f5 3d
       -0.13025557 0.15539742 -0.0962991 0.11968243
000090 9a 52 fa 39 c8 d0 56 3e fb fc 13 3d 41 d6 a7 bd
       0.0004774526 0.20978081 0.036129933 -0.081951626

bias_hh_l0 f4 [40]
000000 a0 8e 8d 3e 62 2d 4b be eb 7b 3c be ed 85 19 be
       0.27647877 -0.19841531 -0.18406646 -0.14992495
000010 f8 1d 38 3e c0 a4 47 3d d7 e6 90 bd 91 ce f8 3d
       0.17980182 0.048741102 -0.07075279 0.121487744
000020 75 3a 00 3e 6e e8 03 be ca c6 b6 3e ed a7 48 3d
       0.125223 -0.12881634 0.3569854 0.04898827
000030 a1 9b 89 3e 75 74 19 bd 5f 7e b1 3a e1 40 26 be
       0.26876548 -0.037464578 0.001354169 -0.16235687
000040 db f8 d2 3d bb 2b 8f 3c 59 b7 22 3e 4d a2 85 3e
       0.10301372 0.017476907 0.15890254 0.26100388
000050 f0 54 8f be 0b 27 29 bd 43 2a 04 3e 5b b5 3d be
       -0.2799449 -0.041297 0.12906747 -0.18526213
000060 c8 48 8c 3e f4 d9 c4 bd c4 de 52 be 06 28 4b bb
       0.27399278 -0.09611884 -0.20592791 -0.0030999198
000070 e1 92 19 3d 56 18 99 be ba 28 78 3d 28 85 85 bd
       0.03749359 -0.2990138 0.060585715 -0.06519538
000080 f8 39 1a be 39 52 48 3e da 6d b9 3e e6 ca 65 3e
       -0.15061176 0.19562615 0.36216623 0.22440681
000090 04 f1 47 3e bd 86 82 3e 32 2f 92 3e 18 34 6a be
       0.19525534 0.25493422 0.28551632 -0.22871435

weight_ih_l0 f4 [40, 22]
000000 6a 05 c6 bc d1 2c 7e be 51 84 ad bc 77 68 13 bd
       -0.024172504 -0.24821784 -0.021181257 -0.035988297
000010 2d c6 6a 3d f4 60 69 bd c4 e9 c3 3c 1c d8 31 bc
       0.0573179 -0.056977227 0.02391518 -0.010854747
000020 80 f3 82 bd 34 68 9a 3e c3 9b e3 bd c0 25 b9 3d
       -0.063941 0.30157626 -0.111136936 0.09040403
000030 07 c2 9c bd ef 9f 50 3e a3 ef b9 3c 15 c2 a3 3e
       -0.07654195 0.2037351 0.022697276 0.3198401
000040 52 c9 39 3d ac a4 12 3e f6 02 a5 bd 48 c0 dc 3d
       0.04535801 0.1432063 -0.080572054 0.10778862
000050 1a ee bc bd 25 68 46 be 03 d0 88 3e 2e e6 bb 3e
       -0.09225102 -0.19375665 0.267212 0.3669905
000060 91 b8 4f 3e f2 7c 14 3c b3 39 1d 3e 8a df 5b 3d
       0.2028525 0.009062992 0.15354042 0.05367998
000070 d9 a4 aa bd 3d 3f fb 3c 75 ee 89 3a e1 a2 84 3e
       -0.083322234 0.030669803 0.0010523336 0.25905517
000080 ac f1 7a be 83 50 a6 3e d5 47 17 3e 16 f3 66 be
       -0.24506253 0.324833 0.14773495 -0.22553667
000090 65 71 06 3e 61 02 f0 3d f4 0b 3b 3e 1c 0e 0c be
       0.13129194 0.11719204 0.18266279 -0.13677257
0000a0 16 ee 88 be 3a da ca 3d f8 07 db bd e1 fa b1 bd
       -0.26744145 0.09904905 -0.10694879 -0.086904295
0000b0 9d b1 52 3e 20 0e 5d 3e 4e 9e 80 3e 28 dd 64 bc
       0.20575567 0.2158742 0.25120777 -0.013968743
0000c0 79 01 5d 3e 69 c4 df 3d 09 02 40 be 5a 74 9d 3b
       0.21582593 0.10926134 -0.18750776 0.00480513
0000d0 97 66 2b be 0c 50 27 bc 13 1f 8d be c8 3c 93 ba
       -0.16738354 -0.010211956 -0.2756277 -0.0011233324
0000e0 55 0e 8e be 2c 97 22 be 6d d0 97 bd e2 78 b7 3d
       -0.2774531 -0.1587798 -0.07412801 0.089586034
0000f0 5f b0 07 be 95 81 5a 3d f5 f0 f6 3d 84 a9 67 be
       -0.13250874 0.053346235 0.12057678 -0.22623259
000100 16 04 fc 3c 6e c2 54 3a 3b ce a1 3d 81 24 80 3d
       0.030763667 0.00081161305 0.079006635 0.062569626
000110 e1 33 36 be 86 28 9d 3e 54 56 ec bd cc a2 07 be
       -0.17793228 0.3069498 -0.11539903 -0.13245696
000120 3d 0a 70 be e0 dd 30 3e 8b fe 52 3e 7e 12 74 3d
       -0.23441406 0.17272139 0.20604913 0.059587948
000130 7d 93 bd be 37 35 67 bb 15 da 9f be ac de 77 3e
       -0.37026587 -0.0035279521 -0.3122107 0.24206036
000140 41 1c 79 3c f7 db 2f 3b ff 90 e3 bc 3a 1b 7b 3c
       0.01520449 0.002683399 -0.0277791 0.015326316
000150 ac d9 a6 be 9b 21 36 3e 52 09 c1 3e f9 43 a6 3e
       -0.32587945 0.17786257 0.37702423 0.32473734
000160 e1 a9 a4 be b8 66 20 be 42 de b8 3d 8a 81 25 be
       -0.32160857 -0.15664184 0.09026767 -0.16162696
000170 fa da d6 3c af 11 95 3e 01 95 83 3e ef 5c 58 3d
       0.026227463 0.29115054 0.25699618 0.052823003
000180 72 de 2b be 62 2e bb bd 36 3c 64 3e 68 a4 32 be
       -0.16784075 -0.09139706 0.22288594 -0.17445529
000190 da fe af 3d f5 b9 df bc 97 83 24 3e 13 e8 8b bd
       0.08593531 -0.02731035 0.16065823 -0.06831374
0001a0 ac e3 84 be bd ef a9 3d bd 6f 9b 3d af e9 3a bd
       -0.2595495 0.082976796 0.07589672 -0.045633014
0001b0 f7 b1 01 bd 2b ba 9b be f2 55 c7 3d 02 64 04 3e
       -0.03166386 -0.30415472 0.0973319 0.12928775
0001c0 67 b5 31 3e b5 af c2 3c dc 99 61 be e4 20 79 3d
       0.17354356 0.023765424 -0.22031349 0.060822383
0001d0 3d ce 60 be 75 04 56 bc b8 94 5d be 35 cb 29 3d
       -0.21953674 -0.013062586 -0.21638763 0.04145356
0001e0 6f 64 a6 3d 5a 67 68 3e 4f 2d 5f bd 9b e5 2e 3e
       0.08124625 0.22695675 -0.05448657 0.17079775
0001f0 48 6e d0 bc 2e 6d 55 be d5 83 62 be 5f 76 70 be
       -0.025443211 -0.2084243 -0.22120602 -0.23482655
000200 4c 93 9d bd 75 d0 12 3e 1d 7a e4 bd 3f af 63 3e
       -0.0769411 0.14337333 -0.11156104 0.2223482
000210 8e a3 06 bd 58 62 9c be 04 91 2c 3d 19 83 8b bc
       -0.03287082 -0.3054378 0.042130485 -0.017030286
000220 43 4d 7d 3d b1 42 35 3e 12 9e a3 3d bd bc 44 be
       0.06184126 0.17701222 0.07989134 -0.19212623
000230 4c 02 23 be e2 97 a7 3c b2 20 55 3c 6c cb 8f 3d
       -0.15918845 0.020458166 0.013008283 0.070212215
000240 95 fe ad be 2c 10 11 be 7b d7 87 3d f7 33 b3 3e
       -0.33983293 -0.14166325 0.066328965 0.35000584
000250 b4 17 0a 3e d7 1f 14 be 92 27 51 3e 96 e2 52 3e
       0.13485605 -0.14465271 0.20425251 0.20594248
000260 f7 b2 49 3e a2 c7 46 be 79 7c c6 bc c0 a9 92 bb
       0.19697176 -0.19412091 -0.024229275 -0.004475802
000270 95 11 59 be 4e 77 71 bb c9 c2 c0 3d 83 f1 88 3e
       -0.21198113 -0.0036844793 0.09412152 0.2674676
000280 8f a6 d1 bd ba 93 d2 3c 79 e1 60 be 2e 68 eb 3d
       -0.10236847 0.025705207 -0.21961011 0.1149448
000290 7d dd 2c bb bb 86 8c be 4e 64 68 be 89 18 04 be
       -0.0026377134 -0.2744654 -0.22694513 -0.12899984
0002a0 ca dd 8f be 9c c2 44 be 59 a1 1d be 85 2c 48 3e
       -0.280989 -0.19214863 -0.1539358 0.19548233
0002b0 83 64 50 be f8 0e 3f 3d d5 96 5d be 61 1e 85 3d
       -0.20350842 0.046645135 -0.21639569 0.06499935
0002c0 05 f7 8a 3d 6b 2e 8d be ba 35 9a be 8f 39 95 3e
       0.067853965 -0.27574477 -0.30119115 0.29145476
0002d0 ca fd 8a be dd 89 5f be 75 fc 84 be 22 3f 1e be
       -0.2714675 -0.21829934 -0.2597386 -0.15453771
0002e0 06 97 a5 3e d1 87 c0 bd 39 43 1c 3e 69 3c bb 3e
       0.32341784 -0.09400905 0.15260018 0.36569527
0002f0 5a b8 88 be d6 47 44 3e ce a3 2f 3e b0 3c 8f 3e
       -0.2670315 0.19168028 0.1715233 0.27975988
000300 51 18 61 3e 5a 80 87 3e ed e8 a8 bd 28 3f 29 3e
       0.21981932 0.26465112 -0.08247552 0.16527998
000310 02 74 99 3e d0 88 5f 3e 35 d6 bb bd da fd 1f 3e
       0.2997132 0.21829534 -0.09171716 0.1562418
000320 81 2c 80 3d c0 85 89 be 8f a0 a2 be 64 a1 88 bd
       0.062584884 -0.26859856 -0.3176312 -0.06671408
000330 99 a0 b8 3c 9f eb 31 3e 40 dc 27 be 5d 48 8b 3d
       0.022537516 0.17375039 -0.16392612 0.068009116
000340 23 ba 15 3e 14 3a 2c be d4 22 1e 3e b9 11 2c 3c
       0.14621787 -0.1681903 0.15442973 0.010502272
000350 3d 2d 58 bd 83 cb 95 3e 1c 6e 47 bd ec 36 5d 3e
       -0.052777518 0.2925683 -0.048688993 0.21602982
000360 eb ee b1 bd 6a ee 1e be cd 04 c1 3d 71 8b 9e bd
       -0.08688148 -0.15520635 0.09424744 -0.0774144
000370 a0 f7 90 3d f9 d8 ba 3c 6b c8 9c be 8d e1 14 bd
       0.07078481 0.022808539 -0.30621657 -0.036347914
000380 18 47 66 be c0 53 a9 3e 5d a5 5f 3e c8 28 59 3e
       -0.22488058 0.3307171 0.21840425 0.21206963
000390 c8 4a d8 bd e2 fd 8b 3e fa 1c 7b 3e 75 cf b3 3e
       -0.105611384 0.27342135 0.24522772 0.35119215
0003a0 d1 8b 75 3e 5f b7 a4 bd 31 68 a6 bd de 8d da 3d
       0.23979117 -0.08042788 -0.08125342 0.1067159
0003b0 59 ad 95 be 93 6f 43 bb fd 13 87 3e de 3b 8e 3e
       -0.29233816 -0.0029821142 0.26382437 0.2778005
0003c0 16 11 b4 3e 9e 3c 37 3e 70 76 83 3d 16 ce 0b 3e
       0.35169286 0.17894217 0.064190745 0.13652834
0003d0 6d 9e 19 be 82 2b d6 3d 33 e6 73 be f2 1b 34 3c
       -0.15001841 0.10457517 -0.23818283 0.010992991
0003e0 62 15 a0 be 89 be a4 bd e6 c8 e6 3d 94 44 98 3c
       -0.31266314 -0.08044154 0.11268787 0.018587388
0003f0 be 62 47 be 89 fd 17 3e 04 c4 44 3e b6 b3 52 3e
       -0.19471261 0.1484281 0.19215399 0.20576367

weight_hh_l0 f4 [40, 10]
000000 09 e6 c3 3c 85 25 a0 bd 13 47 a5 bd 33 50 64 3d
       0.0239134 -0.07819656 -0.08070197 0.055740546
000010 95 90 ab 3d b8 ff 91 bd 43 83 b0 3d 90 de a6 bd
       0.08377186 -0.071288526 0.08618786 -0.08147919
000020 41 87 a5 be c2 2e 9b be 75 91 01 3d 45 08 b6 be
       -0.32329753 -0.3030911 0.03163286 -0.35553184
000030 2d 47 96 3e 0d c8 b3 bd 15 02 b5 bd 52 e6 9c be
       0.29351178 -0.08778391 -0.08838288 -0.3064447
000040 48 58 70 be c3 71 b0 bc 77 3c 94 3d b6 09 8f bd
       -0.23471177 -0.02153862 0.07238095 -0.06984274
000050 64 9a 35 3d 08 3c 6f 3e b4 f6 35 bd 01 ea 84 3e
       0.04433669 0.23362744 -0.044424728 0.2595978
000060 3f 4d 35 3d 03 e8 14 be 68 40 56 be 15 35 a5 be
       0.04426312 -0.1454163 -0.20923007 -0.3226706
000070 47 21 64 be 70 58 6a 3d 71 5a f2 bc e7 ae 01 3e
       -0.2227832 0.057213247 -0.029584141 0.12664376
000080 0f 3c 1c 3d 7a 52 47 3d 20 8f 37 3e 35 60 4a be
       0.038143214 0.04866264 0.17925692 -0.19763263
000090 d0 ce a9 3e 12 4b 31 3e 73 3b 34 bd 8b 86 1a 3d
       0.33165598 0.17313793 -0.044002008 0.037725966
0000a0 e7 ba df bb 6c 01 35 3d 22 bd f8 bd 71 29 63 bd
       -0.0068277004 0.04419081 -0.12145449 -0.055459443
0000b0 9b 66 3c 3e 7d 8c 8c be f1 19 95 bd 10 6c 6f bc
       0.18398516 -0.27450934 -0.072803386 -0.014613166
0000c0 2e 66 84 bc 89 6f 33 3d 95 06 d7 bd 84 b5 42 be
       -0.016162004 0.04380754 -0.10499302 -0.19014555
0000d0 12 e4 66 bb ca 48 25 3e 44 f3 81 3e ed 3d 16 be
       -0.0035231155 0.16141048 0.2538091 -0.1467206
0000e0 65 63 77 3e fa ca 26 3e 65 69 af 3d 40 34 91 3e
       0.2415901 0.16288367 0.08565024 0.28360176
0000f0 86 6d 8a 3e 65 c9 cb bd ec 23 c0 be e4 1d c8 3e
       0.27036685 -0.09950522 -0.37527406 0.39085305
000100 ed e4 97 bd 8c 70 18 be f3 ba 3c 3e 85 d8 3e be
       -0.07416711 -0.14886683 0.1843069 -0.18637283
000110 92 f0 72 be cf 3f 17 3e 4b 7b 15 3d ca bb 40 bd
       -0.23724583 0.14770435 0.036494534 -0.04705409
000120 99 a8 1b be 0e 91 f2 3d dd 58 c8 3c 43 bd ac be
       -0.15201034 0.11844073 0.024456436 -0.33738145
000130 0d d6 b9 bd 5d d6 6c 3d 41 c3 59 3d 9a a9 03 3e
       -0.0907403 0.05782162 0.053164724 0.12857667
000140 0e 5f 1f be 64 56 df bd 96 23 08 3e 98 7f a6 bd
       -0.15563604 -0.109051496 0.13294825 -0.08129805
000150 2d 47 7b be 38 7e 28 3d ca 88 a1 bd 76 1b e6 bc
       -0.2453887 0.041135997 -0.078874186 -0.028089266
000160 35 d8 8a bd 67 aa 75 bd 9d ee 58 be 8f a8 27 3c
       -0.067795195 -0.05997696 -0.21184774 0.010233059
000170 3c 7f a3 be 12 29 85 be 79 5e a6 3e 85 1f 72 3e
       -0.3193301 -0.26007897 0.32493952 0.23644836
000180 6c 34 75 3e 26 9a e7 3c 19 66 7f be 88 31 a9 bc
       0.23945779 0.028271746 -0.24941291 -0.020653501
000190 ae 28 24 bd e4 e8 b4 be d8 28 8f bd 94 7e 57 3e
       -0.040077858 -0.3533393 -0.06990212 0.2104438
0001a0 0d 9a af 3c bb b4 e0 bb 01 98 02 be 44 57 01 be
       0.021435762 -0.0068574823 -0.12753297 -0.12630945
0001b0 50 12 b1 be 0d c6 2d 3d 43 ad d0 bd 41 28 b0 be
       -0.34584284 0.042425204 -0.10189297 -0.3440571
0001c0 09 55 71 3e 46 3a 1c be fb 51 38 be f7 05 2c bd
       0.23567595 -0.15256605 -0.18000023 -0.041997876
0001d0 a6 3b 4d 3e 4c 0f 5f 3e 45 fe 1a be a0 93 0e 3e
       0.20042285 0.21783179 -0.15136059 0.13923502
0001e0 5b 64 01 3e 20 74 05 3e 83 c1 89 be 24 b9 50 3e
       0.12635939 0.1303258 -0.2690545 0.20383126
0001f0 8f a1 6a be df b6 fb 3c 9a ca 94 bd c8 98 a8 be
       -0.22913192 0.030726848 -0.07265206 -0.32929063
000200 3c 96 1c be 4b b2 ac 3d c4 5e f3 3d 5e 70 22 3e
       -0.15291685 0.08432444 0.118833095 0.15863177
000210 3f 8a f1 bd 5e 9d 73 3e ae 21 88 be b8 f6 91 be
       -0.117939465 0.237905 -0.26588196 -0.28508544
000220 32 d6 21 be fb b0 15 3e 19 46 55 3d 7d da 74 be
       -0.15804365 0.14618294 0.052068803 -0.23911472
000230 26 3e 42 3e a6 6b 5c 3e df 33 93 ba 89 ad c5 bd
       0.1896902 0.2152544 -0.0011230669 -0.0965224
000240 af 0e 40 3d 21 09 a3 3e 24 f9 29 3e 24 23 27 be
       0.046889003 0.31842902 0.16598946 -0.16321999
000250 9d 2c 2b 3e 09 ce dc bd ec 69 24 be fe 1f 17 3e
       0.16716237 -0.107814856 -0.16056031 0.14758298
000260 13 59 ac 3d 79 e6 90 3e 11 cc 49 be d4 f1 41 be
       0.08415427 0.28300837 -0.19706751 -0.18939906
000270 53 84 02 3d 97 86 06 3e ce 72 91 be 42 9b 5b bd
       0.031864475 0.1313728 -0.28407902 -0.053614862
000280 75 29 40 3e 0e 0a 47 3e 71 34 a0 be e9 1a 58 3e
       0.18765815 0.1943743 -0.3129001 0.21104015
000290 34 d0 5d 3e 14 46 75 bd 64 5a b8 3c 42 00 c5 be
       0.21661454 -0.059881285 0.02250404 -0.3847676
0002a0 56 5c 1a 3e b1 7c 90 3d c4 28 66 bd a8 ea d8 bb
       0.15074286 0.07055033 -0.05619122 -0.00661977
0002b0 d7 60 b7 3c 00 4f 12 3e ed 39 ea bd 47 20 fa 3c
       0.022385044 0.14287949 -0.1143683 0.03053297
0002c0 6d b7 7c be cd bb a9 bd 77 39 bf be 1e 9a 70 3e
       -0.24679346 -0.08287773 -0.3734853 0.23496291
0002d0 f6 6a a2 bd 38 49 c5 3d 73 fc b2 bd f2 64 53 be
       -0.079305574 0.09633106 -0.08739557 -0.20643976
0002e0 1a 5d 23 3e a4 72 f6 3c 09 72 c1 3d da 1b 59 3e
       0.15953484 0.030083962 0.094455786 0.21202031
0002f0 b4 29 f4 bd b2 2c e6 bd 5d e4 73 bd 87 9e 27 3e
       -0.11922017 -0.11238994 -0.059543956 0.16369067
000300 a3 eb 1f bd f1 a3 54 3e f1 c5 cc bd 75 a5 2a be
       -0.03904308 0.20765664 -0.09998692 -0.1666468
000310 8e 4a 80 3c 7f e1 8e be bd ec 84 3e d5 4b 17 ba
       0.01566055 -0.27906415 0.25961867 -0.0005771493
000320 8c 23 77 be 25 ea 91 be eb d3 b0 be bf 5e 98 bc
       -0.24134654 -0.2849895 -0.3453668 -0.018599866
000330 b9 93 58 bd 53 b8 f6 3d d1 c0 57 be b2 50 1c 3e
       -0.052875254 0.12046876 -0.21069647 0.15265158
000340 be 23 19 be 55 4f 8c 39 5d b6 ab be c1 ac 9a 3e
       -0.14955041 0.00026761988 -0.3353757 0.30209926
000350 b0 ba 07 3d eb c6 2a be a4 bb 9b bd 36 11 55 be
       0.033137023 -0.16677444 -0.07604149 -0.20807347
000360 20 80 a7 bd 14 45 ea bd 3d 6c c8 3e e1 c5 41 3e
       -0.08178735 -0.11438957 0.3914508 0.18923141
000370 85 52 ee bd f6 2d 72 3e a2 f1 4b be 86 e5 91 3d
       -0.11636833 0.23650345 -0.19916394 0.07123856
000380 4b c7 8c bc be b3 92 bc fb de 80 3e a6 de 97 3e
       -0.017184874 -0.017907973 0.2517012 0.29662055
000390 a0 2d 34 3e 3e bc bb bd e9 e8 d9 bd c8 9a 1a 3d
       0.1759553 -0.09166764 -0.10640127 0.037745267
0003a0 d5 85 9a bd cf d5 ea 3d bf 36 4a 3e 9b f8 87 bd
       -0.07545058 0.11466562 0.19747446 -0.066392146
0003b0 5e 35 ad 3e 60 68 4c be 5c 97 85 be f7 d4 70 3e
       0.33829778 -0.19961691 -0.2609204 0.2351874
0003c0 d3 50 38 3e 1e 15 40 be 5b a2 2d be a6 19 23 3e
       0.17999582 -0.18758056 -0.16956465 0.15927753
0003d0 fa 39 c3 3d e1 17 95 bd 6b 14 a1 3d 4d 1c b5 bc
       0.095325425 -0.07279945 0.078652225 -0.022108221
0003e0 df c5 56 3e 4c 66 d0 3c c5 b6 f9 3d 8f 45 8a 3e
       0.2097392 0.025439404 0.12193064 0.27006194
0003f0 75 d1 4a 3e 50 45 0f 3d ff 95 2f be 79 43 63 be
       0.19806464 0.03497821 -0.17147063 -0.22193708

bias_ih_l0 f4 [40]
000000 1b 40 c0 bd 43 bb 41 bd e9 cf 39 3e 22 ca 21 3c
       -0.09387227 -0.047297727 0.18145718 0.009874852
000010 b1 a9 8e be 06 8d 7d 3d ea 5c ec bc d2 e0 31 be
       -0.2786384 0.06190207 -0.028852899 -0.17370918
000020 91 1b 80 3e 39 81 25 bc e6 1a a7 3e db 1e 22 be
       0.25021031 -0.01010161 0.3263771 -0.15832083
000030 86 25 41 3e d9 0b ad 3d dd 1c 12 bd c5 86 d6 3d
       0.1886197 0.084495254 -0.035672057 0.10474924
000040 b4 e1 21 be 62 9e b7 3e 90 f3 41 3e a1 e3 14 be
       -0.15808755 0.35863024 0.18940568 -0.14539959
000050 0b f7 a8 3e f5 47 30 3e 8f 59 12 be 4f 00 fd bd
       0.3300098 0.1721495 -0.14291976 -0.123535745
000060 40 db b3 3e 7d be a0 be f6 48 54 be bd 20 95 bd
       0.35128212 -0.3139533 -0.20730957 -0.07281635
000070 cf d3 77 3e 1c 5f 58 3e 7b 7d 8d bd 2e 51 40 be
       0.24201892 0.21130031 -0.06908699 -0.18780968
000080 5e 90 c3 3d e8 0d 06 bd ba 10 5c be 83 e8 5a 3e
       0.0954902 -0.032728106 -0.21490756 0.21377759
000090 cd ac eb 3d c1 67 8c 3d 53 fb 61 be 00 ba 13 3d
       0.115075685 0.06855727 -0.22068529 0.036066055

bias_hh_l0 f4 [40]
000000 48 77 55 3e c7 fe 78 3e 6f 63 06 be 61 d9 be 3e
       0.20846283 0.2431594 -0.13123868 0.37275222
000010 eb 72 10 3c 9e 2d 5e be 01 11 c5 bd 75 29 3b 3d
       0.008816461 -0.21697089 -0.09622384 0.045693833
000020 25 77 c1 3e c9 c9 a8 3e bb 88 0b 3e 5f 0f 4f 3d
       0.37786213 0.3296645 0.13626377 0.05055177
000030 bd d0 80 3e d9 5d 0d 3e 35 d6 57 be b1 35 a2 bd
       0.25159255 0.13805331 -0.21077807 -0.07920397
000040 00 15 e3 bd 45 11 8c 3e 77 ca 09 3d 25 69 25 be
       -0.1108799 0.27356926 0.03364035 -0.1615339
000050 94 6c 39 be be be bd be 4f 29 fc 3d 79 55 3e bd
       -0.18107826 -0.37059587 0.123125665 -0.04646823
000060 e0 5a 98 3e b2 f6 7b 3d 88 11 5a bd 19 7b 9b be
       0.29756832 0.061514564 -0.053239375 -0.30367354
000070 11 df 35 bc 07 9b e3 3d 73 28 0b be f8 59 ae 3e
       -0.011100546 0.111135535 -0.13589649 0.34053016
000080 d5 c5 77 be 04 7f db 3d 33 fa 48 3e b3 ba b2 bd
       -0.2419656 0.10717586 0.19626693 -0.08727016
000090 bd 90 70 be 01 3d 56 be d9 f0 ea bd 98 ba 80 be
       -0.23492713 -0.20921709 -0.11471719 -0.2514236
