LSTM/code/model/old_model/model_mk6_300epoch_0.2878trainloss_0.5331validloss.pt (torch, 46404 bytes, 32 tensors)

weight_ih_l0 f4 [40, 22]
0.12150718 -0.001462159 -0.26955602 0.23746128 -0.03351123 0.20931886 -0.04781606 -0.10207994
-0.14907798 0.12486972 0.044998243 0.30172282 -0.27901697 -0.0032323934 0.09224905 -0.16886878
-0.08289845 -0.16648044 0.19441591 0.29768905 0.10248629 -0.10852305 0.12961942 0.013084908
0.013187335 -0.122028396 -0.14781019 0.27235937 0.20512727 0.18468092 -0.038594402 0.24045049
0.27408534 0.336619 -0.1878845 0.1738748 0.16116962 0.068526514 0.11040235 0.25008076
0.12581265 0.043220524 0.19377114 -0.14065942 0.26934457 0.11570044 0.046225335 -0.20427015
0.24340276 0.3227101 0.023182325 -0.26271787 0.28764948 -0.14438604 -0.361802 -0.26100698
0.14836144 -0.2107341 0.1861283 0.32585678 -0.18991198 0.2046941 -0.25150788 -0.25037897
0.12544674 0.18117917 0.098959886 -0.3514386 -0.10742563 0.17480375 0.23877417 -0.16967468
-0.045621432 0.01960468 0.09342447 0.24897753 -0.2396908 0.05479076 -0.277395 -0.08598077
0.115875006 -0.23118882 0.22615066 -0.32495522 -0.1494399 0.3459633 -0.050423462 -0.06854079
-0.11594392 0.31073737 -0.021221591 -0.034339953 0.22727227 -0.16247202 0.0013722824 0.07177285
-0.32487902 0.04379073 0.2035259 -0.20402572 0.15096627 0.12583019 -0.20437093 0.26889336
0.023065222 -0.0023561574 -0.20119314 -0.12998736 -0.2591274 0.12367818 0.13685551 0.23811233
0.07448147 0.2215311 0.10163173 0.15046453 -0.2692521 -0.04878139 -0.13362087 -0.1694716
0.048621327 0.33342242 -0.17789593 -0.16424027 0.158382 0.15418221 0.12288577 0.0483912
-0.16098599 0.25270438 0.28478464 0.17059502 0.19887292 -0.20868291 -0.0769251 0.03491954
-0.0357082 -0.10713908 0.24523543 0.10717547 -0.062422816 0.27214462 0.042437177 0.11784964
0.050116215 0.0030109023 -0.09646894 0.25221252 -0.032518815 -0.04922107 0.1944398 -0.16065235
-0.03936931 0.12579535 -0.14339848 -0.09171899 -0.12781036 -0.040536348 -0.33129743 -0.28929147
0.2804359 0.16050397 0.15051869 0.11412508 0.11946983 -0.2529111 0.19988398 -0.3006565
0.2057937 -0.0806697 -0.13997155 0.22761108 -0.22083479 0.20271309 -0.059089754 -0.070257075
-0.26560614 -0.2965128 -0.08013855 -0.0872993 -0.2365515 0.17530741 -0.31705585 0.05122634
-0.068676375 -0.2125415 -0.34156123 -0.1362107 0.29783326 -0.25536203 -0.31714764 -0.087364025
-0.16577734 -0.17825235 0.09426082 0.08967708 -0.01983706 0.23362896 0.23956805 0.07495945
-0.15051056 0.38670066 -0.17541891 0.12546782 0.028315121 -0.071628265 -0.16704692 -0.3426497
0.04093189 0.21905084 -0.09649916 0.19288833 0.018160997 0.3633795 0.057793945 0.15643847
-0.38595834 0.3859158 -0.07349107 0.3929601 0.23314393 0.030964728 -0.052679975 0.048568714
0.19223285 -0.05496362 -0.20419888 -0.17899756 -0.120847546 0.08072731 0.18228385 -0.07467852
0.28446183 -0.29216453 0.1929662 -0.17925434 -0.03663039 -0.31589893 -0.20076029 0.39080724
0.17184202 0.22286814 -0.18088692 -0.2772234 -0.015944252 0.4102247 0.052684378 -0.1814479
-0.12902547 -0.11801271 0.18152605 0.08277724 -0.32925233 -0.16233802 0.17927891 0.030566253
00000000: c2d8 f83d eaa5 bfba 3f03 8abe 0d29 733e
00000010: 1243 09bd af57 563e c6da 43bd 4a0f d1bd
00000020: e6a7 18be b2bb ff3d 1450 383d 6a7b 9a3e
00000030: 50db 8ebe 90d6 53bb 12ed bc3d f0eb 2cbe
00000040: aac6 a9bd d979 2abe f714 473e b36a 983e
00000050: 55e4 d13d 5541 debd f4ba 043e 1562 563c
00000060: b10f 583c 06ea f9bd 8e5b 17be b072 8b3e
00000070: e20c 523e ff1c 3d3e 2a15 1ebd a738 763e
00000080: ea54 8c3e 5359 ac3e cb64 40be 3c0c 323e
00000090: a609 253e a157 8c3d a11a e23d 960a 803e
000000a0: 08d5 003e 0108 313d f16b 463e 0609 10be
000000b0: 88e7 893e 5af4 ec3d c756 3d3d 322c 51be
000000c0: 933e 793e 423a a53e dce8 bd3c f582 86be
000000d0: cb46 933e efd9 13be 1d3e b9be b5a2 85be
000000e0: 10ec 173e aeca 57be 6b98 3e3e b3d6 a63e
000000f0: 4978 42be 559b 513e a4c5 80be ac31 80be
00000100: 1c75 003e 0887 393e 7bab ca3d c3ef b3be
00000110: f801 dcbd c1ff 323e 3781 743e 33bf 2dbe
00000120: 8add 3abd fe99 a03c 5455 bf3d f7f3 7e3e
00000130: 8171 75be 476c 603d b806 8ebe b016 b0bd
00000140: e04f ed3d c3bc 6cbe 0a94 673e 8860 a6be
00000150: c606 19be 1a22 b13e d588 4ebd 1d5f 8cbd
00000160: 0274 edbd f818 9f3e e7d8 adbc 0da8 0cbd
00000170: 10ba 683e 115f 26be 28de b33a a5fd 923d
00000180: 8b56 a6be e95d 333d 1869 503e 1eec 50be
00000190: e796 1a3e a1d9 003e 9d46 51be 64ac 893e
000001a0: 47f3 bc3c c369 1abb 9305 4ebe 681b 05be
000001b0: 59ac 84be fc4a fd3d da23 0c3e b8d3 733e
000001c0: be89 983d 0cd9 623e 4c24 d03d 6013 1a3e
000001d0: 69db 89be ffce 47bd e9d3 08be f789 2dbe
000001e0: 2827 473d 58b6 aa3e 5a2a 36be 9a2e 28be
000001f0: e42e 223e f1e1 1d3e 89ab fb3d da35 463d
00000200: 83d9 24be 7862 813e 4bcf 913e 76b0 2e3e
00000210: 58a5 4b3e f9b0 55be e88a 9dbd cb07 0f3d
00000220: c342 12bd bc6b dbbd ff1e 7b3e d07e db3d
00000230: 11af 7fbd 8a56 8b3e 9bd2 2d3d 275b f13d
00000240: a946 4d3d 8f52 453b 8291 c5bd 0022 813e
00000250: 7332 05bd 089c 49bd 3a1b 473e 0d82 24be
00000260: b741 21bd 7fd0 003e 0dd7 12be 2ad7 bbbd
00000270: b8e0 02be 7109 26bd d19f a9be 031e 94be
00000280: 4b95 8f3e 275b 243e 9221 1a3e 69ba e93d
00000290: 99ac f43d 907d 81be 63ae 4c3e a6ef 99be
000002a0: 95bb 523e 2836 a5bd b454 0fbe e112 693e
000002b0: 8422 62be 0594 4f3e 1908 72bd f1e2 8fbd
000002c0: 87fd 87be 87d0 97be ae1f a4bd fac9 b2bd
000002d0: 8e3a 72be c983 333e 2555 a2be b6d2 513d
000002e0: 33a6 8cbd 7ba4 59be 1de1 aebe d17a 0bbe
000002f0: 9a7d 983e d0be 82be 2d61 a2be e9eb b2bd
00000300: 89c1 29be c987 36be d10b c13d 9ea8 b73d
00000310: 5481 a2bc 6e3c 6f3e 5451 753e 5784 993d
00000320: 711f 1abe a1fd c53e 04a1 33be a37a 003e
00000330: 1df5 e73c d7b1 92bd 590e 2bbe c86f afbe
00000340: 33a8 273d dd4e 603e 5aa1 c5bd 8584 453e
00000350: 5fc6 943c e10c ba3e 58b9 6c3d 6831 203e
00000360: 559c c5be c196 c53e 7c82 96bd 1132 c93e
00000370: 48bd 6e3e bea9 fd3c f5c6 57bd fdef 463d
00000380: b0d8 443e 8821 61bd 8319 51be 234b 37be
00000390: eb7e f7bd 5c54 a53d 9ea8 3a3e 0df1 98bd
000003a0: fba4 913e 9796 95be ee98 453e 738e 37be
000003b0: bf09 16bd 81bd a1be 1b94 4dbe e317 c83e
000003c0: 5bf7 2f3e 8c37 643e 6c3a 39be 3af0 8dbe
000003d0: 859d 82bc f908 d23e 93cb 573d 7acd 39be
000003e0: 411f 04be a6b0 f1bd f7e1 393e 1d87 a93d
000003f0: c393 a8be f03b 26be e494 373e 1466 fa3c

weight_hh_l0 f4 [40, 10]
0.08830518 0.34009317 -0.23121724 -0.14659093 0.017473416 -0.05909335 0.19942583 0.19868271
-0.09273954 -0.2573148 0.0061630695 -0.05304044 -0.1953716 0.12953918 -0.20476499 0.117622584
-0.36967343 -0.37452137 -0.16453718 0.115451045 -0.025226587 -0.207223 0.17460935 -0.09760899
0.30114967 -0.22296534 -0.017950099 -0.21934201 0.0904746 -0.04059395 -0.2524983 0.16771203
0.2581404 -0.107186824 -0.15277158 0.18123858 -0.30730143 0.16892967 0.17232236 -0.18972561
-0.23014884 -0.06588713 0.253284 -0.27987987 0.30776858 0.03688158 -0.23078287 -0.18727285
-0.119924515 -0.08139936 0.22135574 0.27930206 0.18710855 0.2332057 0.35636595 -0.04125022
0.07050888 0.20484306 0.08329204 -0.23166949 0.3399971 0.14628106 0.08681034 0.2522853
-0.023830062 0.17539962 -0.18992956 -0.06525415 -0.25059456 0.17453127 -0.17178655 -0.19663168
-0.06870455 -0.17222477 -0.14226928 0.103605315 0.0840154 0.13614438 0.2037959 0.09046679
0.12919618 0.20541602 0.29600173 0.09449174 -0.14918885 0.058426257 -0.06646814 -0.31186903
0.075340785 -0.30492073 -0.12488663 0.006004133 0.21499822 0.15886451 0.06941118 -0.20837943
-0.027376594 -0.16886954 0.023895789 -0.36028486 0.3014209 -0.089811236 0.4119147 0.053437553
0.15538679 0.37829828 -0.103946894 0.058013674 -0.021812046 0.022712855 0.074860655 0.4316325
0.1557726 0.005262254 0.27013773 -0.115085974 -0.09206236 -0.2160388 -0.40743485 -0.027940607
0.21013182 0.11527677 0.34686008 0.13377519 0.17719248 0.34367102 -0.12006914 -0.19247872
-0.3636966 -0.14342737 0.20993608 0.40249416 0.29044345 -0.33518678 0.081243895 -0.12090671
0.12459469 -0.1201226 -0.43300816 -0.09748334 0.094064064 -0.26013085 -0.1003803 0.16245037
0.07479706 -0.006533683 0.2598123 0.25629434 -3.869089e-05 -0.15765236 -0.06455905 0.19697683
0.19134328 0.0024982237 0.29747155 -0.019334393 -0.34435362 -0.06521643 -0.031167747 -0.39952317
0.05220603 0.15527472 -0.053657588 0.10187058 -0.124880895 0.35077307 -0.11556769 -0.050774403
0.094046935 0.006469307 0.18599615 -0.18008907 0.13200286 -0.039112538 0.37220022 0.10668394
0.26550788 -0.025501844 -0.09974565 -0.3150946 0.030794526 0.004360547 0.42220035 -0.20608652
0.29083112 0.12424496 -0.12563172 0.00772924 -0.34350163 0.147433 0.17726703 0.28860995
0.12244255 -0.15171058 -0.22207314 -0.005104189 -0.07409035 -0.020136142 0.12693812 -0.06004476
-0.16259377 0.23356684 0.17567472 -0.10650219 -0.15753783 -0.022892477 0.07561242 0.012187811
-0.008752713 0.03295891 -0.27639887 -0.10286471 0.405399 -0.020421648 0.1911479 -0.14050981
-0.063000396 -0.18516739 0.06421095 -0.40852687 -0.090482324 -0.10663777 0.35647509 0.010397382
0.11714995 0.36807272 -0.09055338 -0.19068691 0.1460414 0.037104685 -0.2172361 -0.013000182
-0.13489446 0.08758682 -0.0152960485 0.21578875 0.08064622 -0.25889972 0.113216 -0.007121787
-0.2860852 -0.07551925 0.3639902 0.1193894 -0.19844826 -0.08657067 -0.052459255 -0.12152959
0.10664714 -0.26999918 0.027140787 -0.13578014 0.31252944 -0.31468096 0.031509187 0.24672443
00000000: 59d9 b43d b120 ae3e 36c4 6cbe ef1b 16be
00000010: 6924 8f3c de0b 72bd 4936 4c3e 7b73 4b3e
00000020: 3aee bdbd c4be 83be 93f3 c93b ef40 59bd
00000030: 7e0f 48be eba5 043e eaad 51be 1ce4 f03d
00000040: d645 bdbe 44c1 bfbe 6f7c 28be 9971 ec3d
00000050: fda7 cebc 4432 54be cbcc 323e 39e7 c7bd
00000060: 4a30 9a3e 0751 64be 160c 93bc 319b 60be
00000070: bf4a b93d d745 26bd 7547 81be b4bc 2b3e
00000080: fa2a 843e c484 dbbd 2770 1cbe 9b96 393e
00000090: 9d56 9dbe e6fb 2c3e 4675 303e 6e47 42be
000000a0: 23ac 6bbe d5ef 86bd 71ae 813e 6a4c 8fbe
000000b0: d893 9d3e 2411 173d 5852 6cbe 74c4 3fbe
000000c0: fc9a f5bd b5b4 a6bd 14ab 623e ae00 8f3e
000000d0: 6299 3f3e 7acd 6e3e 9975 b63e fef5 28bd
000000e0: f666 903d 61c2 513e 0495 aa3d c43a 6dbe
000000f0: 1a14 ae3e b4ca 153e 9fc9 b13d 8a2b 813e
00000100: 4337 c3bc f59b 333e e57c 42be f8a3 85bd
00000110: ee4d 80be 53b8 323e d0e8 2fbe d159 49be
00000120: f9b4 8cbd b15b 30be 0aaf 11be 062f d43d
00000130: 4410 ac3d 6f69 0b3e dfaf 503e a746 b93d
00000140: 014c 043e 9458 523e 8a8d 973e e384 c13d
00000150: f6c4 18be 5f50 6f3d 7320 88bd 4cad 9fbe
00000160: 454c 9a3d 921e 9cbe 90c4 ffbd 51be c43b
00000170: 7e28 5c3e 61ad 223e 7327 8e3d 6b61 55be
00000180: e144 e0bc 23ec 2cbe 1ac1 c33c 4277 b8be
00000190: d753 9a3e f4ee b7bd 7ce6 d23e 56e1 5a3d
000001a0: b71d 1f3e 50b0 c13e 1ce2 d4bd bf9f 6d3d
000001b0: 2daf b2bc 4f10 ba3c 8b50 993d effe dc3e
000001c0: da82 1f3e fc6e ac3b 7e4f 8a3e 32b2 ebbd
000001d0: 318b bcbd 4639 5dbe 4d9b d0be b3e3 e4bc
000001e0: cc2c 573e 3a16 ec3d a597 b13e 5dfc 083e
000001f0: f271 353e a6f5 af3e cfe6 f5bd 2419 45be
00000200: 7136 babe a0de 12be 7cf9 563e b713 ce3e
00000210: 01b5 943e 9a9d abbe 3363 a63d f09d f7bd
00000220: 802b ff3d d602 f6bd 3fb3 ddbe 58a5 c7bd
00000230: a9a4 c03d df2f 85be 3094 cdbd 6459 263e
00000240: 332f 993d 8118 d6bb 1e06 853e 0339 833e
00000250: 0748 22b8 9f6f 21be 8937 84bd 4bb4 493e
00000260: 7eef 433e 3db9 233b 314e 983e 2963 9ebc
00000270: 1e4f b0be 3190 85bd 8153 ffbc 4d8e ccbe
00000280: fdd5 553d 5600 1f3e 0fc8 5bbd 86a1 d03d
00000290: 8ec1 ffbd 8798 b33e c1ae ecbd d2f8 4fbd
000002a0: ae9b c03d 7bfc d33b c675 3e3e 4569 38be
000002b0: c22b 073e 7834 20bd 0791 be3e 1c7d da3d
000002c0: a6f0 873e 3ee9 d0bc 7347 ccbd 1454 a1be
000002d0: cd44 fc3c ebe2 8e3b a52a d83e 5808 53be
000002e0: d1e7 943e 2474 fe3d 9aa5 00be 9145 fd3b
000002f0: 72df afbe adf8 163e 7d85 353e afc4 933e
00000300: 29c3 fa3d 055a 1bbe 2467 63be 0a41 a7bb
00000310: aebc 97bd 8df4 a4bc 11fc 013e 7ff1 75bd
00000320: fb7e 26be 252c 6f3e 13e4 333e d21d dabd
00000330: 9951 21be 0189 bbbc afda 9a3d 62af 473c
00000340: 8a67 0fbc ecff 063d 2784 8dbe bcaa d2bd
00000350: 7590 cf3e 4d4b a7bc 46bc 433e cee1 0fbe
00000360: 5a06 81bd 859c 3dbe 0881 833d 6f2a d1be
00000370: cc4e b9bd e764 dabd e783 b63e c859 2a3c
00000380: 50ec ef3d 0774 bc3e 0d74 b9bd 6e43 43be
00000390: e08b 153e 15fb 173d 2473 5ebe b7fe 54bc
000003a0: c621 0abe b860 b33d 479c 7abc baf7 5c3e
000003b0: d829 a53d 818e 84be cadd e73d e15d e9bb
000003c0: c279 92be d6a9 9abd ec5c ba3e 6e82 f43d
000003d0: 0536 4bbe f74b b1bd 84df 56bd 81e4 f8bd
000003e0: d169 da3d 553d 8abe 5b56 de3c f309 0bbe
000003f0: dc03 a03e dd1d a1be c70f 013d 54a5 7c3e

bias_ih_l0 f4 [40]
-0.049667727 0.31750187 0.1074746 -0.023726322 0.04647253 -0.17754664 0.163582 -0.25311816
0.08801057 0.2887359 0.23777726 -0.07289681 0.12365175 0.08205222 0.33740428 0.08598975
-0.021065703 -0.27941608 -0.15116483 -0.029031957 0.17223264 0.34219608 -0.08723325 -0.20010023
-0.037411403 0.1571509 -0.18602723 -0.14384094 -0.32793304 -0.2860326 -0.17801525 -0.0402735
0.27410516 -0.08713716 -0.092759274 -0.24303988 0.0032905678 0.1483846 -0.10325157 0.3425396
00000000: 6370 4bbd 9b8f a23e a51b dc3d b45d c2bc
00000010: fb59 3e3d c9ce 35be 0a82 273e b498 81be
00000020: e33e b43d 31d5 933e e27b 733e ec4a 95bd
00000030: 213d fd3d ff0a a83d 41c0 ac3e 651b b03d
00000040: fb91 acbc a00f 8fbe f4ca 1abe 6dd4 edbc
00000050: c15d 303e 5334 af3e 59a7 b2bd 13e7 4cbe
00000060: b33c 19bd 2aec 203e ec7d 3ebe 0a4b 13be
00000070: d7e6 a7be dd72 92be a149 36be d3f5 24bd
00000080: 8357 8c3e f874 b2bd 93f8 bdbd 72df 78be
00000090: 91a6 573b 22f2 173e 8f75 d3bd 5a61 af3e

bias_hh_l0 f4 [40]
-0.028871696 0.13975874 -0.22069721 0.07601788 0.116329774 0.3100779 -0.19700748 0.3100803
-0.11573963 -0.13142395 -0.053824067 0.0070798043 0.32706904 -0.16298671 0.022069639 -0.055711705
0.03615233 0.13648373 0.23873676 0.24626346 0.35470232 -0.053581264 0.2608471 0.066343345
-0.00073574344 0.32905775 -0.3595232 0.21227033 -0.33236712 0.15167296 0.36124402 -0.042613164
-0.021791859 0.38585368 0.35005018 0.20989792 0.250161 -0.21921135 -0.046423238 0.11181282
00000000: 5684 ecbc ea1c 0f3e 73fe 61be 43af 9b3d
00000010: 4e3e ee3d 88c2 9e3e 54bc 49be d8c2 9e3e
00000020: e608 edbd 0094 06be a076 5cbd b4fd e73b
00000030: 9875 a73e fde5 26be 63cb b43c f531 64bd
00000040: 7714 143d 64c2 0b3e 6977 743e 7d2c 7c3e
00000050: 8b9b b53e 0778 5bbd c08d 853e 05df 873d
00000060: e8de 40ba 427a a83e 6d13 b8be 655d 593e
00000070: 062c aabe 2850 1b3e faf4 b83e 248b 2ebd
00000080: d784 b2bc 9d8e c53e c739 b33e 7bef 563e
00000090: 1a15 803e f178 60be 4b26 3ebd 1ffe e43d

weight_ih_l0 f4 [40, 22]
0.26429507 0.29951268 -0.2352633 -0.15434964 0.2881981 -0.12514149 -0.1313161 0.2375436
0.22704048 0.25728786 -0.26876482 0.3367039 -0.19057317 0.31369364 -0.025808161 -0.14531922
-0.16926187 -0.18612787 0.24081877 0.3195612 0.2613816 0.2898375 -0.12909785 0.103882425
-0.063019395 -0.04781903 -0.16050078 0.035846487 -0.21884295 0.049150977 -0.16960235 0.20129982
0.11128456 0.29422563 -0.2475788 0.23339741 0.13581957 -0.18622035 0.15222925 0.29837734
-0.31425893 0.01005645 0.23235911 -0.07593624 -0.20033756 -0.15974616 -0.0988508 0.27343714
-0.13181408 0.19161272 0.28903463 -0.13159074 -0.27727175 0.24423942 0.26623234 -0.06391946
0.064817555 0.19757763 -0.08815795 0.35219613 0.0071807783 -0.21640559 -0.19494154 -0.00030121428
0.26918823 0.24144949 0.12794526 0.13145693 0.09319401 0.36306185 -0.2537541 0.061003942
0.109958805 -0.14939624 -0.10611634 0.02904872 0.1434832 0.19388889 -0.15303601 0.3512473
-0.3164084 0.31755176 0.3051274 -0.25232065 0.1439207 -0.005890987 -0.15083519 0.26367933
0.12460509 0.32170108 0.23964588 0.057480782 0.24254948 -0.28729704 -0.2694565 0.20824274
-0.27505505 -0.12768534 0.23811617 0.052996214 0.3080801 -0.25168538 -0.3227012 0.15911415
0.30645022 0.31624493 -0.18640403 -0.26893145 -0.21066163 -0.17721136 -0.06073145 -0.0886003
-0.08849914 -0.14955449 -0.078267306 0.067366205 0.13792962 -0.23672159 -0.21999453 0.2918489
0.29917976 0.1735073 0.20129699 0.24307099 0.070973456 -0.26675355 -0.18204282 0.22678289
-0.005972596 0.0619891 0.026135374 0.11470069 -0.19044697 0.18981558 0.17521648 -0.22253008
0.19614394 -0.14322744 0.22797371 0.26056105 -0.12070944 -0.18016046 0.14460376 0.28703907
0.15465434 0.2504059 -0.27391085 -0.21124403 -0.07223124 -0.22347605 -4.708991e-05 0.36995614
0.2840686 0.07113407 0.06416661 -0.0004215103 0.34472486 0.18801492 0.09335357 -0.17104527
0.3085247 -0.10744724 0.25330496 -0.057552416 -0.20462073 -0.15104173 0.13470551 0.120080255
0.0998727 0.16655922 0.23455524 0.02082833 0.053616866 -0.16313358 -0.046498585 0.03665649
-0.18969403 -0.2312613 -0.2589449 -0.1021903 -0.23564927 0.29296687 0.03788125 -0.11655668
0.14796644 -0.19573672 0.03794299 0.11136203 -0.27497372 -0.2777911 -0.34592766 -0.15524824
-0.11459447 -0.32316634 -0.20033363 -0.19999088 0.32194373 -0.19530725 -0.14434601 -0.08818538
-0.2538289 -0.09368832 0.22315232 -0.03949431 0.18480918 0.09047738 -0.032931782 -0.11696164
0.27534965 0.24283692 0.321661 0.2018208 -0.040965397 0.23236373 0.20473185 -0.3249566
-0.07342939 -0.2903316 0.24368975 0.2703835 -0.11037225 -0.11015173 -0.21394753 0.1914003
-0.13014583 0.28310576 -0.10617016 0.32097197 0.17323403 0.2545499 -0.13235447 -0.0029761354
-0.25312385 -0.17604107 0.09009951 0.1033235 0.017798888 0.11343569 -0.048383925 0.15875019
0.07084095 -0.19889554 0.11743987 -0.21929134 -0.21462232 0.10483299 -0.104164094 -0.029975109
0.07233007 0.19896795 0.083935834 -0.27744827 -0.31171486 0.27592337 0.31818777 0.1271965
00000000: af51 873e ba59 993e dde8 70be d50d 1ebe
00000010: b48e 933e 1725 00be ba77 06be a13e 733e
00000020: 4d7d 683e 3cbb 833e 8b9b 89be 7464 ac3e
00000030: 9d25 43be 749c a03e a36b d3bc 90ce 14be
00000040: fc52 2dbe 4e98 3ebe 3299 763e 879d a33e
00000050: cfd3 853e 9565 943e 3a32 04be 4fc0 d43d
00000060: 5010 81bd e3dd 43bd 515a 24be c4d3 123d
00000070: 5e18 60be 8952 493d 3dac 2dbe 8a21 4e3e
00000080: 29e9 e33d bea4 963e 4c85 7dbe bbff 6e3e
00000090: 4914 0b3e 8cb0 3ebe fce1 1b3e eac4 983e
000000a0: 8ce6 a0be cfc3 243c 8cef 6d3e 7684 9bbd
000000b0: 4a25 4dbe 7f94 23be 4a72 cabd f4ff 8b3e
000000c0: 45fa 06be 2036 443e 59fc 933e b9bf 06be
000000d0: 90f6 8dbe e619 7a3e 9b4f 883e 35e8 82bd
000000e0: 11bf 843d ca51 4a3e 288c b4bd 0d53 b43e
000000f0: bc4c eb3b 6d99 5dbe c19e 47be 4cec 9db9
00000100: 0ad3 893e 893e 773e 1504 033e a59c 063e
00000110: 80dc be3d 3ee3 b93e 0fec 81be 45df 793d
00000120: 1532 e13d 54fb 18be 8653 d9bd 95f7 ed3c
00000130: 43ed 123e cf8a 463e 79b5 1cbe b0d6 b33e
00000140: 4800 a2be 2596 a23e a939 9c3e 2c30 81be
00000150: f35f 133e 2e09 c1bb 8a74 1abe fa00 873e
00000160: f430 ff3d 01b6 a43e bb65 753e f870 6b3d
00000170: e45e 783e 9918 93be 34f6 89be 963d 553e
00000180: 04d4 8cbe f2bf 02be bad4 733e 8f12 593d
00000190: adbc 9d3e e8dc 80be 1739 a5be d2ee 223e
000001a0: 0be7 9c3e dbea a13e b3e0 3ebe 62b1 89be
000001b0: afb7 57be e576 35be 8ac1 78bd 1374 b5bd
000001c0: 0a3f b5bd d024 19be 9c4a a0bd 4bf7 893d
000001d0: 6c3d 0d3e 2567 72be 3f46 61be 386d 953e
000001e0: 172e 993e e6ab 313e cc20 4e3e 9ae7 783e
000001f0: 885a 913d ec93 88be 6f69 3abe c639 683e
00000200: c4b5 c3bb 48e8 7d3d da19 d63c 32e8 ea3d
00000210: 8804 43be 045f 423e f36b 333e edde 63be
00000220: f5d9 483e 37aa 12be f171 693e 4268 853e
00000230: 8336 f7bd fc7b 38be 0213 143e c9f6 923e
00000240: b55d 1e3e 3435 803e 0b3e 8cbe 5b50 58be
00000250: f9ed 93bd e8d6 64be 6882 45b8 e46a bd3e
00000260: 7171 913e bdae 913d c969 833d 28fe dcb9
00000270: c77f b03e fc86 403e 2830 bf3d 7e26 2fbe
00000280: f3f6 9d3e 4c0d dcbd 30b1 813e 15bc 6bbd
00000290: 1988 51be afaa 1abe 3ef0 093e a3ec f53d
000002a0: 0f8a cc3d 808e 2a3e 402f 703e 2da0 aa3c
000002b0: 5c9d 5b3d 7d0c 27be 4d75 3ebd 1e25 163d
000002c0: 273f 42be c3cf 6cbe 6d94 84be 2649 d1bd
000002d0: 0b4e 71be c1ff 953e 5f29 1b3d 45b5 eebd
000002e0: 8484 173e 356f 48be 1c6a 1b3d c711 e43d
000002f0: 5bc9 8cbe a33a 8ebe 6e1d b1be 65f9 1ebe
00000300: 81b0 eabd 0f76 a5be 4224 4dbe 69ca 4cbe
00000310: cfd5 a43e a0fe 47be 71cf 13be 899a b4bd
00000320: ddf5 81be a9df bfbd 0b82 643e c9c4 21bd
00000330: 9e3e 3d3e 344c b93d 7ae3 06bd 9689 efbd
00000340: a1fa 8c3e 3eaa 783e c0b0 a43e 1daa 4e3e
00000350: 55cb 27bd c2f0 6d3e 3aa5 513e b660 a6be
00000360: 2662 96bd 58a6 94be ce89 793e b56f 8a3e
00000370: d90a e2bd 3b97 e1bd 1015 5bbe 71fe 433e
00000380: f344 05be 3df3 903e be6f d9bd 7056 a43e
00000390: 4364 313e 5d54 823e ee87 07be 440b 43bb
000003a0: 7399 81be 1c44 34be 1886 b83d 459b d33d
000003b0: f9ce 913c f950 e83d 392e 46bd 698f 223e
000003c0: 0f15 913d 46ab 4bbe 5184 f03d e98d 60be
000003d0: f4c5 5bbe aeb2 d63d fc53 d5bd 5c8e f5bc
000003e0: ca21 943d 41be 4b3e 8de6 ab3d b30d 8ebe
000003f0: 1799 9fbe d445 8d3e 82e9 a23e cd3f 023e

weight_hh_l0 f4 [40, 10]
-0.048129443 0.15792477 0.07643951 -0.04249727 -0.24531516 0.2155144 0.03429342 -0.22791283
-0.18842085 0.093070336 0.014613498 0.19975388 0.26394898 -0.13903663 -0.2714435 -0.04786105
-0.09575042 0.015199453 -0.3009962 0.3469165 0.07417246 -0.23405409 0.35324985 0.11866039
-0.16905741 0.17604332 -0.34435028 0.03616929 -0.031632144 -0.12279889 0.0047955583 -0.31633025
0.08778969 -0.09725125 0.09306255 0.12630728 -0.21686167 0.25473946 0.08066346 -0.19430862
0.17244539 0.19134557 0.22981735 -0.0073329783 -0.28252906 -0.34700748 -0.1816497 0.2903243
-0.09183396 0.21373484 0.26764217 -0.31680194 -0.04898743 -0.35562307 -0.041763492 -0.08265753
-0.26156497 -0.0025307343 -0.29192594 -0.11694824 0.20468935 -0.043611437 -0.16813217 -0.098168194
-0.10747686 -0.37835157 0.13151714 -0.18834941 0.1616864 -0.15403838 -0.04886219 -0.2546895
-0.021843541 0.17990154 -0.15702811 -0.20779592 0.18736634 0.113017745 0.1305449 -0.28262585
0.10486671 -0.26725036 -0.04701467 0.0030995954 0.025539752 -0.020579234 0.047440458 0.3583435
0.1533817 -0.008056341 0.26180443 0.13782336 0.19070598 -0.33535448 -0.20016098 -0.30509034
0.12882148 -0.24852291 0.013968384 0.3182045 -0.24592306 0.068494104 -0.06940565 0.045496218
-0.0879671 0.14330463 -0.16848034 -0.055025425 0.04142299 0.1771899 -0.38330334 0.19937511
0.041128315 0.16842647 0.14454748 -0.054077853 -0.32503304 0.18775037 0.2231447 0.025847197
-0.058345046 0.03962573 0.25417173 0.16809808 0.21729635 -0.054321043 -0.3446921 0.102286644
-0.009989894 0.19131614 -0.42875743 -0.10444007 0.038614232 0.15330818 0.159185 -0.109631605
0.12574373 -0.049336724 0.0022694813 0.27595916 -0.057741217 0.12054983 0.027751861 -0.056563914
-0.11212766 -0.079958156 0.17653604 0.11712559 -0.19129057 0.14505592 0.14073014 -0.1850938
0.042474467 0.05840126 -0.14877641 0.29187614 -0.18466331 -0.10660919 0.11392303 -0.094307095
0.20363967 -0.20517851 0.2696482 -0.098781265 0.18510026 -0.17529947 -0.0942655 -0.1430286
0.24959522 0.2168006 -0.08243949 0.12526941 0.2278317 0.11655927 -0.08378318 -0.15024172
0.23916373 -0.067186244 -0.07101545 -0.16332917 -0.27293497 0.030522404 0.32317314 -0.36003822
-0.059339717 -0.021956451 0.1734638 0.30079255 0.20928012 -0.18292803 -0.04542847 0.08648863
-0.07031717 -0.0046185046 -0.08446741 0.008439443 0.23559095 0.26408306 0.03307084 -0.013575269
0.0027387904 -0.021770751 -0.17656213 -0.2665421 -0.0056156954 -0.2680964 0.32999974 0.23351865
-0.20398308 0.1542783 -0.122126706 -0.20827794 -0.18003933 0.037731238 -0.06240247 -0.18142253
0.11041986 0.053245686 0.2578963 -0.20755607 0.23991774 -0.26455513 -0.19443943 -0.23870501
-0.11877298 0.16002762 0.20144787 -0.0909878 -0.07110506 0.22545774 -0.06086717 0.2128056
0.15515673 0.25594348 0.22166446 0.25501817 -0.055761624 -0.11562319 0.09872641 -0.11683306
0.23955797 0.09293708 0.28549615 0.17252591 0.25295758 0.25804263 -0.2992669 -0.07903626
0.2261097 -0.24770878 0.13053633 0.055736873 0.0012438522 0.14201643 0.10775701 0.08763369
00000000: 6123 45bd 08b7 213e 518c 9c3d 9e11 2ebd
00000010: e633 7bbe cfaf 5c3e 4277 0c3d fb61 69be
00000020: 65f1 40be a99b be3d 746d 6f3c 488c 4c3e
00000030: 5224 873e 9e5f 0ebe a4fa 8abe f309 44bd
00000040: cc18 c4bd 2007 793c 2d1c 9abe 0a9f b13e
00000050: bbe7 973d e0ab 6fbe 2add b43e 3804 f33d
00000060: 631d 2dbe b344 343e ae4e b0be 4026 143d
00000070: b590 01bd fc7d fbbd 0f24 9d3b 0af6 a1be
00000080: 15cb b33d aa2b c7bd 9497 be3d b256 013e
00000090: fc10 5ebe 366d 823e e232 a53d d7f8 46be
000000a0: 8695 303e 18f0 433e 3d55 6b3e 7b49 f0bb
000000b0: a6a7 90be f7aa b1be 6102 3abe 63a5 943e
000000c0: 7113 bcbd 4edd 5a3e 6508 893e dd33 a2be
000000d0: 0ba7 48bd 3a14 b6be 3210 2bbd 5a48 a9bd
000000e0: d8eb 85be adda 25bb 5177 95be 8f82 efbd
000000f0: 169a 513e e8a1 32bd d72a 2cbe 680c c9bd
00000100: d41c dcbd 4cb7 c1be 6eac 063e abde 40be
00000110: 1f91 253e 3dbc 1dbe b823 48bd aa66 82be
00000120: 3af1 b2bc 1c38 383e facb 20be 74c8 54be
00000130: f6dc 3f3e d975 e73d 90ad 053e 56b4 90be
00000140: 5cc4 d63d 0ad5 88be 7492 40bd 9522 4b3b
00000150: be38 d13c c895 a8bc ed50 423d cd78 b73e
00000160: 1810 1d3e befe 03bc 3b0b 863e 9121 0d3e
00000170: 6e48 433e 95b3 abbe 00f7 4cbe cd34 9cbe
00000180: c7e9 033e ca7c 7ebe a6db 643c b3eb a23e
00000190: 41d3 7bbe a346 8c3d 8d24 8ebd 3e5a 3a3d
000001a0: 1828 b4bd 73be 123e 1c86 2cbe 5762 61bd
000001b0: 27ab 293d 4571 353e 5640 c4be fd28 4c3e
000001c0: 2a76 283d fd77 2c3e 4104 143e bd80 5dbd
000001d0: bb6a a6be a241 403e 0b80 643e 80bd d33c
000001e0: 37fb 6ebd 974e 223d cc22 823e e721 2c3e
000001f0: ef82 5e3e be7f 5ebd 7c7b b0be a97b d13d
00000200: a7ac 23bc 61e8 433e 1886 dbbe ade4 d5bd
00000210: f529 1e3d d2fc 1c3e 6501 233e 8986 e0bd
00000220: f7c2 003e 4e15 4abd 94bb 143b 854a 8d3e
00000230: 0e82 6cbd d4e2 f63d df57 e33c 90af 67bd
00000240: 30a3 e5bd 1ac1 a3bd ddc5 343e 8bdf ef3d
00000250: ade1 43be 8a89 143e 901b 103e 3b89 3dbe
00000260: b5f9 2d3d 2936 6f3d d858 18be ca70 953e
00000270: 6118 3dbe eb55 dabd 7a50 e93d 1424 c1bd
00000280: eb86 503e 511a 52be 540f 8a3e d54d cabd
00000290: ec8a 3d3e b481 33be 450e c1bd 1776 12be
000002a0: e495 7f3e fa00 5e3e 09d6 a8bd a046 003e
000002b0: b74c 693e a0b6 ee3d 8496 abbd f7d8 19be
000002c0: 56e7 743e f198 89bd 8c70 91bd c33f 27be
000002d0: 22be 8bbe 1f0a fa3c f376 a53e ee56 b8be
000002e0: 340e 73bd 04de b3bc 7fa0 313e 7b01 9a3e
000002f0: 874d 563e 7c51 3bbe 3413 3abd f320 b13d
00000300: 7302 90bd d356 97bb 40fd acbd 9745 0a3c
00000310: c13e 713e e535 873e 4a75 073d ce6a 5ebc
00000320: 477d 333b 9358 b2bc b4cc 34be 3578 88be
00000330: de03 b8bb ee43 89be baf5 a83e 831f 6f3e
00000340: f1e0 50be 21fb 1d3e 911d fabd d046 55be
00000350: 3b5c 38be 128c 1a3d bb99 7fbd d4c6 39be
00000360: cf23 e23d 2618 5a3d fc0a 843e 9489 54be
00000370: ffac 753e c573 87be 211b 47be 166f 74be
00000380: 403f f3bd 48de 233e 5a48 4e3e d057 babd
00000390: 889f 91bd 65de 663e db4f 79bd b6e9 593e
000003a0: 68e1 1e3e 060b 833e 02fc 623e be91 823e
000003b0: 4d66 64bd dacb ecbd 1231 ca3d 2c46 efbd
000003c0: af4e 753e cc55 be3d 8d2c 923e a2aa 303e
000003d0: a883 813e 2a1e 843e 8339 99be c3dd a1bd
000003e0: 4d89 673e 5fa7 7dbe 51ab 053e 594c 643d
000003f0: c108 a33a c16c 113e b5af dc3d 4b79 b33d

bias_ih_l0 f4 [40]
-0.1894033 0.2566946 0.15201966 -0.07559956 -0.10175934 -0.008630296 0.21631704 -0.3397871
0.31698707 0.0542439 -0.048283756 0.3404934 -0.040616702 0.15096624 0.2945898 -0.21928518
-0.101230524 -0.017543761 0.18053374 0.11229109 -0.30269578 0.045571882 0.0010419278 -0.019960815
0.037668947 -0.07433322 -0.027525725 -0.08968865 0.06730261 -0.23598403 0.18088208 0.06209868
-0.122032166 0.16272397 -0.08787657 0.11716951 0.0013792607 0.20850351 0.048199493 -0.07469786
00000000: f0f2 41be 7a6d 833e 0bab 1b3e f1d3 9abd
00000010: 3367 d0bd 1666 0dbc 3782 5d3e 93f8 adbe
00000020: 214c a23e da2e 5e3d 30c5 45bd 2755 ae3e
00000030: b35d 26bd e596 1a3e 79d4 963e 4b8c 60be
00000040: f351 cfbd efb7 8fbc d6dd 383e dff8 e53d
00000050: f1fa 9abe 95a9 3a3d 4c91 883a dd84 a3bc
00000060: c14a 1a3d 043c 98bd a17d e1bc afae b7bd
00000070: f3d5 893d cca5 71be 2739 393e 2f5b 7e3d
00000080: 00ec f9bd 1da1 263e a2f8 b3bd 91f6 ef3d
00000090: 4fc8 b43a f281 553e d56c 453d 31fb 98bd

bias_hh_l0 f4 [40]
0.2778858 -0.1918454 -0.1832622 -0.14987822 0.18730532 0.047559865 -0.07348764 0.122429684
0.13392727 -0.121401206 0.36341485 0.054409515 0.28087166 -0.03293741 0.023469307 -0.15943319
0.10723957 0.0126016755 0.16885823 0.27885053 -0.2803137 -0.04386058 0.13064507 -0.18932042
0.2794981 -0.09772566 -0.20050591 -0.00281915 0.03624494 -0.317063 0.06374847 -0.062543504
-0.14238825 0.20295271 0.370588 0.22189419 0.19615747 0.25365743 0.29758564 -0.2214606
00000000: 0c47 8e3e 1f73 44be 16a9 3bbe ad79 19be
00000010: f7cc 3f3e 22ce 423d b080 96bd 6abc fa3d
00000020: 3b24 093e 32a1 f8bd 8311 ba3e 83dc 5e3d
00000030: 69ce 8f3e 61e9 06bd b442 c03c 7442 23be
00000040: 6ba0 db3d 4277 4e3c 2ce9 2c3e 7fc5 8e3e
00000050: 4785 8fbe 27a7 33bd d2c7 053e 36dd 41be
00000060: 601a 8f3e 6424 c8bd 6c51 4dbe 7dc1 38bb
00000070: 9375 143d 1556 a2be 8f8e 823d cf16 80bd
00000080: 3ace 11be d6d2 4f3e b6bd bd3e 3b38 633e
00000090: 81dd 483e 63df 813e 255d 983e 91c6 62be

weight_ih_l0 f4 [40, 22]
-0.021573685 -0.24254785 -0.012428211 -0.0411586 0.061100353 -0.04896345 0.008208475 -0.016012391
-0.061947174 0.31302777 -0.098659806 0.08221828 -0.065826274 0.22028735 0.006500227 0.31501764
0.05234603 0.19058193 -0.095082596 0.105085574 -0.09676612 -0.20132113 0.26591262 0.35913894
0.21654843 0.010502135 0.15675087 0.046994958 -0.071077794 0.03213393 -0.010747331 0.24693671
-0.22549899 0.31734082 0.14560895 -0.235058 0.14302829 0.115641795 0.17213643 -0.103911795
-0.25671515 0.10457675 -0.097972855 -0.07564421 0.20276701 0.21686164 0.26163304 -0.017631173
0.22738862 0.10943919 -0.17348462 0.0011509696 -0.17958374 -0.009213053 -0.26592445 -0.010686927
-0.277393 -0.15802675 -0.061274316 0.080754586 -0.14541043 0.090597086 0.1299168 -0.23052447
0.033754475 0.0073451763 0.069153376 0.08401376 -0.15466872 0.28969592 -0.09648157 -0.11162547
-0.2121749 0.1554776 0.19140515 0.08545625 -0.36274996 -0.025971405 -0.30381685 0.27048153
0.03711513 -0.017720772 -0.037351664 0.034585617 -0.30429536 0.15982407 0.36476234 0.3196002
-0.3192974 -0.22052993 0.031279374 -0.09592576 -0.0059003257 0.22688225 0.22443715 0.11850416
-0.12392198 -0.15229969 0.1551834 -0.09934863 0.04778951 -0.08030873 0.13477764 -0.011235252
-0.288284 0.05444033 0.0399192 0.017695257 0.03591909 -0.24055369 0.10106657 0.13221136
0.16653709 0.021969892 -0.23049189 0.06438619 -0.23254015 -0.014875243 -0.20799845 0.04511146
0.0751786 0.23251 -0.057328545 0.17402442 -0.03762754 -0.20527928 -0.21259096 -0.2658401
-0.08799038 0.1414156 -0.11761785 0.21280605 -0.02910843 -0.30914932 0.042193428 -0.013341595
0.07452997 0.17234676 0.084223986 -0.1884351 -0.15880579 0.019611891 0.01506241 0.06827372
-0.33942786 -0.14084892 0.070859 0.3508438 0.121502206 -0.10839114 0.20190607 0.21056625
0.20669602 -0.18094473 -0.0075424532 -0.0003640937 -0.22139369 -0.0037293243 0.09697739 0.27233845
-0.11926336 0.025643446 -0.20160936 0.121724166 -0.012254553 -0.2674837 -0.21454906 -0.120923996
-0.29745257 -0.18485421 -0.13227253 0.16108938 -0.21755248 0.04820277 -0.22408766 0.056963503
0.07705481 -0.27972293 -0.301125 0.2900461 -0.2680501 -0.22113918 -0.2632963 -0.15595934
0.32430235 -0.09586572 0.17134424 0.35821277 -0.26755133 0.19070713 0.16321883 0.28616148
0.21706204 0.269822 -0.09309018 0.17127219 0.29966745 0.22599497 -0.100212365 0.17620905
0.075300016 -0.28728658 -0.32126158 -0.049711924 0.03904585 0.1550552 -0.18152605 0.08215833
0.13289364 -0.1769341 0.15330465 0.0058925115 -0.036145236 0.27589935 -0.03886139 0.16813934
-0.06564357 -0.1762274 0.07126142 -0.098320395 0.054105468 0.016874403 -0.29173154 -0.037390906
-0.24385943 0.3290574 0.21484554 0.21107355 -0.12219514 0.27415344 0.2830154 0.3352002
0.22506763 -0.07205681 -0.09098092 0.104949385 -0.3163921 0.05649314 0.24937849 0.27823317
0.3607765 0.18433084 0.05771593 0.13676527 -0.124397516 0.09533417 -0.23584215 0.012570552
-0.29249507 -0.08964828 0.08740221 0.011410799 -0.15627277 0.12837552 0.18967964 0.20138189
00000000: 4cbb b0bc 775e 78be b29f 4bbc ec95 28bd
00000010: 5d44 7a3d e68d 48bd d77c 063c 6b2c 83bc
00000020: 52bc 7dbd 2d45 a03e 270e cabd 0f62 a83d
00000030: edcf 86bd 0293 613e dbff d43b fe49 a13e
00000040: ca68 563d e927 433e aaba c2bd 1b37 d73d
00000050: 512d c6bd 2027 4ebe b325 883e 0fe1 b73e
00000060: dfbe 5d3e 2611 2c3c 4d83 203e c97d 403d
00000070: 3c91 91bd de9e 033d 9315 30bc fadc 7c3e
00000080: 35e9 66be 7f7a a23e 831a 153e 0bb3 70be
00000090: 0276 123e 9bd5 ec3d 8844 303e b5cf d4bd
000000a0: 2b70 83be 562c d63d fea5 c8bd 5aeb 9abd
000000b0: 28a2 4f3e fa10 5e3e c4f4 853e 406f 90bc
000000c0: 90d8 683e a721 e03d f4a5 31be 22dc 963a
000000d0: cde4 37be 58f2 16bc 4027 88be 3818 2fbc
000000e0: 7506 8ebe c4d1 21be c7fa 7abd a962 a53d
000000f0: 79e6 14be f78a b93d e908 053e 9b0e 6cbe
00000100: 2242 0a3d ceaf f03b 49a0 8d3d 680f ac3d
00000110: 7a61 1ebe 0653 943e 2198 c5bd e59b e4bd
00000120: 6144 59be 8535 1f3e b6ff 433e b003 af3d
00000130: 5dba b9be fcc1 d4bc e28d 9bbe 8e7c 8a3e
00000140: 0906 183d 272b 91bc 0ffe 18bd a6a9 0d3d
00000150: 9acc 9bbe eca8 233e 21c2 ba3e a3a2 a33e
00000160: f37a a3be 99d2 61be cd1e 003d ba74 c4bd
00000170: 8557 c1bb d253 683e dad2 653e 4fb2 f23d
00000180: cfca fdbd 73f4 1bbe 66e8 1e3e 4b77 cbbd
00000190: efbe 433d e778 a4bd 2603 0a3e 1014 38bc
000001a0: f699 93be d3fc 5e3d 5182 233d a5f5 903c
000001b0: e51f 133d b553 76be fdfb ce3d 6a62 073e
000001c0: b388 2a3e 34fa b33c 1106 6cbe e8dc 833d
000001d0: 011f 6ebe 4bb7 73bc 8cfd 54be cbc6 383d
000001e0: 3df7 993d 1a17 6e3e 56d1 6abd 7533 323e
000001f0: 561f 1abd bb34 52be 72b1 59be 321c 88be
00000200: 4d34 b4bd 40cf 103e a1e1 f0bd d4e9 593e
00000210: cd74 eebc d248 9ebe 04d3 2c3d b596 5abc
00000220: 2ba3 983d ab7b 303e a07d ac3d 21f5 40be
00000230: fc9d 22be 1ea9 a03c 54c8 763c 18d3 8b3d
00000240: 7dc9 adbe b33a 10be 861e 913d cca1 b33e
00000250: 26d6 f83d 2dfc ddbd 77c0 4e3e ae9e 573e
00000260: 1fa8 533e 9349 39be af26 f7bb d4e3 beb9
00000270: 07b5 62be ae67 74bb 159c c63d f26f 8b3e
00000280: 5940 f4bd 3412 d23c af72 4ebe 854a f93d
00000290: 52c7 48bc a0f3 88be c0b2 5bbe 00a7 f7bd
000002a0: b44b 98be 6c4a 3dbe 7372 07be 9df4 243e
000002b0: 14c6 5ebe 4570 453d 3c77 65be 9052 693d
000002c0: eace 9d3d d837 8fbe 0e2d 9abe ec80 943e
000002d0: dd3d 89be 4f72 62be c6ce 86be ceb3 1fbe
000002e0: f50a a63e 3f55 c4bd dd74 2f3e aa67 b73e
000002f0: 7dfc 88be bb48 433e d622 273e c283 923e
00000300: 8345 5e3e 1c26 8a3e 10a6 bebd fa61 2f3e
00000310: 036e 993e 3a6b 673e 243c cdbd 2570 343e
00000320: e536 9a3d 3a17 93be 667c a4be bb9e 4bbd
00000330: 8bee 1f3d cac6 1e3e f7e1 39be a042 a83d
00000340: 4515 083e 362e 35be e5fb 1c3e f815 c13b
00000350: 070d 14bd ae42 8d3e 1f2d 1fbd b82c 2c3e
00000360: 2370 86bd f574 34be 82f1 913d 345c c9bd
00000370: b29d 5d3d 303c 8a3c d65d 95be 3527 19bd
00000380: 49b6 79be 367a a83e 7800 5c3e aa23 583e
00000390: 7241 fabd d75d 8c3e 65e7 903e 5c9f ab3e
000003a0: 2178 663e 8592 93bd 3454 babd b4ef d63d
000003b0: 25fe a1be 5a65 673d 135d 7f3e 9474 8e3e
000003c0: b3b7 b83e 39c1 3c3e 8a67 6c3d 320c 0c3e
000003d0: 20c4 febd 903e c33d 9b80 71be b7f4 4d3c
000003e0: eac1 95be 8499 b7bd eeff b23d 5cf4 3a3c
000003f0: f805 20be df74 033e 613b 423e 0e37 4e3e

weight_hh_l0 f4 [40, 10]
0.025123484 -0.073032044 -0.07433975 0.05106698 0.07717939 -0.0677777 0.08011929 -0.07905847
-0.3194858 -0.2956446 0.03169348 -0.35669687 0.29312187 -0.08529242 -0.13530338 -0.31033695
-0.23227373 -0.021134537 0.060912408 -0.078984365 0.033729795 0.23914139 -0.035347454 0.25485012
0.007044105 -0.1409541 -0.21430142 -0.31315842 -0.22872196 0.040567346 -0.044863556 0.13293605
0.056856196 0.035089258 0.15984222 -0.18214445 0.31787968 0.18701431 -0.036828972 0.009761019
0.0729111 -0.030025035 -0.20018297 0.014595685 0.22435154 -0.34876338 0.0024161488 -0.08668655
-0.09024898 0.06689463 -0.096580654 -0.19015446 -0.0066982154 0.16086721 0.28353298 -0.14628461
0.24175484 0.15966228 0.096193805 0.30011943 0.2826746 -0.11106781 -0.37922758 0.39800608
-0.09765343 -0.15804648 0.19395572 -0.19453005 -0.25616178 0.12295382 0.04001805 -0.051758125
-0.156226 0.120060265 0.060237028 -0.33795884 -0.08959782 0.051724903 0.06162232 0.13796455
-0.16320825 -0.10333701 0.14112099 -0.08520799 -0.26076064 0.045796607 -0.083176136 -0.022325011
-0.06278788 -0.06485464 -0.23446843 0.030717246 -0.30272266 -0.28095967 0.32299635 0.2602364
0.21952261 0.049948167 -0.22535563 -0.007331701 -0.030988827 -0.35066116 -0.06491366 0.21046448
-0.004329334 -0.010827585 -0.130031 -0.12785892 -0.34914792 0.043342546 -0.111822635 -0.3342114
0.24715903 -0.16037476 -0.23826632 -0.03596464 0.19157803 0.22934018 -0.15391369 0.123410806
0.109061845 0.14188765 -0.2518829 0.19237126 -0.27256927 0.042457756 -0.084980704 -0.31287825
-0.14916494 0.05794106 0.104724154 0.16204502 -0.10211992 0.22720948 -0.2737178 -0.27207106
-0.17008336 0.15720087 0.062461596 -0.28680062 0.2678409 0.14062932 -0.0848395 -0.021655308
0.08918854 0.23991598 0.2457699 -0.23675019 0.0890901 -0.082954474 -0.14262913 0.1411957
0.07235922 0.28992745 -0.16864905 -0.19780327 0.04070094 0.12127606 -0.28491402 -0.030418877
0.20267156 0.17856859 -0.32112396 0.22244354 0.18524255 -0.07303263 0.03615353 -0.39570388
0.13018128 0.0370004 -0.038781185 -0.028265262 0.00021293834 0.16165017 -0.072725676 0.01219041
-0.22646004 -0.10576821 -0.38267872 0.25209174 -0.071490176 0.08725621 -0.093422845 -0.19679384
0.13396096 0.020313742 0.10544286 0.2048315 -0.12941211 -0.12030752 -0.07619997 0.17940749
-0.028555654 0.19185653 -0.092526644 -0.14817637 0.0008528031 -0.26205254 0.27864185 0.013981424
-0.23541382 -0.27858356 -0.33562806 -0.023677414 -0.07459062 0.12311573 -0.21897519 0.15596057
-0.14536864 -0.0035939598 -0.3140134 0.27038062 -0.0043764263 -0.134032 -0.0037094045 -0.24066311
-0.04743169 -0.15511203 0.3870373 0.21252187 -0.1061068 0.22988708 -0.20904946 0.07741997
0.02254987 -0.023971101 0.25810236 0.28470463 0.18190435 -0.07798648 -0.104746826 0.033376075
-0.06238732 0.10791918 0.17349404 -0.060549147 0.33504564 -0.19511905 -0.27486902 0.21253684
0.15481518 -0.16442779 -0.15234695 0.13860823 0.1986386 -0.04906887 0.054814786 -0.0019762218
0.2427328 0.031809654 0.110708684 0.27556413 0.20871481 0.02833542 -0.20268625 -0.21521047
00000000: c4cf cd3c d391 95bd 703f 98bd 9c2b 513d
00000010: 3a10 9e3d 09cf 8abd 9515 a43d 68e9 a1bd
00000020: a593 a3be bb5e 97be 06d1 013d f9a0 b6be
00000030: 1214 963e cbad aebd f88c 0abe 7ce4 9ebe
00000040: 2ad9 6dbe 5622 adbc 4a7f 793d 8ec2 a1bd
00000050: 4128 0a3d 7be1 743e 7ec8 10bd b77b 823e
00000060: 3cd2 e63b 4656 10be d571 5bbe 4d56 a0be
00000070: 1736 6abe f229 263d d9c2 37bd 6320 083e
00000080: 0be2 683d c1b9 0f3d aead 233e 1384 3abe
00000090: 20c1 a23e ae80 3f3e fad9 16bd aeec 1f3c
000000a0: 6a52 953d 10f7 f5bc c4fc 4cbe bd22 6f3c
000000b0: 69bc 653e 1d91 b2be 4058 1e3b b888 b1bd
000000c0: 75d4 b8bd 0d00 893d 14cc c5bd dab7 42be
000000d0: b47c dbbb 60ba 243e 3c2b 913e a2cb 15be
000000e0: 958e 773e 827e 233e 4201 c53d 41a9 993e
000000f0: baba 903e 8577 e3bd 1e2a c2be 74c7 cb3e
00000100: 86fe c7bd f0d6 21be 549c 463e e332 47be
00000110: a327 83be 36cf fb3d f7e9 233d 5400 54bd
00000120: b5f9 1fbe 28e2 f53d 1abb 763d f108 adbe
00000130: 107f b7bd 7edd 533d b067 7c3d 9446 0d3e
00000140: 1020 27be 5ba2 d3bd 0582 103e 8781 aebd
00000150: 6b82 85be 3995 3b3d 4058 aabd f1e2 b6bc
00000160: ef96 80bd 82d2 84bd 7e18 70be bca2 fb3c
00000170: 77fe 9abe f2d9 8fbe c75f a53e b53d 853e
00000180: 89ca 603e 7396 4c3d a0c3 66be c43e f0bb
00000190: 48dc fdbc dc89 b3be 74f1 84bd 0084 573e
000001a0: 16dd 8dbb 2f66 31bc d926 05be 73ed 02be
000001b0: 84c3 b2be f487 313d 4403 e5bd c21d abbe
000001c0: 4217 7d3e 4839 24be 16fc 73be a94f 13bd
000001d0: 082d 443e 27d8 6a3e 8d9b 1dbe cebe fc3d
000001e0: d15b df3d ff4a 113e ccf6 80be f9fc 443e
000001f0: 338e 8bbe 2fe8 2d3d 5d0a aebd 9431 a0be
00000200: b2be 18be 9b53 6d3d 9e79 d63d 21ef 253e
00000210: 4024 d1bd 9aa9 683e bd24 8cbe e64c 8bbe
00000220: 552a 2ebe 44f9 203e bbd7 7f3d 88d7 92be
00000230: 7122 893e 2201 103e 55c0 adbd 7966 b1bc
00000240: 7ba8 b63d 89ac 753e 1bab 7b3e a46e 72be
00000250: df74 b63d 09e4 a9bd 5f0d 12be 9b95 103e
00000260: 1231 943d 5f71 943e 56b2 2cbe f18c 4abe
00000270: 07b6 263d 955f f83d 40e0 91be 0231 f9bc
00000280: 2289 4f3e afda 363e 5c6a a4be 3dc8 633e
00000290: 39b0 3d3e 2292 95bd b915 143d b399 cabe
000002a0: 3e4e 053e bb8d 173d 05d9 1ebd 8d8c e7bc
000002b0: 3348 5f39 9f87 253e 33f1 94bd 49ba 473c
000002c0: 24e5 67be 019d d8bd 77ee c3be 2b12 813e
000002d0: 7169 92bd 62b3 b23d 7a54 bfbd 5384 49be
000002e0: 102d 093e 0169 a63c 6df2 d73d 59bf 513e
000002f0: 9c84 04be ca63 f6bd bb0e 9cbd 99b6 373e
00000300: 8ced e9bc 0a76 443e 9c7e bdbd 8cbb 17be
00000310: a68e 5f3a c02b 86be 25aa 8e3e 5812 653c
00000320: 5210 71be 81a2 8ebe 71d7 abbe 23f7 c1bc
00000330: f8c2 98bd 1a24 fc3d 083b 60be 21b4 1f3e
00000340: 84db 14be a488 6bbb 5dc6 a0be 546f 8a3e
00000350: 2068 8fbb af3f 09be 7b19 73bb 6470 76be
00000360: bb47 42bd b0d5 1ebe c129 c63e 559f 593e
00000370: 864e d9bd 8567 6b3e 1011 56be 5c8e 9e3d
00000380: 81ba b83c 0b5f c4bc fe25 843e cec4 913e
00000390: 2245 3a3e 60b7 9fbd 8185 d6bd 5ab5 083d
000003a0: d989 7fbd bb04 dd3d 6ca8 313e 6202 78bd
000003b0: 1a8b ab3e 4acd 47be a2bb 8cbe 42a3 593e
000003c0: df87 1e3e c25f 28be d700 1cbe 51ef 0d3e
000003d0: eb67 4b3e 70fc 48bd 7885 603d 8083 01bb
000003e0: f28e 783e d74a 023d 3cbb e23d be16 8d3e
000003f0: 56b9 553e af1f e83c fc8c 4fbe 2260 5cbe

bias_ih_l0 f4 [40]
-0.09896565 -0.045832556 0.17780434 -0.007083685 -0.21281263 0.060080644 -0.02514648 -0.17377189
0.24869272 -0.028821044 0.32559755 -0.16752838 0.1765043 0.072474115 0.038131084 0.111672826
-0.14940397 0.37776813 0.19879214 -0.16030043 0.3244741 0.20257176 -0.13750222 -0.14081173
0.33656758 -0.3207561 -0.22254106 -0.088021986 0.26597503 0.2134408 -0.06283615 -0.17553048
0.1028908 -0.05099405 -0.15405086 0.22143438 0.11847829 0.06551297 -0.20546734 0.016747475
00000000: 81ae cabd ebba 3bbd 5712 363e 421e e8bb
00000010: 8eeb 59be 1f17 763d feff cdbc 42f1 31be
00000020: 4ea9 7e3e 1c1a ecbc b9b4 a63e 8f8c 2bbe
00000030: 8bbd 343e 4f6d 943d 572f 1c3d b9b4 e43d
00000040: 5bfd 18be d36a c13e 2b90 4b3e cc25 24be
00000050: 7821 a63e f96e 4f3e 62cd 0cbe f330 10be
00000060: 9652 ac3e 253a a4be cee1 63be df44 b4bd
00000070: e12d 883e 3a90 5a3e 3db0 80bd 43be 33be
00000080: 69b8 d23d 23df 50bd 82bf 1dbe b2bf 623e
00000090: bfa4 f23d aa2b 863d 0866 52be 0032 893c

bias_hh_l0 f4 [40]
0.20336947 0.24462429 -0.13489152 0.35579392 0.07464251 -0.21879217 -0.09251732 0.045630764
0.37634465 0.31094468 0.13548385 0.0413442 0.23947741 0.1260318 -0.13697441 -0.072280385
-0.10219584 0.29270715 0.043027297 -0.17643476 -0.18661514 -0.3401728 0.12854303 -0.06374428
0.28285378 0.054713078 -0.06847117 -0.31887808 0.012855653 0.113276266 -0.12964563 0.3528093
-0.23456489 0.08891018 0.25712353 -0.07961336 -0.23152453 -0.21226107 -0.09949933 -0.27074194
00000000: 1640 503e ca7e 7a3e 0121 0abe 9f2a b63e
00000010: 2cde 983d 0e0b 60be b879 bdbd 53e7 3a3d
00000020: 3fb0 c03e 2434 9f3e 47bc 0a3e 8958 293d
00000030: 9139 753e 7b0e 013e 0543 0cbe bd07 94bd
00000040: 0d4c d1bd b6dd 953e 643d 303d 50ab 34be
00000050: 0a18 3fbe 212b aebe c9a0 033e 5c8c 82bd
00000060: 36d2 903e d21a 603d 9d3a 8cbd fd43 a3be
00000070: 84a0 523c 63fd e73d d3c1 04be 6ca3 b43e
00000080: c731 70be 8a16 b63d b2a5 833e 540c a3bd
00000090: c414 6dbe f75a 59be 4ec6 cbbd b09e 8abe

weight_ih_l0 f4 [40, 22]
0.035568222 -0.0004404903 -0.17991759 0.29530418 -0.09112413 0.13112126 -0.26662314 -0.07967689
0.1233569 -0.120402865 0.3034994 -0.097342245 0.31143913 -0.06744426 -0.13781574 -0.14178248
0.11617937 0.17624317 -0.28100052 0.05037575 -0.004097095 0.115949854 -0.11462328 -0.13334706
0.0069659604 0.12376835 0.15963608 -0.18276761 0.12021055 0.08257032 -0.18557313 0.19744377
0.07960378 -0.14851153 -0.11658478 0.286554 0.054821927 -0.15483359 -0.16878873 0.100023426
0.14287437 -0.19149077 -0.053448774 -0.22290847 0.019035023 0.014662849 -0.2868207 -0.21823989
0.21478994 -0.32817054 -0.16746573 0.013533256 0.1797403 0.22217834 0.066089034 0.24895187
0.03628419 0.27074042 -0.14433944 -0.1722483 0.2839479 0.2196329 0.31662276 0.2410255
0.07689156 -0.15521319 0.056237455 0.35087672 -0.06682168 0.089958906 0.066674106 -0.2452377
-0.031996507 -0.1647362 0.14577368 -0.13201737 -0.086242974 -0.069500975 0.24379107 0.35178867
-0.04741873 -0.23847032 0.09342939 0.10233535 0.10266228 0.274288 0.01847408 0.3418828
0.10753178 -0.002542755 0.09744537 -0.08039674 0.18728074 0.16085148 0.24602845 0.009550851
-0.34377843 -0.088756256 -0.26406094 -0.1673302 0.21269993 -0.0489561 -0.061826188 -0.070350625
0.08137888 -0.30070257 -0.35769546 -0.080813035 -0.2926062 0.09079978 0.10562434 0.19353908
-0.32999927 0.36803386 -0.30799836 -0.100132756 0.19656534 -0.23651338 -0.1962291 -0.26350066
0.063038036 -0.11997664 -0.12500216 -0.09885724 -0.16984147 -0.1269863 -0.3438382 0.15728135
-0.14950325 0.13791704 0.3102753 0.20601745 -0.025940575 -0.23673443 -0.10457358 0.32979923
-0.10750796 -0.08615413 -0.23072459 0.2719659 0.22358328 -0.061483026 0.002938443 -0.13167639
0.25708613 -0.08833535 -0.20784682 0.11879335 -0.17384142 -0.023074942 -0.26516458 0.26653478
0.07081083 -0.13993876 0.13402314 -0.050366405 0.17980726 0.2496123 -0.17696509 -0.2582952
-0.27390775 0.14072722 0.2127311 -0.0293788 -0.2476704 -0.31768537 -0.17276908 -0.25768447
0.18549073 -0.19478825 -0.19202611 0.16264413 -0.26129413 0.24081378 0.30009097 0.30091184
-0.044350874 0.2987426 -0.21038821 0.22550292 -0.019645035 -0.117021285 -0.1360096 0.20926319
-0.22337927 0.1761728 -0.21179105 0.17315201 -0.10761106 -0.019482916 0.22349775 -0.04356297
-0.22360857 -0.028248534 -0.2642906 0.30593973 0.0037604743 0.27492774 0.019477202 0.059133068
-0.14712772 0.23590815 -0.25265443 0.09036327 -0.04666897 0.34335962 -0.06520109 -0.22195224
0.19237639 0.067661725 -0.17402425 0.068307124 -0.20704237 0.27539203 -0.2379312 0.062216453
-0.336585 -0.0023276135 0.38239267 0.16676047 0.019025883 -0.33495316 -0.06885728 0.38278398
-0.35004044 0.24108322 0.16121934 -0.21337394 0.32580385 0.15896803 -0.20503224 0.28101543
-0.036436975 0.26759243 0.31926462 0.1322323 -0.126017 0.43127707 -0.10630392 -0.00731978
0.10349772 -0.12430546 -0.1624632 -0.17215446 -0.08402548 0.19462137 -0.025655909 -0.24401714
-0.011792843 0.074978516 0.05828092 0.17424105 0.16870135 0.07764742 0.26186338 0.07730092
00000000: fcaf 113d 9bf1 e6b9 513c 38be 1c32 973e
00000010: 4a9f babd a744 063e d482 88be a32d a3bd
00000020: 8ba2 fc3d c795 f6bd 4664 9b3e 5f5b c7bd
00000030: f374 9f3e 3720 8abd 921f 0dbe 6d2f 11be
00000040: 73ef ed3d 1779 343e 4ddf 8fbe cd56 4e3d
00000050: ed40 86bb 1e77 ed3d 9cbf eabd 228c 08be
00000060: b642 e43b 437a fd3d a477 233e 6f27 3bbe
00000070: f330 f63d a11a a93d e206 3ebe b32e 4a3e
00000080: 4e07 a33d 6813 18be 00c4 eebd 35b7 923e
00000090: f58c 603d b28c 1ebe f4d6 2cbe 15d9 cc3d
000000a0: a94d 123e 2816 44be 1aed 5abd 1e42 64be
000000b0: 56ef 9b3c 723c 703c 2ada 92be 477a 5fbe
000000c0: e5f1 5b3e f805 a8be 237c 2bbe 97ba 5d3c
000000d0: d70d 383e b882 633e b059 873d 3ded 7e3e
000000e0: bb9e 143d 7d9e 8a3e b8cd 13be dc61 30be
000000f0: 9f61 913e 72e7 603e 611c a23e 64cf 763e
00000100: 5279 9d3d 35f0 1ebe 3f59 663d 1da6 b33e
00000110: ced9 88bd 603c b83d 6f8c 883d 971f 7bbe
00000120: c50e 03bd 9bb0 28be b245 153e 902f 07be
00000130: 28a0 b0bd 8756 8ebd 5ea4 793e a51d b43e
00000140: 243a 42bd 9031 74be e857 bf3d 3295 d13d
00000150: 9a40 d23d 7a6f 8c3e f456 973c 430b af3e
00000160: 9f39 dc3d 5aa4 26bb 7091 c73d 0ca7 a4bd
00000170: 86c6 3f3e 40b6 243e e2ee 7b3e 2c7b 1c3c
00000180: ba03 b0be d7c5 b5bd ff32 87be 9c58 2bbe
00000190: 03ce 593e 3186 48bd 753d 7dbd fd13 90bd
000001a0: f8a9 a63d b0f5 99be dc23 b7be 4e81 a5bd
000001b0: 7bd0 95be 3cf5 b93d 9351 d83d 1c2f 463e
000001c0: aaf5 a8be ef6e bc3e f6b1 9dbe 6712 cdbd
000001d0: 6d48 493e 9030 72be 48f0 48be 8fe9 86be
000001e0: 161a 813d 50b6 f5bd 9100 00be aa75 cabd
000001f0: ecea 2dbe b208 02be 900b b0be 5d0e 213e
00000200: 6117 19be 203a 0d3e 67dc 9e3e 3df6 523e
00000210: 5481 d4bc 836a 72be ac2a d6bd 72db a83e
00000220: 222d dcbd 9471 b0bd 1143 6cbe 1d3f 8b3e
00000230: 04f3 643e a0d5 7bbd e592 403b 2dd6 06be
00000240: cba0 833e 2ae9 b4bd ccd5 54be ee49 f33d
00000250: 7c03 32be a907 bdbc a7c3 87be 3f77 883e
00000260: 4505 913d 1b4c 0fbe 5d3d 093e 014d 4ebd
00000270: 651f 383e 5e9a 7f3e 5636 35be 453f 84be
00000280: a33d 8cbe cc1a 103e 2ed6 593e cfab f0bc
00000290: 4f9d 7dbe a8a7 a2be 61ea 30be 38ef 83be
000002a0: 48f1 3d3e 9276 47be 7ea2 44be 2f8c 263e
000002b0: 58c8 85be e397 763e 86a5 993e 1e11 9a3e
000002c0: 43a9 35bd caf4 983e 0270 57be 3dea 663e
000002d0: a0ee a0bc dba8 efbd 1a46 0bbe 1749 563e
000002e0: 89bd 64be a466 343e c1df 58be c34e 313e
000002f0: 3063 dcbd a39a 9fbc 98dc 643e 166f 32bd
00000300: a5f9 64be 7869 e7bc 1951 87be 22a4 9c3e
00000310: 4a72 763b 54c3 8c3e a78e 9f3c 8435 723d
00000320: a6a8 16be e891 713e ec5b 81be 6110 b93d
00000330: f627 3fbd d5cc af3e 2688 85bd 7347 63be
00000340: 51fe 443e 3b92 8a3d 6a33 32be 9be4 8b3d
00000350: ea02 54be 2f00 8d3e 3da4 73be aed6 7e3d
00000360: de54 acbe e08a 18bb f9c8 c33e 42c3 2a3e
00000370: 2bdc 9b3c fb7e abbe 0c05 8dbd 43fc c33e
00000380: 8038 b3be 85de 763e af16 253e b37e 5abe
00000390: c3cf a63e 84c8 223e f9f3 51be 41e1 8f3e
000003a0: f03e 15bd e001 893e a776 a33e e767 073e
000003b0: 9a0a 01be 59d0 dc3e dfb5 d9bd c4da efbb
000003c0: 9df6 d33d dc93 febd c15c 26be 4249 30be
000003d0: 8d15 acbd d34a 473e 572c d2bc a1df 79be
000003e0: c536 41bc 568e 993d f9b7 6e3d 3f6c 323e
000003f0: 0cc0 2c3e 9c05 9f3d f512 863e f24f 9e3d
