LSTM/code/model/old_model/model_mk0.pt (torch, 52615 bytes, 10 tensors)

weight_ih_l0 f4 [80, 88]
000000 03 e9 2d 3e ef e7 25 3e 32 82 42 be f4 b4 91 bd
       0.16983418 0.16201757 -0.18994978 -0.07114592
000010 76 f4 27 be 3e 1f 1b be 73 80 25 bc ed e6 d2 bc
       -0.16401848 -0.15148637 -0.010101425 -0.02574488
000020 96 8d f8 bd b5 2d 10 bb da 9a 01 3d fe b7 d7 bd
       -0.121363804 -0.00219999 0.03164182 -0.105331406
000030 27 a8 1f 3e f0 ab 1d 3e ca 8b 8e bd 36 d5 5d 3d
       0.15591489 0.1539762 -0.069602564 0.054158412
000040 7e 12 3a 3d 84 70 ab 3c cb 77 23 3e a7 01 2a 3e
       0.04542779 0.020927675 0.15963666 0.16602193
000050 48 bc 04 3e 6c 15 ff bc 57 96 2a 3e 95 ae 42 be
       0.12962449 -0.031138144 0.16658913 -0.1901191
000060 e0 eb 34 3c 39 84 57 3e 71 97 10 bd d0 d8 68 bd
       0.011042565 0.21046533 -0.035300676 -0.056847394
000070 fe 65 8d 3d 1d 17 48 be 32 87 30 be 03 0f 86 bd
       0.06904219 -0.19540067 -0.17239073 -0.06545832
000080 28 40 1a be df ad 50 be 95 41 f6 bd 60 f6 5d 3e
       -0.15063536 -0.20378827 -0.120242275 0.21676016
000090 0a 72 fb 3c 9f 59 fb 3d 6a f5 fc 3c 95 46 55 3e
       0.030694026 0.12272953 0.030878741 0.20827706
0000a0 40 97 30 3d 95 a2 9b 3d bb 99 60 3d ce fe c3 bd
       0.043112993 0.075993694 0.05483411 -0.095700845
0000b0 42 6c 05 3d 7f ef c5 bd 71 c9 80 3c 45 d2 4b 3e
       0.032573946 -0.09664821 0.015721055 0.1990443
0000c0 d5 d6 28 3d 71 1c 49 be e2 13 e5 bc b6 98 9f bd
       0.041220505 -0.19639756 -0.027963582 -0.07792799
0000d0 72 30 2b 3c eb 75 c2 bd a1 8f 8c bd 0d b0 85 3d
       0.010448562 -0.09495147 -0.068633325 0.0652772
0000e0 f2 2f 9e bd 71 a6 88 be c5 fc 83 be b5 b8 05 be
       -0.077239886 -0.26689485 -0.25778785 -0.13058741
0000f0 aa 54 e1 3d d2 e9 bd 3c 8c e8 1a be a0 ce ce bd
       0.110024765 0.023182783 -0.15127772 -0.10098004
000100 dd f9 0a be e2 0a 99 bd ec 87 40 3d 15 92 3c be
       -0.13571878 -0.07472779 0.047004625 -0.18415101
000110 74 c7 61 be dd 55 14 be fd a2 8a be dd bb 05 3e
       -0.22048742 -0.14485879 -0.27077475 0.13059945
000120 1b bb 3b bc 4a a3 e9 ba d7 f1 ab 3d 77 c8 7b 3e
       -0.011458184 -0.0017825153 0.08395737 0.2458819
000130 31 3c c9 bd 49 bd 14 be 65 59 c2 3d 82 ee 20 3e
       -0.09825934 -0.14525332 0.09489707 0.15715984
000140 50 57 48 3e d7 e3 a6 3d 42 54 83 bc 1d a5 1e bd
       0.19564557 0.08148926 -0.016031388 -0.038731683
000150 64 82 bf bb f7 11 94 bd 24 48 72 be 1e 1e 8b bc
       -0.005844401 -0.07229989 -0.23660332 -0.016982134
000160 42 dc 9a bd 4b 6d 2c be a3 b8 17 be b4 df 00 be
       -0.07561542 -0.16838567 -0.14816527 -0.12585336
000170 b0 c5 28 be 15 06 3b be e8 8b 13 be a2 0a b7 3d
       -0.16481662 -0.18264039 -0.14408839 0.08937575
000180 d3 05 b1 bd ae 22 5c 3e e4 c3 ea 3d 92 50 07 bb
       -0.08643689 0.21497604 0.114631444 -0.002064739
000190 41 73 eb bc ce 4b a3 bd 26 1e d4 bd 29 01 dc 3d
       -0.02874148 -0.07973443 -0.10357313 0.10742409
0001a0 d4 09 ac bd e3 e8 0d 3e 47 20 85 be 82 0d 1b 3d
       -0.08400312 0.1385837 -0.26001188 0.03785468
0001b0 7c a6 00 bd 98 5a 25 bd 42 c7 8c 3d a3 fb ae 3d
       -0.031408772 -0.0403696 0.06873943 0.0854409
0001c0 f5 31 2a be ec 02 e0 3c 7a ca 18 be 32 e5 cf bd
       -0.1662062 0.027345143 -0.14920989 -0.101511374
0001d0 6f 97 ef bd 2c a7 3f be 65 1e 43 bd 23 bc d1 bd
       -0.116988055 -0.18716115 -0.04763641 -0.10240962
0001e0 0c 54 8c 3e af 59 11 3e c3 da 65 bd b3 d7 2d 3c
       0.27407873 0.14194368 -0.05611683 0.010610509
0001f0 1e 5b 2d be 27 35 65 3d 22 d3 3f be 15 56 ea bd
       -0.1692929 0.055958893 -0.18732885 -0.114422
000200 f1 da 2b 3d 4a c3 d2 3d 64 ab 0e 3e c9 81 ca 3d
       0.041956846 0.10291155 0.13932568 0.09888036
000210 8a d5 23 3e 13 15 bd bd a8 3f 04 3d a6 9c 3a 3e
       0.15999427 -0.09232535 0.03228727 0.18223819
000220 98 12 0f 3e 01 f5 0b 3e 98 ac 1e 3e f9 d0 b5 3d
       0.13971937 0.1366768 0.15495527 0.08877749
000230 bb db d6 bd e9 99 64 3e e2 63 50 be 45 1c df 3d
       -0.10491129 0.22324337 -0.20350602 0.10894064
000240 ea f7 86 bd c6 50 6d be c4 3a 5a be 63 7a 27 3e
       -0.065902546 -0.23175344 -0.2131148 0.1635528
000250 eb 84 24 bc 6d d0 93 3d 1f 63 83 be 2d 23 12 bd
       -0.010041456 0.072174884 -0.2566156 -0.035678077
000260 81 c7 66 3e 73 90 09 be f3 d8 62 be bf 1a 82 bd
       0.22537042 -0.13434009 -0.22153072 -0.06352758
000270 52 5a f3 3c 5b 58 2b 3c 27 46 9b 3d d9 13 12 be
       0.029706154 0.010458077 0.0758174 -0.14265384
000280 f0 fe 5b 3e 92 51 11 bd 3d 06 37 3e 2e 45 c7 3d
       0.2148397 -0.035478182 0.17873473 0.09729992
000290 19 c9 95 bd 35 3b 0e 3e 8c 20 07 3e f2 6a 04 3c
       -0.07313747 0.13889773 0.1319601 0.008082138
0002a0 44 48 a2 3d 70 d4 94 3d fe 9f 56 be dd 98 a4 3c
       0.0792394 0.07267082 -0.2095947 0.020092422
0002b0 89 24 79 be 5b 14 89 bd d0 55 27 be f9 cf f5 3d
       -0.24330343 -0.066933356 -0.16341329 0.12002558
0002c0 97 ac 0c 3e 9a 4d 43 be 5e 55 4e 3d 9c 2e 05 bd
       0.13737713 -0.19072571 0.05037438 -0.032515153
0002d0 1e 72 0d 3c 8f 5e 0e 3e 7b 41 f6 3d ab 93 01 3e
       0.008633165 0.13903259 0.12024208 0.12653987
0002e0 6f c0 60 bd d1 6b ae 3d 4d ab 88 3d 56 e8 15 be
       -0.05487102 0.08516658 0.06673298 -0.1463941
0002f0 36 34 28 be 55 99 0a 3b 52 b2 bc bc 1d 2f a0 bd
       -0.16426167 0.0021148522 -0.023034249 -0.07821486
000300 9a 00 4e be db b5 99 3c c0 93 42 be 85 b5 8d 3e
       -0.20117417 0.018763473 -0.19001675 0.2767755
000310 65 9b f7 3d 9d 88 c8 3d 74 7d d3 3d 0c a1 0c 3e
       0.12090186 0.09791682 0.10326663 0.1373331
000320 7c 32 73 bd aa 8d 0f be 0a 46 80 be 1f 08 b7 bd
       -0.059374318 -0.14018884 -0.25053436 -0.08937096
000330 b2 f4 73 bd 91 ab a6 3b 59 22 94 bd 47 d2 87 bd
       -0.05955953 0.0050863703 -0.07233114 -0.06631904
000340 7a 9c 08 3e c6 a8 e2 3d b6 99 ea 3d 85 81 69 3e
       0.13340941 0.11067347 0.11455099 0.22803314
000350 92 80 a7 3c 24 09 a2 3d 67 55 8c 3d b2 85 79 3e
       0.02044705 0.079119 0.06852227 0.24367407
000360 2e 53 7d be 77 97 b8 3d a3 ab 24 be c0 bf 3c 3e
       -0.24738762 0.090132646 -0.16081099 0.18432522
000370 91 7e 26 3e 60 31 2d be 43 53 e0 3d f4 d9 80 3e
       0.16259219 -0.16913366 0.10953381 0.25166285
000380 ed 44 2a 3d e9 92 94 bd 04 5c c2 3d 30 6d 80 3d
       0.04156964 -0.072545834 0.09490207 0.06270826
000390 68 4b 12 be ef 2c ce 3d 74 97 12 3d 16 95 c6 bd
       -0.14286578 0.10067164 0.03578897 -0.09696405
0003a0 27 7a 4a be d3 94 53 3e ab 26 81 3d c3 43 09 be
       -0.1977316 0.2066224 0.063062035 -0.13404755
0003b0 0a f7 39 be fb 3c 8f 3d fa c9 0d be 2f 5c 8e 3e
       -0.18160644 0.06994053 -0.13846579 0.27804706
0003c0 5d 0a 7d 3e 3c df 4f bd 8e 26 4e 3e e3 8c ce 3d
       0.24710985 -0.050750002 0.20131895 0.10085466
0003d0 20 af 14 3e 23 1d d7 bd c5 44 09 be 22 f2 f6 bd
       0.1451993 -0.10503604 -0.1340514 -0.12057902
0003e0 c3 ba d1 3d 40 22 13 be 73 05 3f 3e 6f 08 91 3d
       0.102407 -0.14368534 0.18654422 0.07081687
0003f0 1a 3b 34 3e be 1a fd b8 03 c4 28 3e 9d 4b 89 3e
       0.1760067 -0.00012068961 0.16481023 0.268155

weight_hh_l0 f4 [80, 20]
000000 6a c5 0a be a2 c3 7d 3e 1a ad 0f 3e cb 24 03 3e
       -0.1355187 0.24781659 0.14030877 0.12807004
000010 4f 16 95 3e d7 da 7e 3e 44 ae 15 39 1d 77 73 3d
       0.29118583 0.24888168 0.00014274666 0.059439767
000020 40 55 89 3e d6 6a d9 bd 0a fb 22 3e 56 00 54 ba
       0.26822853 -0.106160805 0.15916076 -0.0008087208
000030 56 f6 6a 3c 64 33 09 be cb 49 45 3d 6c 3d 2b 3e
       0.014340958 -0.1339851 0.048166078 0.1672265
000040 e4 f0 31 3e f3 11 02 3c 92 fe 78 bd bc 19 b6 bc
       0.17377049 0.00793885 -0.060789652 -0.022229068
000050 78 0f 8b be 5a 35 2a bd 74 64 3a bd f8 8b dd bd
       -0.2716024 -0.041554786 -0.045505956 -0.108177125
000060 d2 b3 af 3d c4 09 04 3d ef d7 5a 3d 20 85 59 be
       0.0857922 0.032235876 0.053428587 -0.2124219
000070 22 57 e3 3d a2 5b 59 3d 4f 69 8f 3e 29 52 21 3e
       0.11100604 0.053065903 0.28010032 0.15753998
000080 17 6a 23 be a9 03 8c be b7 5e 98 3d f9 f1 21 3e
       -0.15958439 -0.27346542 0.074399404 0.15814961
000090 8c e9 0f be b5 62 9c 3d c2 ad 95 3e fa 2c b4 bd
       -0.14053935 0.07636014 0.2923413 -0.08797641
0000a0 22 42 e5 bd 80 7d 07 3e 99 0e 48 3e be cf 78 bd
       -0.111942545 0.13231468 0.19536819 -0.060744993
0000b0 6d a9 a7 bd 46 89 4c 3e 05 17 9d 3d 21 62 78 be
       -0.08186612 0.1997424 0.07670406 -0.24256183
0000c0 e4 66 bc bd 1f 6a 50 bd 57 7c 84 bd 5e 7c b8 bc
       -0.09199312 -0.050882455 -0.064690284 -0.02252024
0000d0 97 04 8c 3e dc 3f ec bd 17 0d 82 39 49 06 7b 3d
       0.27347252 -0.11535618 0.00024805285 0.06128529
0000e0 d2 0e cc 3d 1e bc 78 be 55 a7 aa bc 47 d8 86 3d
       0.09963764 -0.24290511 -0.020831743 0.065842204
0000f0 27 db 15 be 35 4e 61 bd 94 ea 1c 3e 7d 37 4e bd
       -0.14634381 -0.055006225 0.1532386 -0.050345886
000100 2d 3b 29 be 2e 9a 2b 3e e6 86 21 be 19 b9 1a be
       -0.1652648 0.16758034 -0.15774116 -0.15109672
000110 ac 54 87 3e ac 62 91 bc df d1 37 3e 2f 80 aa 3d
       0.26431787 -0.017747246 0.17951153 0.0832523
000120 82 b0 19 be bb e9 7a b8 79 af ad 3d 7c a3 99 3d
       -0.15008739 -5.9822323e-05 0.084807344 0.07501885
000130 69 ad a9 3d b7 4c 19 bc 70 51 43 3e 6c 80 49 3e
       0.082850285 -0.009356669 0.19074035 0.19677895
000140 4e 3b 4b be b9 f9 a9 3d b1 2f e9 3d d2 2c 81 3c
       -0.19846842 0.08299584 0.113860495 0.015768442
000150 15 f2 ce bd 2c 09 ab 3d ab d8 41 3e 72 1d 8c bd
       -0.10104767 0.08351359 0.18930309 -0.06841554
000160 c3 b2 db 3d 41 43 5c be 48 05 a2 bd c8 04 6b be
       0.107274555 -0.2151003 -0.079111636 -0.22951043
000170 04 ab 8a 3c 1f d3 5a be 50 27 08 be 06 88 73 3e
       0.01692725 -0.21369599 -0.13296247 0.23782358
000180 d0 56 9e 3d 5b d0 47 bd d8 6b 52 3e 01 51 79 be
       0.07731402 -0.048782688 0.20548952 -0.24347307
000190 ea 42 30 3b 7a 41 5f 3d 6a 26 3d 3e 3f 38 d6 bd
       0.0026895353 0.054505803 0.18471685 -0.10459947
0001a0 34 7e a9 3c 34 3e 7c 3e 68 9d 3b 3e fe 0b 19 3e
       0.020690061 0.24633104 0.18321764 0.14945981
0001b0 0a 0b 92 3d 01 42 a1 bd e2 54 87 3e 9b 13 56 be
       0.07131012 -0.07873917 0.26431948 -0.20905916
0001c0 4d 8c 25 3d 8f b4 35 be 0c 16 56 be ae da af 3d
       0.040417004 -0.17744659 -0.20906848 0.08586632
0001d0 cf 2b 24 bd a2 db 00 3d 46 17 75 3e 56 6f 34 3e
       -0.04008084 0.03145946 0.2393466 0.17620596
0001e0 91 89 4b bd 1b 4e 0b be cc 4e 93 bd 62 09 8c 3e
       -0.04969174 -0.13604014 -0.07192764 0.2735091
0001f0 a2 bc 59 3e 24 c6 ff bd 96 7c 82 3e 01 de e0 bd
       0.21263364 -0.12488964 0.25485677 -0.10979844
000200 56 8a f1 bd a8 7d 4a be d6 71 84 3e e0 79 bc bd
       -0.117939636 -0.19774497 0.258681 -0.09202933
000210 2b 1f 41 be 86 94 ac bb 6a 6c c8 bd f4 4b b2 3c
       -0.18859546 -0.005266729 -0.09786303 0.021764733
000220 3e 6d 87 3e d4 df 1e 3e ab 29 75 3e 7c 60 dc 3b
       0.26450533 0.15515071 0.23941676 0.006725369
000230 64 1d 19 be 67 9f ba bd 1a e1 fa 3d eb d5 4a 3e
       -0.14952618 -0.09112435 0.12249966 0.19808166
000240 a7 fb 0b 3e 98 20 8e 3d e2 c3 31 3b c0 b4 06 be
       0.13670217 0.069398105 0.0027124812 -0.13154888
000250 7c a8 1e be a7 67 88 3e f8 53 63 3d 48 f6 eb bd
       -0.15493959 0.2664158 0.0555 -0.11521584
000260 3c 33 25 be 44 22 3f bc cb 59 16 be 0d c6 ca bd
       -0.16132826 -0.011665884 -0.14682691 -0.099010564
000270 03 e7 8d 3d 1d f5 ca bc 7e 4d 13 be 85 b8 54 bc
       0.069288276 -0.024775082 -0.1438503 -0.012983446
000280 f8 49 6b be b6 b2 b5 3d 39 0d 1a 3d 44 8b a9 bd
       -0.22977436 0.08871977 0.037610266 -0.08278516
000290 97 fc 86 3d 0a ee 09 3c d7 25 1b be 95 28 b3 bd
       0.065911464 0.008418569 -0.15151154 -0.08747975
0002a0 ce 89 fd bd f9 4d 25 3e b0 96 e9 3d 61 80 09 be
       -0.123798 0.16143025 0.114056945 -0.13427879
0002b0 49 3c 30 be 04 9d c7 bd 5b a4 d8 3c 8f da 39 be
       -0.17210497 -0.09746745 0.026445558 -0.1814978
0002c0 e9 fa 41 3e 31 6b d9 bc 8a c8 81 bd 71 de 5e 3e
       0.18943371 -0.02654037 -0.06337078 0.21764542
0002d0 b1 0a 4a be d2 d4 45 be 08 14 cd 3b cc 53 2c be
       -0.19730641 -0.19319466 0.0062584914 -0.16828841
0002e0 22 7b c9 bd 3d 83 11 be 2b ed 4b 3e a5 4b 4a 3e
       -0.09837939 -0.1421022 0.19914691 0.19755419
0002f0 20 13 00 3e 24 fa df 3c 05 99 1e be 3b 46 ba 3d
       0.12507296 0.027340956 -0.1548806 0.09095427
000300 46 29 55 3d e1 b0 ae bd d4 5a 94 3d 3b 3d 58 bd
       0.052041315 -0.08529831 0.072438866 -0.05279277
000310 e9 74 b0 3d 09 76 5a be e0 3c 3d 3e 6c b8 74 bd
       0.08616049 -0.2133409 0.18480253 -0.05974619
000320 af 2f 53 be 76 ed d7 bd e4 24 c2 ba 45 ff a8 bd
       -0.20623659 -0.10543339 -0.001481202 -0.08251814
000330 c6 c3 45 3e d4 59 8c bd a8 0f 3e 3e 06 b6 21 3e
       0.19312963 -0.06853071 0.1856066 0.15792093
000340 82 15 59 3e 46 a7 b2 3d fd d6 a3 bd 29 b4 44 be
       0.21199611 0.08723311 -0.0799999 -0.1920935
000350 16 14 0c bd 70 12 f4 3d dc 5d 97 bd 05 55 59 be
       -0.034198843 0.11917579 -0.07390949 -0.21223839
000360 30 40 fc 3c 61 9e 17 3e 77 9c 94 3d b8 aa 51 bd
       0.030792326 0.1480651 0.07256406 -0.0511882
000370 2d 78 7e 3d 0f 55 1f 3e be 32 36 3e 76 62 e2 3d
       0.062126327 0.15559791 0.17792794 0.11053936
000380 1d 59 88 3e a3 65 2e 3e 52 d8 49 be 01 1c 61 3e
       0.26630488 0.17030959 -0.19711426 0.21983339
000390 13 ce c3 3d f0 8b 8b be a9 03 d2 bd ae 89 31 be
       0.0956079 -0.272552 -0.10254604 -0.17337677
0003a0 b2 0c de bb 23 98 84 be 31 4f d4 3d 02 20 25 3d
       -0.0067764157 -0.2589732 0.10366667 0.04031373
0003b0 55 77 77 be 31 9f 99 3d 7f 60 7a 3e 23 6c 15 3e
       -0.24166615 0.075010665 0.24450873 0.14592032
0003c0 5a f8 75 be e5 f4 e9 bd f1 d4 81 3e cd d7 8b bd
       -0.2402052 -0.11423663 0.25357774 -0.0682827
0003d0 e4 b8 13 be 68 3d d5 3d 11 93 1b 3e fd 77 1c 3e
       -0.14425999 0.10412103 0.1519282 0.15280147
0003e0 c7 3d 18 3e 97 3f 08 3e c2 fa 1e be dd c7 13 be
       0.14867316 0.13305508 -0.15525344 -0.1443171
0003f0 07 5b ae 3d 29 56 19 3e 89 3d a6 3d 35 e2 66 bd
       0.08513456 0.14974274 0.08117206 -0.05636807

bias_ih_l0 f4 [80]
000000 da ae 73 3e 7d 81 55 3e ef 81 29 3d d3 a5 1e 3e
       0.2379717 0.20850177 0.04138368 0.15492944
000010 61 0f f8 bd 9d 81 c0 3d d8 f4 9b bd 69 04 a9 bd
       -0.12112308 0.09399722 -0.076150596 -0.08252794
000020 a3 67 64 bc c5 a8 64 3e fb dc 10 3d 1f 33 ea 3d
       -0.013940725 0.22330005 0.035366993 0.11435532
000030 81 2f b0 bd 52 fc fb bc 94 e4 7b 3c 37 cd d8 3d
       -0.08602811 -0.030759964 0.0153743215 0.105860166
000040 00 79 9e 3d 99 5c cf bc 5d f2 f3 3d 93 41 62 3d
       0.07737923 -0.025312709 0.119114615 0.055238318
000050 32 f7 14 be a4 f3 de 3d 5b d3 74 3e 1d 9e 42 3e
       -0.14547423 0.108863145 0.2390875 0.19005628
000060 b6 e1 51 3e 04 74 2c 3e 06 b2 8c bd 15 b5 4b 3e
       0.20496258 0.16841131 -0.06869893 0.19893296
000070 19 76 b7 3d cf 98 25 be b5 ed 05 3d 39 34 01 3e
       0.08958072 -0.16171573 0.0326974 0.12617578
000080 52 12 dc bd 09 f2 19 3e e4 20 e3 3d 8d f4 91 3b
       -0.10745682 0.15033735 0.11090258 0.0044542016
000090 52 5e 3c 3d 90 45 8c 3b 71 4d 0a bd e3 a9 2d 3e
       0.04598839 0.0042807534 -0.03376526 0.16959338
0000a0 0e c2 a8 bd 21 99 09 bd 8f 40 18 be 9d 00 4d 3d
       -0.08240138 -0.0335933 -0.14868377 0.050049413
0000b0 ae f9 cf 3d 46 64 8a 3d eb ae d6 bd 0f ee cb bd
       0.101550445 0.06757407 -0.10482582 -0.099575154
0000c0 98 ed b8 bb e4 ca f0 3d 69 5f 69 3c 25 7d 3a 3e
       -0.0056435578 0.11757448 0.014243939 0.18211801
0000d0 d2 e1 65 bd ac e1 db bd 3e 12 e5 bd 5c 34 28 3e
       -0.056123562 -0.10736403 -0.1118512 0.16426224
0000e0 85 a7 6e bc 61 30 6c be c6 2f 00 be 34 39 d7 bd
       -0.014566307 -0.2306533 -0.12518224 -0.105089575
0000f0 14 d1 81 bd c2 e9 8f 3e be f7 29 3d 1d 57 03 3e
       -0.063387066 0.2810803 0.04149603 0.128262
000100 78 56 16 3e 82 07 98 3e e6 bf f1 3d 29 da a2 bc
       0.14681423 0.29693228 0.1180418 -0.019879417
000110 e0 93 02 bd 14 35 0a 3e af cf 23 3e e6 42 40 be
       -0.031879306 0.1349681 0.15997194 -0.1877552
000120 1d 87 5e 3d b3 b7 28 be 72 91 46 3e c5 9c 59 3e
       0.054328073 -0.16476326 0.1939142 0.21251209
000130 17 2a 32 3c 74 12 76 3e 20 56 c7 bb c2 10 09 be
       0.010874293 0.24030477 -0.006083265 -0.13385299

bias_hh_l0 f4 [80]
000000 6b 06 0f 3e f7 3c 88 3e d5 b0 14 3e 9b c8 13 bc
       0.13967292 0.26609012 0.14520581 -0.009019996
000010 96 fa 2a 3e 1d c4 7a 3e a1 18 21 3e a2 6b a9 bc
       0.16697153 0.24488874 0.15732051 -0.020681206
000020 42 df 5b bd 1b cf d7 3c 49 a1 c4 bd cf ae b8 bd
       -0.053679712 0.026343873 -0.09601075 -0.09017717
000030 30 9b 28 be e9 cb ef bd d7 57 82 3e 9c 31 e7 bc
       -0.1646545 -0.11708815 0.2545764 -0.028221898
000040 c8 46 84 3e 66 70 15 3d d4 9d 74 bd fa ae 17 3e
       0.25835252 0.036484145 -0.05972083 0.14812842
000050 3e 77 eb 3d ff 1b 3a 3d 02 05 b0 3d b7 3f 4c bd
       0.11497353 0.045436855 0.08594705 -0.04986545
000060 49 6e 14 3e ab 7f 87 3e 67 dc 3a be c9 9b 18 be
       0.14495195 0.2646459 -0.1824814 -0.14903177
000070 b0 0b 9b bd 82 18 2e bd b4 6e b6 bd c4 54 22 3e
       -0.075705886 -0.04250384 -0.08907834 0.15852648
000080 bc 35 81 bd d9 53 a5 bd 97 8a 37 3d 4a fb 51 be
       -0.06309077 -0.08072633 0.044809904 -0.20506015
000090 8a 7d b4 bb 94 dc 8a bd 73 5d 57 3b 8c a8 d0 3d
       -0.0055081295 -0.06780353 0.0032862097 0.10188398
0000a0 5c 30 dc 3d 9d eb 1e 3e 89 2d 5a bb f4 1e 64 be
       0.10751411 0.15519567 -0.0033291301 -0.22277433
0000b0 bc bc ad bd d8 c7 b3 bd b0 9b 56 3e 80 03 64 3d
       -0.08483264 -0.087783515 0.20957828 0.0556674
0000c0 6d ec 53 3e af 21 51 bd 5b f8 25 3e 24 4e 4b bd
       0.20695658 -0.051057514 0.16208021 -0.049635068
0000d0 3e 19 b6 bc b5 41 56 3c b6 84 20 be 46 23 c9 bd
       -0.022228833 0.013077189 -0.15675625 -0.09821181
0000e0 17 a3 17 3e 8e 07 27 3d 59 c1 23 3e 17 cf 07 be
       0.14808308 0.04077869 0.15991725 -0.13262592
0000f0 c0 da 1d bc 28 8f 56 3d bd 1c 82 3d 15 f8 43 3e
       -0.009634674 0.05238262 0.06353138 0.19137605
000100 a6 32 36 bd d5 02 8e bd 06 b8 8d bd 3b 46 70 3e
       -0.044481896 -0.06934134 -0.06919865 0.23464291
000110 d1 76 c8 3b d8 be bc bd db 23 a2 bd 1d 2d b7 bc
       0.0061176796 -0.09216088 -0.07916995 -0.022360379
000120 21 df 0a be 0a 32 b6 bc fa eb 2c 3e 3b 83 33 3d
       -0.1356168 -0.022240657 0.16886893 0.043826323
000130 ae f5 79 bd e8 2d 99 3c a0 15 da bc bb 50 01 3e
       -0.061025314 0.018698648 -0.02662164 0.12628452

weight_ih_l1 f4 [80, 20]
000000 60 cc dc bd 48 5d 7d 3e 77 61 db bd 6f 68 48 bc
       -0.10781169 0.24742615 -0.10711949 -0.01223193
000010 dc d6 a8 3d dd 95 3d 3d fb e9 6f 3d 09 cb 54 be
       0.08244106 0.0462855 0.05857275 -0.20780577
000020 c3 d0 51 3e 7d 28 f5 3d bf 0f 92 bd ac 10 86 be
       0.20489793 0.11970613 -0.071319096 -0.26184595
000030 0f 68 a9 bd ed f2 36 bd 6c 48 51 be bb 96 0c 3b
       -0.08271801 -0.044665266 -0.20437783 0.0021452147
000040 20 e8 8f 3e d4 1d 67 be 6c 3b c2 3d b1 23 4b be
       0.28106785 -0.22569972 0.0948399 -0.19837834
000050 4f 32 ae bd 95 19 3a 3e 71 5c 51 be 8b ad e3 3d
       -0.08505689 0.18173821 -0.2044542 0.11117085
000060 e0 60 7c bd d4 ad 61 bd 83 ec ae bc ee fb 8a be
       -0.061615825 -0.055097416 -0.021353012 -0.27145332
000070 52 24 46 3d 3b 9d 2e 3d 3e df 07 3e 3f ee b3 bd
       0.04837448 0.042630415 0.13268754 -0.08785676
000080 5c a5 c8 3d d5 33 9f be 1f 58 46 ba 9d 59 42 bd
       0.09797165 -0.31094232 -0.00075662317 -0.047448743
000090 0f 17 89 3d 16 c0 8d 3d d8 ae 66 bd 1a 4b 82 3e
       0.06693851 0.06921403 -0.056319088 0.25447923
0000a0 c1 11 91 be 2e 3e 1b bb ef 19 6d bd 3f 2d 83 3e
       -0.28333858 -0.0023688185 -0.05788606 0.25620458
0000b0 61 2c 0d be ee 0d 47 3e 9c 99 6c 3e 92 2d 70 3d
       -0.1378646 0.19438908 0.23105472 0.05863721
0000c0 f4 bb e3 3d e2 12 62 3e b3 84 68 3d e6 32 46 3d
       0.111198336 0.22077516 0.056767177 0.048388384
0000d0 92 a4 99 3e d5 72 84 be 0c 28 ac 3d 5a f8 85 3e
       0.3000837 -0.2586886 0.08406076 0.2616604
0000e0 b2 fb 09 be 82 d8 fe 3d 3b 22 8d 3e ef 59 9e 3d
       -0.1347492 0.12443639 0.27565178 0.07731997
0000f0 ac 5f 8d be 41 e6 13 3d 0f ea 7b be 88 cb 1a be
       -0.27612054 0.03610826 -0.24601005 -0.15116704
000100 12 22 03 be 60 2a 9a 3e c5 3f 7e 3e 54 8b e1 bd
       -0.12805966 0.30110455 0.24829014 -0.11012903
000110 c2 6d 9e bc 9b 24 41 3e 52 3d e7 3d bf e7 e1 bd
       -0.019339446 0.1886162 0.11290993 -0.1103053
000120 70 74 0e 3e 7a 55 66 be 42 0d 8c 3e 4b 39 9b bd
       0.13911605 -0.22493544 0.27353865 -0.07579287
000130 bb 4f 34 3e a6 f8 53 bd 0f d8 79 3d 02 c5 9f 3d
       0.1760854 -0.0517508 0.060997065 0.07801248
000140 5d 56 7b be d9 e4 0c 3e 48 23 c0 bd 64 6b 95 3d
       -0.24544664 0.13759173 -0.09381729 0.07295874
000150 75 be 7f 3e dd 1c 9e bc 74 b0 39 bd 44 ce 36 bd
       0.24974997 -0.019300872 -0.045334294 -0.044630304
000160 b0 39 70 3d dc dc 7c bd 2f 33 68 3e 4b c3 91 be
       0.058648765 -0.061734065 0.22675775 -0.2846931
000170 e2 38 ce bd a2 af e7 bc 34 5d d7 bd 75 b5 d6 3a
       -0.10069443 -0.02828199 -0.10515824 0.0016380983
000180 44 b4 26 bd 3a 27 9b be e5 98 06 bc 9b 66 58 3e
       -0.04069926 -0.30303365 -0.008215164 0.21132891
000190 4e 33 46 be 25 3b 39 3e c5 95 31 be 21 e1 31 be
       -0.19355509 0.18088968 -0.17342289 -0.17371036
0001a0 4b 7d 42 3e 4f 3f 3a 3d ed de 62 3d 70 1f 44 be
       0.18993108 0.045470532 0.05538838 -0.19152617
0001b0 42 e4 8c 3e 3e c4 d4 bd 5c bf b5 bd 2f 86 60 bd
       0.27517897 -0.10388993 -0.088743895 -0.054815467
0001c0 4d 2c e5 3d 63 c0 16 be 8f 4e 66 be 99 db 1f 3e
       0.1119009 -0.14721827 -0.22490905 0.15611114
0001d0 69 b6 21 3d 8b b6 e6 bd 2e 47 c5 3d 18 34 db bd
       0.0394806 -0.11265286 0.09632717 -0.107032955
0001e0 c2 8e 1c be 95 be b4 3d ef 12 65 be b3 41 f6 bd
       -0.15288833 0.08825413 -0.22370504 -0.1202425
0001f0 c2 1d 1f be 06 d0 8d bd b0 ac 4f 3d bc be 7d bd
       -0.15538695 -0.06924443 0.050701797 -0.061949477
000200 39 1e 52 bd ea 55 b7 bd aa 10 4e 39 90 f2 8e bd
       -0.051298354 -0.08951934 0.00019651899 -0.06979859
000210 ee 4c 53 bd 0e 77 6e bd 2f 45 53 be fb 4a 30 3e
       -0.051587038 -0.05821901 -0.2063186 0.17216103
000220 8c 16 6d 3e f5 fe c6 3d 11 e0 7e 3e ad 8a b2 3d
       0.23153132 0.09716598 0.24890162 0.087178566
000230 0d 5d 7e bc 62 6a c5 bd 3c 78 a1 3d 39 e1 14 3d
       -0.015525115 -0.096394315 0.07884261 0.0363476
000240 37 f0 9c bb ec 6b 86 3e 0c d7 51 3e a6 d4 06 be
       -0.004789378 0.26254213 0.2049219 -0.13167056
000250 0a 49 aa 3c 6a 67 91 3c cd 0b f9 3d 91 3e c9 be
       0.02078678 0.017749507 0.12160454 -0.39305547
000260 5b 39 e4 3c 66 86 96 bd 8a b2 da bb 10 7b 43 be
       0.02785938 -0.07349853 -0.0066741155 -0.19089913
000270 cc c0 4b 3e 92 2b 86 3d 4e cf 13 3e ac 81 ac bd
       0.19897765 0.06551279 0.14434549 -0.084231704
000280 4a 72 97 bc b1 11 a9 bd 43 ea 82 3d 0c f5 c1 3d
       -0.018487114 -0.082553275 0.06392338 0.09470567
000290 6a 0a 7e 3b 49 5c 26 3e a1 eb a0 3e 44 13 07 be
       0.0038763531 0.16246141 0.3142977 -0.13190943
0002a0 dc ea 82 3e 3b d8 6e 3c 6c 59 60 3e a9 c7 90 be
       0.25569808 0.014577921 0.21909112 -0.2827733
0002b0 8c 06 99 3e 51 1f 52 3d 07 9e 51 3e 40 29 22 be
       0.29887807 0.051299397 0.20470439 -0.15836048
0002c0 71 19 05 be 0c 26 c9 bc bc 47 28 3e 97 dd 48 3e
       -0.12997986 -0.024554275 0.16433614 0.1961578
0002d0 cd 03 e4 3d 7f 1a 19 3e 98 2d 3e be 01 ba 03 be
       0.111335374 0.14951514 -0.1857208 -0.12863924
0002e0 2c be a5 3e e5 46 35 3e 33 f2 c5 bd 01 f2 11 bd
       0.32371652 0.17702825 -0.096653365 -0.035631184
0002f0 0c 05 10 3e 87 2b 3b be dd c2 55 3e 5e a4 01 bd
       0.14064425 -0.18278323 0.20875116 -0.031650893
000300 5a 92 0c be 56 61 8a be 74 fe fe 3b 23 5c db bc
       -0.13727704 -0.27027386 0.007781798 -0.026777333
000310 c1 ab e7 bd f9 ab 78 ba 93 7a bb 3d c4 e6 22 be
       -0.11312056 -0.0009486075 0.091542386 -0.15908343
000320 0a 8a f0 bd 10 af 33 3e 65 f5 81 be 7a e5 62 bb
       -0.11745079 0.1754725 -0.25382534 -0.0034621642
000330 ad 5d 5d bd d6 19 52 3e b0 56 cc 3d 55 db b5 3c
       -0.054044414 0.20517668 0.09977472 0.022199312
000340 3f c4 44 bc 97 6b 41 bc 25 0b c2 3d f6 9d 40 3c
       -0.012009679 -0.011805437 0.09474782 0.011756411
000350 e0 4b 5d 3e 16 8b 1d be e1 b6 18 3d 15 ae c0 3d
       0.21610975 -0.15385088 0.037283782 0.094082035
000360 bb b4 72 3e 5a b4 5d be 9c 3d a8 bc e2 98 77 3d
       0.23701756 -0.2165083 -0.02053719 0.060448535
000370 6a 0e 11 3d a5 35 3c bc 10 f3 be bd 8d 42 41 3e
       0.035414137 -0.011487399 -0.09323704 0.18873043
000380 66 1d 53 3e b4 62 c1 3d 7d e3 84 3e 75 ca 3c 3d
       0.20616683 0.09442654 0.2595481 0.046091516
000390 d9 f1 29 3e c3 10 2c be 15 98 1f 3e 10 2c 3a be
       0.16596164 -0.16803269 0.15585358 -0.18180871
0003a0 10 1c 9b bc a5 c0 0a be 0b 2f 34 be 80 6a 0b 3e
       -0.01893428 -0.1355005 -0.1759607 0.13614845
0003b0 56 23 11 3e 8b c8 85 be 9b af 32 3e 56 11 0f 3c
       0.14173636 -0.26129565 0.174498 0.008732161
0003c0 a8 d7 74 be 61 6e 34 be 13 a0 60 be 65 ba 7d 3e
       -0.23910391 -0.17620231 -0.21936063 0.24778135
0003d0 09 bd c7 bc 1b 53 8a 3e 61 f5 ac bd c4 8e 61 be
       -0.024382131 0.2701653 -0.0844524 -0.22027117
0003e0 d3 81 3a 3e 0c 84 6f 3e d4 53 a4 3e 03 5a 97 3d
       0.18213587 0.23390216 0.32095206 0.07390215
0003f0 ef 67 9f bd 4a 72 d9 3d 73 85 d9 3d c2 d7 da bd
       -0.07783496 0.10617502 0.106211565 -0.10685684

weight_hh_l1 f4 [80, 20]
000000 44 55 89 3e 42 55 0d 3e c1 55 4a be 25 53 95 3d
       0.26822865 0.13802055 -0.19759275 0.07291249
000010 ee 0e 8c be 4c a8 8e bb f2 cf 97 3e 89 56 b1 3c
       -0.2735514 -0.0043535586 0.29650837 0.021647708
000020 6e dc 1b 3e f8 d3 8f bd b9 5e 26 bd d9 30 2f 3c
       0.15220806 -0.07022852 -0.04061768 0.0106927985
000030 cc 35 40 3e 4b 9d d6 bc bd 49 12 be 8f c5 44 3e
       0.18770522 -0.02619805 -0.14285941 0.19215988
000040 e0 13 3d be cf f8 19 3e 9e dd 91 be 94 29 a4 3e
       -0.18464613 0.15036319 -0.28489393 0.32062972
000050 fa 55 ff bc 56 4d ae 3b ad 01 fa bd 8b 20 ec bc
       -0.031168927 0.0053192778 -0.12207351 -0.028824111
000060 51 1d 21 be ca d6 18 3e d8 87 90 bc 89 1e df bc
       -0.1573384 0.14925686 -0.0176429 -0.02723624
000070 f0 34 9d 3d 14 f9 16 3e 44 0f 65 bd 53 d9 26 3e
       0.07676113 0.14743453 -0.05592276 0.1629384
000080 fd a9 31 bd 49 55 3b bd 9b 04 84 bd 2e 91 3f 3e
       -0.043375004 -0.04573563 -0.06446191 0.18707725
000090 ac 24 90 3d ee 88 b9 bc bd 0f f4 bc 97 40 96 bc
       0.070382446 -0.022648301 -0.02979266 -0.018341346
0000a0 59 ec 40 3e 6f 00 df bd cb d4 02 3e 81 1c ae ba
       0.1884016 -0.108887546 0.12776487 -0.0013283641
0000b0 1a e1 be bd c7 91 43 bc 3d a9 6d 3d b3 ed 82 3e
       -0.093202785 -0.0119366115 0.058022726 0.25571975
0000c0 30 c9 7a 3e 1f ea 3c bd cd e4 db bd cb 9e 45 3e
       0.2449081 -0.046121713 -0.10737 0.19298856
0000d0 f2 da d0 3c 6c 2b f1 bd c4 87 2f be 3f c4 f9 3d
       0.025495026 -0.1177586 -0.17141634 0.12195634
0000e0 82 64 67 3d 47 5f 23 be 41 a5 85 be bc 31 77 3e
       0.056492336 -0.15954314 -0.2610264 0.24140066
0000f0 b5 b9 ff 3b 38 54 8d be 64 68 3b 3e f7 b2 25 be
       0.0078041204 -0.27603316 0.1830154 -0.16181551
000100 37 f9 16 bd a0 a2 22 3c 90 c1 5f 3e 70 4b aa 3d
       -0.036858764 0.009926468 0.21851182 0.0831517
000110 16 03 5e bd e4 a9 35 3e 20 33 42 3e 5c 1f 14 be
       -0.05420216 0.1774059 0.18964815 -0.14465088
000120 7a 88 4d be 31 60 28 3d 05 4b b6 bd ab 6f 6f be
       -0.20071593 0.04110736 -0.089010276 -0.23382442
000130 6a a1 93 3d 2e 88 dd 3d c9 04 89 be cb a1 34 3d
       0.07208522 0.1081699 -0.26761463 0.04409961
000140 4c db 68 3e c6 b6 b2 be 8c b7 31 3e 50 1e 91 3d
       0.22739905 -0.3490507 0.17355174 0.0708586
000150 f5 7c 81 be 10 80 4d be eb b4 6b 3e 31 fb 09 3e
       -0.25290647 -0.20068383 0.23018233 0.13474728
000160 44 38 8c 3e c2 62 b3 bd 70 6d 3f be 15 ab c3 bd
       0.27386677 -0.08759071 -0.18694091 -0.09554116
000170 26 f8 5f bd 72 2c a6 bd 3b 41 23 3b b8 16 13 3e
       -0.054680012 -0.08113946 0.0024910707 0.14364135
000180 df 03 3c 3e 45 d2 b3 be 90 fd 45 be 8b 25 d7 3d
       0.18360852 -0.3512136 -0.19335008 0.10505208
000190 64 99 18 3d c2 72 21 3d 64 f3 4d be 47 86 9b 3d
       0.03725566 0.039416082 -0.20112377 0.07593971
0001a0 77 b5 47 3c 5a fb 32 3e ea fd ca bd ea 4d 9d 3c
       0.012189261 0.17478696 -0.099117115 0.019202191
0001b0 af a3 38 be a8 61 12 3d d3 5d 15 be 36 df 7c bd
       -0.1803119 0.035737664 -0.14586572 -0.061736308
0001c0 2e 3f b2 bd c9 5e 41 be 29 cd b4 3d 1e 6a 14 3e
       -0.08703457 -0.18883814 0.08828194 0.14493605
0001d0 70 81 6f bd e3 f9 8b be 15 1d 34 bd 54 39 f8 3d
       -0.05847305 -0.27339086 -0.043973047 0.121203095
0001e0 75 93 27 bd dd 0b 0f be 00 21 92 bd a0 d6 c6 bd
       -0.04091211 -0.13969369 -0.071352005 -0.09708905
0001f0 94 77 08 3e f3 f1 1d bd b8 e3 71 bd 26 e0 1e 3e
       0.13326865 -0.03856082 -0.05905506 0.15515193
000200 e5 b4 0f 3d fa 80 7a bc 1b d3 c4 bd 3e ad 84 3d
       0.035084624 -0.0152895395 -0.09610578 0.06478356
000210 3f e3 83 3d 57 34 d3 bd b2 6e 4b be 56 e6 54 3e
       0.06439828 -0.103127174 -0.19866446 0.20790991
000220 1f 26 3f 3c 5b 1b d7 bd 5f 9b f3 3d 76 fb 89 3e
       0.011666804 -0.105032645 0.11894869 0.26949662
000230 ba c4 8f bd 15 bd 94 be 3e d8 21 3e 92 1d 80 be
       -0.070199445 -0.29050508 0.15805146 -0.2502256
000240 56 65 a1 be a5 02 75 be 65 60 01 3e e6 05 8f bd
       -0.31522626 -0.2392679 0.12634428 -0.06983547
000250 c7 b7 48 3c 58 e7 3b 3d 9b 7e 7a 3c 96 0d 25 3e
       0.012250847 0.045874923 0.015288974 0.16118464
000260 c6 1b ab be ce a4 ed bd 94 07 49 3c f4 89 93 bd
       -0.33419627 -0.116036996 0.012269873 -0.07204047
000270 7d 99 b8 3d 06 9a a6 bd 9d b6 79 be 84 6a b9 bd
       0.090136506 -0.081348464 -0.24386068 -0.09053519
000280 2f 57 a0 3e b2 d7 fb bc 77 62 91 3d 7b 4d 17 be
       0.31316516 -0.0307425 0.07098859 -0.1477565
000290 34 66 67 be 05 af 5f bd 1c 00 35 3e 68 59 8a 3d
       -0.22597581 -0.05461027 0.17675823 0.06755334
0002a0 96 e0 f6 bc 9e a3 88 3d 89 6e 59 3b 58 97 15 3e
       -0.030136388 0.066718325 0.0033177456 0.14608514
0002b0 46 7d 9a be 77 6d ff bd 81 31 1d be b2 bb 0b be
       -0.301737 -0.12472051 -0.15350915 -0.13645819
0002c0 a7 42 f7 3d 12 aa 13 be 93 b6 91 be db 50 81 bd
       0.1207326 -0.14420345 -0.28459606 -0.0631425
0002d0 27 8a d7 3d 00 b6 17 be 42 91 96 3e 70 80 87 bd
       0.10524397 -0.14815521 0.29407698 -0.066162944
0002e0 7c 12 1a be 29 05 1d be 4d d9 ae bd 93 55 30 bc
       -0.15046114 -0.15334 -0.085375406 -0.01076259
0002f0 27 da c2 bd 88 b6 8e 3e 2b 6c 6c bc 69 b1 cb 3d
       -0.095142655 0.27873635 -0.014430086 0.09945948
000300 4c a8 0e 3d 46 bc 68 be 07 4d 8f be e9 0c 48 3e
       0.03482847 -0.2272807 -0.27988455 0.19536175
000310 12 4e 91 be 5a 20 82 3d a8 89 50 be e0 fb 63 bd
       -0.28379875 0.06353827 -0.20365012 -0.05566013
000320 d1 c0 57 3e 0d b7 c9 3c da c1 3e 3e 42 17 90 3b
       0.21069647 0.024623418 0.18628636 0.004397304
000330 7d 71 a5 bd e5 5c 19 bd 94 03 9a 3e 24 bb 51 3e
       -0.08078287 -0.037442107 0.30080855 0.20481545
000340 a2 ee 44 3e 13 da 59 3e a0 d2 3e be db a8 2e 3e
       0.19231656 0.21274595 -0.18635035 0.17056601
000350 b3 7d 4c be 03 8f fe bd 03 3c dd 3b b0 d3 21 bd
       -0.19969825 -0.12429621 0.0067515387 -0.03950852
000360 fe fb 31 3e 74 48 45 be 6d 74 37 be 78 f9 8e bd
       0.17381284 -0.1926592 -0.17915507 -0.06981176
000370 57 d0 60 3e 42 68 58 be 1c 0f 5c 3d 81 d7 35 3e
       0.21954475 -0.21133521 0.053725347 0.1775799
000380 c9 2c 92 bc b7 34 8d be 4d a3 05 3e 80 9e 40 3e
       -0.01784362 -0.2757928 0.13050576 0.18810463
000390 61 df 69 3e 97 d6 2d 3e d6 79 a1 bb b7 6e 0d bd
       0.22839119 0.16976391 -0.004927854 -0.034529414
0003a0 e5 52 44 be 34 31 5f be 0b f6 08 3e d8 6e 99 3c
       -0.19172247 -0.21796113 0.13375108 0.018729612
0003b0 fa 62 75 bd 2a 4a 89 3d 51 c3 8a be 32 f2 14 3e
       -0.059908845 0.06703599 -0.2710214 0.14545515
0003c0 9e 80 e0 3d 89 ea 92 bd be 53 93 3d bb 9b dc 3d
       0.10962032 -0.0717364 0.07193707 0.10771891
0003d0 9a 5f 7b be dd ff 2e be 0a 98 c8 3b 4c 72 54 bd
       -0.24548188 -0.17089792 0.00612164 -0.051866814
0003e0 8d 41 ec 3d ca f0 45 3e 1e dc 0a bd f2 bf 50 3e
       0.1153594 0.19330135 -0.033901326 0.20385721
0003f0 c1 72 e7 bd 1c 20 35 be 3f dd 5e be dd 7d 5d be
       -0.113011844 -0.1768803 -0.21764086 -0.21630044

bias_ih_l1 f4 [80]
000000 80 b1 f4 bb 32 8f 8c bc 31 4c fd bd e5 3b 66 3d
       -0.0074674487 -0.017158125 -0.12368048 0.056209464
000010 93 82 ac bc 26 49 37 3e 9f 19 1a 3d 06 00 72 3e
       -0.021058356 0.17898998 0.03762209 0.23632821
000020 7e 85 03 3d 25 f1 9d 3d 67 40 73 bd f7 8b 43 3e
       0.03210973 0.0771201 -0.05938759 0.19096361
000030 da 20 50 bd fa 9a ca bd 29 20 7b 3d fa 81 8f 3e
       -0.05081258 -0.09892841 0.061309967 0.28028852
000040 71 44 b0 3d f1 95 4b be b3 71 2b 3e 39 fb 6b 3e
       0.08606804 -0.19881417 0.16742592 0.23045053
000050 77 b6 ec 3d fb 52 0a 3e ee f7 26 bc c4 28 fb bc
       0.1155824 0.13508217 -0.010190947 -0.030659087
000060 00 13 99 bd 03 97 31 3e c3 12 48 3e 6c 73 0e bd
       -0.07474327 0.17342763 0.19538407 -0.034778044
000070 aa 4c 9e bd 81 a4 52 bd 56 7f 48 3d 78 3e e0 3b
       -0.07729466 -0.051426414 0.048949562 0.0068433844
000080 87 3c 8a 3e ff 27 7d 3e 8f fe 93 bd d9 dd 6a 3e
       0.26999304 0.24722289 -0.072262876 0.2293619
000090 33 78 68 3e b7 43 9f 3d a7 19 8b 3e 7e 8d d9 bd
       0.22702102 0.077765875 0.2716801 -0.106226906
0000a0 f4 9a 6c 3e 6b af 51 3d b8 60 68 bb 56 db 8b bd
       0.23105985 0.051192682 -0.003545804 -0.068289444
0000b0 77 80 5f 3d d4 84 08 be 33 1d 4b 3e ac 60 7f bd
       0.054565873 -0.1333192 0.19835357 -0.062348053
0000c0 c0 0e 7e 3d 47 b7 05 3e 5a be 35 3d bb 9d 15 3d
       0.062025785 0.13058196 0.044370987 0.036527377
0000d0 bb 00 a1 3d cd 56 5b be 6a 83 1b 3d 88 b4 6f be
       0.078614675 -0.2141983 0.037967123 -0.23408711
0000e0 1b ae 13 bc 92 6e 2c bd f5 12 71 be fa 1a 3a 3e
       -0.009013678 -0.042097636 -0.23542388 0.18174353
0000f0 fa 37 a5 3e 66 ef b9 3d 25 48 7f 3e f2 e6 ab 3e
       0.3226927 0.09078865 0.24929865 0.33574635
000100 53 b8 6a 3e 73 3a 9c 3e a5 d2 d7 bd b9 ab 77 3d
       0.22921877 0.30513343 -0.10538224 0.0604665
000110 1b 86 84 3e 92 ab 88 3e c3 88 00 3e fc c9 51 3d
       0.25883564 0.26693398 0.1255217 0.051218018
000120 52 ed f9 3b 98 45 8c bd 07 4b e3 3c 9b 0f 93 3e
       0.0076271677 -0.068492115 0.027745737 0.28722844
000130 27 4d a2 3e f9 93 1d 3e e4 ed a5 3e af 73 72 3e
       0.31699488 0.15388478 0.3240806 0.23676942

bias_hh_l1 f4 [80]
000000 6c e0 9c 3d 69 a0 dc bd 0c c4 83 3d 2a 8c 81 bc
       0.076599926 -0.10772783 0.06433877 -0.015813906
000010 58 a9 b1 bd 07 67 ff bb 16 54 04 be 1f ab 72 3e
       -0.08674878 -0.0077942642 -0.12922701 0.2369809
000020 a9 5b 9c 3e 45 0a 27 3e 31 74 98 3e 11 62 87 3e
       0.3053868 0.16312511 0.29776147 0.26442006
000030 9a ad 11 3d d8 ff 01 bd e4 60 7f 3e 29 26 b9 3c
       0.03556595 -0.031738132 0.24939305 0.022601204
000040 60 86 fa bd 76 7d e1 3d 74 dc 40 3e c6 1b 99 3d
       -0.12232661 0.11010258 0.18834096 0.074760005
000050 38 7e 67 3e cb c3 86 3c 77 42 a1 3e 68 d1 56 bd
       0.22606742 0.016450783 0.3149602 -0.0524458
000060 f2 01 17 3e 2b 9f 85 3e 2c 24 93 bd 2d 42 48 bd
       0.14746836 0.26097998 -0.071846336 -0.048891235
000070 65 0e f4 bc 93 e7 8a 3e 6c aa 65 3e 98 23 0e 3e
       -0.02979202 0.27129802 0.22428292 0.13880765
000080 3a e7 79 bd 16 b2 c7 bd e8 19 49 3d da 58 15 bd
       -0.06101153 -0.09750764 0.04909697 -0.03646169
000090 e5 9b cc 3d 6e 56 4f 3d 30 37 24 3d 6a 75 78 3e
       0.09990672 0.050619535 0.040091693 0.2426354
0000a0 86 1e d4 3d ce 14 34 3d 41 ed f0 bd 96 88 e1 bd
       0.103573844 0.043965153 -0.117640026 -0.1101238
0000b0 57 9c 89 3d 4c 33 60 bd db 91 a2 3d f7 ba 6c 3d
       0.067192726 -0.05473642 0.07937976 0.05779549
0000c0 5a 98 90 3d e3 6f 09 3e 2e 15 a6 bd 0c 76 33 3e
       0.07060309 0.13421588 -0.081095085 0.175255
0000d0 20 3d 91 bd 6e ac 13 bd df 24 e6 bd 22 7e 5a be
       -0.07091737 -0.036053114 -0.11237501 -0.21337178
0000e0 f5 2c 66 3e 1c 98 b2 bc 69 6a d1 bd 75 21 c8 bd
       0.22478087 -0.021801047 -0.10225374 -0.097720064
0000f0 25 bd 0e 3e 53 0f 02 3e 23 c6 03 3e 52 fe 9f 3e
       0.1393934 0.12701158 0.12868552 0.31248719
000100 13 b0 de 3e 5d d8 86 bd 38 b1 53 3e 8c ef 99 3e
       0.4349371 -0.06584237 0.20673072 0.30065572
000110 c3 d6 ce 3d 7c 01 83 3e 38 73 54 3e c0 2b 6b 3d
       0.10099556 0.2558707 0.20747077 0.05741477
000120 8f 55 36 3d 9d 1c f7 3d 09 01 5d 3e 50 d1 9a 3e
       0.04451519 0.120660044 0.21582426 0.30237818
000130 bf 30 cb bc f4 46 e4 3d ab 10 a1 3e a7 99 6f 3d
       -0.024803517 0.11146346 0.3145803 0.058496144

weight f4 [2, 20]
000000 77 e8 99 3e a5 9f ca be 89 52 d6 3e e3 a9 bb 3e
       0.3006017 -0.39574924 0.41859844 0.3665305
000010 81 a5 b3 3e 3a 6f aa be b6 e8 88 bd e7 b2 89 be
       0.35087207 -0.33287984 -0.06685011 -0.26894304
000020 7f 56 93 be 3c 9b e1 3d 5d bf f0 3d 86 16 e7 3e
       -0.2877693 0.11015937 0.1175525 0.45134372
000030 c7 63 e7 be 7f 8d 9a 3e a0 c2 14 be 7e 7f c4 3d
       -0.45193312 0.30186078 -0.14527369 0.0959463
000040 fd 6a c3 be ea f0 bc be 50 c5 cd 3e d6 21 e2 be
       -0.38167563 -0.36902553 0.401896 -0.4416644
000050 36 90 3c be c2 68 2d 3e 7a 92 a3 be bb c7 5e be
       -0.18414387 0.16934493 -0.3194769 -0.21755879
000060 2e e7 d3 be fd da bf 3e 29 ba 89 be cb 79 9d 3e
       -0.41387314 0.37471762 -0.2689984 0.30756983
000070 68 04 85 3e fe f2 c9 be f6 fa b3 be b2 62 08 be
       0.25979924 -0.394432 -0.35152406 -0.133189
000080 8d 7f c2 3e 38 8b bf be 07 92 d1 3e 25 fa c1 be
       0.3798794 -0.37410903 0.40931723 -0.37886158
000090 7a d1 ac 3e 3c 46 80 3e fd 34 8a bc 2f 37 dd 3d
       0.33753568 0.25053585 -0.01687097 0.10801541

bias f4 [2]
000000 bb e5 5a be a6 dd a7 3d
       -0.21376698 0.08196573
