LSTM/code/model/old_model/model_mk7_200epoch_0.0022trainloss_0.0008validloss.pt (torch, 46468 bytes, 32 tensors)

weight_ih_l0 f4 [40, 22]
0	0xbce8ca56	-0.028416794
1	0x3e1ac228	0.15113127
2	0x3eac8ee8	0.3370278
3	0xbe9c8b9f	-0.30575272
4	0xbe6311be	-0.22174737
5	0xbd52b87f	-0.05144548
6	0x3eab8534	0.33500063
7	0xbe72c1c0	-0.23706722
8	0xbeb0613b	-0.3444918
9	0xbe80b185	-0.25135437
10	0x3dcfc36e	0.10144697
11	0x3ddd9809	0.10820014
12	0x3d3e8ee0	0.046522975
13	0xbe65cea1	-0.22442104
14	0xbcf71ae0	-0.030164182
15	0xbe532a8a	-0.20621696
16	0x3e0ab2a5	0.1354471
17	0x3e6f0189	0.2334043
18	0x3db10b98	0.086447895
19	0x3d8f0034	0.069824606
20	0x3eb1090c	0.34577215
21	0xbec11a96	-0.37715596
22	0xbb8cde7d	-0.0042989836
23	0xbe820f35	-0.25402227
24	0xbe2ed39b	-0.17072909
25	0x3e689a65	0.22715147
26	0x3e611011	0.21978785
27	0x3da661d6	0.081241295
28	0xbec3f4d6	-0.38272732
29	0xbe45d400	-0.19319153
30	0xbe2420d1	-0.16028143
31	0x3e5b5504	0.2141915
32	0xbdf8d18a	-0.121493414
33	0xbd55c58f	-0.05219036
34	0xbe3ed33b	-0.18635266
35	0x3e0aa81a	0.13540688
36	0x3e0d2802	0.13784793
37	0xbd69edd4	-0.057111576
38	0xbe2fb680	-0.17159462
39	0xbdb832fd	-0.089941
40	0xbe11a643	-0.1422358
41	0xbe710bb6	-0.23539624
42	0x3e41a3a2	0.18910077
43	0x3e90f41e	0.28311247
44	0xbd06fbe8	-0.03295508
45	0xbe8fe5c0	-0.28104973
46	0xbe5a16e0	-0.21297789
47	0x3e535e02	0.2064133
48	0x3db5d606	0.08878712
49	0xbe9b95c6	-0.30387706
50	0xbea2cc21	-0.31796363
51	0x3c537ae9	0.012907722
52	0xbd5bfcbe	-0.05370783
53	0x3e61080d	0.21975727
54	0xbe7d6eec	-0.24749345
55	0xbdaebc85	-0.08532051
56	0x3e9c74e1	0.30557922
57	0x3dfcdb27	0.123464875
58	0xbe8fd874	-0.28094828
59	0x3d7b0104	0.061280265
60	0x3ee8109d	0.45325175
61	0xbdae4b41	-0.08510447
62	0xbebf366c	-0.37346208
63	0xbe3d88fa	-0.18509284
64	0xbdb2cd9b	-0.087306224
65	0x3eab0f65	0.33410183
66	0xbd570ad7	-0.052500572
67	0xbe9741bc	-0.2954234
68	0x3e69fe52	0.22850922
69	0x3e3152cf	0.17316745
70	0xbdb35700	-0.08756828
71	0xbe76e864	-0.24112087
72	0x3d020a66	0.031748198
73	0xbc913947	-0.017727507
74	0x3d60a08f	0.05484062
75	0xbe2c19d5	-0.16806729
76	0xbe034896	-0.12820658
77	0x3ea9ba1b	0.331498
78	0xbd669bcb	-0.05630092
79	0x3e71aa3f	0.236001
80	0x3e8aab10	0.27083635
81	0x3e597d69	0.21239246
82	0x3d7f8c9c	0.062389955
83	0xbe10de12	-0.14147213
84	0xbd6ba78c	-0.057532832
85	0x3c36b70e	0.011152042
86	0xbdb71608	-0.08939749
87	0x3e3863d8	0.18006837
88	0x3e147989	0.14499487
89	0xbe9c5c7a	-0.30539304
90	0xbe9f2e89	-0.3109019
91	0x3e9216bd	0.28532973
92	0x3e2423ff	0.16029356
93	0xbe4af394	-0.1981948
94	0xbd882378	-0.0664739
95	0xbe775ca5	-0.24156435
96	0xbe26903e	-0.16265962
97	0xbd5f6c1e	-0.054546468
98	0x3dee10a1	0.116242655
99	0xbd952060	-0.07281566
100	0x3dc0d75a	0.09416075
101	0xbebf7e19	-0.37400892
102	0x3e19286f	0.1495683
103	0xbdad8c70	-0.08474052
104	0xbd9cfaeb	-0.07665046
105	0xbebd2685	-0.3694345
106	0xbe87a808	-0.26495385
107	0x3e47e389	0.19520392
108	0x3b937648	0.004500184
109	0xbddbd6a9	-0.107343026
110	0xbe3a72fd	-0.18207927
111	0xbe2bba47	-0.16770278
112	0x3e236f87	0.15960513
113	0x3e45e7af	0.19326662
114	0xbde18b43	-0.1101289
115	0xbe98c937	-0.29841015
116	0xbd0389aa	-0.03211371
117	0x3e546530	0.20741725
118	0xbcffedd1	-0.03124133
119	0xbe71f8f9	-0.23630132
120	0x3e7631f5	0.24042495
121	0xbe0b2ba8	-0.13590872
122	0xbea09f84	-0.313717
123	0xbe0ae195	-0.13562615
124	0x3dc79181	0.097445495
125	0x3d39503d	0.045242537
126	0xbe8c5791	-0.27410558
127	0xbe807d2a	-0.25095493
128	0xbe3b1d91	-0.18272997
129	0xbe2ceb86	-0.1688672
130	0x3e8e1ace	0.27754825
131	0xbe3ab010	-0.18231225
132	0xbe18a44c	-0.14906424
133	0xbe2d67e3	-0.16934161
134	0xbd39d1f8	-0.045366257
135	0x3db4b15a	0.088228896
136	0x3e76ce6b	0.2410218
137	0xbe2bd422	-0.16780141
138	0x3e119ead	0.14220686
139	0xbe557952	-0.20847061
140	0x3c4f5c3c	0.012656268
141	0x3e8711a9	0.2638066
142	0xbe6ce251	-0.23133208
143	0x3e27eea8	0.16399634
144	0x3eaab380	0.33340073
145	0xbd28e5ee	-0.041234903
146	0x3dcd1b7f	0.1001501
147	0xbe762121	-0.24036075
148	0x3d6270cf	0.055283364
149	0xbdcf9fed	-0.10137925
150	0xbdd7821d	-0.10522864
151	0x3e332fac	0.17498654
152	0xbb75a3c8	-0.0037481654
153	0x3e2f554a	0.17122379
154	0x3e26b2f4	0.16279203
155	0x3dfa2e12	0.122158185
156	0x3ecd9057	0.40149185
157	0x3e35e3b9	0.1776265
158	0xbe448eb1	-0.19195057
159	0xbe8f6bc3	-0.28011903
160	0x3ec87e05	0.39158645
161	0x3b5a4c06	0.0033309474
162	0xbe88bdd3	-0.26707324
163	0x3c374da7	0.011187947
164	0xbe609db2	-0.21935156
165	0xbe0766bb	-0.13222782
166	0xbe545108	-0.20734036
167	0x3dc87c86	0.09789376
168	0x3d914547	0.07093292
169	0xbd956ec0	-0.072965145
170	0xbe80d5a8	-0.25163007
171	0x3e4a8eba	0.19781008
172	0xbd24b188	-0.04020837
173	0xbd640ae1	-0.055674437
174	0xbdbd039a	-0.092292026
175	0xbe79e550	-0.24403882
176	0xbe91d39f	-0.28481767
177	0x3e3b1dbc	0.18273062
178	0xbe892402	-0.26785284
179	0x3e42ef81	0.19036676
180	0x3e0f76f2	0.14010218
181	0xbe017c87	-0.1264516
182	0xbab9840a	-0.0014153731
183	0xbe49f326	-0.1972166
184	0xbe2c77c5	-0.16842563
185	0xbe976251	-0.29567197
186	0xbe9928ae	-0.2991385
187	0xbdeeb361	-0.116553076
188	0x3e1ea6b9	0.15493287
189	0xbe6e6513	-0.23280744
190	0xbeb591f2	-0.3546291
191	0xbdd410c2	-0.10354759
192	0xbeb5692e	-0.35431808
193	0xbecaccf4	-0.39609492
194	0x3e1c4935	0.15262301
195	0xbdbdeaf2	-0.09273328
196	0x3e85a3ee	0.2610163
197	0x3e115d39	0.14195718
198	0xbe9c42bd	-0.30519667
199	0xbddacca0	-0.1068356
200	0x3e92c223	0.2866374
201	0xbdac6f4b	-0.08419665
202	0xbe0d49cf	-0.13797687
203	0x3e5f2c6e	0.21794292
204	0xbdc06f1b	-0.09396192
205	0xbe7715e9	-0.24129452
206	0xbe85bbee	-0.2611994
207	0x3dbc2ca5	0.09188203
208	0x3e33cd00	0.1755867
209	0x3dfd4cfc	0.12368199
210	0x3de9fc38	0.1142506
211	0xbe174b2a	-0.14774767
212	0x3e67e441	0.22645666
213	0x3e298f31	0.1655853
214	0xbe9127e2	-0.2835074
215	0xbcd8efca	-0.026481528
216	0xbe906803	-0.28204355
217	0x3ddcd3e9	0.10782606
218	0x3e9a1e32	0.30101162
219	0x3e55b131	0.20868374
220	0x3c128cec	0.008944731
221	0x3e06d98c	0.13168925
222	0x3e7dcbe5	0.24784811
223	0xbe7a445b	-0.24440138
224	0xbe1be5ac	-0.15224332
225	0xbe90c948	-0.28278565
226	0xbcde23fb	-0.027116766
227	0x3e949fb1	0.29028085
228	0xbe3e5979	-0.18588819
229	0xbe726fac	-0.23675412
230	0x3d075608	0.03304103
231	0xbe8b9a29	-0.27266052
232	0xbec64f49	-0.38732365
233	0xbe77ab51	-0.24186446
234	0x3e24e060	0.16101217
235	0x3e485cfb	0.19566719
236	0x3e03c815	0.12869294
237	0xbea738e2	-0.32660586
238	0x3deaabd0	0.11458552
239	0xbe29049b	-0.16505663
240	0x3e78b7b4	0.24288827
241	0x3d5956f6	0.053061448
242	0xbe7bda86	-0.24595079
243	0x3e3c5d51	0.18394972
244	0xbe7b32d5	-0.2453111
245	0xbe685659	-0.22689189
246	0xbbe2020e	-0.0068972176
247	0xbe431150	-0.19049573
248	0x3d9aac41	0.07552386
249	0x3e6f1f07	0.2335168
250	0x3e29782b	0.16549747
251	0x39668822	0.00021985223
252	0xbec3369e	-0.38127607
253	0x3e800b60	0.25008678
254	0x3e8e2ff4	0.2777096
255	0xbd93a5fd	-0.07209394

weight_hh_l0 f4 [40, 10]
0	0x3e2f63ab	0.17127864
1	0xbe22f0ec	-0.15912217
2	0xbcec410b	-0.028839609
3	0x3d3eba9a	0.046564676
4	0x3e085002	0.1331177
5	0x3e88103f	0.26574895
6	0xbe142321	-0.14466526
7	0x3cdc5fdb	0.026901176
8	0xbeb97f50	-0.36229944
9	0xbdb19a63	-0.08672025
10	0x3e80fcb4	0.25192797
11	0xbc0a0cb2	-0.008425878
12	0x3dc5be21	0.09655405
13	0xbeaa158b	-0.3321956
14	0x3d97fe79	0.07421584
15	0xbe214f7e	-0.1575298
16	0xbe4cba23	-0.1999288
17	0xbe38cddc	-0.18047279
18	0x3e35270c	0.17690676
19	0x3d82a5ab	0.06379255
20	0xbd82e2af	-0.06390893
21	0x3eb136ab	0.3461202
22	0x3da3fda2	0.08007361
23	0xbe2889c0	-0.16458797
24	0x3d8dc56c	0.06922421
25	0xbd758e13	-0.059949946
26	0xbd2efda6	-0.042722367
27	0xbe650324	-0.2236448
28	0x3d676c8f	0.056500014
29	0xbd655ec5	-0.055998582
30	0xbe5a2d75	-0.21306403
31	0x3e528091	0.20556857
32	0x3c4f25fe	0.012643335
33	0xbe786d35	-0.24260409
34	0xbd25ca75	-0.04047628
35	0xbe7b0fb0	-0.24517703
36	0x3e8665e7	0.2624962
37	0x3e4ce7e8	0.2001034
38	0xbec60151	-0.3867288
39	0xbcdcf645	-0.0269729
40	0xbbd2c308	-0.006431941
41	0x3e81e875	0.25372663
42	0x3ed167b7	0.4089944
43	0xbe767460	-0.24067831
44	0x3cd48328	0.025941446
45	0xbdaea17f	-0.08526897
46	0x3eb04553	0.3442789
47	0x3eaf1696	0.3419692
48	0xbe01c9d0	-0.12674642
49	0x3e6c1927	0.2305647
50	0xbd720962	-0.05909098
51	0xbdc4f192	-0.096163884
52	0x3d193f85	0.037414093
53	0x3e866d15	0.26255098
54	0xbdc85a9c	-0.09782907
55	0xbdec78bc	-0.11546466
56	0x3e899d86	0.26877993
57	0xbdb18398	-0.08667678
58	0xbd9e91c7	-0.077426486
59	0xbe5ed853	-0.21762209
60	0xbdb110db	-0.08645793
61	0x3eb1733a	0.34658223
62	0x3dfbe9d6	0.1230046
63	0x3e2b6cc4	0.1674071
64	0xbd0e816e	-0.034791403
65	0x3c3d5588	0.011556037
66	0x3da39f63	0.07989385
67	0x3dc18c28	0.09450561
68	0x3d559039	0.052139495
69	0xbe038803	-0.12844853
70	0xbd93cb07	-0.07216459
71	0x3de844a3	0.113412164
72	0xbe92ac2b	-0.2864698
73	0xbc7aa943	-0.015299144
74	0xbc6c54d8	-0.014424525
75	0x3e40dfae	0.18835327
76	0x3e07d4ff	0.13264845
77	0xbdd29621	-0.10282541
78	0xbe9265f6	-0.28593415
79	0xbe963784	-0.2933923
80	0xbec1dadd	-0.37862292
81	0x3ddcabd4	0.10774961
82	0xbde8f941	-0.113756664
83	0xbed599ab	-0.41718802
84	0x3ebd68ba	0.36993963
85	0xbed42948	-0.41437745
86	0x3ec7c19f	0.3901491
87	0x3ef6b916	0.48188084
88	0x3ebd54f5	0.3697888
89	0xbe1c3072	-0.15252855
90	0xbe8a06ca	-0.26958305
91	0xbda60365	-0.08106116
92	0x3eb05981	0.34443286
93	0x3e1bc0f8	0.1521033
94	0x3ea4b8b2	0.3217216
95	0x3b2b8cb8	0.0026176404
96	0x3e8c7718	0.2743461
97	0x3e9c0e47	0.30479643
98	0x3e40b318	0.18818319
99	0xbdeaad8e	-0.11458884
100	0x3e5da5ff	0.21645354
101	0x3de97d7d	0.11400888
102	0xbe37132f	-0.17878412
103	0xbd0989f1	-0.033578817
104	0xbdc99353	-0.09842553
105	0x3ccb862f	0.024844257
106	0x399d2fe5	0.00029981058
107	0xbdd29f85	-0.10284332
108	0xbef3843a	-0.47561818
109	0x3c2fc45d	0.010727969
110	0xbcb6677c	-0.022266142
111	0x3e6ba903	0.23013692
112	0xbcf2b3dc	-0.02962678
113	0xbe2328a4	-0.15933472
114	0x3baa1d92	0.0051915133
115	0xbea571ba	-0.3231333
116	0x3d70faf6	0.058833085
117	0xbd90648a	-0.07050426
118	0x3e40f228	0.18842375
119	0x3e9b9bfd	0.30392447
120	0xbe8930db	-0.26795086
121	0x3e91d74b	0.28484568
122	0xbd8d28dd	-0.0689256
123	0xbc092a5c	-0.008371916
124	0x3e96f0b9	0.29480532
125	0xbea062cc	-0.31325376
126	0xbddfe889	-0.109330244
127	0xbb0e956b	-0.002175654
128	0xbd9b4429	-0.0758136
129	0xbd2dd4d1	-0.042439286
130	0x3d237746	0.03990867
131	0x3e91ca8d	0.28474846
132	0x3d87fd2a	0.06640084
133	0x3e420cbb	0.18950169
134	0x3e67768c	0.22603816
135	0x3e80a3c4	0.25124943
136	0x3ea8d2d9	0.32973364
137	0xbe759f05	-0.23986442
138	0xbedb5bc6	-0.42843455
139	0x3ddd4a8c	0.10805234
140	0x3d6afd53	0.057370495
141	0xbe6246f7	-0.22097383
142	0x3eaf8dd0	0.34287882
143	0xbe6cb05f	-0.23114155
144	0x3e7e5efe	0.24840924
145	0xbe8495f8	-0.25895667
146	0xbb911480	-0.0044274926
147	0x3a9a1c0c	0.0011757626
148	0xbe7eba9f	-0.24875878
149	0x3e32f427	0.17475949
150	0xbe908c38	-0.28231978
151	0xbe518e0f	-0.20464347
152	0xbe0acce8	-0.13554728
153	0x3e843988	0.25825143
154	0xbd24a944	-0.040200487
155	0x3e85887b	0.2608069
156	0xbe8cb732	-0.27483517
157	0x3db9452f	0.09046399
158	0x3e9b3e77	0.30321094
159	0x3e6066f4	0.21914274
160	0xbe11bd50	-0.14232373
161	0x3e9fba00	0.31196594
162	0x3e76c7ca	0.24099651
163	0xbe466ddf	-0.1937785
164	0x3e684cb9	0.22685517
165	0xbe8de015	-0.27710024
166	0xbe3b60f3	-0.18298702
167	0xbd960563	-0.07325246
168	0x3e376d31	0.17912747
169	0xbe78dfb6	-0.24304089
170	0x3e9ad1a0	0.30238056
171	0xbe975dc2	-0.2956372
172	0xbe92f46b	-0.287021
173	0x3d31db7d	0.04342221
174	0xbe276794	-0.16348106
175	0x3e2c6862	0.16836694
176	0x3e8a82f4	0.27053034
177	0x3da982d2	0.08276905
178	0x3ec2279c	0.37920845
179	0xbd6fa21f	-0.05850422
180	0x3b259fc1	0.0025272223
181	0xbeab8c7e	-0.33505625
182	0x3ec3ec69	0.38266304
183	0xbeaf777a	-0.3427084
184	0x3e7de460	0.2479415
185	0xbea0a4c2	-0.313757
186	0x3cc80956	0.024418514
187	0x3e2b13e7	0.16706811
188	0xbe31b454	-0.17353946
189	0x3e92b5c9	0.28654316
190	0x3ddcf7d8	0.1078946
191	0x3dac1fdb	0.084045134
192	0x3bd3eff7	0.006467815
193	0x3e63e41a	0.22254983
194	0x3c1da5fc	0.009622093
195	0x3dafdf93	0.08587565
196	0xbd2bcea0	-0.0419451
197	0xbda6ea8b	-0.08150204
198	0xbe63d2ee	-0.22248432
199	0xbe81b945	-0.25336662
200	0x3e4f2923	0.20230536
201	0x3e6c67a4	0.23086411
202	0xbe7c51d9	-0.24640597
203	0x3e7eb1fb	0.24872582
204	0x3e6c271e	0.23061797
205	0xbd9e1e9f	-0.07720684
206	0x3ea91ac5	0.33028236
207	0xbe5a9e46	-0.21349439
208	0x3e9c21e6	0.30494612
209	0xbe72e5bf	-0.23720454
210	0x3e84c0e2	0.25928408
211	0x3de6f90d	0.112779714
212	0x3e8bad19	0.272805
213	0x3b533834	0.0032229545
214	0xbe9e5be2	-0.30929476
215	0x3ea071c8	0.31336808
216	0xbe9afef7	-0.30272648
217	0x3e432bde	0.19059703
218	0xbe1e5543	-0.15462212
219	0x3d52fbe1	0.05150974
220	0xbe1311b7	-0.14362226
221	0xbe537153	-0.20648699
222	0x3c2aca3d	0.010424194
223	0x3e7c82fa	0.24659339
224	0x3e33565a	0.1751341
225	0x3dc39bc1	0.09551192
226	0xbe1da2e3	-0.15394168
227	0xbeb1e426	-0.34744376
228	0xbdf13410	-0.11777508
229	0xbe762ab5	-0.24039729
230	0x3d98b414	0.07456222
231	0x3da8c24a	0.08240183
232	0x3e0a6131	0.13513638
233	0xbe25af7f	-0.16180228
234	0xbe39c314	-0.18140823
235	0xbda8d940	-0.08244562
236	0x3bcc4c28	0.0062346645
237	0xbe01ae0d	-0.12664051
238	0xbdb9c53e	-0.09070824
239	0xbe785109	-0.24249662
240	0xbe85d57c	-0.26139438
241	0x3de16c0b	0.11006936
242	0x3dceca6f	0.10097205
243	0x3dc15419	0.094398685
244	0x3e9a75c0	0.3016796
245	0xbeb57054	-0.35437262
246	0x3c88fad9	0.016721176
247	0xbdf5f33a	-0.120092824
248	0x3e6e2cf1	0.23259331
249	0x3e807226	0.25087088
250	0x3e61db58	0.22056329
251	0x3e83682a	0.25665408
252	0xbe2b0ce9	-0.16704144
253	0xbe3b8037	-0.18310629
254	0x3dfbd77d	0.122969605
255	0x3d821d2f	0.063532226

bias_ih_l0 f4 [40]
0	0x3e69013a	0.22754374
1	0x3e035871	0.12826706
2	0x3e9ae19e	0.30250257
3	0xbd7cefeb	-0.06175224
4	0xbdd5e5fd	-0.104442574
5	0xbd8907dc	-0.06690952
6	0x3e0e133a	0.13874522
7	0xbd87419c	-0.06604311
8	0x3e38469d	0.17995687
9	0xbd22d1dd	-0.039750922
10	0xbd52fc06	-0.05150988
11	0x3e469b7e	0.19395253
12	0xbe5f3b0b	-0.21799867
13	0x3ea033b2	0.3128944
14	0xbd72d239	-0.059282515
15	0x3e155fbd	0.14587303
16	0xbdaaa743	-0.08332684
17	0x3a0c7c69	0.0005359115
18	0xbe43caec	-0.19120377
19	0xbe23df43	-0.16003136
20	0x3d6739a2	0.056451447
21	0xbd352da0	-0.044232965
22	0x3cd741d0	0.026276499
23	0xbe29bfb1	-0.1657703
24	0xbe6789f9	-0.22611226
25	0xbdf2724c	-0.11838207
26	0x3d166c49	0.036724363
27	0xbd868a79	-0.0656938
28	0x3e8bb6c7	0.27287886
29	0xbe2cad1b	-0.1686291
30	0xbe4f3d4a	-0.20238224
31	0x3e85d3e1	0.26138213
32	0x3dc61f3f	0.096739285
33	0xbdbfd644	-0.0936704
34	0xbe01bb19	-0.12669028
35	0x3d6fedb8	0.058576316
36	0xbe019ee7	-0.12658273
37	0x3d95ff4d	0.073240854
38	0xbdb0f487	-0.0864039
39	0xbe0285f0	-0.12746406

bias_hh_l0 f4 [40]
0	0x3dc82f75	0.09774677
1	0xbd99a53b	-0.07502218
2	0x3e7b31ab	0.24530666
3	0x3ea37660	0.3192625
4	0xbe08db70	-0.13364959
5	0xbe63e889	-0.22256674
6	0x3e80fbf1	0.25192216
7	0x3da641bc	0.081180066
8	0x3e4687dd	0.19387765
9	0x3e9ec306	0.31008166
10	0xbe79a6c0	-0.24380016
11	0xbe1f3264	-0.15546566
12	0x3dbe3dc8	0.092891276
13	0x3eac25eb	0.3362268
14	0x3eab6920	0.33478642
15	0x3d9ebd25	0.0775092
16	0x3ccd692b	0.025074562
17	0xbd70a9bd	-0.058755625
18	0xbdc24b5d	-0.09487031
19	0x3eb2af1d	0.34899226
20	0x3e755866	0.23959503
21	0x3e8681f4	0.2627102
22	0x3e691a16	0.22763857
23	0xbe57716c	-0.21039361
24	0x3e972f37	0.2952821
25	0xbe9a5149	-0.3014014
26	0x3ec64ffb	0.38732895
27	0xbe709a82	-0.2349644
28	0x3e847f88	0.2587855
29	0x3d792673	0.060827684
30	0x3d848bfd	0.06472013
31	0x3e192122	0.14954045
32	0x3e9dd782	0.30828482
33	0x3e7adddd	0.24498697
34	0xbe646997	-0.22305904
35	0x3dbec82c	0.093155235
36	0x3d6cbd04	0.057797447
37	0x3d450b90	0.04810673
38	0x3c67a8da	0.014139378
39	0x3d74ece6	0.059796236

weight_ih_l0 f4 [40, 22]
0	0x3e9bab34	0.30404055
1	0x3e8bd441	0.27310374
2	0xbe6fdcef	-0.23424123
3	0xbd9cb121	-0.07650972
4	0xbe6cbf3a	-0.23119822
5	0xbdcd655d	-0.10029099
6	0xbdf070e0	-0.11740279
7	0x3e0f7fe7	0.14013635
8	0xbe8c6dab	-0.2742742
9	0xbd7d531d	-0.06184684
10	0xbeaa5db8	-0.33274627
11	0xbe51149e	-0.20418021
12	0xbe54c4f5	-0.20778258
13	0xbe90080a	-0.28131133
14	0xbea7da31	-0.32783654
15	0x3ca4e678	0.020129427
16	0xbe1e9d08	-0.1548959
17	0x3dc02193	0.09381404
18	0x3e6cfc69	0.23143162
19	0xbe4e706a	-0.2016007
20	0xbd887e0a	-0.06664665
21	0xbd80e29d	-0.06293223
22	0x3dde8254	0.10864702
23	0xbd952589	-0.0728255
24	0xbeabb220	-0.33534336
25	0x3e42b4fd	0.19014354
26	0xbe236dab	-0.15959804
27	0xbe26068a	-0.16213432
28	0xbeacf4a1	-0.33780387
29	0x3e121b0f	0.14268135
30	0x3e0262d7	0.12733017
31	0x3eb07abb	0.34468636
32	0x3e8790f9	0.26477793
33	0x3dc742fc	0.09729573
34	0xbc5de36f	-0.013542994
35	0xb9a33a2c	-0.00031133124
36	0xbcc8efe0	-0.024528444
37	0x3e9e4e2b	0.30919012
38	0xbe63232e	-0.22181389
39	0xbd300cba	-0.042980887
40	0xbe452163	-0.19251017
41	0x3eb180f6	0.34668702
42	0xbbc0f51d	-0.005888595
43	0xbce5320c	-0.027977966
44	0x3d850bcf	0.06496393
45	0xbd35dea2	-0.044401772
46	0xbe2972ba	-0.16547671
47	0xbdae9e77	-0.085263185
48	0x3e3b7113	0.18304853
49	0xbe40f202	-0.18842319
50	0x3e56ca7c	0.20975679
51	0x3c6d2e15	0.014476319
52	0x3d33f530	0.043935
53	0xbeae71b7	-0.34071133
54	0xbcf5239e	-0.02992421
55	0x3e64b45e	0.2233443
56	0xbe2c5898	-0.16830671
57	0xbe6b90f8	-0.2300452
58	0xbeb4fdba	-0.35349828
59	0x3ea7c430	0.32766867
60	0x3dc06407	0.09394079
61	0xbe930904	-0.28717816
62	0xbe054724	-0.13015419
63	0x3d16977b	0.036765557
64	0x3e82e927	0.25568506
65	0xbcc894d6	-0.024485033
66	0xbd70cf53	-0.05879147
67	0xbea5448c	-0.3227886
68	0x3dbee99b	0.093219005
69	0x3e8a4ce3	0.27011785
70	0x3e81c7ef	0.2534785
71	0xbd989b63	-0.07451513
72	0xbe6c45fa	-0.23073569
73	0x3e23057e	0.15920064
74	0x3d895903	0.06706431
75	0xbe05fdc6	-0.13085088
76	0x3daee127	0.08539038
77	0x3e491809	0.19638075
78	0x3e0c305c	0.13690323
79	0x3df8d34c	0.12149677
80	0x3e7acb0a	0.24491516
81	0x3eb7fbf6	0.35934418
82	0x3ea2115d	0.31653872
83	0x3e8dc779	0.27691248
84	0x3e770359	0.24122371
85	0x3e900a43	0.2813283
86	0x3aba9896	0.0014236148
87	0xbd8b8701	-0.06812859
88	0xbe593f73	-0.2121561
89	0xbccb29d3	-0.024800217
90	0xbe52b16a	-0.2057549
91	0xbd9339ef	-0.07188784
92	0x3d06a8a8	0.032875687
93	0x3dc2a5dc	0.095042914
94	0xbd7f2bfa	-0.0622978
95	0xbe3d3e6a	-0.1848084
96	0xbaa4c261	-0.0012570136
97	0x3d4957f7	0.049156155
98	0x3d526e66	0.051374815
99	0x3e686607	0.2269517
100	0xbe9532ea	-0.29140407
101	0xbcbe0575	-0.023195961
102	0x3e81c373	0.25344428
103	0xbd0a8956	-0.03382238
104	0x3ecb4e0f	0.3970799
105	0xbe84ce12	-0.2593847
106	0x3e0415fe	0.12899014
107	0xbd1cc087	-0.038269546
108	0xbe19df91	-0.1502669
109	0xbd180dc3	-0.0371225
110	0xbe69ad1d	-0.22819944
111	0x3e9b91cc	0.30384672
112	0xbc8f707e	-0.017509695
113	0x3e2cfadf	0.16892575
114	0xbe09d7f6	-0.13461289
115	0x3e14e2a4	0.14539582
116	0xbe68b5db	-0.22725622
117	0xbe6823c7	-0.22669898
118	0x3d855fe3	0.065124296
119	0x3e93fb34	0.2890259
120	0xbe127e24	-0.14305931
121	0x3c0491ca	0.008091399
122	0xbd947b7d	-0.07250116
123	0xbd146642	-0.036230333
124	0x3e61223a	0.21985713
125	0xbe33ef43	-0.1757174
126	0x3b18e240	0.0023328215
127	0x3e363f75	0.17797644
128	0xbd82491d	-0.063616015
129	0x3eba5b22	0.36397654
130	0xbebf00a5	-0.3730518
131	0x3e88ecec	0.26743257
132	0x3eaee039	0.34155443
133	0x3e30883d	0.17239471
134	0x3e77a2d9	0.24183215
135	0x3e2b641c	0.16737407
136	0x3e65b226	0.2243124
137	0x3d170d4c	0.036877915
138	0x3bb9b043	0.005666764
139	0x3e5bf6ae	0.2148082
140	0x3ed1c84e	0.40973133
141	0xbe9507b6	-0.29107445
142	0x3dc8bf15	0.09802071
143	0x3d0b7c72	0.034054227
144	0xbc57353f	-0.013135253
145	0x3dd8346a	0.10556872
146	0xbe8f6c94	-0.28012526
147	0xbe97beb8	-0.29637694
148	0xbe18deac	-0.14928693
149	0x3e78d776	0.24300942
150	0x3e54b689	0.20772757
151	0x3e059c65	0.13047941
152	0x3dc5549b	0.09635278
153	0xbe5c3be8	-0.21507227
154	0xbd7220d0	-0.059113324
155	0xbe33979c	-0.17538303
156	0x3c7388c0	0.014864147
157	0xbe5fee6a	-0.21868291
158	0x3e9a3640	0.30119514
159	0x3e385a56	0.1800321
160	0xbe6ed0bf	-0.23321818
161	0xbe51aafb	-0.2047538
162	0xbe41a2bc	-0.18909734
163	0x3d6759b7	0.056482043
164	0xbea43653	-0.32072696
165	0xbda89ec1	-0.08233405
166	0xbea4f20f	-0.32215926
167	0xbe9bbc2d	-0.30417004
168	0xbeac9ebb	-0.33714852
169	0xbe63bf4f	-0.22240947
170	0xbd53f765	-0.051749606
171	0xbde2342e	-0.11045109
172	0xbe1f6407	-0.15565501
173	0x3e18106f	0.14850019
174	0x3e922893	0.2854658
175	0xbcde4c5a	-0.027136017
176	0x3eb088ae	0.34479278
177	0xbe388cec	-0.18022507
178	0x3d05ed18	0.032696813
179	0x3e0d60e0	0.13806486
180	0x3d993b4c	0.07482013
181	0x3c584d85	0.013202076
182	0xbee13a38	-0.4398973
183	0x3e1ac830	0.15115428
184	0xbe12b8d7	-0.14328323
185	0xbe22fa35	-0.15915759
186	0xbe18bbe1	-0.1491542
187	0x3e528c97	0.20561443
188	0xbd9986c3	-0.07496407
189	0x3dcca126	0.09991674
190	0xbe96cfc1	-0.2945538
191	0x3e9c9be0	0.30587673
192	0x3e51d848	0.20492661
193	0x3dcc8cdb	0.099878035
194	0x3e238d95	0.15971978
195	0x3e8788c3	0.26471528
196	0x3ece8268	0.40333867
197	0x3ea2ff36	0.31835335
198	0x3cf80083	0.030273682
199	0x3ddb8a26	0.10719709
200	0xbdd58726	-0.10426168
201	0x3e9c306f	0.30505702
202	0xbe32a049	-0.17443956
203	0x3e80ab49	0.2513068
204	0xbd08ac03	-0.03336717
205	0x3e5f2b69	0.21793903
206	0x3e813d4f	0.25242087
207	0xbced46e5	-0.02896447
208	0xbe93dbbf	-0.2887859
209	0x3d766791	0.060157362
210	0x3e534a60	0.2063384
211	0xbe9cc356	-0.3061778
212	0x3d30609a	0.043060876
213	0xbd21f020	-0.03953564
214	0xbead4faa	-0.3384984
215	0xbe620c14	-0.2207492
216	0xbe0631c1	-0.13104917
217	0x3e0b4be9	0.13603176
218	0x3e836111	0.25659993
219	0xbe16b46c	-0.14717263
220	0xbde06377	-0.109564714
221	0xbd625042	-0.05525232
222	0x3e848b32	0.25887448
223	0xbea8cdc6	-0.32969493
224	0xbe356548	-0.17714417
225	0x3d472de4	0.04862775
226	0xbe0b01d4	-0.13574916
227	0xbe71cae0	-0.23612547
228	0x3d01cc31	0.031688873
229	0xbc4fdbad	-0.012686652
230	0xbcd9eb1f	-0.026601372
231	0x3e810928	0.25202298
232	0x3ea9b945	0.33149162
233	0x3e90ccb4	0.28281176
234	0xbdb04299	-0.086064525
235	0x3e49bda2	0.19701245
236	0x3e6b1ff5	0.2296141
237	0x3e88c96e	0.2671618
238	0xbdffd03a	-0.12490888
239	0x3d6c60a2	0.057709344
240	0xbdb822b8	-0.08990997
241	0xbd02307d	-0.031784523
242	0xbea58a78	-0.32332206
243	0x3eac8743	0.33696947
244	0xbeb85f9e	-0.3601045
245	0x3ccd3c7e	0.025053259
246	0x3b02cacd	0.0019957304
247	0x3e4574ee	0.19282886
248	0x3d81c595	0.06336514
249	0x3b511740	0.0031904727
250	0xbe692922	-0.22769597
251	0x3a823f22	0.0009937028
252	0xbec81b51	-0.3908334
253	0x3e479ee2	0.19494203
254	0x3df6867b	0.12037369
255	0x3eae7455	0.3407313

weight_hh_l0 f4 [40, 10]
0	0x3e65311d	0.22382016
1	0x3d196a5f	0.03745496
2	0xbe8ac73e	-0.27105135
3	0xbe95279e	-0.29131788
4	0xbcf9880d	-0.030460382
5	0x3e4d2914	0.20035201
6	0xbe8ec983	-0.27888116
7	0xbce14528	-0.027498797
8	0x3e7ba787	0.24575625
9	0xbea3ea82	-0.32014853
10	0xbea4cc49	-0.32187107
11	0xbe202afb	-0.15641396
12	0x3db53e02	0.08849718
13	0x3d236662	0.03989256
14	0xbe5ad41b	-0.21369974
15	0xbe4bfa2e	-0.19919655
16	0xbe438528	-0.19093764
17	0x3d3fc025	0.046814103
18	0xbe5e6a0e	-0.21720144
19	0x3ebb10a0	0.3653612
20	0x3d89f420	0.06736016
21	0xbeb09ee8	-0.34496236
22	0xbe84ff39	-0.2597597
23	0xbe55c9d4	-0.20877773
24	0xbe4349a5	-0.19071062
25	0xbe58d683	-0.2117558
26	0x3da14327	0.078741364
27	0x3e16f3c0	0.14741421
28	0xbe91962e	-0.2843489
29	0xbe27b74e	-0.16378519
30	0x3e303c52	0.1721051
31	0xbe865613	-0.26237544
32	0x3d0763de	0.033054225
33	0xbe6b07de	-0.2295222
34	0xbe09e9dd	-0.13468118
35	0xbd1dc421	-0.03851712
36	0x3ef00494	0.46878493
37	0x3e9732af	0.29530856
38	0xbd983bbb	-0.07433268
39	0x3d289f20	0.04116738
40	0xbe93e4d1	-0.2888551
41	0x3e6666b6	0.22500119
42	0x3e4a66a0	0.19765711
43	0xbe7f33f2	-0.2492216
44	0xbcd9de3a	-0.026595224
45	0xbe95d148	-0.2926123
46	0xbc04d7ed	-0.008108121
47	0xbdaa53e6	-0.083167836
48	0x3e6a289c	0.22867054
49	0xbb4045c4	-0.0029338459
50	0xbdc6dd00	-0.09710121
51	0x3e15bda0	0.14623117
52	0xbdcaca74	-0.09901896
53	0xbcd7a11d	-0.026321942
54	0xbdb7bc87	-0.089715056
55	0xbec3f6e3	-0.38274297
56	0xbea1bcb0	-0.3158927
57	0xbdf00be2	-0.117210165
58	0x3eae0e59	0.3399532
59	0x3e28c6f7	0.16482149
60	0xbe3b212d	-0.18274374
61	0x3da17537	0.07883685
62	0xbccd5310	-0.025064021
63	0xbe8ed9cc	-0.2790054
64	0xbe25632a	-0.1615111
65	0x3ebd103b	0.36926445
66	0x3d61a07a	0.055084683
67	0xbe35142e	-0.17683479
68	0xbcee25c3	-0.02907074
69	0xbcec18ff	-0.028820513
70	0x3e122d81	0.14275171
71	0xbe31521b	-0.17316477
72	0x3e2b2905	0.16714866
73	0x3dad8998	0.084735096
74	0xbe763c0d	-0.24046345
75	0xbe857dff	-0.2607269
76	0x3e8e5307	0.2779772
77	0xbdd2627d	-0.102726914
78	0xbb710e41	-0.0036782178
79	0x3e0c0ae1	0.13676025
80	0x3c82d2ba	0.015969623
81	0xbecfac17	-0.40560982
82	0x3d33e06c	0.043915197
83	0xbe26dcd6	-0.1629518
84	0x3d1cedda	0.03831277
85	0x3d67f828	0.056633145
86	0xbedbf8c6	-0.42963237
87	0x3eb8d735	0.3610169
88	0xbe2c2f6d	-0.16814966
89	0x3e3b2d3f	0.18278979
90	0x3e087ff5	0.13330062
91	0x3e0487fd	0.129425
92	0xba7dc3f4	-0.00096803834
93	0x3dc31a55	0.09526507
94	0xbdc4a650	-0.09602034
95	0xbe79e1b5	-0.24402507
96	0xbde68c77	-0.1125726
97	0xbc4d58dd	-0.012533394
98	0xbdb33f05	-0.087522544
99	0x3d9331be	0.07187222
100	0x3e3b0a15	0.18265565
101	0xbce8588f	-0.02836254
102	0x3deafd1e	0.114740595
103	0x3e8aa135	0.27076116
104	0xbd25646f	-0.040378984
105	0xbdec3890	-0.11534226
106	0xbe29e083	-0.1658955
107	0xbcf058c4	-0.029339202
108	0x3e20f27e	0.15717503
109	0x3d81ea30	0.06343496
110	0x3e1dbde0	0.15404463
111	0xbdcc3ca3	-0.09972503
112	0xba5e1031	-0.00084710406
113	0x3e54dd10	0.20787454
114	0xbdf2b160	-0.11850238
115	0xbe72ffb3	-0.23730354
116	0x3dd22631	0.10261191
117	0xbca5f3eb	-0.02025791
118	0xbe986b81	-0.2976952
119	0x3e2a3240	0.16620731
120	0xbe32ddb1	-0.17467381
121	0x3d5f6dbb	0.054548007
122	0x3dea8f84	0.11453155
123	0x3e3a0ccc	0.18168944
124	0xbeb8e68d	-0.36113396
125	0xbe9e6d77	-0.3094289
126	0xbdf30f9d	-0.11868212
127	0x3e3160b3	0.17322044
128	0xbe1c9a1d	-0.15293165
129	0xbb416130	-0.002950739
130	0x3e25065b	0.16115706
131	0x3ea35a92	0.31905037
132	0xbdc59399	-0.09647293
133	0xbd835888	-0.0641337
134	0xbc6184a8	-0.013764538
135	0x3e944004	0.2895509
136	0x3e0c1784	0.13680845
137	0x3ea76edc	0.32701766
138	0x3e9218b1	0.28534463
139	0x3e9bfe27	0.3046734
140	0x3e670fd8	0.22564638
141	0x3d7f8223	0.062379967
142	0xbe152726	-0.14565715
143	0x3e49fbb1	0.19724919
144	0x3d169a12	0.036768027
145	0xbd1f5eb9	-0.038908694
146	0xbd3a7f74	-0.045531705
147	0x3e272520	0.16322756
148	0xbeb2d92f	-0.34931323
149	0x3e9b73df	0.3036184
150	0xbe9fef30	-0.31237173
151	0xbe1de65c	-0.15419906
152	0xbec0df05	-0.3767015
153	0xbe98fab9	-0.29878786
154	0xbe40d030	-0.18829417
155	0xbe30c16d	-0.17261286
156	0x3e16ac1a	0.14714089
157	0x3e5fbdae	0.21849701
158	0xbd68222d	-0.056673218
159	0x3e352258	0.17688882
160	0x3d71a558	0.058995575
161	0xbe103b09	-0.1408502
162	0xbe7adfb4	-0.24499398
163	0xba89e1ec	-0.00105196
164	0xbe5d7604	-0.2162705
165	0xbd76789e	-0.060173623
166	0xbe144e35	-0.14482959
167	0x3e8739ad	0.2641119
168	0xbe854c36	-0.26034707
169	0x3e3ebbf8	0.18626392
170	0xbec379e9	-0.38178948
171	0x3e0bdaae	0.13657638
172	0xbe950577	-0.29105732
173	0xbc7e46a2	-0.01551977
174	0x3cd355c0	0.025797725
175	0xbedf2224	-0.43580735
176	0xbe3d096f	-0.1846063
177	0xbe318572	-0.17336062
178	0x3d8c7ee6	0.068601415
179	0xbd2400c8	-0.040039808
180	0xbd857377	-0.06516164
181	0xbe992b1e	-0.29915708
182	0xbe9471ee	-0.2899317
183	0xbe90f870	-0.28314543
184	0xbe098965	-0.13431318
185	0x3e28b929	0.16476883
186	0xbe81bf79	-0.25341395
187	0x3ea68807	0.32525656
188	0xbe4507a0	-0.1924119
189	0x3ead465a	0.33842736
190	0xbc50bfa7	-0.012741006
191	0xbea8dd0a	-0.3298114
192	0xbe3937ec	-0.18087739
193	0x3e83fc12	0.25778252
194	0xbe946266	-0.28981322
195	0xbde24319	-0.11047954
196	0x3e6294c0	0.22127056
197	0x3db2d218	0.087314785
198	0x3cbcb193	0.023033893
199	0xbc0d3b1c	-0.00862005
200	0xbe9edb3b	-0.31026635
201	0x3e982261	0.2971373
202	0x3d8d09c4	0.06886628
203	0xbcc691f5	-0.02423952
204	0x3e875c9b	0.2643784
205	0x3de2d9d0	0.11076701
206	0x3e2524d9	0.16127338
207	0x3c8aaadb	0.016927173
208	0xbce8d781	-0.028423073
209	0xbcee7f04	-0.0291133
210	0xbe679573	-0.22615604
211	0xbd8f5814	-0.069992214
212	0xbe3f93ee	-0.18708774
213	0x3e178303	0.14796071
214	0x3e8347e0	0.25640774
215	0x3d25f2fa	0.040514924
216	0x3e3325aa	0.17494836
217	0x3e816924	0.25275528
218	0x3e41ccd0	0.18925786
219	0x3e306dbf	0.17229365
220	0x3da3d83e	0.08000229
221	0x3eaaf68d	0.33391228
222	0xbe52580b	-0.20541398
223	0xbe1ca9f7	-0.15299211
224	0xbe17afe3	-0.14813189
225	0xbde89ad0	-0.11357653
226	0xbdcb434a	-0.09924944
227	0xbe2056f5	-0.15658171
228	0xbe5752fb	-0.21027748
229	0x3d205d50	0.03915149
230	0xbe494cef	-0.19658254
231	0xbe5e0449	-0.21681322
232	0x3e266ece	0.16253206
233	0xbcadc8b1	-0.021213861
234	0x3e8679ca	0.26264793
235	0xbe9293b1	-0.28628305
236	0x3e821dd5	0.25413385
237	0xbe5a92c8	-0.21345055
238	0x3e8d70a9	0.27625015
239	0x3ead941f	0.3390207
240	0x3e96157f	0.29313275
241	0xbb017750	-0.0019754954
242	0xbd7a73ac	-0.06114547
243	0xbe4c25e1	-0.19936325
244	0xbe83d628	-0.25749326
245	0x3ded79bd	0.11595485
246	0x3d9e10c1	0.07718039
247	0x3cc44637	0.023959262
248	0x3cce8083	0.025207764
249	0x3e8057ae	0.25066894
250	0x3e44291a	0.19156304
251	0xbd630a0e	-0.05542951
252	0x3ea80c05	0.3282167
253	0xbd04e9eb	-0.032449644
254	0x3e953da7	0.291486
255	0xbd8ecd6a	-0.069727734

bias_ih_l0 f4 [40]
0	0xbe65a94b	-0.22427861
1	0xbe14162f	-0.14461587
2	0x3d78db3a	0.060755946
3	0xbc216227	-0.0098500615
4	0x3e7caf7a	0.24676314
5	0x3e106b9c	0.1410355
6	0xbe8c29cc	-0.27375638
7	0x3dee2bc4	0.116294414
8	0x3e4fbf2b	0.20287769
9	0x3d66c770	0.056342542
10	0x3cd149bb	0.025547853
11	0x3e910a9e	0.28328413
12	0xbca615b5	-0.020274023
13	0x3e0ebf66	0.139402
14	0x3e57ca5b	0.21073286
15	0x3e5d8366	0.21632156
16	0x3c708f66	0.014682626
17	0x3db4a511	0.088205464
18	0xbe090281	-0.13379861
19	0x3e86ecd1	0.26352552
20	0x3df29e9a	0.11846657
21	0xbeaa3091	-0.33240178
22	0x3d6ee971	0.058328096
23	0x3c301bcb	0.010748814
24	0xbe4680f1	-0.19385125
25	0xbe83fbb5	-0.25777975
26	0x3dff5693	0.124676846
27	0x3e66171d	0.22469755
28	0x3e7386ff	0.23781966
29	0x3e51aebb	0.2047681
30	0xbd4a6d83	-0.049420845
31	0x3eb1c11a	0.34717637
32	0xbe3f6c16	-0.18693575
33	0xbe06f79b	-0.13180391
34	0xbdb0eb50	-0.08638632
35	0xbd6e754d	-0.058217335
36	0x3e4eff2d	0.2021453
37	0x3c66c570	0.014085159
38	0xbd85fd42	-0.06542446
39	0x3ee357ff	0.44403073

bias_hh_l0 f4 [40]
0	0xbd8eed5f	-0.06978869
1	0x3e72b747	0.23702727
2	0x3de435c9	0.11143071
3	0xbd6e5777	-0.05818888
4	0xbe2d277d	-0.16909595
5	0x3d9222eb	0.07135566
6	0xbda62e68	-0.0811432
7	0x3e3985c3	0.18117432
8	0x3dbf7f01	0.09350396
9	0x3e6f59be	0.23374078
10	0x3e675a86	0.22593126
11	0x3ea9619b	0.3308228
12	0x3d806f6f	0.06271254
13	0xbe0c58d0	-0.13705754
14	0x3e85a84f	0.26104972
15	0x3ebf8adb	0.37410626
16	0xbd89b150	-0.06723273
17	0x3d8ce193	0.06878962
18	0xbdf494df	-0.119424574
19	0x3e83e36c	0.25759447
20	0x3e34f3be	0.17671105
21	0xbe1fed8c	-0.1561796
22	0xbe8ea961	-0.278636
23	0xbe647bf0	-0.22312903
24	0xbe08f27d	-0.13373752
25	0xbd9ad195	-0.07559506
26	0x3dcdd647	0.10050636
27	0x3e9d54d2	0.30728775
28	0x3e0b3b8f	0.13596939
29	0x3e4a4d05	0.19755943
30	0x3e7cfbd4	0.2470544
31	0xbe1d8390	-0.15382218
32	0x3e3647ff	0.17800902
33	0xbdd876fc	-0.105695695
34	0xbe2d9456	-0.16951117
35	0x3e909cf1	0.28244737
36	0xbe1c543c	-0.15266508
37	0x3e8fa4be	0.28055376
38	0x3d6d2ee3	0.057906043
39	0x3e85335b	0.26015744

weight_ih_l0 f4 [40, 22]
0	0x3e4715d0	0.19441915
1	0x3e271e0a	0.16320053
2	0x3df623c9	0.12018544
3	0xbe994e70	-0.29942656
4	0x3e3636ee	0.17794392
5	0xbea6db6d	-0.32589284
6	0xbd5f9d7b	-0.054593544
7	0x3e7808f2	0.24222162
8	0x3bd7a9a4	0.006581502
9	0xbd56cc99	-0.052441213
10	0xbccff1d1	-0.025383862
11	0xbe38694e	-0.1800892
12	0xbe801f53	-0.25023898
13	0x3e62acfc	0.22136301
14	0x3dc9a82a	0.09846528
15	0x3e3f0b0f	0.18656562
16	0x3e90a400	0.28250122
17	0xbe872ef5	-0.26403013
18	0xbe976553	-0.29569492
19	0x3e3e6beb	0.18595855
20	0x3e17bde9	0.14818539
21	0xbeb4c4ff	-0.35306546
22	0x3e880e6f	0.26573512
23	0x3dfd787e	0.12376498
24	0x3db8f5ad	0.09031234
25	0xbe063732	-0.13106993
26	0x3e67c320	0.22633028
27	0x3e50eb79	0.20402326
28	0xbdb732d7	-0.08945244
29	0x3c9c8851	0.01910797
30	0xbe04de62	-0.12975457
31	0xbe17f090	-0.14837861
32	0xbe43fe43	-0.19139962
33	0xbe3e76ff	-0.18600081
34	0xbeb784df	-0.3584356
35	0x3dcdc769	0.100478
36	0xbe9a7e9b	-0.30174717
37	0xbe7a6461	-0.24452354
38	0xbe730fab	-0.23736446
39	0xbd69e4cf	-0.057102975
40	0x3d0f599d	0.03499757
41	0xbeb5d77a	-0.35515958
42	0x3e32862f	0.17434
43	0x3c0565ad	0.008141917
44	0xbe8dfd56	-0.27732342
45	0x3eacec5a	0.33774072
46	0x3e54036d	0.20704432
47	0x3d115b68	0.035487562
48	0x3e1fe3aa	0.1561419
49	0x3e4c6ad2	0.19962624
50	0xbdbb585a	-0.09147711
51	0x3e669e08	0.22521222
52	0xbdce342b	-0.10068544
53	0x3ea87201	0.32899478
54	0xbe90fe61	-0.28319076
55	0xbe20bc35	-0.15696795
56	0x3d8eb536	0.06968157
57	0x3e8baec1	0.27281764
58	0xbeba9925	-0.36444965
59	0xbcc434c0	-0.023950934
60	0x3ecfcff5	0.40588346
61	0xbe30c441	-0.17262365
62	0xbe567724	-0.20943886
63	0x3e2cceb4	0.16875726
64	0x3e474177	0.19458567
65	0x3cf13e68	0.029448703
66	0x3e3b26c0	0.182765
67	0xbeed09ef	-0.4629664
68	0xbe473e72	-0.19457415
69	0xbd0badb1	-0.034101192
70	0xbe75939f	-0.23982094
71	0xbe7ddf61	-0.24792244
72	0xbe90be39	-0.28270128
73	0x3db92e35	0.090420164
74	0xbd42b8ae	-0.047539406
75	0x3e186f90	0.14886308
76	0xbd34a716	-0.044104658
77	0xbe12ec26	-0.14347896
78	0x3e3ac221	0.18238117
79	0x3d240740	0.040045977
80	0xbe4704aa	-0.19435373
81	0x3dcc135a	0.099646285
82	0xbe0b9cd5	-0.13634045
83	0xbe77beb6	-0.24193844
84	0xbbb04c03	-0.005380155
85	0x3eead2e2	0.45864016
86	0x3db6bae3	0.089223646
87	0x3e737a97	0.23777233
88	0x3d8da760	0.0691669
89	0xbcb8ba30	-0.022549719
90	0x3e7145d0	0.23561788
91	0x3e2c1290	0.16803956
92	0xbe13a45c	-0.14418167
93	0xbe62cd48	-0.22148621
94	0xbe8de788	-0.27715707
95	0x3e060d6b	0.13091056
96	0xbc81be86	-0.015837919
97	0x3e8404a5	0.25784793
98	0xbd850097	-0.06494253
99	0x3e19f0c7	0.15033256
100	0x3e843f22	0.25829417
101	0xbe98ae23	-0.29820356
102	0xbd71e408	-0.05905536
103	0xbe58f0c3	-0.21185593
104	0x3e668738	0.2251252
105	0x3e5a143b	0.2129678
106	0xbe166cec	-0.14689988
107	0xbdb75641	-0.089519985
108	0x3e921db4	0.28538287
109	0x3e87ce18	0.26524425
110	0x3d6b0f45	0.05738761
111	0xbe94ca33	-0.29060516
112	0x3dededf6	0.11617653
113	0xbe2ac1de	-0.16675517
114	0x3df36da2	0.11886145
115	0xbd99c31f	-0.075079195
116	0xbe66b46c	-0.22529763
117	0xbcb28588	-0.021792188
118	0x3ddf98a4	0.10917786
119	0xbe3e6bc4	-0.18595797
120	0xbe86b4ae	-0.26309723
121	0x3e39128b	0.1807348
122	0x3e0678db	0.1313204
123	0xbd3b6674	-0.045752004
124	0xbe272206	-0.16321573
125	0xbdac8706	-0.08424191
126	0x3ce80871	0.028324338
127	0xbc241105	-0.010013823
128	0x3e003655	0.12520726
129	0x3e8f8e23	0.2803813
130	0x3e8a9e69	0.27073982
131	0x3ea60dd7	0.32432434
132	0xbe9cc54a	-0.3061927
133	0x3d5e732c	0.054309055
134	0xbe7d2841	-0.24722387
135	0x3cbcf382	0.023065332
136	0x3d79a86c	0.060951635
137	0xbe9a1791	-0.30096105
138	0xbd8cfbdc	-0.06883976
139	0xbca97feb	-0.020690879
140	0x3e46dfa0	0.19421244
141	0x3e59324e	0.21210596
142	0xbe9ecbe8	-0.31014943
143	0xbd8fd304	-0.0702267
144	0x3e9550c0	0.2916317
145	0x3e86581a	0.2623909
146	0xbe29dac9	-0.16587366
147	0xbe926d3c	-0.28598964
148	0x3e09b824	0.1344915
149	0x3eacf4f6	0.3378064
150	0x3d462679	0.048376534
151	0x3e980e54	0.29698431
152	0xbe12fedb	-0.14355032
153	0xbe33f4be	-0.1757383
154	0xbe05edb9	-0.13078965
155	0xbd33add2	-0.04386694
156	0xbe586182	-0.21130946
157	0x3ebc1c45	0.36740318
158	0x3e054b90	0.13017106
159	0xbe414336	-0.18873295
160	0xbe9b31ff	-0.30311581
161	0xbd54d0fa	-0.051957108
162	0x3e60a922	0.21939519
163	0x3d1f2783	0.03885604
164	0xbe393c3c	-0.18089384
165	0xbd14f109	-0.03636268
166	0xbb72a445	-0.0037024182
167	0x3d6bc16d	0.057557512
168	0x3e2542cf	0.16138767
169	0xbd2c1eb9	-0.042021487
170	0xbcf11798	-0.029430196
171	0x3ca9252e	0.020647611
172	0x3cf7378a	0.03017785
173	0x3e74051d	0.23830076
174	0x3d6c452a	0.057683147
175	0xbdd92d19	-0.10604305
176	0xbd095b39	-0.033534262
177	0xbe85ce45	-0.26133934
178	0xbeb2ba31	-0.34907678
179	0x3eaa7109	0.33289364
180	0x3e66b9c7	0.22531806
181	0xbe144b30	-0.14481807
182	0x3c1a7a0c	0.009428512
183	0xbe39e060	-0.18151999
184	0xbd868e89	-0.06570155
185	0x3d71c2d1	0.059023682
186	0x3e05caad	0.13065596
187	0x3e3469ed	0.17618532
188	0xbceee13e	-0.029160138
189	0xbe858881	-0.26080707
190	0x3e61b408	0.22041333
191	0xbdf2816a	-0.1184109
192	0x3e4d1350	0.20026898
193	0xbe855736	-0.260431
194	0xbdb39620	-0.087688684
195	0x3e9509b1	0.29108956
196	0x3de6e082	0.1127329
197	0x3cb9cb66	0.022679996
198	0x3e9075f0	0.2821498
199	0x3d46e94a	0.048562326
200	0xbdffd0d5	-0.124910034
201	0x3e077130	0.13226771
202	0x3e2c4dcf	0.16826557
203	0x3de2865e	0.11060785
204	0xbcae9d52	-0.02131525
205	0x3e95c667	0.2925293
206	0x3eafcda8	0.3433659
207	0x3ca8ceda	0.020606447
208	0xbe1f417e	-0.15552327
209	0xbe036953	-0.12833147
210	0xbebadf9c	-0.36498725
211	0x3d4c7a82	0.04992152
212	0x3e50c9d8	0.20389497
213	0x3d3327c8	0.04373911
214	0xbc80dc94	-0.01573018
215	0xbe22e9cf	-0.15909503
216	0xbe6b9024	-0.23004204
217	0xbd89f6d1	-0.067365296
218	0xbe33ac43	-0.17546181
219	0x3e25fda7	0.16210042
220	0x3e1ff0fa	0.15619269
221	0xbea14ef0	-0.31505537
222	0xbd847a34	-0.06468621
223	0x3df7536f	0.120764606
224	0xbe55897c	-0.20853227
225	0xbdb3e9c3	-0.08784821
226	0x3df148d3	0.11781468
227	0xbda7f25b	-0.082005225
228	0x3d823357	0.063574485
229	0xbe09f907	-0.13473903
230	0xbdc7b9c4	-0.09752229
231	0xbe5ad11a	-0.21368828
232	0xbde78c61	-0.11306072
233	0xbe7ab6c4	-0.24483782
234	0x3d07017f	0.03296041
235	0xbdbc0419	-0.09180469
236	0xbddf7ff7	-0.10913079
237	0xbeed8646	-0.46391505
238	0x3da8806f	0.08227622
239	0xbd8c9c4a	-0.06865747
240	0x3e005132	0.12530974
241	0xbe502b8f	-0.20329116
242	0x3e1cbc6d	0.15306254
243	0xbe4bcb9b	-0.19901888
244	0xbeb4f142	-0.35340315
245	0x3d7e3f48	0.06207207
246	0xbea11bea	-0.3146661
247	0xbc384e94	-0.011249203
248	0x3cc8c6d8	0.024508879
249	0x3ea62ecd	0.3245758
250	0x3d913840	0.07090807
251	0x3e8599f7	0.26094028
252	0xbefacf11	-0.48986104
253	0xbba797aa	-0.0051145153
254	0xbdde99d0	-0.10869181
255	0xbe749a5e	-0.23887011

weight_hh_l0 f4 [40, 10]
0	0x3b340886	0.00274709
1	0x3de57f46	0.11205916
2	0x3df309e3	0.1186712
3	0x3e6c99f0	0.23105597
4	0xbe8fd79d	-0.28094187
5	0xbda677bb	-0.081283055
6	0x3dd94c25	0.106102265
7	0xbe9e55f6	-0.30924958
8	0x3e298e56	0.16558203
9	0xbe4ce5da	-0.20009556
10	0xbe7392ec	-0.23786515
11	0x3eb30d24	0.34970963
12	0x3e942c3b	0.28939995
13	0x3c716688	0.014733918
14	0x3e93aa4a	0.28840858
15	0xbdd44306	-0.10364346
16	0x3e7aa1f6	0.24475846
17	0x3dbad86d	0.09123311
18	0xbea80326	-0.32814902
19	0x3e06203a	0.13098231
20	0x3e0e0ecb	0.1387283
21	0xbe61ef2b	-0.22063892
22	0x3e6d57d4	0.23178035
23	0xbf0439c2	-0.5165063
24	0xbe45bc3a	-0.19310084
25	0xbdd1ee13	-0.10250487
26	0x3e7274c5	0.23677357
27	0xbb067b44	-0.002052025
28	0xbd6d0e23	-0.05787481
29	0xbe57cdcb	-0.21074598
30	0x3e556fa1	0.20843364
31	0xbe2de077	-0.16980158
32	0x3e5dd3ff	0.21662901
33	0x3d1fc2c5	0.039004106
34	0xbd195cf6	-0.03744217
35	0x3e47d9a8	0.19516623
36	0x3e8d7659	0.27629355
37	0xbd4509f4	-0.048105195
38	0xbec4cc52	-0.38437134
39	0xbd8d7150	-0.06906378
40	0xbd82a16e	-0.063784465
41	0xbd5723bd	-0.052524317
42	0x3ebe9868	0.37225652
43	0x3e266e7c	0.16253084
44	0x3ea515f8	0.32243323
45	0xbe5bb649	-0.21456255
46	0x3ef31506	0.47476977
47	0xb93858dc	-0.0001758071
48	0xbd6fea48	-0.058573037
49	0xbe396c6e	-0.18107769
50	0xbddd12a3	-0.1079457
51	0x3e2af68d	0.16695614
52	0x3ea73e11	0.3266454
53	0xbe86a51b	-0.2629784
54	0x3ea6114d	0.32435074
55	0xbe79e6f7	-0.24404512
56	0xbd2dcd83	-0.04243232
57	0x3e8c898f	0.274487
58	0xbe9bc2e9	-0.30422142
59	0xbe0f10f1	-0.13971306
60	0xbe380f8a	-0.17974678
61	0x3e345166	0.17609176
62	0x3ed1b3db	0.4095753
63	0x3f0297c6	0.5101284
64	0x3e928192	0.2861448
65	0xbe02fa86	-0.1279088
66	0xbd791a2d	-0.06081598
67	0x3e2c156a	0.16805044
68	0x3cc48af1	0.023992034
69	0xbe4eb943	-0.20187859
70	0xbdfb4448	-0.12268883
71	0xbd1fb8fc	-0.038994774
72	0x3e9deab8	0.3084314
73	0xbd859ef0	-0.065244555
74	0xbd17d782	-0.03707076
75	0x3e4b5ae9	0.19858898
76	0x3d1d9d37	0.03848001
77	0x3e6e189e	0.23251578
78	0x3d5afce6	0.05346384
79	0xbe81a648	-0.25322175
80	0xbda68717	-0.08131235
81	0x3e56c1b7	0.20972334
82	0x3dae08bd	0.084977604
83	0xbe6d9a60	-0.2320342
84	0x3e08e158	0.13367212
85	0x3e8e08a7	0.27740976
86	0x3e38af2d	0.18035574
87	0xbe855325	-0.26039997
88	0x3e85ef32	0.26159054
89	0x3e32ff0f	0.1748011
90	0xbdfc7828	-0.123276055
91	0x3e16ae6e	0.14714977
92	0x3e9357b5	0.28777853
93	0x3e0127c6	0.12612829
94	0x3e84674f	0.25860068
95	0xbe5ace76	-0.21367821
96	0xbd2f7f13	-0.042845797
97	0x3df0c683	0.11756613
98	0xbd6ba9ab	-0.057534855
99	0xbe848a5c	-0.2588681
100	0xbe2f20c9	-0.1710235
101	0x3e71d141	0.2361498
102	0x3c51c72b	0.012803833
103	0x3e995dd2	0.29954392
104	0x3cbc12b5	0.022958139
105	0x3da74db4	0.081691176
106	0xbd64b4dc	-0.055836543
107	0x3e45ea5b	0.19327681
108	0xbc00450a	-0.00782896
109	0xbe6d325d	-0.23163743
110	0x3dec7918	0.11546534
111	0x3d9e0132	0.07715072
112	0xbd757ff9	-0.059936497
113	0xbe01b468	-0.12666476
114	0x3e58b236	0.21161732
115	0x3d39a272	0.045320936
116	0x3e075c65	0.1321884
117	0xbe0ed4af	-0.1394832
118	0xbd7cb608	-0.061697036
119	0xbe4e0e4d	-0.20122643
120	0x3e4a7bab	0.19773738
121	0xbe41394d	-0.18869515
122	0xbe640e64	-0.22271115
123	0xbefa9be3	-0.48947057
124	0xbc0506e7	-0.008119321
125	0x3e8b27d3	0.2717882
126	0x3e0678c3	0.13132004
127	0x3de4bad8	0.1116845
128	0xbe83f25a	-0.25770837
129	0x3debe703	0.11518671
130	0xbe8643b8	-0.2622354
131	0x3dba4387	0.09094911
132	0x3e69912b	0.22809283
133	0xbeb0b81f	-0.34515473
134	0x3e841ff0	0.25805616
135	0x3e9f8ba7	0.31161234
136	0xbe9beace	-0.3045258
137	0x3d874376	0.06604664
138	0xbe4900c8	-0.19629204
139	0x3e2e0b0a	0.16996399
140	0xbe2656bb	-0.16244023
141	0x3e5eb39f	0.21748208
142	0x3e439ada	0.1910204
143	0xbd1e76a2	-0.038687356
144	0xbdba6152	-0.091005936
145	0x3e80aec5	0.2513334
146	0xbdcae93b	-0.099077664
147	0x3e8acb88	0.27108407
148	0xbeb6c842	-0.3569966
149	0x3db7882a	0.08961518
150	0x3e6fdd0b	0.23424165
151	0xbe3c13d2	-0.18366936
152	0xbe29c746	-0.16579923
153	0xbd9f9881	-0.0779276
154	0x3d2ad92c	0.041711017
155	0x3e17e186	0.14832124
156	0x3d5d1dbb	0.05398343
157	0x3d897e0a	0.06713493
158	0xbe5dc858	-0.21658456
159	0xbe27ad48	-0.16374695
160	0x3e6ccd99	0.23125304
161	0x3e4ac758	0.19802606
162	0x3dac233a	0.084051564
163	0x3e5c7300	0.21528244
164	0x3ea5887c	0.32330692
165	0x3cebd784	0.02878929
166	0xbe5e3e45	-0.21703441
167	0x3e5a407e	0.21313664
168	0x3e8fa047	0.2805197
169	0x3e53101b	0.20611612
170	0x3e04828e	0.12940428
171	0xbe22cff8	-0.15899646
172	0x3e08b122	0.13348821
173	0x3c4a56aa	0.012349764
174	0xbcaec025	-0.021331856
175	0xbd3c850f	-0.046025332
176	0xbdd53a9b	-0.10411569
177	0x3eb9f4ee	0.3631968
178	0x3dc29ae4	0.09502199
179	0xbc65d615	-0.014028092
180	0xbc161ae2	-0.009161683
181	0x3d788d93	0.06068189
182	0xbd80ac95	-0.062829174
183	0xbdcd8729	-0.100355454
184	0x3e568b15	0.20951493
185	0xbe6b7636	-0.22994313
186	0xbe6482a5	-0.22315462
187	0x3e5202f1	0.20508935
188	0x3e0900b4	0.13379174
189	0x3e78345d	0.24238725
190	0xbe5eba96	-0.21750864
191	0x3e2a66ee	0.16640827
192	0xbdeef514	-0.11667839
193	0x3d581a2d	0.05275934
194	0x3e798da1	0.24370433
195	0xbe9d3e21	-0.30711463
196	0xbe8a2e67	-0.26988527
197	0x3e445a6c	0.19175118
198	0x3d73c378	0.059512585
199	0xbca8ea20	-0.020619452
200	0xbca1a642	-0.019732598
201	0xbecf1f14	-0.40453398
202	0xbe5a000b	-0.21289079
203	0x3e1e2bf2	0.15446451
204	0xbdc8086e	-0.09767233
205	0xbe6a3f7a	-0.22875777
206	0x3ecc1071	0.39856294
207	0xbe009dcf	-0.12560199
208	0xbdff0539	-0.12452168
209	0xbe519ea7	-0.20470677
210	0xbde5388f	-0.11192428
211	0x3ed73961	0.42035964
212	0x3e409674	0.18807393
213	0xbe28e0bc	-0.1649198
214	0xbde11715	-0.10990731
215	0x3e7a2e05	0.24431618
216	0xbeafb2a5	-0.34315982
217	0xbe30bd12	-0.17259625
218	0xbd52c283	-0.051455032
219	0x3de44156	0.11145274
220	0x3d2a176f	0.041526254
221	0x3e7acc70	0.24492049
222	0xbe1f3511	-0.15547587
223	0x3c9834a4	0.018579789
224	0x3eb5b75d	0.35491458
225	0x3e79ab6d	0.243818
226	0xbd78e4e2	-0.060765155
227	0x3d5b3503	0.053517353
228	0xbe8417aa	-0.25799304
229	0x3e3c003f	0.18359469
230	0xbe0cd37a	-0.13752547
231	0xbd88740e	-0.06662761
232	0x3ec97299	0.39345244
233	0x3eb767ea	0.35821468
234	0xbe02df82	-0.12780574
235	0x3c739e40	0.014869273
236	0xbd3d4095	-0.04620417
237	0xbd3f5136	-0.04670831
238	0x3cecc7c8	0.028903857
239	0x3d87f01d	0.06637595
240	0x3e8a6082	0.27026755
241	0xbea01e3e	-0.31273073
242	0x3e7aacb5	0.24479945
243	0xbdcda435	-0.10041086
244	0x3e94a1b2	0.29029614
245	0xbe1d8f88	-0.15386784
246	0xbe96cf69	-0.29455116
247	0x3cfbe0bd	0.030746812
248	0xbe149557	-0.14510094
249	0xbd517530	-0.05113715
250	0xbdc38442	-0.095467106
251	0xbd21403c	-0.0393679
252	0xbea026ed	-0.31279698
253	0x3eda0d74	0.4258839
254	0x3daf4c3a	0.08559461
255	0x3e8d08d8	0.2754581

bias_ih_l0 f4 [40]
0	0x3e4bb059	0.1989149
1	0x3e980c97	0.29697105
2	0xbe7aa4f5	-0.24476989
3	0x3ec20e38	0.37901473
4	0x3e97a692	0.2961927
5	0xbe2b0da2	-0.1670442
6	0xbb2840f4	-0.002567348
7	0x3eaa2f0b	0.33239016
8	0x3ea55d82	0.32297903
9	0x3d25bb89	0.04046205
10	0xbe6b8c74	-0.23002797
11	0xbd4b1923	-0.04958452
12	0xbe77a54b	-0.24184148
13	0xbc4b50e0	-0.012409419
14	0xbdf1eb4d	-0.11812458
15	0x3e0db154	0.13837177
16	0x3e3b276f	0.18276761
17	0x3c9a8dde	0.018866476
18	0x3e815034	0.25256503
19	0x3ea10fc5	0.31457344
20	0x3d91cf87	0.07119661
21	0x3e3c48da	0.18387166
22	0xbe84d2a8	-0.25941968
23	0x3e9f94fb	0.3116835
24	0x3dd01bc4	0.10161546
25	0x3e72af07	0.2369958
26	0xbe1ad56c	-0.15120476
27	0x3e33e441	0.1756754
28	0xbe20aecd	-0.15691681
29	0xbdcb06cc	-0.09913406
30	0x3d924557	0.07142132
31	0xbe371057	-0.17877327
32	0x3d38aad5	0.045084793
33	0x3e34acdb	0.17644064
34	0x3dc39c1e	0.09551261
35	0x3ea52274	0.32252848
36	0x3f024e09	0.5090032
37	0x3e67f244	0.22651011
38	0xbe7ec16f	-0.24878477
39	0x3d984d7f	0.07436656

bias_hh_l0 f4 [40]
0	0x3e0692c3	0.13141923
1	0xbe581cd0	-0.21104741
2	0xbe47ca7a	-0.19510832
3	0xbd2c3e29	-0.042051468
4	0xbe6bac2e	-0.230149
5	0x3ea06032	0.3132339
6	0x3e5820c1	0.21106245
7	0xbe0853a2	-0.13313153
8	0x3ea55bea	0.32296687
9	0xbe28892c	-0.16458577
10	0x3e8e7651	0.27824643
11	0x3ed9b738	0.42522597
12	0xbc944bd0	-0.018102556
13	0xbcbacbff	-0.022802351
14	0x3e89a016	0.26879948
15	0x3c17cdb8	0.009265356
16	0xbd5b6ce8	-0.053570658
17	0x3e8344db	0.2563847
18	0xbce574f3	-0.028009867
19	0x3ebdd505	0.37076584
20	0x3d2c779b	0.042106252
21	0x3e4df548	0.20113099
22	0x3e72ed5e	0.23723361
23	0x3ddfb3e9	0.10922987
24	0x3e729328	0.23688948
25	0xbe213888	-0.15744221
26	0x3e0f1e27	0.13976346
27	0x3e966722	0.2937556
28	0xbe854898	-0.26031947
29	0x3e91e79f	0.28497025
30	0x3de15686	0.11002831
31	0x3e404312	0.18775585
32	0xbde0fd7d	-0.10985849
33	0xbca72b99	-0.020406531
34	0x3e129422	0.1431432
35	0xbe6bd401	-0.23030092
36	0x3ee585fa	0.44828779
37	0xbdf6360b	-0.12022027
38	0x3e392f45	0.18084438
39	0xbe00e04f	-0.12585567
