LSTM/code/model/old_model/model_mk6_350epoch_0.1726trainloss_0.2303validloss.pt (torch, 46404 bytes, 32 tensors)

weight_ih_l0 f4 [40, 22]
00000000: 20af f63d e376 92b9 20d6 88be 2468 713e
00000010: bc67 0dbd e792 573e dc22 3abd 6c94 d4bd
00000020: 13b2 19be 4219 013e b50a 423d d999 993e
00000030: 6941 8fbe e4c0 04bb 447b c13d dcad 2ebe
00000040: 8cdf a7bd ba4f 29be 1eb2 483e 428a 973e
00000050: bbe5 ce3d 2475 e1bd dff2 053e b781 863c
00000060: 117d 933c 6ae7 00be 06f7 15be bf37 8d3e
00000070: ba31 573e 2629 393e 1f85 18bd e7c2 793e
00000080: aee7 8e3e ed5e aa3e f3b7 3ebe 309e 353e
00000090: d4d0 293e 6871 843d 9632 ec3d 4699 813e
000000a0: e71d 043e 9940 213d 365d 443e d2f4 13be
000000b0: 248f 8a3e 2c16 ea3d a4b6 333d c642 4fbe
000000c0: ee62 7a3e 0f7f a43e aebe aa3c bf8d 85be
000000d0: 3bd9 933e 5250 15be d070 babe 5cad 84be
000000e0: 62db 183e 1443 59be 7432 3c3e accb a73e
000000f0: 9082 43be 4a28 503e 43b3 81be 667a 7ebe
00000100: 73e9 013e 9b17 3b3e 7996 cd3d 8dc4 b2be
00000110: 0413 d7bd d2c7 313e b928 763e 0866 2bbe
00000120: 3d13 32bd 53cc 963c 90a3 c23d e7a6 803e
00000130: 6a3e 73be 1685 5b3d 1827 8dbe 193a abbd
00000140: 82c2 f13d edf5 6dbe 8752 6a3e 2803 a5be
00000150: e572 18be e285 b03e bda6 50bd e4a2 8cbd
00000160: f964 f7bd 1fb8 9e3e a25c babc 4d86 04bd
00000170: 98bd 633e 1c11 27be e58f a0b9 1116 973d
00000180: 1ad4 a8be 6b93 303d 3bb0 4e3e 74df 4ebe
00000190: d661 153e c420 003e 6acb 52be 64b2 8a3e
000001a0: 7af6 923c 4113 5abb 9a9e 4ebe 970e 03be
000001b0: a9d3 83be 07cb ff3d 6e4b 0e3e c880 723e
000001c0: 68b7 933d a9af 643e e55e d43d 8eb8 183e
000001d0: 4019 8bbe 996e 40bd d5b5 06be f4e4 2ebe
000001e0: 1737 3d3d a6a2 ab3e 1145 34be 9d89 29be
000001f0: 73d9 1f3e 42b9 1f3e fe66 fa3d 7f4a 413d
00000200: 45a8 26be 704d 823e 5d91 923e 6667 303e
00000210: 7fbb 493e 85a3 54be 7e41 9abd 9cf8 0b3d
00000220: 4b69 19bd 4d48 d9bd 8499 7c3e 0af6 d93d
00000230: 026c 83bd 84df 8b3e 17bd 333d 40d2 ef3d
00000240: 414d 463d e5aa 853b 5176 c2bd ecbf 803e
00000250: 1cc3 08bd 1906 45bd 8eee 473e 3845 25be
00000260: 5df9 22bd a060 003e 30a2 18be 8a94 bcbd
00000270: dd75 03be 9297 1cbd 936a acbe c049 94be
00000280: b704 8f3e f3b9 263e 838c 143e 050b e93d
00000290: 6f6a f23d c74d 80be b1f4 463e 8b12 9abe
000002a0: 3423 523e 8479 a0bd f7fb 16be dfc8 693e
000002b0: bd87 62be 9cf4 513e fafa 67bd 92e1 8abd
000002c0: 70b0 87be 3bf1 96be b79b 9dbd 148e b5bd
000002d0: 3f64 71be 7d51 353e 78d3 a0be 7945 4c3d
000002e0: 38fa 8abd 51d6 57be 0e5f adbe 29de 0cbe
000002f0: 19f9 983e 46d1 81be 3ed3 a0be a7b1 b5bd
00000300: 2d34 27be 9f9c 34be 0653 c43d 57e4 b43d
00000310: 3d20 a6bc b26b 6e3e ca1a 773e 9ff3 963d
00000320: 5c7f 1cbe b4e7 c63e 44bf 31be f25a fe3d
00000330: 685b d43c be06 8fbd 1b2b 29be 6d16 b0be
00000340: d3d8 1d3d f624 623e e27a c2bd 5737 443e
00000350: b347 823c 66f7 ba3e 2b25 6a3d 2bf9 1e3e
00000360: a367 c6be bf80 c63e a548 93bd 0b0e ca3e
00000370: f626 753e a90d 043d c51f 4abd 090f 3a3d
00000380: fecb 4b3e 09e9 5bbd b480 4dbe f987 3abe
00000390: da98 e9bd b4f1 a73d 7a41 3e3e 466c 9fbd
000003a0: 174e 953e d4ed 94be 90fe 483e 5aca 3abe
000003b0: cf2e f9bc 1228 a1be 2cfd 4abe f579 c63e
000003c0: ca96 2d3e 09c1 603e c8e7 32be 31c9 8bbe
000003d0: 9a1b 51bc a167 d03e a30c 723d 2f7d 35be
000003e0: 166a 00be 9338 f8bd d271 403e 9f27 b23d
000003f0: 3eb9 a6be b280 29be 2889 3e3e 4d88 0e3d
0.12045121 -0.00027935868 -0.26725864 0.23574883 -0.034522757 0.21052133 -0.0454434 -0.10379872
-0.15009336 0.12607291 0.047373492 0.3000019 -0.2797959 -0.0020256573 0.09447339 -0.1705851
-0.08196935 -0.1653432 0.19599196 0.2959767 0.10102411 -0.11008671 0.13080929 0.016419275
0.018003972 -0.12588277 -0.14645013 0.27581593 0.21015063 0.18082103 -0.03723633 0.24390756
0.27911133 0.33275548 -0.18624859 0.17736125 0.16583568 0.06466943 0.11533086 0.2531225
0.12902032 0.039368246 0.19176182 -0.1444886 0.27062333 0.1143001 0.04387535 -0.20240316
0.24451801 0.32128188 0.020842876 -0.26084706 0.2887667 -0.14581421 -0.36414194 -0.25913513
0.14927438 -0.21216995 0.18378621 0.32772577 -0.19092774 0.20327869 -0.25332078 -0.24851379
0.1268671 0.18270724 0.10038466 -0.3491558 -0.10501674 0.17361382 0.24038972 -0.1673814
-0.04347538 0.018407976 0.09503853 0.25127336 -0.23754278 0.053593718 -0.2756889 -0.083606906
0.118046775 -0.23238344 0.22883044 -0.3222897 -0.14887579 0.34477144 -0.050940264 -0.068670064
-0.12079806 0.30999848 -0.022749249 -0.03235464 0.22240293 -0.1631512 -0.00030624788 0.07377256
-0.3297432 0.04310934 0.20184414 -0.20202428 0.14588103 0.12512499 -0.20585409 0.27089226
0.017939795 -0.0033275636 -0.20177689 -0.12798534 -0.2574742 0.12489896 0.13895962 0.23681939
0.07212716 0.22332634 0.10369662 0.14914152 -0.27167702 -0.046980474 -0.13155301 -0.17079526
0.046195116 0.33522528 -0.17604472 -0.16556402 0.15610294 0.15598014 0.122266755 0.047190186
-0.16275127 0.25449705 0.28626528 0.17226943 0.1970043 -0.20765503 -0.07532023 0.03417264
-0.03745393 -0.106094934 0.24667937 0.10642631 -0.06417085 0.27318966 0.043881502 0.11710024
0.04841352 0.00407921 -0.09495223 0.25146425 -0.033389196 -0.04810152 0.19524595 -0.16139686
-0.039788593 0.1253686 -0.1490562 -0.09208019 -0.1283793 -0.038230486 -0.3367506 -0.28962517
0.27933285 0.16281871 0.14506726 0.11379055 0.11836707 -0.2505934 0.1942928 -0.30092272
0.20521241 -0.07835677 -0.14744554 0.22830532 -0.22122093 0.20503467 -0.056635834 -0.067813054
-0.265018 -0.2948092 -0.07695716 -0.0886499 -0.23573397 0.17706867 -0.31411338 0.04987094
-0.06786007 -0.21077849 -0.33861583 -0.13756622 0.29877546 -0.25354975 -0.31411165 -0.08871775
-0.16328497 -0.17637871 0.09586148 0.08832615 -0.020279044 0.2328327 0.24131313 0.07370686
-0.15282959 0.3884865 -0.17358118 0.1241969 0.025922492 -0.06983708 -0.1652035 -0.3439211
0.038536858 0.22084412 -0.09496094 0.19161735 0.01590333 0.36516875 0.057164352 0.15524738
-0.38750944 0.387701 -0.0719159 0.3946384 0.23940644 0.03223959 -0.049346704 0.045424495
0.19902036 -0.053689037 -0.20068628 -0.18215932 -0.11406107 0.08200398 0.18579665 -0.077843234
0.2916114 -0.29087698 0.19628358 -0.18241253 -0.030417828 -0.31475884 -0.1982314 0.3876492
0.16952053 0.21948637 -0.1747123 -0.27301934 -0.012762928 0.40704063 0.059094083 -0.17723535
-0.12540469 -0.12120166 0.18793419 0.086989634 -0.32563204 -0.16553 0.18607008 0.034797955

weight_hh_l0 f4 [40, 10]
00000000: 1e58 b03d dbf8 ac3e 0456 6fbe 24cb 13be
00000010: bbdc 4c3c 654f 7bbd 4270 4e3e da2b 4f3e
00000020: 4e21 b9bd 4d8a 82be f1f5 443b 6c27 66bd
00000030: 8d59 48be 7c29 083e 5e91 52be 6193 ea3d
00000040: 8188 bbbe b159 bebe ca0c 25be 11cd f33d
00000050: 65de b9bc 6c6d 51be 34dc 363e d549 cdbd
00000060: 2490 9c3e 5d74 61be a2d8 a7bc f178 64be
00000070: 67cb b33d ec59 31bd 9a71 81be 0c8f 2b3e
00000080: 5747 853e 09c3 dabd aede 19be 5cf7 393e
00000090: c814 9dbe 7c71 2c3e ddd5 303e 97fe 41be
000000a0: 55e7 6abe d88a 85bd b9e3 803e 66cf 8fbe
000000b0: ddbf 9d3e 5114 173d e6ba 6dbe 8d73 3dbe
000000c0: 3318 f8bd 3c5a a9bd 3db5 653e 0398 903e
000000d0: 0ade 423e 16bb 6b3e aa85 b83e 3e8c 1cbd
000000e0: 0dab 8a3d 91c3 473e 135d a43d a055 70be
000000f0: a71d ae3e 4de3 153e f593 b43d 5320 813e
00000100: 4a8d adbc 85aa 333e 045b 42be 31fb 86bd
00000110: 0168 80be 78b9 323e 6e58 2dbe 9af9 46be
00000120: 2066 8abd caea 32be da65 0ebe e963 d73d
00000130: 8121 a73d be71 093e 54f7 4d3e 995f b43d
00000140: 40dd 033e c5fb 513e f469 983e c3cf c23d
00000150: 23bd 16be c6b1 6e3d a84e 87bd 4595 9fbe
00000160: 0d6b 9b3d fed9 9bbe fb59 f9bd d7be 153c
00000170: eeb3 5f3e 52b4 1f3e eec4 973d 7736 52be
00000180: 1dc2 f8bc 09c0 2dbe e977 aa3c b911 babe
00000190: e686 983e 767e bfbd fc31 d03e c66d 6a3d
000001a0: 9011 143e 78e5 bf3e 7211 cebd 3e4e 853d
000001b0: b9bb 91bc 913e d93c 7bdb 933d 4ea1 db3e
000001c0: c62c 203e a114 053c 8388 8a3e 8b29 f0bd
000001d0: 33e5 b6bd 514d 5abe 362c cfbe 3173 cdbc
000001e0: 3343 5b3e 8e96 f43d 40d9 b43e 25e8 043e
000001f0: a548 3a3e b21f b23e e5ca fdbd b754 4bbe
00000200: 594a bcbe eff8 16be 062f 573e b83b ce3e
00000210: d3c8 953e 9db4 abbe 3ee9 ab3d 5d1c f6bd
00000220: 513e ff3d 9cc1 f7bd 81d3 ddbe 7228 c8bd
00000230: bf3d bd3d 3000 86be f25c d4bd 389f 273e
00000240: 04c0 963d 0342 13bc 3fa7 853e d6a9 843e
00000250: 0c20 8a3a 2942 20be 2316 79bd 2bbc 4d3e
00000260: 180c 483e 8e2d abba 0f05 9b3e e2da 7fbc
00000270: dc14 b2be 2319 99bd b28b 0fbd 1e7e cebe
00000280: 163f 583d e991 1f3e 35fa 55bd 5a65 cf3d
00000290: cc19 fabd 16d5 b33e 5679 edbd c685 52bd
000002a0: f80f bf3d f46e c23b c629 413e fefd 35be
000002b0: eb8f 073e ec65 2bbd 03f6 bf3e aac7 dc3d
000002c0: 56a8 863e 56c2 e2bc d20e d2bd 9895 a2be
000002d0: afbc fd3c d224 933b bc10 d93e a3ff 52be
000002e0: ccce 953e 7be7 fe3d a7b7 00be c79f df3b
000002f0: 16df afbe 2306 173e 9d6d 3a3e cc49 963e
00000300: 9750 013e be0e 20be 9c18 5cbe 9ffd f2b8
00000310: 37f0 a0bd 23f0 b9bc 5be9 f93d 1781 85bd
00000320: a2a6 29be d1e7 6b3e 2f00 303e fc3b d3bd
00000330: 108c 29be 5796 d5bc 51ff a03d 78ea 8a3c
00000340: ea53 adbb a0d8 143d 5c35 90be 557c ddbd
00000350: 4186 cf3e 5004 73bc e530 423e 7427 14be
00000360: 655b 6bbd f8b3 38be a263 8f3d 4222 cebe
00000370: b5f6 b2bd 7ab3 d3bd 9451 b83e 582c eb3b
00000380: 0c27 f93d b122 be3e 673e bfbd 2bad 49be
00000390: ed43 123e 4cf0 0a3d e53d 5ebe 37ab 53bc
000003a0: bffb 0bbe c7ba b23d 7ae9 90bc 47b4 5c3e
000003b0: 57a5 a43d 4f6b 84be cb62 e73d 0e49 efbb
000003c0: 3e7a 91be 718b 96bd 2b43 ba3e 8d48 f03d
000003d0: fab4 4abe 01d8 adbd 4d0e 5fbd 250e fdbd
000003e0: 3820 d63d 3c52 8bbe 72e9 f53c 12f6 07be
000003f0: 46c5 a13e 639a a2be 5602 173d c18d 7f3e
0.08610557 0.33783612 -0.23372656 -0.14432961 0.012503798 -0.061355013 0.2016001 0.20231572
-0.090395555 -0.2549614 0.003005382 -0.05618994 -0.19565411 0.13297075 -0.20563266 0.114538915
-0.36627582 -0.37177804 -0.1611816 0.11904348 -0.022689054 -0.20451897 0.17857438 -0.10023848
0.3057872 -0.22017045 -0.02048904 -0.2231176 0.0877903 -0.043298647 -0.25281984 0.16753787
0.2603099 -0.10681731 -0.15026352 0.18160766 -0.30679917 0.16840166 0.17269082 -0.18944775
-0.22939809 -0.06520623 0.2517374 -0.2808792 0.30810443 0.03688461 -0.23215827 -0.1850111
-0.12113991 -0.08269164 0.22432418 0.28240976 0.19030014 0.23020586 0.36039478 -0.038219683
0.067709066 0.19508196 0.08025565 -0.23470163 0.34006998 0.1463749 0.08817283 0.25219974
-0.021185536 0.17545517 -0.18980032 -0.0659088 -0.2507935 0.17453563 -0.16928264 -0.19431153
-0.0675776 -0.17472377 -0.13906041 0.10517103 0.08160687 0.13422295 0.2011388 0.08807296
0.12877369 0.20506199 0.29768336 0.09512284 -0.14720587 0.058275007 -0.06606799 -0.3116857
0.07588778 -0.30439752 -0.121753655 0.009139738 0.21845981 0.1559613 0.07410608 -0.20528589
-0.030365998 -0.16967787 0.02080913 -0.36341646 0.2979042 -0.093502924 0.40663135 0.057233594
0.14459825 0.37479758 -0.10061921 0.06509064 -0.017789708 0.026519092 0.07219597 0.42896503
0.1564208 0.008122594 0.27057275 -0.11726674 -0.08930435 -0.21318556 -0.40463418 -0.025079342
0.21412353 0.119427785 0.35322 0.12979181 0.18191774 0.34789807 -0.12392215 -0.19856535
-0.36775473 -0.14743398 0.21014032 0.40279937 0.2925478 -0.33536234 0.08394097 -0.120171286
0.12463058 -0.12097475 -0.43325427 -0.09773339 0.09240293 -0.26172018 -0.103692904 0.16369331
0.07360843 -0.008987906 0.2610416 0.25910825 0.0010538115 -0.15650238 -0.060812127 0.20091312
0.19535863 -0.0013059841 0.30277297 -0.015616151 -0.3478154 -0.074754976 -0.035045333 -0.40330595
0.05279454 0.15583004 -0.05224057 0.10126753 -0.122119516 0.3512351 -0.115954086 -0.051397108
0.09329218 0.005933637 0.18863592 -0.17772672 0.13238494 -0.041845247 0.3749238 0.107802704
0.26300305 -0.027680557 -0.10256733 -0.31754756 0.03097376 0.0044904733 0.4239558 -0.2060533
0.29259336 0.12446495 -0.12570058 0.006824467 -0.3434989 0.14748435 0.18205877 0.29353178
0.12628399 -0.15630624 -0.21493763 -0.000115867 -0.07858317 -0.022697514 0.12202712 -0.065187626
-0.16567472 0.2303765 0.1718757 -0.103141755 -0.16557336 -0.026072664 0.07861198 0.016957507
-0.0052895444 0.036339402 -0.2816571 -0.1081473 0.40532115 -0.014832571 0.18963964 -0.14468175
-0.057460207 -0.18037403 0.07001425 -0.40260512 -0.08738462 -0.10336967 0.3599974 0.007176917
0.12165651 0.37135842 -0.09338074 -0.19694965 0.14283724 0.03392057 -0.21703298 -0.012919239
-0.13670252 0.08727031 -0.017689455 0.21553145 0.080393486 -0.2586312 0.1129814 -0.00730241
-0.28413576 -0.07350815 0.3637937 0.11732588 -0.197956 -0.08488465 -0.054456998 -0.123562135
0.10455364 -0.27211177 0.030018542 -0.13277462 0.3159582 -0.31758413 0.036867462 0.24956419

bias_ih_l0 f4 [40]
00000000: 3774 52bd 6496 a03e e0ed df3d 0222 ccbc
00000010: b28b 463d caf8 33be c8be 263e a869 80be
00000020: fd79 b13d 0fbf 943e 8f3e 703e 8dd0 9bbd
00000030: af0a 023e 7ba7 a73d 658a ac3e 5f19 b63d
00000040: d90c aabc c4bc 8dbe 8133 1bbe 488f cdbc
00000050: ec36 2e3e 34ba ac3e 2191 aebd dd18 4cbe
00000060: 38d4 11bd c17f 223e 282a 3ebe 1df0 14be
00000070: 5502 a7be ae41 93be 06ef 37be 50a7 2abd
00000080: ab24 8d3e 0782 b3bd 11f5 babd efdf 76be
00000090: 02a3 373b 7277 193e 4377 d3bd eb97 b03e
-0.051380362 0.3136474 0.10934043 -0.02491856 0.048473068 -0.17575374 0.16283715 -0.2508061
0.086658455 0.29052016 0.23461364 -0.07608137 0.12699388 0.08186241 0.33699337 0.08891558
-0.02075808 -0.2768308 -0.15156366 -0.025092736 0.17013139 0.33735812 -0.08523775 -0.1993136
-0.03560278 0.15869047 -0.18570769 -0.14544721 -0.32618967 -0.28761047 -0.17962274 -0.041663468
0.27567038 -0.08765035 -0.09128774 -0.24108861 0.0028020744 0.14986971 -0.10325482 0.34490904

bias_hh_l0 f4 [40]
00000000: e38b fabc 7c2a 0b3e 5f15 60be 2f3e 993d
00000010: 3557 f23d 88ad 9f3e 967f 4abe e4f1 9f3e
00000020: cccd efbd 5ac0 04be e86b 69bd 7147 7f3b
00000030: ad2b a93e bc17 27be a86d b13c 1136 58bd
00000040: 0c57 153d ff67 0e3e dc0e 743e 911a 803e
00000050: 2488 b43e ae48 6fbd 6793 863e 877b 893d
00000060: 18a2 8c3a 1144 a93e a0e9 b7be 52b8 573e
00000070: 8447 a9be 89b2 193e 4c22 b83e a13c 34bd
00000080: aab1 a5bc 4d4b c53e b2fa b33e feee 583e
00000090: 1daa 7f3e a1f3 5ebe a829 3ebd 49d8 e93d
-0.030584281 0.13590425 -0.21883152 0.07482564 0.1183304 0.3118708 -0.19775233 0.31239235
-0.117091745 -0.12964001 -0.056987673 0.0038952495 0.33041134 -0.16317648 0.021658733 -0.052785937
0.036459967 0.13906859 0.23833793 0.2502027 0.35260117 -0.058418922 0.26284334 0.06713014
0.001072946 0.33059743 -0.3592043 0.21066406 -0.33062375 0.15009512 0.35963666 -0.044003133
-0.020226318 0.38534012 0.35152203 0.21184918 0.24967237 -0.21772625 -0.046426445 0.11418206

weight_ih_l0 f4 [40, 22]
00000000: 9c91 863e 128e 983e bf4b 73be 8a7c 1bbe
00000010: 3fb4 923e 4bc0 01be 85e2 08be 5ad3 753e
00000020: 84c8 663e 9ced 823e f8cf 8abe 41af ad3e
00000030: 58f6 44be a7cb 9f3e d16f e6bc 173b 12be
00000040: 8757 2fbe 9371 40be 0654 763e dbe8 a43e
00000050: 668f 863e 1928 963e c3bb 05be d411 d53d
00000060: 6f23 82bd 040a 42bd 36cd 25be eb7e 133d
00000070: 1ca5 60be a62a 4b3d 5c1f 2fbe 504c 4e3e
00000080: 1fd1 e23d d3df 963e 18f0 7ebe b527 6f3e
00000090: f482 0a3e a73a 3ebe f00e 193e 9db3 983e
000000a0: 6d9a a0be b845 163c b68a 6e3e 2dbc 9bbd
000000b0: 34d1 4fbe 481a 22be ed03 c3bd 67f9 8a3e
000000c0: ca73 09be a5dd 453e c4aa 953e 78ce 08be
000000d0: 6833 8fbe e0c1 7b3e 34fd 893e b504 87bd
000000e0: 578b 7f3d fc0b 4c3e c485 adbd 0b4c b33e
000000f0: 1f03 c53b 7aeb 58be df69 49be 6878 f3ba
00000100: d45f 893e dd74 773e 46b2 043e 1e41 053e
00000110: 3a69 ba3d 47d5 ba3e d016 81be 3b56 743d
00000120: 188f dc3d 7515 17be 49fd d5bd bfe5 e23c
00000130: 959b 103e 7471 483e 9e3c 1bbe b824 b33e
00000140: f813 a3be 9d88 a33e ef56 9d3e eac3 81be
00000150: 0093 113e bae2 2fbb 0b6a 19be 9bac 883e
00000160: bd90 063e 7f9f a53e dfe2 753e fdb7 693d
00000170: fc05 803e a936 92be 83c9 89be 6bcd 543e
00000180: edfc 88be 12fc 00be 302d 743e 5851 573d
00000190: 47b2 a13e b5ea 7fbe 6d1a a5be 2b7f 223e
000001a0: d650 a03e 1fa3 a23e a1d9 3cbe 70eb 8abe
000001b0: 259a 57be c7bc 35be 56ad 6dbd 597f b8bd
000001c0: 9dbc babd 3567 17be 5433 9bbd 91c7 863d
000001d0: c7cc 0a3e 15a8 70be 3dba 5ebe 3ea1 943e
000001e0: 8ef6 973e d66a 333e 45ae 503e 2643 773e
000001f0: ea25 8c3d c9b4 87be 24fd 38be ba24 643e
00000200: 15a9 5dbb c734 823d 8fb5 da3c 0bc2 e93d
00000210: 54e0 3ebe 6d96 423e a108 343e 5c4e 64be
00000220: 4817 4d3e b675 12be 07f7 693e 5f2f 853e
00000230: a5ba eebd 4e47 38be 5297 143e cdbd 923e
00000240: 97a4 223e 6054 803e 51f4 8bbe b8c1 58be
00000250: 54df 8bbd f11a 64be c7c4 a5ba 1cab bd3e
00000260: ba44 913e 1bdf 913d 59be 803d d8e5 6139
00000270: 3a18 b13e 04dd 3f3e 1772 bc3d 2883 2ebe
00000280: 4a8c 9e3e 7562 ddbd 4801 813e dd2d 69bd
00000290: 065e 50be 4455 1bbe 1489 083e a339 f73d
000002a0: cbd9 ce3d 42e4 293e ac48 6f3e 050a b13c
000002b0: d332 623d 4335 28be 70e2 3dbd 5883 133d
000002c0: 5579 47be 43a2 6bbe ace5 83be 6a7e d3bd
000002d0: b361 76be 979e 963e c714 213d 90e8 f0bd
000002e0: c870 123e de31 47be 3860 213d cadd e13d
000002f0: e83e 8fbe 1fa1 8dbe 9572 b0be ad12 20be
00000300: d55b f8bd be95 a5be 9b73 4abe 16c7 4fbe
00000310: 9984 a43e 6c20 4bbe 9cfb 1dbe 58ce b5bd
00000320: 8410 7fbe 8b62 c2bd 5d5c 5a3e 6c50 23bd
00000330: 1ec4 413e 08c7 b63d f076 2fbd b14e f0bd
00000340: 023d 8f3e ac67 773e 24b6 9f3e a93f 4e3e
00000350: 3b85 14bd 33af 6c3e 459e 493e af19 a6be
00000360: b40d 9dbd e398 95be fa19 793e d491 893e
00000370: 2e6a edbd a168 e8bd fcbb 5cbe aeef 473e
00000380: 9afa 0abe cd4c 8f3e 0680 dcbd 8c51 a63e
00000390: 80af 2b3e f8ad 803e b609 09be 3814 6b3a
000003a0: cd7e 84be 16a7 37be 0f3c b53d f485 db3d
000003b0: ceb1 3b3c 5b88 dd3d fb6f 43bd 551d 253e
000003c0: ca14 953d 6808 49be 2295 e13d a79e 5ebe
000003d0: 7e02 59be b062 d63d 8019 e4bd 1f53 e4bc
000003e0: 3ec5 993d 669a 4b3e b81e 9d3d 07fa 8cbe
000003f0: cd2c 9ebe 4734 8d3e 2038 9f3e ba58 043e
0.26282966 0.2979589 -0.23759364 -0.15184227 0.28653142 -0.1267101 -0.1336766 0.24006405
0.22537428 0.25571907 -0.27111793 0.3392277 -0.19234598 0.31210062 -0.02812949 -0.14280353
-0.17123233 -0.18793325 0.2405549 0.32208905 0.2628128 0.29327467 -0.13059907 0.10403791
-0.06354415 -0.047372833 -0.16191563 0.03600971 -0.21937984 0.04960122 -0.17101806 0.20146298
0.11075043 0.2946764 -0.24896276 0.23354991 0.13526517 -0.18577062 0.14947104 0.29824534
-0.31367818 0.009171896 0.23295102 -0.07604251 -0.20294648 -0.15830338 -0.09522233 0.27143404
-0.13423076 0.19322832 0.29231846 -0.13360012 -0.27968907 0.24585676 0.2695099 -0.06592695
0.062388744 0.19926447 -0.084727794 0.35018954 0.006012335 -0.21183577 -0.19669293 -0.0018575313
0.26830924 0.24165674 0.12958631 0.13013121 0.091021016 0.36490843 -0.25212717 0.05965255
0.107694805 -0.14754279 -0.10448701 0.027697442 0.1412185 0.19574529 -0.15159842 0.34988952
-0.31851172 0.31940165 0.30730388 -0.25344783 0.14216232 -0.002683802 -0.14981858 0.26694188
0.13141151 0.32348248 0.24012326 0.05706023 0.25004566 -0.28557327 -0.26911554 0.20781486
-0.26755467 -0.12596157 0.23845363 0.05256781 0.31581327 -0.24991877 -0.32246724 0.15868823
0.31311673 0.31765077 -0.18442394 -0.2713275 -0.21054895 -0.17747794 -0.058026634 -0.09008665
-0.091180064 -0.14785464 -0.075781494 0.06581033 0.13554679 -0.23501618 -0.21750732 0.29029268
0.29680294 0.17521223 0.20378979 0.24146709 0.06843169 -0.26505116 -0.18065315 0.22279635
-0.0033822705 0.06357723 0.026697902 0.11413964 -0.18640262 0.19002695 0.17581417 -0.22295517
0.20028412 -0.14302716 0.2284814 0.26012704 -0.11656693 -0.1799595 0.14510849 0.28660432
0.15883099 0.25064373 -0.27334836 -0.21167648 -0.06829706 -0.22275902 -0.0012647145 0.3704461
0.28372747 0.07122632 0.06286306 0.00021543296 0.34588796 0.18736655 0.092014484 -0.1704222
0.30966407 -0.10809795 0.2519629 -0.056928504 -0.20348367 -0.15169245 0.13333541 0.1207154
0.101001345 0.1659098 0.23367566 0.021611223 0.05522425 -0.16426568 -0.046358526 0.03601393
-0.19479878 -0.23011117 -0.25761163 -0.10326846 -0.24060707 0.2941787 0.039326455 -0.11763108
0.14300835 -0.19452617 0.039398402 0.11028631 -0.2797768 -0.27661988 -0.3446242 -0.15632124
-0.121268906 -0.32340807 -0.19770662 -0.20290789 0.32132414 -0.19836587 -0.15428013 -0.088772476
-0.24908644 -0.09491452 0.21324296 -0.03987162 0.18922469 0.08924681 -0.042838037 -0.11733759
0.27976233 0.24160641 0.3119365 0.20141472 -0.03625987 0.23113708 0.19689281 -0.3244147
-0.07668629 -0.29218206 0.24326316 0.2686907 -0.11592518 -0.113480814 -0.21556085 0.19525024
-0.1357216 0.27988282 -0.10766606 0.3248409 0.16766167 0.25132728 -0.1338261 0.00089675514
-0.2587799 -0.17934832 0.08849346 0.10718909 0.011455966 0.10817023 -0.047714215 0.1612447
0.07279356 -0.19632113 0.11014773 -0.21740209 -0.21192357 0.10468042 -0.11137676 -0.027871666
0.07508324 0.19883117 0.07671875 -0.27534506 -0.30893555 0.27578947 0.31097507 0.12924471

weight_hh_l0 f4 [40, 10]
00000000: fc2c 52bd 5bf5 1d3e 02c2 a43d df9d 41bd
00000010: 893a 78be 700a 583e 7648 f93c d922 67be
00000020: c40e 43be 4a3e c43d 8894 6f3c edbd 4d3e
00000030: 8a13 873e b94d 0ebe 1273 8bbe e2f7 43bd
00000040: 6b7d c4bd e7aa 7f3c 8eb1 99be a383 b23e
00000050: 8994 993d d877 6fbe b09b b43e b3c8 f43d
00000060: 5093 2abe 0dde 343e 6bcc afbe bc95 0b3d
00000070: 4f60 02bd 35de f3bd ed4c 153b bf88 a2be
00000080: e9b6 ba3d 0deb cfbd 818f c43d ec60 fb3d
00000090: 662a 61be d83a 833e 1f20 a53d 46ec 44be
000000a0: c78b 2c3e 149a 3b3e f53b 6a3e fdbe 2ebc
000000b0: 5695 90be 4f36 b3be a798 3bbe 74c5 953e
000000c0: 2795 c9bd 5ec3 553e 1e4f 883e 70ca a2be
000000d0: d12f 44bd def5 b6be f57d 31bd 9c48 acbd
000000e0: efcf 86be ad17 6139 6a9e 95be 0c60 f4bd
000000f0: ab0f 523e fbd9 2dbd 70de 2dbe d64c c7bd
00000100: 69d5 ddbd 1615 c1be e0b8 073e d985 40be
00000110: bbbb 263e 4900 20be 2da8 4dbd 1c2d 84be
00000120: 3b17 a4bc ed3d 373e 8969 16be 20cc 55be
00000130: 9cbe 3e3e 2a5c e53d aa46 043e 376a 8ebe
00000140: 73ed d93d 4be1 87be 2ba8 47bd 24cf 993b
00000150: e70e aa3c 3446 9cbc 6897 473d d310 b73e
00000160: a0fc 1d3e 89d5 94bb b04d 873e 385d 143e
00000170: 8936 433e abbf aabe ce97 4dbe 275e 9bbe
00000180: 8af9 043e 562a 80be 1e71 993c 3861 a53e
00000190: e566 7ebe 264e 883d c554 84bd 9367 293d
000001a0: 65b7 aebd 4785 0e3e 0ebd 30be 0f4a 58bd
000001b0: 1b07 233d 43f2 393e cec7 c3be af34 4d3e
000001c0: fd72 243d 4465 2d3e 593c 113e 6dcf 5abd
000001d0: 0b20 a6be 3232 3f3e bc34 643e 35d2 003d
000001e0: 9c37 72bd adfc 1d3d 670a 833e 1380 2b3e
000001f0: f909 673e 2c4d 62bd b8c2 b0be 9d09 cf3d
00000200: 2811 3cbc 4779 463e 2673 debe 54ad d8bd
00000210: 3909 3f3d 83a8 133e e410 2a3e dfe4 f1bd
00000220: 1ba7 f23d f539 3dbd 3c53 0a3a 242d 903e
00000230: 751d 78bd 814b ef3d d501 d73c 5598 6fbd
00000240: 1dca e2bd 45cb a7bd cfb6 333e 7bca f43d
00000250: a44b 48be d9ef 0d3e 866c 0f3e 5c02 3ebe
00000260: d9e9 2f3d 38cd 6a3d f8ae 1bbe 2605 953e
00000270: da56 3ebe a8bc d4bd 85f7 e93d bfda c5bd
00000280: 4359 513e 8b7b 50be f812 883e 1f26 c7bd
00000290: ab8a 3c3e aa51 31be 7454 bdbd 8dc7 10be
000002a0: 62fb 803e 6e8a 593e abbf a7bd b490 fd3d
000002b0: 3cf1 693e 6c53 f03d d779 9bbd 1603 19be
000002c0: 4366 753e 3402 8ebd fce6 8fbd 1ae6 21be
000002d0: 4fcf 8abe eddd 043d bf8a a43e 8435 b7be
000002e0: df7d 80bd e6ab a4bc 4f4d 333e f756 993e
000002f0: 993b 563e 5ffc 39be a919 2cbd 1ba0 c13d
00000300: 5bf0 90bd 909c 08bb 5bae aebd e871 333c
00000310: 38b8 723e db15 863e 9c7a 293d a3e1 e1bb
00000320: b33e 033c 9db6 9abc eb2f 3cbe 1ec3 84be
00000330: e84d 47bc 8d8d 85be d65d ac3e acfe 6b3e
00000340: cbcc 4dbe b6fe 163e d06f f6bd e841 57be
00000350: d0c0 3abe 91c4 243d 7540 84bd 5372 37be
00000360: 67c6 e63d a693 533d 5549 833e 914b 56be
00000370: 19c6 763e da19 87be 0434 47be 8a3a 73be
00000380: 17f6 e8bd 52b9 243e d78c 4f3e 9e02 c0bd
00000390: 81eb 90bd df1c 6c3e 1be0 61bd 7451 593e
000003a0: 5aaa 173e 8017 873e a25d 5b3e 8b71 863e
000003b0: 30c9 48bd 0d37 f4bd 47c2 c83d d3af fabd
000003c0: b23b 753e 8584 bd3d 66af 913e 9c03 313e
000003d0: 2c23 843e fd34 843e 40e9 98be da70 a4bd
000003e0: 17d9 663e 1757 7dbe c012 063e 14bc 643d
000003f0: 5c22 8c3a d220 123e bd88 e73d 7970 b43d
-0.05131243 0.15425627 0.080448166 -0.0472697 -0.2424108 0.21097732 0.03043006 -0.22571887
-0.19048601 0.09582193 0.014622815 0.20091982 0.26382095 -0.13896836 -0.2723623 -0.04784382
-0.09594234 0.015604711 -0.30018276 0.34866056 0.07499034 -0.2338556 0.3527503 0.11952343
-0.16657758 0.1766283 -0.34335646 0.034078345 -0.03183013 -0.11907617 0.0022781447 -0.31744954
0.091169186 -0.10152254 0.09597684 0.12274346 -0.2198883 0.25630832 0.08062767 -0.19230756
0.16850196 0.18320495 0.22874434 -0.010665652 -0.28238934 -0.35002372 -0.18319951 0.29252207
-0.09842902 0.20875308 0.26622862 -0.31795073 -0.047897164 -0.35734457 -0.043333013 -0.08412287
-0.26330516 0.00021466492 -0.29222423 -0.11932382 0.2051379 -0.04244421 -0.16979384 -0.09731452
-0.108317204 -0.377114 0.13254118 -0.18801059 0.16282551 -0.15625109 -0.050209213 -0.25815666
-0.020030608 0.17894717 -0.14688696 -0.20878649 0.18627399 0.111992195 0.12917581 -0.2781541
0.10640993 -0.26539072 -0.04874436 0.0046938825 0.02075906 -0.019076444 0.048728377 0.35755023
0.154284 -0.004542057 0.26426458 0.14488685 0.19063772 -0.33349356 -0.2007744 -0.3034527
0.12985817 -0.250323 0.018730696 0.32300735 -0.24843939 0.06655531 -0.06461481 0.04135854
-0.085310735 0.13918029 -0.17259619 -0.052805003 0.0398017 0.18158822 -0.38238376 0.20039628
0.040148724 0.16933161 0.14183177 -0.053420473 -0.32446322 0.18671492 0.22285742 0.03145047
-0.059135064 0.03857105 0.25593874 0.16748075 0.22562398 -0.055249378 -0.3452356 0.101092555
-0.0114787 0.19382201 -0.43447226 -0.10579935 0.046639655 0.14419751 0.16608006 -0.11811232
0.11848279 -0.04619785 0.0005276685 0.2815944 -0.060574967 0.11684323 0.02624599 -0.058494885
-0.11073706 -0.081930675 0.17550205 0.119526826 -0.19560105 0.13861026 0.14006242 -0.18555588
0.042947624 0.057324618 -0.15203464 0.2910549 -0.18587819 -0.10387546 0.11424164 -0.09660863
0.20444207 -0.20359628 0.26576972 -0.09724068 0.18412273 -0.17316309 -0.09244624 -0.14138623
0.2519179 0.21244213 -0.08190855 0.123811156 0.2284593 0.117346615 -0.075915985 -0.14942583
0.23964791 -0.06934014 -0.07026479 -0.15810433 -0.2711129 0.032438207 0.32137105 -0.35783017
-0.06274008 -0.020101499 0.1750996 0.2994916 0.20921172 -0.18162678 -0.04201666 0.09454366
-0.07077094 -0.0020845272 -0.085293494 0.01095245 0.23703086 0.2618855 0.041376695 -0.006893353
0.008010554 -0.018885905 -0.18377654 -0.25930113 -0.01216457 -0.26084557 0.3366534 0.23046368
-0.20097654 0.14745602 -0.12033045 -0.21021235 -0.18237615 0.040226523 -0.06457607 -0.17914705
0.11268311 0.05165448 0.25641885 -0.20927264 0.24099006 -0.2638691 -0.19453436 -0.237528
-0.11375063 0.16086319 0.2026857 -0.09375499 -0.07076169 0.23057888 -0.055145364 0.21222478
0.14811078 0.26385117 0.21422437 0.262585 -0.049019992 -0.119245626 0.098026805 -0.12240567
0.23948553 0.09253792 0.2845413 0.17286533 0.25808084 0.25821677 -0.29865456 -0.08029337
0.2254375 -0.24740253 0.1309309 0.055843428 0.0010691392 0.14270332 0.11305378 0.08810515

bias_ih_l0 f4 [40]
00000000: 4659 3fbe 5fa9 833e a39d 193e 9b08 97bd
00000010: 454e d1bd 080b e3bb 730c 5d3e 074e aebe
00000020: 9ec1 a13e f9bd 583d 49c9 35bd c74f ae3e
00000030: 9f87 26bd 1b88 203e bef8 963e 5212 5fbe
00000040: df72 d2bd 8f83 99bc 1399 373e 7a2b e33d
00000050: 9b22 9dbe befc 323d 98e5 3dba 32eb c0bc
00000060: 085c 143d bcde 9abd f23e dbbc 8d82 b9bd
00000070: c09a 863d 9794 72be 3ff0 3a3e be97 7f3d
00000080: 0fd6 f8bd 6b8b 283e c517 b5bd 0615 f33d
00000090: 32e9 dd3a 7493 543e 41bd 443d 21ad 9ebd
-0.18686399 0.25715157 0.1500154 -0.07374688 -0.10220007 -0.0069288053 0.2158678 -0.34043905
0.3159303 0.052915547 -0.044381414 0.3404524 -0.040656682 0.1567692 0.2948665 -0.21784332
-0.10275816 -0.01873949 0.17929487 0.11092277 -0.30690464 0.043698065 -0.000724399 -0.02354965
0.03622058 -0.075620145 -0.026763413 -0.09058104 0.06572485 -0.23689495 0.18255709 0.062400572
-0.121502034 0.16459434 -0.08842424 0.11869244 0.001693046 0.20759374 0.04803205 -0.077478655

bias_hh_l0 f4 [40]
00000000: c993 8f3e 65fb 43be 7eb6 3dbe 0d94 17be
00000010: 6c59 3f3e 4cc6 493d 476c 97bd cd66 f93d
00000020: 2d0f 083e 9d59 fbbd 0711 bc3e f7b1 5e3d
00000030: 26c9 8f3e e348 debc 6388 c23c 7bc8 21be
00000040: 7f7f d83d fcdf 3a3c 69a4 2b3e 1d12 8e3e
00000050: f1ac 91be fe53 3bbd c7f8 033e 1e8a 45be
00000060: 815c 8e3e 1cc7 cabd 8d89 4cbe 373c 73bb
00000070: 37ff 0d3d 67cd a2be befc 853d 0cf1 7ebd
00000080: 4443 11be 24bd 513e e375 bd3e 68c7 643e
00000090: b52f 493e 2168 813e 2e47 983e 909f 65be
0.2804244 -0.19138868 -0.18526646 -0.1480257 0.18686455 0.049261376 -0.07393699 0.12177811
0.13287039 -0.12272952 0.3673174 0.05436894 0.28083152 -0.027134364 0.023746675 -0.15799133
0.10571193 0.011405941 0.16761936 0.27748194 -0.28452256 -0.045734398 0.1288787 -0.19290969
0.2780495 -0.09901258 -0.19974346 -0.0037114748 0.03466722 -0.31797335 0.06542347 -0.0622416
-0.14185816 0.20482308 0.37004003 0.22341692 0.19647105 0.25274757 0.29741806 -0.2242415

weight_ih_l0 f4 [40, 22]
00000000: cb99 96bc d153 79be 5dd5 1fbc f474 26bd
00000010: 2966 803d 521e 48bd af2e aa3b 13d8 7dbc
00000020: 7c38 75bd bb61 a03e 5b7b c3bd 11f7 a43d
00000030: 150c 82bd 16da 633e 4611 813b 64ed a13e
00000040: 3d33 603d 27fa 4a3e 52d5 c2bd 5610 dd3d
00000050: 1127 c6bd 60c7 4fbe 895b 883e 2ac6 b73e
00000060: 768c 613e bbc2 183c 0bbb 1f3e ce95 413d
00000070: b291 8fbd 709a fd3c 1307 5fbc dc23 7d3e
00000080: 03bd 5fbe 81a8 a03e 6302 133e c362 70be
00000090: 009e 133e 00f5 ec3d 7c2a 2d3e 3ba0 bcbd
000000a0: cf86 82be f04c d73d 2e0f cabd cb87 9dbd
000000b0: d31b 513e 4831 5f3e df8d 863e f5e1 9bbc
000000c0: d9f1 693e 9daa e13d 7ea0 30be 7b5d 81b9
000000d0: 63df 37be 06be 04bc fff1 86be 4263 5dbc
000000e0: 52bf 8dbe d6e0 20be 6012 74bd e510 a23d
000000f0: ff40 15be 0b53 c83d 1630 073e 082d 6ebe
00000100: f02c 053d faf9 de3b ad2c 8c3d caf2 b03d
00000110: 567f 1bbe 920d 933e 3c3c c3bd b78f dfbd
00000120: 5832 57be e4aa 1c3e 801a 443e 23a5 b33d
00000130: 33d3 b9be 0472 ffbc 5a9d 9abe 623e 8c3e
00000140: 3731 203d 52f2 a4bc 457a 14bd 258e 1a3d
00000150: 90ce 9abe 4743 213e e2ad b93e 1a4b a23e
00000160: df93 a3be e85c 7abe 8aed 4a3c 77a9 97bd
00000170: 0613 8bbc 03ad 4d3e 42c5 633e 4ab8 0f3e
00000180: 8ac8 dcbd ce31 32be ec15 033e eb4f 84bd
00000190: 5ea1 003d dfa2 debd bf3e 0c3e 7966 bb3b
000001a0: 8edd 9bbe 9e55 573d e386 0a3d 3861 1a3d
000001b0: 6c44 883d 591b 57be 1af3 d33d 1399 063e
000001c0: 6372 283e e738 be3c d5d2 6bbe cd6c 823d
000001d0: e48e 6fbe 944a 5fbc 38d1 52be f082 373d
000001e0: b230 963d 9f4f 713e efa0 6abd 1dc9 313e
000001f0: fa89 20bd b4ca 50be afbe 58be 8457 8abe
00000200: 4b59 b7bd 0528 123e 4832 efbd e3ff 5a3e
00000210: 5c14 e5bc afa3 9dbe 8cf7 323d 214e 6fbc
00000220: 6e41 9c3d 1d84 313e 4c33 af3d 3341 42be
00000230: 8373 21be da47 ad3c 76aa 863c 99d1 883d
00000240: 549c adbe 0a80 0ebe dc7d 933d 361c b33e
00000250: fc39 f73d 68ba d3bd 6f55 4f3e f3b8 563e
00000260: 3e1e 533e 2d78 39be 5d73 b5bb 05f2 c4ba
00000270: 7447 65be c4bb 08bb 0f53 c63d 8dd4 8a3e
00000280: 73a7 f6bd c27f df3c 641a 4bbe db1a f73d
00000290: 6bcd 80bc 563e 87be 1e16 5bbe 8279 f9bd
000002a0: 8aab 98be 6bfd 3bbe 0629 06be ddc4 213e
000002b0: 5c4f 5fbe 1e1c 4a3d a665 64be f9d3 6e3d
000002c0: 06cd a73d 30c2 8bbe a276 97be 165b 903e
000002d0: f892 88be 0268 5bbe 29bd 85be 3f02 28be
000002e0: 9ab9 a33e 8e24 b4bd 0f03 423e a77f b33e
000002f0: c95c 8dbe cc2b 493e 51a7 233e d30a 933e
00000300: 7b90 563e 1e04 8c3e fdb6 cbbd 0bbb 2d3e
00000310: ce51 963e 5aea 633e 2150 cbbd 95a1 373e
00000320: 18c6 963d a911 94be 9c1d a5be 7da5 43bd
00000330: aff9 203d 6bd2 1c3e 9809 3cbe 585e b03d
00000340: e8c2 033e 981f 33be 19fb 1a3e bb8d aa3b
00000350: 6e33 14bd 5a8b 8c3e 14ce 20bd 3840 233e
00000360: 9faf 86bd 4e41 37be 2eb8 8c3d 7fcc c9bd
00000370: a1d5 673d c13e 233c 1431 98be 1b6f fbbc
00000380: e32a 7dbe de92 a53e 2291 553e 9afe 5e3e
00000390: 27a1 ecbd 9775 893e ece3 8e3e 03fb ad3e
000003a0: 80ae 643e f488 98bd 300f c5bd cb36 e53d
000003b0: 7933 a2be b641 763d edb7 7a3e 9254 923e
000003c0: 975c bb3e a607 403e 173b 603d b132 0c3e
000003d0: 6df7 f4bd 2b66 be3d d5ff 74be fe6d 573c
000003e0: 6e14 94be fa6f bcbd 2414 a43d a4c9 4b3c
000003f0: 65ba 15be d776 fc3d 2489 3b3e a632 4e3e
-0.018383881 -0.2434838 -0.00975546 -0.04063888 0.062694855 -0.04885704 0.0051935534 -0.015493411
-0.05986832 0.31324562 -0.095450126 0.08054937 -0.06349961 0.22251162 0.0039388267 0.31626427
0.054736365 0.19821988 -0.09513344 0.107941315 -0.0967542 -0.202909 0.26632336 0.35893375
0.22026238 0.009323771 0.15598695 0.047262006 -0.07010211 0.03095743 -0.0136125265 0.2472071
-0.21849446 0.31378558 0.14356379 -0.23475175 0.14415741 0.115701675 0.16910738 -0.09210249
-0.25493476 0.105127215 -0.098661765 -0.07691916 0.2042077 0.21796143 0.26280114 -0.019028643
0.22846164 0.1101887 -0.17248723 -0.00024674446 -0.17956309 -0.008101946 -0.26356503 -0.013512434
-0.27685028 -0.15710768 -0.059587836 0.079133786 -0.14575575 0.09781464 0.13201937 -0.23259366
0.03251356 0.006804702 0.06844459 0.08640058 -0.15185294 0.2872129 -0.09532973 -0.10916083
-0.21015298 0.15299565 0.19150734 0.08771732 -0.36293945 -0.031182297 -0.30198175 0.27391344
0.039109435 -0.020135079 -0.036249418 0.037733216 -0.3023572 0.1574832 0.36265475 0.31697923
-0.31948754 -0.24449503 0.012385735 -0.0740537 -0.016976845 0.2008553 0.22243217 0.14035144
-0.10780437 -0.17401811 0.12801331 -0.06460556 0.03140389 -0.10870909 0.1369581 0.005719003
-0.3044247 0.052571885 0.033820044 0.03769037 0.066536754 -0.21006526 0.10349102 0.1314433
0.16449885 0.023220493 -0.23029645 0.06368408 -0.23394352 -0.013628621 -0.20587623 0.044802606
0.07333507 0.2356553 -0.057282384 0.17361875 -0.039194085 -0.20389825 -0.2116649 -0.27019894
-0.08952578 0.14273079 -0.11679512 0.21386676 -0.02796381 -0.30788943 0.04369311 -0.01460603
0.07629667 0.17335553 0.08554706 -0.18970184 -0.1576672 0.021152426 0.016438704 0.066806026
-0.3390833 -0.1391603 0.0720174 0.3498246 0.120716065 -0.103382885 0.20247434 0.2096899
0.20617005 -0.1811225 -0.005537434 -0.0015025741 -0.22390538 -0.002086387 0.09683811 0.27115288
-0.12043657 0.0272826 -0.19834286 0.12065669 -0.01572295 -0.26414746 -0.21395156 -0.12181379
-0.29818374 -0.1835839 -0.13101587 0.15797754 -0.21807617 0.04934322 -0.22304401 0.05830762
0.08193402 -0.2729659 -0.29582697 0.28194493 -0.26674628 -0.21426395 -0.2612088 -0.16407107
0.3197754 -0.08796035 0.1894648 0.35058329 -0.27609852 0.19645613 0.15981795 0.28719196
0.20953552 0.2734689 -0.099470116 0.16965882 0.29359287 0.22257367 -0.09927393 0.17932732
0.07362002 -0.28919724 -0.32249153 -0.047765244 0.039300617 0.15314643 -0.18363035 0.08611745
0.1286732 -0.17492521 0.15134849 0.005204884 -0.03618186 0.27450067 -0.03925903 0.15942466
-0.06576466 -0.17896006 0.06871067 -0.09853458 0.056600217 0.009963692 -0.29724944 -0.030692628
-0.24723391 0.32338613 0.20856145 0.2177681 -0.11554175 0.26847526 0.27908266 0.3398057
0.22332191 -0.07447997 -0.096220374 0.111920916 -0.31679896 0.06012126 0.24484225 0.28580147
0.36594078 0.18752918 0.054743852 0.13691212 -0.11961255 0.09296831 -0.23925717 0.013148783
-0.28921837 -0.09201045 0.08011654 0.012438212 -0.14621885 0.123273544 0.18314034 0.20136508

weight_hh_l0 f4 [40, 10]
00000000: 2898 d43c d5c5 95bd 79d4 99bd 7b6c 523d
00000010: 868c a03d 7795 8bbd f204 a53d dc2e a4bd
00000020: 0a53 a3be bfc6 94be 0116 093d 5012 b7be
00000030: ea69 963e eb1f b0bd e9c9 0fbe 848e 9ebe
00000040: 57f3 6dbe 9b88 a8bc da08 7b3d dd3d 96bd
00000050: 9de9 ec3c f124 773e cda8 06bd e1c1 813e
00000060: 126d b63b be31 0fbe d254 5cbe 35ca 9fbe
00000070: 2b8f 6abe c123 253d 95e1 3cbd 092c 093e
00000080: 6484 733d 8b91 073d ec6e 293e 9158 38be
00000090: d2e0 a13e 4ae3 403e 2ab1 13bd a4a3 1b3c
000000a0: e10d 013e 72a6 97bd faaf 70be 0f3d 403d
000000b0: 02d4 563e 9632 c4be 1029 1c3d ea76 f0bd
000000c0: adab 08be 6767 943d 1f97 babd 18ae 44be
000000d0: 522e f4bb 7e65 253e 7950 903e 2663 16be
000000e0: dab1 773e b552 233e 25c2 c33d d4c1 973e
000000f0: c9ea 913e e89c e4bd d1d0 c1be ec85 cb3e
00000100: 6dd8 d3bd c988 21be 51ad 463e 9ced 46be
00000110: c42b 84be b41e f73d 7a67 273d 61a8 59bd
00000120: bb18 23be 812c fb3d 86e8 863d fa7d aebe
00000130: abbc b1bd dee4 453d 8c72 7c3d 6d9b 0c3e
00000140: 740c 29be 51f0 cfbd 2eb1 1a3e 8c2f c0bd
00000150: 48e1 8abe 8210 653d 58cc bdbd 6abf 32bc
00000160: 6a9b 6bbd b727 98bd ca02 72be 356e 053d
00000170: fd01 9abe 0dae 90be 0fe2 a93e ad20 863e
00000180: c576 5f3e 0f5d 533d e7ca 64be bd32 00bc
00000190: 8f05 dabc ea86 b5be 7f45 92bd dea9 5d3e
000001a0: ec41 e63b 0298 8abc efba fdbd 66d8 09be
000001b0: b98e b3be 5734 4b3d 85ca e4bd 6f89 abbe
000001c0: f0bd 7f3e fb48 26be ed45 7ebe e93e 0bbd
000001d0: cfdd 423e 1067 6d3e 72d4 1cbe 678b 013e
000001e0: 8e6f d23d 893a 153e bc3e 7ebe 2700 433e
000001f0: 7c40 8bbe 7513 343d 17cc b0bd 6b83 9fbe
00000200: e4fe 16be 8262 5e3d 32bf d53d 5d55 263e
00000210: a74a cabd 6d85 663e b80f 88be 0f1a 8abe
00000220: b97f 30be 7271 223e 9586 813d 6eb0 94be
00000230: 2107 9a3e 0646 e13d 6baf dabd 240f 183a
00000240: 3762 9f3d 2190 5e3e edd7 893e 7b03 83be
00000250: 9e1f 803d 205e b2bd c43c 07be e40e 0c3e
00000260: 71f8 943d 804a 943e 3941 35be f210 4abe
00000270: f7d5 223d 27f8 fb3d 90c4 93be d632 16bd
00000280: 4084 543e 597d 333e bb60 a5be 2ab5 653e
00000290: 839d 2f3e 09ef 99bd 1e0c 1f3d 8c78 cbbe
000002a0: 60b8 003e 50bb 013d 1df1 1fbd 6f15 f9bc
000002b0: 560b 01bc c5a4 2c3e eac4 69bd 513d 933b
000002c0: d2a1 5fbe 0ddc ebbd fe80 c2be 0beb 843e
000002d0: 0f06 94bd 66b6 b23d 24f9 b7bd 8e1b 4cbe
000002e0: a344 013e dd5a c03c 5a6e d33d 0227 563e
000002f0: 71a3 01be 4fee ffbd 0263 9ebd 044e 393e
00000300: ec0f e3bc 9db6 433e d8d2 a5bd f1ed 16be
00000310: 5b55 ed39 abec 85be a186 8f3e f94c 6a3c
00000320: b7ac 6cbe 22ac 90be 34da adbe b7f3 a1bc
00000330: ca58 8dbd 2e8a f33d a810 5cbe 9609 1b3e
00000340: 3eec 16be 6854 d838 58c1 9abe 9288 873e
00000350: 2187 e9bb 6293 06be 0849 c8bb a148 78be
00000360: 1ba0 3cbd 0135 1fbe 454f c63e 63ad 4c3e
00000370: d418 c8bd 3820 663e 2a75 54be cf70 9a3d
00000380: 6908 653c d0bc a8bc aa21 823e 6e3f 943e
00000390: df9e 373e af2e b0bd e087 d6bd bd94 083d
000003a0: c650 72bd ad26 d83d 6dfb 333e 7e18 6ebd
000003b0: 59ad aa3e 6849 46be ca25 8ebe a233 593e
000003c0: 99df 1e3e 3eac 27be 7bf3 1cbe 7ea2 0d3e
000003d0: 2a42 673e e25e 47bd e8e8 5a3d 781e 3abb
000003e0: 8b9c 7a3e b665 1b3d c352 d03d c509 8f3e
000003f0: 7c93 543e 7cf7 ed3c 9a6a 47be b3d2 5dbe
0.02595146 -0.07313124 -0.07511229 0.051372986 0.07839303 -0.068156175 0.08057584 -0.0801675
-0.3189929 -0.2905788 0.03346825 -0.3575616 0.2937768 -0.08599838 -0.14041866 -0.30968106
-0.23237358 -0.020572951 0.06128774 -0.07336018 0.02891999 0.24135186 -0.032875825 0.2534323
0.0055672014 -0.13983819 -0.21516731 -0.3120896 -0.22906177 0.0403173 -0.04611357 0.13395704
0.05945243 0.033097785 0.1654622 -0.18002535 0.31616837 0.18836704 -0.03605763 0.009499464
0.1260295 -0.07404794 -0.2350463 0.04693323 0.20979312 -0.38319844 0.038125098 -0.11741431
-0.13346739 0.07246285 -0.09110855 -0.19207036 -0.007451811 0.16151997 0.28186396 -0.1468626
0.24188939 0.15949519 0.095585145 0.29640067 0.2849944 -0.1116274 -0.37854627 0.39750612
-0.10344014 -0.15774836 0.19402052 -0.19426578 -0.2581464 0.12066403 0.040870167 -0.053139094
-0.15927403 0.12264348 0.06587319 -0.34080487 -0.08678564 0.048313968 0.061632678 0.13731165
-0.16508657 -0.101532586 0.15106651 -0.09384069 -0.27125 0.055923946 -0.09267491 -0.0109098945
-0.05752126 -0.0742945 -0.23633876 0.032575805 -0.30079642 -0.2825779 0.33180282 0.26196805
0.2182265 0.05160242 -0.22343026 -0.007824597 -0.026613979 -0.35454494 -0.071421616 0.2164683
0.0070269015 -0.016918186 -0.123891704 -0.13461456 -0.35069826 0.049610462 -0.1117144 -0.3350329
0.24974799 -0.16238777 -0.24831362 -0.033995543 0.19029926 0.23183846 -0.15315416 0.12650834
0.102751836 0.1457311 -0.24828619 0.19043027 -0.27197635 0.04396387 -0.08632677 -0.3115495
-0.1474567 0.054293163 0.10436858 0.16243501 -0.0987752 0.22511835 -0.26574492 -0.26973006
-0.17236222 0.15863588 0.063244976 -0.29040855 0.30083564 0.10999684 -0.106779896 0.0005800596
0.07782405 0.21734668 0.2692255 -0.25588593 0.062560305 -0.08709359 -0.13206774 0.13677555
0.07273949 0.2896309 -0.17700662 -0.19733027 0.039754834 0.12303191 -0.28860903 -0.036669575
0.20753574 0.17528285 -0.32300362 0.2243239 0.1714993 -0.075162955 0.038829915 -0.39740407
0.12570333 0.031672776 -0.039048303 -0.030405728 -0.007876238 0.1685973 -0.057072558 0.0044933935
-0.21839073 -0.11516581 -0.37989038 0.25960574 -0.07227718 0.08726196 -0.08983067 -0.19932386
0.12623839 0.023480827 0.10323782 0.20913318 -0.12660004 -0.12496626 -0.07733728 0.18096167
-0.027717553 0.1911263 -0.08096856 -0.14739205 0.00045267757 -0.26157126 0.280324 0.014300578
-0.2311276 -0.28256327 -0.33955538 -0.019769533 -0.06901701 0.1189159 -0.21490729 0.15140375
-0.14738557 0.000103154045 -0.30225635 0.26471382 -0.0071267043 -0.1314216 -0.0061122216 -0.24246456
-0.046051126 -0.15547563 0.38732353 0.19988017 -0.097703606 0.22473228 -0.2074782 0.07541048
0.013979056 -0.020597845 0.2541631 0.28954643 0.17931698 -0.08602654 -0.10475135 0.033344973
-0.059159063 0.10554252 0.1757638 -0.058128826 0.3333538 -0.1936394 -0.27763206 0.21211103
0.15514983 -0.16374299 -0.15327255 0.13831517 0.22583833 -0.04867447 0.053444773 -0.0028399508
0.24473779 0.037938796 0.101720355 0.2793714 0.20759386 0.029048674 -0.19474259 -0.21662407

bias_ih_l0 f4 [40]
00000000: a999 c9bd 228b 40bd bda3 343e 5c7e 1cbc
00000010: 688b 43be d231 7b3d b064 d8bc 8d43 30be
00000020: 0855 763e dc0f fcbc 0522 aa3e 4ff6 2dbe
00000030: e258 333e a3d6 8f3d 9f1c 673d b3dd e33d
00000040: dbfb 17be d6c9 c43e b5cd 473e 55b1 24be
00000050: e944 a83e 88c7 523e 8563 0dbe 9bb8 13be
00000060: 1dee ac3e 0713 a5be b494 66be 21d3 babd
00000070: 93ac 863e f393 5a3e 80b4 7dbd 5b4d 2ebe
00000080: b5e3 d83d e0cc 5abd b7fe 10be 5045 643e
00000090: fa66 f03d bf26 873d 3af3 51be eeb1 6d3c
-0.098437615 -0.047007687 0.17640586 -0.009551611 -0.19096148 0.06132681 -0.026415199 -0.17213269
0.24055874 -0.030769281 0.3322908 -0.1698849 0.17514375 0.070233606 0.05642378 0.1112627
-0.14842169 0.3843524 0.19512065 -0.16083272 0.32865074 0.20583928 -0.13807495 -0.1442589
0.33775416 -0.3224108 -0.22517663 -0.09122301 0.2630354 0.213455 -0.061939716 -0.17021696
0.10590307 -0.05341804 -0.14159666 0.22292066 0.11738391 0.06599187 -0.2050294 0.014507754

bias_hh_l0 f4 [40]
00000000: 85ca 503e c54a 793e 9b8f 0bbe 27e7 b43e
00000010: 779e c53d 60c4 5ebe e612 c0bd 159e 413d
00000020: 0586 bc3e d134 9e3e 0597 113e 72b1 1f3d
00000030: e8d4 733e 4a86 fd3d 5f0f f3bd c3de 94bd
00000040: 3549 cfbd b93c 993e 9333 213d d936 35be
00000050: fdd0 3abe c57e acbe a60a 033e c59b 89bd
00000060: bd6d 913e 3d53 593d 9aa0 91bd 85e7 a4be
00000070: 0876 223c e004 e83d cfd6 03be dc5b b73e
00000080: 191c 6dbe c01f b13d f705 8a3e 1c01 a0bd
00000090: b633 6ebe 6fdd 58be c4e0 cabd 47c4 8bbe
0.20389755 0.24344929 -0.13629 0.35332605 0.096493654 -0.21754599 -0.093786046 0.0472699
0.36821 0.3089967 0.14217766 0.038987584 0.23811686 0.12379129 -0.11868166 -0.07269051
-0.10121385 0.2992914 0.039355826 -0.17696704 -0.18243785 -0.33690467 0.12797031 -0.06719164
0.28404036 0.053057898 -0.071107104 -0.32207885 0.009915836 0.11329055 -0.12874912 0.3581227
-0.2315525 0.08648634 0.26957676 -0.078127116 -0.23261914 -0.2117822 -0.09906152 -0.27298185

weight_ih_l0 f4 [40, 22]
00000000: eb16 223d 3711 8635 1d47 33be ed9d 963e
00000010: 78a2 b2bd 78e1 073e a1e2 8abe f77c a5bd
00000020: 4f20 f83d a40e f5bd e4c9 9d3e f735 cdbd
00000030: 22b2 a13e a678 91bd 610e 09be 702a 13be
00000040: 9f9f fa3d fb20 323e bced 8dbe 5399 453d
00000050: 7da1 aabb 2302 ec3d 1611 edbd aae7 07be
00000060: b4a2 3f3c 1fff fb3d bb97 283e fe24 39be
00000070: 4e5d f13d aa9f a73d 3008 40be 5565 4a3e
00000080: 697b a63d a565 1bbe 76c1 e9bd 3270 8f3e
00000090: 2a7a 683d 0d13 21be fa01 29be ffd3 c33d
000000a0: 016a 143e 4eb2 46be f486 61bd 6582 65be
000000b0: 6e34 4b3c 73f8 843c 1abe 8fbe 07a6 61be
000000c0: 5925 623e 46aa a6be 85cc 2cbe cff7 3a3c
000000d0: ed13 333e 32e8 643e 0831 893d 618a 7b3e
000000e0: 4307 173d 6155 8b3e 2da4 10be 3a2a 33be
000000f0: 09b2 923e d71b 613e 28cc a33e 6bf5 733e
00000100: 2e1a 973d 6d88 21be 14ad 6d3d df20 b33e
00000110: c904 87bd 785e ba3d ccd1 893d 3f85 7bbe
00000120: e168 0dbd 899f 27be 3af7 153e 3787 08be
00000130: 33cb aebd baca 90bd b208 813e 844f b13e
00000140: 0675 42bd 3a9a 74be 3b71 d33d a188 ce3d
00000150: 430e d23d 931f 8c3e bf7a 9a3c a446 af3e
00000160: 5d63 de3d d964 6cbb 8fce bb3d 2aa9 a0bd
00000170: d293 3b3e 986f 223e 9667 7c3e e962 3c3c
00000180: df28 aebe 88cd b7bd 36cc 88be 5db9 27be
00000190: 336a 573e 18c1 49bd 663b 86bd 9a8a 8abd
000001a0: 2e5d 9e3d c4c2 99be 4e08 b9be e5bd 9fbd
000001b0: 68af 94be f2a1 bd3d 4e64 da3d abc5 483e
000001c0: 52e8 a8be ed3d bb3e 0e90 9ebe cf4e cabd
000001d0: 2078 4a3e 7d91 74be 5248 4cbe 8789 85be
000001e0: 9a1d 8a3d c420 f9bd 59ce 05be f31c b7bd
000001f0: 25b9 28be 9827 04be cd3a b3be 20a1 283e
00000200: 2e27 14be 8534 0b3e aaaf 9e3e 66cc 513e
00000210: f9b3 b7bc d39f 71be b741 d2bd 200f a83e
00000220: bb1e d7bd 4b13 afbd 6d79 6bbe c773 8a3e
00000230: ec85 673e 1287 79bd 5599 a73b 8892 0bbe
00000240: d4ef 853e a8f3 a6bd 1d17 51be 24a9 ea3d
00000250: 4b5a 2dbe 77f6 8fbc ece2 85be eb5d 863e
00000260: e097 8f3d 4d83 10be e2ca 093e e35b 41bd
00000270: ca29 3c3e 834b 7b3e cd40 36be b420 83be
00000280: 7a00 8abe 30cd 0b3e 32b9 553e 9c44 d7bc
00000290: 8de4 74be 46a8 a4be 9c2c 36be 3fad 7fbe
000002a0: 46ef 443e b6bb 4bbe 2522 4abe f3f7 2d3e
000002b0: f782 82be 2e5d 723e fa4d 993e fa4d 993e
000002c0: e268 2fbd bd6d 963e 5e39 5abe c349 6b3e
000002d0: dd5d c1bc 0d4c f8bd d96c 0fbe 77a8 5a3e
000002e0: 7366 62be 0dfe 2f3e cad8 57be 7bc1 343e
000002f0: f44b d6bd 53f9 c0bc 9b06 643e 0159 20bd
00000300: 27fa 61be df8b fabc 73d1 87be 7fb7 9e3e
00000310: 7048 133c 8ade 8f3e 06bb 7f3c 788f 793d
00000320: a4dc 13be df74 6f3e 525f 81be 2df0 bb3d
00000330: e858 35bd c4bf ae3e 85ec 8cbd 3c04 62be
00000340: 62fb 453e 1867 843d e3b1 35be 4bdc 933d
00000350: ba64 51be 6529 8b3e ddf2 76be 08b0 863d
00000360: d4ff aabe 6be4 c0bb be18 c33e 763f 293e
00000370: 1194 943c b08e abbe 4759 83bd 95b1 c33e
00000380: 9c6a b1be c6e5 773e 4758 223e 9d13 5bbe
00000390: f020 a53e 41a8 223e 44a3 4ebe dcae 8e3e
000003a0: 3f0c 0bbd 4ae0 873e 3d0b a53e ce0b 063e
000003b0: 3688 f9bd 50b3 dc3e 53bf d3bd 4f15 11bc
000003c0: e95d d33d f338 febd f8f0 27be 4d31 2fbe
000003d0: 8958 a1bd 0926 463e a16b a5bc 3d67 77be
000003e0: 1cdb 63bc c844 973d 5339 643d d7db 323e
000003f0: 3fd2 2e3e ad57 973d 71f7 863e 1c3a 933d
0.039572638 9.988788e-07 -0.17507596 0.29417363 -0.08722395 0.13269603 -0.2712603 -0.08080476
0.121155374 -0.11965683 0.30818093 -0.100200586 0.31581217 -0.0710309 -0.13384391 -0.14371657
0.122374766 0.17395394 -0.2772044 0.048241924 -0.005207239 0.11523845 -0.115755245 -0.13271967
0.011696506 0.1230452 0.1646413 -0.18080518 0.117853746 0.081847504 -0.18753123 0.19765218
0.08129007 -0.15175493 -0.11413853 0.28015286 0.05675713 -0.15729924 -0.1650466 0.095619194
0.14493562 -0.19403955 -0.055060342 -0.22413023 0.012402637 0.016231751 -0.28074723 -0.2203599
0.2208456 -0.32551783 -0.16874893 0.011411621 0.1748807 0.223542 0.06698805 0.24564506
0.03687216 0.27213576 -0.14125128 -0.17496577 0.28651455 0.21983276 0.31991696 0.23824088
0.0737804 -0.15774699 0.05802639 0.34986016 -0.065927096 0.0910005 0.06729469 -0.24562548
-0.03452385 -0.16369452 0.1464509 -0.1333283 -0.08534851 -0.07069917 0.25201946 0.34630978
-0.047474883 -0.23886958 0.103243314 0.10084654 0.102566265 0.2736784 0.018857358 0.34233582
0.10858796 -0.0036070852 0.09170257 -0.078447655 0.18318108 0.15862882 0.2464889 0.011498191
-0.34015557 -0.08974749 -0.267183 -0.16379304 0.21036606 -0.049256414 -0.06554298 -0.067647174
0.07732616 -0.30031407 -0.36139148 -0.077998914 -0.29040074 0.09259404 0.10663663 0.19606654
-0.32989746 0.36570683 -0.3096928 -0.09878313 0.19772387 -0.23883624 -0.19949463 -0.26081488
0.06743927 -0.12164453 -0.13066997 -0.089410685 -0.16476877 -0.12905729 -0.350058 0.16467714
-0.14468071 0.13594253 0.30993396 0.20488128 -0.022424685 -0.23596124 -0.1026644 0.3282404
-0.10503908 -0.08548602 -0.22995539 0.27041456 0.22609681 -0.06091983 0.005114714 -0.13630116
0.26159537 -0.081519425 -0.20418973 0.11458042 -0.16928975 -0.017573578 -0.2614969 0.2624353
0.0701139 -0.14112587 0.134563 -0.04720677 0.18375316 0.24540524 -0.17798157 -0.25610888
-0.2695349 0.13652492 0.20871428 -0.026277833 -0.2391531 -0.32159632 -0.17790455 -0.24968432
0.192319 -0.19895825 -0.19739588 0.16989116 -0.25490543 0.23668358 0.29942304 0.29942304
-0.042824633 0.293806 -0.21310946 0.22977357 -0.023604328 -0.121238805 -0.14006366 0.21353327
-0.22109394 0.17186756 -0.21078792 0.17651932 -0.10463706 -0.023556387 0.22268145 -0.03914738
-0.22068082 -0.030584274 -0.26526985 0.3099937 0.008989438 0.2809947 0.015608555 0.060927838
-0.14439636 0.23384427 -0.25268036 0.09176669 -0.04427424 0.3413068 -0.0688105 -0.22071928
0.19334176 0.06464976 -0.1774364 0.07219752 -0.2044858 0.2718002 -0.24116082 0.06576544
-0.33398306 -0.0058866045 0.38104814 0.16528115 0.01813701 -0.335073 -0.06413513 0.38221422
-0.3465165 0.24208745 0.15853988 -0.213942 0.32251692 0.15884496 -0.20179468 0.27867782
-0.033947226 0.26538306 0.32235137 0.1309044 -0.12184183 0.43105555 -0.103392266 -0.008855178
0.10320646 -0.12413206 -0.16400516 -0.1710865 -0.07878215 0.19350447 -0.020192923 -0.24160476
-0.01390722 0.07386166 0.05571873 0.17466675 0.1707239 0.0738977 0.26360658 0.07188818
