LSTM/code/model/old_model/model_mk5.pt (torch, 49605 bytes, 32 tensors)

weight_ih_l0 f4 [40, 22]
0	0x3e8bc9f7	0.27302524
1	0x3d8fd0c7	0.07022243
2	0xbe9fe1d5	-0.31226984
3	0xbc8d9168	-0.01728125
4	0x3e727ebe	0.23681161
5	0xbe5dbf55	-0.21655019
6	0x3a8c906e	0.0010724196
7	0x3e751ce3	0.239368
8	0x3d6379c9	0.055536065
9	0xbe3b8604	-0.18312842
10	0x3db9487d	0.09047029
11	0x3e9d11e4	0.30677712
12	0x3d94876d	0.07252393
13	0x3e85dff3	0.26147422
14	0xbe6bc1be	-0.23023126
15	0x3dce711a	0.10080166
16	0xbe70fcdc	-0.23533958
17	0x3e717aca	0.23581997
18	0xbd7f5a5d	-0.062342037
19	0xbe613add	-0.21995111
20	0xbe65b1f4	-0.22431165
21	0x3e224081	0.15844919
22	0x3d31b9a3	0.043389928
23	0x3d822be0	0.06356025
24	0xbe4b3b45	-0.19846828
25	0xbe1d200d	-0.15344258
26	0xbd9e4fbb	-0.07730051
27	0xbe812c5b	-0.25229153
28	0xbe620aea	-0.22074476
29	0x3d6cbf33	0.05779953
30	0xbcbebe05	-0.023283968
31	0xbe16bba1	-0.14720012
32	0xbe89f2f9	-0.26943186
33	0x3eb300f4	0.34961665
34	0xbd131984	-0.035913005
35	0x3dc0b93c	0.09410331
36	0xbe8a0def	-0.26963755
37	0x3eb657a7	0.35613748
38	0x3e1d6347	0.15369903
39	0xbe63d0fe	-0.22247693
40	0xbc30b248	-0.010784693
41	0xbc87060b	-0.016482374
42	0x3d7948d6	0.060860477
43	0x3db4a622	0.0882075
44	0x3e340bef	0.17582677
45	0xbdfd7b01	-0.12376977
46	0x3da162bf	0.078801624
47	0xbe0f05ef	-0.13967107
48	0xbd927363	-0.071509145
49	0xbe45ad87	-0.19304477
50	0xbe5c6e51	-0.21526457
51	0xbd9e4014	-0.07727066
52	0xbe7721da	-0.24134007
53	0x3d1b602f	0.037933525
54	0xbe6ebaaa	-0.23313394
55	0x3e43fd3c	0.1913957
56	0xbd334f34	-0.043776706
57	0xbe65d81c	-0.2244572
58	0x3e6f3fdc	0.23364204
59	0x3d6b6325	0.0574676
60	0xbe2bc681	-0.16774942
61	0xbe644f81	-0.22295953
62	0xbe09cc9e	-0.13456962
63	0x3d0e4955	0.034737904
64	0xbcdc3c41	-0.0268842
65	0x3e02ea55	0.12784703
66	0x3e545c3c	0.2073831
67	0x3df948cc	0.12172088
68	0xbe2bbe07	-0.16771708
69	0xbdc840bf	-0.09777974
70	0xbe1dae07	-0.15398417
71	0x3c50da61	0.012747378
72	0xbe639b93	-0.22227316
73	0x3dc7a43c	0.09748122
74	0x3da8e6fe	0.08247183
75	0x3ea807bd	0.32818404
76	0xbea0a19d	-0.313733
77	0x3c071d77	0.008246771
78	0xbe04dfef	-0.12976049
79	0x3ce230ea	0.027611215
80	0xbe190ecd	-0.14947052
81	0x3e36771f	0.17818879
82	0x3e10d16b	0.14142387
83	0x3db98bf4	0.09059897
84	0xbe07c172	-0.13257387
85	0x3e340eb2	0.17583731
86	0x3e8e6ccf	0.2781739
87	0x3e98139b	0.29702458
88	0xbe82f240	-0.25575447
89	0x3e27a354	0.16370898
90	0xbdf67ed5	-0.1203591
91	0x3e1bfb32	0.15232542
92	0x3e8a8eef	0.27062175
93	0xbd8ba915	-0.06819359
94	0xbe010e7a	-0.12603179
95	0x3db969e9	0.09053404
96	0xbe573463	-0.21016078
97	0xbe6adc2d	-0.22935553
98	0x3cb9ffa8	0.022704914
99	0x3dc46f5c	0.095915526
100	0x3e6ebcaf	0.23314165
101	0xbdd53855	-0.10411135
102	0xbe8a27d0	-0.269835
103	0x3eb8d301	0.36098483
104	0x3d7fbeaa	0.06243769
105	0xbe5dcec3	-0.21660905
106	0xbb881e6b	-0.0041540167
107	0x3d87b21b	0.06625768
108	0x3c47615d	0.012169209
109	0xbda73d55	-0.08165995
110	0xbd2d746e	-0.042347364
111	0xbe8914d5	-0.26773706
112	0xbdf23c34	-0.11827889
113	0x3e788fcd	0.24273606
114	0xbc57fae7	-0.013182378
115	0x3db53301	0.08847619
116	0x3e72698f	0.2367308
117	0x3ea63161	0.32459548
118	0x3e326f88	0.17425358
119	0xbd982cd8	-0.07430428
120	0xbdcc39b0	-0.099719405
121	0xbdae598d	-0.08513174
122	0x3dbb01da	0.091312125
123	0x3daa1a6d	0.083058216
124	0x3d72dcd3	0.059292626
125	0x3d8dd7c8	0.06925923
126	0xbeb61676	-0.3556401
127	0xbe840ef9	-0.25792673
128	0xbd2818ef	-0.041039404
129	0x3ea5a54e	0.3235268
130	0xbd2081d2	-0.039186306
131	0xbd906038	-0.07049602
132	0xbe8b6eca	-0.27232963
133	0xbdd0007d	-0.10156343
134	0x3e1eaf84	0.15496641
135	0x3ea7f099	0.3280075
136	0x3dee93c0	0.11649275
137	0x3dc9673d	0.09834144
138	0xbd7b13e1	-0.061298255
139	0xbe6b9b21	-0.23008396
140	0x3db33323	0.08749988
141	0x3d54e4e4	0.0519761
142	0x3df08c1e	0.11745475
143	0x3e72ce53	0.23711519
144	0x3e00161f	0.12508439
145	0xbe522e11	-0.20525385
146	0x3e0a597a	0.13510695
147	0xbccec310	-0.025239497
148	0xbe413ae8	-0.18870127
149	0xbe6cd9ea	-0.23130003
150	0x3d9c5ce5	0.07634906
151	0x3baaa9c8	0.005208228
152	0x3e01da6f	0.12680982
153	0xbe804455	-0.25052133
154	0x3e908e73	0.2823368
155	0x3e9c4887	0.30524084
156	0xbe2d1921	-0.16904117
157	0x3de10167	0.109865956
158	0xbe35005d	-0.1767592
159	0x3e7581b4	0.23975259
160	0xbe6a1ce4	-0.22862583
161	0x3e0e6609	0.13906111
162	0x3e4e9c2d	0.20176764
163	0x3de1d2f8	0.11026567
164	0xbe9f64fa	-0.31131727
165	0x3e1cd129	0.15314163
166	0x3cab4173	0.020905232
167	0xbc2e1cca	-0.010626981
168	0x3e4ac689	0.19802298
169	0xbdcca6f4	-0.09992781
170	0xbe660c7c	-0.224657
171	0x3d2a4e53	0.041578602
172	0xbc87c95a	-0.016575504
173	0x3e8ae366	0.27126616
174	0x3e8b4477	0.27200672
175	0x3d5a05ef	0.053228315
176	0x3d9f4200	0.077762604
177	0x3d4e5e23	0.050382745
178	0xbe86bf93	-0.26318035
179	0xbd39489b	-0.045235258
180	0xbe7cef68	-0.24700701
181	0xbd4def85	-0.05027725
182	0xbb7b359a	-0.003833151
183	0x3e3aad54	0.18230182
184	0x3c0c662d	0.0085692825
185	0x3e0173fb	0.126419
186	0xbe446312	-0.19178417
187	0x3e0a5878	0.1351031
188	0xbe079f11	-0.13244273
189	0xbd71b45f	-0.059009906
190	0x3d93dc96	0.07219808
191	0x3ea545fd	0.3227996
192	0x3db7ec88	0.08980662
193	0x3e68b5d8	0.22725618
194	0x3cfcd070	0.03086111
195	0x3e8264e9	0.25467613
196	0x3e547ab8	0.20749938
197	0xbd87104f	-0.065949075
198	0xbe8a595c	-0.270213
199	0x3d46b1e1	0.048509482
200	0x3e68481e	0.2268376
201	0x3e67bf9e	0.2263169
202	0x3e5f7b22	0.21824315
203	0x3dad2869	0.08454973
204	0x3e6450db	0.22296469
205	0xbe703e13	-0.2346118
206	0xbe9414bc	-0.2892207
207	0xbe4ed2ae	-0.20197555
208	0x3b8bcfd1	0.004266717
209	0x3dd3ce87	0.10342126
210	0x3e6cee83	0.2313786
211	0x3dec4338	0.115362585
212	0xbe47574b	-0.19466893
213	0xbe74cc75	-0.23906119
214	0x3e6320c2	0.22180465
215	0x3dbd1fd9	0.0923459
216	0xbd987123	-0.07443454
217	0x3de6868c	0.112561315
218	0xbe27c1b8	-0.16382492
219	0x3d65999b	0.056054693
220	0xbe29543c	-0.16536039
221	0xbdb5b862	-0.08873059
222	0x3dec8d52	0.11550392
223	0xbcc4fd0f	-0.024046449
224	0x3d42e48e	0.047581248
225	0xbe3fb565	-0.1872154
226	0x3e5dc481	0.21656992
227	0xbd999f98	-0.07501143
228	0x3c2a5f48	0.010398693
229	0x3e215df9	0.15758504
230	0xbdf41edd	-0.11919949
231	0xbe80b752	-0.25139862
232	0xbe926842	-0.28595167
233	0xbead1d1b	-0.33811268
234	0xbe36dbde	-0.1785731
235	0x3e0fe8e7	0.14053689
236	0xba7144ef	-0.00092036923
237	0x3e1f9122	0.15582708
238	0xbea14be8	-0.31503224
239	0xbd7015cd	-0.05861454
240	0x3da9720f	0.08273708
241	0x3eb6ef61	0.35729507
242	0x3b463cb3	0.0030248582
243	0x3d821229	0.0635112
244	0x3e55130f	0.20808052
245	0x3e906beb	0.28207335
246	0xbea6b77c	-0.32561862
247	0xbe982692	-0.29716927
248	0xbe42e9de	-0.19034526
249	0xbe750929	-0.23929276
250	0x3d7677c1	0.0601728
251	0x3e805fcd	0.2507309
252	0x3d293b20	0.04131615
253	0x3e0c29a2	0.13687757
254	0xbe999bf0	-0.30001783
255	0x3e5693ac	0.2095477

weight_hh_l0 f4 [40, 10]
0	0x3e690b10	0.22758126
1	0xbeadaacd	-0.33919373
2	0x3e9fc6a9	0.31206253
3	0xbcf82c67	-0.03029461
4	0x3e982b4f	0.29720542
5	0xbe632c89	-0.22184958
6	0x3e11dbca	0.14243999
7	0x3e2d5753	0.16927843
8	0x3c4ade2c	0.012382071
9	0x3e521a0f	0.20517753
10	0xbd5a88be	-0.053353064
11	0xbe6acbb5	-0.2292927
12	0x3e627eca	0.22118679
13	0x3d9eb405	0.0774918
14	0x3e8b7b88	0.27242684
15	0x3deb7ec5	0.11498789
16	0x3e3ce3ce	0.18446276
17	0xbe353825	-0.17697199
18	0x3cf51266	0.029916
19	0xbe24e764	-0.16103894
20	0x3e4a23cf	0.19740222
21	0x3e45a86f	0.19302534
22	0x3e5f4bbf	0.21806239
23	0x3e283ffd	0.1643066
24	0x3eb73739	0.3578432
25	0xbe830833	-0.25592193
26	0x3e75bf0a	0.23998657
27	0xbe224ea3	-0.1585031
28	0x3d9e639c	0.07733843
29	0xbe880e57	-0.2657344
30	0x3c4c96e0	0.012487143
31	0x3e2f5f34	0.17126161
32	0x3e82060c	0.25395238
33	0xbde45413	-0.111488484
34	0x3d9c060d	0.076183416
35	0x3e36c028	0.1784674
36	0x3d38fcd1	0.04516298
37	0xbc3b1685	-0.011418943
38	0xbe0df41a	-0.13862649
39	0x3e93e7e0	0.28887844
40	0xbcc9d22e	-0.024636354
41	0xbe6771f7	-0.22602068
42	0x3eb8b089	0.36072186
43	0xbd72feb2	-0.059324928
44	0xbdb6e525	-0.089304246
45	0x3e389735	0.18026431
46	0xbe6693b1	-0.22517277
47	0xbe65804a	-0.2241222
48	0xbe0fef27	-0.14056073
49	0xbd77b95f	-0.060479518
50	0x3e15b868	0.14621127
51	0xbe8f8791	-0.28033116
52	0xbe1ce4e6	-0.15321693
53	0x3df629fd	0.120197274
54	0x3e066fe7	0.13128625
55	0xbe34a0c6	-0.17639455
56	0x3e52efb9	0.2059926
57	0x3eb80ba1	0.35946372
58	0xbe31f488	-0.17378438
59	0xbcaaedb7	-0.020865304
60	0xbe068e63	-0.13140254
61	0xbe9a3e71	-0.30125764
62	0x3ce1a529	0.027544575
63	0xbe16f360	-0.14741278
64	0xbe0e68a9	-0.13907112
65	0x3da0c2c5	0.07849649
66	0xbe24501c	-0.16046184
67	0x3e9fbec4	0.3120023
68	0xbe6d7da5	-0.23192461
69	0x3ebc46af	0.36772677
70	0xbc0723e1	-0.0082483
71	0x3da0b49f	0.07846951
72	0x3cf355d8	0.02970402
73	0x3df8fa0c	0.12157068
74	0x3de2436f	0.11048018
75	0xbe1fdd17	-0.15611683
76	0x3d13e1d3	0.036104035
77	0xbe254d96	-0.16142878
78	0x3e06671b	0.13125269
79	0x3e1da8c4	0.1539641
80	0xbe21f8be	-0.15817544
81	0x3e10fbca	0.1415855
82	0xbc8e3900	-0.017361164
83	0x3e7f4739	0.24929513
84	0xbe68b2e3	-0.2272449
85	0xbd3b4df7	-0.04572865
86	0xbd85e58d	-0.06537924
87	0x3bf1f680	0.0073841214
88	0x3e37b686	0.17940721
89	0xbd878c13	-0.06618514
90	0x3de59392	0.112097874
91	0xbc638569	-0.013886788
92	0xbe8b6d7f	-0.27231976
93	0x3d1f82cd	0.0389431
94	0xbd9e0bf7	-0.07717126
95	0xbd786336	-0.06064149
96	0xbe94b73e	-0.29046053
97	0xbdafad6d	-0.08578
98	0x3db15a17	0.086597614
99	0x3dcf6c5c	0.1012809
100	0xbdba7e6e	-0.09106146
101	0xbde73f0f	-0.11291324
102	0x3e9ae2ad	0.30251065
103	0x3e281369	0.16413654
104	0x3c4b5f77	0.012412897
105	0x3d058f6c	0.03260748
106	0xbe096fb7	-0.13421522
107	0xbd37eef9	-0.044905636
108	0xbeb5d089	-0.35510662
109	0xbdda0ae2	-0.10646607
110	0xbe739a38	-0.23789299
111	0x3e19042d	0.14942999
112	0x3eba614d	0.3640236
113	0x3e2080d2	0.15674141
114	0xbe3d0061	-0.18457176
115	0xbdbc73a4	-0.09201744
116	0xbe5b7b23	-0.21433692
117	0x3e0aef3d	0.13567825
118	0x3e89d596	0.26920766
119	0x3e854b9d	0.2603425
120	0x3cedb9a8	0.029019192
121	0xbeb09141	-0.3448582
122	0x3eae3af2	0.34029347
123	0x3dec50d7	0.115388565
124	0xbd971db3	-0.073787116
125	0x3d7ce6fb	0.061743718
126	0x3d7aca4e	0.06122809
127	0x3d4dad06	0.050213836
128	0xbd2826e4	-0.041052714
129	0x3d21c525	0.039494652
130	0xbe2fa56f	-0.17152952
131	0x3e5a6cac	0.21330518
132	0x3e41e905	0.18936546
133	0x3e473b13	0.19456129
134	0x3e9bae90	0.30406618
135	0xbdaede2a	-0.08538468
136	0x3df10622	0.11768748
137	0xbe4201a2	-0.18945935
138	0xbe676166	-0.22595748
139	0x3e3cf5df	0.18453167
140	0xbe0d70d6	-0.13812575
141	0x3df161df	0.117862456
142	0x3ea8afc7	0.32946607
143	0x3c1bc086	0.00950635
144	0x3e910ce0	0.28330135
145	0x3e3b3291	0.18281008
146	0xbe63494e	-0.22195932
147	0x3d3bb77b	0.045829277
148	0x3e72c152	0.23706558
149	0x3d88f137	0.06686633
150	0xbd13179f	-0.0359112
151	0x3e647f11	0.22314097
152	0xbe47f5b8	-0.19527328
153	0xbe23fed9	-0.16015185
154	0x3e060097	0.13086163
155	0xbe664612	-0.22487667
156	0x3b5eba33	0.0033985495
157	0x3c3261ed	0.010887605
158	0xbe76ec1a	-0.24113503
159	0x3eb24393	0.3481718
160	0xbdc688f6	-0.09694092
161	0xbdad0bdd	-0.08449528
162	0x3e8d041e	0.27542204
163	0xbe8df1b8	-0.2772348
164	0x3daacae6	0.08339481
165	0xbdd8071a	-0.105482295
166	0xbad52942	-0.0016262906
167	0x3dff33aa	0.12461026
168	0x3e4a9824	0.197846
169	0xbdfaec19	-0.12252063
170	0x3d5140fe	0.051087372
171	0xbea902d1	-0.3300996
172	0xbe50ff9d	-0.20410009
173	0x3db5a647	0.088696055
174	0x3e8cce97	0.27501366
175	0xbe0b04f5	-0.1357611
176	0xbe705460	-0.23469687
177	0xbe265a05	-0.16245277
178	0x3ea264e8	0.3171761
179	0xbdec022c	-0.11523852
180	0xbd281919	-0.04103956
181	0xbe5b6cd1	-0.21428229
182	0x3e61ff4b	0.22070043
183	0xbe1fba14	-0.15598327
184	0x3e6d3972	0.23166445
185	0xbe6cfaff	-0.23142622
186	0xbdc48595	-0.09595791
187	0xbe8ad969	-0.27118996
188	0xbd9666ed	-0.0734385
189	0xbda9fa98	-0.0829975
190	0xbe78ef14	-0.24309951
191	0xbe7075e0	-0.23482466
192	0xbe244cea	-0.16044965
193	0x3c8cb0f2	0.017174218
194	0x3d342f11	0.0439902
195	0x3d1cef59	0.038314197
196	0x3d44d1c3	0.048051607
197	0x3ea7f16a	0.32801372
198	0x3dd4df00	0.103940964
199	0xbde7a72e	-0.11311184
200	0xbd08e93f	-0.033425566
201	0x3e938379	0.28811243
202	0x3e821db2	0.2541328
203	0xbe4945aa	-0.19655481
204	0xbe83759d	-0.2567567
205	0x3e823ee9	0.25438622
206	0xbe9920ce	-0.2990784
207	0x3e4f0868	0.2021805
208	0xbe33de5c	-0.17565292
209	0xbe8d5a84	-0.2760812
210	0xbd267f5b	-0.0406488
211	0x3c852456	0.016252678
212	0xbdcbbec5	-0.09948496
213	0x3d370285	0.044680137
214	0xbdc2c35f	-0.0950992
215	0xbe907213	-0.28212032
216	0xbe031a24	-0.1280294
217	0xbe11c99b	-0.14237063
218	0xbe3fa1f5	-0.18714125
219	0xbe586913	-0.21133833
220	0x3eb0b135	0.34510198
221	0x3e773965	0.24142988
222	0x3ea35cea	0.31906825
223	0x3dd0a695	0.10188023
224	0xbd4a15ee	-0.04933732
225	0x3e680651	0.2265866
226	0xbdd3b70a	-0.10337646
227	0x3e94fe2b	0.29100165
228	0xbe1b6b03	-0.1517754
229	0x3db8128e	0.08987914
230	0xbe199fa4	-0.15002304
231	0xbeaff754	-0.34368384
232	0xbe180485	-0.14845474
233	0xbe519c2b	-0.2046973
234	0x3eb465e0	0.35233974
235	0x3e4ef294	0.20209724
236	0xbe6dc483	-0.23219495
237	0x3e2e2022	0.17004445
238	0x3e9055a1	0.2819033
239	0x3e94a79c	0.29034126
240	0x3e8af5dc	0.271407
241	0x3ce35e5b	0.027754953
242	0x3cb583c8	0.022157565
243	0xbe235d48	-0.15953553
244	0xbd860d36	-0.065454885
245	0x3d94eeb3	0.07272091
246	0xbe3b8717	-0.18313251
247	0x3e8b16ba	0.27165776
248	0xbd835334	-0.06412354
249	0x3e5c1407	0.21492015
250	0xbc305f24	-0.010764871
251	0xbe288706	-0.16457757
252	0xbe35a20c	-0.17737597
253	0x3e003fe9	0.1252438
254	0x3d5f8010	0.05456549
255	0xbe653a5b	-0.22385542

bias_ih_l0 f4 [40]
0	0x3e9a6799	0.30157164
1	0xbe09e06d	-0.13464518
2	0xbe1c2063	-0.1524673
3	0xbdb6de41	-0.0892911
4	0x3d8a373c	0.06748816
5	0x3e6e6bc8	0.23283303
6	0x3e7ca461	0.2467208
7	0xbe8832cb	-0.26601252
8	0x3eae31d6	0.34022397
9	0xbe80c289	-0.2514842
10	0x3e98ba1b	0.29829487
11	0xbe320331	-0.1738403
12	0x3b2e5168	0.0026598815
13	0x3df13147	0.11776977
14	0x3e7eab8d	0.24870129
15	0xbd8d2afe	-0.06892966
16	0xbe1f665f	-0.15566395
17	0x3c988dc0	0.01862228
18	0xbea5720e	-0.3231358
19	0xbe88c4d5	-0.2671267
20	0x3de7dc6a	0.113213375
21	0xbe710400	-0.23536682
22	0x3ddd1e4e	0.10796796
23	0x3d433664	0.047659293
24	0x3eb8bc0b	0.36080965
25	0x3e49eae5	0.19718511
26	0xbdbd5a02	-0.09245683
27	0x3e79ba0f	0.24387382
28	0x3e95a8c4	0.2923032
29	0xbde5a260	-0.11212611
30	0x3cf2c335	0.029634098
31	0xbe491490	-0.1963675
32	0x3d83d1d7	0.06436508
33	0x3aaf5082	0.0013375434
34	0x3c20f223	0.009823355
35	0xbd23ae4a	-0.039961137
36	0x3e37a7a5	0.17935045
37	0x3ea64f93	0.32482585
38	0x3e0d149a	0.1377739
39	0x3ea410de	0.3204412

bias_hh_l0 f4 [40]
0	0xbe636fb1	-0.22210576
1	0xbce3d5db	-0.027811935
2	0xbe063010	-0.13104272
3	0x3e83aede	0.2571935
4	0x3dbc5119	0.09195156
5	0x3da8c810	0.08241284
6	0x3e93b3f9	0.28848246
7	0xbdecf28e	-0.11569701
8	0x3e590eef	0.21197103
9	0xbe608c08	-0.21928418
10	0xbd70311d	-0.058640588
11	0xbe359b1f	-0.17734955
12	0xbda77a80	-0.08177662
13	0x3d9a734d	0.07541523
14	0x3e093eb6	0.13402829
15	0xbe16f299	-0.14740981
16	0xbd7941e4	-0.060853854
17	0x3e010ae4	0.1260181
18	0x3e69351f	0.2277417
19	0xbd3718d5	-0.044701416
20	0xbe68d725	-0.22738321
21	0xbe148505	-0.14503868
22	0xbe45ee72	-0.19329241
23	0x3eb098a4	0.34491456
24	0x3e30c155	0.1726125
25	0xbd4a795e	-0.04943215
26	0xbe38c498	-0.18043745
27	0xbce2b3fa	-0.02767371
28	0x3e7cd90f	0.24692176
29	0x3e782e68	0.24236453
30	0xbe11e0ae	-0.14245865
31	0xbd5e2237	-0.05423185
32	0x3e56dd78	0.20982921
33	0x3d5efd3a	0.054440714
34	0x3e81d8c9	0.25360706
35	0xbd83d09c	-0.064362735
36	0x3e5234cc	0.20527953
37	0x3e6b4165	0.22974165
38	0x3e1a5b59	0.15073909
39	0xbe2885b1	-0.16457249

weight_ih_l0 f4 [40, 22]
0	0xbe3aaf73	-0.18230991
1	0xbe59f11d	-0.21283384
2	0xbadd9355	-0.001690487
3	0x3db29ad8	0.0872094
4	0xbc66ecd4	-0.01409455
5	0x3e88d624	0.26725876
6	0x3d493182	0.04911948
7	0xbd1ca9dc	-0.038247928
8	0x3e7111bf	0.23541926
9	0xbe031a02	-0.1280289
10	0xba2e8a3a	-0.00066581706
11	0x3e509973	0.20371036
12	0xbe6647b6	-0.22488293
13	0xbe9039ff	-0.28169248
14	0xbd128aaf	-0.03577679
15	0xbe03a2ba	-0.12855044
16	0xbe995976	-0.29951066
17	0x3e5b080d	0.2138979
18	0xbe410f98	-0.18853605
19	0x3e33b5cd	0.1754982
20	0xbe3dc13f	-0.18530749
21	0x3e17e5f8	0.1483382
22	0x3e89d75b	0.26922116
23	0xbe95e3d5	-0.29275385
24	0xbe546e71	-0.20745255
25	0x3e05b807	0.13058482
26	0xbc3506ce	-0.011048986
27	0x3e455815	0.19271882
28	0xbe3f11f7	-0.18659197
29	0x3d97d926	0.07414465
30	0x3ea8df1b	0.32982716
31	0xbd1aaa5c	-0.037760124
32	0x3e8be3e4	0.27322304
33	0xbdd9c8af	-0.106339805
34	0xbdf2bc89	-0.118523665
35	0xbeade9ff	-0.33967587
36	0x3d84e410	0.06488812
37	0x3e1b08f7	0.15140139
38	0x3dc78b64	0.097433835
39	0x3cf3fdcc	0.029784106
40	0xbe8ebbe1	-0.27877715
41	0xbe8dec60	-0.27719402
42	0xbe550775	-0.20803626
43	0xbe600364	-0.21876293
44	0xbca98e5c	-0.020697765
45	0xbe3da4b8	-0.18519866
46	0x3d704def	0.058668073
47	0x3e82c54b	0.25541148
48	0x3e9493b9	0.29018953
49	0xbe2c0b03	-0.16801076
50	0xbe48c007	-0.19604503
51	0x3e6a50e8	0.22882426
52	0xbe86b8f6	-0.2631299
53	0xbe353c9b	-0.176989
54	0x3de6e2a4	0.11273697
55	0x3e98d9c2	0.29853636
56	0x3e435079	0.19073667
57	0x3e22c687	0.15896045
58	0xbe998542	-0.2998448
59	0x3eabcdb2	0.3355537
60	0x3dcdee27	0.100551896
61	0x3b934774	0.004494602
62	0xbeb7a756	-0.35869855
63	0x3e66737a	0.22504988
64	0x3ed47e2a	0.41502506
65	0x3e24b324	0.16083962
66	0x3e71135b	0.2354254
67	0x3e1c701b	0.1527714
68	0x3d715c12	0.058925696
69	0x3e93a5bb	0.2883738
70	0x3de091ca	0.10965307
71	0x3e266dc1	0.16252805
72	0xbe986681	-0.29765704
73	0xbda451e9	-0.080234356
74	0xbe7af5c1	-0.2450781
75	0xbe0f9838	-0.1402291
76	0x3d5c3204	0.053758636
77	0x3e18f764	0.14938122
78	0x3df4d7be	0.11955212
79	0x3e1e06bb	0.15432255
80	0x3e0134bd	0.12617774
81	0x3ea5716b	0.32313094
82	0xbe242910	-0.16031289
83	0x3e204e10	0.15654778
84	0xbe6c9fdc	-0.23107857
85	0xbe419e8a	-0.18908134
86	0x3e36a43d	0.1783609
87	0x3e07df03	0.13268666
88	0xbe4dd28d	-0.2009985
89	0x3dd336fa	0.1031322
90	0x3e4ce5a3	0.20009474
91	0x3e3e47ef	0.18582128
92	0xbc661f60	-0.014045566
93	0xbdaa2fb0	-0.08309877
94	0xbd0a8661	-0.03381956
95	0x3e3ec8df	0.18631314
96	0x3e89618f	0.26832244
97	0x3e80fcc2	0.2519284
98	0x3c8df06b	0.017326554
99	0x3e617147	0.22015868
100	0xbe877a90	-0.26460695
101	0x3e568203	0.20948033
102	0xbeb1ef99	-0.3475311
103	0xbdad5b82	-0.08464719
104	0xbdfab4a2	-0.12241484
105	0xbe2a0b24	-0.16605812
106	0x3dc1b181	0.09457684
107	0x3e91150d	0.28336373
108	0x3e34ab94	0.17643577
109	0xbd8bda60	-0.06828761
110	0xbe554736	-0.20827946
111	0x3e951ea9	0.29124954
112	0x3e5df5aa	0.21675745
113	0x3e20f9f0	0.15720344
114	0x3e29c2c2	0.165782
115	0x3bcbba33	0.006217265
116	0xbdea81d7	-0.11450546
117	0x3d096025	0.033538956
118	0x3e52fc74	0.20604116
119	0x3c9e3c27	0.019315792
120	0xbeaf3cff	-0.34226224
121	0x3e05889a	0.1304039
122	0xbddc71df	-0.10763907
123	0xbccddafd	-0.025128836
124	0x3cac7ea0	0.021056473
125	0xbcba61b3	-0.022751665
126	0xbdb91e8c	-0.090390295
127	0x3d086c28	0.03330627
128	0xbe9f0ae8	-0.31063008
129	0xbe67e57d	-0.22646137
130	0xbda79141	-0.08182002
131	0x3e4d7cc7	0.2006713
132	0xbd611f08	-0.054961234
133	0x3e559f5c	0.20861572
134	0xbe957386	-0.291897
135	0x3e602804	0.21890265
136	0xbe313598	-0.173056
137	0xbe4b1c91	-0.19835116
138	0x3ddfb6ab	0.10923513
139	0xbdd6baee	-0.10484873
140	0xbdcbd5ca	-0.099528864
141	0xbc8cb11b	-0.017174294
142	0xbea3ecb5	-0.3201653
143	0xbe3710b2	-0.17877463
144	0x3a5bc342	0.00083832827
145	0x3e3b17f0	0.1827085
146	0x3e84ce29	0.25938538
147	0x3e8e6e28	0.27818418
148	0xbde2566c	-0.1105164
149	0x3e550e4a	0.20806232
150	0xbd833ab8	-0.06407684
151	0xbe4786e7	-0.19485055
152	0xbe58cf06	-0.21172723
153	0x3e1a5bf3	0.15074138
154	0x3c35ff70	0.011108264
155	0x3e776e18	0.24163091
156	0x3e0aa946	0.13541135
157	0x3e0d7f88	0.1381818
158	0xbe8220d9	-0.25415686
159	0xbe54fe2b	-0.20800082
160	0xbdcb0753	-0.09913506
161	0x3e978215	0.29591432
162	0xbd9eb29f	-0.07748913
163	0x3e10412d	0.14087363
164	0xbe8ae099	-0.2712448
165	0x3c379114	0.011204023
166	0xbc556f56	-0.013027033
167	0x3d0141ca	0.031556882
168	0xbe93a65d	-0.28837863
169	0x3e8ffce9	0.28122643
170	0xbd9dddf8	-0.07708353
171	0x3d9761c1	0.07391692
172	0x3e6efc43	0.23338418
173	0x3daf2ae3	0.08553102
174	0x3eaf83ab	0.34280142
175	0x3e1be847	0.15225326
176	0x3e987b48	0.29781556
177	0xbe89cee8	-0.2691567
178	0xbdf3a33b	-0.11896368
179	0x3dc7e513	0.09760489
180	0x3e851443	0.2599202
181	0xbe9f5e23	-0.31126508
182	0xbb266abc	-0.0025393208
183	0x3e88d980	0.2672844
184	0xbe687990	-0.22702622
185	0xbdf6e767	-0.12055855
186	0xbbbff11a	-0.005857599
187	0x3dc7552b	0.097330414
188	0x3e9136e4	0.2836219
189	0x3e44c5b2	0.1921604
190	0x3cb34ac9	0.021886246
191	0xbe8fc622	-0.2808085
192	0x3c6ffe27	0.014647997
193	0xbe671c61	-0.2256942
194	0x3de540fc	0.111940354
195	0x3dea35e3	0.11436059
196	0xbdca93aa	-0.09891446
197	0xbe2e2337	-0.17005621
198	0xbe327da9	-0.17430748
199	0xbe7a28fd	-0.24429698
200	0xbe27f396	-0.16401514
201	0xbe926de3	-0.28599462
202	0x3eb205b4	0.34769976
203	0x3e35dfa0	0.17761087
204	0x3df2cce9	0.1185549
205	0xbd64d2d8	-0.05586514
206	0x3cdd5e46	0.027022492
207	0x3ca611c7	0.020272149
208	0xbe964d6c	-0.29355943
209	0x3baef1e5	0.0053388947
210	0x3971522b	0.00023014161
211	0xbe5c2c53	-0.21501283
212	0x3b6a8ee7	0.0035790743
213	0xbe90af86	-0.28258914
214	0x3e84f44d	0.25967637
215	0xbe970749	-0.29497746
216	0xbe68adcc	-0.22722548
217	0x3e3a0f53	0.18169908
218	0x3e2bce01	0.16777803
219	0xbd19772c	-0.037467167
220	0x3e4b00d8	0.1982454
221	0x3e19da8e	0.15024778
222	0xbe82a964	-0.2551986
223	0xbe80231a	-0.2502678
224	0x3cc30f71	0.023811074
225	0x3d14e7fe	0.036354057
226	0xbe348d7e	-0.176321
227	0x3e3120c5	0.17297657
228	0x3d722972	0.059121557
229	0xbd4148b0	-0.04718846
230	0x3da4da55	0.08049456
231	0x3e3ef61b	0.1864857
232	0xbe46a4be	-0.19398782
233	0xbdee2a11	-0.11629117
234	0x3e3f2b2d	0.18668814
235	0x3e8b89cc	0.27253568
236	0x3e65d2e5	0.22443731
237	0x3e47a688	0.1949712
238	0x3cc77946	0.02434982
239	0x3e88ae73	0.26695594
240	0x3e4b8e6f	0.19878553
241	0x3e0e46a0	0.13894129
242	0x3d2b987b	0.041893464
243	0xbd99115b	-0.074740134
244	0xbe88f493	-0.26749095
245	0x3e66f3c4	0.22553927
246	0x3cb6d69a	0.022319127
247	0xbe63646b	-0.22206275
248	0xbe03eb44	-0.12882715
249	0xbe625082	-0.22101024
250	0x3e047941	0.1293688
251	0xbe98addf	-0.29820153
252	0xbd96fb62	-0.07372166
253	0x3e510627	0.20412503
254	0x3e966d4a	0.29380256
255	0x3e215646	0.15755567

weight_hh_l0 f4 [40, 10]
0	0x3e2450a2	0.16046384
1	0xbe07755f	-0.13228367
2	0x3e6758f7	0.22592531
3	0x3eb459d6	0.3522479
4	0xbe86e072	-0.26343113
5	0x3eb31fcb	0.34985194
6	0xbdea3ac8	-0.11436993
7	0xbe1360e5	-0.14392431
8	0x3e843a9f	0.25825974
9	0x3eb012a6	0.34389228
10	0x3da21794	0.079146534
11	0x3e7377df	0.23776196
12	0x3e8513e2	0.25991732
13	0xbdb3e7fe	-0.087844834
14	0x3de46e00	0.11153793
15	0x3ce2fd74	0.027708746
16	0x3da6f88d	0.08152876
17	0xbde57c10	-0.11205304
18	0x3e95d59f	0.29264542
19	0x3e89e454	0.26932013
20	0x3d734e3d	0.059400786
21	0xbcbc0787	-0.022952808
22	0x3eb80318	0.3593986
23	0x3e4e8418	0.20167577
24	0xbec32644	-0.38115132
25	0x3eb0bf9f	0.34521195
26	0xbdcf362a	-0.10117753
27	0xbe5d22f1	-0.2159536
28	0xbb6816bc	-0.0035413941
29	0x3e4ecf63	0.20196299
30	0x3d67a187	0.05655053
31	0x3df81dca	0.12115057
32	0xbe5ea134	-0.21741182
33	0x3e218c72	0.15776232
34	0xbe13f824	-0.14450127
35	0x3e6ddfe8	0.23229945
36	0x3e918afc	0.2842635
37	0x3cdc198a	0.026867647
38	0xbc4565cf	-0.012048199
39	0x3e69becd	0.22826691
40	0xbdf07f13	-0.117429875
41	0xbdfc0139	-0.12304921
42	0x3d3101a1	0.043214444
43	0x3e8e825c	0.2783383
44	0xbe981348	-0.2970221
45	0xbe858ad6	-0.26082486
46	0xbd103c63	-0.03521384
47	0x3e27739f	0.163527
48	0xbe579910	-0.21054482
49	0xbd62035a	-0.055178978
50	0x3e63a53d	0.22231002
51	0xbe9d68fe	-0.30744165
52	0xbd8fbec7	-0.0701881
53	0x3ebd7219	0.37001112
54	0xbe4a66cc	-0.19765776
55	0x3e4ba6f5	0.19887908
56	0x3d0a79bc	0.0338075
57	0xbd8fadb7	-0.07015555
58	0x3eaece65	0.34141842
59	0x3db53e46	0.08849768
60	0xbd0e3c92	-0.034725733
61	0x3ee1face	0.4413666
62	0x3c9a1087	0.018806709
63	0xbd4f4c04	-0.050609604
64	0xbc339453	-0.010960656
65	0xbdf717b1	-0.12065066
66	0xbc9911ea	-0.0186853
67	0x3d9dce72	0.07705392
68	0xbd763cc6	-0.06011655
69	0x3e995abd	0.2995204
70	0xbe77b823	-0.24191336
71	0xbdc6d842	-0.09709217
72	0x3e4da0db	0.20080893
73	0x3e4efb13	0.20212965
74	0x3e6fce88	0.23418629
75	0x3e8213ac	0.25405633
76	0x3e3f27a3	0.18667464
77	0xbd027cc4	-0.031857267
78	0x3e13a211	0.14417292
79	0xbd52d5c5	-0.051473398
80	0xbe8e23ff	-0.27761838
81	0x3e539ee3	0.20666079
82	0x3eb1edeb	0.3475183
83	0x3de0cf8d	0.10977087
84	0x3dc70b77	0.097189836
85	0xbd92c0b0	-0.071656585
86	0x3e96ac1e	0.2942819
87	0x3e54bac7	0.20774375
88	0x3e47058e	0.19435713
89	0x3df8fef8	0.121580064
90	0x3d38bb25	0.04510035
91	0x3dde39d7	0.10850876
92	0xbe7d7e9c	-0.24755329
93	0x3a470b7e	0.000759296
94	0xbe72d6d6	-0.23714766
95	0x3ddb9cf8	0.10723299
96	0xbe29e78b	-0.16592233
97	0x3ce6adb2	0.028158996
98	0x3d2d4279	0.04229972
99	0x3d21df95	0.039519865
100	0x3c38e6a9	0.011285462
101	0x3db6339e	0.08896564
102	0x3e7517a8	0.23934805
103	0xbe122c13	-0.14274625
104	0xbea50bd8	-0.322356
105	0x3e171330	0.14753413
106	0xbe3492e8	-0.17634165
107	0x3dc1fdee	0.09472261
108	0x3e2efeca	0.17089382
109	0x3ea6f543	0.32608995
110	0xbe8fd66e	-0.28093284
111	0x3d763d68	0.060117155
112	0x3ed889a6	0.42292517
113	0x3ec42180	0.38306808
114	0xbe9c9c92	-0.30588204
115	0xbdf62bb6	-0.12020056
116	0x3e99dbf1	0.30050614
117	0xbe03dfa1	-0.12878276
118	0x3e24b58c	0.1608488
119	0xbd36f255	-0.0446647
120	0x3e256d6a	0.1615502
121	0xbe7209e0	-0.2363658
122	0x3ee896a0	0.45427418
123	0x3e992493	0.29910716
124	0x3cee5ea9	0.029097872
125	0xbd96f17d	-0.07370279
126	0xbd9aeadc	-0.07564327
127	0x3e2fd188	0.17169774
128	0xbe074293	-0.1320899
129	0xbde70c0d	-0.112815954
130	0x3dc73019	0.09725971
131	0xbe60d578	-0.21956432
132	0x3e84a500	0.25907135
133	0x3cb4495e	0.02200764
134	0xbeb8d612	-0.36100823
135	0x3e416a78	0.18888271
136	0x3eadd0d3	0.33948383
137	0xbe022d45	-0.12712581
138	0xbc82a1eb	-0.01594635
139	0x3df79518	0.12088984
140	0xbd845496	-0.06461446
141	0x3e848287	0.25880834
142	0xbe01679c	-0.1263718
143	0x3e3f7768	0.18697894
144	0x3e1ed647	0.15511428
145	0xbc140ffd	-0.009037015
146	0x3e3ce5e7	0.18447076
147	0x3dd8922c	0.10574755
148	0x3ca6cb81	0.02036071
149	0xbb55c809	-0.003262045
150	0x3decf76b	0.11570629
151	0xbdc95ac4	-0.09831765
152	0xbd5a4788	-0.053290874
153	0xbe40729b	-0.18793719
154	0x3ddc97d4	0.107711464
155	0x3c2ad136	0.010425856
156	0x3de5c185	0.112185515
157	0x3e48877d	0.19582935
158	0x3ebbab39	0.3665407
159	0xbd9d3214	-0.07675567
160	0x3d2ffde2	0.04296673
161	0x3e0f1137	0.1397141
162	0xbdda3a99	-0.10655708
163	0xbe382347	-0.17982207
164	0xbe4d15ad	-0.200278
165	0xbcc42497	-0.023943229
166	0xbddd00ef	-0.10791194
167	0x3ebc4d3a	0.3677767
168	0x3ea54226	0.3227703
169	0x3c19d5fe	0.009389399
170	0x3e286995	0.16446526
171	0x3e888de6	0.2667076
172	0x3dea9bf2	0.114555255
173	0xbdae96fc	-0.08524892
174	0xbd87d63d	-0.066326596
175	0xbe0cffda	-0.13769475
176	0x3dc06879	0.093949266
177	0xbe2dd699	-0.16976394
178	0x3d86de94	0.06585422
179	0x3e9dfe70	0.30858183
180	0xbe3784e4	-0.17921788
181	0x3dedae15	0.11605469
182	0x3e138e2c	0.14409703
183	0x3e13d98d	0.14438458
184	0x3db123c2	0.086493984
185	0xbe753c29	-0.2394873
186	0x3ecd6311	0.40114644
187	0x3eac7154	0.33680212
188	0x3eb21377	0.34780475
189	0xbe561801	-0.20907594
190	0xbe928dc7	-0.28623793
191	0xbe843b93	-0.25826702
192	0x3e885927	0.26630518
193	0x3e95c515	0.29251924
194	0xbe1f0843	-0.15530495
195	0x3de4e222	0.11175944
196	0x3e5ef221	0.21772052
197	0xbe757427	-0.2397009
198	0xbd90ffb6	-0.07080023
199	0xbe45954d	-0.19295235
200	0x3ddd9d14	0.10820976
201	0xbe58e4c0	-0.21181011
202	0x3e8596a0	0.2609148
203	0x3e6e0566	0.23244247
204	0x3e9c09b9	0.30476168
205	0xbdcf0c3d	-0.10109756
206	0x3d45a4ae	0.048252754
207	0xbe029afe	-0.12754437
208	0xbebcc0aa	-0.3686574
209	0xbe65ebcf	-0.22453235
210	0x3ce6fec7	0.02819766
211	0x3e8d40d1	0.27588513
212	0x3e492b4d	0.19645424
213	0xbdb43c20	-0.088005304
214	0xbbd04543	-0.006355913
215	0xbd4522f3	-0.048129033
216	0xbcfd129d	-0.030892665
217	0x3ea82fc9	0.32848957
218	0x3ea10a10	0.3145299
219	0x3e95facf	0.29292914
220	0x3ddcc85e	0.107804045
221	0xbd631add	-0.05544554
222	0xbdf84b88	-0.121237814
223	0xbd906b4c	-0.07051715
224	0x3da34e6f	0.079739444
225	0xbd58073c	-0.052741274
226	0xbdde1032	-0.10842933
227	0x3e458069	0.19287266
228	0x3e0fda18	0.1404804
229	0x3e06a179	0.13147534
230	0x3da6d44c	0.08145961
231	0xbe134234	-0.14380723
232	0xbd84b98e	-0.06480704
233	0x3ea8b023	0.32946882
234	0xbc05ff16	-0.008178493
235	0xbe40a76e	-0.1881387
236	0x3dfc0210	0.12305081
237	0x3e0aac08	0.13542187
238	0x3e751f66	0.23937759
239	0xbe8b0338	-0.27150893
240	0x3d6b6e38	0.05747816
241	0xbe93bb2a	-0.28853732
242	0x3e94a070	0.29028654
243	0x3dc070b8	0.093964994
244	0x3d6acbbf	0.057323214
245	0x3e616738	0.22012031
246	0xbe27d751	-0.1639073
247	0xbe0f7807	-0.1401063
248	0xbe1a55ac	-0.15071744
249	0xbe959587	-0.29215643
250	0xbd82ac87	-0.06380563
251	0x3c0e4440	0.008683264
252	0xbd0ace8b	-0.03388838
253	0x3c299798	0.010351084
254	0x3e615cdc	0.2200808
255	0xbd373ce7	-0.044735815

bias_ih_l0 f4 [40]
0	0xbe44072d	-0.19143362
1	0xbc8f438b	-0.017488262
2	0x3eb49449	0.35269383
3	0xbe7e3871	-0.24826218
4	0xbdf6815b	-0.12036391
5	0x3ebaa323	0.36452588
6	0xbe016fe5	-0.1264034
7	0x3e93c663	0.28862295
8	0x3d7033b5	0.05864306
9	0x3e6da844	0.2320872
10	0x3e6a89e7	0.22904168
11	0xbe4d94df	-0.20076321
12	0x3ebe1088	0.37121987
13	0x3cc68d38	0.02423726
14	0x3d95160a	0.07279594
15	0x3d948b0c	0.072530836
16	0x3eb05a42	0.3444386
17	0xbd44afa8	-0.04801908
18	0x3eae63f9	0.34060648
19	0x3db9053e	0.09034203
20	0x3ddccb8b	0.1078101
21	0x3e9b9934	0.30390322
22	0xbd69dc85	-0.05709507
23	0x3e8b616c	0.27222764
24	0xbe4a42de	-0.1975207
25	0xbe32accc	-0.1744873
26	0xbde310c3	-0.110871814
27	0xbc09977f	-0.008397936
28	0x3e4bcd40	0.19902515
29	0xbe2d01aa	-0.16895166
30	0x3e5e2ce6	0.21696815
31	0xbdc01fa3	-0.09381034
32	0x3e04b4bd	0.12959571
33	0xbc92621a	-0.017869044
34	0xbe418223	-0.188973
35	0x3e86e339	0.26345232
36	0x3e124ffb	0.14288323
37	0xbe4566f9	-0.19277562
38	0x3e8d6f9b	0.2762421
39	0xbdc3cccf	-0.095605485

bias_hh_l0 f4 [40]
0	0x3e385f7d	0.18005176
1	0x3ea0c427	0.31399652
2	0x3db48858	0.08815068
3	0x3e984a2c	0.2974409
4	0x3eb64704	0.35601056
5	0xbe67b2f3	-0.22626857
6	0xbda38317	-0.07983988
7	0x3c71827a	0.014740581
8	0xbe5dfcab	-0.21678416
9	0xbe5094b8	-0.20369232
10	0x3de4a94b	0.111651026
11	0x3e65b11d	0.22430845
12	0x3ecddeb2	0.40208966
13	0x3e58e858	0.21182382
14	0xbd4af20e	-0.049547248
15	0x3e05c37d	0.13062854
16	0xbdf3439c	-0.1187813
17	0x3e2676a1	0.16256191
18	0xbc21254d	-0.009835553
19	0xbe87fa22	-0.26558024
20	0xbcc63147	-0.02419342
21	0x3e59c97b	0.21268265
22	0x3e10ce2e	0.14141151
23	0x3e6a47ae	0.22878906
24	0x3e618c19	0.220261
25	0x3de39e6b	0.111142
26	0x3e60043a	0.21876612
27	0xbe2a46fa	-0.16628638
28	0xbe0da543	-0.13832574
29	0x3e84dd38	0.25950027
30	0xbd1413ea	-0.036151804
31	0x3e750638	0.23928154
32	0x3e27117d	0.16315265
33	0xbe4428cc	-0.19156188
34	0x3d46f695	0.048575003
35	0xbdba686f	-0.091019504
36	0x3ebc996b	0.368358
37	0x3cffbaa0	0.03121692
38	0x3e98c1b1	0.29835275
39	0x3e1bbd16	0.1520885

weight_ih_l0 f4 [40, 22]
0	0x3e833d39	0.25632647
1	0x3e01433e	0.12623307
2	0xbe26ba4d	-0.16282006
3	0xbe95e7cb	-0.29278407
4	0xbe00c01e	-0.12573287
5	0xbe480cf4	-0.19536191
6	0xbec6828c	-0.38771474
7	0xbe3f8f06	-0.18706903
8	0x3ebf5163	0.3736678
9	0x3e93e515	0.28885713
10	0x3ddd9b54	0.10820642
11	0x3d32231e	0.04349052
12	0x3e1259e6	0.14292106
13	0xbe591fb1	-0.21203496
14	0xbd908036	-0.07055704
15	0xbe37c35f	-0.17945622
16	0x3d9087a3	0.07057121
17	0xbe3677fa	-0.17819205
18	0x3da5413e	0.080690846
19	0xbe091fb2	-0.13390997
20	0x3e87ce43	0.26524553
21	0x3dcc2028	0.09967071
22	0x3e1aefb5	0.15130503
23	0xbe2c79ad	-0.1684329
24	0x3c8efb0c	0.017453693
25	0xbd0b6811	-0.034034792
26	0x3dba3251	0.09091628
27	0x3e1dc2d2	0.1540635
28	0x3e377a5a	0.17917767
29	0xbd0a3d39	-0.033749793
30	0xbc4a8141	-0.012359918
31	0x3d2991f1	0.041398946
32	0x3da9553e	0.08268212
33	0x3dbe961d	0.093059756
34	0xbe9a96f2	-0.30193287
35	0x3da855d3	0.08219495
36	0xbeaa7e01	-0.33299258
37	0x3e7ef3ac	0.24897641
38	0xbdf7d9e7	-0.121021084
39	0x3e57df70	0.21081328
40	0x3c8afd01	0.016966345
41	0x3e49232b	0.19642322
42	0xbdb21ecb	-0.086972795
43	0x3e8649b7	0.26228115
44	0x3dad3894	0.08458057
45	0xbe16438e	-0.14674208
46	0xbe53f5a2	-0.2069917
47	0xbe71977c	-0.23592943
48	0x3e935b32	0.28780514
49	0xbc7d6d8d	-0.0154680135
50	0xbdaf1154	-0.08548227
51	0xbceefb0c	-0.029172443
52	0xb9cb061d	-0.00038723732
53	0x3daa50fd	0.083162285
54	0xbd9be0e6	-0.07611255
55	0x3b948c82	0.0045333514
56	0x3e669daf	0.22521089
57	0xbcc619f3	-0.024182295
58	0x3db1acce	0.08675538
59	0x3ea9e674	0.33183634
60	0x3e71b867	0.236055
61	0xbe88ea1a	-0.26741105
62	0xbe856a1d	-0.2605752
63	0x3dbd8e74	0.092556864
64	0x3e4b03c9	0.19825663
65	0xbda9e0fc	-0.082948655
66	0x3d237523	0.039906632
67	0x3cb62db8	0.022238597
68	0x3cd59d2c	0.026075922
69	0x3e5c9471	0.21541001
70	0xbdc41dfd	-0.09576032
71	0xbe056374	-0.1302622
72	0xbea2ae9d	-0.31773844
73	0x3d875dbe	0.06609677
74	0x3ea1f5a5	0.31632724
75	0xbd063ebd	-0.032774676
76	0xbe219b92	-0.15782002
77	0x3eb40579	0.35160425
78	0xbeb1f95e	-0.34760565
79	0xbebeae0a	-0.37242156
80	0xbe37894b	-0.17923467
81	0x3df312c2	0.11868812
82	0x3e106db4	0.14104348
83	0x3e7040fe	0.23462293
84	0x3bb50707	0.0055245194
85	0x3e863b69	0.262172
86	0xbe2a2f23	-0.16619544
87	0x3e063c39	0.1310891
88	0xbdb9fe03	-0.09081652
89	0x3db68f50	0.089140534
90	0x3e50e8bb	0.2040128
91	0xbe147a90	-0.14499879
92	0xbe2bd3b9	-0.16779985
93	0xbe8662fd	-0.26247397
94	0xbe70e872	-0.23526171
95	0xbe46c6f1	-0.19411828
96	0x3e42dbf5	0.1902922
97	0xbe90fa68	-0.28316045
98	0xbd352dc0	-0.044233084
99	0x3e93c808	0.2886355
100	0x3dd30fd3	0.103057526
101	0xbb3e9be3	-0.0029084615
102	0xbe29e6cd	-0.1659195
103	0x3e0028e0	0.12515593
104	0xbdacaec6	-0.08431773
105	0x3eab4181	0.33448413
106	0xbc830280	-0.015992403
107	0x3eaa6d8e	0.3328671
108	0x3eb61c88	0.35568643
109	0xbc9d9279	-0.019234883
110	0xbc109e14	-0.008826751
111	0xbeb37044	-0.3504659
112	0x3e1da367	0.15394364
113	0x3e9c4e71	0.30528596
114	0x3d1689da	0.03675256
115	0x3e2cacd2	0.168628
116	0xbe8ba087	-0.2727091
117	0x3da0a98e	0.0784484
118	0xbd08624c	-0.03329687
119	0xbe779c3b	-0.24180691
120	0x3d17d2c3	0.037066232
121	0xbd98bb51	-0.07457603
122	0xbd942ab1	-0.07234705
123	0x3e580c5c	0.21098465
124	0xbd2f034b	-0.04272775
125	0xbdc9ef96	-0.098601505
126	0xbe5ee071	-0.21765305
127	0x3da3d3a3	0.07999351
128	0xbe6d8865	-0.23196562
129	0xbe2c1f3d	-0.16808791
130	0x3e49f475	0.19722159
131	0xbd38b914	-0.04509838
132	0xbae14d76	-0.0017189223
133	0x3e2283a3	0.15870528
134	0xbe4e7137	-0.20160376
135	0x3e01496b	0.12625663
136	0x3e457430	0.19282603
137	0x3d9ebef5	0.07751266
138	0xbd407d43	-0.04699446
139	0xbda8ffb3	-0.08251896
140	0x3eacf317	0.33779213
141	0xbe9c3b43	-0.30513963
142	0x3e879cc1	0.2648678
143	0xbce5b83d	-0.028041953
144	0xbd801478	-0.06253904
145	0x3dffab62	0.124838606
146	0x3e0ae60d	0.1356432
147	0xbe7cbee2	-0.24682191
148	0x3e184809	0.14871229
149	0xbe352e3b	-0.17693417
150	0xbdf6caf2	-0.120504275
151	0x3b46fbd5	0.0030362506
152	0xbd33c0c5	-0.04388501
153	0x3e59b891	0.21261813
154	0x3de34800	0.11097717
155	0xbe4dab33	-0.20084839
156	0xbe9ef4b1	-0.3104606
157	0xbd41b37e	-0.047290318
158	0x3d468561	0.048467044
159	0xbd4e2eec	-0.050337717
160	0xbe9ad032	-0.30236965
161	0x3ec57269	0.3856385
162	0xbe4170dc	-0.18890709
163	0x3ddeb715	0.10874764
164	0x3e2a6dc4	0.16643435
165	0xbdd3b294	-0.103367954
166	0x3e29b18a	0.16571632
167	0xbd4882b4	-0.048952773
168	0x3de7912c	0.11306986
169	0xbd2803c6	-0.041019224
170	0x3e77151b	0.24129145
171	0x3d3e55f7	0.0464687
172	0xbe81f049	-0.25378636
173	0x3e7990a2	0.2437158
174	0x3cfa3464	0.03054256
175	0xbdc33664	-0.095318586
176	0xbe641174	-0.22272283
177	0xbbc4036d	-0.0059818537
178	0xbe83c3d1	-0.25735334
179	0x3e399193	0.18121938
180	0xbda04000	-0.07824707
181	0xbd401a4f	-0.04690009
182	0xbe82fa7e	-0.25581735
183	0x3e1b73fb	0.15180962
184	0x3d2c21a4	0.04202427
185	0xbea7a65b	-0.32744107
186	0x3e3f7db8	0.18700302
187	0xbd482f80	-0.048873425
188	0xbe44bb13	-0.19211988
189	0x3c4d33bd	0.012524542
190	0xbe8453ba	-0.25845128
191	0x3d180210	0.037111342
192	0x3db96be0	0.09053779
193	0x3e810bf8	0.25204444
194	0x3d037c6d	0.032101084
195	0x3e2b7f4c	0.16747779
196	0xbd59d6f8	-0.053183526
197	0x3c892e6e	0.016745772
198	0x3e8ad15e	0.2711286
199	0xbe59846b	-0.2124192
200	0xbe5ad604	-0.21370703
201	0x3ebbf1d8	0.3670795
202	0x3e3ec0d4	0.18628246
203	0xbd3f5502	-0.04671193
204	0xbeb4d27b	-0.35316834
205	0x3e5203c9	0.20509256
206	0x3e99c6c1	0.3003445
207	0xbe67cb84	-0.22636229
208	0x3da9c038	0.08288616
209	0xbe5e8381	-0.21729852
210	0x3d82e498	0.06391257
211	0xbe1579f3	-0.14597301
212	0xbe0bf173	-0.13666324
213	0x3eb1d22a	0.34730655
214	0xbe4c0a0e	-0.1992571
215	0x3e0f9468	0.14021456
216	0xbdd1ab84	-0.10237792
217	0xbe2e0f98	-0.16998136
218	0xbe5847df	-0.21121167
219	0x3e1855d7	0.14876495
220	0xbe62135f	-0.22077702
221	0x3eb84569	0.35990456
222	0x3e9ac150	0.3022561
223	0x3e932af8	0.2874372
224	0x3eb76887	0.35821936
225	0xbc63e2c7	-0.013909048
226	0x3e050523	0.12990241
227	0x3bf6ee7b	0.0075357533
228	0x3ec3f8ed	0.38275853
229	0xbe252c80	-0.16130257
230	0xbe615217	-0.22003971
231	0xbe27b646	-0.16378126
232	0xbdfba300	-0.12286949
233	0xbcc40e1a	-0.023932505
234	0xbe9fe8d8	-0.31232333
235	0x3dc08240	0.09399843
236	0x3e8224fb	0.2541884
237	0x3e629d38	0.22130287
238	0x3e8e980d	0.2785038
239	0xbe02a375	-0.12757666
240	0x3e9cb5cd	0.30607453
241	0x3de65725	0.1124709
242	0xbc5e6a7d	-0.0135751935
243	0x3e53d3ad	0.20686217
244	0xbd2f7ae2	-0.0428418
245	0xbb5029d3	-0.003176321
246	0x3b936134	0.0044976715
247	0x3dc05a0e	0.093921766
248	0xbdecbd3f	-0.11559533
249	0x3df48750	0.11939871
250	0x3e8aafb1	0.27087167
251	0x3cffff3e	0.031249639
252	0xbea078f3	-0.31342277
253	0xbe07f3ca	-0.13276592
254	0x3dd3bf37	0.10339206
255	0x3e8c4826	0.27398795

weight_hh_l0 f4 [40, 10]
0	0xbe812d4b	-0.25229868
1	0x3d58285e	0.052772872
2	0x3e58d96d	0.21176691
3	0xbc555535	-0.013020803
4	0xbdc70237	-0.09717219
5	0xbe1d0d2e	-0.15337059
6	0xbea01ed0	-0.31273508
7	0x3e7ea378	0.24867046
8	0x3e815914	0.25263274
9	0x3e8ab35c	0.27089965
10	0xbe630942	-0.221715
11	0x3c891db5	0.016737798
12	0xbd1b5800	-0.03792572
13	0x3dbaa955	0.09114329
14	0xbe0ef662	-0.13961175
15	0x3dbf41e7	0.09338742
16	0xbb0856a7	-0.0020803602
17	0xbec70073	-0.3886753
18	0x3e73b9f7	0.23801409
19	0xbe1c8110	-0.15283608
20	0x3e07d148	0.13263428
21	0xbe42ba18	-0.19016302
22	0x3e7ffa05	0.24997719
23	0xbc1b515c	-0.009479847
24	0x3e81665a	0.252734
25	0x3e89457e	0.2681083
26	0x3e3278b0	0.17428851
27	0x3e6e994b	0.23300664
28	0x3e58dfda	0.21179143
29	0xbe8fb26a	-0.28065807
30	0xbe67a428	-0.22621214
31	0xbe5ab39e	-0.21357581
32	0x3d2a475f	0.04157197
33	0x3e719e6e	0.23595592
34	0x3e92041d	0.28518763
35	0x3dace7c2	0.08442642
36	0x3eb7d795	0.35906664
37	0xbd9e7486	-0.07737069
38	0x3e998e7b	0.29991516
39	0x3da51548	0.080607
40	0x3d888a12	0.0666696
41	0x3dac2c57	0.08406895
42	0xbe4dd5da	-0.20101109
43	0x3dc8cbeb	0.09804519
44	0x3eac1e7e	0.33617014
45	0xbc389911	-0.011266963
46	0x3e41fa7d	0.1894321
47	0xbe538896	-0.20657572
48	0xbe97ca2e	-0.29646438
49	0xbd3a7aa7	-0.045527127
50	0x3e19c367	0.15015946
51	0x3e208bbe	0.15678307
52	0x3e12710f	0.14300941
53	0x3cf37e8b	0.029723426
54	0x3edbb4bd	0.4291133
55	0x3d80b905	0.0628529
56	0x3ddb277d	0.10700891
57	0xbe465042	-0.19366553
58	0xbe8904a0	-0.2676134
59	0x3c888d6f	0.016669003
60	0xbe4967a6	-0.19668445
61	0xbd32f4e1	-0.043690566
62	0x3e50b633	0.20382003
63	0x3d9267d1	0.07148708
64	0x3e7061c2	0.23474792
65	0x3e9eba49	0.310015
66	0x3dcf8369	0.101324864
67	0xbce5e00d	-0.028060937
68	0x3d5dbfd1	0.05413801
69	0x3db53212	0.08847441
70	0x3dc82808	0.0977326
71	0x3e7c620d	0.24646778
72	0xbe41ad98	-0.18913877
73	0xbe91d072	-0.28479344
74	0xbcd8cf14	-0.02646593
75	0xbe657886	-0.22409257
76	0x3d667edc	0.056273326
77	0xbd974990	-0.07387078
78	0x3e8a49f7	0.27009556
79	0xbeada0a3	-0.3391162
80	0xbdd4063b	-0.10352751
81	0x3d01fea4	0.031736985
82	0x3d420092	0.047363825
83	0x3d0c5ef5	0.034270246
84	0x3ea34733	0.31890258
85	0x3e2c1676	0.16805443
86	0x3e96fd79	0.2949026
87	0x3e11a88c	0.14224452
88	0xbc33027e	-0.010925887
89	0xbcb4a97b	-0.02205347
90	0xbe31d1d8	-0.17365205
91	0x3d990add	0.07472775
92	0xbeb50747	-0.35357115
93	0x3e2ec252	0.17066315
94	0x3e7d0ec4	0.24712664
95	0xbce726c1	-0.028216721
96	0xbdbcaf99	-0.0921318
97	0x3ceed93a	0.029156316
98	0x3e3a8230	0.18213725
99	0x3e65eda5	0.22453935
100	0x3e3f679f	0.18691872
101	0x3e3c5b00	0.18394089
102	0x3ea4b8e6	0.32172316
103	0x3e80eff0	0.25183058
104	0x3ddcf6a6	0.10789232
105	0x3e87a629	0.26493958
106	0xbd557050	-0.052109063
107	0x3e955fb1	0.2917457
108	0x3e20ebd7	0.15714966
109	0xbe130cb3	-0.14360313
110	0xbe37efb5	-0.17962535
111	0xbe652302	-0.22376636
112	0x3e53760c	0.206505
113	0xbd889aca	-0.06670149
114	0xbe27f599	-0.16402282
115	0x3dca9a98	0.09892768
116	0xbe16c8cc	-0.14725035
117	0xbd667bff	-0.056270596
118	0x3e9c8c12	0.30575615
119	0xbec281a9	-0.37989548
120	0xbe5d7e2c	-0.21630162
121	0x3e158489	0.1460134
122	0x3ddac649	0.10682351
123	0x3e865d09	0.26242855
124	0xbe786050	-0.2425549
125	0xbd5543e6	-0.052066706
126	0x3e980a51	0.2969537
127	0xbdc85631	-0.09782065
128	0xbddef0c9	-0.1088577
129	0xbdfd017d	-0.123537995
130	0xbe24bca8	-0.16087592
131	0x3e79653e	0.24355027
132	0xbeb512b0	-0.3536582
133	0x3dabc4a5	0.08387116
134	0x3d915209	0.07095725
135	0x3ce6b2d7	0.02816145
136	0xbe2224d0	-0.15834355
137	0xbe6cf062	-0.23138574
138	0x3e8e44af	0.27786776
139	0xbe113fa6	-0.14184436
140	0xbe49be4d	-0.197015
141	0x3e5c427c	0.21509737
142	0x3cfa576a	0.03055926
143	0xbd8d3d9f	-0.06896519
144	0x3eb69624	0.35661423
145	0xbe9624da	-0.2932499
146	0xbd57cfa4	-0.052688256
147	0xbe46badc	-0.19407219
148	0xbe58a1cb	-0.21155469
149	0xbe44a587	-0.19203769
150	0x3def872a	0.116957024
151	0xbd42bc37	-0.047542777
152	0xbe8c106e	-0.27356285
153	0x3d3d1693	0.046164107
154	0x3d9b4e21	0.07583261
155	0x3c89e639	0.016833412
156	0xbe5b33d6	-0.21406493
157	0xbe2779dd	-0.16355081
158	0x3d831b05	0.06401638
159	0xbec77a86	-0.38960665
160	0xbe50ad07	-0.20378505
161	0x3e86a5d0	0.2629838
162	0xbdd52661	-0.10407711
163	0x3e1a1111	0.15045573
164	0x3e7d2ff8	0.2472533
165	0x3d8a39ca	0.06749304
166	0xbea691ae	-0.3253302
167	0xbd01f303	-0.031725895
168	0x3d84e5af	0.06489121
169	0xbe4987df	-0.19680737
170	0xbb84c5d8	-0.004051905
171	0xbdbf8beb	-0.09352859
172	0xbd835954	-0.06413522
173	0xbe21f780	-0.1581707
174	0x3e69ec96	0.22844157
175	0xbe1100b7	-0.14160429
176	0x3d60e3f9	0.05490491
177	0x3d7aef0e	0.061263137
178	0xbd38bd46	-0.04510238
179	0x3dceb4e0	0.10093093
180	0x3ce7b3b8	0.028283939
181	0x3ea1af07	0.31578848
182	0x3e19a563	0.15004496
183	0xbe7ec1a5	-0.24878557
184	0x3e62d9c3	0.22153382
185	0x3e0550aa	0.13019052
186	0x3e780393	0.24220113
187	0x3e68ad33	0.2272232
188	0xbe3e152e	-0.18562767
189	0xbe9cf3de	-0.30654806
190	0x3e18ed6c	0.1493432
191	0x3ec87571	0.391521
192	0x3dcc4cb3	0.09975567
193	0xbebb706f	-0.36609218
194	0x3dfd1429	0.12357361
195	0x3e6109bf	0.21976374
196	0xbd4bb722	-0.049735196
197	0x3d6acc68	0.057323843
198	0xbde96bac	-0.1139749
199	0x3e6b2a64	0.2296539
200	0xbe888ffb	-0.26672348
201	0xbbfa9284	-0.0076468606
202	0xbe75d9b0	-0.24008822
203	0xbda1faec	-0.07909188
204	0xbe8d9ba2	-0.276578
205	0xbe53cd58	-0.20683801
206	0xbdb6b4fb	-0.08921238
207	0x3e90d053	0.2828394
208	0xbdf78b03	-0.12087061
209	0xbe2facc1	-0.17155744
210	0x3e54fbbf	0.20799159
211	0xbddb2f4f	-0.10702383
212	0xbe5ad7ba	-0.21371356
213	0xbe2c17f0	-0.16806006
214	0x3e1465f3	0.14492016
215	0xbe3c4ddb	-0.18389075
216	0xbcda6a37	-0.026661975
217	0xbda27374	-0.07932177
218	0xbe616f63	-0.22015147
219	0x3de806a1	0.11329389
220	0xbdb5d029	-0.08877594
221	0xbe8dca6c	-0.27693498
222	0xbdf4c7e1	-0.119521864
223	0x3dc8db33	0.09807434
224	0xbe58ee4b	-0.21184652
225	0x3e0e7dbb	0.1391515
226	0xbe6aef61	-0.22942878
227	0x3c89e27a	0.016831625
228	0x3e6a3234	0.22870713
229	0xbc755058	-0.014972769
230	0x3d4f10f1	0.050553266
231	0x3da288aa	0.07936223
232	0xbc9f3cef	-0.019438235
233	0x3ea79a2d	0.32734814
234	0x3decd04b	0.11563166
235	0xbe71e8cf	-0.23623966
236	0x3dbe5410	0.092933774
237	0x3ebfe0a4	0.37476075
238	0x3d1fc5dd	0.039007057
239	0xbe827a3b	-0.2548388
240	0x3e6a3aef	0.22874044
241	0xbe80e0f2	-0.2517162
242	0x3d3d83d1	0.046268288
243	0x3ba96b15	0.005170236
244	0x3eb9790a	0.36225158
245	0x3d7ddae2	0.06197632
246	0x3df4cfe8	0.119537175
247	0xbe989702	-0.2980271
248	0xbe590680	-0.21193886
249	0x3e2f1fed	0.17102022
250	0xbe44a9fe	-0.19205472
251	0x3cb2f843	0.021846896
252	0xbdc690bd	-0.096955754
253	0x3958917a	0.0002065356
254	0xbdb99644	-0.09061864
255	0xbceaadd8	-0.028647348

bias_ih_l0 f4 [40]
0	0xbd78530f	-0.060626086
1	0x3ea6493f	0.32477757
2	0xbde3ca23	-0.11122539
3	0xbe7b1a88	-0.2452184
4	0x3e081c9a	0.1329216
5	0x3cf46cde	0.029837068
6	0x3e43b16d	0.19110651
7	0xbe29e354	-0.16590625
8	0x3e930249	0.2871268
9	0x3e5c9f0c	0.21545047
10	0x3dd4e1b7	0.10394614
11	0xbe6e3dbd	-0.23265739
12	0x3e7a26e9	0.24428906
13	0xbe20009d	-0.15625234
14	0x3d92f53a	0.071756795
15	0xbdf22b9f	-0.11824726
16	0xbe6b8ed4	-0.23003703
17	0x3d2543e2	0.04034794
18	0x3e84c4e4	0.25931466
19	0x3ec3ebbc	0.3826579
20	0xbd809dd0	-0.062801
21	0x3e983b62	0.29732805
22	0x3d51e909	0.05124763
23	0xbbfcc1bf	-0.007713526
24	0x3e035f99	0.12829436
25	0xbe171678	-0.14754665
26	0xbe7a4535	-0.24440463
27	0xbc0a4a0e	-0.008440508
28	0x3ebb3f96	0.3657195
29	0xbe9ff69e	-0.3124284
30	0xbdcf61cf	-0.101260774
31	0x3eba18c2	0.36347014
32	0x3c6cf2a7	0.01446215
33	0x3e86df7e	0.26342386
34	0xbc13ef31	-0.009029196
35	0x3e85ebd8	0.26156497
36	0x3d868355	0.06568018
37	0xbe178193	-0.14795522
38	0xbe9aeb07	-0.30257437
39	0xbe783b2a	-0.2424132

bias_hh_l0 f4 [40]
0	0x3dd590a5	0.104279794
1	0x3e6afce2	0.2294803
2	0x3eaa7cb5	0.3329827
3	0xbbe830c6	-0.0070858924
4	0xbe6e5bcf	-0.2327721
5	0xbe2c4ab7	-0.16825376
6	0xbe8cef61	-0.27526382
7	0xbe345fcd	-0.1761467
8	0x3dc7f493	0.09763446
9	0x3cb2df78	0.021835074
10	0x3e480d95	0.19536431
11	0xbc8efb0a	-0.01745369
12	0xbe900617	-0.28129646
13	0xbe3879cf	-0.18015216
14	0x3eaea38c	0.3410915
15	0xbe021ab9	-0.12705506
16	0x3d33a5ea	0.0438594
17	0x3d9957e8	0.0748747
18	0xbe57f93b	-0.21091168
19	0x3e4a53c9	0.19758524
20	0xbb83e25a	-0.004024786
21	0xbe83db67	-0.25753328
22	0xbe80e7bf	-0.25176808
23	0xbe94282b	-0.28936896
24	0x3c2a0687	0.010377533
25	0xbda826c7	-0.08210521
26	0x3dc151e6	0.09439449
27	0xbe94e935	-0.29084173
28	0xbe5c1c5a	-0.2149519
29	0xbe0777ce	-0.13229296
30	0x3e9d1dca	0.3068679
31	0x3c9c1133	0.01905117
32	0xbde2ddd2	-0.11077465
33	0x3e32c6d7	0.17458664
34	0x3b464c7f	0.0030257998
35	0xbd132369	-0.03592244
36	0xbdcd26b5	-0.100171484
37	0xbe4e2f59	-0.20135249
38	0x3e0dd6ed	0.13851519
39	0x3e111225	0.14167078
