LSTM/code/model/old_model/model_mk7_50epoch_0.1678trainloss_0.2014validloss.pt (torch, 46468 bytes, 32 tensors)

weight_ih_l0 f4 [40, 22]
0	0x3bccb801	0.006247521
1	0x3e1e0970	0.15433288
2	0x3ea808b5	0.32819143
3	0xbe9ae8cf	-0.30255744
4	0xbe3be082	-0.18347362
5	0xbd498dbb	-0.04920743
6	0x3ea64195	0.3247191
7	0xbe6f6ae6	-0.23380622
8	0xbe9cb3e7	-0.30606005
9	0xbe7f18a8	-0.2491175
10	0x3dba7fcc	0.091064066
11	0x3de44b89	0.1114722
12	0x3db78119	0.0896017
13	0xbe63b4a6	-0.2223688
14	0xbd276b3a	-0.040873744
15	0xbe4fdec4	-0.20299822
16	0x3e357e68	0.17724001
17	0x3e6cc861	0.23123313
18	0x3d89ca7a	0.067280725
19	0x3d959c51	0.073052056
20	0x3eadf3f9	0.339752
21	0xbeadf80e	-0.33978313
22	0xbc304295	-0.010758062
23	0xbe80ad03	-0.25131997
24	0xbdbdd225	-0.092685975
25	0x3e5ef6f9	0.217739
26	0x3e55a16b	0.20862357
27	0x3db01aa7	0.085988335
28	0xbe9dc684	-0.30815518
29	0xbe4f8038	-0.20263755
30	0xbe2fb6bd	-0.17159553
31	0x3e60315b	0.21893828
32	0xbd3f6068	-0.0467228
33	0xbd7b8f3d	-0.0614159
34	0xbe42c6ed	-0.19021197
35	0x3e0f1d94	0.13976127
36	0x3e58bbc6	0.2116538
37	0xbd89bb16	-0.06725137
38	0xbe3a7217	-0.18207584
39	0xbdb4892b	-0.08815225
40	0xbdd087c5	-0.10182146
41	0xbe79bc7c	-0.24388307
42	0x3e41d7c7	0.18929969
43	0x3e993477	0.2992284
44	0xbe0bacbd	-0.13640113
45	0xbe933bf9	-0.28756693
46	0xbe534c46	-0.20634565
47	0x3e6010df	0.21881436
48	0xbc158977	-0.009127012
49	0xbe9eac47	-0.30990812
50	0xbea014d0	-0.3126588
51	0x3ccee795	0.025256911
52	0xbe1bba4a	-0.15207782
53	0x3e5adde3	0.21373706
54	0xbe77ca37	-0.24198233
55	0xbd95b7fa	-0.07310481
56	0x3e555654	0.20833713
57	0x3dee9179	0.116488405
58	0xbe8b1a59	-0.2716854
59	0x3d976518	0.07392329
60	0x3eb56510	0.35428667
61	0xbdcaa4fd	-0.0989475
62	0xbeaeb4b0	-0.3412223
63	0xbe314fca	-0.17315593
64	0xbdb2b0c9	-0.08725125
65	0x3e93c490	0.28860903
66	0xbd448905	-0.047982235
67	0xbe929682	-0.28630453
68	0x3e69f8bf	0.22848795
69	0x3e3aa776	0.18227944
70	0xbdaaab9e	-0.08333515
71	0xbe6c86d4	-0.23098308
72	0x3ce89c9a	0.028394986
73	0xbc0db60f	-0.008649363
74	0x3d7228bc	0.05912088
75	0xbe21ba97	-0.15793835
76	0xbe06cf11	-0.13164927
77	0x3eae707f	0.34070203
78	0xbd58e3cb	-0.052951615
79	0x3e7add29	0.24498428
80	0x3e8835a5	0.26603428
81	0x3e629ebc	0.22130865
82	0x3d61e168	0.055146605
83	0xbe21e843	-0.15811257
84	0xbd44b9d3	-0.04802878
85	0x3ca8c7fb	0.02060317
86	0xbd9b3e7c	-0.07580277
87	0x3e453c56	0.19261298
88	0x3dbb89ab	0.091571175
89	0xbe983ceb	-0.29733977
90	0xbea9ba38	-0.33149886
91	0x3e999fdc	0.30004776
92	0x3dda21cb	0.10650977
93	0xbe42f9d0	-0.19040608
94	0xbdb99731	-0.090620406
95	0xbe68850f	-0.22707008
96	0xbe5d9a2c	-0.21640843
97	0xbd3f8b3c	-0.046763644
98	0x3dbccab6	0.092183515
99	0xbd715b42	-0.05892492
100	0x3d26fbb3	0.040767383
101	0xbebbb3c0	-0.36660576
102	0x3e05b159	0.13055934
103	0xbd8b2567	-0.06794243
104	0xbde0bc7d	-0.10973451
105	0xbeb67f64	-0.35644066
106	0xbe7b2e35	-0.24529345
107	0x3e549e83	0.20763592
108	0x3c9381f8	0.01800631
109	0xbd946820	-0.07246423
110	0xbe3516a8	-0.17684424
111	0xbe1b07a7	-0.15139638
112	0x3e05ecef	0.13078664
113	0x3e415581	0.18880273
114	0xbdcc38bd	-0.099717595
115	0xbe9128d4	-0.28351462
116	0xbd72b72b	-0.059256714
117	0x3e4fd980	0.20297813
118	0xbcab2182	-0.020890001
119	0xbe62baa4	-0.2214151
120	0x3e5a82ac	0.2133891
121	0xbe100752	-0.14065292
122	0xbe9b4e01	-0.3033295
123	0xbdf77a3c	-0.12083861
124	0x3d8e7011	0.06954969
125	0x3d2bb68b	0.041922133
126	0xbe843e56	-0.2582881
127	0xbe690be5	-0.22758444
128	0xbe6bcb68	-0.23026812
129	0xbe32d2e4	-0.17463261
130	0x3e8d0fb1	0.27551034
131	0xbe245eef	-0.1605184
132	0xbe27a77f	-0.16372488
133	0xbe13a3cf	-0.14417957
134	0xbd85a851	-0.065262444
135	0x3db40ae4	0.0879114
136	0x3e65fd71	0.22459961
137	0xbe140e59	-0.14458598
138	0x3dff53e1	0.124671705
139	0xbe560fb4	-0.20904428
140	0xbb7aa2da	-0.003824404
141	0x3e92f59a	0.28703004
142	0xbe7eb428	-0.24873412
143	0x3e2674d2	0.16255501
144	0x3ea3adc6	0.31968516
145	0xbc8bb787	-0.017055286
146	0x3da7327f	0.08163928
147	0xbe735278	-0.23761928
148	0x3d569ba1	0.052394513
149	0xbd4e8555	-0.050420124
150	0xbe128a11	-0.1431048
151	0x3e2f4ce5	0.17119177
152	0x3c9377e7	0.01800151
153	0x3e3f3f63	0.18676524
154	0x3e1ed279	0.15509976
155	0x3ded92d9	0.116002746
156	0x3eb3d2b1	0.35121682
157	0x3e2e9434	0.17048723
158	0xbe4c2ab4	-0.19938165
159	0xbe955192	-0.29163796
160	0x3eb07084	0.34460843
161	0xbb60e57e	-0.0034316476
162	0xbe8c8ae2	-0.2744971
163	0xb9e0b011	-0.0004285579
164	0xbe887538	-0.2665193
165	0xbe0d6f20	-0.13811922
166	0xbe5c5ee7	-0.21520577
167	0x3daed058	0.08535832
168	0x3cb14fa5	0.021644423
169	0xbdaa5694	-0.08317295
170	0xbe83f876	-0.25775498
171	0x3e483ecf	0.1955521
172	0xbdd0850d	-0.101816274
173	0xbd739c84	-0.059475437
174	0xbdb60f2f	-0.08889615
175	0xbe81f68b	-0.2538341
176	0xbe87498e	-0.26423305
177	0x3e1e2a01	0.1544571
178	0xbe6ed297	-0.23322521
179	0x3e40ac26	0.1881567
180	0x3e22e35a	0.1590704
181	0xbe209394	-0.15681297
182	0x3cefb256	0.029259842
183	0xbe4c14e6	-0.19929847
184	0xbe18daad	-0.14927168
185	0xbea6ef8a	-0.3260463
186	0xbe89841b	-0.268586
187	0xbdf21c51	-0.11821807
188	0x3e31cf10	0.17364144
189	0xbe864431	-0.262239
190	0xbea57136	-0.32312936
191	0xbddc177a	-0.10746665
192	0xbea28c0c	-0.31747472
193	0xbed60a08	-0.41804528
194	0x3e3655ff	0.17806242
195	0xbdbe603f	-0.09295701
196	0x3e6df676	0.23238549
197	0x3e1b1767	0.15145646
198	0xbe92fd91	-0.2870908
199	0xbdb14f87	-0.08657747
200	0x3e8deacf	0.27718207
201	0xbd9b09b6	-0.075702116
202	0xbdf76bd0	-0.120811105
203	0x3e731607	0.23738872
204	0xbddb27ed	-0.107009746
205	0xbe6e5518	-0.23274648
206	0xbe79d26f	-0.2439668
207	0x3de3f800	0.111312866
208	0x3e264639	0.16237725
209	0x3e078a4d	0.13236351
210	0x3e069ae3	0.13145022
211	0xbe04762b	-0.12935703
212	0x3e5a833c	0.21339124
213	0x3e31e140	0.17371082
214	0xbe8b81d7	-0.27247497
215	0xbcc25d32	-0.02372608
216	0xbe925bfc	-0.28585804
217	0x3def36c1	0.11680365
218	0x3e9da3e8	0.30789113
219	0x3e5fd847	0.21859847
220	0x3d044bf3	0.032298993
221	0x3e121f49	0.14269747
222	0x3e70dc1f	0.2352147
223	0xbe7b47e3	-0.24539141
224	0xbdfbc9ac	-0.12294325
225	0xbe8bd7c7	-0.27313063
226	0xbd2179d8	-0.03942284
227	0x3e942824	0.28936875
228	0xbe20536f	-0.15656827
229	0xbe688c03	-0.2270966
230	0x3ca8fee2	0.02062935
231	0xbe8c10a3	-0.27356443
232	0xbeb6d2f2	-0.35707814
233	0xbe6dcbae	-0.23222229
234	0x3e179eb2	0.14806631
235	0x3e4766c8	0.19472802
236	0x3e283d0b	0.16429536
237	0xbea5778c	-0.3231777
238	0x3dc8e3a1	0.09809042
239	0xbe2a0c5e	-0.1660628
240	0x3e6e08e7	0.23245583
241	0x3dc386f4	0.09547225
242	0xbe9cd38e	-0.30630153
243	0x3e3d1027	0.18463193
244	0xbe518b28	-0.2046324
245	0xbe5cb3b1	-0.21552922
246	0xbd9d1cac	-0.07671484
247	0xbe40f6b7	-0.18844114
248	0x3de25b9e	0.11052631
249	0x3e7aaf51	0.2448094
250	0x3dc3ba61	0.09557033
251	0x3b148b8c	0.0022666184
252	0xbeb13994	-0.3461424
253	0x3e85e75d	0.2615308
254	0x3e5cd122	0.21564153
255	0xbd9064c4	-0.070504695

weight_hh_l0 f4 [40, 10]
0	0x3e32f8d1	0.17477728
1	0xbe0adce0	-0.1356082
2	0xbca081db	-0.01959317
3	0x3d2273b3	0.03966112
4	0x3e0d63f2	0.13807657
5	0x3e882ede	0.26598257
6	0xbe0dab72	-0.13834932
7	0x3cc4cb24	0.024022646
8	0xbeb8628f	-0.36012694
9	0xbda004b2	-0.078133956
10	0x3e83b3d9	0.2572315
11	0x3b62b385	0.0034591865
12	0x3d53c4db	0.051701408
13	0xbea0f3a7	-0.31435892
14	0x3d519926	0.051171444
15	0xbe0c29d3	-0.1368783
16	0xbe616a19	-0.2201313
17	0xbe41f7c7	-0.18942176
18	0x3e1314a4	0.14363343
19	0x3d386939	0.045022223
20	0xbd831c00	-0.06401825
21	0x3eadbc20	0.3393259
22	0x3da71ede	0.08160184
23	0xbe32705b	-0.17425673
24	0x3dadb5c2	0.08481933
25	0xbda8b7b1	-0.08238161
26	0xbcf952ae	-0.030434933
27	0xbe38a5d8	-0.18032014
28	0x3dd1c3dc	0.10242435
29	0xbd65485c	-0.05597721
30	0xbe7c2d06	-0.2462655
31	0x3e62a7d8	0.2213434
32	0x3c7c8fc9	0.01541514
33	0xbe82820f	-0.25489852
34	0xbcd91972	-0.026501391
35	0xbe83735e	-0.25673956
36	0x3e8b0835	0.271547
37	0x3e4cf94a	0.20016971
38	0xbeca3866	-0.39496154
39	0x3c84b2e7	0.016198589
40	0x3c9ef976	0.019406062
41	0x3e908800	0.2822876
42	0x3ebe5ef0	0.37181807
43	0xbe8931ff	-0.26795956
44	0x3d132e80	0.035933018
45	0xbdbfec8e	-0.09371291
46	0x3eba166d	0.36345235
47	0x3ebee5e2	0.37284762
48	0xbe2d3ce7	-0.16917764
49	0x3e74a94b	0.23892705
50	0xbd655945	-0.055993337
51	0xbda7a737	-0.081861906
52	0x3d6c48a3	0.05768646
53	0x3e87d3d3	0.26528797
54	0xbdd42816	-0.10359208
55	0xbddd5092	-0.10806383
56	0x3e87ea3c	0.26545894
57	0xbdc96148	-0.09833008
58	0xbdbbafd5	-0.09164397
59	0xbe62a05f	-0.22131489
60	0xbda24809	-0.07923896
61	0x3eafd506	0.3434221
62	0x3e057062	0.13031152
63	0x3e32d507	0.17464076
64	0xbd6089ee	-0.05481904
65	0x3cfb99a6	0.030712914
66	0x3d8e7962	0.06956746
67	0x3dd6e820	0.10493493
68	0x3d013ad6	0.03155025
69	0xbe0f8c64	-0.14018399
70	0xbd283c9a	-0.04107342
71	0x3dbb6190	0.09149468
72	0xbe90411d	-0.28174677
73	0xbbe4a325	-0.006977456
74	0xbc4fdb8d	-0.012686622
75	0x3e414c78	0.18876827
76	0x3dfbc935	0.122942366
77	0xbdc506f8	-0.0962047
78	0xbe8cc5bc	-0.2749461
79	0xbe91b7b2	-0.2846046
80	0xbeb787eb	-0.35845885
81	0x3da88962	0.08229329
82	0xbe2da2c1	-0.16956617
83	0xbec35469	-0.38150337
84	0x3eb15a51	0.34639218
85	0xbebc8a44	-0.36824238
86	0x3eb68d3a	0.35654622
87	0x3ec5fbd1	0.38668683
88	0x3ebc510d	0.36780587
89	0xbe342243	-0.17591195
90	0xbe89f172	-0.2694202
91	0xbd88569b	-0.06657144
92	0x3eb5c7ec	0.3550409
93	0x3e18e2b4	0.1493023
94	0x3ea4a52f	0.32157275
95	0x3c2c9b8f	0.010535135
96	0x3e8c8e33	0.2745224
97	0x3e966575	0.2937428
98	0x3e39b50d	0.18135472
99	0xbdda020a	-0.1064492
100	0x3e65a106	0.22424707
101	0x3dfdca2e	0.12392078
102	0xbe36b66a	-0.17843023
103	0xbd0a8f1d	-0.03382789
104	0xbdcd1738	-0.10014194
105	0x3cf95d77	0.030440075
106	0x382b977c	4.0910658e-05
107	0xbdd646e7	-0.10462742
108	0xbef1bd36	-0.4721467
109	0x3c41c222	0.01182607
110	0xbc93480f	-0.017978696
111	0x3e85fbf3	0.26168784
112	0xbd7181c5	-0.05896165
113	0xbe2d5f97	-0.16930996
114	0x3c09a912	0.008402126
115	0xbea7b12d	-0.32752362
116	0x3d8211e2	0.06351067
117	0xbd36da8b	-0.044642013
118	0x3e3139b4	0.17307168
119	0x3e9e4dee	0.3091883
120	0xbe7fb1b5	-0.24970134
121	0x3e63f251	0.22260405
122	0xbdc51c82	-0.09624578
123	0x3c3a226d	0.011360747
124	0x3e91e529	0.28495148
125	0xbe9f285d	-0.31085482
126	0xbdf7d0a9	-0.12100346
127	0x3ca0cdb2	0.019629333
128	0x3d2e00fe	0.042481415
129	0xbd9f9dff	-0.07793807
130	0x3c0cf179	0.008602493
131	0x3e962a5c	0.29329193
132	0x3d8ce2c6	0.06879191
133	0x3e351c4d	0.17686577
134	0x3e76741e	0.24067733
135	0x3e706430	0.23475718
136	0x3eadf363	0.33974752
137	0xbe6efbd6	-0.23338255
138	0xbed46489	-0.41482952
139	0x3e094615	0.1340564
140	0x3db49e3a	0.08819242
141	0xbe4a8cf4	-0.19780332
142	0x3e9e7928	0.3095181
143	0xbe804d4a	-0.25058967
144	0x3e7fc752	0.24978378
145	0xbe82587b	-0.2545813
146	0x3c28c9d9	0.0103020305
147	0x3cfeed9a	0.031119157
148	0xbe90cd59	-0.28281668
149	0x3e3843b8	0.17994583
150	0xbe8f41da	-0.27979928
151	0xbe454deb	-0.19268005
152	0xbdf222e6	-0.118230626
153	0x3e85f9a7	0.26167032
154	0xbd3b1e62	-0.045683272
155	0x3e88afe5	0.26696697
156	0xbe8e8a9d	-0.2784013
157	0x3da15f17	0.07879465
158	0x3e93a853	0.2883936
159	0x3e5d9f24	0.21642739
160	0xbe0c779c	-0.13717502
161	0x3ea20984	0.31647885
162	0x3e841333	0.25795898
163	0xbe450710	-0.19240975
164	0x3e57e183	0.2108212
165	0xbe83e0f2	-0.25757557
166	0xbe3febe9	-0.18742336
167	0xbd75bbe0	-0.059993625
168	0x3e205371	0.1565683
169	0xbe7cdd9e	-0.24693915
170	0x3e97e713	0.29668483
171	0xbe9f07cc	-0.31060636
172	0xbe9193ee	-0.28433174
173	0x3d511427	0.05104461
174	0xbe269e45	-0.16271313
175	0x3e2c4687	0.16823779
176	0x3e862914	0.26203215
177	0x3dab1097	0.08352774
178	0x3eb6a141	0.35669902
179	0xbd1de050	-0.038544
180	0x3d5284cc	0.051396176
181	0xbea03282	-0.31288534
182	0x3ea7477a	0.3267172
183	0xbeac2d7e	-0.33628458
184	0x3e7469dc	0.23868507
185	0xbe96fd23	-0.29490003
186	0x3c3dbdd7	0.011580906
187	0x3e158cf7	0.14604555
188	0xbe3cf55e	-0.18452975
189	0x3e8b8e75	0.27257124
190	0x3de1952d	0.11014781
191	0x3db99cde	0.09063123
192	0x3c618085	0.013763552
193	0x3e646cbc	0.22307104
194	0x3bf309e2	0.0074169496
195	0x3dbaa67b	0.09113785
196	0xbd3337c2	-0.043754347
197	0xbdb00ec7	-0.085965686
198	0xbe5e405c	-0.21704239
199	0xbe82679f	-0.25469682
200	0x3e43db7d	0.19126697
201	0x3e730124	0.23730904
202	0xbe7b6c4e	-0.24553034
203	0x3e7664f1	0.24061944
204	0x3e73fd95	0.23827203
205	0xbdaef550	-0.085428834
206	0x3eacface	0.337851
207	0xbe550c4d	-0.20805474
208	0x3e8d234b	0.2756599
209	0xbe690092	-0.22754124
210	0x3e8c08e7	0.27350542
211	0x3de35f68	0.11102182
212	0x3e82bc5b	0.2553433
213	0x3b8d586a	0.0043135183
214	0xbe9e754c	-0.30948865
215	0x3ea21c8b	0.31662402
216	0xbe9c6b19	-0.3055046
217	0x3e418b44	0.18900782
218	0xbe083ec3	-0.13305192
219	0x3d4edce0	0.05050361
220	0xbe17b908	-0.14816678
221	0xbe5fe19a	-0.21863404
222	0xbb8a465e	-0.004219814
223	0x3e76877e	0.24075124
224	0x3e3add6e	0.18248531
225	0x3dadf308	0.0849362
226	0xbe0d532c	-0.13801259
227	0xbea08bf3	-0.31356773
228	0xbd5b4c5b	-0.053539615
229	0xbe810cf4	-0.25205195
230	0x3dec93af	0.11551606
231	0x3d482ba9	0.048869763
232	0x3df43849	0.11924798
233	0xbe07b292	-0.13251713
234	0xbe59578e	-0.21224806
235	0xbd5109bf	-0.051034685
236	0xbc99c66e	-0.018771376
237	0xbe18867a	-0.14895049
238	0xbdb63fce	-0.088988885
239	0xbe98a331	-0.29812005
240	0xbe7bee8d	-0.24602719
241	0x3db9c2a5	0.090703286
242	0x3dd47d84	0.10375503
243	0x3dc8234f	0.097723596
244	0x3e90ce9a	0.28282624
245	0xbeab83ed	-0.3349909
246	0x3c5ec0fc	0.013595816
247	0xbdc7f8a8	-0.09764224
248	0x3e8b6732	0.2722717
249	0x3e45ef14	0.19329482
250	0x3e57beab	0.21068828
251	0x3e7e0f90	0.24810624
252	0xbe43cdcd	-0.19121476
253	0xbe49adbc	-0.1969518
254	0x3e0c0bb8	0.13676345
255	0x3d29ca5b	0.041452747

bias_ih_l0 f4 [40]
0	0x3e6c612d	0.23083945
1	0x3df589cf	0.119891755
2	0x3ea11dc3	0.3146802
3	0xbd56725f	-0.052355167
4	0xbdbc2cd9	-0.091882415
5	0xbd951e2e	-0.07281147
6	0x3e09e753	0.1346715
7	0xbd934ed7	-0.07192772
8	0x3e3816f4	0.17977506
9	0xbcf8bd10	-0.03036359
10	0xbd5742ba	-0.05255387
11	0x3e539998	0.2066406
12	0xbe6d0aa3	-0.23148589
13	0x3ea72b27	0.3265011
14	0xbd39bcf2	-0.045346208
15	0x3e0d7641	0.13814642
16	0xbdb5287d	-0.08845613
17	0xbc493210	-0.012280002
18	0xbe460033	-0.19336013
19	0xbe1f4fc7	-0.15557776
20	0x3d802ca4	0.062585145
21	0xbd3960f1	-0.045258466
22	0x3d0b3a1e	0.03399097
23	0xbe37d54d	-0.17952462
24	0xbe6db5bb	-0.23213856
25	0xbdd011be	-0.10159634
26	0xb8e4f4c6	-0.0001091748
27	0xbd7c8b7f	-0.06165647
28	0x3e876b3e	0.26449007
29	0xbe2f1e07	-0.17101298
30	0xbe4db828	-0.20089781
31	0x3e89213e	0.26783174
32	0x3dccdb76	0.10002796
33	0xbd9b8ad6	-0.0759484
34	0xbdf5b2be	-0.11996983
35	0x3d713db6	0.058896743
36	0xbe0599d4	-0.13046962
37	0x3d8f42ce	0.06995164
38	0xbdf3273d	-0.118727185
39	0xbde496f8	-0.111616075

bias_hh_l0 f4 [40]
0	0x3dceeea6	0.10104112
1	0xbdaacbe7	-0.083396725
2	0x3e83d51c	0.25748527
3	0x3ea84616	0.3286597
4	0xbdf7fd45	-0.12108854
5	0xbe69f430	-0.22847056
6	0x3e7dca37	0.2478417
7	0x3d9a3481	0.075295456
8	0x3e465834	0.19369584
9	0x3ea3919d	0.31947032
10	0xbe7ab8be	-0.24484536
11	0xbe12344a	-0.14277759
12	0x3da29e85	0.079403915
13	0x3eb31d60	0.3498335
14	0x3eb28bbb	0.3487223
15	0x3d8eeaf2	0.06978406
16	0x3ca3670f	0.019946603
17	0xbd92940c	-0.07157144
18	0xbdc6b574	-0.09702578
19	0x3eb4f67b	0.353443
20	0x3e7b9fbe	0.24572656
21	0x3e85fbb3	0.26168594
22	0x3e7100ab	0.23535411
23	0xbe658708	-0.22414792
24	0x3e941899	0.28925017
25	0xbe91b956	-0.28461713
26	0x3eb373f6	0.3504941
27	0xbe6c77fc	-0.23092645
28	0x3e8033fa	0.25039655
29	0x3d6f6461	0.05844534
30	0x3d87963f	0.06620454
31	0x3e1fbbd3	0.15598993
32	0x3e9f8716	0.3115775
33	0x3e8681c9	0.26270893
34	0xbe5d876b	-0.21633689
35	0x3dbf7091	0.09347642
36	0x3d5cd12f	0.05391043
37	0x3d379363	0.044818293
38	0xbc94f69d	-0.018184
39	0x3d9aeb41	0.07564402

weight_ih_l0 f4 [40, 22]
0	0x3e93b2ac	0.28847253
1	0x3e82dd95	0.2555968
2	0xbe637ba3	-0.22215132
3	0xbd86e861	-0.065872915
4	0xbe7b66c2	-0.24550918
5	0xbdf0cf67	-0.11758309
6	0xbddc3ac1	-0.10753394
7	0x3e1a6beb	0.1508023
8	0xbe93acc4	-0.28842747
9	0xbda214ea	-0.07914145
10	0xbea5517d	-0.32288733
11	0xbe45fc4f	-0.1933453
12	0xbe631d5f	-0.22179173
13	0xbe98b44c	-0.29825056
14	0xbea0843d	-0.3135089
15	0x3cf9b2bf	0.03048074
16	0xbe0886ae	-0.13332626
17	0x3d78088a	0.06055502
18	0x3e6c118a	0.23053566
19	0xbe3e039e	-0.18556067
20	0xbd718fc9	-0.058975015
21	0xbd46b929	-0.048516426
22	0x3e15f8e7	0.1464573
23	0xbda914dc	-0.08255932
24	0xbeaa2e86	-0.3323862
25	0x3e44e511	0.19228007
26	0xbe004103	-0.125248
27	0xbe2ff491	-0.17183138
28	0xbea97c86	-0.33102816
29	0x3e1442a0	0.1447854
30	0x3e25849c	0.16163868
31	0x3eab81fe	0.33497614
32	0x3e8b1baf	0.27169558
33	0x3dcb9ff1	0.09942616
34	0x3cb396f8	0.021922573
35	0xbc2ed570	-0.010671005
36	0xbcdc2319	-0.026872205
37	0x3e9f7008	0.3114016
38	0xbe45008c	-0.1923849
39	0xbda94d08	-0.08266646
40	0xbda22ef8	-0.07919115
41	0x3ebe299a	0.37141114
42	0x3b9a7fbe	0.004714935
43	0xbce44c2e	-0.027868357
44	0x3d69de7c	0.057096943
45	0xbd3ff3d8	-0.046863407
46	0xbe2d0837	-0.16897665
47	0xbdc66684	-0.09687522
48	0x3e329c57	0.17442451
49	0xbe45a9a9	-0.19303001
50	0x3e54b9e5	0.20774038
51	0x3b49ed3d	0.003081157
52	0x3d10f37a	0.035388447
53	0xbeb0c9c8	-0.34528947
54	0xbd046bae	-0.032329254
55	0x3e5961e1	0.21228744
56	0xbe34aca0	-0.17643976
57	0xbe6fe4c4	-0.23427111
58	0xbeb53a1f	-0.35395905
59	0x3ea1856c	0.31547105
60	0x3db2fbf8	0.087394655
61	0xbe8fa807	-0.28057882
62	0xbe1b0802	-0.15139773
63	0x3cc992fc	0.02460622
64	0x3e47838f	0.1948378
65	0xbcc46d92	-0.023978028
66	0xbda5114d	-0.080599405
67	0xbea5fcff	-0.32419583
68	0x3d8e79c0	0.06956816
69	0x3e837f4e	0.25683063
70	0x3e6b1b16	0.22959551
71	0xbd9c7ca2	-0.07640959
72	0xbe8340f8	-0.25635505
73	0x3e15999d	0.1460938
74	0x3d30990a	0.0431147
75	0xbe07f02c	-0.13275212
76	0x3d73a597	0.05948409
77	0x3e3c0cb0	0.18364215
78	0x3de34daa	0.110987976
79	0x3df3efa3	0.119109415
80	0x3e625496	0.2210258
81	0x3eb0d089	0.345341
82	0x3e985a88	0.2975657
83	0x3e876bc3	0.26449403
84	0x3e3b2df4	0.18279248
85	0x3e91028d	0.2832226
86	0xbd5d43ba	-0.054019667
87	0xbdabe722	-0.083936945
88	0xbe68e501	-0.22743608
89	0xbc650514	-0.0139782615
90	0xbe8583ad	-0.26077023
91	0xbd92af18	-0.07162303
92	0x3cab05d8	0.02087681
93	0x3dd7bd09	0.105341025
94	0xbdecd872	-0.11564721
95	0xbe3ce21d	-0.1844563
96	0xbc5c0d2a	-0.013430873
97	0x3d7380da	0.059449054
98	0xbb1c28b1	-0.0023827965
99	0x3e68c490	0.22731233
100	0xbe9ef1f3	-0.31043968
101	0xbc5512bf	-0.013004958
102	0x3e4b4d1f	0.19853638
103	0xbd097327	-0.033557083
104	0x3eb6b372	0.3568378
105	0xbe5d477c	-0.216093
106	0x3d4975bd	0.04918455
107	0xbd28bb97	-0.041194525
108	0xbe19491a	-0.14969292
109	0xbd0ea758	-0.03482756
110	0xbe5764f1	-0.210346
111	0x3e985279	0.29750422
112	0xb9ff759f	-0.00048725025
113	0x3e25879e	0.16165015
114	0xbdf21514	-0.118204266
115	0x3e0ebf79	0.13940229
116	0xbe53b83b	-0.20675747
117	0xbe6fb222	-0.23407796
118	0x3da73c4a	0.08165796
119	0x3e90ed82	0.28306204
120	0xbdfaf634	-0.12253991
121	0x3a373a2c	0.0006989564
122	0xbd639b1a	-0.05556784
123	0xbd28ac38	-0.041179866
124	0x3e748215	0.23877747
125	0xbe3b559a	-0.18294373
126	0x3d58d65b	0.0529388
127	0x3e20086d	0.15628214
128	0x3b2fa3b2	0.002680045
129	0x3eb6435e	0.35598272
130	0xbeb9ef6b	-0.36315474
131	0x3e7e0a57	0.24808632
132	0x3e9f8ca6	0.31161994
133	0x3e3f2887	0.18667804
134	0x3e773789	0.24142279
135	0x3e364a06	0.17801675
136	0x3e45cd4f	0.193166
137	0x3d5a733e	0.05333256
138	0x3a2ada15	0.0006517482
139	0x3e66d267	0.225412
140	0x3ec1cbf1	0.37850907
141	0xbe8ca347	-0.2746832
142	0x3dbee606	0.09321217
143	0x3d369da0	0.044583917
144	0xbd2faed6	-0.042891346
145	0x3df6a2e7	0.1204279
146	0xbe904526	-0.28177756
147	0xbe9241a3	-0.28565702
148	0xbe43f438	-0.19136131
149	0x3e816406	0.25271624
150	0x3e3b9c49	0.18321337
151	0x3e3088c2	0.17239669
152	0x3ddc5e5d	0.10760186
153	0xbe45af54	-0.19305164
154	0xbd4c8b94	-0.0499378
155	0xbe4a32e3	-0.19745974
156	0x3d1d504c	0.038406655
157	0xbe6ccc60	-0.23124838
158	0x3e9f6327	0.31130335
159	0x3e207dd7	0.15673004
160	0xbe54a5c8	-0.20766366
161	0xbe5e9643	-0.21737008
162	0xbe373261	-0.17890312
163	0x3d08134d	0.03322153
164	0xbe973d32	-0.29538876
165	0xbdc349b7	-0.09535544
166	0xbea02449	-0.31277683
167	0xbea701fc	-0.326187
168	0xbe9df825	-0.30853382
169	0xbe6ff1fe	-0.23432156
170	0xbcd39597	-0.025828166
171	0xbe02b6df	-0.12765072
172	0xbe22f3fc	-0.15913385
173	0x3e0ba422	0.1363683
174	0x3e90d9d7	0.282912
175	0xbd15c85b	-0.036568027
176	0x3e993888	0.29925942
177	0xbe2e1207	-0.16999064
178	0x3df98f3d	0.12185524
179	0x3db700c6	0.089356944
180	0x3cfc445d	0.030794317
181	0x3cf920c9	0.030411141
182	0xbeb67b9f	-0.3564119
183	0x3dd18bb3	0.10231724
184	0xbe3fde06	-0.18737039
185	0xbe115514	-0.14192611
186	0xbd8633d9	-0.06552858
187	0x3e208875	0.15677054
188	0xbdf07a11	-0.11742032
189	0x3dede880	0.116166115
190	0xbe549385	-0.20759399
191	0x3e83abfb	0.25717148
192	0x3e237db0	0.15965915
193	0x3e16f330	0.14741206
194	0x3e54437a	0.20728865
195	0x3e8ec2fb	0.27883133
196	0x3eba0575	0.36332288
197	0x3ea1015e	0.31446356
198	0x3ca0b848	0.019619122
199	0x3dd31db4	0.103084
200	0xbd7c51f8	-0.06160161
201	0x3e96c2bf	0.29445454
202	0xbe3cbbc2	-0.18430999
203	0x3e7cb8de	0.24679896
204	0x3bdf5ecb	0.00681672
205	0x3e54421e	0.20728347
206	0x3e787eb0	0.24267077
207	0xbd090f55	-0.033461887
208	0xbe7e8027	-0.24853574
209	0x3d4a4781	0.049384598
210	0x3e4bc38a	0.19898811
211	0xbe9e8f5d	-0.30968753
212	0x3daec4e3	0.08533647
213	0xbd4c6bf3	-0.049907636
214	0xbead78ab	-0.33881125
215	0xbe72329a	-0.23652115
216	0xbe1df22e	-0.15424415
217	0x3df52bc0	0.11971235
218	0x3e87760f	0.2645726
219	0xbe1802c1	-0.148448
220	0xbe0e0457	-0.13868843
221	0xbd9654cc	-0.073403925
222	0x3e866251	0.26246884
223	0xbe9f7edf	-0.31151482
224	0xbe4fba2b	-0.20285861
225	0x3cf85aba	0.0303167
226	0xbe0bf477	-0.13667475
227	0xbe5f2529	-0.21791519
228	0x3bc9a797	0.0061540115
229	0xbcfdfbf8	-0.031003937
230	0xbce145b2	-0.027499054
231	0x3e8a716a	0.27039653
232	0x3e9c2ab5	0.30501333
233	0x3e878092	0.2646528
234	0xbda37efa	-0.07983203
235	0x3e5c0cfd	0.2148933
236	0x3e85748d	0.26065484
237	0x3e6a8ead	0.22905989
238	0xbe0bfaad	-0.13669844
239	0x3dba0c51	0.090843804
240	0xbda69c0e	-0.08135234
241	0xbb071090	-0.0020609237
242	0xbe7ed390	-0.24885392
243	0x3e9ff90c	0.31244695
244	0xbeb4407a	-0.35205442
245	0x3d1d871f	0.03845894
246	0x3d9930b6	0.07479994
247	0x3e2ceabf	0.16886424
248	0x3d94d400	0.07266998
249	0x3c8768bf	0.016529439
250	0xbe1e7b62	-0.15476754
251	0xbcbc302c	-0.022972189
252	0xbec3489f	-0.38141343
253	0x3e554e58	0.20830667
254	0x3e474295	0.19458993
255	0x3ea22a7e	0.31673044

weight_hh_l0 f4 [40, 10]
0	0x3e4d4180	0.20044518
1	0x3cd0f78f	0.02550867
2	0xbe93414a	-0.2876075
3	0xbe9afe59	-0.30272177
4	0xbd42b946	-0.04753997
5	0x3e3d03ca	0.18458477
6	0xbe93002d	-0.28711072
7	0xbc457e7b	-0.012054081
8	0x3e727c32	0.23680189
9	0xbe9c3aef	-0.30513713
10	0xbea730d7	-0.3265445
11	0xbe262a94	-0.1622718
12	0x3da4f8b1	0.080552466
13	0xbc50b8fc	-0.012739416
14	0xbe6616cd	-0.22469635
15	0xbe5654d1	-0.20930792
16	0xbe22f412	-0.15913418
17	0x3d61ef47	0.055159833
18	0xbe858c27	-0.2608349
19	0x3ec02501	0.37528232
20	0x3d4333bf	0.04765677
21	0xbeb3cfc5	-0.35119453
22	0xbe8375c4	-0.25675786
23	0xbe3ecae4	-0.18632084
24	0xbe4bc337	-0.19898687
25	0xbe38f88a	-0.1806356
26	0x3d419700	0.047263145
27	0x3e138da8	0.14409506
28	0xbe8c56df	-0.27410027
29	0xbe279be6	-0.16368064
30	0x3e2b1247	0.16706191
31	0xbe8743fe	-0.2641906
32	0x3d22fecc	0.039793774
33	0xbe64202e	-0.222779
34	0xbe0ca747	-0.13735686
35	0xbcd02f7f	-0.025413273
36	0x3ee24269	0.44191292
37	0x3e941c22	0.28927714
38	0xbd60d8d4	-0.054894283
39	0x3d12002f	0.035644706
40	0xbe923ea1	-0.28563407
41	0x3e5f903f	0.2183237
42	0x3e4be0bd	0.1990995
43	0xbe64038e	-0.22266981
44	0xbc41cfca	-0.011829326
45	0xbe8e1086	-0.2774698
46	0xbc639eba	-0.013892824
47	0xbdae7220	-0.08517861
48	0x3e691661	0.22762443
49	0xbc05301c	-0.008129146
50	0xbdb8cc19	-0.090233035
51	0x3e22d93f	0.15903185
52	0xbdba92e3	-0.09110048
53	0xbcf667c0	-0.030078769
54	0xbda79e83	-0.081845306
55	0xbebd3ccf	-0.36960456
56	0xbea1b7d0	-0.3158555
57	0xbdfeb77f	-0.12437343
58	0x3ea90b52	0.3301645
59	0x3e221727	0.15829144
60	0xbe3b4ad2	-0.1829026
61	0x3d99c6bd	0.075086094
62	0xbd11eb64	-0.035624877
63	0xbe7f33ca	-0.249221
64	0xbe267925	-0.1625715
65	0x3eb438d5	0.3519961
66	0x3d53b703	0.051688205
67	0xbe311c7d	-0.17296024
68	0xbca5832d	-0.020204151
69	0xbcd8844c	-0.026430272
70	0x3e2bee53	0.16790132
71	0xbe11ea5b	-0.14249556
72	0x3e44e036	0.19226155
73	0x3d5f6040	0.05453515
74	0xbe5f73fb	-0.21821587
75	0xbe66fff9	-0.22558583
76	0x3e8991bb	0.26868996
77	0xbe033a7b	-0.12815277
78	0x3c8b945d	0.017038519
79	0x3ddff11a	0.10934658
80	0x3dbb62d2	0.09149708
81	0xbeafbdf6	-0.34324616
82	0x3db75a2e	0.08952747
83	0xbe330ca8	-0.17485297
84	0x3da9dfd5	0.08294646
85	0x3dd5bb9e	0.10436176
86	0xbe9235df	-0.28556725
87	0x3e9cb780	0.3060875
88	0xbe4b20b2	-0.19836691
89	0x3e0252d8	0.12726915
90	0x3df292e9	0.11844427
91	0x3e077b41	0.13230611
92	0xbc757b79	-0.014983051
93	0x3d01e779	0.03171489
94	0xbdf9fa20	-0.12205911
95	0xbe949cf5	-0.29026
96	0xbda48a4d	-0.08034191
97	0x3c0bf7ff	0.008543014
98	0xbdd9bfb9	-0.10632271
99	0x3da7a9b3	0.081866644
100	0x3e1d79ac	0.15378445
101	0xbd3e13c4	-0.04640557
102	0x3dbd3c2e	0.09239994
103	0x3e85eb83	0.26156244
104	0xbd77afe2	-0.06047047
105	0xbe0c1eff	-0.13683699
106	0xbe332a5b	-0.17496626
107	0xbc10558a	-0.008809457
108	0x3e130aca	0.14359584
109	0x3da9b23d	0.082859494
110	0x3e114ee4	0.1419025
111	0xbde59fe9	-0.11212141
112	0xbc66cda7	-0.014087117
113	0x3e1393f0	0.14411902
114	0xbe0c5f4b	-0.13708226
115	0xbe81d420	-0.2535715
116	0x3e0b71be	0.13617608
117	0xbbb32b96	-0.0054678423
118	0xbeaf27ce	-0.34210056
119	0x3e3ba4ef	0.18324636
120	0xbe460724	-0.19338661
121	0x3d523109	0.051316295
122	0x3df263e2	0.118354574
123	0x3e674ac3	0.22587113
124	0xbeb33658	-0.35002398
125	0xbe94b65c	-0.2904538
126	0xbe25c3d2	-0.16187981
127	0x3e2c3da7	0.16820394
128	0xbe17050d	-0.1474802
129	0xbc0ac138	-0.0084689185
130	0x3e231522	0.1592603
131	0x3e9ff1f1	0.31239274
132	0xbdc2b18a	-0.09506519
133	0xbd84ed89	-0.06490619
134	0xbc7578e0	-0.014982432
135	0x3e96db6c	0.2946428
136	0x3e0d1083	0.1377583
137	0x3ea7a1f9	0.32740763
138	0x3e90fa11	0.28315786
139	0x3e9bda1f	0.3043985
140	0x3e6cd6fa	0.23128882
141	0x3d721c45	0.05910899
142	0xbe0fd8a6	-0.14047489
143	0x3e6460f7	0.22302614
144	0x3d5e1e23	0.05422796
145	0xbcb0ee7e	-0.021598097
146	0xbd5adb59	-0.053431842
147	0x3e225fbf	0.15856837
148	0xbeb07067	-0.34460756
149	0x3e9798b6	0.29608697
150	0xbe99c4e2	-0.30033022
151	0xbe1018b9	-0.14071931
152	0xbebb7c6d	-0.36618367
153	0xbe95bebd	-0.29247084
154	0xbe2f072c	-0.1709258
155	0xbe26d9c1	-0.16294004
156	0x3e14740c	0.14497393
157	0x3e543bd3	0.20725946
158	0xbd836751	-0.064161904
159	0x3e28a3ac	0.16468686
160	0x3d1b41c9	0.037904534
161	0xbe2073da	-0.15669194
162	0xbe88bf77	-0.26708576
163	0x3ca29ee3	0.019851154
164	0xbe6f82a1	-0.23389675
165	0xbdbee555	-0.09321085
166	0xbe2168b4	-0.15762597
167	0x3e91a483	0.28445825
168	0xbe81383a	-0.2523821
169	0x3e53473c	0.20632643
170	0xbeb63d81	-0.355938
171	0x3e2b796a	0.16745535
172	0xbe874e69	-0.2642701
173	0xbd33608a	-0.04379324
174	0x3d6d9c8c	0.058010623
175	0xbed0eb2d	-0.40804425
176	0xbe44a3fe	-0.19203183
177	0xbe4bf622	-0.19918111
178	0x3db0dc4a	0.08635767
179	0xbd8ecf61	-0.06973148
180	0xbcbc46d3	-0.02298299
181	0xbe8acdd6	-0.27110165
182	0xbe8fe1eb	-0.2810205
183	0xbe97b038	-0.29626632
184	0xbe06f6d5	-0.13180096
185	0x3e2e908a	0.17047325
186	0xbd91a5e9	-0.07111723
187	0x3e9b8f75	0.30382887
188	0xbe922e53	-0.28550968
189	0x3ea36a3d	0.3191699
190	0xbd519a71	-0.051172677
191	0xbeb4b134	-0.35291445
192	0xbe5d4447	-0.21608077
193	0x3e42ca49	0.19022478
194	0xbeace5ee	-0.33769172
195	0xbe2d56bc	-0.16927618
196	0x3e7b7213	0.24555235
197	0x3e030505	0.12794884
198	0xbbf6e585	-0.007534685
199	0x3cd87f31	0.026427837
200	0xbe975d81	-0.29563525
201	0x3e98e251	0.29860166
202	0x3d8e2ddb	0.0694234
203	0xbca926e7	-0.020648433
204	0x3e8aa8f8	0.27082038
205	0x3dea5d37	0.114435606
206	0x3e2991ac	0.16559476
207	0x3c65df2a	0.014030257
208	0xbc48be70	-0.012252435
209	0xbcf9adb3	-0.030478334
210	0xbe73ee84	-0.23821455
211	0xbda36c22	-0.07979609
212	0xbe449c6a	-0.19200292
213	0x3e33a349	0.17542757
214	0x3e7bfe7a	0.24608794
215	0x3d00b7db	0.03142534
216	0x3ddd9ead	0.10821281
217	0x3e81fc75	0.25387922
218	0x3e89e0fa	0.26929456
219	0x3e317a1e	0.1733174
220	0x3df64098	0.12024039
221	0x3ebd0993	0.36921367
222	0xbe3b9c87	-0.18321429
223	0xbe630d08	-0.2217294
224	0xbe042d10	-0.12907815
225	0xbdf5bfc0	-0.11999464
226	0xbdafbf71	-0.085814364
227	0xbe341b5a	-0.17588559
228	0xbe453d10	-0.19261575
229	0x3c8b6b1c	0.017018847
230	0xbe5061c4	-0.20349795
231	0xbe5dfdff	-0.21678923
232	0x3e260134	0.16211396
233	0xbcb51a08	-0.02210714
234	0x3e85f766	0.26165313
235	0xbe9204cb	-0.28519282
236	0x3e8019d4	0.25019705
237	0xbe58090c	-0.21097201
238	0x3e8c39e9	0.27387932
239	0x3eaf1b81	0.3420067
240	0x3e9050f0	0.2818675
241	0xbbcd9b4e	-0.0062746173
242	0xbd950289	-0.07275874
243	0xbe5f7e3e	-0.21825501
244	0xbe8cdd87	-0.27512762
245	0x3dc3d543	0.09562161
246	0x3dbc5520	0.09195924
247	0x3d0d8ca7	0.034557965
248	0x3bcb0cc3	0.0061965897
249	0x3e86c15d	0.263194
250	0x3e352ba6	0.17692432
251	0xbd6e5cc3	-0.058193933
252	0x3ea5b128	0.32361722
253	0xbd06f06a	-0.03294412
254	0x3e8772bc	0.26454723
255	0xbdc2447d	-0.09485719

bias_ih_l0 f4 [40]
0	0xbe5a3ef8	-0.21313083
1	0xbe11f58f	-0.1425383
2	0x3d4f7423	0.050647866
3	0xbcae93c5	-0.021310696
4	0x3e7d1b1d	0.24717374
5	0x3e08ca25	0.13358362
6	0xbe86d5c1	-0.26334956
7	0x3dd1f731	0.10252226
8	0x3e1c5f4e	0.15270731
9	0x3d3768d5	0.04477771
10	0x3d34977e	0.044089787
11	0x3e97c3eb	0.2964166
12	0xbcdb514b	-0.026772162
13	0x3e0def49	0.13860811
14	0x3e4fd364	0.20295483
15	0x3e4e965c	0.20174545
16	0x3d1218c6	0.035668157
17	0x3d74131e	0.059588544
18	0xbe14150a	-0.14461151
19	0x3e95f30a	0.29286987
20	0x3dfe6c0c	0.12422952
21	0xbea9db5b	-0.33175167
22	0x3d1b8449	0.037967954
23	0x3bf3c3a8	0.0074390955
24	0xbe3e893a	-0.18607035
25	0xbe7dbdfb	-0.24779503
26	0x3e0456a9	0.12923683
27	0x3e4f97c2	0.20272735
28	0x3e70fe9b	0.23534624
29	0x3e393081	0.18084909
30	0xbd1e1cf6	-0.038601838
31	0x3eb4cf69	0.3531449
32	0xbe3c6975	-0.18399604
33	0xbe188e67	-0.14898072
34	0xbdab14a5	-0.08353547
35	0xbd85cef5	-0.065336145
36	0x3e5561fc	0.2083816
37	0x3c66c77e	0.014085649
38	0xbd8fef08	-0.070280135
39	0x3ee79e43	0.45237932

bias_hh_l0 f4 [40]
0	0xbd7031a6	-0.0586411
1	0x3e74d7e7	0.23910485
2	0x3dcf8206	0.10132222
3	0xbd8ea434	-0.06964913
4	0xbe2cbbda	-0.16868535
5	0x3d82e078	0.0639047
6	0xbd90dd4c	-0.07073459
7	0x3e2b6b23	0.16740088
8	0x3d317d33	0.04333229
9	0x3e6381ef	0.22217534
10	0x3e7a5771	0.24447419
11	0x3eb01ae8	0.34395528
12	0x3d664123	0.056214463
13	0xbe0d28ed	-0.13785143
14	0x3e81acd1	0.2532716
15	0x3eb81402	0.35952765
16	0xbd3d6d96	-0.046247087
17	0x3d248cf5	0.04017349
18	0xbe055d74	-0.13023931
19	0x3e92e9a5	0.28693882
20	0x3e3ada2b	0.18247287
21	0xbe1f4457	-0.15553413
22	0xbe99161e	-0.29899687
23	0xbe67df86	-0.22643861
24	0xbe00fac6	-0.12595662
25	0xbd865eb5	-0.06561033
26	0x3dd72caf	0.105065696
27	0x3e921563	0.28531942
28	0x3e08b32b	0.13349597
29	0x3e31cecb	0.17364042
30	0x3e8407e7	0.2578728
31	0xbe176699	-0.14785232
32	0x3e394aa0	0.18094873
33	0xbdfba491	-0.12287248
34	0xbe2aa8c7	-0.16665946
35	0x3e8cf816	0.27533025
36	0xbe15f16d	-0.14642878
37	0x3e8fa495	0.28055254
38	0x3d594bc2	0.053050764
39	0x3e89799f	0.26850602

weight_ih_l0 f4 [40, 22]
0	0x3e33468a	0.17507377
1	0x3e303bf3	0.17210369
2	0x3def8af3	0.11696424
3	0xbe979ac8	-0.29610276
4	0x3e422489	0.1895925
5	0xbeabde94	-0.3356825
6	0xbd38bc3f	-0.0451014
7	0x3e7b9bc6	0.24571142
8	0xbc23b1cb	-0.00999112
9	0xbd5dd0cf	-0.054154214
10	0xbce2c190	-0.027680188
11	0xbe358ee2	-0.17730287
12	0xbe8b605f	-0.27221963
13	0x3e537dec	0.20653504
14	0x3deb4885	0.114884414
15	0x3e358d40	0.17729664
16	0x3e7164fe	0.23573682
17	0xbe54819f	-0.20752572
18	0xbe99d2f3	-0.30043754
19	0x3e55f447	0.20893966
20	0x3e1a6a12	0.15079525
21	0xbeaea621	-0.3411112
22	0x3e96e0fa	0.29468518
23	0x3d91d55e	0.07120775
24	0x3d6900f2	0.056885667
25	0xbddeb257	-0.108738594
26	0x3e69267b	0.22768585
27	0x3e259d81	0.16173364
28	0xbdeb08f5	-0.11476318
29	0x3d3165e6	0.04331007
30	0xbda12774	-0.07868853
31	0xbe508c01	-0.20365907
32	0xbe3d5aef	-0.1849172
33	0xbe2633c3	-0.16230683
34	0xbeae5ad3	-0.34053668
35	0x3d8e951a	0.069620326
36	0xbeb3c9ed	-0.35114995
37	0xbe4a0499	-0.19728316
38	0xbe6682ae	-0.22510788
39	0xbdaa41b4	-0.08313313
40	0xbd1487cc	-0.03626232
41	0xbe8616d4	-0.2618929
42	0x3e3ae0ef	0.18249868
43	0x3c200fcd	0.009769392
44	0xbe86cf26	-0.26329917
45	0x3e9cd89e	0.30634016
46	0x3e2cc305	0.16871269
47	0x3d44d359	0.04805312
48	0x3e3ce511	0.18446757
49	0x3e2d0e65	0.16900022
50	0xbd8a31a1	-0.06747747
51	0x3e735586	0.23763093
52	0xbd9cedd9	-0.07662553
53	0x3ea4b81f	0.32171723
54	0xbe80f98a	-0.25190383
55	0xbe218de4	-0.15776783
56	0x3b75f744	0.0037531415
57	0x3e74d12c	0.23907918
58	0xbeab5ecf	-0.3347077
59	0xbd14713c	-0.0362408
60	0x3e965d76	0.2936818
61	0xbdfedc3f	-0.12444352
62	0xbe69d3e6	-0.22834739
63	0x3e193681	0.14962198
64	0x3e46361e	0.19356582
65	0x3d1b4b11	0.037913386
66	0x3e5dd72a	0.2166411
67	0xbed43669	-0.41447762
68	0xbe126406	-0.14295968
69	0xbda67c6c	-0.081292
70	0xbe281056	-0.16412482
71	0xbe6216a2	-0.22078946
72	0xbe809789	-0.25115612
73	0x3d2fa305	0.042880077
74	0xbd963f0e	-0.073362455
75	0x3e3a14fa	0.18172064
76	0x3c96db74	0.01841519
77	0xbe4e992d	-0.2017562
78	0x3e7f2091	0.24914767
79	0x3d167bf5	0.03673931
80	0xbe16d0c6	-0.14728078
81	0x3cf5bdf1	0.029997798
82	0xbde5ff9c	-0.11230394
83	0xbe6012b8	-0.2188214
84	0x3d9661ad	0.07342849
85	0x3ecd2976	0.40070695
86	0x3d5a4328	0.0532867
87	0x3e5c2705	0.2149926
88	0x3d28c74c	0.04120569
89	0xbdaae70b	-0.08344849
90	0x3e848431	0.25882104
91	0x3e26eef3	0.1630209
92	0xbe44fc30	-0.19236827
93	0xbe7bf256	-0.24604163
94	0xbe77ebc9	-0.24211039
95	0x3e00ab5c	0.12565368
96	0xbd37bfdb	-0.044860702
97	0x3e284385	0.16432007
98	0xbdebe24a	-0.115177706
99	0x3d27dfbd	0.040984858
100	0x3e8411ce	0.25794834
101	0xbea55ea9	-0.32298782
102	0xbbbdc05f	-0.0057907547
103	0xbe6918e9	-0.22763409
104	0x3e80a939	0.25129107
105	0x3e2e748c	0.17036647
106	0xbd8f2966	-0.06990318
107	0xbe081ace	-0.13291475
108	0x3e902396	0.2815215
109	0x3e493a20	0.19651079
110	0x3df820f1	0.12115658
111	0xbe75671a	-0.23965111
112	0x3e2eb310	0.17060494
113	0xbe578e48	-0.2105037
114	0x3e24d1d7	0.16095673
115	0xbbce62a8	-0.006298382
116	0xbe709924	-0.23495919
117	0xbd875b72	-0.06609239
118	0x3dd2b987	0.10289293
119	0xbdd7dab2	-0.1053976
120	0xbe3e6067	-0.18591462
121	0x3dfa4645	0.12220434
122	0x3e3d6946	0.1849719
123	0x3d6ca143	0.05777098
124	0xbe47ebcf	-0.19523548
125	0xbdf6cd1b	-0.120508395
126	0x3de92319	0.113836475
127	0x3d5fbbd0	0.05462247
128	0x3dd4f3c2	0.103980556
129	0x3e5a3ddd	0.21312661
130	0x3e614a8d	0.22001095
131	0x3e847de4	0.25877297
132	0xbeaf2964	-0.34211266
133	0x3d6a0c7c	0.057140812
134	0xbe67f720	-0.22652864
135	0x3b0f2cf1	0.0021846856
136	0x3cfeb378	0.031091437
137	0xbe9dd3fa	-0.30825788
138	0xbd1e8856	-0.03870424
139	0xbd2b9016	-0.041885458
140	0x3e055cf4	0.1302374
141	0x3e4aa678	0.19790065
142	0xbe8e5188	-0.27796578
143	0xbdaefde0	-0.085445166
144	0x3e816e0d	0.25279275
145	0x3e4f3c86	0.20237932
146	0xbe103c02	-0.14085391
147	0xbe88c145	-0.26709953
148	0x3de5e94c	0.112261385
149	0x3e725de5	0.2366863
150	0x3d9f555b	0.07779952
151	0x3ea30aae	0.31844085
152	0xbe21cea4	-0.15801483
153	0xbe3352fe	-0.17512128
154	0xbe2759d2	-0.16342857
155	0xbd82b86f	-0.06382834
156	0xbe6005a4	-0.21877152
157	0x3eba0732	0.36333615
158	0x3d8a391b	0.06749173
159	0xbe3d81d5	-0.18506558
160	0xbe9f4249	-0.3110526
161	0xbd68c745	-0.056830663
162	0x3e2555c0	0.16145992
163	0x3d3c7ee7	0.04601946
164	0xbe0c65c8	-0.13710701
165	0xbd83a63b	-0.0642819
166	0xbd8f842a	-0.0700763
167	0x3d8a4764	0.06751898
168	0x3e2b5187	0.16730319
169	0xbd4fb9bc	-0.05071424
170	0xbda2c1c6	-0.079471156
171	0x3d092e36	0.033491336
172	0x3d5ef2b4	0.05443068
173	0x3e4328b2	0.19058493
174	0x3d5a5c2f	0.05331057
175	0xbdfe03f4	-0.12403098
176	0xbd41eba1	-0.047343854
177	0xbe79785a	-0.24362317
178	0xbead797e	-0.33881754
179	0x3ea5974c	0.32341993
180	0x3e575384	0.21027952
181	0xbe0a3289	-0.1349584
182	0x3c095375	0.008381714
183	0xbe43add2	-0.19109276
184	0xbda6bbaf	-0.081412666
185	0x3d39be90	0.04534775
186	0x3db9dbfd	0.090751626
187	0x3e1ad582	0.1512051
188	0xbc5c3e18	-0.013442539
189	0xbe7c103b	-0.24615566
190	0x3e706dcb	0.23479383
191	0xbded4366	-0.11585121
192	0x3e698299	0.22803725
193	0xbe7a1405	-0.244217
194	0xbd5cc39f	-0.053897496
195	0x3e9da145	0.307871
196	0x3df29663	0.1184509
197	0x3c58b82a	0.013227502
198	0x3e9060c9	0.2819884
199	0x3d4269e0	0.04746425
200	0xbdc44784	-0.09583953
201	0x3e036239	0.12830438
202	0x3e20a46e	0.15687725
203	0x3e035129	0.12823929
204	0xbcb8b3d8	-0.022546694
205	0x3e93ea13	0.28889522
206	0x3eb651c9	0.35609272
207	0x3cbd1ec2	0.023085956
208	0xbe2f478a	-0.17117134
209	0xbe17772b	-0.14791553
210	0xbea34c17	-0.3189399
211	0x3db03d0c	0.08605394
212	0x3e44f838	0.19235313
213	0x3d25a020	0.04043591
214	0x3d3db86a	0.04631845
215	0xbe21a603	-0.15785985
216	0xbe6d5942	-0.2317858
217	0xbd9c4c60	-0.07631755
218	0xbe440ca7	-0.19145451
219	0x3e0c189c	0.13681263
220	0x3e065eb3	0.13122062
221	0xbe9d74f0	-0.3075328
222	0xbd8d6705	-0.06904415
223	0x3dfb7099	0.12277336
224	0xbe4a12f2	-0.1973379
225	0xbdd25d05	-0.10271648
226	0x3dfc65f4	0.123241335
227	0xbda397eb	-0.079879604
228	0x3d2131a8	0.039353997
229	0xbe10f0c3	-0.14154343
230	0xbddd90f3	-0.108186625
231	0xbe5b9a1a	-0.21445504
232	0xbe03be15	-0.1286548
233	0xbe8c4226	-0.27394217
234	0x3d296e81	0.04136515
235	0xbdd1a559	-0.10236616
236	0xbe1962c4	-0.14979082
237	0xbede1f31	-0.43383172
238	0x3d92a66c	0.07160649
239	0xbd5fbc51	-0.054622952
240	0x3dff3fd3	0.124633454
241	0xbe4736f5	-0.19454558
242	0x3e549884	0.20761305
243	0xbe88b004	-0.2669679
244	0xbea035be	-0.31291002
245	0x3ce69dd9	0.02815144
246	0xbe87b6e3	-0.2650672
247	0xbd84fe00	-0.06493759
248	0x3d92f3ab	0.07175382
249	0x3e95d6c0	0.29265404
250	0x3e081a7c	0.13291353
251	0x3e4bb2db	0.19892447
252	0xbed99762	-0.42498308
253	0xbd0613e5	-0.032733817
254	0xbd5ddc1a	-0.054164983
255	0xbe8f9ef6	-0.28050965

weight_hh_l0 f4 [40, 10]
0	0xba6ad522	-0.0008958151
1	0x3dd8c124	0.10583714
2	0x3dfd55bf	0.123698704
3	0x3e78242a	0.24232545
4	0xbe8cb96a	-0.2748521
5	0xbda7e98f	-0.08198845
6	0x3e04beef	0.1296346
7	0xbe9d539f	-0.3072786
8	0x3e229483	0.15876965
9	0xbe52090b	-0.20511262
10	0xbe87acd2	-0.2649904
11	0x3ec33996	0.38129872
12	0x3e8026d0	0.25029612
13	0xbd884622	-0.06654002
14	0x3e896bd6	0.26840085
15	0xbd288fb0	-0.041152656
16	0x3e3667cf	0.17813037
17	0x3d947f7e	0.0725088
18	0xbebf424e	-0.37355274
19	0x3e063ee6	0.13109931
20	0x3de4a506	0.11164288
21	0xbe44b619	-0.1921009
22	0x3e73d8d6	0.23813185
23	0xbeda2bb0	-0.42611456
24	0xbe36c7bf	-0.17849635
25	0xbdc23925	-0.09483556
26	0x3e7974ad	0.24360915
27	0x3c36878d	0.011140716
28	0xbd9a20e7	-0.07525807
29	0xbe71eaa8	-0.2362467
30	0x3e723700	0.23653793
31	0xbe49876f	-0.1968057
32	0x3e40508c	0.18780726
33	0x3d20c5b1	0.039251033
34	0xbd6d8e89	-0.05799726
35	0x3e75b558	0.23994958
36	0x3e85dcbd	0.26144972
37	0xbda5fc09	-0.081047125
38	0xbeba54a1	-0.36392692
39	0xbd5d3187	-0.05400231
40	0xbd55e795	-0.052222807
41	0xbdf7e7b2	-0.12104739
42	0x3e97e27f	0.2966499
43	0x3dc10a74	0.09425822
44	0x3e8109ef	0.2520289
45	0xbe223e06	-0.15843973
46	0x3e8f2adf	0.27962396
47	0xbd62d958	-0.055383056
48	0xbc73b6d0	-0.014875129
49	0xbe374e63	-0.17900996
50	0xbd98d49d	-0.07462428
51	0x3e1a97b9	0.1509694
52	0x3e95cce0	0.2925787
53	0xbe78a2a6	-0.24280795
54	0x3e906d30	0.28208303
55	0xbe82d7bb	-0.25555214
56	0x3d1a4044	0.037658945
57	0x3e865188	0.26234078
58	0xbe818513	-0.2529684
59	0xbde9c0ec	-0.1141375
60	0xbe16dd34	-0.1473282
61	0x3df94376	0.1217107
62	0x3ecaa1e2	0.39576632
63	0x3eb96680	0.36211014
64	0x3e81f8f8	0.2538526
65	0xbdec7914	-0.11546531
66	0xbd7cee75	-0.061750848
67	0x3e001a23	0.1250997
68	0x3d186df3	0.03721423
69	0xbe208cd3	-0.1567872
70	0xbe10aedd	-0.14129205
71	0xbc39abd2	-0.011332469
72	0x3e9f447f	0.31106946
73	0xbd312b0c	-0.043253943
74	0xbd0d4ace	-0.034495167
75	0x3e51c849	0.20486559
76	0x3c39da1f	0.011343508
77	0x3e7cadf1	0.24675728
78	0x3d6faaf7	0.058512654
79	0xbe8c011e	-0.27344602
80	0xbd971d28	-0.07378608
81	0x3e44ab41	0.19205953
82	0x3da7b6a5	0.081891336
83	0xbe71c9e2	-0.23612168
84	0x3dfb0899	0.12257499
85	0x3e94fcee	0.2909922
86	0x3e38a3e6	0.18031272
87	0xbe89015a	-0.26758844
88	0x3e8eb22c	0.2787031
89	0x3e3848f9	0.17996587
90	0xbdf39d08	-0.11895186
91	0x3e013ae1	0.12620117
92	0x3e8f4cee	0.2798838
93	0x3dc38b0f	0.09548008
94	0x3e83eaec	0.2576517
95	0xbe6a6c01	-0.22892763
96	0xbd83924c	-0.06424388
97	0x3df11f46	0.11773543
98	0xbd78a60c	-0.06070523
99	0xbe8154b0	-0.25259924
100	0xbe34e046	-0.17663679
101	0x3e6e2b2b	0.23258655
102	0x3c8c56fe	0.017131325
103	0x3e9a10ca	0.30090934
104	0x3cea9412	0.028635059
105	0x3db00f33	0.08596649
106	0xbd754511	-0.05988032
107	0x3e449409	0.19197096
108	0xbc94d41f	-0.018167553
109	0xbe728972	-0.23685244
110	0x3e0e7a9a	0.13913956
111	0x3da543fe	0.08069609
112	0xbde51ef7	-0.11187547
113	0xbe39e433	-0.18153457
114	0x3e30fc7b	0.17283814
115	0x3dc6644b	0.09687098
116	0x3d9325b5	0.071849264
117	0xbe3a8891	-0.18216158
118	0xbe1c246b	-0.15248267
119	0xbe1b8855	-0.15188725
120	0x3e3e86b1	0.18606068
121	0xbe367bfc	-0.17820734
122	0xbe6c28c1	-0.23062421
123	0xbed442a2	-0.41457087
124	0xbc2a6b9a	-0.010401631
125	0x3e94fb14	0.29097807
126	0x3e27104f	0.16314815
127	0x3dec4420	0.11536431
128	0xbe865ba1	-0.26241782
129	0x3dd46731	0.10371245
130	0xbe8f0949	-0.27936772
131	0x3ddd73d8	0.10813111
132	0x3e77595a	0.24155179
133	0xbe9d4a0f	-0.30720565
134	0x3e8f2486	0.27957553
135	0x3e9eb0b8	0.309942
136	0xbeb08e6f	-0.34483668
137	0x3da0bf20	0.07848954
138	0xbe5dbf86	-0.21655092
139	0x3e119a0a	0.14218917
140	0xbdf34f45	-0.11880354
141	0x3e182e05	0.14861305
142	0x3e06f065	0.1317764
143	0xbdda8ecf	-0.1067177
144	0xbe4abe26	-0.19799098
145	0x3e88cb9c	0.26717842
146	0xbe46edb7	-0.19426619
147	0x3e6028dc	0.21890587
148	0xbe94ebf7	-0.29086277
149	0x3dd51003	0.104034446
150	0x3e6c0ee7	0.2305256
151	0xbe2ee5cd	-0.1707985
152	0xbe26f12a	-0.16302934
153	0xbd4c77aa	-0.049918808
154	0x3d34bbcc	0.04412441
155	0x3ddcf88b	0.10789593
156	0x3dc4621c	0.095890254
157	0x3da530f0	0.08065975
158	0xbe569760	-0.20956182
159	0xbe2c7e19	-0.16844977
160	0x3e6d0801	0.23147584
161	0x3e3b1a62	0.18271783
162	0x3db17a55	0.08665911
163	0x3e235430	0.15950084
164	0x3e9d055b	0.30668148
165	0x3d5c2ba6	0.053752564
166	0xbe532b2e	-0.2062194
167	0x3e4d230b	0.20032899
168	0x3e8d9a9e	0.27657026
169	0x3e5faa1f	0.2184224
170	0x3dc65600	0.09684372
171	0xbdfb8186	-0.12280564
172	0x3e1c6616	0.15273318
173	0x3d01f13b	0.031724196
174	0xbb82ddd4	-0.003993729
175	0xbd8077ad	-0.06272826
176	0xbde45010	-0.11148083
177	0x3ecb71f2	0.3973537
178	0x3dad84f6	0.08472626
179	0xbd472ab6	-0.048624717
180	0xbc5226ff	-0.01282668
181	0x3d539e13	0.051664423
182	0xbd6c5b59	-0.057704303
183	0xbdb72468	-0.08942491
184	0x3e561c22	0.2090917
185	0xbe626be7	-0.22111474
186	0xbe6d9f1c	-0.23205227
187	0x3e51b809	0.2048036
188	0x3e0e050e	0.13869116
189	0x3e751c0a	0.23936477
190	0xbe5d1f57	-0.21593986
191	0x3e1b3801	0.15158083
192	0xbdf1e3a8	-0.11811
193	0x3d12b16d	0.035813738
194	0x3e7e83d0	0.2485497
195	0xbeac5b9b	-0.3366364
196	0xbe8fbb66	-0.2807266
197	0x3e49475e	0.1965613
198	0x3d5808ba	0.052742697
199	0xbcbfcf7b	-0.023414364
200	0xbd04649f	-0.032322522
201	0xbec2f9cd	-0.38081208
202	0xbe6ed207	-0.23322307
203	0x3e0359c0	0.12827206
204	0xbe01da6d	-0.12680979
205	0xbe5b7579	-0.21431531
206	0x3e9eada4	0.30991852
207	0xbe091b05	-0.13389213
208	0xbe0a61a0	-0.13513803
209	0xbe65309b	-0.22381823
210	0xbdcb7a0b	-0.09935387
211	0x3eb42c26	0.35189933
212	0x3e344d66	0.1760765
213	0xbe30c60e	-0.17263052
214	0xbded98a9	-0.11601383
215	0x3e7ce078	0.24695003
216	0xbeae1e74	-0.3400761
217	0xbe345f91	-0.1761458
218	0xbde2b2cb	-0.11069258
219	0x3e0e857e	0.1391811
220	0x3d0b347e	0.033985607
221	0x3e82cb7c	0.2554587
222	0xbe2581bf	-0.16162775
223	0x3dc807cc	0.09767112
224	0x3eac6a17	0.3367469
225	0x3e8aaa61	0.27083114
226	0xbbc83f38	-0.006111052
227	0x3d8bc3c3	0.06824448
228	0xbe7e1cf8	-0.24815738
229	0x3e32089a	0.17386094
230	0xbe10571b	-0.14095728
231	0xbd8e0af1	-0.06935681
232	0x3ec8a23e	0.3918628
233	0x3ebbd34b	0.3668464
234	0xbe035c41	-0.12828161
235	0x3c8b2c13	0.01698879
236	0xbd07b502	-0.033131607
237	0xbd50c94f	-0.050973233
238	0x3cc8e298	0.02452211
239	0x3d8132a9	0.06308491
240	0x3e893782	0.26800162
241	0xbea42a4f	-0.3206353
242	0x3e7857b3	0.24252205
243	0xbde4e362	-0.11176182
244	0x3e768a84	0.24076277
245	0xbe47bb65	-0.19505079
246	0xbea37ca8	-0.31931043
247	0x3d10d064	0.035354987
248	0xbdfe0fd7	-0.12405365
249	0xbd962445	-0.073311366
250	0xbdc6b0ee	-0.097017154
251	0xbd34b434	-0.044117168
252	0xbe9dfc4f	-0.3085656
253	0x3ece30d8	0.4027164
254	0x3db373ca	0.087623194
255	0x3e833074	0.25622904

bias_ih_l0 f4 [40]
0	0x3e4f3369	0.20234455
1	0x3ea48943	0.32135972
2	0xbe6e0add	-0.23246332
3	0x3ea99174	0.33118784
4	0x3e95070b	0.29106936
5	0xbe583e60	-0.21117544
6	0xbcc3949e	-0.023874577
7	0x3ea78dfd	0.32725516
8	0x3ea079b9	0.31342867
9	0x3d17fc11	0.037105624
10	0xbe6959d8	-0.22788179
11	0xbd9f9b71	-0.0779332
12	0xbe6fa99b	-0.23404543
13	0x39732af0	0.00023190281
14	0xbe2c515d	-0.16827913
15	0x3e109e97	0.14122997
16	0x3e30b9dc	0.172584
17	0x3d3bcfb3	0.045852374
18	0x3e80e666	0.2517578
19	0x3ea3a19b	0.31959233
20	0x3df6ac97	0.12044638
21	0x3e42526a	0.18976751
22	0xbe81f7e4	-0.25384438
23	0x3e9e55f5	0.30924955
24	0x3ddc6911	0.10762227
25	0x3e715d3f	0.23570727
26	0xbe1c99f3	-0.15293102
27	0x3e4f736e	0.20258877
28	0xbe300354	-0.1718877
29	0xbe2cd62c	-0.16878575
30	0x3d7dfc87	0.062008407
31	0xbe5122b2	-0.20423391
32	0x3d14ad50	0.036298096
33	0x3e1262d2	0.1429551
34	0x3dcfad85	0.10140518
35	0x3ea0739c	0.31338203
36	0x3ef80646	0.48442286
37	0x3e80094e	0.250071
38	0xbe7ffdef	-0.24999212
39	0x3d9b6869	0.07588274

bias_hh_l0 f4 [40]
0	0x3e0a15d3	0.13484888
1	0xbe3f23eb	-0.18666045
2	0xbe3b3062	-0.18280175
3	0xbdb813df	-0.08988165
4	0xbe70eacc	-0.23527068
5	0x3e89c7a4	0.26910126
6	0x3e424ef2	0.18975428
7	0xbe0d9572	-0.1382654
8	0x3ea07821	0.3134165
9	0xbe2bf968	-0.1679436
10	0x3e8f8fb7	0.28039333
11	0x3ecb332d	0.39687482
12	0xbc28d6b3	-0.0103050945
13	0xbc267ac2	-0.010161104
14	0x3e5fe417	0.21864353
15	0x3c46a39b	0.0121239675
16	0xbd82929c	-0.0637562
17	0x3e9115d9	0.2833698
18	0xbcec1177	-0.028816922
19	0x3ec066db	0.37578472
20	0x3dbb18cd	0.0913559
21	0x3e53fed8	0.20702684
22	0x3e78a364	0.24281079
23	0x3ddab899	0.106797405
24	0x3e78b92e	0.2428939
25	0xbe228a50	-0.15873075
26	0x3e0d59a0	0.1380372
27	0x3ea42eb1	0.32066873
28	0xbe8cf2c5	-0.27528968
29	0x3e5c7d2a	0.21532121
30	0x3dce0f73	0.100615405
31	0x3e2630b7	0.1622952
32	0xbdf2fc24	-0.11864498
33	0xbd5cbf18	-0.05389318
34	0x3e189ca0	0.14903498
35	0xbe7531db	-0.239448
36	0x3ed8f00b	0.42370638
37	0xbdc5f592	-0.096659794
38	0x3e37f309	0.17963804
39	0xbdfea524	-0.12433842
