LSTM/code/model/old_model/model_mk1.pt (torch, 87331 bytes, 22 tensors)

weight_ih_l0 f4 [80, 88]
0	0xbe2546d2	-0.16140297
1	0x3d8274e5	0.06369952
2	0x3d2da39c	0.04239236
3	0xbe0d492e	-0.13797447
4	0xbdda4e43	-0.106594585
5	0xbe7a47c2	-0.24441436
6	0x3e25df50	0.16198468
7	0xbe32f60a	-0.17476669
8	0xbe192b99	-0.14958037
9	0xbe0801ac	-0.13281888
10	0xbd17eb7f	-0.03708982
11	0x3e734011	0.23754908
12	0x3e4f4a18	0.20243108
13	0x3e27dffc	0.16394037
14	0xbd8984e7	-0.06714802
15	0x3db1e2db	0.08685847
16	0x3e5a8f41	0.2134371
17	0x3e795592	0.24349049
18	0xbe26ca8f	-0.16288207
19	0x3e394126	0.18091258
20	0xbe4c4015	-0.1994632
21	0x3e71be48	0.23607743
22	0x3ce541f0	0.027985543
23	0xbe1534d4	-0.14570934
24	0x3d5f785d	0.054558147
25	0x3e3d7ae6	0.18503913
26	0xbc069942	-0.00821525
27	0xbdb6abac	-0.089194626
28	0xbd5bab5b	-0.053630214
29	0xbe09a863	-0.1344314
30	0x3e13044d	0.1435711
31	0xbd56c2c2	-0.05243183
32	0x3dc36dbe	0.09542416
33	0x3c8b8395	0.017030517
34	0x3d9b8414	0.07593551
35	0xbd376df1	-0.044782583
36	0xbe598fba	-0.21246234
37	0x3cd6e463	0.02623195
38	0xbe5f9e6e	-0.2183778
39	0x3dfd7289	0.123753615
40	0xbe2263b5	-0.15858348
41	0x3dfbd2a7	0.12296038
42	0xbe3a97be	-0.18221948
43	0x3e0c79a8	0.13718283
44	0xbc6f13be	-0.014592109
45	0x3d0b4f2b	0.034011047
46	0x3d711088	0.058853656
47	0x3cb321c9	0.021866696
48	0x3e81e3c6	0.2536909
49	0x3ced6c11	0.028982194
50	0xbd3cc058	-0.04608187
51	0x3d97c64f	0.07410871
52	0xbe051a19	-0.12998237
53	0x3cd67291	0.026177676
54	0x3d445d1a	0.04794035
55	0xbd2a2acb	-0.041544717
56	0x3e3e9395	0.18610986
57	0xbd810178	-0.06299108
58	0x3e25c62f	0.16188882
59	0x3d8996b3	0.06718197
60	0xbe7384bb	-0.23781101
61	0xbe076c85	-0.1322499
62	0xbd68d8bc	-0.05684732
63	0xbca181fa	-0.019715298
64	0x3e2324d0	0.15932012
65	0xbd8fe18f	-0.07025444
66	0x3d24aece	0.04020577
67	0x3dfb0747	0.122572474
68	0xbe4b7f81	-0.19872858
69	0x3d9daa11	0.07698453
70	0xbdc430cd	-0.095796205
71	0xbd677410	-0.05650717
72	0x3d9011b1	0.07034624
73	0xbe2dc222	-0.16968587
74	0xbdfb1221	-0.12259317
75	0x3e0910f3	0.13385372
76	0x3c9d3ba4	0.019193478
77	0xbe18c037	-0.14917074
78	0x3e1903b1	0.14942814
79	0x3d89251d	0.06696532
80	0x3da09160	0.07840228
81	0xbe394d64	-0.18095928
82	0xbe4152f0	-0.18879294
83	0x3e837325	0.25673786
84	0x3dddaad7	0.10823601
85	0x3ceb3bf3	0.02871511
86	0x3e6b780a	0.2299501
87	0x3cc23e98	0.023711488
88	0xbe005a84	-0.12534529
89	0x3dee75ae	0.11643539
90	0xbda0f641	-0.07859469
91	0xbd9c60f0	-0.07635677
92	0x3e25a6ec	0.16176957
93	0xbd415324	-0.04719843
94	0xbcc72506	-0.024309646
95	0xbe12c698	-0.1433357
96	0xbd8f671d	-0.07002089
97	0xbe83a6ed	-0.25713292
98	0xbd114e50	-0.035475075
99	0x3d7e50f8	0.062088937
100	0xbe6750c1	-0.22589399
101	0xbe394fa6	-0.1809679
102	0x3e1f7b76	0.1557444
103	0xbdf7dd69	-0.121027775
104	0xbe6a7bb0	-0.22898746
105	0xbdf542cc	-0.11975631
106	0xbd71a52b	-0.058995407
107	0xbddb1e59	-0.10699148
108	0xbd7452d2	-0.059649296
109	0xbe53fc14	-0.20701629
110	0x3c41a7aa	0.011819759
111	0xbd3f4f42	-0.046706446
112	0x3da6d35c	0.08145782
113	0xbd710311	-0.058840815
114	0x3ce59654	0.028025784
115	0x3db182db	0.08667537
116	0xbe40ef65	-0.18841322
117	0xbb3dac93	-0.0028941974
118	0x3da29a5d	0.07939599
119	0xbe1af1cd	-0.15131302
120	0x3e254640	0.1614008
121	0xbda54ea9	-0.08071644
122	0xbd6a9a03	-0.057275783
123	0xbe1879a0	-0.14890146
124	0xbe3aec98	-0.18254316
125	0xbd417bd7	-0.047237244
126	0x3ded6015	0.11590592
127	0x3e0a31bf	0.13495539
128	0x3d608734	0.05481644
129	0x3d4a2af9	0.04935739
130	0x3becce08	0.0072267093
131	0x3e397d75	0.18114264
132	0x3da6d805	0.08146671
133	0x3e5853a2	0.21125653
134	0xbe31d003	-0.17364506
135	0xbdc472f1	-0.09592236
136	0x3e5a7c15	0.21336396
137	0xbdfadf75	-0.12249652
138	0x3da67f04	0.08129695
139	0x3e32ace6	0.17448768
140	0x3c5cab7e	0.013468621
141	0x3d47a62f	0.04874247
142	0x3e79047d	0.24318118
143	0xbe14057c	-0.14455217
144	0x3d3b277e	0.04569196
145	0x3d6b4440	0.057438135
146	0xbe07195d	-0.13193269
147	0x3dc5a20c	0.096500486
148	0xbe614c47	-0.22001754
149	0xbdebacb6	-0.11507551
150	0xbdbd3b01	-0.0923977
151	0x3db2ac04	0.087242156
152	0x3e3b1206	0.18268594
153	0x3e12ea17	0.1434711
154	0xbdab2911	-0.08357442
155	0x3ce89c76	0.028394919
156	0xbe5e6de9	-0.21721615
157	0x3dd62e97	0.10458105
158	0x3b89cac2	0.004205079
159	0x3d4e09ba	0.050302245
160	0xbe1cdc38	-0.15318382
161	0x3e65316f	0.22382139
162	0x3d87dc85	0.06633858
163	0x3d50d35e	0.050982825
164	0xbe12ce3f	-0.14336489
165	0xbde5e9d8	-0.11226243
166	0x3e260055	0.16211064
167	0xbe29f938	-0.16598976
168	0x3e78690b	0.2425882
169	0x3e47e32f	0.19520257
170	0x3e530099	0.20605697
171	0x3d3b0511	0.04565913
172	0x3cead102	0.028664116
173	0x3e6ea5f0	0.23305488
174	0x3d5f9a0d	0.054590274
175	0x3d763507	0.060109165
176	0x3d85ec28	0.06539184
177	0x3e0e4793	0.13894491
178	0xbe6f15a5	-0.233481
179	0xbe0ba759	-0.13638057
180	0xbd0636d8	-0.032767147
181	0x3d36e9b4	0.04465647
182	0x3e6cbdaf	0.23119234
183	0xbe30696b	-0.17227714
184	0x3e0cce06	0.13750467
185	0x3e24c14b	0.1608936
186	0xbdfb5d8b	-0.12273701
187	0x3d1a1a38	0.03762266
188	0x3da66656	0.08124988
189	0x3de26e70	0.110562205
190	0x3da1c131	0.078981765
191	0xbe14a18a	-0.14514747
192	0xbdd170e8	-0.10226613
193	0xbe0de37e	-0.13856313
194	0xbe284754	-0.1643346
195	0x3e305a07	0.17221843
196	0x3e5fd1c3	0.21857361
197	0xbba71b68	-0.0050997026
198	0xbe313fe0	-0.17309523
199	0x3c2036a8	0.009778656
200	0xbe2717bb	-0.16317646
201	0xbcdf57d4	-0.02726356
202	0xbe477b25	-0.1948057
203	0xbe420acd	-0.18949433
204	0x3d193f56	0.037413917
205	0xbe57ccf5	-0.21074279
206	0x3d3c65df	0.04599559
207	0xbe44b321	-0.19208957
208	0xbb79a0bc	-0.003809019
209	0x3e6ecb5d	0.23319764
210	0xbd86f50a	-0.06589706
211	0x3e07a547	0.13246642
212	0x3c8a9e9d	0.016921336
213	0x3e368bf5	0.17826827
214	0x3dd263ed	0.102729656
215	0x3d6a15f2	0.057149835
216	0x3da71479	0.08158202
217	0xbe1805f5	-0.14846022
218	0x3c9e200c	0.01930239
219	0xbe524ba9	-0.20536675
220	0xbda1610a	-0.07879837
221	0xbe4747d3	-0.19460993
222	0x3dd1ff71	0.102538
223	0x3dbe9b57	0.093069725
224	0x3c9f41be	0.019440528
225	0xbc9be29c	-0.019028954
226	0xbe41aaf6	-0.18912873
227	0x3e3a8ae4	0.18217045
228	0x3cc61a53	0.024182474
229	0xbd17a41c	-0.03702174
230	0xbc912847	-0.017719401
231	0xbd582fcd	-0.05277996
232	0x3d458dc6	0.04823091
233	0x3e75f306	0.24018487
234	0x3d1c9004	0.03822328
235	0x3d078e23	0.033094537
236	0xbdc561ee	-0.09637819
237	0xbde53b15	-0.1119291
238	0xbd9c3771	-0.07627762
239	0xbaf1a338	-0.0018435484
240	0xbbe613ad	-0.0070213885
241	0x3e5c1d6c	0.21495599
242	0x3de088b4	0.10963574
243	0x3e4bbbd9	0.19895877
244	0xbda461ad	-0.08026443
245	0x3e4afa50	0.19822049
246	0x3ca2242a	0.019792635
247	0x3e545c68	0.20738375
248	0xbe1a1421	-0.15046741
249	0xbdc49778	-0.09599203
250	0xbe5d74fc	-0.21626657
251	0x3e55983a	0.20858851
252	0xbe28eceb	-0.16496627
253	0x3e6ab0d1	0.22919013
254	0x3e258cd4	0.16167003
255	0xbe4b1918	-0.19833791

weight_hh_l0 f4 [80, 20]
0	0xbbfb2933	-0.0076648234
1	0xbc375c45	-0.011191432
2	0x3e25541e	0.1614537
3	0xbbf46235	-0.0074579963
4	0x3dbb7a18	0.09154147
5	0xbda8e457	-0.08246677
6	0x3e2391ce	0.15973589
7	0x3dab57e3	0.083663724
8	0x3e7bb486	0.24580583
9	0xbd65a490	-0.056065142
10	0xbdf05bc1	-0.11736251
11	0x3e1d114b	0.15338628
12	0xbd43d45c	-0.047809944
13	0x3a96992c	0.001148974
14	0x3c003d5c	0.007827129
15	0xbdced0d9	-0.10098428
16	0xbe691f10	-0.22765756
17	0x3df59287	0.119908385
18	0x3b8bfd42	0.004272134
19	0xbe19546c	-0.1497361
20	0xbdfbeadf	-0.123006575
21	0x3d089599	0.033345792
22	0xbb475bf4	-0.0030419799
23	0xbd2a0ad7	-0.041514244
24	0x3e4780b1	0.19482686
25	0x3bdc5fcb	0.0067252866
26	0x3c5a1593	0.013310808
27	0x3e0f5faf	0.14001344
28	0x3e680f50	0.22662091
29	0x3e72cb68	0.23710406
30	0xbd88a06b	-0.06671222
31	0xbd6461e3	-0.055757415
32	0xbc86c568	-0.016451553
33	0x3e4281be	0.18994805
34	0xbd7f631c	-0.062350377
35	0xbd46aae1	-0.048502807
36	0x3d601aaa	0.05471293
37	0x3e09395a	0.13400784
38	0xbd883de6	-0.06652431
39	0xbd85d0a5	-0.065339364
40	0xbd64e1c7	-0.05587938
41	0x3cb1afa4	0.021690197
42	0xbe4a84c0	-0.19777203
43	0x3d07e1cd	0.033174325
44	0x3d8a6792	0.06758036
45	0x3e6e403b	0.2326669
46	0x3d89d2a3	0.06729629
47	0x3dc9f9e0	0.09862113
48	0xbdbb7f10	-0.091550946
49	0x3dd94e1d	0.10610602
50	0xbdb7db0b	-0.08977326
51	0x3e361e50	0.17785001
52	0xbe33e7da	-0.17568913
53	0xbd882d16	-0.066492245
54	0x3e5052d0	0.2034409
55	0xbc2c0ef5	-0.010501613
56	0xbe1e95c5	-0.1548682
57	0xbdde5056	-0.108551666
58	0xbe10dd7e	-0.14146993
59	0xbd0a6439	-0.033786986
60	0xbe0ecccf	-0.13945316
61	0x3def5ceb	0.116876446
62	0xbc2b6f9b	-0.010463621
63	0x3dda2eb5	0.1065344
64	0x3d31f95d	0.043450702
65	0x3e14d39c	0.14533848
66	0xbe5619a8	-0.20908225
67	0x3d8e17b0	0.06938112
68	0xbdfd768d	-0.123761274
69	0xbe3e0124	-0.18555123
70	0xbe155137	-0.14581762
71	0x3e3d869a	0.18508378
72	0xbe485960	-0.19565344
73	0x3c883b35	0.016629795
74	0x3e459d1e	0.19298217
75	0x3d95d53a	0.0731606
76	0xbcadaa98	-0.02119951
77	0xbddbf11f	-0.107393496
78	0x3d5775b4	0.052602485
79	0xbe3febee	-0.18742344
80	0x3dc1d73f	0.09464883
81	0xbd770b8f	-0.060313758
82	0xbdd9f637	-0.10642665
83	0xbdf733a1	-0.12070394
84	0xbda258fc	-0.07927129
85	0x3e67566c	0.22591561
86	0xbe06a849	-0.13150133
87	0x3cfced09	0.030874746
88	0x3db91e72	0.0903901
89	0x3da3a469	0.07990343
90	0x3d963adc	0.07335445
91	0x3e328781	0.17434503
92	0xbe47ad1e	-0.19499633
93	0xbe39de52	-0.18151215
94	0x3e08a2fa	0.1334342
95	0xbe68b608	-0.2272569
96	0x3e442da4	0.19158036
97	0xbe118d51	-0.14214064
98	0xbe093d63	-0.13402323
99	0x3e3a4318	0.18189657
100	0xbe50e1de	-0.20398661
101	0x3dec08e3	0.115251325
102	0x3dddbdc5	0.10827211
103	0xbd585ac1	-0.052820925
104	0x3e2a5d9f	0.16637276
105	0xbdb8bfd1	-0.09020961
106	0x3e370483	0.17872815
107	0x3e410df0	0.18852973
108	0xbd14f39c	-0.036365137
109	0x3d6563c3	0.056003343
110	0xbe1dcf0d	-0.15411015
111	0x3e7908b3	0.24319725
112	0xbe54b71f	-0.2077298
113	0xbe4dd045	-0.2009898
114	0xbe1259b9	-0.14292039
115	0xbe3bfa70	-0.18357253
116	0x3dd8b3df	0.10581183
117	0xbd4d95b4	-0.050191596
118	0x3e07ca6a	0.13260809
119	0xbd757317	-0.05992421
120	0xbd6e9b58	-0.058253616
121	0xbe21a108	-0.15784085
122	0xbdfc23ab	-0.123114906
123	0x3e2411ad	0.16022368
124	0x3e84458e	0.25834316
125	0xbdf9ebbe	-0.122031674
126	0xbd0a742a	-0.03380219
127	0x3e55d738	0.2088288
128	0x3d62b6f7	0.05535027
129	0xbe0ffc02	-0.14060977
130	0x3e462f84	0.19354063
131	0xbc8002ee	-0.015626397
132	0x3d933e6f	0.07189643
133	0x3dac86ea	0.0842417
134	0x3da18f99	0.07888717
135	0xbe369a60	-0.17832327
136	0x3e1028fc	0.14078134
137	0x3e62cba3	0.22147994
138	0x3d86cfce	0.06582604
139	0x3d62c2da	0.055361606
140	0xbde0c6cc	-0.109754175
141	0x3d6d9b66	0.058009528
142	0x3e6736f9	0.22579564
143	0xbc0593a3	-0.008152875
144	0x3e0d8b7a	0.13822737
145	0x3d9745ce	0.07386361
146	0x3bbfa067	0.005847979
147	0xbd2a082c	-0.0415117
148	0xbca428d1	-0.020038994
149	0x3d57d469	0.052692804
150	0x3ccaa1ab	0.024735292
151	0x3e08d0e9	0.13360943
152	0xbe4ae26d	-0.19812937
153	0x3dcec8c5	0.100968875
154	0xbe09eff7	-0.13470446
155	0x3b5a1c5a	0.003328106
156	0xbd08750b	-0.033314746
157	0xbdb415fd	-0.087932564
158	0xbdbdb70d	-0.0926343
159	0xbd81a9da	-0.06331225
160	0xbe71ceaa	-0.23613992
161	0x3d8191ac	0.06326613
162	0xbcebd927	-0.02879007
163	0xbd7eb7d4	-0.06218703
164	0x3e38654f	0.18007396
165	0xbd66ebc7	-0.0563772
166	0xbe1c9911	-0.15292765
167	0xbc6c19ea	-0.014410475
168	0xbdfcd456	-0.12345187
169	0x3d202f73	0.03910775
170	0x3e00d2e0	0.12580442
171	0x3da8332b	0.082128845
172	0xbe5ac54e	-0.21364328
173	0x3e43de2b	0.19127719
174	0x3d7c57ed	0.06160729
175	0xbc337699	-0.010953569
176	0xbe2365c2	-0.15956786
177	0xbdf6e3ab	-0.12055143
178	0x3e237aca	0.15964809
179	0xbd930a84	-0.0717974
180	0xbe319e98	-0.17345655
181	0x3e247fe5	0.16064413
182	0x3d5b43f3	0.0535316
183	0xbcd2b6f6	-0.025722008
184	0x3e34f7b1	0.17672612
185	0xbc1d7a00	-0.009611607
186	0xbd46bb82	-0.048518665
187	0x3d0b5dba	0.03402493
188	0xbd9d572f	-0.076826446
189	0xbe2597e4	-0.16171223
190	0x3d759a6f	0.059961732
191	0xbc2cca90	-0.010546342
192	0xbe37949e	-0.17927787
193	0xbdbdfa4b	-0.09276255
194	0x3e43e839	0.19131555
195	0xbd5c3af0	-0.053767145
196	0xbd5ec769	-0.05438939
197	0xbdf77170	-0.12082183
198	0xbe00bd9f	-0.12572335
199	0x3e5f4175	0.21802314
200	0x3dc25fe9	0.0949095
201	0xbdfb010d	-0.1225606
202	0xbd0e198d	-0.034692336
203	0xbe2a8c06	-0.16654977
204	0xbe2a0418	-0.16603124
205	0x3daae432	0.08344306
206	0x3d1c9379	0.03822658
207	0xbe1b802b	-0.15185611
208	0x3d9c9dfa	0.07647319
209	0xbdf96805	-0.12178043
210	0x3e3f3089	0.18670858
211	0x3db964b2	0.09052409
212	0x3c08a849	0.008340904
213	0xbe7dee02	-0.24797824
214	0x3d8392bf	0.06424474
215	0x3e0f5516	0.13997301
216	0xbcc57596	-0.02410392
217	0xbde977bb	-0.1139979
218	0x3e88470e	0.2661671
219	0xbde59a95	-0.11211125
220	0x3e29dde0	0.16588545
221	0x3e4104a2	0.18849424
222	0x3d955ecf	0.07293474
223	0xbe0b76ff	-0.13619612
224	0xbe5155f4	-0.20442945
225	0x3e438ef7	0.19097506
226	0x3d771af5	0.060328443
227	0x3e080eb1	0.13286854
228	0x3e5160ec	0.20447129
229	0xbb4a27b0	-0.003084641
230	0xbe137fb6	-0.14404187
231	0xbe049d43	-0.12950616
232	0xbe4f3f2b	-0.2023894
233	0xbd3300da	-0.043701984
234	0x3d50cc65	0.050976176
235	0xbe4a0d03	-0.19731526
236	0xbe2eb69e	-0.1706185
237	0x3df14003	0.117797874
238	0xbdb7ac02	-0.08968355
239	0xbe427a0e	-0.18991873
240	0xbe56c62a	-0.20974031
241	0x3e63b93c	0.2223863
242	0xbe16c428	-0.14723265
243	0xbdfbeacb	-0.123006426
244	0xbd65ca38	-0.056101054
245	0x3e4e54c6	0.20149526
246	0xbe6bd3d3	-0.23030023
247	0xbd338343	-0.043826353
248	0x3e0565d1	0.13027121
249	0xbdf8bd56	-0.12145488
250	0xbc0eb68c	-0.008710515
251	0x3da8b35c	0.08237335
252	0x3e233101	0.15936662
253	0xbe58fabd	-0.21189399
254	0x3dc62550	0.096750855
255	0x3de557c1	0.11198378

bias_ih_l0 f4 [80]
0	0x3de6b44e	0.11264859
1	0xbdcd42c1	-0.10022498
2	0x3d2cec75	0.04221769
3	0x3defcc45	0.11708883
4	0xbe01809d	-0.12646718
5	0xbd956263	-0.072941564
6	0xbdd738f7	-0.10508912
7	0x3e708d75	0.23491462
8	0x3e7449a8	0.23856223
9	0x3e130570	0.14357543
10	0x3df27f32	0.11840667
11	0xbd0b0bf6	-0.033946954
12	0xbe148d29	-0.14506973
13	0x3dde1063	0.10842969
14	0xbd5b0f72	-0.053481527
15	0x3d9b8636	0.07593958
16	0xbe503dc0	-0.20336056
17	0x3c2d1f19	0.010566496
18	0xbe008db0	-0.1255405
19	0xbe11d50e	-0.1424143
20	0xbd91a2cd	-0.0711113
21	0x3d0cfe3e	0.03442215
22	0x3e2828e4	0.16421849
23	0x3ca7898b	0.020451328
24	0x3e75a665	0.23989256
25	0x3e5ecded	0.21758242
26	0x3cbce680	0.02305913
27	0x3e0583f5	0.13038619
28	0xbccabfd8	-0.024749681
29	0x3e52c6e5	0.20583685
30	0x3d87acb2	0.06624736
31	0xbe0e2b3b	-0.13883679
32	0xbcd126a4	-0.02553112
33	0x3ded6a56	0.115925476
34	0x3e35f44d	0.17768975
35	0xbdfa0199	-0.12207336
36	0xbd7d250c	-0.06180291
37	0x3dffde2f	0.1249355
38	0x3e05c0f7	0.13061891
39	0x3d8ec623	0.06971385
40	0xbd85e992	-0.065386906
41	0xbe036bc2	-0.12834075
42	0x3ce64bdc	0.028112344
43	0x3cc1048d	0.02356174
44	0xbc8a8cf4	-0.016912915
45	0x3e0ca442	0.13734534
46	0x3e594919	0.21219291
47	0xbe18cbf0	-0.14921546
48	0x3d90ce5a	0.070706084
49	0xbd1c603f	-0.038177725
50	0xbe16346e	-0.14668438
51	0x3e21797d	0.15769
52	0x3d6cfa6b	0.057856005
53	0xbdc32be5	-0.095298566
54	0x3e47c98f	0.19510482
55	0xbd90d6fc	-0.07072255
56	0xbd67cea8	-0.056593567
57	0x3e3cca3e	0.18436524
58	0xbde1311a	-0.109956935
59	0x3dd976a2	0.106183305
60	0xbe00e099	-0.12585677
61	0x3d2c24b9	0.04202721
62	0x3decacef	0.11556422
63	0x3db19516	0.08671014
64	0x3cf70b64	0.030156799
65	0x3e2c4d96	0.16826472
66	0xbd8eae9d	-0.069668986
67	0x3e296316	0.16541705
68	0xbd9eda22	-0.07756449
69	0x3e053d11	0.13011576
70	0x3e703b29	0.23460068
71	0xbe4492db	-0.19196646
72	0x3e52a89d	0.20572133
73	0xbd9be6d8	-0.07612389
74	0x3e51c993	0.2048705
75	0xbc249286	-0.0100447
76	0xbd112e75	-0.035444696
77	0x3e21f858	0.15817392
78	0x3d582444	0.05276896
79	0x3dd62d70	0.10457885

bias_hh_l0 f4 [80]
0	0x3c746a5c	0.014917936
1	0x3e49aee7	0.19695626
2	0x3e61d155	0.2205251
3	0x3d8456d3	0.06461873
4	0x3e7ea1c0	0.2486639
5	0x3e50fb8b	0.20408456
6	0xbd93ed27	-0.072229676
7	0xbd730590	-0.059331477
8	0xbd866ebc	-0.0656409
9	0xbd89a8d5	-0.06721655
10	0x3db71598	0.089396656
11	0x3d34ea62	0.044168837
12	0xbe2c1e58	-0.1680845
13	0xbe380853	-0.17971925
14	0xbe50cf62	-0.2039161
15	0xbe1c4ec1	-0.15264417
16	0x3e3167f8	0.17324817
17	0x3d8e5aad	0.06950889
18	0x3d7cad0f	0.06168848
19	0x3e7942ca	0.24341884
20	0xbd81cbb7	-0.06337684
21	0xbd1c673a	-0.038184382
22	0xbe038fea	-0.12847868
23	0xbd9e7e2e	-0.077389106
24	0xbe1b6235	-0.15174182
25	0x3e5d8cfb	0.21635811
26	0xbd1d567e	-0.038412564
27	0xbd5a2b44	-0.053263918
28	0xbcafc295	-0.021455089
29	0x3d328538	0.04358408
30	0xbe06b5a1	-0.13155223
31	0xbd66b5f6	-0.056325875
32	0x3e3f7bb0	0.18699527
33	0xbe5eaf3a	-0.21746531
34	0x3d520714	0.05127628
35	0x3e5b0993	0.21390371
36	0x3e53f6ff	0.2069969
37	0x3e30cf0e	0.17266485
38	0xbd83b227	-0.06430464
39	0xbcfbfc52	-0.030759964
40	0xbe1bb928	-0.1520735
41	0xbe3efc9d	-0.18651052
42	0xbd4f527e	-0.05061578
43	0xbdf33b7e	-0.118765816
44	0x3d4ef708	0.050528556
45	0x3e3b8593	0.18312673
46	0xbc446d1d	-0.011988905
47	0x3e032294	0.1280616
48	0xbc52e069	-0.012870886
49	0x3e480fca	0.19537273
50	0xbdf0affd	-0.11752317
51	0xbdee4963	-0.11635091
52	0xbe08c68e	-0.13356993
53	0xbe222c76	-0.15837273
54	0x3d836375	0.06415454
55	0xbd70809f	-0.058716413
56	0x3de11925	0.10991124
57	0x3d782ac5	0.060587663
58	0x3c1a05d2	0.009400802
59	0xbdddd654	-0.108318955
60	0x3e4e73d2	0.2016137
61	0xbe2ed6a0	-0.1707406
62	0x3e18aa6c	0.14908761
63	0x3d827f1d	0.06371901
64	0x3e32de02	0.17467502
65	0x3d8ed702	0.06974603
66	0xbcbd9650	-0.023142964
67	0x3d62a913	0.055337023
68	0xbc1f19ff	-0.009710788
69	0x3e0a6ddf	0.13518475
70	0x3e94282b	0.28936896
71	0x3e076a91	0.13224246
72	0xbdf00d11	-0.11721242
73	0x3d9ecaf4	0.07753554
74	0x3e16fc7f	0.14744757
75	0x3e5e2a5e	0.2169585
76	0xbde6ccb7	-0.11269515
77	0xbdc42723	-0.09577777
78	0x3e20b8bb	0.15695469
79	0x3ddcc915	0.10780541

weight_ih_l1 f4 [80, 20]
0	0x3da30024	0.07959011
1	0xbdc39930	-0.095507026
2	0xbd79cd35	-0.060986716
3	0xbd83d994	-0.06437984
4	0x3e10d147	0.14142333
5	0x3e4632a7	0.1935526
6	0x3e488f23	0.19585852
7	0x3e63252f	0.22182153
8	0x3e30e1ee	0.17273685
9	0x3e09847e	0.13429448
10	0x3dca2c67	0.0987175
11	0x3e21b4b1	0.15791585
12	0xbe8f6094	-0.2800337
13	0xbe8b9697	-0.27263328
14	0x3e4f1463	0.2022262
15	0x3c9a64f4	0.018846966
16	0x3da16d7a	0.07882209
17	0x3d95bb83	0.07311156
18	0x3e31a6d1	0.17348792
19	0xbc19c0ac	-0.009384315
20	0xbe519adc	-0.2046923
21	0xbda065bb	-0.078319035
22	0xbe41e14a	-0.18933597
23	0xbdfc366c	-0.12315068
24	0xbdc2589c	-0.09489557
25	0x3e33359c	0.17500919
26	0x3e69aa16	0.22818789
27	0xbd146c5f	-0.036236163
28	0xbe0ff2c2	-0.14057449
29	0xbdb4b071	-0.08822716
30	0xbd928c6f	-0.07155692
31	0xbd8da7f1	-0.06916798
32	0xbd3fde51	-0.046842877
33	0xbe5ac71c	-0.21365017
34	0x3e67e4a6	0.22645816
35	0xbd887822	-0.066635385
36	0xbe733584	-0.23750883
37	0xbe34dd70	-0.17662597
38	0x3ca58254	0.020203747
39	0xbd54dad2	-0.051966496
40	0x3db509a3	0.08839729
41	0x3e022973	0.12711124
42	0xbdc2c2ce	-0.09509812
43	0x3dcc95e2	0.099895254
44	0x3d99555a	0.07486983
45	0xbcc6107b	-0.02417778
46	0x3e0a382f	0.13497995
47	0x3dc1c3be	0.09461163
48	0x3e638a82	0.22220805
49	0xbc7d8c07	-0.01547528
50	0xbe2c59c6	-0.16831121
51	0x3e68753a	0.22700968
52	0xbe90bdba	-0.2826975
53	0xbe4e835d	-0.20167299
54	0xbe13c648	-0.14431107
55	0xbe3153c4	-0.1731711
56	0x3b48ef4a	0.0030660206
57	0x3e0565b2	0.13027075
58	0xbd204edc	-0.039137706
59	0x3deabc50	0.11461699
60	0xbe088ae4	-0.13334233
61	0x3e142d2f	0.14470361
62	0x3e6fd56c	0.23421258
63	0xbe5b1103	-0.21393208
64	0x3e120411	0.14259364
65	0xbe3283d6	-0.17433104
66	0xbdb712c7	-0.08939128
67	0xbe07017f	-0.13184164
68	0x3e08c9b1	0.13358189
69	0x3e58dac0	0.21177197
70	0x3ca628f2	0.020283196
71	0x3da48e7f	0.080349915
72	0xbe2b943d	-0.16755767
73	0xbe1e954b	-0.15486638
74	0xbd12df66	-0.03585758
75	0xbe0c3ad9	-0.13694324
76	0xbe0c0e81	-0.13677408
77	0x3e42d218	0.19025457
78	0x3e52cb2a	0.20585313
79	0x3cead95a	0.028668094
80	0xbe0cb841	-0.13742162
81	0xbd98d5be	-0.07462643
82	0x3e13106d	0.14361735
83	0x3d8af38d	0.06784735
84	0x3d996b31	0.07491148
85	0xbddcb03a	-0.107758
86	0xbda048db	-0.07826396
87	0xbd567e35	-0.052366454
88	0xbe1ceb84	-0.15324217
89	0x3d35a812	0.044349737
90	0xbd8036cc	-0.06260452
91	0x3df2c5b7	0.11854117
92	0x3e0002fa	0.12501135
93	0x3c1587f9	0.009126657
94	0x3d75274b	0.059851926
95	0xbdf1f18b	-0.11813649
96	0x3e4c68da	0.19961873
97	0xbe18c865	-0.14920194
98	0xbd49a960	-0.049233794
99	0x3e451a7d	0.19248386
100	0x3e285fff	0.1644287
101	0x3d5c2afd	0.053751934
102	0x3e176a83	0.14786725
103	0x3dcfd50e	0.10148059
104	0xbd5837c3	-0.052787554
105	0x3e483aec	0.19553727
106	0x3de44951	0.111467965
107	0x3e57083f	0.2099924
108	0xbc6a85e8	-0.014314152
109	0x3d53362d	0.051565338
110	0x3e31b4a0	0.17354059
111	0x3e7abb09	0.24485411
112	0xbe4f21c3	-0.20227723
113	0xbbb81d33	-0.005618715
114	0xbdfecb44	-0.124411136
115	0xbdc39b40	-0.09551096
116	0x3d6917ca	0.056907453
117	0x3e1c4079	0.1525897
118	0x3c434c5c	0.011920061
119	0xbd3b6a89	-0.045755897
120	0x3d460cfd	0.04835223
121	0x3d975bd0	0.07390559
122	0xbcdb22c6	-0.02674998
123	0xbe7cf2d4	-0.24702007
124	0xbe1704d1	-0.14747931
125	0x3e04c09e	0.12964103
126	0xbd8e949b	-0.06961938
127	0x3e513da5	0.20433672
128	0x3d9b51b1	0.07583941
129	0xbd14fe67	-0.03637543
130	0x3db74ff5	0.089507975
131	0x3e26306b	0.16229407
132	0xbe5ad52f	-0.21370386
133	0xbdd5cb3e	-0.10439156
134	0xbdd4bc76	-0.103875086
135	0xbd0153c1	-0.031574015
136	0xbda57a87	-0.08080011
137	0x3d69a316	0.057040296
138	0x3cf24a2f	0.02957639
139	0x3e1306c2	0.14358047
140	0xbe387ced	-0.18016405
141	0x3e258cfd	0.16167064
142	0x3dffd46f	0.1249169
143	0xbe8a71da	-0.27039987
144	0xbdc4f165	-0.09616355
145	0x3d0a2a98	0.033732027
146	0x3e8e6ddc	0.2781819
147	0x3e2b4a0c	0.16727465
148	0x3db1cea6	0.08681993
149	0xbbf15bd0	-0.007365681
150	0x3ea9a7a6	0.33135718
151	0x3e568775	0.2095011
152	0xbe0d2ed6	-0.13787398
153	0xbd0c2bd2	-0.034221478
154	0xbd6b2980	-0.057412624
155	0x3dd1eda6	0.10250406
156	0x3df946f1	0.12171734
157	0x3d9a6e24	0.07540539
158	0xbe2075d9	-0.15669955
159	0xbe0c4869	-0.13699497
160	0xbcb1d05d	-0.0217058
161	0x3e90236e	0.2815203
162	0xbe38983a	-0.1802682
163	0x3ddcbbad	0.10777984
164	0xbd8cf912	-0.06883444
165	0x3e4e7c09	0.20164503
166	0x3c0abc9c	0.00846782
167	0x3c854be4	0.016271539
168	0x3e84f039	0.25964525
169	0xbe189ee7	-0.14904366
170	0xbd577423	-0.05260099
171	0xbe0ad6b8	-0.13558471
172	0xbe629155	-0.22125752
173	0xbcd0424b	-0.025422236
174	0x3e3ca19e	0.18421027
175	0xbe0cfe6d	-0.1376893
176	0x3d3a34e0	0.04546058
177	0x3e13c022	0.14428762
178	0x3e3e9db1	0.18614842
179	0xbe808904	-0.25104535
180	0xbe65caba	-0.22440615
181	0xbd274c70	-0.04084438
182	0xbe8180a3	-0.25293455
183	0x3db87365	0.09006385
184	0x3e248a97	0.16068493
185	0x3d1b5b86	0.03792908
186	0x3d3f3849	0.046684537
187	0xbd48f6c9	-0.049063478
188	0xbe253aa6	-0.16135654
189	0x3e4da995	0.20084222
190	0xbcb9fd74	-0.022703864
191	0x3e342735	0.17593081
192	0xbe66e020	-0.22546434
193	0x3d24b207	0.040208843
194	0x3d8e96ef	0.06962382
195	0xbe4b3473	-0.19844227
196	0x3da183ab	0.07886442
197	0x3e2c27b2	0.16812018
198	0x3dcf46ec	0.10120949
199	0xbd9c6274	-0.07635966
200	0xbbf5a6cc	-0.0074966904
201	0xbd79d08c	-0.0609899
202	0xbb8d99a0	-0.004321292
203	0xbdfd0711	-0.123548634
204	0xbe4e6666	-0.2015625
205	0xbe47c52c	-0.19508809
206	0x3e2c5c36	0.1683205
207	0xbc2a9e5a	-0.0104137305
208	0xbe2d56dd	-0.16927667
209	0xbe920eee	-0.28527015
210	0x3e52e376	0.20594582
211	0xbe72d5c7	-0.23714362
212	0xbddeabba	-0.10872598
213	0xbca5756c	-0.020197593
214	0xbe5fd7de	-0.2185969
215	0xbe39c17b	-0.18140213
216	0x3d792ab7	0.06083175
217	0x3e35f62b	0.17769687
218	0xbbbbe3cf	-0.005733944
219	0x3e0294cb	0.12752073
220	0x3dead57a	0.11466499
221	0x3d070310	0.032961905
222	0x3cd9ffb4	0.026611187
223	0xbe81aac1	-0.25325587
224	0xbe1e748c	-0.15474147
225	0x3d3dc73d	0.046332587
226	0x3d1d3b01	0.03838635
227	0x3d0f7d1f	0.035031434
228	0xbce2b153	-0.027672445
229	0xbdef0855	-0.11671511
230	0x3ce28fc1	0.027656438
231	0xbdea12ec	-0.1142939
232	0x3e0398d0	0.12851262
233	0xbe719936	-0.23593602
234	0xbda498ce	-0.08036958
235	0x3b60e764	0.0034317607
236	0x3df4385d	0.11924813
237	0xbd22900c	-0.039688155
238	0xbb4a86f7	-0.00309032
239	0xbe001e28	-0.12511504
240	0x3da38fff	0.079864495
241	0xbdfa3800	-0.122177124
242	0xbd0f2b39	-0.03495333
243	0x3e0583e2	0.1303859
244	0xbdf67d02	-0.12035562
245	0xbe010f1c	-0.1260342
246	0x3e96cf4d	0.29455033
247	0x3e188d79	0.14897718
248	0xbda8d419	-0.082435794
249	0xbe868b1c	-0.26278007
250	0xbbd738c3	-0.006568046
251	0xbe63b7b9	-0.22238053
252	0xbe8b72db	-0.27236065
253	0x3df1e815	0.11811844
254	0xbdc3244d	-0.09528408
255	0xbe4856d0	-0.19564366

weight_hh_l1 f4 [80, 20]
0	0xbdd9670b	-0.10615357
1	0xbe801238	-0.250139
2	0xbe9268ff	-0.2859573
3	0xbe62fc8c	-0.22166651
4	0xbd047e98	-0.03234729
5	0xbe2b93b4	-0.16755563
6	0xbe43113e	-0.19049546
7	0xbcacdaee	-0.021100488
8	0x3b8741a4	0.004127698
9	0xbe698adb	-0.22806875
10	0x3c1c68f4	0.009546507
11	0x3d9d664c	0.07685527
12	0xbe8904bb	-0.26761422
13	0x3e466e1f	0.19377945
14	0xbe1bc46c	-0.15211648
15	0x3e6b1a30	0.22959208
16	0xbe0d20a1	-0.13781978
17	0x3e11dfd3	0.14245538
18	0xbce13d66	-0.027495097
19	0xbb1d233a	-0.0023977295
20	0x3da4c904	0.08046153
21	0xbd48b2ca	-0.04899863
22	0xbd027d2a	-0.031857647
23	0xbe7ceb83	-0.24699216
24	0x3d56e40a	0.05246357
25	0x3daf7bbc	0.08568522
26	0xbd2a7fd5	-0.041625816
27	0xbe1e550b	-0.15462129
28	0xbe861f9f	-0.26196
29	0x3e6a01ee	0.22852299
30	0xbba45993	-0.005015561
31	0xbe7bd9c8	-0.24594796
32	0xbdbef585	-0.09324173
33	0x3d8578d2	0.06517185
34	0x3dcc1d19	0.099664874
35	0xbd6ecf9a	-0.058303453
36	0xbd3d42e6	-0.046206377
37	0x3e615331	0.22004391
38	0xbe7465f0	-0.23867011
39	0xbdbeff1d	-0.09326003
40	0x3da26e23	0.07931163
41	0xbbc93e7d	-0.0061414824
42	0xbd6151e7	-0.05500975
43	0x3daea10c	0.08526811
44	0x3e62e024	0.22155815
45	0xbe5a8973	-0.21341495
46	0xbe5e6841	-0.21719457
47	0xbd9b7204	-0.07590106
48	0xbda4fd8f	-0.08056175
49	0xbdea4f21	-0.11440874
50	0xbdcb00bb	-0.09912249
51	0xbd9e3e23	-0.077266954
52	0x3d1c3e35	0.038145263
53	0xbe2be84e	-0.16787836
54	0xbe4600ec	-0.19336289
55	0x3d60669c	0.054785356
56	0xbda69261	-0.08133388
57	0x3d613515	0.054982264
58	0xbe1d8073	-0.1538103
59	0xbdaff9c2	-0.085925594
60	0xbdd5b9e3	-0.10435846
61	0xbd7588a5	-0.059944768
62	0xbe627a1a	-0.2211689
63	0xbc8e4477	-0.017366631
64	0x3e73a2eb	0.23792617
65	0xbe6c6b23	-0.23087744
66	0xbcf37d19	-0.029722737
67	0x3c7b0bdd	0.015322653
68	0xbd99d383	-0.07511046
69	0xbd97ba7a	-0.074086145
70	0x3df44b50	0.11928427
71	0x3e707c23	0.23484854
72	0x3e107383	0.14106564
73	0xbe5cb824	-0.21554619
74	0xbdc311eb	-0.09524902
75	0xbda9b988	-0.082873404
76	0xbdad7407	-0.08469396
77	0x3d35593f	0.044274565
78	0xbe277a74	-0.16355306
79	0xbe298908	-0.1655618
80	0x3dab2740	0.08357096
81	0xbd438619	-0.047735307
82	0x3e376c12	0.1791232
83	0x3e06e7fa	0.1317443
84	0x3e699e24	0.22814232
85	0x3da1d4cf	0.07901918
86	0xbe16e56a	-0.14735952
87	0xbe626a6b	-0.22110908
88	0x3d13b09b	0.036057096
89	0x3e2509d5	0.16117032
90	0x3e3aadc1	0.18230344
91	0x3d2e6238	0.042574137
92	0xbde99cf5	-0.1140689
93	0xbc4ce591	-0.012505905
94	0xbd784a5b	-0.060617786
95	0x3e0d3861	0.13791038
96	0x3cf2ec8b	0.029653808
97	0xbda7883e	-0.08180283
98	0x3d486021	0.0489198
99	0xbe2ae485	-0.16688736
100	0xbd8e60b9	-0.06952042
101	0xbd8edf79	-0.06976218
102	0x3d5470d7	0.051865425
103	0xbd3aeff8	-0.04563901
104	0x3d2d7776	0.042350255
105	0xbdb8952b	-0.090128265
106	0xbe21f9d5	-0.1581796
107	0x3e151556	0.1455892
108	0xbd1d4ebd	-0.03840517
109	0xbe540f06	-0.20708856
110	0x3deda56f	0.116038196
111	0x3e830794	0.2559172
112	0xbd89583c	-0.067062825
113	0xbd4bf99d	-0.049798597
114	0x3ddb8161	0.107180364
115	0xbde05f05	-0.109556235
116	0xbe836966	-0.2566635
117	0x3daa9628	0.08329421
118	0x3cedab88	0.029012457
119	0xbd5a0584	-0.053227916
120	0xbdabd5d5	-0.083903946
121	0x3dba9ed8	0.09112328
122	0x3dcb95f6	0.09940712
123	0xbe4bb327	-0.1989256
124	0x3ca5fc87	0.020262016
125	0x3b070d07	0.002060713
126	0xbc70cc3f	-0.014697134
127	0x3cdcd661	0.026957693
128	0x3d8aa888	0.06770426
129	0x3a92aab7	0.0011189793
130	0xbe49bdd1	-0.19701315
131	0x3e3e2edb	0.18572561
132	0x3d0be3be	0.03415274
133	0xbda58138	-0.08081287
134	0x3bdea80f	0.0067949365
135	0x3e1aa3fb	0.15101616
136	0x3e49fe0c	0.19725817
137	0x3db12ab8	0.08650726
138	0xbd8546a4	-0.06507614
139	0xbe374c4f	-0.17900203
140	0x3e4ae700	0.19814682
141	0xbd4bd65a	-0.04976497
142	0x3dce16e6	0.10062961
143	0xbdba19e8	-0.090869725
144	0xbd01cbdd	-0.03168856
145	0xbd325360	-0.043536544
146	0xbe0dce3f	-0.13848208
147	0x3d9f12f0	0.07767284
148	0xbded7c22	-0.11595942
149	0xbe1daef2	-0.15398768
150	0x3daf7d32	0.08568801
151	0x3d89a32a	0.06720574
152	0xbd98009a	-0.0742199
153	0xbe20a098	-0.15686262
154	0xbc1ce399	-0.009575748
155	0xbdaa27e9	-0.083083935
156	0x3dca6448	0.098824084
157	0x3e96904e	0.2940697
158	0x3df4fd58	0.11962384
159	0x3d6582b9	0.05603287
160	0xbd3da700	-0.04630184
161	0xbd792208	-0.06082347
162	0xbe89c42b	-0.26907477
163	0xbdea5ef7	-0.11443894
164	0x3e266f3b	0.16253369
165	0xbdd6da9d	-0.10490916
166	0x3b613de1	0.0034369158
167	0xbe9c7bf3	-0.30563316
168	0xbde63dda	-0.11242266
169	0x3dd015bd	0.10160396
170	0x3db50473	0.08838739
171	0xbae53326	-0.0017486557
172	0xbe17d97c	-0.14829057
173	0xbd5a6b7d	-0.053325165
174	0xbb599dfc	-0.0033205738
175	0x3e3c2830	0.18374705
176	0x3dda6224	0.1066325
177	0xbdaeed5e	-0.08541368
178	0xbe089b77	-0.13340555
179	0x3d7a3d26	0.061093472
180	0x3d510cb5	0.05103751
181	0xbe457d68	-0.1928612
182	0xbd04db3d	-0.032435644
183	0xbd9f8339	-0.077887006
184	0xbe3e8bf4	-0.18608075
185	0x3dece6ed	0.11567483
186	0xbe42faf4	-0.19041044
187	0xbe5fd458	-0.21858346
188	0xbe20395b	-0.1564688
189	0xbe585cf9	-0.21129216
190	0xbe0ac284	-0.13550764
191	0x3e0cfde6	0.1376873
192	0x3d4cf113	0.050034594
193	0x3da93bae	0.08263336
194	0x3d9f1248	0.07767159
195	0xbcff76ae	-0.03118452
196	0x3e0b3fc9	0.13598551
197	0x3e21c0f5	0.15796264
198	0xbd202584	-0.039098278
199	0xbc7e5d17	-0.015525124
200	0x3e05c961	0.13065101
201	0xbe1a5a65	-0.15073545
202	0x3d3cebb9	0.04612324
203	0x3dedc8e6	0.11610584
204	0x3e1d2141	0.15344717
205	0xbe30fe0b	-0.1728441
206	0x3e3fe1ed	0.18738528
207	0xbe7a1826	-0.24423274
208	0x3d8e3345	0.06943373
209	0xbdd085ab	-0.10181745
210	0x3d18d006	0.03730776
211	0x3d86c554	0.06580606
212	0x3e061b0e	0.13096258
213	0x3e6c1871	0.23056199
214	0x3dc1226b	0.09430393
215	0x3c8d4ce1	0.017248573
216	0x3a7561c3	0.0009360576
217	0x3d0fd7fc	0.035118088
218	0xbde52ec4	-0.111905605
219	0x3e3e949a	0.18611374
220	0x3e37c78b	0.17947213
221	0x3cc5b066	0.024131965
222	0x3ccd7dde	0.025084432
223	0x3dfa9354	0.12235132
224	0x3b82b3f8	0.003988739
225	0xbe7afa84	-0.24509627
226	0x3e1d1692	0.15340641
227	0xbe8afc4e	-0.27145618
228	0x3e6f4e1b	0.23369639
229	0xbe15c64d	-0.14626427
230	0x3e7b1f02	0.24523547
231	0x3e82eafb	0.255699
232	0x3dbcdbdc	0.09221622
233	0xbd93c73f	-0.072157376
234	0xbde97a7c	-0.11400315
235	0xbe1a1de5	-0.15050466
236	0x3cf25110	0.02957967
237	0x3d0152bb	0.03157304
238	0xbe5003a7	-0.20313893
239	0xbd0cd14a	-0.03437928
240	0xbdfc15a3	-0.123088144
241	0x3be9a362	0.0071300725
242	0x3bc934fa	0.0061403485
243	0x3de6c9bc	0.112689465
244	0x3e296bbb	0.16545002
245	0xbd7247e4	-0.05915059
246	0x3e5d41e6	0.2160717
247	0xbe224532	-0.15846708
248	0xbd061df4	-0.03274341
249	0x3db6d49e	0.08927272
250	0xbd88243e	-0.06647538
251	0xbc97d20c	-0.018532775
252	0xbe20c1a2	-0.15698865
253	0x3e4a1b25	0.19736917
254	0x3e66a4dd	0.22523828
255	0x3e083b41	0.13303854

bias_ih_l1 f4 [80]
0	0x3d1fb012	0.038986273
1	0xbda4fa98	-0.080556095
2	0x3e519fef	0.20471166
3	0x3cac89eb	0.021061858
4	0xbcaedaee	-0.021344628
5	0xbd72e770	-0.059302747
6	0x3df4c188	0.11950976
7	0x3d6f32dc	0.058398113
8	0xbdcbb793	-0.099471234
9	0xbc4f0a08	-0.012636669
10	0x3d8014ef	0.06253993
11	0xbdbdb19c	-0.09262392
12	0xbd9f6135	-0.07782213
13	0x3d71baf5	0.059016187
14	0xbe1954b4	-0.14973718
15	0x3e78b080	0.2428608
16	0xbe4c3587	-0.19942294
17	0x3dee39b0	0.11632097
18	0xbdab98ea	-0.083787754
19	0x3c87bd6c	0.016569816
20	0x3d4e1b09	0.05031875
21	0x3e22a28f	0.15882324
22	0x3c03e359	0.008049809
23	0xbde148df	-0.11000227
24	0x3e39c031	0.18139721
25	0x3e41051b	0.18849604
26	0x3d910f51	0.070829995
27	0x3e6d284f	0.23159908
28	0x3e7e83b7	0.24854933
29	0xbc1c4f5c	-0.009540405
30	0x3db4a300	0.08820152
31	0x3e328480	0.17433357
32	0x3d5ff1c5	0.05467393
33	0x3dad4058	0.08459538
34	0x3e5520b1	0.20813252
35	0xbb8b4238	-0.0042498372
36	0x3e218403	0.15773015
37	0x3e755188	0.23956883
38	0x3d5d9f13	0.054106783
39	0xbe019b28	-0.12656844
40	0xbe0d49c5	-0.13797672
41	0x3e53f23d	0.20697875
42	0xbe7e24bd	-0.24818702
43	0x3e1b2b59	0.15153255
44	0xbca63108	-0.020287052
45	0x3b12948f	0.002236638
46	0xbd92230d	-0.07135592
47	0xbe2822a8	-0.1641947
48	0xbd3ea6a3	-0.046545636
49	0x3e4aab31	0.19791867
50	0xbda366b4	-0.079785734
51	0xbe38c460	-0.18043661
52	0xbdcc925d	-0.09988854
53	0x3e4bfbd6	0.19920287
54	0xbd7a3cbd	-0.06109308
55	0xbe1343d4	-0.14381343
56	0x3e3aa615	0.18227418
57	0x3d0c0848	0.034187585
58	0xbdd449bd	-0.10365627
59	0x3e482130	0.1954391
60	0xbcdec3cf	-0.027192978
61	0xbd3c87df	-0.046028014
62	0xbdb21c86	-0.08696847
63	0xbd35a00b	-0.044342082
64	0x3e779e70	0.24181533
65	0x3c398606	0.011323458
66	0x3e1ea105	0.15491112
67	0x3e245fdd	0.16052194
68	0x3e85ef04	0.26158917
69	0x3e1617ed	0.14657564
70	0x3e38d55d	0.18050142
71	0x3e3712ea	0.17878309
72	0x3e19c491	0.1501639
73	0x3dd0cb91	0.10195077
74	0x3e35ede8	0.17766535
75	0xbe296d45	-0.1654559
76	0x3e62226f	0.22083448
77	0xbd558ff5	-0.05213924
78	0xbdaec61f	-0.08533882
79	0xbca1e86f	-0.019764153

bias_hh_l1 f4 [80]
0	0x3e6bf6e2	0.23043397
1	0xbe2eba87	-0.17063342
2	0xbdb09c52	-0.08623566
3	0xbd9727f8	-0.0738067
4	0x3dc95d4e	0.098322496
5	0x3e8919f6	0.2677762
6	0xbcd9d590	-0.026591092
7	0xbe04c471	-0.12965561
8	0xbd927104	-0.07150462
9	0x3e1f743c	0.15571684
10	0x3e0dc31f	0.13843964
11	0x3df0c53e	0.11756371
12	0x3e235af3	0.15952663
13	0x3e1195e7	0.1421734
14	0x3e2c3aa5	0.16819246
15	0x3c61c31b	0.013779427
16	0xbdd70bd2	-0.105003014
17	0x3e1c7dc8	0.15282357
18	0x3df9ed48	0.12203461
19	0x3db78627	0.089611344
20	0x3e4dc904	0.20096213
21	0x3df3b78e	0.11900245
22	0xbd4b301d	-0.04960643
23	0xbdfe20df	-0.124086134
24	0x3e4db6e1	0.20089294
25	0xbe1bd23e	-0.1521692
26	0x3b3c299b	0.0028711322
27	0xbd8c821a	-0.068607524
28	0xbe191393	-0.14948873
29	0x3caee9b6	0.021351676
30	0x3e5b1f63	0.21398692
31	0x3ca3a7cc	0.019977473
32	0x3e132db5	0.14372905
33	0x3e3c84b3	0.18409996
34	0xbe21f6c4	-0.1581679
35	0x3cee7068	0.029106334
36	0x3e2fec96	0.17180094
37	0x3e3786ab	0.17922466
38	0x3da750d9	0.08169717
39	0xbe0bffaf	-0.13671754
40	0x3d974b8e	0.07387458
41	0xbde40ee9	-0.111356564
42	0x3db054f0	0.086099505
43	0xbdcea485	-0.10089973
44	0x3d87d3b5	0.06632177
45	0xbdf3c10f	-0.119020574
46	0x3d8e43e8	0.06946546
47	0xbe89cf48	-0.26915956
48	0xbe6a249c	-0.22865528
49	0xbd999714	-0.07499519
50	0x3e448b52	0.19193771
51	0xbd15dca3	-0.03658737
52	0xbe8652e3	-0.26235113
53	0xbca54355	-0.020173708
54	0x3e0ab413	0.13545255
55	0x3e4a82ba	0.1977643
56	0x3e2c35d2	0.16817406
57	0x3e2e6e21	0.17034198
58	0xbe739d42	-0.23790458
59	0xbe203939	-0.15646829
60	0x3e838010	0.2568364
61	0xbd2deb70	-0.04246086
62	0x3e7825cf	0.24233173
63	0xbe0e890c	-0.13919467
64	0xbdd5456e	-0.10413633
65	0x3c891fa6	0.016738724
66	0xbe2118b0	-0.15732074
67	0x3e3f9dd1	0.18712546
68	0x3dee5630	0.11637533
69	0x3e8508dd	0.25983325
70	0xbe2ec04a	-0.1706554
71	0x3d316669	0.043310557
72	0x3e81af0f	0.25328872
73	0xbdb95592	-0.09049524
74	0x3e6c32f0	0.23066306
75	0xbd56bb35	-0.05242463
76	0x3e366db9	0.17815293
77	0x3d2aebf8	0.041728944
78	0x3b8cd1a0	0.00429745
79	0x3d239f64	0.03994693

weight_ih_l2 f4 [80, 20]
0	0xbe3c45bb	-0.18385975
1	0xbd9ed24c	-0.07754955
2	0xbe899e92	-0.26878792
3	0xbe8d07f6	-0.27545136
4	0x3ddc5c84	0.107598335
5	0x3c8e1d15	0.017347852
6	0x3dff6137	0.12469714
7	0xbe3704cb	-0.17872922
8	0x3cb1ed10	0.021719486
9	0x3e113af7	0.1418265
10	0x3e79d89c	0.24399036
11	0xbe04266b	-0.1290528
12	0x3de5a2fc	0.112127274
13	0xbe2eb39b	-0.17060702
14	0x3d6b5cb8	0.05746147
15	0x3db0f580	0.086405754
16	0x3d1c9569	0.038228426
17	0xbdb5f85e	-0.08885263
18	0xbded4551	-0.11585487
19	0xbe2e9111	-0.17047526
20	0xbe345763	-0.1761146
21	0xbbcf8e3e	-0.0063340953
22	0x3c5a1613	0.013310927
23	0x3d88cd12	0.06679739
24	0x3d0c9b54	0.03432782
25	0xbe6cd35a	-0.23127499
26	0xbdffdc67	-0.1249321
27	0xbd9deec7	-0.07711559
28	0x3e6ae4ed	0.22938891
29	0xbe6007fe	-0.21878049
30	0xbe0ccbeb	-0.13749664
31	0xbdf3186b	-0.11869892
32	0xbe8c11e2	-0.27357394
33	0xbe40ff63	-0.18847422
34	0x3c364984	0.011125926
35	0x3e1cad98	0.15300596
36	0xbe656737	-0.22402655
37	0x3e69c1d9	0.22827853
38	0xbe258869	-0.16165318
39	0xbdb9605a	-0.09051581
40	0x3d2e87ab	0.04260985
41	0xbe25e297	-0.16199718
42	0xbe12f2e6	-0.14350471
43	0x3d8701c2	0.06592132
44	0x3d7d3127	0.061814453
45	0xbdc89574	-0.09794131
46	0xbe490b74	-0.19633275
47	0xbe1c5bcc	-0.15269393
48	0x3e14aceb	0.14519088
49	0xbe055b16	-0.13023028
50	0x3e00c9f9	0.12577046
51	0xbe469079	-0.1939105
52	0x3df3cf15	0.11904732
53	0x3dd3964e	0.10331403
54	0xbd9e0110	-0.077150464
55	0x3cf7352b	0.03017672
56	0x3e0ea593	0.13930349
57	0x3e652c10	0.2238009
58	0xbc660312	-0.014038818
59	0x3d196521	0.03744996
60	0xbd865856	-0.065598175
61	0x3c7c4469	0.01539717
62	0xbde884de	-0.113534674
63	0xbd882e5b	-0.066494666
64	0x3d058c3b	0.032604437
65	0x3e0766c0	0.1322279
66	0x3d36dd0e	0.044644408
67	0xbc7c7d77	-0.0154107725
68	0xbe22be6a	-0.1589295
69	0xbe723b27	-0.23655377
70	0x3e76f358	0.24116266
71	0x3e47468a	0.19460502
72	0xbe5baba6	-0.21452197
73	0xbe70b48a	-0.2350637
74	0x3cd14eef	0.025550334
75	0xbcf660f0	-0.03007552
76	0xbdea0abc	-0.11427829
77	0x3e31e663	0.17373042
78	0x3e2935af	0.16524385
79	0x3e1e6d53	0.15471391
80	0x3df26eda	0.118375495
81	0xbdaad09f	-0.083405726
82	0xbd6cc99d	-0.05780946
83	0x3dff3e1a	0.12463017
84	0xbe0f8ebb	-0.14019291
85	0xbcac0723	-0.020999497
86	0xbda02be2	-0.0782087
87	0xbd74f9e4	-0.059808627
88	0x3c0c8eac	0.0085789375
89	0xbe07be24	-0.13256127
90	0x3d26c0c0	0.040711164
91	0xbdeebd41	-0.11657191
92	0x3e4fefdb	0.20306341
93	0xbe8bdf26	-0.27318686
94	0xbd943f2d	-0.07238612
95	0x3e4ffc27	0.20311032
96	0xbd1b7db8	-0.03796169
97	0x3d2ee043	0.04269434
98	0xbd8e0310	-0.06934178
99	0xbe26393a	-0.16232768
100	0xbc5633b3	-0.0130738495
101	0x3dcbb7e4	0.09947184
102	0x3e009d8b	0.12560098
103	0x3dcee60e	0.10102473
104	0xbcf92fa2	-0.03041822
105	0x3e3ab4b8	0.18233001
106	0x3e4a53ce	0.19758531
107	0xbdb050cd	-0.086091615
108	0xbdc266e8	-0.09492284
109	0x3e053f83	0.13012509
110	0x3e5cf1a2	0.2157655
111	0xbe180760	-0.14846563
112	0x3dcd0c34	0.10012093
113	0x3e422f72	0.18963411
114	0xbdd9e45b	-0.106392585
115	0x3e44feb6	0.1923779
116	0xbde8ffde	-0.11376928
117	0x3e85a1d1	0.2610002
118	0x3d1a900d	0.037735034
119	0xbd8243d1	-0.06360591
120	0x3e31408d	0.1730978
121	0x3d85c379	0.06531424
122	0x3d0ed69b	0.034872632
123	0x3abb74c8	0.0014301771
124	0xbe785086	-0.24249467
125	0x3dc2d4f2	0.09513272
126	0xbdc47052	-0.09591736
127	0x3c598c3e	0.013278065
128	0xbe9a52c0	-0.30141258
129	0x3e4a6cc8	0.19768059
130	0x3d64d63a	0.055868365
131	0xbe1a7ca4	-0.15086609
132	0xbc4c5e4c	-0.012473654
133	0x3d2b478c	0.04181628
134	0x3e668525	0.22511728
135	0xbe780a71	-0.24222733
136	0xbe073bbe	-0.13206384
137	0xbda7dfa4	-0.08196953
138	0xbe993c64	-0.29928887
139	0x3cb8575a	0.02250259
140	0x3e199b17	0.15000568
141	0x3dbc64ef	0.09198939
142	0xbe4317cd	-0.19052048
143	0x3de03071	0.109467395
144	0x3dccc3f7	0.09998315
145	0xbe135b24	-0.14390236
146	0x3e0f0a87	0.1396886
147	0xbe70c45f	-0.2351241
148	0x3e12a991	0.14322497
149	0x3e1ff8bc	0.15622228
150	0x3e903039	0.2816179
151	0x3dd0c33a	0.101934865
152	0xbc2133b3	-0.009838986
153	0xbe6b4c3c	-0.229783
154	0xbd43e40b	-0.0478249
155	0xbe0465fe	-0.12929532
156	0xbe2d1932	-0.16904142
157	0xbd43f3d9	-0.047839973
158	0xbe4ac1d2	-0.19800499
159	0x3cb4fb0b	0.022092363
160	0xbde43263	-0.11142423
161	0xbc998654	-0.01874081
162	0xbc811976	-0.015759211
163	0x3e112c4c	0.14177054
164	0x3e302c57	0.17204414
165	0xbe1f7735	-0.15572818
166	0xbe0d4552	-0.13795975
167	0x3d02cdd6	0.03193458
168	0xbe065904	-0.13119894
169	0xbe269448	-0.16267502
170	0x3e24b373	0.1608408
171	0xbd9b7576	-0.07590763
172	0x3d405ea5	0.04696526
173	0xbdf31fd9	-0.11871309
174	0xbe2929da	-0.16519871
175	0xbce12e20	-0.027487814
176	0x3d440855	0.04785951
177	0x3e59b787	0.21261416
178	0xbdc10c09	-0.09426124
179	0x3d4116f2	0.047141023
180	0xbe439adb	-0.19102041
181	0x3bcf5276	0.006326969
182	0xbe8c54e9	-0.2740853
183	0x3d93c66d	0.07215581
184	0x3e434b1f	0.19071625
185	0xbe11aa57	-0.14225136
186	0x3e4cd549	0.20003237
187	0xbe80c33d	-0.25148955
188	0xbde2fc33	-0.110832594
189	0xbd2e0a02	-0.042490013
190	0x3dff4964	0.1246517
191	0xbe5a9828	-0.21347106
192	0xbd7ee683	-0.06223155
193	0xbcdc6f9f	-0.026908694
194	0xbe278bc9	-0.16361918
195	0x3e6429ab	0.2228152
196	0x3d48fac7	0.049067285
197	0xbe0d0d3a	-0.13774577
198	0x3cd9f0bd	0.02660405
199	0xbe36f684	-0.17867476
200	0xbe5800da	-0.21094075
201	0x3dc41ef1	0.09576214
202	0x3e08cd4e	0.13359568
203	0x3d483949	0.048882756
204	0xbd2626f6	-0.0405645
205	0xbe8e1221	-0.27748206
206	0xbc90c498	-0.017671868
207	0x3dcc3bb4	0.09972325
208	0x3d7f2884	0.062294498
209	0x3d0b1717	0.033957567
210	0x3e144b4b	0.14481847
211	0xbdd512a6	-0.104039475
212	0x3bba86c6	0.005692336
213	0xbdcec522	-0.10096194
214	0xbe31e7fe	-0.17373654
215	0x3cee3aad	0.029080713
216	0xbe7e6119	-0.24841727
217	0x3e81421c	0.2524575
218	0x3dff1d54	0.12456766
219	0xbd902632	-0.07038535
220	0xbc972f9a	-0.018455315
221	0x3d98368f	0.07432281
222	0xbe8c3f40	-0.27392006
223	0xbe229116	-0.15875658
224	0x3e63ee26	0.22258815
225	0xbe219210	-0.15778375
226	0xbe306b64	-0.17228466
227	0xbe65e825	-0.22451837
228	0x3cea3a05	0.028592119
229	0xbe57a25c	-0.21058029
230	0x3db3cfe5	0.08779887
231	0xbe0a0de0	-0.13481855
232	0xbe85c709	-0.26128414
233	0xbddb18ba	-0.106980756
234	0x3ddc25c5	0.107493915
235	0xbe11cb29	-0.14237656
236	0xbe318165	-0.17334516
237	0xbe21359d	-0.15743108
238	0xbe8a7cef	-0.27048442
239	0x3de3b762	0.11118962
240	0xbe03db67	-0.12876664
241	0x3dbbdc23	0.09172847
242	0xbe2b6bee	-0.1674039
243	0xbe8f853e	-0.28031343
244	0xbc8e27c7	-0.017352952
245	0x3de95ea1	0.11395002
246	0x3d65bdb7	0.05608913
247	0xbb91b645	-0.004446777
248	0x3de6bfcc	0.11267051
249	0xbb8dafaa	-0.0043239193
250	0xbd193b3e	-0.037410013
251	0xbe0ff2c7	-0.14057456
252	0xbe09b95d	-0.13449617
253	0x3d137ab5	0.036005694
254	0x3e2720b9	0.16321076
255	0xbc20d9fe	-0.009817598

weight_hh_l2 f4 [80, 20]
0	0xbd9d3b85	-0.07677368
1	0x3e50f86e	0.20407268
2	0x3e566a2f	0.20938943
3	0xbdef815c	-0.11694595
4	0x3dcb652b	0.09931406
5	0x3ddf0bae	0.108908996
6	0xbd982a17	-0.07429903
7	0xbdbc3a47	-0.09190803
8	0xbc2c968e	-0.010533942
9	0xbdc1d982	-0.094653144
10	0xbdbac740	-0.09120035
11	0x3c66832a	0.014069358
12	0x3d2c1fcb	0.042022508
13	0x3d1c3968	0.038140684
14	0xbdbd58c0	-0.09245443
15	0xbe4cb01b	-0.19989054
16	0x3d2c92ac	0.042132065
17	0x3e0f53bf	0.1399679
18	0xbd13dfa7	-0.036101963
19	0x3e0022f8	0.1251334
20	0x3da46047	0.08026176
21	0x3da164a1	0.078805216
22	0x3e71c699	0.23610915
23	0x3d19625b	0.037447315
24	0x3d06be17	0.032896128
25	0xbe66ca8b	-0.22538202
26	0xbde3c8b7	-0.11122268
27	0xbddf5855	-0.1090552
28	0xbe59a116	-0.21252856
29	0x3e502dbc	0.20329946
30	0xbb8a717e	-0.004224955
31	0xbdebb7ac	-0.11509642
32	0xbd86ea84	-0.06587699
33	0xbde0fff3	-0.109863184
34	0x3ced7c5c	0.028989963
35	0xbdb37de9	-0.0876425
36	0x3d44421c	0.04791461
37	0x3da2a70f	0.0794202
38	0xbe1de8d4	-0.15420848
39	0xbe005d40	-0.12535572
40	0x3e867b92	0.26266152
41	0xbdd4247b	-0.103585206
42	0x3cfb7057	0.030693216
43	0x3e6255f4	0.22103101
44	0xbe5e42d6	-0.21705183
45	0xbe3a2120	-0.18176699
46	0x3dfb8602	0.12281419
47	0x3dfe48f6	0.1241626
48	0xbcea1753	-0.028575575
49	0xbe34634e	-0.17616007
50	0xbe2f7c3f	-0.1713724
51	0x3e1104d7	0.14162003
52	0x3d061b0a	0.03274063
53	0x3e256877	0.16153131
54	0xbe0c6925	-0.13711984
55	0xbdc37dc8	-0.09545475
56	0x3e1b0feb	0.15142791
57	0x3c671363	0.014103743
58	0xbe5487ff	-0.20755003
59	0x3e19217d	0.14954181
60	0xbd4506a2	-0.04810203
61	0x3c793ea7	0.015212691
62	0x3d408562	0.047002204
63	0x3dc8aa61	0.09798122
64	0xbe0ac96f	-0.13553403
65	0x3d27fcd7	0.04101261
66	0x3e525b64	0.20542675
67	0x3d52b5c7	0.051442888
68	0xbddd2f86	-0.1080008
69	0x3e1d8765	0.1538368
70	0x3df5e0da	0.12005778
71	0x3dd338db	0.10313579
72	0x3e0858b3	0.13315086
73	0xbc792cca	-0.015208432
74	0xbe81a8d1	-0.2532411
75	0x3dd5aa8c	0.1043292
76	0xbe248f94	-0.16070396
77	0x3b177c09	0.0023114702
78	0x3e719019	0.23590125
79	0x3ddee020	0.10882592
80	0xbdc4eb14	-0.0961515
81	0xbe7cdc91	-0.24693514
82	0x3d78cc1a	0.06074152
83	0xbd129ba6	-0.03579297
84	0x3dadb223	0.084812425
85	0x3e33a1b7	0.17542158
86	0x3e5eadc4	0.21745974
87	0x3e509c71	0.20372178
88	0xbd1131f4	-0.03544803
89	0x3dc62100	0.09674263
90	0x3db0d33e	0.08634041
91	0x3db661a4	0.08905342
92	0xbe434c28	-0.1907202
93	0x3c73fc30	0.014891669
94	0x3dcc6505	0.099802054
95	0xbdec96a1	-0.11552168
96	0xbd5aa863	-0.053383242
97	0xbce39518	-0.027781054
98	0xbe05a417	-0.13050877
99	0xbe228510	-0.15871072
100	0x3ca86720	0.020556986
101	0xbe19f9d9	-0.15036716
102	0x3e83efd3	0.2576891
103	0x3ce66abe	0.02812707
104	0xbe458f5a	-0.19292966
105	0x3c8f8762	0.01752061
106	0x3d1a44cf	0.037663277
107	0x3e847ad7	0.2587497
108	0xbdd4895e	-0.10377763
109	0x3d9a92df	0.07547545
110	0xbe0e3900	-0.13888931
111	0xbd8878a6	-0.06663637
112	0x3e34fdc1	0.17674924
113	0x3e491fbc	0.19641012
114	0xbe6a3dd0	-0.22875142
115	0xbe43e207	-0.19129191
116	0x3dee31b9	0.116305776
117	0xbd548485	-0.051884193
118	0x3e180ef4	0.14849454
119	0x3e375f3e	0.17907426
120	0x3e5b1bd2	0.21397331
121	0x3e714d86	0.23564729
122	0x3e39fc40	0.18162632
123	0x3cf8d655	0.030375639
124	0x3e493e61	0.19652702
125	0x3e36e4e5	0.17860754
126	0x3da046e9	0.07826025
127	0xbde38352	-0.11109032
128	0x3e0918dc	0.1338839
129	0xbe52821f	-0.2055745
130	0x3e1a69aa	0.1507937
131	0x3e8467f3	0.25860557
132	0x3ddaab52	0.10677208
133	0x3d084b99	0.03327522
134	0x3bca3d0c	0.006171828
135	0xbe60f72e	-0.21969292
136	0x3dab2a97	0.08357733
137	0x3e89f0d0	0.26941538
138	0xbdd32f4b	-0.10311755
139	0x3e1bb242	0.15204719
140	0x3c4fe459	0.01268872
141	0xbe1251f0	-0.14289069
142	0xbd826742	-0.06367351
143	0xbe1128f4	-0.14175779
144	0xbd474f1f	-0.04865944
145	0x3cfa24cc	0.030535124
146	0x3ea87ed2	0.32909256
147	0x3ea00aaf	0.3125815
148	0x3dc5365e	0.0962951
149	0x3deabc96	0.11461751
150	0xbdaab9d6	-0.08336227
151	0xbc589f09	-0.013221511
152	0xbe72cc16	-0.23710665
153	0x3dbe095b	0.09279128
154	0xbe5883cc	-0.21144027
155	0xbe4061c4	-0.18787295
156	0x3e88b357	0.26699325
157	0xbe32215b	-0.17395537
158	0x3e146e2b	0.1449515
159	0xbe09080b	-0.13381974
160	0x3e6f7c98	0.23387372
161	0x3e0a00f7	0.1347693
162	0x3e3b8593	0.18312673
163	0xbd77f119	-0.060532663
164	0xbe5dc703	-0.21657948
165	0x3d73bc63	0.05950583
166	0x3c8e42b4	0.01736579
167	0xbd35a8ec	-0.04435055
168	0xbe969cc7	-0.29416487
169	0xbc4cc252	-0.012497501
170	0xbc3e6296	-0.011620184
171	0xbd88c349	-0.06677873
172	0x3e1f167b	0.1553592
173	0xbe1b5acd	-0.15171356
174	0xbe7e8a26	-0.24857387
175	0x3e0ca71e	0.13735625
176	0xbca02327	-0.019548012
177	0x3e0ecd15	0.1394542
178	0xbdc3aed0	-0.09554827
179	0xbe01c5d0	-0.12673116
180	0x3e3bfaf1	0.18357445
181	0xbe2fd984	-0.1717282
182	0x3ddec541	0.10877467
183	0x3e58cf96	0.21172938
184	0xbe51f086	-0.20501909
185	0xbe1c60a6	-0.15271243
186	0x3d96d5d2	0.07365002
187	0x3d7935e2	0.060842402
188	0xbd53f7ea	-0.0517501
189	0x3e2270b0	0.158633
190	0xbe249ba2	-0.16074994
191	0x3d05c6aa	0.032660164
192	0xbe07787f	-0.1322956
193	0xbdce9954	-0.10087839
194	0xbe524e4e	-0.20537683
195	0xbe493179	-0.19647779
196	0xbd24cfb4	-0.040237144
197	0x3df10cc8	0.11770016
198	0xbe27bbe7	-0.16380273
199	0xbda42702	-0.08015253
200	0x3df8f873	0.12156763
201	0x3d08668a	0.033300914
202	0x3d7bad49	0.061444554
203	0x3db644b8	0.08899826
204	0x3e1259d8	0.14292085
205	0xbe63e075	-0.22253592
206	0x3e4a1212	0.19733456
207	0xbdf87ccf	-0.1213318
208	0x3dc0c7a0	0.094130754
209	0x3d480bea	0.048839487
210	0xbd69e9d0	-0.057107747
211	0xbdda3d0b	-0.10656174
212	0x3e2839df	0.16428326
213	0x3ddbcbb2	0.10732211
214	0x3e18cd33	0.14922027
215	0x3d9d98c4	0.07695153
216	0x3da817ca	0.082076624
217	0xbdde9fff	-0.108703606
218	0x3e1c60f4	0.1527136
219	0x3d53a809	0.051673923
220	0xbe1aea7a	-0.15128508
221	0x3df614d8	0.120156944
222	0x3de9e06f	0.114197604
223	0x3d887c80	0.066643715
224	0x3e3a8c84	0.18217665
225	0xbb0c965e	-0.002145193
226	0x3e86a0c6	0.26294535
227	0x3e0bb38d	0.13642712
228	0x3df27d6d	0.11840329
229	0x3cbe9c02	0.02326775
230	0xbdf3de84	-0.11907676
231	0x3d4f942b	0.050678413
232	0xbc33e89e	-0.010980753
233	0x3ddaa3e5	0.10675792
234	0xbdfab0ea	-0.12240775
235	0xbc846a73	-0.01616404
236	0xbe367117	-0.17816578
237	0xbcc5d6c9	-0.02415027
238	0x3dbe5625	0.092937745
239	0xbe66a706	-0.22524652
240	0xbd32101a	-0.043472387
241	0x3e068570	0.1313684
242	0x3e9e9b4f	0.30977866
243	0xbde476e8	-0.11155492
244	0x3df72251	0.12067092
245	0x3e5dd2a3	0.21662383
246	0x3e6b9b13	0.23008375
247	0x3ea110c9	0.3145812
248	0xbcbbfbdf	-0.02294725
249	0x39c1370d	0.00036852845
250	0x3e24ca56	0.1609281
251	0x3c326749	0.010888883
252	0x3d528fe3	0.051406752
253	0x3e238f83	0.15972714
254	0x3d6db004	0.05802919
255	0x3d403e87	0.04693463
