LSTM/code/model/old_model/model_mk3.pt (torch, 72687 bytes, 18 tensors)

weight_ih_l0 f4 [80, 88]
000000 c2 9e 55 3e f1 05 8d be 6e 8e b7 bd 1f 43 d9 3b
       0.20861343 -0.27543595 -0.08962713 0.006630316
000010 1f 27 c9 bc 03 67 27 be bc fe 33 3e 9f 99 2b 3e
       -0.024554787 -0.1634789 0.17577642 0.1675782
000020 1b 82 af 3d dc 59 80 be e9 e8 f3 3d 0d 5f 87 3e
       0.085697375 -0.25068557 0.119096585 0.26439705
000030 a0 ab 67 be 19 fe e5 bd 48 a7 66 be 11 09 0e bd
       -0.22624063 -0.11230106 -0.2252475 -0.034676615
000040 57 59 43 be b1 f6 bc bb 96 1e 9c 3d 89 8f 53 3e
       -0.19077049 -0.0057667126 0.07623021 0.20660223
000050 f2 fe ef bd a8 8e 1a 3d 85 d0 4c bd 4d 1d 3f 3e
       -0.11718549 0.037733704 -0.050003547 0.18663521
000060 b3 15 0e be 12 bf 6c 3d 9b 08 07 3e f9 51 1a be
       -0.13875465 0.057799406 0.13186876 -0.15070333
000070 f9 4c 8b 3d 87 a5 89 be 81 09 7a 3d ee 79 1b 3e
       0.06801791 -0.268841 0.06104422 0.15183231
000080 ed 8c 68 be 9b 0e 0f 3e 22 1e db bd 73 14 c8 bb
       -0.22710009 0.13970415 -0.10699107 -0.0061059534
000090 fd 58 44 be b9 98 70 be 2b e0 f8 bd db 6b 22 be
       -0.19174571 -0.23495759 -0.12152132 -0.15861456
0000a0 0e ab 37 3e be 3a 44 3d de c2 c8 bd 18 74 81 3e
       0.17936346 0.047907583 -0.09802793 0.25283885
0000b0 b5 7e 58 be 62 1e 96 be ab 66 5e 3d 7d 22 d0 bd
       -0.21142085 -0.29320055 0.05429713 -0.10162828
0000c0 67 f5 f7 bc e4 a8 4d be ed 70 56 be 9d 03 37 be
       -0.030268384 -0.20083958 -0.20941515 -0.17872472
0000d0 18 84 fc bb 79 f0 9e 3d 03 cc 13 be a7 3b 16 3e
       -0.0077061765 0.0776071 -0.14433293 0.14671193
0000e0 27 8c de bd cf ff 45 3e 65 63 91 be 9e 3e ce bd
       -0.10866576 0.19335864 -0.28396145 -0.10070537
0000f0 11 c5 cc bc 71 28 11 3e 23 60 2f bd 8c 34 34 bc
       -0.024996312 0.14175583 -0.042816292 -0.010998856
000100 ce 90 15 be 4a 71 c3 bc 3e 2a 20 be dc 30 89 3e
       -0.1460602 -0.023857731 -0.15641114 0.2679509
000110 41 88 23 be c5 43 8b bd d5 07 c4 bd 7d 40 54 3e
       -0.15969945 -0.068000354 -0.09571806 0.20727725
000120 20 2d 40 bc c6 8d fe bc 49 b8 88 3d ee d8 09 3d
       -0.011729509 -0.031073462 0.066757746 0.033654146
000130 e9 0f f2 3d dd ff 78 3e 8b ed 7b bd f5 de 96 3c
       0.11819441 0.24316354 -0.061505836 0.018416861
000140 84 68 08 3c 55 44 7d 3c 3f 53 0f be 69 16 36 bd
       0.0083257 0.015458186 -0.139966 -0.044454966
000150 07 c3 27 3e d5 44 78 3e 34 6b e6 bd d4 e8 49 bd
       0.16382991 0.24245007 -0.11250916 -0.049294308
000160 fa 06 da bd c4 2a 22 3c 35 80 4d be cd c8 c5 3c
       -0.10645862 0.009897891 -0.20068438 0.0241436
000170 3e 0e 14 be 04 a5 01 be 8b 07 5c be e9 33 49 bd
       -0.14458558 -0.12660605 -0.21487252 -0.04912177
000180 0f 6a b2 bd a2 34 49 3e ca b7 2b be 9b ed 2d be
       -0.08711635 0.19648984 -0.16769329 -0.1698517
000190 39 d3 11 3d e7 88 31 be 47 31 b3 bc 4c 59 1d bd
       0.03560183 -0.1733738 -0.021874083 -0.03841524
0001a0 e7 f0 f6 3d 6a 7f 9b 3e 6c 3c 06 be df be 46 3e
       0.12057667 0.30370647 -0.13108987 0.19408749
0001b0 cc e8 44 be 7d 41 00 3e 78 82 fd bd fd de 96 3d
       -0.1922943 0.12524982 -0.123784006 0.073667504
0001c0 0f 6b 3f 3d 13 63 8f bd c4 a2 be bd c6 e8 0d 3e
       0.04673296 -0.07001319 -0.09308389 0.13858327
0001d0 78 fd 66 be 51 dd 69 3e a5 1a 0f 3e 4c f1 44 be
       -0.22557628 0.22838332 0.13975008 -0.19232672
0001e0 10 cc 41 3d ab 62 e3 3d be de 9d 3b 75 2a 11 be
       0.04731375 0.11102804 0.0048178127 -0.14176352
0001f0 5d c1 8f 3d 36 7a 2e 3e 5b ec 6d 3d 36 e4 4a 3e
       0.07019303 0.17038807 0.058086734 0.19813618
000200 b5 3f 91 3b a2 75 65 3e 88 28 23 3e d2 98 20 bd
       0.0044326433 0.22408155 0.1593343 -0.03920824
000210 c5 c0 ad 3b 75 47 1b bc f5 c3 de 3d 10 73 b0 3c
       0.005302521 -0.009477486 0.108772196 0.021539241
000220 cb 1b ad bc 56 9e 65 be c7 b0 57 bd 1d 2c 4c 3e
       -0.021131417 -0.22423682 -0.052658822 0.19938703
000230 e8 76 3f be 70 e9 ef 3d 08 4c 49 3e b2 1c ed bd
       -0.18697703 0.117144465 0.1965791 -0.11577739
000240 dd c5 dd 3d 24 46 d9 bc aa 40 1b 3e 0a 74 8d bd
       0.10828755 -0.026522703 0.15161386 -0.06906898
000250 e7 14 a5 bd f4 e0 94 bd 6d 07 d4 3d 9b fe 15 3e
       -0.080606274 -0.07269469 0.10352979 0.14647906
000260 58 6c 4b be f2 4a 0d be 18 e2 95 3d 9f fc 1a 3e
       -0.19865549 -0.1379812 0.073185146 0.1513543
000270 4a 70 bd bd 10 e9 2f be 9c 9d 35 3e 17 98 51 3d
       -0.09249933 -0.1717875 0.17735904 0.051170435
000280 85 f7 1d bd c9 4b 8a bd 55 c2 25 b9 fe 31 5d bd
       -0.03856613 -0.06752736 -0.0001580802 -0.054002754
000290 e5 1a 55 be 65 7a 77 bd b9 b9 b4 3d 21 43 ca bd
       -0.2081104 -0.06041946 0.08824486 -0.09876085
0002a0 6f 9c 06 3d ec 30 78 bd 0d f5 fc bc 43 ed 2f 3e
       0.03286403 -0.06059353 -0.030878568 0.17180352
0002b0 38 53 20 3d b6 fe 09 be fc 9c ae bd 88 21 42 be
       0.039141864 -0.13476071 -0.08526036 -0.18958104
0002c0 eb ce ec 3d 81 3e 3d 3e d2 9a a3 3d f5 6b 1a 3e
       0.11562904 0.18480875 0.07988514 0.15080245
0002d0 f5 c3 0d be 74 13 41 bd e1 ca 4e 3e aa af 1d be
       -0.13844283 -0.047137693 0.2019458 -0.15399042
0002e0 4d 95 39 be 53 73 51 be 5f a8 70 3d 69 49 af 3d
       -0.1812336 -0.20454149 0.05875432 0.08558924
0002f0 70 6c 85 be 1b fb ee 3c 1b 6b 08 3b 8b af 00 3c
       -0.26059294 0.02917247 0.0020815793 0.007854353
000300 ec a4 b0 3c 3c 86 04 be 9e e6 c9 bd cf 5a 94 3e
       0.021563016 -0.12941831 -0.0985844 0.2897553
000310 a4 e9 0d 3e 6b 5e fe ba 94 13 2f bd 7e 96 4f 3e
       0.13858658 -0.0019406801 -0.04274328 0.20272252
000320 25 e1 fd bd 12 8d 7d be ac ac 17 3e e0 02 57 3d
       -0.123964585 -0.24760845 0.14811963 0.052492976
000330 9b 39 56 3d af 4f 7b bb bb cb e5 3c f3 b8 0d 3e
       0.05230103 -0.0038347056 0.028051248 0.13840084
000340 a7 90 1b 3e 9a 0a 68 be 4e aa 3d be 9d 31 91 3e
       0.15191899 -0.22660294 -0.18521997 0.28358164
000350 c7 0d ca bd 5c 75 9f 3d 55 5c 06 3e 23 20 c0 bd
       -0.09865909 0.077860564 0.1312116 -0.093811296
000360 eb 99 00 be c3 75 16 3e 31 47 46 be b8 26 98 3d
       -0.12558715 0.1469336 -0.19363095 0.0742926
000370 a1 0d 0a bd 5c c0 9f bd 07 3e c3 3d 3f 00 45 3e
       -0.033704404 -0.078003615 0.09533315 0.19238375
000380 c7 44 72 3e 6a 72 d2 3d 35 16 0f 3e 39 51 ea bc
       0.23659049 0.10275729 0.13973315 -0.028603183
000390 bf 48 32 be f5 4d 84 be 7b 80 b0 bd 94 ea 1c 3e
       -0.17410563 -0.25840726 -0.08618256 0.1532386
0003a0 6b 40 10 3e 0f 74 a3 3d 14 8a 80 3e c6 0a ca bd
       0.14087074 0.07981121 0.25105345 -0.09865336
0003b0 1f ba 22 be 5d 26 bc 3c b1 bb 9f 3c 70 c8 71 3e
       -0.15891312 0.022967512 0.019498678 0.23611617
0003c0 c3 08 5d be 28 ef ba 3c ac 4f c7 ba 66 76 36 3e
       -0.21585374 0.022819117 -0.0015206239 0.17818603
0003d0 29 2d 48 3c 34 a6 1b 3d 75 c4 75 3e 84 63 57 3e
       0.012217798 0.0380003 0.24000724 0.21034056
0003e0 4f 4f 98 bc b8 87 28 bd e7 61 5d 3e 9c 8b 09 3e
       -0.018592505 -0.041145056 0.21619378 0.13432163
0003f0 e9 b9 01 be 80 7e 53 bd 42 8a 70 bb 01 f7 79 3d
       -0.12668575 -0.05163431 -0.0036703502 0.061026577

weight_hh_l0 f4 [80, 20]
000000 8b 05 02 3e 73 43 2e 3c 9f 5e 65 3e be bb 25 be
       0.12697427 0.010636198 0.22399376 -0.16184899
000010 a6 d6 28 3e ab a6 54 be 45 b0 58 3e 5e 3c 3f be
       0.16488132 -0.20766704 0.21160991 -0.18675372
000020 ac 79 f3 bd 20 15 89 3e 6c 63 e1 bd 1d e2 d3 3d
       -0.118884414 0.2677393 -0.11005291 0.10345862
000030 8f b1 71 3e b6 8e d5 3d f4 1c 9a 3d 0f 85 cc bd
       0.2360289 0.104276106 0.075250536 -0.099863164
000040 fc 0a bb bd 85 c0 29 be d7 0c c2 bd c0 2f ec 3d
       -0.091329545 -0.16577347 -0.09475105 0.11532545
000050 eb d9 98 3d 35 46 21 3e 61 af 01 bd 7b 7e 37 be
       0.074634396 0.15749438 -0.031661395 -0.17919342
000060 ce dc 9f be dc 40 fe bd 07 d3 cf 3d 49 ed cc bc
       -0.31223148 -0.12414715 0.10147672 -0.02501549
000070 26 d8 1e bd 8e 2f d3 3b 07 88 40 3e 83 f9 c3 bd
       -0.038780354 0.006444878 0.1880189 -0.09569075
000080 4c 3f 0a be c2 f3 24 3e 15 84 d3 bd c4 da 57 3c
       -0.13500708 0.16108611 -0.10327927 0.013174716
000090 f8 8d 38 be d0 05 41 be 70 3c 4f bd 38 f3 4f be
       -0.18022907 -0.18849874 -0.050594747 -0.20307624
0000a0 e7 d0 9a bb 23 bb f4 bd 47 24 f3 3c db 45 7b 3e
       -0.00472461 -0.11949756 0.029680384 0.24538366
0000b0 0d c7 ec bd ca a4 62 bd cc 4c a1 3d 6e 5a 20 3e
       -0.115614034 -0.055332936 0.07875976 0.15659496
0000c0 d1 05 4e bd f2 5a 3a be eb 0a 90 bd 1f b9 8f be
       -0.050298516 -0.18198755 -0.070333324 -0.28070924
0000d0 bf c5 28 3e 3a 92 85 3c c7 89 89 3d c1 f9 3c 3e
       0.16481684 0.016305078 0.06715732 0.18454649
0000e0 db e2 0f 3e 0f e8 05 3b f1 de 4f 3e 67 c3 0b bd
       0.14051382 0.0020432507 0.20299889 -0.034121897
0000f0 d7 a1 e4 bd a5 3a 94 3d c3 55 0f 3e 61 6c 01 3e
       -0.11163681 0.07237748 0.13997559 0.12639
000100 a7 80 bd 3d 5e 99 67 bc c8 0e 63 be 4f 8c e4 bc
       0.09253054 -0.014135687 -0.22173607 -0.027898936
000110 cf 20 89 3e 86 eb 05 bd c0 1b 94 3d 80 8d 47 be
       0.26782843 -0.032695316 0.072318554 -0.19487572
000120 bb 9b 32 be e5 9a d7 bd c6 e2 d0 3b aa 4b 0a 3e
       -0.17442219 -0.10527591 0.0063746898 0.13505426
000130 04 cd 43 3e 4e 0e 46 3d 2d 2f 0a 3e f4 7f 01 3b
       0.19121176 0.048353486 0.13494559 0.0019760104
000140 eb 28 40 bd d2 29 2a be b5 6f ce bc 1a b4 c0 bd
       -0.046914022 -0.16617516 -0.02519975 -0.09409352
000150 73 77 34 3e 12 b4 c5 bd 80 dd 5f 3e cf 2f ce 3a
       0.17623691 -0.09653486 0.2186184 0.0015730801
000160 77 48 a9 bc 0a b8 0f 3e 32 6a f0 bd 7a 93 50 be
       -0.020664437 0.14035049 -0.11739005 -0.20368758
000170 8b 05 1c be 00 20 2e 3e 0b 0f 13 3e bb 51 02 be
       -0.1523649 0.17004395 0.14361207 -0.1272649
000180 f1 15 b9 3c 65 28 8c bd 73 e3 86 3e 67 a3 d2 bd
       0.02259347 -0.06843642 0.26345405 -0.10285073
000190 2a 1e 0b be 78 3f 38 be b3 05 a6 3d b6 b0 4d bd
       -0.13585725 -0.17992961 0.08106556 -0.050217353
0001a0 be 5d 0d 3e 3c 1a eb 3c a1 e6 ec bd 94 dd a6 bc
       0.13805291 0.028699033 -0.115674265 -0.020369329
0001b0 3b 5b 17 3e 4e b0 7e bc b9 74 0c be 48 34 ea 3d
       0.14780895 -0.015544964 -0.13716401 0.11435753
0001c0 54 a6 2f 3e bf 2f 09 3d 11 18 a3 bd 0f 45 0d be
       0.17153293 0.0334928 -0.07963575 -0.13795875
0001d0 84 49 11 be b2 97 44 be d2 d0 25 3d f4 be 86 be
       -0.141882 -0.19198492 0.04048235 -0.2631756
0001e0 46 d8 07 3e 1a 68 0f be 29 22 9e bc 44 19 fb 3d
       0.13266096 -0.14004555 -0.019303398 0.122606784
0001f0 63 58 8b 3d 2d d1 09 be ab 85 5c 3e d0 76 73 3e
       0.06803968 -0.134587 0.21535365 0.23775792
000200 cc ce 08 be e6 8a a6 3d 49 72 5f 3b 7c 68 c6 3b
       -0.13360137 0.081319615 0.003409522 0.006054936
000210 99 38 55 3e 7a 5a c4 bb 57 14 41 be 70 76 09 3e
       0.20822372 -0.005992231 -0.18855415 0.13424087
000220 63 f0 b7 bd d5 61 21 be 8b 79 3c 3d 6c 3d 25 3e
       -0.08981397 -0.15759976 0.04601435 0.16136712
000230 77 8b db bc b0 c1 6a be 4f bf b0 3d 48 f8 45 be
       -0.0267999 -0.22925448 0.08630239 -0.19332993
000240 d4 0a 64 be b5 22 ac 3d 9a 60 ef bc 15 4f 3a 3e
       -0.22269756 0.08405057 -0.029220868 0.1819423
000250 03 0e ed bd b3 39 d9 3c 37 ca 1f 3d 36 2a e2 bd
       -0.11574938 0.026516771 0.039011206 -0.11043207
000260 4b 7c 1f be 1f c4 e2 3b 93 b8 1c be 60 09 8d bd
       -0.15574758 0.006920352 -0.15304784 -0.06886554
000270 1b 3c db 3d 99 be 1f be d6 b7 33 be 91 24 5d be
       0.107048236 -0.15600051 -0.17550597 -0.2159598
000280 90 dd e3 3d 85 10 70 3d 34 7d 9b bc 02 77 c8 3d
       0.11126244 0.058609504 -0.0189806 0.09788324
000290 df 44 0f 3e 55 cb 23 3e f7 0c 62 3d 5e 50 0e be
       0.13991116 0.15995534 0.055188145 -0.13897845
0002a0 5c d3 fe 3d e3 78 28 be 7c bc e3 bd d4 06 8a be
       0.12442657 -0.16452365 -0.11119935 -0.26958334
0002b0 08 ba 97 bd 78 c7 5e 3d 6e 2e c8 3d f4 48 49 3e
       -0.074085295 0.054389447 0.09774481 0.19656736
0002c0 1a 29 1c 3e f5 ba 2c 3e ab 33 b1 bd 55 dc d9 bc
       0.15250054 0.16868193 -0.08652433 -0.02659432
0002d0 d4 36 bd bd 89 64 cc 3d 93 b7 41 3e 5b 8a 1a 3e
       -0.09238973 0.09980113 0.18917684 0.15091841
0002e0 c7 1b 70 3e cb af 1c 3d 3f 97 95 3d d1 60 d5 bd
       0.23448096 0.038253587 0.073042385 -0.10418857
0002f0 07 7c 79 be a9 a7 db 3b fb 01 11 3e 92 ff 19 be
       -0.24363719 0.0067033363 0.14160912 -0.15038899
000300 42 6c 5c 3e a2 2c 2a 3e 29 d7 b7 3d 7a 01 fa bd
       0.21525672 0.16618589 0.089765854 -0.12207313
000310 c4 aa 05 3e f0 33 bc 3d 56 4f 59 3d b4 43 1d 3e
       0.13053423 0.09189594 0.053054176 0.15357858
000320 a5 f7 2e 3c 48 18 e2 3c 5c dd c1 bd 72 37 b1 3d
       0.01067916 0.027599469 -0.09466049 0.086531535
000330 d2 f5 8f 3d 1a 8f 89 3d f7 7a ce 3a 03 ca 5a 3e
       0.070293084 0.067167476 0.0015753199 0.21366124
000340 62 50 81 bd df 04 42 be 60 fe 88 3d fa 25 20 be
       -0.0631416 -0.1894717 0.06689143 -0.15639487
000350 9f 41 10 3e 86 cf 8c b9 55 5a 38 be b2 2d e0 3d
       0.14087532 -0.00026857498 -0.18003209 0.10946216
000360 0b e6 c7 3d 2d e1 46 3e c7 31 a2 bd 28 10 2f be
       0.09760674 0.19421835 -0.079196505 -0.17096007
000370 3e 91 1d 3e e6 98 b3 3c 57 d3 1c 3e 49 33 32 be
       0.15387437 0.021923494 0.15314995 -0.17402376
000380 13 c1 81 bd 95 ad 5e be a3 b7 1f 3e 3d fe 10 3e
       -0.06335654 -0.21745904 0.15597396 0.14159484
000390 e7 e3 16 be ec 0a 79 be 17 f6 7c bc 88 0f 4c be
       -0.14735375 -0.24320573 -0.015439532 -0.199278
0003a0 75 8c c7 bd 92 5a e2 bd 9e 28 59 3d d7 f6 95 3e
       -0.09743587 -0.11052431 0.05301725 0.29289886
0003b0 ff 85 17 bd 45 4c c1 3c 11 8f 97 be 10 e9 46 be
       -0.036993023 0.023595938 -0.29601339 -0.19424844
0003c0 61 8d 3c 3d af d7 32 be cf 4a 8b bd 43 e0 78 3e
       0.046033267 -0.1746509 -0.06801378 0.24304299
0003d0 e1 43 58 3d 38 47 08 3e 7e b7 90 3c 78 84 cc bc
       0.05279911 0.13308418 0.01766562 -0.02496551
0003e0 3d 7a 23 be 9a 47 4a be 24 ab 4e 3e 45 bd 65 bd
       -0.15964599 -0.19753876 0.20182472 -0.056088705
0003f0 48 9e f9 bd 61 56 79 be 4f 96 4d 3d e1 70 15 bd
       -0.12188393 -0.24349357 0.050192174 -0.036484603

bias_ih_l0 f4 [80]
000000 39 a4 d8 3d 20 e2 1c 3e 5a c6 1d bd 9e 39 30 3e
       0.10578198 0.15320635 -0.03851924 0.17209479
000010 f2 bc c8 bd cf f0 0a 3d 3a 1e 63 3e 37 21 23 3e
       -0.098016635 0.03392106 0.221795 0.15930639
000020 ca c5 cd bc ce 13 1a be d3 3c 3e 3e bc 29 27 3d
       -0.025118727 -0.15046617 0.1857789 0.040811285
000030 ec fc 42 3e 24 80 cb 3d cd 38 83 3d ca ef fd bc
       0.19041795 0.0993655 0.06407318 -0.03099813
000040 07 87 5e 3e b6 79 9d 3c c7 07 cd 3d 0e cb 3c be
       0.21731196 0.019223075 0.10011249 -0.18436834
000050 76 78 6a 3e 19 16 b2 3d 81 fd b8 bb e3 1d 18 be
       0.22897515 0.08695621 -0.0056454544 -0.14855151
000060 ca 36 5e 3e 67 b4 14 be 29 4c 71 3e 6a cf 4d 3e
       0.21700588 -0.14521943 0.23564209 0.20098653
000070 16 10 97 3d 8a ed 17 3c e0 fe 09 3e fd 1a 3d bd
       0.07376115 0.009272942 0.13476133 -0.046168316
000080 59 a2 9c bd 59 18 2e 3e 1b 80 13 3d eb 29 92 bd
       -0.07648153 0.17001475 0.036010843 -0.071369015
000090 50 21 8a 3e 9f ab 4b 3e 48 bd c7 bd a8 98 2f be
       0.2697854 0.19889687 -0.097528994 -0.17148077
0000a0 fb 13 44 bd 6a 26 15 be 79 9a 64 3d af 84 17 3e
       -0.047870617 -0.14565435 0.05581138 0.14796709
0000b0 0e 0d 01 3c a0 17 ac 3c 2b 7a 81 bd d7 26 a2 bd
       0.007876648 0.021007359 -0.0632213 -0.07917564
0000c0 25 51 80 bd 45 83 ed 3d 68 bd 85 3e b5 86 18 3e
       -0.06265477 0.11597303 0.26121068 0.14895137
0000d0 ff 91 60 3e 7e 02 0d 3e ab a8 4e 3e ef 93 91 bd
       0.21930693 0.13770482 0.20181529 -0.07108294
0000e0 76 62 0d be 06 38 ab bc 97 d9 25 be 4c f3 a0 bd
       -0.13807091 -0.020900737 -0.16196285 -0.07858905
0000f0 6d d3 09 be 64 cf 84 bc 38 0f 16 be 0a b2 9d 3d
       -0.13459559 -0.016212173 -0.14654243 0.07699974
000100 4b 1f a8 3c 04 bb 67 3e 97 e3 80 ba eb 76 14 3e
       0.020522734 0.22629935 -0.0009833452 0.14498489
000110 79 b1 25 bd 5f 6b 31 3e 3d 9f 4b 3e ad 1d 60 3e
       -0.040452454 0.17326115 0.19884963 0.2188632
000120 a8 dd 92 3e 76 15 68 3e 64 e1 12 be 53 b3 58 3e
       0.28684735 0.22664437 -0.14343792 0.21162157
000130 0a 38 14 3c 73 cb 9a 3d 38 04 c0 bd e3 38 29 bd
       0.009046564 0.07558336 -0.09375805 -0.041314017

bias_hh_l0 f4 [80]
000000 9a 16 e4 bc a4 f7 b4 bd 7e af c0 bd 51 2b 2a 3e
       -0.027842809 -0.08836296 -0.094084725 0.16618086
000010 67 bb 7b bd f8 78 29 bd 48 a0 b1 bd 54 58 55 bd
       -0.061458018 -0.04137513 -0.08673149 -0.05208619
000020 77 26 13 be ac 7f fb bd 70 1a 09 be 80 c6 91 3e
       -0.14370142 -0.12280211 -0.13388991 0.28471756
000030 b1 2a 4f 3e 29 6f f4 3c 15 7c 0d 3d 96 86 d9 bd
       0.20231129 0.029838162 0.034542162 -0.10621373
000040 95 0f 2a be 30 5d 22 be c3 99 01 be c0 f6 3b 3e
       -0.16607507 -0.1585586 -0.12656312 0.18355846
000050 4f cc 16 3e b2 67 39 bd d3 eb 03 be ff 09 25 3e
       0.14726375 -0.045264907 -0.12882929 0.16117094
000060 5f 62 52 bd 1f f5 e2 bd 78 90 cd 3d e0 c2 02 be
       -0.051363345 -0.110819094 0.10037321 -0.12769651
000070 0c a2 05 3e b3 f6 7a bc c8 d0 8a bc 36 fb 91 3d
       0.13050097 -0.015317607 -0.016945258 0.07127993
000080 14 a5 7e 3e e5 67 05 3e 6b 15 51 3e 6b 13 36 3e
       0.2486766 0.13027914 0.20418327 0.17780845
000090 09 21 62 ba 44 f6 1d 3e e6 22 06 3e c0 7d 57 3e
       -0.00086261384 0.15425974 0.1309925 0.21044064
0000a0 97 9a 1a be 11 e7 c3 3d 3a 2f 81 3e 93 e6 09 be
       -0.15098034 0.09565557 0.25231344 -0.13466863
0000b0 23 7d 02 be c2 98 f5 3d d3 7b 83 3d 5e ec 58 3d
       -0.12743048 0.11992027 0.06420102 0.052959792
0000c0 2f a0 d6 bd 1e 3c 27 3e eb 6b 91 bd aa ff 52 be
       -0.10479771 0.16331527 -0.07100662 -0.2060534
0000d0 f5 4f 48 3e 6a db 5a be cf e2 2c 3d 11 37 d8 bc
       0.19561751 -0.21372762 0.04220849 -0.026393445
0000e0 df 08 03 3e c4 eb 6b be 03 79 25 be d0 4d c9 bd
       0.12796353 -0.23039156 -0.16159444 -0.09829295
0000f0 53 b7 37 bd 22 61 c4 3d 93 9c 30 3e 3c a6 bd bd
       -0.044852566 0.09588839 0.17247228 -0.09260222
000100 0e 01 1f 3e 10 ba f1 3d b4 9e 0e 3e 4c 89 89 bd
       0.15527746 0.11803067 0.13927728 -0.067156404
000110 05 9c b6 3c 35 ba a0 bd 37 0e 1a be 40 07 06 be
       0.022291193 -0.07848016 -0.15044485 -0.13088703
000120 22 e2 53 3e 68 e3 7a 3e a9 08 13 3e 9c f6 f0 3d
       0.20691732 0.24500811 0.14358772 0.11765787
000130 d5 b4 0e be 83 de 8c 3e cb c7 23 3e 89 48 28 be
       -0.1393617 0.27513513 0.15994184 -0.1643392

weight_ih_l1 f4 [80, 20]
000000 14 9d 22 be 6c 54 18 3e 59 79 3c bc 30 b8 97 bd
       -0.15880233 0.14875954 -0.011503541 -0.07408178
000010 05 1e b3 bd 2d 1b a4 3e 97 5f a2 3d 38 82 2a be
       -0.0874596 0.32051983 0.079283886 -0.16651237
000020 46 0c 05 bd 08 11 f4 bd a4 06 fa bd 6f 95 b7 bd
       -0.032482408 -0.11917311 -0.12208298 -0.08964049
000030 d5 c8 0f be 98 79 6f bd 28 72 25 3e 85 6d 19 bc
       -0.14041455 -0.05846557 0.16156828 -0.00936449
000040 55 d8 77 3e 27 1c 09 3e ca 39 70 3e f4 fc ff bd
       0.24203618 0.13389646 0.23459545 -0.12499419
000050 fe ef 2d 3d 6f fe ae 3c 22 a4 df 3d 6c 4f 49 be
       0.042465203 0.021361558 0.10919978 -0.19659203
000060 a6 3a 76 be 02 ee 38 be 94 29 12 be 5d c2 42 3d
       -0.2404581 -0.18059543 -0.14273673 0.04754864
000070 29 4d 3c bd d8 d6 86 3e f5 5f 06 3e 16 17 cd 3d
       -0.045972023 0.26335788 0.13122542 0.10014169
000080 af 24 29 3e ed e6 58 bd 3e e9 9b 3e 54 77 84 3e
       0.165179 -0.052954603 0.30451387 0.2587229
000090 73 df d3 ba a1 cc f0 bd ad b4 55 bc 3d c3 a8 3b
       -0.0016164616 -0.1175778 -0.013043565 0.0051502273
0000a0 cf e6 52 be 05 12 49 3d 7a fa 86 3d 75 51 a8 3c
       -0.20595859 0.04908945 0.06590743 0.020546654
0000b0 39 f2 48 bc 55 27 42 bd 37 59 54 3d 2f 29 47 3e
       -0.012264782 -0.04740079 0.051842894 0.19449304
0000c0 cd f5 03 be 44 8e 2f bd 2b bc 16 3e 49 64 15 be
       -0.12886734 -0.042860284 0.14720218 -0.14589037
0000d0 af 2b 85 3d 6a a2 07 3d 56 19 3c 3e 46 a7 bb 3d
       0.065024726 0.033113874 0.1836904 0.09162764
0000e0 40 5e 2d be 92 09 2c 3e b4 ef 21 3e 73 49 a3 bc
       -0.16930485 0.16800526 0.15814096 -0.019932484
0000f0 d6 e5 73 be e4 80 de 3d 08 9e 82 3d 84 ac 26 3e
       -0.23818144 0.10864428 0.06377798 0.16276747
000100 42 e2 09 be 60 84 01 3d 85 7e 9a 3d 73 99 2a be
       -0.13465217 0.031620383 0.07543663 -0.16660099
000110 d4 8c 18 be ef 40 fe 3d d9 29 a7 bd bf f4 b9 be
       -0.14897472 0.12414729 -0.08162279 -0.3631954
000120 36 23 13 3e 10 63 d7 bd 43 3b 5a 3c 61 97 8d be
       0.143689 -0.105169415 0.013319793 -0.27654555
000130 23 17 dc 3d 20 8d be bd 64 c8 0c 3e 4c 70 cb 3d
       0.107466005 -0.09304261 0.13748318 0.09933528
000140 2c 44 c7 bd 38 2a 3c be 7e 95 e8 3d 85 f3 3d be
       -0.097298 -0.1837548 0.11356638 -0.18549927
000150 6d 1d 74 bd 27 f7 80 bd 72 57 8b 3e ab 6e b0 3d
       -0.059598375 -0.062971406 0.27215153 0.08614858
000160 b1 8f d6 bd 74 6e 86 bd 39 40 2b bd 79 5e 97 3b
       -0.10476626 -0.06564036 -0.041809294 0.0046194163
000170 6c 21 1d 3e 3f 62 4d be 11 b5 30 be 08 f6 33 3d
       0.1534478 -0.20057009 -0.17256571 0.043935806
000180 f8 d6 6b be 9a 13 67 3d bd c3 d9 3c b3 da 01 3e
       -0.23031223 0.056415178 0.026582593 0.12681083
000190 45 60 d9 bd ca b3 5d 3d dd 6e c9 bd 57 0f 83 3c
       -0.10614065 0.05412654 -0.098355986 0.015998526
0001a0 f5 b3 8a bd 52 d1 a6 bd 1d 01 04 3d 6d 23 ef bd
       -0.06772605 -0.081453934 0.032227624 -0.11676679
0001b0 48 16 eb 3d f8 2c 70 3e 8b cd 93 3e 4a 81 31 be
       0.11478859 0.23454654 0.28867754 -0.17334476
0001c0 49 f3 2c bc d5 51 66 be f4 e5 18 3e 7a 01 af bc
       -0.010556051 -0.22492154 0.1493147 -0.021363009
0001d0 10 3a 96 3d b7 9e 8a bd 6c 5b 17 be d2 ff fa bd
       0.07335293 -0.06768554 -0.14780968 -0.12255825
0001e0 e8 5c 40 3d 1b 8e 15 be 81 1b 01 be f3 15 53 3d
       0.046963602 -0.1460499 -0.12608148 0.051534604
0001f0 3e 1e b7 bd ca 80 e6 3d d3 0a d2 3c bd 0e 0a 3e
       -0.08941315 0.11255033 0.025639927 0.13482185
000200 5b f8 04 be fa a6 83 3c 55 8f 9b bb db 2e c6 bd
       -0.12985365 0.016070832 -0.004747311 -0.09676906
000210 a2 74 ce bd 00 1e 36 be b1 55 ba 3d d1 72 11 bd
       -0.1008084 -0.17784882 0.090983756 -0.035509888
000220 a8 13 0d be 5b 88 7e bd ea 6d d3 3d c5 cc 15 be
       -0.1377703 -0.062141757 0.10323699 -0.14628895
000230 4f 64 25 3e b2 b7 1a be bf ff 1e 3e c4 32 92 3c
       0.16151546 -0.15109137 0.15527247 0.017846473
000240 18 f3 7e be 0e 9c 6a bd fe d0 37 be 58 48 56 3e
       -0.2489742 -0.05727773 -0.17950818 0.20926034
000250 a1 39 90 be d7 21 f0 bc 9e 16 da 3c 94 ba 77 be
       -0.28168967 -0.029313011 0.026622113 -0.24192268
000260 89 b6 0f be e6 4c 01 3e 9f bd 3b 3e 42 fc 82 3e
       -0.14034475 0.1262699 0.18334053 0.25583082
000270 0d 80 1b 3e 31 ac 13 bd 00 a6 2a be 33 49 a6 bd
       0.15185566 -0.036052886 -0.16664886 -0.081194304
000280 7a 44 8c bd 23 80 ea bd e6 d9 db bd a5 94 0a be
       -0.06848998 -0.114502214 -0.1073492 -0.13533266
000290 a9 9e 46 3e d5 e2 32 3e e5 ce 89 3e 44 f2 ac 3d
       0.19396462 0.17469342 0.2691566 0.08444646
0002a0 ed 82 3f be db 72 2e 3b 8b d4 0d 3e 60 8e 61 be
       -0.18702288 0.0026618752 0.1385061 -0.22026968
0002b0 c0 76 e0 bd f1 54 34 bd 0f 06 73 3e 43 2d 55 be
       -0.1096015 -0.04402632 0.2373278 -0.20818047
0002c0 fb a6 c2 3d 04 d4 7e be 3b f1 ed bd dd 60 88 be
       0.09504505 -0.24885565 -0.11618277 -0.266364
0002d0 41 d9 7b 3d 5c 2b 36 be c2 b2 5e 3e 58 11 f2 3d
       0.061486486 -0.17789978 0.21747878 0.11819714
0002e0 d4 8d 3f bd 16 eb c5 3d 36 3e 2a 3d 19 36 2f 3e
       -0.046766117 0.0966398 0.041563235 0.1711048
0002f0 25 1b e9 bc cb c7 ad bd 8e 0a e2 3d 99 88 7c 3c
       -0.028455326 -0.08485373 0.110371694 0.015413427
000300 79 f6 26 3e fd fe 3f be ca 79 75 3d 2d 6e eb 3d
       0.1630496 -0.18749614 0.0599306 0.11495624
000310 5f 0f 95 bd 14 7c 0d be 4a 36 21 be 55 d3 d3 bd
       -0.072783224 -0.13816863 -0.15743366 -0.10343043
000320 5b c3 0a 3e 23 6d ad 3d c5 41 83 3e ae 4e 12 be
       0.13551085 0.08468082 0.25636116 -0.14287826
000330 03 91 ca 3d bc 20 bc 3e 78 af cc 3d 57 89 69 3d
       0.0989094 0.36743724 0.099944055 0.057015743
000340 56 09 6f 3e a5 88 24 3e 37 32 e8 3d 0e bd f2 be
       0.23343405 0.16067751 0.11337703 -0.47409862
000350 6d 03 27 be b2 88 5e bc ac a8 17 bd 2b eb b8 bd
       -0.163099 -0.013582395 -0.037026092 -0.0902923
000360 66 21 e5 3c 9f 0b 3d be 43 c8 25 be 37 39 41 3d
       0.027970027 -0.18461464 -0.16189675 0.047173705
000370 1e bd 82 bd e7 f7 e7 bb 85 dd 74 3d 31 6e 07 be
       -0.063837275 -0.007079113 0.05978157 -0.13225628
000380 50 36 43 be 6a e2 d8 3d b7 12 e4 bc 8f e2 53 bc
       -0.19063687 0.1059006 -0.027840955 -0.012932434
000390 93 5a 99 be c2 37 a2 3c 29 b6 ca 3d 6d 81 c7 bc
       -0.29951915 0.019801978 0.098980255 -0.024353707
0003a0 3d e4 22 3e bb 7a fd 3c 70 ae 6f 3e 35 2c ff bd
       0.15907378 0.030942312 0.23406386 -0.12459604
0003b0 a6 70 a4 3d 88 e6 42 3d b8 6e 2a 3c 3a 02 8c be
       0.080292985 0.047583133 0.010402374 -0.2734545
0003c0 98 32 7b be c2 5b b1 3a 91 ec c8 bd f3 73 1c 3d
       -0.24531019 0.0013531374 -0.098107465 0.038196515
0003d0 d8 a9 81 bd 9a ed 88 3e 83 00 56 3e d7 29 43 3e
       -0.06331223 0.26743776 0.20898633 0.1905893
0003e0 b8 21 83 3e 85 fc 7d 3e d0 0f bc bd ec 63 77 3d
       0.25611663 0.2480336 -0.091827035 0.060398027
0003f0 f4 14 05 3e 33 ef a9 3c 5b 1f f1 bd fb 58 95 be
       0.12996274 0.020743942 -0.11773559 -0.2916945

weight_hh_l1 f4 [80, 20]
000000 d2 48 07 3e 2a 35 10 be f1 79 66 3e 0f 0d 20 3e
       0.13211372 -0.1408278 0.22507454 0.15629981
000010 0b 5e 50 bd 0a 58 d6 bd 43 17 5f 3e 4c 52 69 3e
       -0.050870936 -0.10466011 0.21786217 0.227853
000020 02 ca a8 3d eb c7 dd 3d eb 63 8c 3d c8 1d 90 bc
       0.08241655 0.10829147 0.06854995 -0.017592326
000030 7c e3 18 3d 83 68 62 3e c8 2f 64 bd 14 9c 10 3d
       0.03732632 0.2211018 -0.05570963 0.035305098
000040 2d b0 9c 3d 33 4b 23 3e 15 19 ed bd 96 92 1a be
       0.0765079 0.15946655 -0.1157705 -0.1509498
000050 4c ef 25 be c6 59 2a be 92 46 88 3d 64 97 9b be
       -0.16204566 -0.16635808 0.06654085 -0.3038894
000060 9c 26 70 3e c2 43 80 3e cc 41 9d bd b0 03 43 3e
       0.23452228 0.25051695 -0.076785654 0.19044375
000070 3b 7e e6 bd 5e 8e 3f 3e 21 f1 0f be f6 5f 4c 3d
       -0.11254545 0.18706653 -0.14056827 0.049896203
000080 82 fa fd 3d bc 58 fe 3d b1 43 74 be 4f 1d 04 be
       0.12401296 0.124192685 -0.23853947 -0.12901805
000090 7d 7b c8 bc 21 8f 35 be 35 88 06 3e c2 8d af bd
       -0.024472946 -0.1773038 0.13137896 -0.0857196
0000a0 41 35 16 bd ca 8f c9 3d 8d ed c8 bd 5d 2a d8 bd
       -0.03667188 0.09841879 -0.09810934 -0.10554955
0000b0 a8 41 40 be d2 a7 cb bd 70 74 d2 3d f1 68 38 3d
       -0.18775046 -0.099441186 0.10276115 0.045021955
0000c0 5a b3 21 3e fe d3 7b 3e 0c cc 8e 3e db 89 8c 3d
       0.15791073 0.24592587 0.2789005 0.06862231
0000d0 0e 03 a1 bd e8 18 dd 3c 76 ff 50 be 28 21 b2 bc
       -0.07861911 0.026989415 -0.2040995 -0.021744326
0000e0 29 9a 2d be 7f 1a 4e bc 31 d3 b1 3b 61 83 33 be
       -0.16953339 -0.012579559 0.0054267873 -0.17530586
0000f0 8e fe 84 be 13 cd 8b bc cb d5 2d 3e a6 d2 91 bb
       -0.2597546 -0.01706556 0.16976087 -0.00445016
000100 38 cd 83 bd 5a 39 d7 bd 66 63 85 3e a7 ae 4a 3d
       -0.06435627 -0.10508986 0.26052397 0.049482968
000110 e8 b8 5b bd ed 0c ba 3e 1e 09 41 3c 4c 2a 7c be
       -0.053643137 0.36337987 0.011781959 -0.2462551
000120 d6 5c 9b 3c 90 ff 35 3e 93 cc 36 be 15 05 8d 3d
       0.018965166 0.1777327 -0.17851476 0.06885735
000130 6e 1f 40 bd f7 c7 5f 3d e2 3e f1 3b 7e 31 1a 3e
       -0.046904974 0.05463406 0.0073622325 0.15057942
000140 4e 5c 26 3e e5 f4 00 be a0 80 26 bd 56 36 18 3e
       0.16246149 -0.1259342 -0.04065001 0.14864478
000150 87 c0 23 be 9c ca 2d 3e 96 6e ec bd 2c 5d 17 3e
       -0.15991412 0.1697182 -0.1154453 0.14781636
000160 ba ef bb 3d fb 36 39 3e 8a 9a 64 be c8 2c 95 3e
       0.091765836 0.1808738 -0.22324577 0.29135728
000170 54 69 1d 3d 8f 08 b8 bd 92 6f 22 be 33 bc 33 3e
       0.038430527 -0.089860074 -0.15862873 0.17552261
000180 ff 39 36 bd 96 78 0e 3e 3f f0 17 be b8 2d 05 be
       -0.044488903 0.13913187 -0.1483774 -0.13005722
000190 9d 10 49 be 30 5d 9e bd 21 58 cb 3d f1 1e 9a 3d
       -0.19635244 -0.07732618 0.09928919 0.07525433
0001a0 cc c8 17 be bf 2d 56 3d 89 cb c8 3d 8e 68 2c 3e
       -0.14822692 0.05228972 0.09804446 0.1683676
0001b0 1a de 7c 3e f7 4c 8b 3e c5 c0 36 3e a7 72 b3 3c
       0.246941 0.27207157 0.17846973 0.021905256
0001c0 fb 39 13 bb df 70 2e 3e 17 cb 82 3d 2a b1 e9 bd
       -0.002246498 0.17035244 0.063863926 -0.114107445
0001d0 be fa 3c 3e 2a 9d 75 bd f2 c0 1d 3e 9a c9 d0 3d
       0.18455026 -0.059964336 0.15405634 0.101947024
0001e0 82 8e 59 bc 91 0e e7 3d 06 ba 0a be c3 be 5e 3e
       -0.013278605 0.11282075 -0.13547525 0.21752457
0001f0 13 7c 25 be 70 94 39 bd 54 fd 9a 3e 52 ad 21 be
       -0.16160612 -0.045307577 0.302714 -0.15788773
000200 bc 8b 42 3e 25 37 ad bd fc 7e aa bd d4 ac fd bd
       0.18998617 -0.084577836 -0.083250016 -0.1238648
000210 ef 86 25 3d 9e 34 86 3d 06 de 23 be 5a 4e c4 3c
       0.040411886 0.06553005 -0.16002664 0.023963142
000220 79 74 ee 3c 93 f4 84 bd c1 45 73 3d b8 cb f8 bd
       0.029108273 -0.06491961 0.059392694 -0.12148231
000230 60 6f 6e 3c 42 65 3b be ca b4 3b 3d 0e 15 c5 bd
       0.014552921 -0.18300346 0.04582671 -0.096231565
000240 79 70 0b be 83 79 89 3e 17 77 10 be 56 35 2e 3e
       -0.13617124 0.2685052 -0.14107929 0.17012534
000250 3c b8 f3 bd ab 5a 25 3d a1 52 a8 be 78 3c d7 3d
       -0.11900374 0.04036967 -0.3287554 0.105095804
000260 c7 da ce 3d e5 34 86 be 56 bd 84 3d 62 4c f4 3c
       0.10100322 -0.2621223 0.064814255 0.029821578
000270 b4 e6 e7 bd 7b 86 5f be cc c5 55 3c b8 17 16 3e
       -0.113233 -0.21828644 0.013047647 0.14657485
000280 a7 17 b7 be 4b bd 0a 3e bc 16 54 3e 66 b4 4b bd
       -0.35760233 0.13548772 0.20711797 -0.04973259
000290 6f a4 0b be 01 1b 72 be b7 51 cc 3d 09 9f 80 3e
       -0.13636945 -0.23643114 0.09976523 0.25121334
0002a0 85 38 5d 3e 55 8a 68 3e 49 93 ac 3e b7 2d 40 be
       0.21603592 0.2270902 0.3370612 -0.18767439
0002b0 1c a1 bc be 60 f1 72 3e 27 c2 43 be dc 28 26 3d
       -0.36841667 0.2372489 -0.19117032 0.04056631
0002c0 8a b4 34 3d b5 92 8c 3e c4 d4 fc bc c4 93 33 bd
       0.044117488 0.2745568 -0.030863173 -0.043842092
0002d0 52 a5 12 be 4d 09 cc bc 82 aa 72 be fd e3 40 be
       -0.14320877 -0.024906779 -0.23697856 -0.1883697
0002e0 a6 8a c2 3e a4 aa b8 3d 6a 14 f9 3d b5 c5 82 3e
       0.37996405 0.09016922 0.12162097 0.25541463
0002f0 cc a4 d0 3e b0 36 33 3e 63 a3 0d be e7 37 56 3d
       0.4075073 0.1750133 -0.13831858 0.052299406
000300 fa f5 8e be 6e 6d 16 3e f9 98 8b be d4 5f 92 3e
       -0.2792204 0.14690182 -0.27265146 0.28588736
000310 90 aa 01 3f bf b4 90 be d8 32 fd 3d 44 ee 80 be
       0.5065088 -0.28262898 0.12363213 -0.25181782
000320 65 22 88 be d7 b4 7c 3e d0 50 4a 3e 26 a5 53 3e
       -0.2658874 0.2467836 0.1975739 0.20668468
000330 90 bd 29 be 10 72 ae 3d 61 ae 12 3e 47 c6 0e 3e
       -0.16576219 0.085178494 0.14324333 0.13942824
000340 4b 42 9d 3d 9c 92 13 3d ee c3 4a 3e 72 14 5b be
       0.0767866 0.03602849 0.19801304 -0.21394518
000350 88 6b 20 be c2 7b 60 3e 09 77 3a be 5b ad 49 bd
       -0.1566602 0.2192221 -0.18209471 -0.04923759
000360 1a 23 85 bc 1a 3d 30 3d a6 8b 58 3d 1a 3f a1 3d
       -0.01625209 0.04302702 0.052867554 0.07873364
000370 b3 c6 52 be 93 48 03 be 3c a5 37 3e e9 3a 91 bd
       -0.2058361 -0.12820654 0.17934126 -0.07091314
000380 c1 f5 87 bc be 0e 43 3e bc 60 81 3e 4d 6b f3 3c
       -0.016596677 0.19048592 0.25269115 0.029714251
000390 1e ea 25 be eb b0 72 3d 0d 9c 22 be 74 54 d8 3d
       -0.1620259 0.059250753 -0.15879841 0.10562983
0003a0 6d f2 ac 3d 4b ec 57 3e 01 95 87 be 4a b9 c1 3d
       0.084446765 0.21086232 -0.26480868 0.09459169
0003b0 f6 ff 8a 3e 7e bf 2d be ef 5b 10 3d af 4a 36 3d
       0.27148408 -0.1696758 0.035243925 0.044504818
0003c0 50 d2 d5 3d 1b 2a 40 3d 55 fe 70 bd ac 04 ae 3e
       0.104405046 0.046915155 -0.0588363 0.3398794
0003d0 68 95 e2 bc f3 42 0b 3e a0 a4 2c be 6d 9a 6c be
       -0.027659133 0.13599758 -0.16859674 -0.23105784
0003e0 f9 2f 7f be 4b 01 40 3d 5f cd bc 3d 91 83 59 bd
       -0.24920644 0.046876233 0.09218859 -0.053103987
0003f0 5c 60 3a be 79 82 36 bd 62 bd ca 3c ce 1e bd be
       -0.1820082 -0.044558022 0.024748508 -0.36937565

bias_ih_l1 f4 [80]
000000 a6 2d 84 3d f7 c4 09 be cd ce 15 bb f7 bf e8 3d
       0.06454019 -0.13454042 -0.0022858859 0.113647394
000010 5b 36 6f 3e d3 2b 75 3e 63 1a 74 3d bd 14 21 be
       0.23360579 0.23942499 0.059595477 -0.15730567
000020 e0 ee a5 3d d2 fa 90 3e f0 f1 34 3e 38 a5 d9 bd
       0.081022024 0.2831636 0.17670417 -0.10627216
000030 70 22 f5 bc fb 17 2b bd 4e 7d 8c 3c 73 23 fe bd
       -0.029923648 -0.041770916 0.017149594 -0.12409105
000040 02 d8 8b 3e 3a 01 3c 3e 9b 66 0f 3d 6b 07 b7 bd
       0.27313238 0.18359843 0.03500996 -0.08936962
000050 8f 2a 55 3e 1a bd fd bc a5 65 b4 3d b7 b0 25 be
       0.20817016 -0.03097396 0.0880845 -0.16180693
000060 64 ed 55 3e 77 97 de bd b3 da fa bd 47 c9 a5 bd
       0.20891339 -0.108687334 -0.12248745 -0.08095031
000070 55 90 b0 3d 83 30 23 3e 52 95 09 be 9a f8 c1 bd
       0.08621279 0.15936475 -0.13435867 -0.09471245
000080 65 f2 80 3c 35 83 3f 3e 97 d5 b5 3e fb f2 c6 bd
       0.015740583 0.18702395 0.3551452 -0.097143136
000090 e7 ae 95 3e e6 fe fa bd 5d 66 91 3e 5e 29 44 3e
       0.29235002 -0.12255649 0.2839841 0.19156405
0000a0 60 ce b8 bd ad b0 12 be 32 13 10 3c ea 57 98 bd
       -0.09023738 -0.14325209 0.008793639 -0.07438643
0000b0 ad ee 27 3e b7 65 25 3e 82 c2 7e 3e 86 72 9b 3d
       0.16399641 0.16152082 0.24878886 0.07590203
0000c0 1d 7d a6 3d d3 7c 77 bd 35 f9 02 3e a1 db 40 3e
       0.08129332 -0.060421776 0.12790377 0.18833782
0000d0 52 f7 a7 bd 8d 2d 00 3e cc ca 84 3d d5 e1 37 3e
       -0.082014695 0.12517376 0.06483993 0.17957242
0000e0 5d e2 8f 3c 67 3b 0a be eb 18 57 3e 62 c5 80 be
       0.017563993 -0.13499223 0.21005599 -0.2515059
0000f0 28 25 f8 bc 6c 00 92 3e fa 8a 8c bd ac ce 83 bc
       -0.030291155 0.28515947 -0.06862445 -0.01608976
000100 a8 fc 82 3e 28 5c 59 bb b7 53 e1 bd 8d 76 04 be
       0.25583386 -0.0033166502 -0.110022955 -0.12935849
000110 38 7a 89 3e 35 5e b2 3c da 8d ff bd b7 c6 25 3e
       0.26851058 0.021773437 -0.12478228 0.16189085
000120 12 15 09 3e 2e 98 5f 3e 14 0c 56 3e 42 dd 93 bd
       0.13386944 0.21835396 0.20903045 -0.07219936
000130 69 c5 94 3d 3f 8e 39 3e 35 e5 92 3e 10 6d ae 3e
       0.072642155 0.18120669 0.28690496 0.34067583

bias_hh_l1 f4 [80]
000000 60 dd 4e 3e dd 14 ea 3c b5 2b bf bd a8 7d 0a be
       0.20201635 0.028574402 -0.09334508 -0.13524497
000010 42 74 85 3e c7 7f 34 3e 84 5d 7b 3e a1 06 49 3e
       0.2606526 0.17626868 0.24547392 0.19631435
000020 50 bc 6b 3c 39 bf 6a 3e f2 59 f6 bd 66 8b 8e bb
       0.014388159 0.22924508 -0.120288745 -0.0043501137
000030 9b 3c 3a bc 4a 6f 2d be 38 5d 34 3e c9 83 e8 bc
       -0.0113669885 -0.16936985 0.17613685 -0.028383153
000040 80 b1 44 3d 25 a1 86 bd a6 68 98 3e b5 56 c0 bd
       0.04802084 -0.06573705 0.2976734 -0.09391538
000050 1d 02 3e 3e ee e8 0c be 0e 14 9f 3c 22 cc b2 bd
       0.18555494 -0.1376073 0.019418743 -0.087303415
000060 6c 4e 16 be 9b 15 08 bd 49 9f 9a 3e c9 e6 6a 3e
       -0.14678353 -0.03322373 0.3019965 0.229396
000070 3a ee dc 3d ec ea 1f be 4b 01 73 bd 88 f5 8c 3e
       0.107876256 -0.1561696 -0.059327405 0.27531075
000080 23 9b 28 3d 06 44 97 3d c4 03 54 bc 70 41 65 3e
       0.041163575 0.07386021 -0.012940351 0.22388244
000090 4e 15 9c 3e 1b 8b 2b bd af e2 3b 3e 9c 3c 3e bd
       0.30485004 -0.04188071 0.18348192 -0.04644452
0000a0 f5 e9 26 be 8e d0 91 bc 2d 19 8f 3d c5 0d 08 3d
       -0.16300185 -0.017799642 0.06987224 0.033216257
0000b0 e9 64 34 3b 05 6c c2 bd 8c 86 f1 3d 00 85 48 be
       0.0027525967 -0.09493259 0.11793241 -0.19581985
0000c0 dc a3 0d be 0f 0b de 3d 83 99 a2 3d 6e c2 37 be
       -0.13832039 0.10841953 0.07939436 -0.17945263
0000d0 08 90 49 bd e4 3c 60 3e 5d 84 79 be 07 e1 c2 bc
       -0.049209625 0.21898228 -0.24366899 -0.023788942
0000e0 bb 64 29 3e 32 a4 fe bd e6 77 11 bd 2b 34 4e be
       0.16542332 -0.124336615 -0.035514735 -0.20137088
0000f0 f4 f6 8b 3e 87 36 ae 3d ae ba 9a 3c 53 9c 11 be
       0.27336848 0.08506494 0.018887844 -0.14219789
000100 8a 95 92 3d b7 b1 81 3d 58 4b a0 3e 01 d2 95 3c
       0.071574286 0.063327245 0.31307483 0.018288614
000110 ae d0 6a 3d 24 e6 59 3e 15 3a 03 3e 8d d2 b2 3d
       0.05732792 0.21279198 0.12815125 0.087315656
000120 71 b1 8b 3d 5b 1f 51 3e 8b b7 d4 3d 46 3e 58 3e
       0.06820954 0.20422117 0.103865705 0.21117505
000130 54 79 c7 3e bb e7 87 bc 15 6a 98 3e 1f 05 b4 3d
       0.38959754 -0.01658999 0.29768434 0.08790039

weight_ih_l2 f4 [80, 20]
000000 7e cb ae bb 3f 15 03 3e 5b 1d ac 3c ab 4b 40 be
       -0.0053343168 0.12801073 0.021010092 -0.18778865
000010 01 be 05 be 01 ca 26 be 0c 0d 68 bc c2 d8 6f bd
       -0.13060762 -0.16287996 -0.014163267 -0.058556326
000020 8b d6 60 be 16 da 01 3e a7 91 b6 bc aa d1 5a 3e
       -0.21956842 0.1268085 -0.02228625 0.21369043
000030 8b 94 98 3d 39 b3 81 3e 07 7b d4 3b c9 88 d9 3d
       0.07450207 0.2533205 0.0064843926 0.10621793
000040 57 cf 84 3e c6 e0 b1 bd 42 c6 4d 3e 58 cd a1 3d
       0.25939438 -0.0868545 0.2009516 0.07900494
000050 02 54 e2 bd 32 d8 48 3c c8 3c 75 3e f1 68 de 3d
       -0.110511795 0.012258576 0.23948967 0.1085986
000060 fe 39 3c be 90 e5 e6 bd 91 68 4d 3d 3c 87 08 be
       -0.18381497 -0.11274254 0.05014855 -0.13332838
000070 96 cb 69 3d a5 e8 e1 3e f7 c2 ac be 41 ee eb bd
       0.05707892 0.44122806 -0.33742496 -0.11520053
000080 42 9b ce bc 75 71 d6 3c bd 2d 3f 3d 2e 49 ce bd
       -0.025220517 0.026177147 0.04667448 -0.10072552
000090 ef 35 a6 3c c2 10 2b bd f8 ff 01 3e b6 5b 91 be
       0.02028939 -0.04176403 0.126953 -0.28390282
0000a0 c5 c3 7c 3d 2a 2b 17 3e 64 ff 84 3e 47 14 fb bd
       0.061710138 0.1476256 0.25976098 -0.12259727
0000b0 7d 75 c8 bd 29 e6 01 3d 23 5f 06 bd 43 ec 02 be
       -0.09788034 0.03171364 -0.032805573 -0.12785439
0000c0 dc 1a 4f 3e 30 4c 2f 3e 19 19 76 3e 09 9b cc bc
       0.2022509 0.17118907 0.24033011 -0.02497627
0000d0 40 1f e6 bd 00 28 38 3d eb 6b 34 bd cf 59 52 be
       -0.11236429 0.044960022 -0.04404823 -0.20542072
0000e0 62 d8 a5 3e f6 4e 9b 3d 11 88 2c 3e 70 1e 59 be
       0.3239165 0.0758342 0.1684878 -0.21203017
0000f0 15 ca 5b be 32 7b 1e bd a3 66 b2 3d 38 18 ef bd
       -0.21463807 -0.038691707 0.08710983 -0.11674541
000100 ea 5c 7a 3e 71 a2 90 3d b9 78 a8 3c 0b ab 75 3e
       0.24449506 0.07062233 0.020565378 0.23991029
000110 a0 0c 89 3d 07 a9 9c bd 76 56 41 3e 59 0b 86 bd
       0.06691861 -0.07649427 0.18880638 -0.06545133
000120 8f df 48 bc b8 fc 51 3e 33 cf f7 bd eb f6 24 be
       -0.012260332 0.20506561 -0.12100067 -0.16109817
000130 d4 6d 27 3e 13 6f 08 be 9d 63 5a 3e 8d ca 8b be
       0.1635049 -0.13323621 0.21327062 -0.2730297
000140 c7 a4 a8 be ee 5b dc bd b1 81 b5 bb 8f a8 58 3d
       -0.32938215 -0.10759722 -0.005539142 0.052895125
000150 4a fc 8b 3e 73 f2 00 3c 71 30 2f 3e fb 2c 2d bd
       0.2734092 0.007870304 0.17108323 -0.042279225
000160 29 62 64 3e 75 d9 b6 3e bc 62 56 bd 59 49 0e 3e
       0.2230307 0.35712782 -0.052340254 0.13895167
000170 4f 76 4e be f1 d3 39 3e 1c 1a 9b be 22 9e 8f 3d
       -0.20162319 0.18147255 -0.30293357 0.07012583
000180 c6 0f 9e 3d 6a 21 c2 3d 0c 8e 9c 3d de f3 1c be
       0.07717852 0.094790295 0.07644281 -0.15327403
000190 25 1b 0b bc 53 00 3f bd ed 64 7a 3e f9 05 fb 3b
       -0.0084903585 -0.04663117 0.24452563 0.007660624
0001a0 70 49 b9 bc 17 94 2e be 8e 66 a0 3d bf 8b 47 3c
       -0.022618026 -0.1704868 0.07832061 0.012179314
0001b0 9a 9b ca 3d 59 fb 88 3e 53 f4 d9 3d c7 2a 29 3e
       0.0989296 0.26754263 0.10642304 0.16520225
0001c0 7f 2c 22 3e 46 c5 11 3d ed 89 10 bd 20 ef 26 bd
       0.15837286 0.035588525 -0.035287786 -0.04075539
0001d0 cc 80 01 3d fa 80 d8 3d cd 0f 71 3d 6f 86 53 3d
       0.03161697 0.10571475 0.05885296 0.051641878
0001e0 45 f8 cd 3d 65 b2 2f 3e 44 e0 15 3d c5 1b c5 bd
       0.10057119 0.17157896 0.03659083 -0.09624437
0001f0 fd 76 93 bc 68 8b 1f be 4d f5 8e 3e 53 ef b0 3e
       -0.018001074 -0.15580523 0.27921525 0.3455759
000200 fc 08 a3 3e 7a 38 32 be 7a 3d 9d bd 13 1d a4 3e
       0.31842792 -0.17404357 -0.07677741 0.32053432
000210 e4 34 17 3e c2 1f 9a 3d 2b f2 b4 be 1a 5d 99 bd
       0.1476627 0.075255886 -0.3534101 -0.07488461
000220 70 50 a3 3e 0d 2d 69 bd 0d f3 f5 bd 73 2d 86 bd
       0.31897306 -0.05692773 -0.12009249 -0.065516375
000230 f1 dc d8 bd a1 98 8b be 41 ba 3f 3b 8d 79 66 bd
       -0.10589016 -0.27264884 0.0029255303 -0.056268264
000240 59 30 8e bc 4f 2d a3 3d 54 67 ca bd 99 ab cb 3d
       -0.017357038 0.07967626 -0.098829895 0.09944839
000250 a0 4c 25 3f 38 f0 04 3d 26 b7 da 3d 71 c3 df bd
       0.64570045 0.032455653 0.10679464 -0.10925949
000260 94 25 42 3e 4d 95 47 be bb 5b 0b 3d d8 e7 26 3e
       0.18959647 -0.19490547 0.034023028 0.16299379
000270 ee e4 c2 bc 8c ab d6 bc 65 71 45 be 41 c4 07 3e
       -0.023790803 -0.026204847 -0.19281538 0.13258459
000280 b6 2d 72 3c e7 9b 55 3e d0 c3 5d 3c cb 43 40 3d
       0.014781406 0.20860253 0.013535455 0.046939652
000290 9c 7f 2e 3d f5 fc 88 3d a9 92 53 3e cb eb a5 bc
       0.042602167 0.06688873 0.20661415 -0.020254036
0002a0 64 e5 24 be 38 c3 5a 3e d7 04 62 3d 73 c1 98 3c
       -0.1610313 0.21363533 0.055180397 0.018646931
0002b0 09 37 0a bd 20 8c 65 bd 9f 35 07 bd ac 8f f4 bd
       -0.033743892 -0.056041837 -0.03301012 -0.11941466
0002c0 fe 60 8f 3e 39 bc b0 bd ab 51 3d 3b 4e 1c 40 be
       0.28003687 -0.086296506 0.002888779 -0.18760797
0002d0 bb 8f 07 3d 88 b1 b9 3d 95 8f b3 3d 04 b1 fc bd
       0.033096056 0.090670645 0.087676205 -0.123384506
0002e0 6e 24 50 3e 62 5e b6 3d 39 53 8d 3e 27 0a 7c 3e
       0.20326397 0.08904721 0.27602556 0.24613248
0002f0 59 b8 e9 3e bd d1 74 3e ed d1 ee 3d 54 de e0 3d
       0.4564846 0.23908134 0.11661134 0.10979906
000300 34 47 1c be 6a 1c a4 bd 18 a7 6b be 40 c7 d5 3d
       -0.15261537 -0.08013232 -0.2301296 0.104383945
000310 62 34 6e 3e 9b 8b bd be 91 bb 6b 3c 08 0c 51 bd
       0.2326217 -0.37020573 0.014387981 -0.051036865
000320 05 06 4b be b8 0e e0 bd 5a b8 2d 3c 26 ac 9c bd
       -0.19826515 -0.109403074 0.010603035 -0.07650022
000330 90 3b d1 bd dc 9c 8a 3e c2 86 68 bd 46 f3 23 3e
       -0.10216439 0.270728 -0.05676914 0.1601077
000340 8b 8d 64 3e 38 96 c6 3d b8 57 99 3a d7 ed 65 3e
       0.2231962 0.09696621 0.0011699116 0.2245401
000350 9e eb bd 3d ca 6e 28 3e 60 de c7 bc 51 a1 18 3e
       0.09273456 0.16448513 -0.024398029 0.14905287
000360 89 f8 7c 3e 8d e2 0c be 51 82 2c be 30 ec f7 3d
       0.24704184 -0.13758297 -0.16846587 0.12105596
000370 89 a8 59 be 82 9b 1c 3e f4 73 84 3e 3a c7 cc 3d
       -0.21255697 0.15293697 0.25869715 0.09998937
000380 4f aa 68 3e dd 49 fe 3d de c4 42 3e c0 9d 51 3e
       0.22721218 0.12416432 0.19020411 0.20470333
000390 46 0b aa 3d a9 47 f5 3d 43 ad b0 bd db d2 6c 3e
       0.083029315 0.11976559 -0.08626797 0.2312731
0003a0 7e 8c d7 3c bc c7 80 3d fa c9 9b be 9d f2 40 3e
       0.02631211 0.06288096 -0.30427533 0.1884255
0003b0 83 47 4c 3e ea 7c c1 bc af 9b 3f be 64 06 25 bd
       0.19949155 -0.023619134 -0.18711732 -0.040289298
0003c0 7d 70 6c be 69 fe 36 3e d3 fa 45 be ac fd 02 3d
       -0.23089786 0.17870487 -0.19333963 0.0319802
0003d0 84 f1 21 3e 52 d1 6b 3d 3e 81 ae 3d 77 4f cd 3d
       0.15814787 0.05757267 0.08520745 0.10024922
0003e0 b0 81 bf 3e dc 41 9a 3e 06 15 c5 bc 35 9b 16 3e
       0.3740363 0.30128372 -0.024057876 0.14707644
0003f0 0f f2 f3 3c 52 3a e5 bd 3e 44 a9 bc 5f db 6b 3e
       0.029778508 -0.11192764 -0.020662423 0.23032902
