LSTM/code/model/old_model/model_mk7_100epoch_0.0080trainloss_0.2684validloss.pt (torch, 46468 bytes, 32 tensors)

weight_ih_l0 f4 [40, 22]
00000000: 0f09 13bc 1bcc 1e3e de00 aa3e 1096 9cbe
00000010: d5a6 4abe be76 45bd 29a8 a83e 09d0 72be
00000020: 281a a4be f912 7ebe d71a c43d 6d7c dd3d
00000030: 0f2b 903d 6089 62be 02b6 0fbd 993d 53be
00000040: 7734 263e 4c67 6d3e 4a83 b83d 33e9 8e3d
00000050: e63d af3e 061e b8be d1db 00bc 6d2f 81be
00000060: 728c fdbd 454a 613e bf56 5a3e 89b4 ac3d
00000070: af05 adbe 4120 4dbe 0cf5 2abe 977d 5e3e
00000080: dfc0 9cbd 155b 72bd 7e3b 40be 8979 0d3e
00000090: 6713 3a3e 5879 84bd 4e8b 35be a5fa b1bd
000000a0: 2043 04be 8ac6 77be 4247 413e f132 953e
000000b0: 5c5b 03be 4f3f 93be 7d1f 59be 722c 603e
000000c0: 2ef8 a5bb 16ab 9ebe c786 a3be 8c03 d03c
000000d0: a372 17be ebdd 5a3e f3b9 7ebe 615d 95bd
000000e0: 29b7 5c3e 88f6 ee3d 6d83 8ebe 7386 973d
000000f0: 0af8 c13e 2d33 c2bd 52a8 b6be 3d16 31be
00000100: b751 a7bd 883e 9f3e 6069 4fbd 2020 95be
00000110: b8ac 683e 04a0 393e 4af9 aebd 5629 72be
00000120: 73d2 ed3c bbc0 1dbc 6f77 693d cd5a 27be
00000130: 0021 06be 3eec ad3e fe29 62bd a4cb 753e
00000140: 0b0f 893e 10a1 613e 77d5 6c3d f1bb 1fbe
00000150: cca6 42bd 0bd7 9f3c a6a9 9dbd 3f37 423e
00000160: 3511 f43d ed1b 9cbe 4efb abbe 6015 9a3e
00000170: e622 0a3e 5bf7 4abe 8d40 bdbd 1987 67be
00000180: 1288 40be c57d 5fbd 2ff9 b83d c585 6cbd
00000190: cf77 8a3d ee8d bfbe 4683 013e 1fc8 8abd
000001a0: 03e4 c3bd 2bc7 bcbe 25bc 81be 6857 563e
000001b0: a037 a23c 921a a5bd 5be2 39be 744d 22be
000001c0: 3adc 0d3e 6b0d 463e 4db8 d9bd 7e93 94be
000001d0: c942 55bd 4986 543e 59d0 e0bc c78f 69be
000001e0: 18cc 613e 753f 0bbe e11c 9fbe 8d82 02be
000001f0: 2038 9d3d 39c1 3c3d 461d 8bbe 234a 75be
00000200: c213 55be 9f96 2dbe 36ef 8d3e 55b0 28be
00000210: 169f 21be c7f0 1dbe d1ca 85bd 9762 bf3d
00000220: aff4 6c3e a9f0 1dbe c4d9 fd3d 2a4f 50be
00000230: 1976 453b f402 8e3e 2482 7fbe 168c 2c3e
00000240: e65f a63e 3a72 debc b91d a53d e1dc 6ebe
00000250: c391 513d 63c3 9abd 3ff5 07be b357 363e
00000260: 3fa0 483c 3598 3f3e 5ab9 263e 3ded e73d
00000270: 27dc c23e 561a 2d3e 2b8c 44be d05d 95be
00000280: 3a6e be3e b822 a4bb 46bb 88be 3dee ffb9
00000290: 9dd6 74be f862 0fbe 0f1f 54be dad1 ae3d
000002a0: 81f6 4b3d e6e0 aabd 3410 80be 8db2 453e
000002b0: 735c 99bd 6577 7ebd d74d bfbd 7f0d 82be
000002c0: 71d7 8cbe fdf7 223e 9d97 7fbe 755e 463e
000002d0: 9fb1 183e a1eb 1abe be81 6f3c 6270 46be
000002e0: c51f 23be 051b a4be 04fc 90be c934 e7bd
000002f0: b1e8 263e eea5 83be 9d6e acbe 3337 cfbd
00000300: 5437 acbe 8ea4 d4be 912c 333e 4dbb b4bd
00000310: 110d 803e 03c3 123e 7248 95be 66b1 c5bd
00000320: 6921 8f3e 5f1f 99bd f35f febd 0eec 683e
00000330: ec28 d2bd 4d66 6dbe 1d52 7dbe 7ba9 cf3d
00000340: f7d1 2a3e ad6d 083e 5525 023e 4a14 0ebe
00000350: 2054 5f3e dff4 323e e3d0 8cbe d34b f1bc
00000360: 41a3 8fbe 94d2 f03d e0d1 9d3e 0c1a 5f3e
00000370: d832 933c 2734 103e 69e2 753e 22d0 7cbe
00000380: 6f78 0cbe e098 8cbe 35a9 0dbd 805e 933e
00000390: a4e0 2ebe ed0f 6abe f3af d03c 14db 8cbe
000003a0: dba5 bfbe e241 6fbe 40eb 1d3e 74d5 453e
000003b0: b410 1c3e cd13 a6be b0dd f73d 9d8d 2bbe
000003c0: 3fc9 723e dc86 973d a7d9 8abe 63df 3a3e
000003d0: d1b5 63be 41ea 61be d743 1bbd 5e84 43be
000003e0: f131 c33d 5188 753e eda3 093e a7d2 6bb9
000003f0: 9506 b9be ff4d 833e 950a 813e c944 95bd
-0.008974328 0.15507548 0.33203787 -0.3058324 -0.19790204 -0.048208944 0.32940796 -0.23712172
-0.32051206 -0.24811925 0.09575432 0.10814748 0.07039463 -0.22122717 -0.035085686 -0.20628966
0.16230951 0.23183936 0.090094164 0.06978073 0.34226912 -0.35960406 -0.007864908 -0.25231495
-0.123803034 0.22000988 0.21322154 0.08432872 -0.337934 -0.20031835 -0.1669504 0.21727596
-0.07653975 -0.059168894 -0.18772694 0.13815893 0.18171464 -0.06468457 -0.17728922 -0.08690385
-0.12916231 -0.2419683 0.18874839 0.29140428 -0.1282782 -0.28759238 -0.21203418 0.21891955
-0.0050649857 -0.30989903 -0.31938764 0.025392316 -0.14789824 0.21373717 -0.24875621 -0.07293201
0.21554245 0.11668116 -0.27834645 0.07398691 0.3788455 -0.09482417 -0.35675293 -0.1729364
-0.08169883 0.31102395 -0.050637603 -0.29126072 0.22722137 0.18127447 -0.08543642 -0.23648581
0.029031014 -0.00962847 0.056998666 -0.16343231 -0.13098526 0.339693 -0.055215828 0.24003464
0.2676929 0.22034097 0.057820763 -0.15599038 -0.04752235 0.01951172 -0.076983735 0.18966387
0.119173445 -0.30490056 -0.33590168 0.30094433 0.13489875 -0.19820921 -0.09240828 -0.2261013
-0.18801907 -0.054563303 0.09031903 -0.05774476 0.06761133 -0.3741297 0.12647733 -0.06776451
-0.09564974 -0.36870703 -0.25338855 0.2093178 0.019801915 -0.080617085 -0.18152754 -0.15849859
0.13853541 0.19341056 -0.10630856 -0.29018778 -0.052065644 0.2075435 -0.027443098 -0.22808753
0.22050512 -0.13598426 -0.3107672 -0.12745114 0.076767206 0.04608271 -0.2717077 -0.23954062
-0.20808318 -0.16951989 0.27721566 -0.16473515 -0.15783343 -0.1542388 -0.06532825 0.093449764
0.23140214 -0.15423836 0.12395051 -0.20342699 0.0030130206 0.27736628 -0.24951988 0.16850314
0.3249504 -0.027154077 0.0806231 -0.23326446 0.0511644 -0.07556798 -0.13277148 0.17806892
0.012245237 0.18710406 0.16281644 0.113245465 0.38058588 0.16904578 -0.19194095 -0.29173136
0.3719347 -0.0050090216 -0.26705378 -0.00048814891 -0.23909993 -0.14002597 -0.20714973 0.0853612
0.04979563 -0.08343677 -0.25012362 0.19306393 -0.074883364 -0.062125582 -0.09341019 -0.25400922
-0.2750812 0.15914913 -0.2496018 0.1937197 0.14911507 -0.15128948 0.014618335 -0.19378808
-0.15930088 -0.32051864 -0.28317273 -0.11289365 0.16299702 -0.25712532 -0.3367814 -0.1011795
-0.33635962 -0.41531795 0.1749747 -0.08824787 0.2500997 0.14332204 -0.29156834 -0.09652977
0.27955177 -0.07476687 -0.124206446 0.22746298 -0.102617115 -0.23183556 -0.24738355 0.10139748
0.16681658 0.13323088 0.12709554 -0.13874927 0.21809435 0.17476223 -0.27503118 -0.029455101
-0.2805424 0.117589146 0.30824184 0.2178728 0.01796858 0.14082395 0.2401215 -0.24688771
-0.13717817 -0.27460384 -0.034585197 0.28783035 -0.17077881 -0.22857638 0.025474524 -0.27510893
-0.37431225 -0.23364976 0.15421772 0.19319707 0.15240747 -0.32436982 0.121028304 -0.1675324
0.23709582 0.07398769 -0.2711918 0.18249278 -0.22237326 -0.22062017 -0.037906494 -0.19093463
0.0953101 0.23977782 0.13441439 -0.0002248982 -0.36137834 0.25645444 0.25203386 -0.0728851

weight_hh_l0 f4 [40, 10]
00000000: 799e 323e be86 18be 9bfd dfbc 399b 3c3d
00000010: bc16 083e c58c 893e 7fe0 13be 9183 a63c
00000020: bacf b7be ab11 aebd 1fb8 833e 4df9 a5bb
00000030: bca2 903d 4a38 a4be 6245 753d 2230 13be
00000040: 2f1f 5abe 872b 3cbe 1db0 203e af25 523d
00000050: cbc5 8ebd fb92 b03e dbf5 ac3d a593 35be
00000060: 1d11 ae3d bf1c a9bd cb1c e9bc 921f 38be
00000070: 447e 9e3d 070e 50bd ba46 77be 1fcd 5c3e
00000080: 3101 7e3c b3cf 80be 770d f0bc 94a2 82be
00000090: 0d3c 8a3e 7f5e 4e3e c69c cdbe 8276 cc3a
000000a0: 7694 20bb 982d 8b3e c061 cc3e 357d 85be
000000b0: c1e4 163d 01fc bebd 72ef b83e 8d98 b83e
000000c0: ef94 14be f275 753e eafc 64bd 898c b3bd
000000d0: 0934 443d 50e4 863e 1aba cfbd c434 e4bd
000000e0: 0dd3 883e cd96 babd 0912 a5bd d085 62be
000000f0: 3326 a2bd 7bd6 b13e 9e8a 063e 9fa7 2d3e
00000100: 7bb7 3dbd 93ad ba3c 9bab 9a3d 6bf1 ce3d
00000110: 6f64 273d dbe3 09be d2fb 71bd 71aa c13d
00000120: 54da 94be 9c84 a1bb 8dc4 91bc 9bd2 443e
00000130: 9173 fa3d 754d cdbd df1b 91be 5402 96be
00000140: 980d bdbe 6c11 b63d 5657 16be 7a53 cabe
00000150: 66c9 b63e 122d c6be 0d3c bd3e 4868 d83e
00000160: 0809 be3e 2089 2bbe 44d8 8abe 6075 8fbd
00000170: 0f9b b43e b2da 173e 6997 a53e fe70 d23b
00000180: 26c0 8d3e de83 993e 4b56 3c3e 389c debd
00000190: e773 623e 5c5e f23d b6b5 39be a596 00bd
000001a0: d1fc cfbd f9fa f33c 772d 0fbb b716 ddbd
000001b0: 7534 f2be 5483 173c 4101 a4bc 5a19 7b3e
000001c0: e712 39bd 1717 29be 277f f33b 3e9d a6be
000001d0: 506d 7c3d 0f78 64bd c136 363e e241 9d3e
000001e0: 1af4 84be 4bdf 7d3e 3e06 abbd 577d 253b
000001f0: 787c 943e 5475 a1be 9b5e ecbd bb72 933c
00000200: 4f14 22bc 57e6 7dbd 95af 7f3c 6034 943e
00000210: 420b 8d3d b91c 393e 4333 723e d3fc 743e
00000220: dcad ac3e b0e1 6fbe afe6 dabe 2a22 003e
00000230: d3a3 853d d5db 57be 3a9e ab3e fed9 78be
00000240: 2e61 803e 10ce 83be 3e78 de3b b801 a13c
00000250: a8ef 83be d4d8 343e c876 8ebe 709b 4abe
00000260: 1665 03be f5b4 853e bb5d 38bd fe11 883e
00000270: 036d 8ebe 0492 ab3d 16cf 983e ce85 5c3e
00000280: d48e 0abe 23cc a13e 6f9f 823e 4888 46be
00000290: 5db3 5d3e 64a2 87be 219d 3dbe 2a34 86bd
000002a0: c220 2a3e af34 7bbe 08b2 933e 6bff 9ebe
000002b0: 624d 96be a512 5d3d 3096 2cbe dd97 303e
000002c0: e722 853e e34c a83d 76fd b93e e24f 5cbd
000002d0: 8b20 c43c e2d4 a4be f608 b73e 25e1 afbe
000002e0: f566 7e3e 6afd 9dbe 363a b63c 6283 213e
000002f0: 986f 38be 7064 903e 9ba0 df3d 4b35 b63d
00000300: 4487 283c 0060 633e 4292 103c 7150 b53d
00000310: d78f 2cbd e7cf a5bd 67a4 60be 8834 82be
00000320: 637d 473e d174 713e 0b51 79be c565 773e
00000330: bda6 723e 928e acbd d17d ac3e f24c 53be
00000340: 5e60 913e fbc5 6abe 4200 883e 0889 e43d
00000350: 733a 873e 81fc 3c3b f3c8 9dbe a3af a03e
00000360: c043 9bbe c0f6 423e bcdd 15be b045 583d
00000370: b226 10be 71b6 5abe 3cc0 39bb fd8a 7b3e
00000380: aa85 333e fff3 ba3d 43c1 18be 1e9c a7be
00000390: 1230 b1bd 9c82 7dbe 101f e93d b447 7a3d
000003a0: 8f9c f93d a70c 11be 4ccd 51be af24 73bd
000003b0: 9862 4cbc c01c 10be 9e35 98bd 5aa3 90be
000003c0: 16d8 86be 6995 c93d 0596 f23d a501 bb3d
000003d0: 9543 983e f1f4 b1be ba20 b43c a977 d5bd
000003e0: e55d 893e 09a6 633e c91f 573e 627c 813e
000003f0: 3d51 35be 3758 45be 0609 093e 01fa 453d
0.17443265 -0.1489515 -0.027342608 0.04604647 0.13289922 0.2686521 -0.14441107 0.020326408
-0.3590067 -0.08499464 0.2572641 -0.0050651194 0.07062289 -0.32074195 0.05988062 -0.1437383
-0.21300958 -0.1837598 0.15692182 0.05130547 -0.0697132 0.34487137 0.08445331 -0.17732103
0.08499358 -0.08257436 -0.028456112 -0.17980793 0.07738927 -0.050794628 -0.24148074 0.21562622
0.015503214 -0.25158462 -0.029303296 -0.25514662 0.2699894 0.20153235 -0.4015867 0.0015599283
-0.0024502552 0.27183223 0.39918327 -0.26072088 0.03683925 -0.0932541 0.36120182 0.36053887
-0.14509939 0.23970774 -0.05590526 -0.08767039 0.047901187 0.26346064 -0.10142918 -0.11142877
0.2672352 -0.09110794 -0.080600806 -0.22121358 -0.07917442 0.34733948 0.13138816 0.16958474
-0.04631756 0.022787845 0.075522624 0.101046406 0.040867265 -0.13465826 -0.059078045 0.09456337
-0.2907282 -0.0049291383 -0.017793918 0.19220965 0.12229074 -0.100245394 -0.28341576 -0.2929865
-0.36924434 0.08890042 -0.14681754 -0.39516813 0.3570053 -0.3870626 0.36959878 0.4226706
0.37116265 -0.16751528 -0.27118123 -0.070048094 0.3527455 0.1482952 0.3234208 0.006422161
0.2768566 0.2998342 0.18392293 -0.1086964 0.22114526 0.11834404 -0.18135723 -0.031393666
-0.10155643 0.029782759 -0.0021847168 -0.10795348 -0.47305647 0.00924762 -0.02002013 0.2452139
-0.045184042 -0.16512714 0.007430929 -0.3254184 0.061627686 -0.05577856 0.17794324 0.30714327
-0.25967485 0.24792211 -0.083508 0.002525171 0.29001212 -0.31534827 -0.11541482 0.017999044
-0.009892537 -0.061987247 0.015605827 0.2894621 0.06886913 0.18077363 0.23652367 0.2392457
0.33726394 -0.23425937 -0.42754123 0.12513033 0.065253876 -0.21079953 0.33519155 -0.24301907
0.25074142 -0.2574315 0.0067892363 0.01965414 -0.2576878 0.17660838 -0.27824998 -0.19785857
-0.1283153 0.26114622 -0.045011263 0.26576227 -0.27817544 0.0837746 0.29845494 0.21535417
-0.13531047 0.31601056 0.25512263 -0.19387925 0.21650453 -0.26491082 -0.18516971 -0.06552918
0.16614059 -0.24531816 0.28846765 -0.31054243 -0.29355913 0.05397286 -0.16854167 0.17245431
0.2600319 0.0821779 0.36326188 -0.05378712 0.023941299 -0.32193667 0.35749024 -0.3435146
0.24843962 -0.30857402 0.022244554 0.15772775 -0.1801132 0.28201628 0.10919305 0.088968836
0.010286156 0.2220459 0.008823933 0.088532336 -0.042129364 -0.08096295 -0.21937715 -0.25430703
0.19481425 0.23579718 -0.24347322 0.24159916 0.23696418 -0.08425631 0.3368974 -0.20634821
0.28393835 -0.22927086 0.26562697 0.11158949 0.2641178 0.0028837027 -0.30817375 0.31384
-0.30325127 0.1903944 -0.14635366 0.052800834 -0.14077261 -0.21358658 -0.002834334 0.24564739
0.17531458 0.0912857 -0.14917473 -0.32736295 -0.08651747 -0.24756855 0.11382878 0.061103538
0.12188064 -0.14164983 -0.20488471 -0.059361156 -0.012474678 -0.14073467 -0.07432102 -0.28249627
-0.26336735 0.09842951 0.1184502 0.09131173 0.2973906 -0.34757188 0.021988261 -0.10423214
0.26829448 0.22231306 0.21008219 0.2529021 -0.17706771 -0.19271933 0.13382348 0.048334125

bias_ih_l0 f4 [40]
00000000: 9f00 693e 4966 f93d db2c a13e cbb7 5abd
00000010: 08c8 b8bd 3999 8abd 430c 113e 7e65 97bd
00000020: 4fce 3c3e 92be f2bc 0837 5dbd a7e7 4d3e
00000030: 1174 66be a11c a53e 4b04 49bd 6414 103e
00000040: ec56 aebd 7448 4ebc 9127 3fbe 153e 1fbe
00000050: e585 7a3d 5e6f 37bd 792a ed3c d762 36be
00000060: 3b8e 66be a2ee e1bd bddf cd3c 275d 87bd
00000070: fe1c 893e cd7f 2abe b509 4fbe 1c82 883e
00000080: 020e d03d ff47 a3bd 0e79 fabd c47a 713d
00000090: 91e9 01be 537c 893d 2ef7 cfbd 01ba ebbd
0.22754143 0.121777125 0.31479535 -0.053397935 -0.09022528 -0.06767506 0.14164834 -0.07392405
0.18438075 -0.029631887 -0.05400756 0.201079 -0.22505213 0.32248405 -0.04907636 0.14070278
-0.08512673 -0.012590516 -0.18667437 -0.15551026 0.061162848 -0.044783942 0.028950917 -0.17811142
-0.22515194 -0.11031844 0.0251311 -0.06609564 0.26779932 -0.16650315 -0.20218547 0.26661766
0.10158922 -0.079727165 -0.122301206 0.05895497 -0.12686755 0.06713166 -0.10154568 -0.11510087

bias_hh_l0 f4 [40]
00000000: ff2d c83d 6def a6bd 34e4 833e 56bd a73e
00000010: 7498 f4bd 51b1 64be ad77 823e da1d 963d
00000020: 8f0f 4b3e 71f1 a33e cd35 7cbe 3be6 17be
00000030: 98cb af3d da0e b13e bca2 b03e d026 943d
00000040: 63ac be3c bd36 93bd 6b04 b9bd 7aff b43e
00000050: 532b 7a3e d739 863e 80d7 6b3e 9214 64be
00000060: bcac 973e 8d30 96be 9e60 c03e a903 71be
00000070: bfe5 813e b6ee 803d 42f3 843d 8f7d 1e3e
00000080: 9153 a03e 9c92 843e faea 5fbe e28e bf3d
00000090: b291 6b3d 9b06 2c3d 405a 83ba 38c8 933d
0.09774398 -0.081511356 0.25760043 0.3276164 -0.119431406 -0.22333266 0.2548193 0.073299125
0.19830154 0.32020143 -0.24629898 -0.1483392 0.08583754 0.34581643 0.34499156 0.072339654
0.02327556 -0.07188175 -0.09034046 0.35351163 0.2443059 0.26216003 0.23031425 -0.22273472
0.29623973 -0.29333916 0.37573713 -0.23536552 0.25370595 0.062955305 0.0649171 0.15477584
0.31313756 0.25893104 -0.2186698 0.093534246 0.057511993 0.041998487 -0.0010021403 0.07215923

weight_ih_l0 f4 [40, 22]
00000000: 1151 983e 0333 863e a8f4 64be 1bce 91bd
00000010: 87bf 73be f744 e3bd 9eb7 debd e7f7 143e
00000020: dfdf 8fbe 198c 94bd 8cf1 a5be e481 4bbe
00000030: 7440 5abe 0a6f 95be 596d a2be ca14 cf3c
00000040: 1991 1bbe cb3d 953d 5b54 603e 92c6 47be
00000050: fa73 74bd 3ee8 67bd 8d83 023e 11ae 98bd
00000060: 29e0 a8be ad73 443e 2bea 11be 9fcf 27be
00000070: 6e57 a9be dbd6 133e d4e0 133e 9b95 af3e
00000080: a53c 8b3e 9cc7 ca3d 1e1a 923b 9102 21bb
00000090: ccd9 b4bc 1833 9f3e 866d 52be df8e 65bd
000000a0: 2ed1 0cbe 48a0 bb3e a7f5 47bb 94be 8dbc
000000b0: 89fa 7e3d 2981 46bd d3f6 26be 786b c4bd
000000c0: f5d4 373e 3d01 46be 63a0 593e eae2 813b
000000d0: aeb9 253d a2f8 b0be 627e e0bc be25 5a3e
000000e0: 1250 2fbe 5f9f 70be a856 b3be 4c21 a23e
000000f0: d110 ac3d 7109 94be a20d 13be 81e5 d73c
00000100: 1c2b 603e 1baf e4bc ef7f 8abd 4f49 a6be
00000110: 0836 983d 3245 873e e633 7a3e 96cc 9dbd
00000120: d3bf 7fbe 9910 1d3e fd2a 6d3d 1597 08be
00000130: d496 873d 205c 433e db2b 003e 2640 f33d
00000140: 1578 683e f6ba b43e 426d a83e 653e 883e
00000150: cfa2 613e a77a 913e e5ff dabc f2c9 9ebd
00000160: 7962 60be 874d 9fbc 28e5 79be 49db 90bd
00000170: 57ba eb3c 88df cc3d 1766 cabd 2f06 3cbe
00000180: 7526 b3bb 04ca 5d3d 5a67 6f3c 0f9a 693e
00000190: ca8f 9abe bc37 95bc 4c32 5d3e 8eb4 05bd
000001a0: 3cea c53e 1ee3 73be 7111 be3d ba5d 29bd
000001b0: f889 18be ebd7 0bbd f384 5fbe 79e5 973e
000001c0: 2adf 2ebc a871 2b3e aee5 01be 96e9 0d3e
000001d0: b5f0 5fbe eab6 69be 3676 953d 3580 903e
000001e0: 89bb 09be 05a8 d63b c14f 81bd 7d31 2ebd
000001f0: 183c 683e 5f6d 35be da3e 913c 753e 2a3e
00000200: 612e 42bd 5e04 ba3e dfbc b8be 60da 863e
00000210: 7289 a73e 3880 3b3e 6e00 723e 6468 323e
00000220: a55c 553e 4d02 463d 1750 12bb b3f1 623e
00000230: af94 c93e b22f 8fbe c3db b83d 4049 273d
00000240: 78a1 e7bc 94fe ed3d db18 93be 5a3c 94be
00000250: b7c2 33be f1b4 7a3e f9d4 493e 3f15 1b3e
00000260: dc5b d53d eeb6 52be fadd 4ebd 0010 3fbe
00000270: 58f6 eb3c a7d4 66be 4bc8 9e3e 432c 2c3e
00000280: 78b6 5fbe 1f9a 58be bf6e 38be 16ba 363d
00000290: 3dbe 9cbe 8ffa b6bd da8f a0be ec72 a1be
000002a0: 2489 a4be 8449 6abe 21e6 05bd accd f3bd
000002b0: 8bc1 23be 8b2c 103e 32c7 923e ce93 06bd
000002c0: a16e a53e 055f 25be 7139 b23d 07e0 e63d
000002d0: 2993 5c3d 91a4 123d 5a72 c7be 88c3 003e
000002e0: 123f 28be eed0 0bbe db1d cabd 7789 383e
000002f0: e640 c2bd 11dd f93d 7f9f 78be 5ca4 8f3e
00000300: 397f 363e 823b 0e3e c5e7 433e 8cd2 873e
00000310: 1833 c43e b911 a23e b161 a63c 174a d73d
00000320: 9fc7 9dbd 67fe 983e 1083 3cbe 4411 7f3e
00000330: c857 06bc 6abd 583e eeaa 783e 8663 ffbc
00000340: abf3 86be b561 5c3d 3276 4b3e 9da1 9dbe
00000350: 4ba1 8e3d b7ef 3abd 9a25 b2be ce45 6ebe
00000360: dfc5 19be 4df0 fa3d 331b 863e 402a 1dbe
00000370: da4e f8bd 3ed5 88bd 2c9a 873e 7e51 a3be
00000380: 2e40 40be 09fd 173d 4455 08be 33cb 66be
00000390: bbbf ad3c c55c c6bc 1184 c4bc 8995 863e
000003a0: b8b9 a43e 5deb 8a3e 6bf3 a3bd d488 543e
000003b0: aba8 773e 72ba 783e 65ab 0fbe 48b7 973d
000003c0: 4b17 a8bd 0be6 84bc 03b7 8fbe b9dd a63e
000003d0: b9af b2be a61e f43c d8a1 2f3d 9393 3a3e
000003e0: 1ada 973d 429f 013c ce36 3fbe 89d8 1dbc
000003f0: 9c8a c2be 8379 4c3e a2ca 273e 0ef5 a83e
0.2974935 0.26210794 -0.22358954 -0.071193896 -0.2380353 -0.110971384 -0.10874866 0.14547692
-0.28100488 -0.07253284 -0.32410848 -0.19873768 -0.2131365 -0.2918628 -0.3172405 0.025278468
-0.15192069 0.07287177 0.21907179 -0.19509342 -0.059680916 -0.056617968 0.12745495 -0.074550755
-0.3298352 0.19184752 -0.14249484 -0.16387795 -0.33074516 0.1443743 0.14441234 0.34293827
0.27194706 0.09901354 0.00445868 -0.002456818 -0.02207651 0.3109367 -0.20549592 -0.056044456
-0.1375167 0.36645722 -0.003051141 -0.017302789 0.062250648 -0.04846302 -0.16305093 -0.095908105
0.1795233 -0.1933641 0.21252589 0.003963818 0.04046028 -0.34564692 -0.027404014 0.2130346
-0.17120388 -0.23498295 -0.3502705 0.31666028 0.08401645 -0.28913453 -0.1436067 0.026354553
0.21891445 -0.027915528 -0.06762683 -0.32477805 0.07432181 0.2641998 0.2443386 -0.07705037
-0.24975519 0.15338363 0.057902325 -0.13338883 0.06620565 0.19078112 0.1251673 0.1187747
0.22702058 0.3529889 0.32895857 0.26610103 0.22034763 0.2841389 -0.026733348 -0.07753362
-0.21912564 -0.019446148 -0.24403822 -0.07073075 0.028775377 0.10003573 -0.09882753 -0.18361734
-0.005467231 0.054147735 0.014612043 0.22812675 -0.30187827 -0.018215053 0.21601218 -0.032642893
0.3865527 -0.23817107 0.092806704 -0.04134915 -0.14896381 -0.034141462 -0.2182806 0.2966726
-0.010673324 0.16742575 -0.12685272 0.13858637 -0.21869166 -0.22823682 0.072979376 0.28222814
-0.13450445 0.006550791 -0.0631404 -0.042527664 0.22679174 -0.17717503 0.017730165 0.16625388
-0.04740751 0.36331457 -0.36081597 0.26338482 0.3272205 0.1831063 0.23632976 0.17422634
0.20836122 0.048342038 -0.002232557 0.22162513 0.3937125 -0.27966076 0.09026291 0.04084134
-0.028275236 0.116208225 -0.287299 -0.28952295 -0.17554747 0.24483086 0.19710149 0.15144823
0.104179114 -0.20577595 -0.050504662 -0.18658447 0.02880399 -0.22542058 0.31012186 0.1681376
-0.2184695 -0.21152543 -0.18010996 0.04461106 -0.3061389 -0.08934509 -0.3135975 -0.3153299
-0.3213588 -0.22879606 -0.03269017 -0.11904463 -0.159918 0.14079492 0.286676 -0.0328558
0.32310966 -0.16149528 0.08702362 0.112731986 0.05385128 0.035801474 -0.3895443 0.12574589
-0.1643031 -0.13653919 -0.09868976 0.18021189 -0.09485035 0.12200368 -0.24279593 0.28055084
0.17821969 0.13889888 0.19131382 0.26527822 0.3832023 0.31654146 0.020310255 0.105121784
-0.0770409 0.29881594 -0.18409371 0.2490893 -0.00819964 0.21166006 0.24283955 -0.031175386
-0.2635778 0.05380412 0.19869307 -0.30787364 0.06964358 -0.045638766 -0.34794313 -0.23268816
-0.15016888 0.12252865 0.26192626 -0.15348148 -0.12124415 -0.06681298 0.2648481 -0.3189811
-0.18774483 0.037106548 -0.13313776 -0.22538452 0.021209588 -0.024214158 -0.023988755 0.2628596
0.32172942 0.27132693 -0.08005413 0.20755321 0.24185435 0.24289873 -0.14030226 0.07408005
-0.08207568 -0.016222974 -0.28069314 0.32591036 -0.3489969 0.02979977 0.042878956 0.18220358
0.074146464 0.007911505 -0.1867325 -0.009634146 -0.37996376 0.19968228 0.16385892 0.32999462

weight_hh_l0 f4 [40, 10]
00000000: cd7a 573e 34a3 fc3c b9bc 8fbe 6c24 99be
00000010: fbcb 1dbd 2ef8 443e 1dfb 90be 05be 91bc
00000020: 61d7 7a3e 5b5c 9fbe 5a5c a5be 1798 1fbe
00000030: 33f5 af3d eff3 933c 6eb2 5ebe 0c3a 51be
00000040: f753 3ebe 88de 423d 8750 6ebe bc09 bc3e
00000050: 0877 733d 7c5a b1be f3b6 82be b26f 4abe
00000060: 4e0c 43be b9d3 42be c55f 843d c707 143e
00000070: 39b7 8ebe 17b3 29be 3972 313e ce8f 85be
00000080: c353 273d 5201 65be 04f8 08be 3380 d5bc
00000090: c039 e93e feb1 933e 4945 89bd 5709 113d
000000a0: 7ef4 92be 25b5 613e e14f 4c3e 4b38 6ebe
000000b0: 4c7a 94bc 539f 91be 12ec 64bc 9573 acbd
000000c0: 15e4 673e c677 c3bb 7718 c9bd 7257 183e
000000d0: 0af5 ccbd 1d95 01bd 7b7f b2bd 87f1 c1be
000000e0: a43c a0be 9efb ecbd b641 a93e 4e9c 293e
000000f0: d111 3abe c663 9d3d 9819 f6bc 215c 85be
00000100: ebba 23be 86d4 b93e 88e5 593d 5916 34be
00000110: ee37 8dbc 6c3f e2bc 5b13 203e 027b 21be
00000120: b7e1 373e aac9 893d 2fbb 68be 83b2 75be
00000130: 848a 8d3e a8a9 edbd 4ed6 b53b e239 fc3d
00000140: 64bb 8e3d d445 bbbe e0b7 9b3d fe70 27be
00000150: 5d14 963d ec7c c23d cf64 acbe acc8 a43e
00000160: 262c 40be d362 143e 1fe5 fd3d 02f5 023e
00000170: d758 45bc 15cc 693d 6262 e8bd f832 8abe
00000180: 374a babd f839 c73a 0695 c4bd ad32 a53d
00000190: 1c85 293e 82e0 1ebd 62ee cf3d 6403 873e
000001a0: 39ea 4ebd 5113 02be 93dd 30be f38a 86bc
000001b0: 1aa3 1e3e c70d 9a3d 7ba4 183e 0779 d1bd
000001c0: e5b4 c9bb 2504 343e fece 01be 11da 7abe
000001d0: ea58 e63d 9c0d 78bc 8dc5 a0be 04d5 303e
000001e0: a11f 3bbe c4da 5b3d 9a6a f33d 012e 533e
000001f0: f2c4 b2be eb80 96be 9004 0cbe e094 2d3e
00000200: 7f76 1abe ca20 f3bb 22ab 253e 458a a13e
00000210: a6c6 c0bd e4e0 79bd 67c7 5cbc 409b 963e
00000220: 46c9 0b3e 14aa a63e 74b8 8e3e 6233 9b3e
00000230: 5ae9 6a3e 5476 763d 3087 10be b389 5a3e
00000240: 0053 403d 29ed edbc 6041 55bd f820 243e
00000250: ae1a b2be 3a0e 993e 855a 9ebe 999b 19be
00000260: cd35 c0be 132f 99be fe46 38be 3104 2dbe
00000270: 3155 173e 66bd 5d3e 78c5 82bd 83f3 313e
00000280: 0cd1 313d 4519 1ebe 1393 85be d1b8 793c
00000290: 4acf 64be 4815 a3bd 4540 1bbe f4cb 8e3e
000002a0: a527 83be 23bf 4e3e daea bcbe 45f1 1b3e
000002b0: 6d13 8ebe ba62 0dbd db73 2f3d 9915 d7be
000002c0: ac32 3fbe de84 3fbe 7c62 9d3d ce02 5ebd
000002d0: c3fa 19bd 095b 91be 8cfb 91be 580d 90be
000002e0: c684 03be 217d 2e3e afc8 13be 11cc 9f3e
000002f0: 0309 80be 34df a73e 5edd 17bd 2271 b1be
00000300: 79a5 51be 4a75 5d3e 9d81 a3be 85e1 12be
00000310: 23e0 713e a235 e73d f890 0e3c 26e0 7a3c
00000320: 8435 9bbe 51f7 973e bbf9 8a3d 327e 9fbc
00000330: 0817 883e e8d6 e33d d6a7 233e 6a9f 7b3c
00000340: 0209 b5bc 599f efbc 7ef8 6bbe 6d70 98bd
00000350: 5566 3fbe 930d 253e 175c 813e c16f 1e3d
00000360: 4f8e 153e 7772 803e dec5 6b3e 30d4 2e3e
00000370: 47a1 d43d df5a b53e 8276 45be 9006 44be
00000380: b65c 0dbe 9bd2 f1bd 9654 d0bd 211c 2ebe
00000390: 2e74 49be ca5b cc3c 13ea 4cbe ad89 5cbe
000003a0: 20f9 263e 7b1b b1bc ffe1 873e 2313 91be
000003b0: 0230 7f3e 4543 59be 7371 8e3e 6cdd ad3e
000003c0: 732c 933e b2f6 70bb 9ecd 8bbd 66af 59be
000003d0: 7364 88be e879 d73d 3598 b63d 5eac f63c
000003e0: 9b06 6b3c 9504 843e 9ee5 3a3e 7e51 6cbd
000003f0: 7b84 a63e 45be 07bd 5e11 8b3e 725d acbd
0.21042939 0.03083954 -0.2807367 -0.299106 -0.03852461 0.19235298 -0.28316584 -0.017790804
0.24496223 -0.3112515 -0.3229702 -0.15585361 0.0859169 0.018060653 -0.21747753 -0.204323
-0.18586718 0.047575504 -0.23272906 0.36726177 0.05943969 -0.34639347 -0.25530204 -0.19769171
-0.19047663 -0.19026078 0.06463579 0.14456092 -0.27874163 -0.16572224 0.17328729 -0.26086277
0.040851366 -0.22363785 -0.1337586 -0.026062107 0.45551872 0.28846735 -0.06702668 0.035409298
-0.28702158 0.22041757 0.19952346 -0.23263662 -0.018124722 -0.28441867 -0.013972299 -0.08420483
0.226456 -0.005965206 -0.098191194 0.14877108 -0.10007675 -0.031636346 -0.08715721 -0.37879583
-0.31296265 -0.1157143 0.33057946 0.16563532 -0.18170859 0.07685046 -0.0300415 -0.2604685
-0.15989272 0.36294955 0.053197414 -0.1758665 -0.017238583 -0.027618133 0.15632384 -0.1576958
0.17957197 0.067279175 -0.22727655 -0.23993878 0.27644742 -0.11604625 0.0055492288 0.12315728
0.06969336 -0.36576712 0.07603431 -0.16351697 0.07328103 0.09496483 -0.3367066 0.3218435
-0.18766841 0.14490823 0.12397217 0.12788776 -0.012045107 0.057079393 -0.1134689 -0.2699201
-0.090961866 0.0015199771 -0.095987365 0.08066306 0.16554683 -0.038788326 0.1015289 0.26369774
-0.05051634 -0.12702681 -0.17272024 -0.016423678 0.15491906 0.07522159 0.14906494 -0.10228162
-0.0061555975 0.17579706 -0.12676618 -0.24497248 0.11247428 -0.0151399635 -0.3140072 0.17268759
-0.18273784 0.053675428 0.11885567 0.20623018 -0.34915882 -0.29395232 -0.13673615 0.16951323
-0.15084265 -0.0074196802 0.16178563 0.31550804 -0.09412889 -0.061005488 -0.013475276 0.2941532
0.13650998 0.32551634 0.27875102 0.3031264 0.22940579 0.06017144 -0.1411407 0.2134159
0.046954155 -0.02904375 -0.0520643 0.16028202 -0.3478598 0.29893667 -0.30928436 -0.15000762
-0.37541047 -0.29918727 -0.17995831 -0.1689613 0.14778592 0.21654281 -0.063853204 0.17378049
0.043412253 -0.15439327 -0.2608877 0.015241818 -0.223447 -0.079630435 -0.15161236 0.2788998
-0.25616184 0.201901 -0.36897928 0.15228756 -0.27749196 -0.03451798 0.042835098 -0.42008665
-0.18671674 -0.18703029 0.076848 -0.054201894 -0.03759266 -0.28389767 -0.28512228 -0.2813518
-0.12843618 0.1703992 -0.14432023 0.31210378 -0.25006875 0.32787478 -0.037076347 -0.34656626
-0.20473279 0.21626773 -0.31934825 -0.14343841 0.23620658 0.112895265 0.008701555 0.01531223
-0.30314267 0.29680875 0.067859136 -0.019469354 0.2658007 0.111249745 0.15981993 0.0153578315
-0.022099022 -0.029250788 -0.23044011 -0.074433185 -0.1869138 0.1611846 0.2526557 0.038680796
0.14605068 0.2508733 0.23024699 0.1707313 0.10382324 0.35420892 -0.19283488 -0.19143128
-0.13804898 -0.11807748 -0.101723835 -0.17002918 -0.19673225 0.024946112 -0.20011167 -0.21536894
0.16305971 -0.021619549 0.2653961 -0.28334913 0.24920657 -0.21217068 0.2782093 0.33957994
0.2874485 -0.0036768136 -0.06826328 -0.21258315 -0.26639137 0.10521299 0.0891575 0.030111488
0.014344837 0.25784746 0.18251655 -0.057694905 0.3252295 -0.03314044 0.27161688 -0.08416261

bias_ih_l0 f4 [40]
00000000: bce8 5fbe 6b52 12be 531a 513d ac85 6fbc
00000010: b5ef 7d3e 7dbf 0e3e 4fae 88be b6e8 de3d
00000020: 92ed 333e 6094 4a3d c911 153d 3769 933e
00000030: c367 d3bc 8a56 0d3e 10a6 523e c1d6 583e
00000040: 5467 fb3c c767 973d b445 0dbe 41af 913e
00000050: e41e ff3d 3eaf acbe 3e6c 423d 7cc8 f93b
00000060: 0432 43be b7ca 7fbe eaa7 033e f6e2 5a3e
00000070: 75b3 713e 99ac 473e 1afb 31bd 8188 b23e
00000080: ee07 3ebe f41b 11be ee31 acbd 48f9 7cbd
00000090: f75e 563e 6066 563c 4789 92bd 722e e73e
-0.21866125 -0.14289252 0.051050495 -0.014619272 0.24798472 0.13940234 -0.26695487 0.1088423
0.17571095 0.049457908 0.036393914 0.2879121 -0.025806313 0.13802543 0.2057116 0.21175672
0.03068892 0.07392841 -0.13796121 0.2845402 0.12457064 -0.3372745 0.04746651 0.0076227766
-0.19062048 -0.24979673 0.12857023 0.21375641 0.23603614 0.19499435 -0.04345236 0.3486977
-0.18557712 -0.1417082 -0.08407961 -0.06176117 0.20934664 0.013085932 -0.0715509 0.45152622

bias_hh_l0 f4 [40]
00000000: bd6c 83bd 0b7b 743e 3e55 d03d 35f0 80bd
00000010: 42e7 2bbe 3aca 8e3d b73f 98bd 2ce4 313e
00000020: 3cdb 873d 1b4d 683e d275 723e 34c0 ab3e
00000030: 3836 6a3d acc1 0dbe 4516 833e 1b34 bd3e
00000040: b2d2 51bd f948 5f3d 051c fdbd dca5 8e3e
00000050: a333 3b3e 9beb 24be 2939 94be 59af 67be
00000060: 90a3 05be 5078 8abd a6cf d53d e6ba 973e
00000070: 0568 093e e34a 403e 2d8c 813e 72f4 1bbe
00000080: 27ac 373e a2bf ecbd 7d37 2bbe a1cc 8e3e
00000090: 72f4 14be ac21 8f3e 1217 543d ce09 893e
-0.064172246 0.23875062 0.10172509 -0.06295816 -0.16787437 0.069721654 -0.07434028 0.17372197
0.066336125 0.22685663 0.23677757 0.33545077 0.057180613 -0.13843411 0.25602928 0.36953816
-0.051226325 0.05451295 -0.1235886 0.27860916 0.18281417 -0.16105501 -0.2894986 -0.22625484
-0.13050675 -0.06761229 0.104399964 0.2963478 0.13418587 0.18778567 0.25302258 -0.15229967
0.17936765 -0.115599886 -0.16720386 0.27890494 -0.14546373 0.27955377 0.051779814 0.26765293

weight_ih_l0 f4 [40, 22]
00000000: 7dec 4e3e 468c 2d3e 4224 e93d 5410 98be
00000010: ee20 443e 4b98 a9be 925b 6abd a99c 7a3e
00000020: e631 ae3c 2d3a 60bd 7047 bcbc 6c25 35be
00000030: f97d 82be 9c9e 583e cf22 d03d c31b 3e3e
00000040: 9ff5 883e 8d56 77be 9749 9bbe f792 4f3e
00000050: 491e 193e 55a7 b0be b315 8d3e 6215 d63d
00000060: 7593 623d 193f dabd 76da 643e 8147 3c3e
00000070: 2b48 f8bd 0170 373d dccd d1bd 6243 1dbe
00000080: 4789 49be c70b 27be 450b b5be 643c d43d
00000090: 9155 b3be b2a3 54be 081b 75be 5aac 2fbd
000000a0: 056e f8bc 8cae 96be c4f7 373e 9d43 9d3c
000000b0: 5805 88be d084 a23e bb4b 3e3e 8ac6 313d
000000c0: 3bff 273e 4c4b 393e f78f 9abd 7ba6 6e3e
000000d0: b824 a7bd 3742 a23e 598c 8bbe 3bef 1ebe
000000e0: 27e5 043d 7bae 803e 7b41 afbe 4495 e5bc
000000f0: 70fe b23e 23b0 25be d70f 59be 615c 243e
00000100: b52d 4a3e 95ef 183d 26fa 4d3e e460 ddbe
00000110: fd0f 27be 96de 83bd 7db4 46be fc55 6dbe
00000120: b58a 88be b971 753d aaa6 74bd b445 303e
00000130: 21e7 20bb 5f55 36be 73f8 5f3e c979 063d
00000140: f662 31be ed36 733d 14c7 fabd 9c53 70be
00000150: 6abf e53c fd9f d93e c6a9 853d b3c1 633e
00000160: be68 6a3d bb2c 89bd bf21 6f3e d6e4 303e
00000170: 03c7 37be c77c 75be ae39 86be 07bd 0a3e
00000180: 8f82 0cbd c594 3a3e 990e f6bd 4c72 a33d
00000190: a984 7a3e fc3e 9fbe e5d7 dbbc b1ea 5dbe
000001a0: 2416 6f3e 4110 433e 0d2c c7bd 8d90 e8bd
000001b0: 881e 953e aa3c 603e 37a9 bb3d 1371 88be
000001c0: 8e77 0c3e 1f34 3abe d91d 073e 327d 22bd
000001d0: 6d55 76be ea81 18bd 7b02 e43d ffc9 0ebe
000001e0: dd36 6cbe 9cc5 1e3e a135 1c3e f5c2 913c
000001f0: 75d8 3fbe c7c9 c2bd 2ac6 863d c3ce 583d
00000200: 3576 dc3d 8f9b 7f3e 5ddd 7f3e c13a 963e
00000210: 85d1 a5be 13a3 6e3d d67e 6ebe 7050 153c
00000220: ea5d 513d 9dc9 9cbe 53de 4fbd 87cb 0ebd
00000230: 16b6 303e 7534 533e 4510 92be 9394 9cbd
00000240: dfaa 8d3e df0b 643e da88 1cbe 8f9a 8ebe
00000250: 7bcc fd3d 5277 913e abb0 7a3d f3ca 9d3e
00000260: 8df1 1fbe d552 32be 1e48 1bbe b610 8abd
00000270: 0b28 64be c6cc bd3e e164 a43d 5af2 45be
00000280: 3f14 a0be f06e 49bd 7515 343e 22a2 1f3d
00000290: c7da 21be ae3c 4bbd 0c80 70bd cca3 7e3d
000002a0: 9e64 263e 2356 2bbd b404 95bd e61e 2e3d
000002b0: 2e05 273d 5714 5d3e 24ba 7e3d 3c6b eabd
000002c0: 2cab 18bd 5185 80be cf3c b2be ef6c a73e
000002d0: e652 5a3e 82e9 0bbe ae22 fe3b 2104 40be
000002e0: b6bc 86bd b8e5 383d cbeb d43d f137 243e
000002f0: 18f0 b0bc 2f01 7ebe eae0 6d3e d2c8 f0bd
00000300: 8d3e 623e 561b 7fbe 5b3e 7ebd 9356 983e
00000310: 603d ef3d a00a 803c c8bc 913e fae8 4b3d
00000320: f58f c6bd 183c f83d 7d8f 2b3e e28a 003e
00000330: 2e60 4cbc bb38 903e 519f b13e 5611 8f3c
00000340: c6bb 24be b76f 17be 7c24 a8be 62b8 903d
00000350: 79ad 533e 38d6 093d 19d2 f03c b116 26be
00000360: 37e0 60be 1048 abbd 5695 45be ccdf 0c3e
00000370: ee28 1a3e c504 9fbe c2b9 8ebd 0ce6 f93d
00000380: 1806 4dbe 2901 c7bd e7a7 f33d 273e a5bd
00000390: 412e 893d 053c 0fbe 33ea d0bd 2cb9 58be
000003a0: b75f f2bd babd 87be 30ff 1b3d 8c3f c4bd
000003b0: 48f6 00be 0240 ebbe be02 9c3d 483f 73bd
000003c0: e802 ff3d 0989 4abe c112 303e f9dc 6dbe
000003d0: 90b0 b2be 3b16 7d3d 154f 99be 3a72 39bd
000003e0: c40a 093d c8a5 a63e dd1b c53d 2451 773e
000003f0: 5c4b efbe 1a46 c5ba 1089 bcbd 1f71 7fbe
0.202074 0.16948041 0.11383869 -0.29699957 0.19153187 -0.33124003 -0.057216235 0.24473824
0.021264028 -0.05474298 -0.022983283 -0.17690057 -0.25486735 0.21154255 0.10162889 0.18565278
0.26749894 -0.2415411 -0.30329582 0.20270906 0.14952959 -0.34502664 0.27555618 0.10453297
0.055316407 -0.10656566 0.22348961 0.18386652 -0.1212314 0.04478455 -0.10244343 -0.15357736
-0.19681273 -0.16313086 -0.3536016 0.10363081 -0.3502622 -0.2076557 -0.23936093 -0.042888977
-0.030325899 -0.29430044 0.17965609 0.01919728 -0.26566577 0.31741953 0.18583576 0.043402232
0.16405956 0.1809513 -0.0754699 0.23305695 -0.081613004 0.31691143 -0.27255514 -0.15520947
0.0324451 0.25133118 -0.34229645 -0.028025277 0.34959745 -0.16180472 -0.21197449 0.16050865
0.19743998 0.03733786 0.20114955 -0.43237984 -0.16314693 -0.06438939 -0.19404788 -0.23177332
-0.26668325 0.059922908 -0.059729256 0.1721409 -0.0024551826 -0.17806004 0.2187212 0.032830987
-0.17322907 0.059378553 -0.122450024 -0.23469394 0.028045375 0.42504874 0.06526522 0.22241859
0.057228796 -0.06697985 0.23352717 0.17274794 -0.1794701 -0.2397338 -0.2621588 0.1354867
-0.034304198 0.18220814 -0.12014503 0.07980785 0.24464668 -0.3110274 -0.026836345 -0.21671559
0.2334829 0.19049169 -0.09725199 -0.11355696 0.29124856 0.21898142 0.091631345 -0.2664877
0.13717481 -0.18183945 0.1319498 -0.039670177 -0.24056025 -0.03723327 0.111332856 -0.13944243
-0.23067804 0.1550507 0.15254833 0.017793158 -0.18734916 -0.09511142 0.065807655 0.05293156
0.10764734 0.24961685 0.24986787 0.293417 -0.32386413 0.05826099 -0.23290572 0.009113416
0.051114954 -0.3062257 -0.050749134 -0.034862068 0.1725696 0.2062548 -0.28528038 -0.07645526
0.27669427 0.22270153 -0.1528658 -0.27852294 0.12392517 0.28411347 0.06120364 0.308189
-0.15619488 -0.1741441 -0.1516423 -0.067414686 -0.222809 0.37070292 0.080270536 -0.19330731
-0.31265447 -0.049178064 0.1758631 0.03897298 -0.15806113 -0.049618416 -0.058715865 0.062167928
0.1624932 -0.041830193 -0.07276288 0.042509936 0.040776424 0.2158979 0.062189236 -0.114462346
-0.037272617 -0.25101712 -0.34812018 0.32700297 0.21320686 -0.13663295 0.007755599 -0.18751575
-0.065789625 0.045140952 0.103965364 0.16036965 -0.02159886 -0.24805139 0.23230329 -0.117570534
0.22094174 -0.24912772 -0.062071186 0.2975355 0.11681628 0.015630066 0.2846434 0.04978273
-0.096954264 0.12120837 0.16753955 0.1255298 -0.012474103 0.28168282 0.3469186 0.017464321
-0.16087255 -0.1478871 -0.32840335 0.07066418 0.20671643 0.03365156 0.029397057 -0.16219594
-0.21960531 -0.08363354 -0.19295248 0.13757247 0.15054676 -0.31058326 -0.06969024 0.12202081
-0.20021856 -0.09717018 0.11897259 -0.08068495 0.06698275 -0.1398774 -0.1020092 -0.21164387
-0.118346624 -0.26511937 0.038085163 -0.09582433 -0.12593949 -0.45947272 0.076177105 -0.05938652
0.12451726 -0.19778837 0.17194654 -0.23228826 -0.34900331 0.06178878 -0.29943147 -0.04527495
0.033457533 0.32548356 0.09624455 0.24152046 -0.46737182 -0.0015050799 -0.0920583 -0.24945496

weight_hh_l0 f4 [40, 10]
00000000: 39d3 c0b9 1638 e23d c1af f93d 1509 793e
00000010: 61bd 8dbe 32b4 a1bd a6c6 013e 9544 9dbe
00000020: 871c 243e c877 50be ce0a 89be 77d4 c23e
00000030: c18f 923e 6b91 743b 20ad 953e 92cd bdbd
00000040: a2da 753e f272 d43d 8d21 b4be 77b0 f63d
00000050: eaea ff3d 3bd2 55be 95cd 6d3e 122d edbe
00000060: 01d2 3fbe eccb bdbd 4b98 743e d403 313a
00000070: 807b 89bd b921 64be ff06 653e 5a91 3ebe
00000080: 5ff1 4b3e bf8d 1f3d 9b72 4bbd c77f 623e
00000090: 7b28 863e 3694 8bbd 44a2 bfbe 3a00 7ebd
000000a0: 5abe 88bd 141f c8bd f1b6 a43e 2ce3 f53d
000000b0: 227f 913e ca03 40be 3121 a53e 6b89 10bd
000000c0: 2380 18bd 27a9 44be 37dc c9bd e487 2f3e
000000d0: c70b a23e ff8d 6ebe 72be 9d3e e25b 82be
000000e0: 9d4b cf3c b87e 903e 7b6e 8ebe 5199 0abe
000000f0: f48f 24be c122 133e ad53 cc3e c2c8 e33e
00000100: 6f30 863e 8a4f e7bd 1183 70bd 5141 103e
00000110: 8ada 043d 9b0d 33be 2595 0ebe dbc2 97bc
00000120: 0d99 9f3e 1b9a 4dbd 7204 09bd 806a 4e3e
00000130: d559 883c 38ef 7a3e cb06 603d bbe3 89be
00000140: e269 9dbd 5ff2 4c3e 0102 ad3d 5834 70be
00000150: 2979 043e 247e 903e f763 3c3e a0f2 86be
00000160: 5bd5 8b3e 33ae 343e fd2c e8bd bc43 0a3e
00000170: dc84 8c3e 3d1a c43d 60a5 823e 30a5 60be
00000180: 8fa6 86bd 7ae4 de3d f6b7 6fbd cb38 7cbe
00000190: 5502 33be c381 703e c185 793c 8659 9c3e
000001a0: 34fe da3c d1c5 b23d b536 61bd 80f1 443e
000001b0: 2edf 79bc 2b68 70be c5f9 e13d 167c be3d
000001c0: a163 94bd 2bbf 0cbe b23c 553e 705f 7a3d
000001d0: 806a f03d b15b 14be b5fb dbbd 171e 3dbe
000001e0: 0bf6 463e 8c37 40be d924 6dbe b766 e4be
000001f0: f8a3 70bc c663 943e 8b73 193e 5f22 de3d
00000200: 6433 84be b5e1 e53d 8254 8cbe 0616 d03d
00000210: e775 723e cb8d a4be 86fe 8a3e 2a95 9e3e
00000220: 896a a9be 69bd 983d 8764 57be c147 1b3e
00000230: 0c08 15be fb91 393e ad72 253e f483 97bd
00000240: 1953 22be 2b9e 723e 84a3 1ebe c05e 7d3e
00000250: 88d5 a4be 2146 a93d 420a 6b3e 614c 30be
00000260: f813 26be b990 7abd f74f 3a3d e652 003e
00000270: c5b1 ac3d c0e2 a03d f290 59be 6167 2dbe
00000280: f675 703e 4fd9 3c3e c290 a03d ec06 493e
00000290: 61bf 9a3e 277d 663d ab2d 53be 8896 4c3e
000002a0: 8557 903e 9b81 5e3e 5a07 e23d a599 0dbe
000002b0: f82c 113e 7347 d73c f023 79bc 4c7b 54bd
000002c0: e380 dabd cd2a c43e 8e46 bc3d 2524 0abd
000002d0: 8ddb 30bc de15 623d 9823 72bd 02c3 c2bd
000002e0: cc7f 573e 4110 69be 6508 65be c8f8 513e
000002f0: ac3b 0d3e 3b57 763e ecd0 58be 3eac 253e
00000300: 29f1 fdbd c27d 093d e470 7c3e e162 a6be
00000310: 12a0 91be 7749 413e f2ea 553d 921e 8dbc
00000320: cb4a c6bc 6308 cebe 1574 66be ab91 0c3e
00000330: f886 f7bd d9ee 6dbe 0da0 b43e 597f 06be
00000340: 3ab1 fcbd e4e2 5fbe b6b0 d9bd 9c13 cc3e
00000350: 4414 393e ef0e 2fbe e048 eabd 5710 7f3e
00000360: 9253 b1be e11b 34be 1071 99bd 342d 043e
00000370: 45b0 123d 844d 813e 44a2 22be 3355 833d
00000380: 5321 ae3e f5ad 853e 97c0 b5bc 92e8 843d
00000390: e4b2 80be bbab 343e 63f9 0ebe 724a 8dbd
000003a0: 831c c93e 3fbe b93e 5043 03be 0c3b 9c3c
000003b0: 71ab 16bd 44b7 4dbd e9be c93c a593 833d
000003c0: e572 8a3e 1d4b a1be ed66 7c3e 9101 d8bd
000003d0: e758 893e da47 4abe bdea 99be ac89 133d
000003e0: efa9 01be e2e0 84bd 0ebc c6bd a714 2bbd
000003f0: fcc4 9ebe b562 d43e 9766 b13d 41a4 883e
-0.00036778467 0.11045854 0.121917255 0.24319871 -0.27683547 -0.07895698 0.12673435 -0.30716386
0.16026507 -0.20358193 -0.26766056 0.38052723 0.286253 0.0037318121 0.29233646 -0.09267725
0.24009183 0.103734866 -0.35181847 0.12045377 0.12495978 -0.20880978 0.23222955 -0.46323448
-0.18732454 -0.09267411 0.2388622 0.00067525846 -0.06713009 -0.22278489 0.2236595 -0.18610135
0.19916295 0.03895354 -0.049669843 0.22119056 0.2620276 -0.06815378 -0.37428486 -0.062011935
-0.06676932 -0.09771553 0.32170823 0.1200622 0.28417307 -0.18751445 0.32251886 -0.035287302
-0.037231576 -0.19205151 -0.09856456 0.17141682 0.3164961 -0.23296355 0.3080936 -0.25460726
0.02530461 0.2822168 -0.27818665 -0.13535048 -0.16070539 0.14368726 0.3990759 0.44489104
0.26208827 -0.11294468 -0.058718745 0.14087416 0.032434978 -0.17485659 -0.13924082 -0.018525532
0.31171456 -0.050195795 -0.033451505 0.20157814 0.016644398 0.24505317 0.05469398 -0.26931557
-0.07686211 0.20014332 0.08447648 -0.23457468 0.12936844 0.28221238 0.18397509 -0.26356983
0.27311215 0.17644577 -0.11336706 0.13502401 0.27445114 0.09575317 0.25516796 -0.21938014
-0.06574737 0.10883422 -0.05852505 -0.2463104 -0.17481358 0.23487 0.015229643 0.3053705
0.026732542 0.08729137 -0.054983813 0.1923275 -0.015250964 -0.23477237 0.11033968 0.09301011
-0.07245565 -0.137448 0.20823935 0.061126173 0.11739063 -0.14488102 -0.10741369 -0.1846851
0.19429795 -0.1877119 -0.23158588 -0.44609615 -0.014687531 0.2898237 0.14985482 0.108463995
-0.25820458 0.11224691 -0.27408224 0.10160451 0.23677789 -0.3213943 0.2714731 0.30973178
-0.33089092 0.07458002 -0.21034442 0.1516409 -0.14553851 0.18122093 0.16157027 -0.07398215
-0.15852012 0.23693149 -0.15492064 0.24743176 -0.3219416 0.08265329 0.22953132 -0.17216636
-0.16218555 -0.061173175 0.045486417 0.12531623 0.08432344 0.07855749 -0.21246698 -0.16933967
0.23482499 0.18442272 0.0784011 0.19631547 0.30224136 0.0562717 -0.2062289 0.19979298
0.28191772 0.21729128 0.110365584 -0.13828142 0.1417731 0.026279187 -0.015206322 -0.051875398
-0.106691144 0.38313904 0.09193145 -0.033725876 -0.0107945325 0.055196635 -0.059115976 -0.09509851
0.21044844 -0.22760107 -0.22366484 0.20505059 0.13792294 0.24056713 -0.21173447 0.16178986
-0.12399513 0.033567198 0.2465244 -0.32497314 -0.28442436 0.18875681 0.052226014 -0.017226491
-0.024205586 -0.40240774 -0.2250522 0.13727443 -0.1208629 -0.23235644 0.3527836 -0.13134517
-0.12338491 -0.21863896 -0.10629408 0.3985871 0.18074137 -0.1709554 -0.11439681 0.24908577
-0.34634072 -0.1758876 -0.07492268 0.12907869 0.035812635 0.25254452 -0.15882212 0.06412735
0.340098 0.2610928 -0.02218656 0.06489672 -0.25136483 0.17643635 -0.13962321 -0.06898965
0.39279565 0.3627796 -0.12818646 0.019071124 -0.036784593 -0.050223604 0.024627166 0.06424645
0.27040783 -0.3150262 0.24648638 -0.10547174 0.2682564 -0.19753972 -0.30061904 0.036019966
-0.12662481 -0.064882055 -0.09703837 -0.041767742 -0.31009662 0.41481557 0.086621456 0.26687816

bias_ih_l0 f4 [40]
00000000: a33a 4e3e b641 a53e 2faf 72be 0f5d b23e
00000010: 0708 9a3e 8aab 3abe 18aa 89bc 0884 ab3e
00000020: 0450 a23e 2cd4 f33c b226 6abe fa6b 3dbd
00000030: 6b02 76be 9cd9 93bb 2384 0fbe da7a 123e
00000040: 38a6 303e ed37 143d 66c9 803e 135e 9f3e
00000050: 7bb5 d23d aada 3e3e ddd2 81be 44f8 9e3e
00000060: 640b d43d 1081 713e 900d 1cbe 5775 4e3e
00000070: 069d 2dbe 2805 0cbe d4e1 853d a89d 43be
00000080: 930c 2a3d dbed 203e 2ddc cb3d df05 a63e
00000090: 0263 fe3e 12bd 763e c3af 80be 1165 983d
0.20139556 0.32276696 -0.2369964 0.34836623 0.3008425 -0.182295 -0.01680474 0.3349917
0.31701672 0.029764257 -0.22866324 -0.046245553 -0.2402436 -0.004512025 -0.1401525 0.14304677
0.17250907 0.036186147 0.25153655 0.3112646 0.10288521 0.18638101 -0.25356188 0.31048787
0.10353735 0.2358439 -0.15239549 0.20161949 -0.16954431 -0.13673842 0.06537214 -0.1910311
0.041515898 0.15715735 0.099541046 0.32426354 0.49684912 0.24095562 -0.25134096 0.07441152

bias_hh_l0 f4 [40]
00000000: 0d1d 093e 93b2 3dbe b4d4 3fbe eae4 94bd
00000010: 27e9 66be 3e91 983e 578c 493e 9ca9 05be
00000020: 6c4e a23e c57d 33be 4529 8f3e 886c db3e
00000030: 3431 87bc 2834 74bc 51b1 7c3e e26a 643c
00000040: 9db9 82bd e922 8c3e 85e4 edbc 5323 bc3e
00000050: b121 973d 1887 503e 61ed 783e b641 dd3d
00000060: 818a 743e 7f66 22be 03e6 0d3e a2af a33e
00000070: b2bf 8bbe 2e4e 7d3e 03f3 d43d c1b5 333e
00000080: 644c e8bd e992 22bd 09b4 163e 580d 6abe
00000090: c74c df3e 76a0 d8bd 7c91 363e 2cd4 00be
0.13389988 -0.18525152 -0.18733484 -0.072702244 -0.22549878 0.2979831 0.19682442 -0.13052982
0.31700456 -0.17528446 0.27961174 0.4285624 -0.016502954 -0.014905013 0.24677016 0.0139414985
-0.06383059 0.27370384 -0.02903963 0.367457 0.07379473 0.20364034 0.24309303 0.10803549
0.2388096 -0.15859412 0.13857274 0.31969935 -0.2729469 0.24736854 0.10397913 0.17549802
-0.11342695 -0.039690886 0.14717115 -0.22856653 0.43613264 -0.105774805 0.17828935 -0.12580937

weight_ih_l0 f4 [40, 22]
00000000: c5f9 543e bbaf 3ebe 05f1 39be 5c63 cf3e
00000010: b890 883c 770b 72bc 8a49 96be 768f 17bd
00000020: cfdb d53d 136a 4cbd 3135 8fbe 49d4 663d
00000030: 47ab 223e 2e0b e4bc 22a2 7dbe c9f3 8d3e
00000040: 113d 9d3e 8586 1fbd f3f5 78be 8590 da3e
00000050: 43bf b13e 6cd6 1fbc 05ab 93be 3274 d6bd
00000060: a10f 91be 05b3 df3d 1227 323c bf22 02bf
00000070: f62c dabc e534 923d b9f6 1ebe e6b8 fbbd
00000080: b59a 473e 8e86 ba3e ea37 a5be 30fa 493e
00000090: 96dd dbbc 082c 3a3e 5679 723d 6d4a d5bd
000000a0: b57f c23d d9b5 c53c 3477 0c3e d39b 953e
000000b0: 0193 a9ba e861 683c 4b2f a0be 7f99 61bc
000000c0: 07fa 8ebd 340d afbc a6f8 b53d 9079 823e
000000d0: 61fa 3cbe 6e85 f93d 4fd6 983e 044d 6bbd
000000e0: 7ee6 3cbe 8e3b 8b3e 1ac0 cbbe e142 8a3e
000000f0: 147e 8ebd e5f5 5dbd 3b30 033e ea85 6f3e
00000100: 5570 3b3e 50ea 673d cfcd dabd 2c67 6d3d
00000110: cf3c b1bd ea9a 83be aac8 83bd dbcb 753e
00000120: 9f1f 09be fa9c 113e 5e08 663b 5518 823e
00000130: 48cb 903d 0df7 7e3e 569a 7c3d ce45 b13d
00000140: d7fd bbbd 87df 8f3d 745a 983e e0f9 8abe
00000150: e29f b5be 6cf6 ae3c cb55 913e 57e0 423e
00000160: f04a 73be ac38 09be 696c c63d 2edc 563c
00000170: a923 84bc 36b3 88be 78f8 b33c c8b8 573d
00000180: 515d 253e a5a1 d0bd 4a01 96be af98 ca3d
00000190: 1928 be3e 4f72 a83d 8fcc db3c 58d8 83bd
000001a0: 8efa 7cbe 5ecb 943d 26da 98be bf79 2c3e
000001b0: dbd8 993d cd10 473e 56ba a5bc c2f8 82be
000001c0: fee3 693e f891 64bd 6274 8bbd 46e0 f2bd
000001d0: 3e49 06be 80df bdbd f87a 5c3d 33ca 7bbe
000001e0: a1ca a13e 2602 3fbe d440 cd3b 2e01 7dbe
000001f0: 8402 fd3d 71a5 153b c98b 833e c876 133e
00000200: 04c7 30bd 7ae3 87be 4d66 afbd 4019 003d
00000210: 5ae7 7cbe db9f 063e bf3b 22be 3501 cb3d
00000220: f05e 72be d3b4 75bb 0abe 353e 57c9 4fbd
00000230: a883 10be ab2e 32be 04a4 d73d 9931 ab3e
00000240: 287a 303e 0c84 863e 6f69 bdbe 6239 fa3d
00000250: 372b 8d3e 95e3 15bd da52 0abe d97a a7bd
00000260: 2d16 06be c21f 30bd a972 613e 98d7 b7be
00000270: 29c3 9a3d 13ca fcbd f3ca a0be fd36 52bd
00000280: f17d c2be ca33 8d3e df07 05be 0277 6abe
00000290: b8d4 623e e594 473c 8e48 563d f6c7 4d3e
000002a0: 0553 91bd 83ac 433e a6a6 95be 62e6 33be
000002b0: 4416 c5bd 77ed e1bd fca2 023e 731f c73e
000002c0: dd1c 42bd 6ce6 843e 95ab 31be 795a 5abe
000002d0: 7cea 943e 2ffd 2dbc bc10 a83d cf83 dabd
000002e0: 2630 6d3d 1690 253e 4317 91be 65e9 91be
000002f0: aff6 c3be cd26 c2bd f48b 07be 3863 56be
00000300: e498 cc3d b91e ed3d fc05 18be 3261 8fbe
00000310: f03f 1a3e 3cb2 7f3e 1d03 e2bd 5916 5fbe
00000320: 0f11 68bd 5bd2 20bd 70c0 fa3d 7106 033c
00000330: 1022 b9be ef09 c2bd 0417 9ebd b70a 14be
00000340: d8b4 aabe 799f ad3c e48c 93be 0c67 c63d
00000350: 632e a2be 37b6 3bbe e055 6cbe 69ed 4f3d
00000360: cc93 d4be 04dc b23e 4cc6 2fbe 79dd 62bc
00000370: e471 e8bd 999a 87be 0145 21bd 9385 953d
00000380: 4ef5 703e f34c 473d 58fa 4d3d 48c9 74bd
00000390: 16b7 f63d 5c59 ccbe 9640 8bbe 5c95 4b3c
000003a0: 216b f13c 4fa0 4abe ba70 22bd eded 9d3e
000003b0: 9b33 de3d fd35 f3bd 3c3e eabd ce03 073e
000003c0: c0ac dcbd 2ae7 1abc b8f8 983e b7ab c13d
000003d0: 7bb0 68be 06f0 2f3e 78f6 473e 76d2 6fbe
000003e0: fdd2 a5bc cd62 593e 3289 12be a470 02be
000003f0: 4381 623e 1ecc dd3e 031e d3bd a748 86be
0.20798405 -0.18621723 -0.18158348 0.40505493 0.01667057 -0.014773241 -0.2935298 -0.03700205
0.10442316 -0.049905848 -0.2797027 0.056354795 0.1588565 -0.027837362 -0.2476888 0.27725056
0.30710652 -0.038946647 -0.24312572 0.42688385 0.34716234 -0.009755712 -0.28841415 -0.10471381
-0.28332236 0.10922817 0.010873573 -0.5083427 -0.026632767 0.07138995 -0.15523805 -0.12291126
0.1949261 0.36430782 -0.32269222 0.19724345 -0.026839059 0.18180859 0.059197746 -0.10414586
0.094970144 0.024134563 0.13717347 0.29220447 -0.0012937487 0.014183499 -0.31286082 -0.0137695065
-0.06981283 -0.0213686 0.088853166 0.2548337 -0.18454887 0.12183653 0.29851004 -0.057446495
-0.18447301 0.27193874 -0.39795 0.2700415 -0.06957641 -0.05418958 0.12811367 0.23390928
0.1830457 0.056619942 -0.10683786 0.05795972 -0.086541764 -0.25704128 -0.06434758 0.24003546
-0.13390969 0.14220038 0.0035100202 0.2540919 0.07070023 0.2489893 0.061670624 0.08655892
-0.091792755 0.07025056 0.2975651 -0.27143764 -0.35473543 0.021357737 0.28385767 0.19030891
-0.23759055 -0.13400525 0.09688646 0.013114018 -0.016130285 -0.26699227 0.021969065 0.052666456
0.16148879 -0.10187081 -0.29297858 0.09892403 0.37139967 0.08224928 0.02683094 -0.06437749
-0.24704954 0.07265352 -0.29853934 0.16843317 0.07512065 0.19440003 -0.020230453 -0.25580412
0.22840878 -0.05580327 -0.06809308 -0.11859183 -0.13113877 -0.09271145 0.05382821 -0.24588852
0.31599906 -0.18653163 0.0062638316 -0.24707481 0.123539954 0.0022834206 0.25692585 0.1440078
-0.043158546 -0.26540738 -0.08564434 0.03127408 -0.24697629 0.13146918 -0.15843104 0.099123396
-0.23669028 -0.0037491813 0.17748275 -0.050729122 -0.14112723 -0.17400615 0.105293304 0.33436278
0.17234099 0.2627262 -0.36994502 0.12217976 0.27572033 -0.036593992 -0.13508168 -0.08177728
-0.13094397 -0.042999037 0.22016396 -0.35906672 0.07556755 -0.1234323 -0.31404838 -0.051321972
-0.3798671 0.27578574 -0.12991284 -0.2289696 0.22151458 0.012181495 0.052315287 0.2009581
-0.07095913 0.19108777 -0.29228705 -0.17568353 -0.096233875 -0.11031621 0.12757486 0.3889118
-0.047390807 0.25957048 -0.1735061 -0.21323575 0.29085147 -0.010619446 0.08206317 -0.10669672
0.057907246 0.16168246 -0.2833806 -0.28498378 -0.38274142 -0.09480057 -0.13236982 -0.20936286
0.09990099 0.115781255 -0.14846033 -0.28003842 0.15063453 0.24970335 -0.1103575 -0.21785869
-0.056656893 -0.03926311 0.12243736 0.007997141 -0.361588 -0.09474551 -0.07719234 -0.14457212
-0.33341098 0.021194207 -0.2881843 0.096876234 -0.31676015 -0.18331228 -0.23079634 0.05076352
-0.4151901 0.34933484 -0.17165488 -0.0138467485 -0.11349848 -0.26485136 -0.039372448 0.07300868
0.23531076 0.04865737 0.050287575 -0.05976227 0.120466396 -0.39911926 -0.27197713 0.012425747
0.029470028 -0.19787715 -0.039658286 0.30845585 0.10849687 -0.11875532 -0.114376515 0.13185045
-0.10775137 -0.009454528 0.29877257 0.0945658 -0.22723572 0.17181405 0.19527614 -0.23420128
-0.020242209 0.21229096 -0.14310148 -0.12738281 0.22119622 0.43319792 -0.10308459 -0.26227304
