LSTM/code/model/old_model/model_mk7_250epoch_0.0022trainloss_0.0010validloss.pt (torch, 46468 bytes, 32 tensors)

weight_ih_l0 f4 [40, 22]
00000000: dba0 33bd c1fc 153e 9a22 ac3e a319 9bbe
00000010: 9a51 76be 6383 64bd e416 ab3e e6de 6fbe
00000020: 3703 babe faea 82be dc16 ce3d 7f5f e33d
00000030: aca8 d53c cc39 6abe 10b3 fcbc fb46 50be
00000040: 4d4c fb3d 1c61 6c3e 11f9 aa3d 4dc0 943d
00000050: 0445 b33e 1ac0 c3be b199 a2b8 cc11 82be
00000060: 49af 41be a2de 6c3e c165 663e ee87 a43d
00000070: bbdc ccbe d692 41be dbc1 1ebe 2b69 5a3e
00000080: 294a 0ebe bf00 45bd a55a 3bbe 01fb 093e
00000090: 7f90 f63d 8745 58bd 7a9a 2bbe 2d21 b8bd
000000a0: 6f9b 17be b0fc 6cbe 132e 423e 09bd 8f3e
000000b0: 5bd9 753b 25a3 8dbe d05b 59be b4a3 4b3e
000000c0: df92 ff3d 9580 99be 3994 a1be 34b5 af3b
000000d0: 2816 90bc 4433 653e 250e 7bbe ee1c bebd
000000e0: f51c ae3e 13ff 023e 8cb2 8fbe e4af 5b3d
000000f0: 025b f73e 8118 a1bd e1c9 c1be 2b1a 45be
00000100: efed bebd 55dd ae3e effe 45bd cef4 96be
00000110: 8c78 6c3e 8dc8 2f3e dabd aabd fa02 77be
00000120: dd90 0b3d bd7f 9dbc 85d0 713d 0833 2cbe
00000130: d0e3 00be 8cef a83e c71a 55bd 4df3 713e
00000140: b6c8 8b3e 4607 583e 9e98 893d 5295 06be
00000150: 8ee2 7fbd 4e6b 1c3c 6d76 bcbd f7c8 353e
00000160: 93ae 1c3e b9e2 9bbe a065 9abe 0c81 8e3e
00000170: f928 2c3e e5fe 49be 060b 6bbd b379 7ebe
00000180: bb8d 1ebe 7f99 5bbd 264f 003e d410 a3bd
00000190: 86dc d13d c900 bfbe 15e7 213e 4eef bcbd
000001a0: 3a6f 8dbd 6bdd bcbe 87a6 8abe 0147 413e
000001b0: fd29 8d39 c79d f4bd 2e0a 40be 2ffa 30be
000001c0: 8e06 2a3e 07da 463e 5c8a efbd 1f23 9bbe
000001d0: 7446 d8bc 4b5a 553e 92ea 1bbd 7aac 76be
000001e0: 5107 7c3e 5021 0abe 86e4 a3be d09b 0fbe
000001f0: 1516 d53d 2a10 3c3d 9989 8ebe 2c39 84be
00000200: 7b02 32be f1af 2bbe c861 8f3e 2d6e 3ebe
00000210: b62f 19be f19d 31be 074a 15bd 4996 ac3d
00000220: 3c85 763e 6262 2fbe 09ce 193e a777 59be
00000230: 67d2 4a3c ce49 853e 42b9 64be bf22 243e
00000240: be85 aa3e 0604 38bd 218e df3d dfe0 7abe
00000250: 5736 633d ec15 debd cfce c0bd 9de5 2f3e
00000260: 0738 1bbc 8901 283e b98a 263e 94d7 063e
00000270: c5a8 d03e c97d 353e 3760 44be dbee 89be
00000280: 8183 cb3e 565c 3c3b 23a9 88be 6996 b33c
00000290: a885 5abe d601 08be f525 54be ea27 df3d
000002a0: 8a98 9e3d a933 95bd f62a 81be 9b8c 543e
000002b0: 3996 ebbc 720e 68bd f170 c2bd faa1 78be
000002c0: 4383 93be bc97 3e3e c356 8bbe 7911 413e
000002d0: 58fc 0b3e 7f65 fabd 380c a6bb d0d5 4bbe
000002e0: 91fe 2fbe 1b3d 95be 1504 9bbe dc97 f2bd
000002f0: ccc2 1b3e b154 6abe 9cc5 b7be b72f d7bd
00000300: ecf4 b7be bd6c cbbe a21d 163e b852 c2bd
00000310: ee32 863e 32f0 0e3e 8822 9dbe 1c21 e0bd
00000320: 11e2 933e 4288 b1bd e810 0ebe f286 5c3e
00000330: e220 bcbd 9ca3 79be 0f22 86be c5e4 b63d
00000340: f1f9 353e 4b1c f83d b18f e83d 2fb6 19be
00000350: 9136 6a3e ca20 273e ccdf 8fbe 08aa c0bc
00000360: f8a1 90be 6074 d73d fa31 9a3e 4ddc 513e
00000370: 4529 7e3a cbcf 003e a013 7d3e 43f1 76be
00000380: 074e 28be 8297 93be d5a7 e3bc 3e48 963e
00000390: cfbd 4abe 530d 78be 71b2 043d d4f1 89be
000003a0: da2b cdbe c747 7dbe 84eb 233e 3eb2 4b3e
000003b0: 9ce7 ee3d e9bd a8be acf4 dc3d 0bb6 25be
000003c0: 16b5 7c3e a3f9 453d bb5c 78be a479 3c3e
000003d0: df2a 83be 4590 67be be3c bdba faa9 43be
000003e0: 7113 863d 7ce4 6f3e ac15 2f3e 3263 bbb9
000003f0: 6c63 c8be 2168 803e 480e 903e a67c 94bd
-0.043854576 0.14647199 0.3362015 -0.30292997 -0.24054566 -0.055789363 0.33415902 -0.23424873
-0.36330578 -0.25569898 0.10062954 0.11102199 0.026081406 -0.2287361 -0.030847102 -0.20339577
0.122704126 0.2308392 0.08348287 0.07263241 0.35013592 -0.382325 -7.753389e-05 -0.25404203
-0.18914522 0.23131803 0.22499754 0.08033739 -0.40012154 -0.1890367 -0.15503637 0.21329181
-0.13895477 -0.048096415 -0.18296297 0.13474657 0.12039279 -0.05280068 -0.16758147 -0.08990703
-0.14805387 -0.23143268 0.18962888 0.2807391 0.0037513587 -0.27663532 -0.2122643 0.19886667
0.12479185 -0.29980913 -0.31558397 0.0053621773 -0.01758869 0.22382838 -0.24517114 -0.09282862
0.34006467 0.12792616 -0.28065908 0.05363454 0.4831162 -0.07866002 -0.37849334 -0.19248264
-0.09322726 0.34153238 -0.048338827 -0.29483646 0.2309286 0.17166348 -0.083369926 -0.24122229
0.0340737 -0.01922595 0.05903675 -0.16816342 -0.12586904 0.3299526 -0.05202749 0.23627968
0.27301568 0.21096525 0.067185625 -0.13142899 -0.06247192 0.009547068 -0.092022754 0.17752443
0.1530097 -0.30446413 -0.3015566 0.2783283 0.16812505 -0.19726141 -0.05738356 -0.24851112
-0.15483753 -0.053613182 0.12530193 -0.07962194 0.1024714 -0.37305287 0.15810807 -0.09225331
-0.069059804 -0.36887679 -0.27080175 0.18874742 0.000269249 -0.11944156 -0.18753883 -0.17282937
0.16604063 0.19419108 -0.11696312 -0.30300233 -0.026400782 0.20835225 -0.0380655 -0.24089232
0.24612166 -0.1348927 -0.32010287 -0.14024282 0.104046024 0.045913853 -0.27839354 -0.2582487
-0.17383759 -0.16766335 0.2800429 -0.18596716 -0.14959607 -0.17345406 -0.03644755 0.08427102
0.24074262 -0.17127374 0.15020002 -0.2123705 0.012379265 0.2603287 -0.22336295 0.1602888
0.33305162 -0.044925712 0.10915781 -0.24499844 0.055471744 -0.10844025 -0.094144456 0.17177434
-0.009473807 0.16406836 0.16263856 0.13168174 0.4075376 0.17723764 -0.19177328 -0.26940045
0.39748767 0.002874156 -0.2669154 0.021922307 -0.21340048 -0.1328195 -0.20717604 0.10896285
0.07743938 -0.07285244 -0.2522809 0.20756762 -0.028758155 -0.0566544 -0.09494198 -0.24280539
-0.28811082 0.1861257 -0.2721463 0.18854322 0.1367048 -0.1222639 -0.0050673746 -0.19905782
-0.17186953 -0.29148182 -0.30276552 -0.11845371 0.15211028 -0.2288387 -0.3589295 -0.10507148
-0.35929048 -0.39731398 0.14659742 -0.094884336 0.2621073 0.13958815 -0.30690408 -0.10943815
0.28883412 -0.08668567 -0.13873637 0.21535853 -0.091859594 -0.24378818 -0.2619786 0.08930353
0.17771126 0.121147715 0.11355532 -0.15010904 0.22872378 0.16321102 -0.2810043 -0.023518577
-0.28248572 0.10520244 0.30116254 0.20494194 0.00096954807 0.12579267 0.24714518 -0.24115472
-0.16436015 -0.2882653 -0.02778999 0.2935199 -0.19798969 -0.24223833 0.032396737 -0.26942313
-0.4007252 -0.24734412 0.16007811 0.19892213 0.1166527 -0.3295739 0.10788855 -0.16182725
0.24678454 0.048333775 -0.24254124 0.18405777 -0.25618646 -0.22613628 -0.0014437658 -0.1910781
0.06546677 0.23427004 0.17098111 -0.00035741326 -0.39138353 0.25079444 0.28135896 -0.07250337

weight_hh_l0 f4 [40, 10]
00000000: 71ff 2b3e 5626 27be 16ac dbbc 66cd 363d
00000010: 6cc9 0a3e b3b6 853e 42b3 11be 6490 133d
00000020: 0c92 b9be 7479 aebd 1ffc 7d3e 8e2f 0abc
00000030: 19bf dd3d 4822 adbe 0af5 a53d 32ce 27be
00000040: 14f8 45be cb1e 35be c36c 3d3e a6ad 8d3d
00000050: 8f96 6bbd 2e72 ad3e 5e7d a43d bee1 1dbe
00000060: 6f71 6e3d e627 36bd 73a2 5bbd d2c6 81be
00000070: 7a20 623d 5a20 80bd 654c 49be ed2d 513e
00000080: 1fda 673c 7683 77be e30b 2dbd 7cc4 78be
00000090: c546 863e 3eb6 4d3e 7bc4 c1be fead 06bd
000000a0: 0632 64bb 44fc 7e3e 7d19 d33e 70eb 6dbe
000000b0: b963 9d3c c072 a4bd ed07 ac3e 644e ab3e
000000c0: 64fb 00be e1fb 673e 8bf3 81bd 7ce5 c2bd
000000d0: be87 123d c224 853e 6853 c1bd 53bb f4bd
000000e0: 88f2 8a3e ff3b afbd 08d9 aabd f2c9 59be
000000f0: d84a babd ebae b13e 5085 ed3d 47c7 2a3e
00000100: f410 fcbc 082d fa3b cf43 a53d d5b6 b73d
00000110: a0cc 523d 5046 ffbd 7a68 91bd 99a2 f83d
00000120: f39b 92be f695 83bc e215 90bc 22df 433e
00000130: 3892 073e dd3e dcbd 698a 95be fd28 99be
00000140: b59c c4be 78a2 e53d ad2c d8bd d515 d8be
00000150: 2401 be3e 3146 d9be 0743 ca3e c4d6 013f
00000160: 73b7 bd3e 3d2a 1dbe dd71 89be c8b1 acbd
00000170: 3088 af3e 5477 1c3e 567e a43e 60f0 3e3a
00000180: c228 8c3e 91c4 9b3e b9a2 433e b007 ebbd
00000190: 95bc 5a3e 2ad1 e53d ad80 33be 4d18 15bd
000001a0: cef1 c2bd 0297 a53c ae87 643b 9350 c2bd
000001b0: ddfb f2be 78d3 553c beda ccbc e72c 683e
000001c0: 7211 b4bc 98fe 23be 1d46 ec3b 796f a6be
000001d0: 00ab 783d 36fc 8fbd 7d47 453e cd36 9c3e
000001e0: 51a0 88be a118 963e eeec 7dbd 857b 26bc
000001f0: c46a 963e 2da7 9dbe ae9e e0bd ef7f 3bbc
00000200: 5e76 bdbd 20af 1cbd 173c 573d bc22 913e
00000210: 11a8 893d 0729 433e bea7 653e 480b 823e
00000220: 2676 a83e 0378 75be 3ce5 d8be fe97 d63d
00000230: d97b 6a3d 16e5 64be 4083 af3e 1cd7 65be
00000240: 961a 793e b3d2 82be d289 4bbc d67e 18bc
00000250: e690 81be 1039 313e d422 92be dd59 51be
00000260: c1ed 0bbe 4209 833e aa29 18bd 01c7 833e
00000270: 1367 8bbe 1e0f bc3d 2962 9a3e 7a10 643e
00000280: b773 1abe d778 9f3e c55f 693e 49d3 46be
00000290: 3abd 6c3e d5b2 90be 82c1 3abe 2a6f 9dbd
000002a0: 769d 373e 6e04 76be 3a21 a23e da23 94be
000002b0: b7d2 91be 1d85 2a3d 94b9 28be d018 2e3e
000002c0: d3fc 8a3e f2e9 a53d 7fc2 c33e a765 87bd
000002d0: 33f4 b2bb 86b8 aebe 1557 c73e d5be adbe
000002e0: 8206 7b3e 5e02 a1be fff3 b73c fb1e 2d3e
000002f0: 51a4 30be 0ed5 913e 99b0 db3d 04a8 a63d
00000300: e0d1 f53b 5901 633e 0d09 313c 86e1 ab3d
00000310: ea95 27bd 662d abbd 6179 60be 8eb0 80be
00000320: caab 543e ac1e 6c3e 3abf 7ebe b7ee 803e
00000330: 05b0 683e e4f6 93bd 354f a73e 49aa 5ebe
00000340: 40a4 a13e 448a 77be c1ac 823e af12 ee3d
00000350: 82ff 8c3e 36f5 183b 3449 9ebe cc1a a03e
00000360: 4895 9abe d447 433e 7a8e 26be b9aa 543d
00000370: d4bd 14be eac6 51be fdb4 633c f82f 7c3e
00000380: 9069 343e 2cb0 c43d 388b 1ebe dafa b3be
00000390: 4d70 02be ec9b 73be ad11 623d d870 b53d
000003a0: cdfd 0d3e 2386 2bbe 41e1 31be 05de b8bd
000003b0: 4521 403c 5f53 fcbd a859 cbbd 6fce 6bbe
000003c0: 8b55 85be 7005 e23d ffb5 bd3d c02e ce3d
000003d0: 8728 983e 1695 b4be d817 1c3c 17f0 01be
000003e0: ea42 5e3e ab96 823e 8de0 683e 3362 863e
000003f0: 0862 23be 1ee1 3bbe 99f9 f83d ff04 8f3d
0.16796662 -0.16323218 -0.026815455 0.044629477 0.13553399 0.2611595 -0.14228538 0.036026374
-0.36244237 -0.08519259 0.24803208 -0.0084341895 0.108274646 -0.33815217 0.08103378 -0.16387251
-0.19332916 -0.17687528 0.1849852 0.069178864 -0.05751663 0.33876175 0.080317244 -0.15418145
0.058213647 -0.044471644 -0.05362172 -0.25347 0.055206753 -0.062561706 -0.19658048 0.20427676
0.014151125 -0.24171242 -0.042247664 -0.24293703 0.26225868 0.20089051 -0.37845215 -0.032880776
-0.0034819855 0.24900919 0.41230384 -0.23234344 0.01921259 -0.08029699 0.33599797 0.33458245
-0.12595898 0.22654678 -0.0634528 -0.09516427 0.035773985 0.26004606 -0.094397366 -0.11949792
0.27138162 -0.08556365 -0.08342177 -0.21268442 -0.090963066 0.34703764 0.11597693 0.16677581
-0.030769803 0.0076347627 0.08069574 0.08970419 0.051464677 -0.12464583 -0.071000054 0.12140388
-0.28634605 -0.016062718 -0.01758856 0.19128087 0.13239372 -0.10754178 -0.2920716 -0.29914084
-0.38400808 0.11212629 -0.10555396 -0.42204157 0.37110245 -0.42436364 0.39504263 0.5071833
0.37054023 -0.15348144 -0.26844683 -0.084323466 0.3428359 0.15279895 0.32127637 0.00072837435
0.27374846 0.30423406 0.19105043 -0.11476076 0.21361001 0.112215355 -0.17529555 -0.03640013
-0.09518777 0.020213608 0.003487091 -0.094880246 -0.4745778 0.013050906 -0.025006648 0.22673379
-0.021980975 -0.16015089 0.0072105066 -0.32506922 0.060709953 -0.07030527 0.19265552 0.3051056
-0.26684812 0.29315665 -0.061993532 -0.010161285 0.2937833 -0.30791607 -0.10967766 -0.011444076
-0.092510924 -0.03825295 0.05254754 0.28346813 0.06721509 0.1905862 0.2242727 0.25399232
0.3290264 -0.23971562 -0.42362392 0.10478209 0.057247017 -0.22353014 0.34279823 -0.22445339
0.24326548 -0.25551376 -0.012422996 -0.009307584 -0.2530586 0.17306924 -0.28542197 -0.20444436
-0.13664915 0.25593 -0.03714911 0.25737765 -0.27227077 0.09182571 0.30153015 0.2227191
-0.15083204 0.3114688 0.2279044 -0.19416536 0.23119059 -0.28261438 -0.1823788 -0.076872185
0.1793116 -0.24025127 0.31665975 -0.28933603 -0.28481075 0.041630853 -0.16477042 0.17001653
0.27146015 0.08101262 0.38234326 -0.066111855 -0.0054612397 -0.34125155 0.38933626 -0.33934656
0.24514201 -0.3144712 0.022455214 0.1690635 -0.17250182 0.2848286 0.10727043 0.08137515
0.0075018257 0.22168483 0.0108053805 0.083926246 -0.040914454 -0.083582684 -0.21921302 -0.251347
0.20768657 0.23058575 -0.24877635 0.25182125 0.22723396 -0.07224825 0.32677618 -0.21744646
0.31570625 -0.24173838 0.25522426 0.11624657 0.27538687 0.0023339516 -0.30915225 0.31270444
-0.30192018 0.19070369 -0.16265288 0.051920626 -0.14525539 -0.20486036 0.013898131 0.24627674
0.17618394 0.096039146 -0.15482795 -0.35152322 -0.12738152 -0.23789948 0.05519264 0.08859414
0.13866349 -0.16750388 -0.17371084 -0.09026722 0.011726682 -0.12320589 -0.0992921 -0.23027967
-0.26041827 0.11036193 0.092632286 0.100675106 0.2971842 -0.35269994 0.009527169 -0.12689243
0.21705213 0.25505576 0.2274191 0.26246795 -0.15955365 -0.18347594 0.12156982 0.06983375

bias_ih_l0 f4 [40]
00000000: 60d6 6b3e 6956 073e f80c 973e b6c6 81bd
00000010: 2f39 e3bd 686b 86bd 97e4 0a3e 99c0 87bd
00000020: 410a 363e 353e 2ebd 0ab6 45bd 9ff5 463e
00000030: 7ba4 5ebe b13c 9f3e ddee 86bd cf75 183e
00000040: be8a a9bd e3bf 5c3b ce30 48be 38b3 24be
00000050: 4b8b 573d 5017 31bd 7784 db3c 568c 26be
00000060: e258 69be ad06 eebd 7c00 113d 8fdd 88bd
00000070: a8e5 8c3e fa62 2fbe f863 4ebe 238e 843e
00000080: e5ec bb3d 0950 c9bd db69 05be 5d7c 733d
00000090: 6eb9 01be 6e78 943d a082 adbd fc43 07be
0.23030996 0.13216557 0.29502082 -0.06336729 -0.11094891 -0.06563455 0.13563763 -0.06628532
0.17777349 -0.042539794 -0.04826931 0.19429635 -0.21742432 0.3110099 -0.06588528 0.1488869
-0.08278416 0.003368371 -0.19549868 -0.16083992 0.052623075 -0.043235123 0.026796563 -0.16264471
-0.22787812 -0.11622367 0.035400853 -0.06682884 0.27518964 -0.171276 -0.20155323 0.25889692
0.091760434 -0.098297186 -0.13028662 0.059444774 -0.12668392 0.07249533 -0.0847218 -0.13209528

bias_hh_l0 f4 [40]
00000000: 72d9 cd3d aaa9 91bd 0a89 733e 83a2 a23e
00000010: f584 0fbe b99a 62be 02c9 7e3e bfc2 a53d
00000020: 814b 443e 7855 9d3e 2c55 76be 43d8 1ebe
00000030: 9e6a bf3d ea2e ab3e 7b07 a83e a6e9 a43d
00000040: 95db d13c b10f 65bd 6a17 cbbd f144 b23e
00000050: 1b6d 713e 4104 873e 2da2 693e 113e 54be
00000060: 9e47 963e 4c36 99be a8a2 c53e 89c4 71be
00000070: 69ae 853e 874e 6e3d 8c3e 863d a495 163e
00000080: ab4a 9b3e f820 763e 5918 68be 238f c03d
00000090: b653 6c3d 21fe 413d c39c 813c 05f4 613d
0.1005124 -0.07112439 0.23782745 0.31764612 -0.14015563 -0.22129335 0.24881366 0.080937855
0.19169427 0.3072927 -0.24055928 -0.15512185 0.093465075 0.3343423 0.32818207 0.080523774
0.0256174 -0.055923168 -0.09916575 0.34818223 0.23576777 0.26370433 0.22815771 -0.20726801
0.29351515 -0.29924238 0.3860066 -0.23610128 0.26109627 0.05818036 0.065548986 0.14705521
0.30330405 0.24036014 -0.22665538 0.09402301 0.05769702 0.047361497 0.01582182 0.055164356

weight_ih_l0 f4 [40, 22]
00000000: 31d3 9c3e dbc5 8d3e b5a1 76be 23fb a0bd
00000010: 07af 6abe 9cd9 c5bd c0de fabd a056 0d3e
00000020: 8f6c 8bbe 1d37 6ebd fcf6 acbe 8a47 53be
00000030: b41a 53be 4925 8ebe c202 abbe 963d 943c
00000040: ad23 1fbe 66e5 d13d 8cd6 743e ac23 54be
00000050: d12e 8cbd ae9c 91bd 70ed df3d 799a 8cbd
00000060: d056 acbe 38eb 423e 8f42 22be 2a33 22be
00000070: b6ca adbe 8351 123e 028e 033e d964 b23e
00000080: 05b6 863e d3a2 c73d 0242 55bc a178 7a3b
00000090: 03b6 d1bc bf68 9e3e 9cf2 64be 4fa7 1ebd
000000a0: 923f 49be 9e6c ac3e 8a08 bbbb dd87 0ebd
000000b0: 5ce7 853d b6fd 34bd 0b58 29be a8b2 aebd
000000c0: 0615 3c3e fced 3fbe d4f3 563e 87d5 6b3c
000000d0: ef63 363d c4ef adbe 20fd f2bc ca94 643e
000000e0: cec3 2bbe de6c 6abe e1bb b4be 49cb a73e
000000f0: 8b6a b33d b1ad 91be bbe5 febd 399b 183d
00000100: e779 883e b55b dcbc 0bfe 68bd ed6e a5be
00000110: f8ea d33d a90f 8b3e 3517 833e 2699 98bd
00000120: 7678 62be c382 243e 0394 8e3d bafd 05be
00000130: 45a0 c23d 9b84 4a3e 1b96 0f3e 5cea f83d
00000140: 6b70 823e 71d0 b83e 3ed0 9c3e 451a 8f3e
00000150: ce9e 7e3e 5b8c 903e 1fd7 3d3c 8944 80bd
00000160: c3f7 54be 3f1c e5bc e2e7 40be 4a9e 97bd
00000170: fb74 123d f6b2 bc3d f39b 3bbd c171 3fbe
00000180: f955 da3a 2c6e 3d3d c02f 8b3d da36 663e
00000190: e857 92be e0e3 d5bc 9e75 8a3e bf69 13bd
000001a0: dfaa cb3e a333 8bbe fbb6 0f3e 0780 12bd
000001b0: 5c70 1dbe 5a5c 19bd 573d 6fbe 3573 9d3e
000001c0: 619f bbbc d54a 2d3e f0e3 0ebe 3a81 183e
000001d0: 1654 6ebe 63d2 67be 7a58 763d 8aca 953e
000001e0: f314 18be d6be 093c 7f5a 9fbd 4eb2 06bd
000001f0: 89f2 5b3e c5a6 33be a1d6 3cbb 55a3 3c3e
00000200: 923e 8abd 6092 b83e 8ec0 c0be ed33 873e
00000210: 28af b43e 68c8 213e ccba 783e ad5c 2d3e
00000220: 2f8f 713e 42de b23c 5a81 ff3b abf1 5d3e
00000230: f8ba d73e eeb8 9cbe 4bf2 cc3d 0342 133d
00000240: 309f 03bb 2edf b93d 92cc 8ebe 41b8 96be
00000250: 01d1 ffbd 9cfd 713e b0cb 563e 51a5 003e
00000260: 4006 c63d 7cba 5dbe 75cb 93bd e4b5 36be
00000270: 54d4 583c 3cd2 61be 1537 933e 2e21 363e
00000280: 5009 71be 458d 53be ccac 4fbe 7f6c 5e3d
00000290: 2d49 a5be 8936 acbd 53af abbe f321 9dbe
000002a0: d61e adbe fdbd 65be 5a7f abbd 3e48 debd
000002b0: a288 22be b3d3 1b3e c084 8d3e 9625 f0bc
000002c0: 8cad b03e bc94 49be 19f3 d63c 23a2 103e
000002d0: 5000 983d de86 89bb 6be3 e3be 9c11 1e3e
000002e0: ad4f 13be 80cb 34be 0e22 1ebe f0cd 553e
000002f0: 3a8c 9bbd 89e0 a83d f666 99be 0541 9e3e
00000300: 5b27 533e 30ac 8f3d fbb2 193e eedb 893e
00000310: de3a ca3e f690 9d3e f567 dd3c f6a0 e43d
00000320: 8dff dfbd 41d3 993e 1d2c 36be c54a 833e
00000330: 6264 17bd e173 5a3e fee8 7e3e c445 c3bc
00000340: 6bb8 95be 279b 633d f310 4f3e 5849 9abe
00000350: 9d2d 1e3d 4201 35bd bf87 aebe 6b37 53be
00000360: ccda 03be e187 073e bc7b 803e f909 1cbe
00000370: 36be d6bd 0e8c 57bd c203 823e 5f43 aabe
00000380: ff42 31be 4bb8 513d 5719 0ebe d3b9 74be
00000390: da19 123d c3a0 25bc dc84 f2bc e318 7f3e
000003a0: 92b2 ab3e 9827 923e fcbc b9bd 8de5 463e
000003b0: 7b1f 673e ac91 8c3e 878c e9bd 6bb7 4c3d
000003c0: 665a bcbd 7bb2 35bd 1590 abbe 6c94 ae3e
000003d0: 836b bbbe 83ba c93c c962 1dbc c643 493e
000003e0: 7282 6d3d 9542 353b 6415 75be 32a9 9a3b
000003f0: 51e1 cabe 1d2c 473e a4e1 db3d 5572 b03e
0.30629876 0.27690014 -0.24085124 -0.078604005 -0.2291833 -0.09660646 -0.122495174 0.13802576
-0.2723126 -0.05815803 -0.33782184 -0.20632759 -0.20615655 -0.2776282 -0.33400542 0.018095773
-0.15540953 0.102488324 0.23909968 -0.20716733 -0.06844867 -0.071099624 0.109339595 -0.06865401
-0.33659983 0.19035041 -0.15845703 -0.1583983 -0.3394372 0.14288907 0.1284714 0.34842566
0.26310745 0.09747853 -0.013016226 0.0038218873 -0.025599485 0.3093929 -0.22358173 -0.038733777
-0.19653156 0.33676618 -0.005707805 -0.034797538 0.06538269 -0.04418727 -0.16537492 -0.0853017
0.18367395 -0.18743128 0.2099145 0.014394171 0.044528898 -0.3397199 -0.029661715 0.22322384
-0.16773912 -0.22893092 -0.3529959 0.32772282 0.08760556 -0.2845283 -0.12446161 0.037257407
0.26655504 -0.026899198 -0.0568829 -0.32311192 0.10347551 0.27160385 0.25603643 -0.07451086
-0.22116265 0.16065507 0.06961825 -0.1308507 0.09503225 0.19777147 0.14022104 0.121540755
0.25476393 0.36096528 0.30627626 0.2794973 0.24865267 0.28232083 0.011586933 -0.06263072
-0.20797639 -0.02796757 -0.18838456 -0.07403238 0.035756093 0.092138216 -0.04580302 -0.18695737
0.0016657702 0.046247646 0.06796217 0.22481862 -0.28582692 -0.026109636 0.2704286 -0.03598952
0.39778802 -0.27187833 0.14034645 -0.035766628 -0.15374893 -0.03744159 -0.23363243 0.30751958
-0.022903146 0.16923077 -0.13954139 0.14893046 -0.23274264 -0.2263885 0.06014297 0.29256088
-0.14851741 0.008407315 -0.07780933 -0.03288489 0.21479239 -0.17544086 -0.0028814452 0.18421681
-0.067502156 0.36049175 -0.37646908 0.26406804 0.35289884 0.15799105 0.24290007 0.16929884
0.23589776 0.021834496 0.0077974023 0.2167422 0.42134833 -0.3060984 0.10007151 0.035951626
-0.0020083897 0.09075771 -0.2789045 -0.2943745 -0.12491036 0.236319 0.20976138 0.12563063
0.09669161 -0.2165317 -0.07216541 -0.17842823 0.013234217 -0.22052854 0.28752962 0.17786095
-0.23538709 -0.20659359 -0.2028076 0.05430269 -0.3228239 -0.08408839 -0.335322 -0.30689964
-0.33812588 -0.22435756 -0.083739 -0.10853623 -0.15872434 0.15217476 0.27640343 -0.029314797
0.34507406 -0.19685644 0.026238965 0.1412435 0.074219346 -0.0041969856 -0.44509444 0.15436405
-0.14385863 -0.17655754 -0.15442678 0.2087934 -0.075951055 0.08245952 -0.29961365 0.3090898
0.20620482 0.07015264 0.15009682 0.26925606 0.39498037 0.3077466 0.02702711 0.11163513
-0.10937414 0.30043986 -0.17790265 0.25642982 -0.036960967 0.21333267 0.24893567 -0.023836978
-0.29242262 0.055567887 0.2022131 -0.30134082 0.03861772 -0.044190653 -0.3408794 -0.20626609
-0.12876433 0.13235427 0.25094402 -0.1523818 -0.104854986 -0.0526238 0.25393492 -0.33254525
-0.17310713 0.051201146 -0.13876854 -0.23899011 0.035669185 -0.010109129 -0.029604368 0.24911837
0.33534676 0.28545833 -0.09069249 0.19423504 0.22570603 0.2745489 -0.114037566 0.04997961
-0.0919693 -0.044359665 -0.33508363 0.34097612 -0.36605462 0.024625069 -0.009606072 0.1965476
0.05798573 0.0027658094 -0.23933941 0.0047198767 -0.39625028 0.19450422 0.10736397 0.34462228

weight_hh_l0 f4 [40, 10]
00000000: 67d7 693e 78ad 223d b529 89be f4dc 93be
00000010: 0f5e eabc 265e 4f3e fb26 8dbe 0be2 f8bc
00000020: 5bd1 7c3e b03a a5be f0fc a4be 94d5 20be
00000030: 5fdb b53d 576d 453d 8b0d 5abe 5b9f 4abe
00000040: 55ff 47be 0d53 413d 0cfb 51be d35e bb3e
00000050: 2192 993d ff8e aebe f7c4 83be ca9d 5bbe
00000060: 53c2 3ebe fe92 56be a88c a23d 9f27 133e
00000070: b449 90be b796 2bbe 1ae5 313e 2fe0 85be
00000080: a34b fd3c 6e73 6ebe fa63 08be ca0f 2bbd
00000090: d416 f13e 379e 973e d0c2 a5bd 7a73 293d
000000a0: 00fd 92be 792b 6c3e 7d56 4c3e d753 83be
000000b0: c708 edbc 7615 96be 7571 fdbb f778 afbd
000000c0: 20eb 6e3e 2fb4 99bb 0cd9 c4bd f795 143e
000000d0: b211 c9bd 2274 cabc 41f7 b8bd 7927 c4be
000000e0: 528c a0be 07ab f0bd 426a ae3e 15c0 283e
000000f0: fd57 42be 2641 9e3d 6dd7 e3bc 47a6 96be
00000100: b54f 31be d372 b93e d6ba 553d 15bc 30be
00000110: 1cb2 0bbd a1cf c9bc 8936 173e 229c 30be
00000120: 7cb4 2d3e 32d5 ba3d f849 75be 47c5 84be
00000130: 3931 903e 3295 d5bd 72f7 ecba 7a52 083e
00000140: 8a97 04bc 93a4 d7be bc10 eb3c e1d4 29be
00000150: 6861 9d3c c387 113d 1742 f1be b606 c23e
00000160: 5408 1dbe 14df 4b3e 61c7 0e3e 2539 063e
00000170: 0afc a43b e4b6 ed3d c1d9 adbd 9f3b 70be
00000180: d82c ebbd 082b 95bc 9a75 bdbd 4de0 873d
00000190: 065d 403e 91a2 ccbc 12a2 f23d 5315 8b3e
000001a0: b543 20bd b2ff e6bd 1bd0 25be 84c6 06bd
000001b0: 294e 243e 4be5 773d 5005 1f3e 417d cbbd
000001c0: cb94 1539 3d05 613e 2152 eebd 7bc9 70be
000001d0: ab04 ce3d c44f abbc dd8f 93be 9929 293e
000001e0: 0692 28be 105e 7a3d b657 f43d ffb5 2e3e
000001f0: b12a b7be d406 9cbe 6ee1 f7bd c864 2b3e
00000200: 6c6c 15be bdb4 0cbc 3a68 253e 613d a43e
00000210: 9e35 c8bd 9a75 87bd 4c7f 5cbc 4556 933e
00000220: f15e 0b3e 5b8b a73e 09c9 913e 8d06 9c3e
00000230: a875 673e db52 883d 23c2 14be 038a 423e
00000240: 57c5 093d 7646 26bd 2928 39bd 1eea 253e
00000250: d57a b1be fe22 9b3e e857 9ebe 2892 1cbe
00000260: 0089 bfbe dce0 98be f8cd 41be 40ed 2ebe
00000270: c543 1b3e 2e14 5e3e 35ae 5abd febf 333e
00000280: dc65 7c3d dd8c 09be 7a9c 76be 8e84 86bc
00000290: 4fc8 68be af2d 75bd 01af 0bbe b225 853e
000002a0: aaaf 81be 8d69 3a3e 2320 c0be a781 0d3e
000002b0: 68a9 93be 2c04 fabb 844c e53c 3c1f ddbe
000002c0: 8890 3cbe 9737 34be 9014 963d 82f6 37bd
000002d0: eb1f 8ebd 6d0e 98be 0346 93be feef 92be
000002e0: 9011 0ebe 52f8 273e 6647 92be ddcb a63e
000002f0: 6e2d 20be 23d0 ab3e e9a1 9fbb cb22 a7be
00000300: 7c04 32be 9a14 8d3e 72e3 8ebe b076 d0bd
00000310: c427 603e e323 a53d 108d b23c c266 82bc
00000320: 66b4 9ebe 9803 993e f4e0 923d 5b6b c5bc
00000330: 37e1 883e abd4 e83d 1e98 293e 1919 753c
00000340: b2f9 07bd c83e 01bd 1ed3 63be ce6f 88bd
00000350: b4a8 3cbe 9c59 113e d42f 853e 8026 313d
00000360: 66ae 3c3e 7065 803e 368f 2e3e f94f 2e3e
00000370: 4cba 7f3d 02ba a33e 4917 5fbe ae95 0bbe
00000380: 9f37 25be 9452 02be 5e60 b8bd 454d 12be
00000390: 2d84 64be f366 573d 934c 4abe 642d 61be
000003a0: 33eb 233e 2f45 b0bc 9992 843e b285 94be
000003b0: 1aed 853e c128 58be b2e6 8b3e aef2 ae3e
000003c0: 03ec 953e 3a5a a5bb 2575 79bd a651 46be
000003d0: e294 82be f926 f13d 3443 973d 1691 c63c
000003e0: 54ff d63c 3b5c 803e 214d 443e ffcd 60bd
000003f0: 1900 a83e dcf2 04bd ec35 973e ac5f 8dbd
0.22836076 0.039716214 -0.26789632 -0.2887951 -0.028609304 0.20250759 -0.27568802 -0.030381223
0.24689238 -0.32271338 -0.32224226 -0.15706474 0.08879732 0.048199978 -0.21294229 -0.19787352
-0.19530995 0.047198344 -0.20505923 0.36595783 0.07498575 -0.34093472 -0.2573621 -0.2144691
-0.18628816 -0.2095451 0.07936984 0.14370583 -0.2818123 -0.16756712 0.17372552 -0.261476
0.030919855 -0.2328622 -0.13319388 -0.041763104 0.4708773 0.29612896 -0.08093798 0.041369893
-0.2870865 0.23063459 0.19954868 -0.25649902 -0.02893485 -0.29313248 -0.0077344724 -0.08567994
0.2333188 -0.004690669 -0.09611711 0.14510332 -0.09817828 -0.02471358 -0.09031535 -0.38311365
-0.31357056 -0.11751371 0.34065443 0.16479523 -0.18978877 0.0772727 -0.027812684 -0.29423735
-0.17315562 0.36220416 0.052180134 -0.17259248 -0.034105405 -0.024635138 0.14766897 -0.1724706
0.1696338 0.09122695 -0.23953998 -0.2593176 0.28162554 -0.104288474 -0.0018079116 0.13312712
-0.00809277 -0.42117748 0.028694503 -0.16585113 0.019211486 0.035529863 -0.47120735 0.37895745
-0.15335208 0.19909316 0.13943245 0.13107736 0.005034928 0.11607149 -0.08488799 -0.23460244
-0.11483163 -0.018208995 -0.09250946 0.06634579 0.18785486 -0.024979861 0.11847319 0.27164707
-0.03912707 -0.11279239 -0.16192667 -0.032904163 0.1604544 0.060521405 0.1552937 -0.09936
0.00014265177 0.21974654 -0.116367586 -0.23514359 0.10059484 -0.020912059 -0.28820696 0.16519774
-0.16461954 0.06112486 0.11930792 0.17061614 -0.35774758 -0.3047396 -0.12103544 0.16737664
-0.14592141 -0.008588013 0.1615304 0.32078078 -0.09775852 -0.066142276 -0.013458084 0.28776756
0.13610436 0.32723507 0.2847369 0.30473748 0.22603476 0.066564284 -0.14527182 0.1899796
0.033635464 -0.04059454 -0.045204315 0.1620259 -0.34664026 0.30300134 -0.30926442 -0.15290129
-0.3740921 -0.29859054 -0.18926227 -0.17082691 0.15162571 0.21687385 -0.053388793 0.17553708
0.06162058 -0.13432641 -0.24083129 -0.016420629 -0.22732662 -0.05985802 -0.13640977 0.26005322
-0.25329334 0.18204327 -0.37524518 0.1381899 -0.28840184 -0.007629892 0.027990587 -0.43187892
-0.1841451 -0.17599331 0.07328141 -0.044912823 -0.069396816 -0.29698506 -0.28764352 -0.28698725
-0.13873887 0.1640332 -0.28570098 0.3257741 -0.1564233 0.33557233 -0.004871596 -0.32643732
-0.17384523 0.2755478 -0.27907902 -0.10178888 0.2189017 0.080634855 0.02179578 -0.01591814
-0.30997008 0.29885554 0.07171813 -0.024099043 0.26734325 0.11368688 0.16561934 0.014959597
-0.033197112 -0.031554013 -0.22248504 -0.0666195 -0.1842373 0.1419434 0.26013052 0.043249607
0.18425903 0.2507739 0.17046818 0.17022695 0.062433526 0.3197785 -0.21786226 -0.13631317
-0.16134499 -0.12726814 -0.090027556 -0.14287288 -0.22316046 0.052588414 -0.19755773 -0.21989971
0.1600769 -0.021517364 0.25893095 -0.2900825 0.26157457 -0.21109296 0.27324444 0.34169525
0.29281625 -0.0050461562 -0.060902733 -0.19367084 -0.25504214 0.117750116 0.07385865 0.024239104
0.026244797 0.25070366 0.19170047 -0.054883953 0.32812575 -0.03245817 0.29533327 -0.069030136

bias_ih_l0 f4 [40]
00000000: 68ec 67be bbe5 13be ee98 773d fcec 0fbc
00000010: 5b7b 7a3e 2fc8 103e e438 8bbe f6da ea3d
00000020: d946 533e b11f 553d 276e b93c 33d8 903e
00000030: b526 ccbc d50a 0f3e a49c 573e acb1 5c3e
00000040: 9e25 2b3c 6d00 af3d aea2 0ebe 4a27 833e
00000050: f38e ed3d 2496 aabe 091a 8b3d f7d8 553c
00000060: d1f9 45be bf33 85be 8e20 fb3d 53b5 653e
00000070: 442d 733e 5ba8 4b3e 635d 4fbd 0c06 b13e
00000080: a004 43be 9ac8 03be 8856 b6bd 8286 69bd
00000090: 9dd9 513e 0153 333c cc3e 79bd 6de3 e23e
-0.22648776 -0.14443104 0.06044858 -0.008784529 0.24461119 0.14138864 -0.27191842 0.11467545
0.20632495 0.052032176 0.022635533 0.28289947 -0.0249208 0.13968976 0.21055847 0.21552151
0.01044598 0.08545003 -0.13929245 0.25615913 0.11599531 -0.33317673 0.06792075 0.013052217
-0.19333579 -0.26016042 0.12262069 0.22432451 0.23747736 0.19888441 -0.05062617 0.34574926
-0.19044733 -0.12869492 -0.08903223 -0.057013042 0.20493169 0.010945083 -0.060850903 0.44314137

bias_hh_l0 f4 [40]
00000000: cf73 93bd bbe7 723e 7b94 e33d ecf9 69bd
00000010: 9c5b 2fbe ffdb 923d 6e6a a2bd 79dd 373e
00000020: 5f8e c63d faef 6a3e 2d5f 643e 302f a93e
00000030: 03d6 6d3d 610d 0cbe a091 853e 1b22 bf3e
00000040: 8f5e 92bd ef3c 873d ebd4 ffbd ea1d 803e
00000050: e86b 323e fbb8 20be 02c0 89be fc1f 62be
00000060: 5d6b 08be a7b0 9fbd 48a0 c93d 0c24 9d3e
00000070: d4e1 0a3e a546 443e 01c0 7b3e 7af9 1ebe
00000080: 75af 323e 7518 d2bd 2f4a 30be 843a 913e
00000090: cc79 19be 1c09 8e3e 09eb 7f3d c9be 843e
-0.07199823 0.2372121 0.11112305 -0.05712311 -0.1712479 0.07170867 -0.07930456 0.17955579
0.09695124 0.22943106 0.22301932 0.33043814 0.058065426 -0.13676979 0.26087666 0.37330708
-0.07146942 0.06603419 -0.12491783 0.25022823 0.17423975 -0.15695564 -0.26904303 -0.22082514
-0.13322206 -0.07797366 0.09845024 0.30691564 0.13562709 0.19167574 0.24584962 -0.15524855
0.17449744 -0.10258571 -0.17215799 0.28364956 -0.14987868 0.27741325 0.062480006 0.25926808

weight_ih_l0 f4 [40, 22]
00000000: c9ed 403e 2655 243e 0f8b f73d 76b2 99be
00000010: 1ca9 2c3e f744 a5be 1572 5cbd 6e3a 773e
00000020: ddf6 43bb 0a6b 54bd ae1a e7bc 78a0 38be
00000030: 9edb 81be e64e 683e 6495 cb3d e21c 3f3e
00000040: fb03 913e 5fcf 88be c497 93be 7de1 373e
00000050: c1d3 173e 2c12 b6be 1167 853e 680b 043e
00000060: fcb5 d93d 2c42 16be a64c 653e a460 5d3e
00000070: 668d 8fbd 1954 503b 742d 1bbe 7a0f 22be
00000080: fdba 3cbe 7a90 4cbe 91b1 b9be e4e8 c23d
00000090: 51d1 8abe 291a 86be c0f8 71be 8949 91bd
000000a0: ecf6 983d 807a c3be 1781 2d3e 8790 0d39
000000b0: 3d4b 91be 320b b23e 4b9d 5c3e 71fd 013d
000000c0: 9566 1e3e a557 553e 6ae6 cabd f4ce 623e
000000d0: 4f3a e9bd ed9a ad3e 1560 96be 7763 22be
000000e0: 7011 ac3d 75c1 903e b647 c1be bb42 bfbc
000000f0: 6dd0 da3e a588 39be 44e3 5abe d4af 2e3e
00000100: c1b1 433e c42a be3c 3aaa 383e 6e5c f4be
00000110: 777a 57be cc8f 8fbc 97e7 83be d1b2 82be
00000120: 764a 95be b142 db3d 3205 1cbd 531e 0a3e
00000130: afcd 7dbd 0d11 01be 87c2 283e 7a19 393d
00000140: 83f9 4fbe 09de f23d 7587 13be 0fac 78be
00000150: 3e89 8bbc 1e16 f43e 929d d23d 8ea5 7b3e
00000160: 3c83 623d 6a94 3abc 14b9 813e b05c 1d3e
00000170: c9bb 0dbe 28c2 60be 6d01 89be 3fbf ee3d
00000180: d53c 5fbc e096 9b3e 3ae1 77bd 3907 243e
00000190: 1a96 8a3e efd7 97be e7ba 89bd 225a 62be
000001a0: 4049 5a3e 5c45 603e 143c 2fbe 11a8 b8bd
000001b0: eab9 8a3e 73d3 8c3e 670c 203d 74ea 98be
000001c0: c1c2 e53d 4cc1 26be 5c14 e13d d97b b1bd
000001d0: b8ce 5cbe 6ed4 91bc a3f4 dd3d 3863 50be
000001e0: fd55 8dbe be7c 403e ebf0 013e e862 8dbd
000001f0: 0001 15be 80ad a5bd 7c98 b03c cc0d 2ebd
00000200: b0d1 113e 7fa9 943e 2cac 8e3e 174d ac3e
00000210: 14b4 97be 7429 683d cc1a 80be 0d63 d03c
00000220: 172b 823d 90ee 95be 05e8 9bbd d3a6 95bc
00000230: cc17 4d3e adaf 533e 59aa a1be faef 8cbd
00000240: 0867 973e 6d29 913e 9177 2cbe 463b 96be
00000250: 16f1 0b3e 343a b93e 0508 553d fbf5 933e
00000260: 0214 0fbe 41ac 3abe 931c 00be e6c4 00bd
00000270: 5b16 4fbe bca6 ba3e f606 163e 3a21 3ebe
00000280: a86e 97be 6601 60bd f453 743e 44fd 213d
00000290: 0f03 45be 3bdb 01bd 2a9c 7f3c bde0 573d
000002a0: 5b94 263e 2619 37bd 9859 5ebc d54b 673b
000002b0: e953 d33c a7b9 793e 10af 5d3d 6309 d7bd
000002c0: 5855 08bd 5740 88be 8bb5 b3be a36c ac3e
000002d0: 1f9b 703e a341 1abe e61a 2f3c b9dc 35be
000002e0: fac3 63bd 2005 8b3d 06d6 0b3e f79b 3b3e
000002f0: 878b d7bc 76bf 88be 3a64 5c3e 063b f1bd
00000300: b264 443e 7d4c 85be a4fd d1bd b079 963e
00000310: 1199 e83d 13db f23c 6286 8c3e 4cbf 1f3d
00000320: 4edc 15be a5f4 153e f464 263e 90c0 bf3d
00000330: 65e0 d1bc 46f7 9c3e aa18 af3e d909 923c
00000340: 7185 2cbe 47ff e4bd 9d74 c4be 73ea 013d
00000350: 016d 4e3e dc32 663d ae02 06bd 0a2f 2bbe
00000360: 67f5 75be c129 61bd 5811 26be 1332 373e
00000370: 2600 213e 6021 a2be 5a7f 85bd cf58 f63d
00000380: 1171 5cbe d68d a9bd 94cb ed3d 6df5 a8bd
00000390: 36b8 753d a0f8 07be 835b c6bd c056 5bbe
000003a0: 2c78 edbd f563 70be 1192 013d 31e7 b8bd
000003b0: 5c81 dbbd 447d ebbe 1f43 b23d cac4 93bd
000003c0: a99d 003e 4e9a 52be ac10 1e3e b911 42be
000003d0: 1408 b4be 0a28 663d 0d70 a0be b8c5 813c
000003e0: 9388 cd3c ee12 a33e f13f 803d 41ad 853e
000003f0: adee fbbe e659 77bc e762 dbbd 1e15 6dbe
0.18840708 0.16048107 0.1208707 -0.30018967 0.16861385 -0.32279179 -0.053819735 0.24143383
-0.002990178 -0.051859893 -0.028210964 -0.18029964 -0.25362867 0.22686347 0.099406034 0.18663362
0.2832335 -0.26720712 -0.28826725 0.1795711 0.14826871 -0.3556074 0.26055196 0.12894976
0.10630414 -0.1467368 0.2239252 0.21618897 -0.070093915 0.0031788407 -0.15154058 -0.15826216
-0.18430705 -0.19976988 -0.36268285 0.095170766 -0.2711282 -0.26191834 -0.23630047 -0.07094104
0.074689716 -0.38179398 0.16943775 0.00013500648 -0.28377715 0.34774166 0.21544378 0.03173584
0.1546882 0.20834215 -0.09907229 0.22149259 -0.113880746 0.33907261 -0.2937018 -0.15858255
0.084017634 0.28272596 -0.37750024 -0.02334725 0.4273714 -0.18118532 -0.21375757 0.1705926
0.19110776 0.023213752 0.18033686 -0.47726768 -0.2104281 -0.017524622 -0.25762627 -0.2552705
-0.29158372 0.1070608 -0.038090892 0.1348813 -0.061963733 -0.1260416 0.16480456 0.045190312
-0.20310025 0.11858756 -0.14407142 -0.24284385 -0.017033216 0.47673124 0.102839604 0.24574873
0.055300936 -0.011387924 0.25336516 0.15367389 -0.13841166 -0.21949065 -0.267589 0.11657571
-0.013625343 0.30388546 -0.060517527 0.1601838 0.27067643 -0.29656932 -0.06725102 -0.22104695
0.21317005 0.21901459 -0.17112762 -0.09016431 0.27094966 0.27505073 0.039074328 -0.29866374
0.11218787 -0.16284674 0.10990211 -0.086662 -0.21563232 -0.01780149 0.108376764 -0.20350349
-0.27604666 0.18797585 0.12689559 -0.069036305 -0.14551163 -0.08089733 0.021557085 -0.042493626
0.14240146 0.29035565 0.27865732 0.33652565 -0.29629576 0.056680158 -0.25020444 0.025437856
0.06355875 -0.2928357 -0.076126136 -0.018268025 0.20028609 0.20672484 -0.31575277 -0.068817094
0.29570794 0.28351918 -0.16842486 -0.29342097 0.13666186 0.36177218 0.0520096 0.28898606
-0.13972476 -0.18229772 -0.125109 -0.031437777 -0.20223372 0.36455333 0.14651093 -0.18567362
-0.29576612 -0.054688834 0.2386015 0.039548174 -0.19239448 -0.031703215 0.015601197 0.05270456
0.1626753 -0.044701718 -0.0135711655 0.0035293002 0.025796847 0.24387227 0.05412203 -0.10499837
-0.033284515 -0.26611587 -0.35099444 0.33676633 0.23496674 -0.15064101 0.010687565 -0.1775998
-0.05560682 0.06788087 0.13655862 0.18321215 -0.026311649 -0.26708573 0.21522608 -0.11778836
0.19179037 -0.26034918 -0.10253456 0.29389715 0.1135732 0.029645478 0.27446276 0.039000794
-0.14634821 0.14644106 0.16249448 0.093629 -0.025619695 0.30657405 0.34198505 0.017826961
-0.16847779 -0.11181503 -0.3837022 0.03171773 0.20158769 0.056200847 -0.0327174 -0.16717163
-0.24019395 -0.05497146 -0.16217554 0.17890196 0.15722713 -0.31666088 -0.06518431 0.12028658
-0.21527506 -0.08279006 0.11611095 -0.08249936 0.05999013 -0.13278437 -0.09685423 -0.21419811
-0.115951866 -0.2347563 0.03163344 -0.09028471 -0.10718033 -0.45994008 0.087042086 -0.07215269
0.12560143 -0.20566675 0.15436047 -0.18952073 -0.35162413 0.056190528 -0.31335488 0.01584135
0.025089538 0.3185038 0.06262196 0.26108745 -0.49205533 -0.015097117 -0.107122235 -0.23152587

weight_hh_l0 f4 [40, 10]
00000000: 2eb7 843b 6e6f e73d a4c9 ef3d 8a94 6c3e
00000010: 590f 90be 0732 a9bd 7012 d63d 0376 9fbe
00000020: 45f9 2e3e 429d 4bbe 2abc 61be c0cc ab3e
00000030: 3731 913e 47a2 b83b 1994 903e 1671 cfbd
00000040: 0756 6e3e a338 9e3d 19a4 a0be 0735 0a3e
00000050: 1c5d 153e 4707 67be 390f 6d3e f6ad 0abf
00000060: 935d 49be 0ff8 dabd 3110 743e a8a8 6fbb
00000070: 3a1d 58bd d16d 4fbe 250d 4c3e e25a 24be
00000080: 5c06 663e 6bed 323d f72b f6bc f96c 3a3e
00000090: cef2 923e 22a1 1cbd c1a3 c6be 8eae 97bd
000000a0: 3b7f 41bd b953 0cbd 284b c93e 5765 313e
000000b0: 1b27 9f3e 6d77 50be b208 113f c00b 643c
000000c0: 5035 28bd bd6e 35be 59d6 dbbd 503c 223e
000000d0: 313e a93e fffe 8fbe daef a73e c890 75be
000000e0: e364 a0bd 0010 893e 8f25 a0be a5d0 10be
000000f0: 41ad 3ebe a306 423e aaed d03e a0cc 0a3f
00000100: 5e78 983e bfc6 0abe 4d42 75bd 36b6 383e
00000110: 2323 db3c 42af 5bbe c73c f1bd c7f5 32bd
00000120: c2d9 9d3e 5d44 83bd f98a 17bd 2046 4d3e
00000130: 990e 303d 581c 6d3e 379e 483d 332b 80be
00000140: 94d8 aebd 261b 5b3e 2372 b43d 38a8 69be
00000150: 1c37 0c3e 5ef4 8c3e 2a38 3d3e 3f84 82be
00000160: 1e89 823e a9b5 2d3e 9822 0cbe 40b5 213e
00000170: d2ed 983e 8471 133e 4ec1 883e 88e9 4bbe
00000180: 70e7 2ebd a24f fb3d 539d 87bd 7646 89be
00000190: 768a 2dbe 0293 723e e8f7 303c fb38 9a3e
000001a0: 0eab b63c aaf7 a23d 8147 4fbd 9ea6 443e
000001b0: 8310 beba 5d75 6cbe bfc0 fa3d d709 913d
000001c0: a51b 7dbd 4677 02be 24c3 533e 8d4f 403d
000001d0: ce7a 063e c9bb 13be c451 48bd a4d0 51be
000001e0: 51a9 4c3e ee0a 41be d531 5fbe e55d 02bf
000001f0: e7d5 b9bb 957d 863e 58ef 013e 58ea e73d
00000200: e36a 83be fac7 f13d aa08 85be ad4d b63d
00000210: 1fd6 663e de6a b4be 4f5e 823e 8445 9f3e
00000220: cc19 95be af32 7b3d 43b5 43be cefd 333e
00000230: 1951 1fbe c502 603e 4b40 493e 21f9 17bd
00000240: c796 a5bd 7a31 983e 4db3 abbd beca 893e
00000250: a3fc b8be f12e da3d e919 713e 3583 40be
00000260: 47cf 28be a6b8 a8bd b186 273d 4e83 203e
00000270: d2e8 0a3d 0a6b 853d 169f 62be 0340 26be
00000280: 5d92 6c3e df7f 503e ba09 ad3d bce0 663e
00000290: d66b ac3e c98f 553b 2d01 63be 0539 613e
000002a0: 649b 923e 5f9b 4b3e 8412 083e 843a 25be
000002b0: 0d3e 093e bf5d 743c f377 9ebc dfbc 2bbd
000002c0: 9693 d3bd 8fb0 b93e bd2c b83d b488 31bc
000002d0: d20e 17bc e772 803d 740f 82bd fbfa cbbd
000002e0: 3c91 563e 9788 6abe c3b7 5dbe 7a8e 543e
000002f0: 8d00 073e ad11 763e 21ef 65be 25f5 2d3e
00000300: de09 ddbd 66f7 833d f6b0 803e a321 95be
00000310: d21e 89be 6fe2 453e ebb8 6b3d e6ab cabc
00000320: 41cc 8fbc a36b d0be e77c 57be cf00 1e3e
00000330: aba1 c1bd 3485 5cbe 4d92 d03e 5651 00be
00000340: c545 0cbe 0711 4cbe 090b e0bd bc4d d83e
00000350: 9a54 413e f5c9 28be f476 e2bd 8a30 7c3e
00000360: e579 afbe fe64 33be faa1 40bd 7bc9 e43d
00000370: 4bbe 463d f0d1 713e 6997 1dbe 0181 c9bb
00000380: 2fa3 ba3e 61f8 733e 9f3f a6bd a76c 283d
00000390: 8b7f 85be ae58 463e 7fff 0cbe 3329 84bd
000003a0: 34a6 c93e c63f b73e 6ed2 01be ec94 4d3c
000003b0: 11ed 51bd 1a11 39bd e5c3 003d 99de 873d
000003c0: 6d62 8a3e 0cd0 a0be 83e6 7e3e 6f0a c9bd
000003d0: b3cc 973e 8e5b efbd 2b13 94be 5603 ef3c
000003e0: a7ee 22be ce09 35bd 9388 c4bd d09d 18bd
000003f0: 57c0 a0be 26b7 dd3e fdb4 b03d 5b9f 8f3e
0.004050157 0.113005504 0.11708382 0.23103538 -0.2813671 -0.08261495 0.104527354 -0.31144723
0.17087276 -0.19884208 -0.22044435 0.3355465 0.2835786 0.0056345793 0.2823799 -0.10128991
0.23275004 0.07725646 -0.31375197 0.13496791 0.145863 -0.2256137 0.23150338 -0.54171693
-0.19664602 -0.10691845 0.23834302 -0.0036569033 -0.052762248 -0.20256735 0.19926889 -0.16050294
0.22463363 0.04368345 -0.030050261 0.18205632 0.2870087 -0.038239606 -0.3879681 -0.074063405
-0.047240477 -0.03425953 0.39315152 0.17323814 0.31084523 -0.20358057 0.56653893 0.013918817
-0.041066468 -0.17718025 -0.10734243 0.1584332 0.3305526 -0.28124234 0.3280018 -0.23981011
-0.078317426 0.2677002 -0.31278655 -0.14142092 -0.18620779 0.18947844 0.40806323 0.5421848
0.29779333 -0.13552378 -0.059877682 0.18038258 0.026750153 -0.21453574 -0.117791705 -0.043691423
0.308302 -0.06409524 -0.03699777 0.20046282 0.04298267 0.23155344 0.04897901 -0.25032958
-0.08537403 0.21397075 0.08810832 -0.22818077 0.13692898 0.27530187 0.18478456 -0.2549152
0.25495237 0.16963829 -0.13685071 0.15791798 0.29868942 0.14398772 0.2670998 -0.19913304
-0.042701185 0.12271048 -0.06621804 -0.2681157 -0.1694735 0.23688892 0.010801293 0.30121598
0.022298362 0.079573944 -0.0506053 0.19204184 -0.001450077 -0.23091646 0.12243795 0.07081955
-0.061793942 -0.12740812 0.20679909 0.046950866 0.13132784 -0.14427103 -0.048906103 -0.20489746
0.19986464 -0.18851826 -0.21796353 -0.5092452 -0.005671251 0.26267686 0.12688959 0.113239944
-0.25667486 0.118057206 -0.25983173 0.08901534 0.22542618 -0.35237783 0.25462577 0.31107724
-0.29121244 0.061327633 -0.19112115 0.17577288 -0.1555828 0.21876056 0.19653432 -0.037102822
-0.08085399 0.29725248 -0.08383808 0.26912493 -0.36130247 0.106534846 0.2354504 -0.18800052
-0.1648532 -0.08238344 0.040899936 0.15675089 0.03391344 0.06514557 -0.22130999 -0.16235356
0.23102708 0.20361279 0.08449121 0.22546667 0.33676022 0.0032586923 -0.22168417 0.21994407
0.2863418 0.19883488 0.13288313 -0.16135603 0.13402577 0.014914929 -0.019344306 -0.04192817
-0.10330884 0.36267516 0.08992908 -0.010835815 -0.009219842 0.06271916 -0.06350604 -0.0995998
0.2095384 -0.22903667 -0.21652131 0.20757475 0.13183804 0.2403018 -0.22454502 0.16988046
-0.10792898 0.06443672 0.2513501 -0.29127225 -0.26781327 0.19324659 0.0575494 -0.02474017
-0.01755345 -0.4070712 -0.2104374 0.15429996 -0.09454664 -0.21535188 0.4073662 -0.12531027
-0.1369849 -0.1992837 -0.10939605 0.42246807 0.18879929 -0.1648329 -0.11057845 0.24627891
-0.34272686 -0.17518994 -0.047029473 0.11171242 0.04852132 0.23615241 -0.1538979 -0.0061494117
0.36452624 0.23825218 -0.081176035 0.041119244 -0.2607387 0.19369766 -0.13769339 -0.064531706
0.39384615 0.35790843 -0.12677929 0.012547713 -0.051251475 -0.045182325 0.03143682 0.06634254
0.27028218 -0.31408727 0.2489262 -0.09816443 0.2964836 -0.116873845 -0.28920874 0.029176395
-0.15911351 -0.044198804 -0.09596362 -0.037259877 -0.31396744 0.43303794 0.08628271 0.28051266

bias_ih_l0 f4 [40]
00000000: e3e6 4a3e 70df 8f3e e26a 7ebe 4a9f ca3e
00000010: 0a4c 903e 7b31 27be f7c8 ecb8 fed4 a83e
00000020: f956 a73e c118 5f3d 551b 6cbe 3028 67bd
00000030: bb30 78be 66b7 5abc 126d fcbd ed4d 0c3e
00000040: efe6 3d3e f32c 763c a8dd 813e 86ef a33e
00000050: 202c 7d3d 571c 383e 6ba9 87be 6d52 a03e
00000060: 336b d03d b0a6 733e 640d 1abe cea9 233e
00000070: 0b4c 1bbe a904 a6bd a78e 963d 5828 32be
00000080: aa56 443d bf75 403e 869b c03d fd2c a33e
00000090: 2d44 033f 9cb5 623e d229 7dbe b9d6 983d
0.19814639 0.28100157 -0.2484546 0.39574653 0.28183013 -0.16327469 -0.000112907896 0.32975
0.32683542 0.054466967 -0.23057301 -0.05643481 -0.24237339 -0.01334939 -0.12325491 0.13701601
0.18545125 0.015025365 0.25364423 0.3201868 0.06180966 0.17979561 -0.26496443 0.31312886
0.10176697 0.23794055 -0.1504417 0.15982744 -0.15165727 -0.081063576 0.073514275 -0.17398202
0.04793421 0.18794917 0.09404664 0.3187026 0.51275903 0.22139591 -0.24722984 0.0746283

bias_hh_l0 f4 [40]
00000000: 4dc9 053e 2477 68be 5a90 4bbe 0c67 cfbc
00000010: 7361 7abe 414e a23e 43a4 5a3e 1c08 0bbe
00000020: 6155 a73e eb31 1abe ea2e 8e3e 4835 d63e
00000030: 9ea6 98bc 177f c2bc 83ff 863e d796 013c
00000040: e56e 50bd 594d 813e 519a dcbc c6b4 c03e
00000050: ad04 063d c5c8 493e 9e3f 6d3e 3ca9 e23d
00000060: 0abb 723e df40 20be 2fe6 0f3e 2a4a 8e3e
00000070: 1597 82be 2e28 9b3e d69f e53d 112b 453e
00000080: b727 dbbd 4bca 11bc 1014 113e 65bf 6fbe
00000090: bc72 e73e b557 00be dcc6 3a3e eb9b 00be
0.13065071 -0.22701699 -0.19879285 -0.025317691 -0.24451236 0.31700328 0.21351723 -0.13577312
0.32682326 -0.15058105 0.27770168 0.41837525 -0.018634137 -0.023742242 0.26366815 0.007909498
-0.050887007 0.25254324 -0.026929053 0.3763792 0.032719303 0.19705494 0.231688 0.11067435
0.23704162 -0.15649746 0.14052652 0.27790958 -0.2550589 0.30304092 0.11212127 0.1925471
-0.107009344 -0.008898328 0.1416781 -0.23412855 0.45204723 -0.12533458 0.18239921 -0.12559478

weight_ih_l0 f4 [40, 22]
00000000: a45d 3e3e fe56 7cbe 8f23 2fbe f52f d53e
00000010: 1ad2 70bc ce0d 6abd 043f 8dbe f98c cdbc
00000020: f2dc d93d 32cf f4bd 8313 9ebe de90 cb3d
00000030: 0089 113e 7933 8ebd 5031 a8be 3809 a03e
00000040: 6444 923e bd3c 89bd 84ea a4be 6cd5 e83e
00000050: 147c b93e 6396 6b3c 76da 9fbe fc0c acbd
00000060: 2d71 91be 0246 b23d 2ed8 49bb 4562 f9be
00000070: 68ad 94bc 9ad7 483d c6aa 6cbe 3c5a 16be
00000080: 32ea 113e eea1 a73e 39f9 b6be 318c 333e
00000090: 39a0 55bd d33c 143e 1ce9 0b3d 8e70 f7bd
000000a0: 0760 8e3d fac8 19bc 830a f13d e203 893e
000000b0: 7c96 debc f6d1 cbbc 1ff9 a3be 4885 4cbb
000000c0: 5897 14be e445 41bd 7dcb 8d3d 03e3 873e
000000d0: a4aa 82be 9924 a43d 1a43 523e 18ce 8abd
000000e0: 7d9b 75be 7bd2 6a3e 2963 05bf 81a5 813e
000000f0: 6b37 fcbd 754d a9bd 90c6 e4ba 8d93 5a3e
00000100: 2d42 363e d3f3 be3c 07b7 2dbe c863 493d
00000110: 8a96 c4bd 57bb 70be 7628 f3bd 2679 5c3e
00000120: 7637 d3bd addd 273e 6fc9 41bd 8f97 673e
00000130: 4c06 fd3c 344b 863e 8f2d 0a3d 9b22 8d3c
00000140: 78b1 0dbe a714 bc3d a75b 8d3e 2ba0 aabe
00000150: 7054 ccbe f24d 3e3d 7218 933e 3d98 5e3e
00000160: ed72 69be 425a c9bd 66a7 d43d 4265 373d
00000170: 2681 8c3b 1005 68be 3cb6 8ebc 7187 ad3d
00000180: 0255 3f3e 1e9d 94bc 1e3e 91be 6651 b53d
00000190: 1f55 db3e bb17 293e b84b 643d dcf6 dcbc
000001a0: 3c62 3cbe 6952 113e 6769 8abe a05b 613e
000001b0: 5e2d cc3d db8b 633e 53ea 63bd 491d 87be
000001c0: bc84 693e bfb4 57bd 4f4b fdbd 138c 03be
000001d0: 5fa1 16be f6a3 b6bd 1280 943c 59dd 87be
000001e0: 597a 953e 7fc3 46be 645e 013d e056 64be
000001f0: 93cc b23d 7fd1 333b 0e5e 973e c356 353e
00000200: 5b18 a9bd d0ad 85be f821 abbd ce6a fc3c
00000210: f468 05be a6f7 223e 0e7c 35be 3d7d 043e
00000220: afba 0abe bd66 10bb e786 df3d 7b0c acbc
00000230: c640 4dbd 1d9d 2dbe e6c8 6f3e 6d32 b93e
00000240: 9b05 783e fe5d 8e3e 0592 86be 909d 153e
00000250: 18da ae3e b81f 9abc 653b fcbc c20a 7cbd
00000260: ed21 e8bd f8b7 683d 7703 b43e 94d0 a2be
00000270: d868 fb3d b197 27be a374 24be 3df0 abbc
00000280: 1898 cdbe f02e 713e 54ed 97bd 6cab 85be
00000290: 79ce b93e bc07 22bd 16dc c73d 4819 3b3e
000002a0: c8cf 8a3d f2a7 033e 311d 80be 59a2 44be
000002b0: 33c0 233d 8438 38be 1761 b63d f65b c93e
000002c0: ca7f e9bc dc10 8e3e 71db 5fbe d7ff 54be
000002d0: 0d15 9a3e 100b 26bc 9e42 603d 08eb cfbd
000002e0: eeed 753d 9e87 1e3e 3362 8bbe a742 97be
000002f0: 6426 c0be d98c cbbd 5e2f e6bd fa55 61be
00000300: 9ee9 e53d aebd dd3d 9e67 01be 4370 91be
00000310: cbd0 263e 22e9 8c3e a798 d5bd 8e9f 55be
00000320: b478 43bd caad 69bd 5949 063e 22a7 623c
00000330: 5b9b bcbe d5c6 e6bd e5e9 e8bd 0000 39be
00000340: 0e04 a2be 6888 063d 26fe a4be 439c 803d
00000350: 524e 95be 81fd 47be 219c 87be 1bbb 9c3c
00000360: 0e72 c8be ee0c a73e 04fa 46be b3b7 91bc
00000370: da9d e6bd 0beb a3be e13a 29bd 79fc b93d
00000380: 1267 6a3e a4a1 c53c 887f 5d3d 07d3 29bd
00000390: 34c6 1d3e 0961 e5be 5913 8abe a90e 503d
000003a0: 7baa 3f3d be86 85be 9458 85bd 530a aa3e
000003b0: 1077 ef3d c39c 21be 65b7 10be db52 1c3e
000003c0: aa95 bdbd 6db1 953c 22a2 733e 20b5 673d
000003d0: 985d 65be e0c3 433e cf1c f53d 327b 88be
000003e0: 2859 db3b 0411 6d3e 01cd 6cbe bd1a 29be
000003f0: 57e7 2d3e c781 ec3e 26e7 33be a58f a5be
0.18590409 -0.2464256 -0.17103408 0.4163815 -0.01469853 -0.05714207 -0.2758714 -0.025091635
0.10637845 -0.11953582 -0.3087426 0.099397406 0.14212418 -0.069434114 -0.32850122 0.31257033
0.28567803 -0.06701038 -0.3221017 0.45475328 0.36227477 0.014379117 -0.3122136 -0.08400914
-0.2840666 0.08704759 -0.003079902 -0.48707786 -0.018149093 0.04903374 -0.2311202 -0.14682859
0.14249495 0.3274073 -0.35737017 0.17533948 -0.052154753 0.14476328 0.034157857 -0.12082015
0.069519095 -0.009386295 0.11769583 0.26760775 -0.027171366 -0.02488039 -0.32026002 -0.0031207372
-0.14510858 -0.047185794 0.06923578 0.26540384 -0.25520813 0.08014793 0.2053341 -0.067775905
-0.23985095 0.22931854 -0.5210443 0.25321582 -0.12315258 -0.08266727 -0.0017454196 0.21345349
0.17798682 0.023309624 -0.1696435 0.049167424 -0.095990255 -0.23508964 -0.11872952 0.2153059
-0.10313313 0.16393156 -0.047311243 0.22616409 0.030886792 0.2622925 0.033734854 0.017228415
-0.1383723 0.091836266 0.27608988 -0.33325323 -0.3990817 0.046461053 0.28729588 0.21737762
-0.22797747 -0.098316684 0.10383491 0.0447743 0.0042878566 -0.22658181 -0.01742088 0.08473099
0.18684772 -0.018141326 -0.28367704 0.08853416 0.4283838 0.16512959 0.055736274 -0.02697318
-0.18396848 0.14191593 -0.2703354 0.22007608 0.099695906 0.2222132 -0.05564339 -0.2638953
0.2280454 -0.052662607 -0.123678796 -0.12846403 -0.14709996 -0.08917992 0.018127475 -0.26536062
0.29194906 -0.19410513 0.03158416 -0.22298765 0.08730426 0.0027438102 0.29563946 0.17708878
-0.082565986 -0.2610917 -0.083560884 0.030812647 -0.13028318 0.15914783 -0.17723104 0.129384
-0.13547777 -0.0022033893 0.109144025 -0.021002045 -0.0501106 -0.16954465 0.2341648 0.36171284
0.24220888 0.27806085 -0.2628328 0.14610887 0.34150767 -0.018813953 -0.03079004 -0.061533697
-0.11334596 0.05681607 0.35158893 -0.31799757 0.12275857 -0.1636646 -0.16060118 -0.020988578
-0.401551 0.23553061 -0.074183136 -0.26107347 0.3629034 -0.039558157 0.09758775 0.18271363
0.067779124 0.12857035 -0.2502227 -0.19202556 0.039978217 -0.17990309 0.08905237 0.39327973
-0.028503317 0.27747238 -0.21861054 -0.2080072 0.30094185 -0.010134473 0.05475103 -0.101522505
0.06004136 0.15481421 -0.27223358 -0.2954304 -0.3752929 -0.09938974 -0.11239503 -0.22005454
0.112261996 0.10827194 -0.12637183 -0.2840596 0.16290586 0.27521616 -0.10429507 -0.20861647
-0.047722533 -0.057050504 0.13113917 0.013833793 -0.36837277 -0.11268393 -0.11372737 -0.18066406
-0.31643718 0.03284493 -0.3222515 0.062798046 -0.29161316 -0.19530298 -0.26486304 0.019132188
-0.39149517 0.32627052 -0.19431311 -0.01778779 -0.112605765 -0.3201526 -0.041315917 0.090813585
0.2289088 0.024124928 0.0540767 -0.041461017 0.1540764 -0.44800594 -0.26967886 0.05079523
0.046793442 -0.26079363 -0.065110356 0.33211002 0.11692631 -0.15782456 -0.1413246 0.15265982
-0.09257062 0.01827308 0.23792318 0.05656922 -0.22398984 0.19117689 0.119683854 -0.2665649
0.006693978 0.23151022 -0.23125078 -0.16514106 0.1698278 0.46192762 -0.17568645 -0.32336155
