LSTM/code/model/old_model/model_mk6_200epoch_0.6268trainloss_0.5443validloss.pt (torch, 46404 bytes, 32 tensors)

weight_ih_l0 f4 [40, 22]
000000 e1 8f 01 3e 19 c4 1e 3a 7c 6d 8c be 18 6e 73 3e
       0.12652542 0.00060564425 -0.2742728 0.23772466
000010 8b 82 e2 bc 84 4f 58 3e 03 e9 55 bd 3c 80 d0 bd
       -0.027650138 0.21124083 -0.05222417 -0.10180709
000020 5a ab 12 be 3b d5 01 3e ca 3a 26 3d 7b 9f 9a 3e
       -0.14323178 0.12678997 0.04058341 0.301998
000030 9b d8 8b be 81 aa a9 ba 4f 99 b2 3d 5d a5 2c be
       -0.27313694 -0.0012944491 0.087206475 -0.16859956
000040 0f 08 ae bd c6 0d 28 be 8f 3c 3f 3e 47 8d 98 3e
       -0.08497631 -0.16411504 0.18675445 0.29795286
000050 7f a6 cc 3d d9 36 d5 bd b9 d3 04 3e f4 d0 39 3a
       0.09992694 -0.10410852 0.12971391 0.00070883264
000060 cd f8 37 3a dc 3a e7 bd aa 3b 18 be c8 1c 85 3e
       0.000701797 -0.112905234 -0.1486651 0.2599852
000070 a9 81 45 3e 39 75 46 3e b2 91 21 bd 18 8d 69 3e
       0.19287743 0.19380654 -0.039445587 0.22807729
000080 60 0f 86 3e 76 05 b1 3e ba 07 42 be ce 54 25 3e
       0.26183605 0.3457448 -0.1894826 0.16145632
000090 26 7c 18 3e d9 06 9f 3d 0f e0 bf 3d 6b a6 74 3e
       0.14891109 0.07764978 0.09368908 0.23891608
0000a0 cd 76 e9 3d 58 63 56 3d 54 a5 4e 3e 15 3b 07 be
       0.113996126 0.052340835 0.20180255 -0.13206132
0000b0 75 b7 88 3e a5 e6 e3 3d 89 12 38 3d 6f f4 4d be
       0.26702467 0.11127976 0.04493955 -0.20112775
0000c0 9d 40 77 3e 7c fd a2 3e a4 85 af 3c ec e7 84 be
       0.24145742 0.31834018 0.02142603 -0.25958192
0000d0 75 4c 92 3e f4 52 18 be a3 24 ba be fa 07 84 be
       0.28573957 -0.14875394 -0.36356077 -0.25787336
0000e0 45 a5 15 3e 18 47 5c be 74 ae 3d 3e 1c 72 a8 3e
       0.14613827 -0.21511495 0.1852358 0.3289956
0000f0 c1 3f 3a be 26 14 4d 3e ae 04 7a be cf 2a 7d be
       -0.18188383 0.20027217 -0.24415848 -0.24723361
000100 7a 35 04 3e e6 aa 3a 3e 62 e3 c7 3d e4 63 b3 be
       0.12911025 0.18229255 0.09760167 -0.35037148
000110 82 11 e8 bd 0b ee 33 3e 96 9c 72 3e 81 c1 2c be
       -0.11331464 0.17571275 0.23692545 -0.16870691
000120 2c 59 51 bd 18 24 a8 3c 43 87 bb 3d 50 f0 7f 3e
       -0.05111043 0.020525023 0.091566585 0.24994016
000130 11 13 7b be a6 34 64 3d 73 34 8f be c2 3f ae bd
       -0.24518992 0.055714272 -0.27969703 -0.085082546
000140 0c 17 e1 3d ea cc 6b be 66 fd 5c 3e 32 4d a6 be
       0.10990724 -0.23027387 0.21581039 -0.3248077
000150 8e ca 1f be ac 98 b1 3e f7 dc 51 bd 85 26 89 bd
       -0.15604612 0.34686792 -0.05123612 -0.066968
000160 77 de e9 bd 6e 4c 9d 3e e6 6a 7e bc b6 ac 14 bd
       -0.11419385 0.30722374 -0.015528416 -0.036297522
000170 b9 0a 6a 3e 58 d6 29 be 71 16 f1 3b 57 f2 8e 3d
       0.22855653 -0.16585672 0.0073574116 0.069798164
000180 24 ae a5 be 60 87 25 3d af 91 56 3e 3c f2 52 be
       -0.3235942 0.040412307 0.20954011 -0.20600218
000190 2f 4c 1c 3e 8f c7 fa 3d fa 33 4b be 9d a9 88 3e
       0.15263437 0.12245094 -0.19844046 0.26691905
0001a0 db f7 02 3d 64 ea 8c bb b4 56 49 be 10 23 07 be
       0.031974655 -0.0043004025 -0.19661981 -0.13196969
0001b0 20 28 84 be be 2b f7 3d 17 72 04 3e 49 ad 73 3e
       -0.25811863 0.1206889 0.12934147 0.23796572
0001c0 a8 73 a3 3d 76 39 60 3e f0 e9 be 3d 05 1e 1a 3e
       0.07981044 0.2189692 0.09321964 0.15050514
0001d0 fb 53 87 be 35 55 52 bd 5f 6c 11 be 40 7f 2d be
       -0.2643126 -0.05135079 -0.14201497 -0.16943073
0001e0 96 5c 5b 3d 49 65 a9 3e 49 f6 3e be fb 36 28 be
       0.053555094 0.33085087 -0.18648638 -0.16427223
0001f0 95 12 28 3e 00 41 1b 3e 3e af fa 3d 86 13 42 3d
       0.16413338 0.15161514 0.12240456 0.0473819
000200 8b 25 1b be 70 12 80 3e 1b b6 92 3e fe 16 27 3e
       -0.1515104 0.25014067 0.2865456 0.16317365
000210 f8 fd 50 3e f7 76 51 be 0c 71 a0 bd 1a 75 03 3d
       0.20409381 -0.20455538 -0.07834062 0.0320941
000220 7a e8 f7 bc bf 23 d3 bd f3 24 7a 3e 3e b9 d5 3d
       -0.03026222 -0.103095524 0.24428158 0.10435723
000230 9e 72 69 bd 58 68 8d 3e db e3 29 3d 88 97 eb 3d
       -0.056994073 0.2761867 0.041477066 0.11503512
000240 66 b6 63 3d e5 2f e6 3b 53 07 c9 bd f2 5f 7f 3e
       0.05559387 0.0070247524 -0.0981585 0.24938944
000250 6f bc 02 bd 66 7a 39 bd 0e d5 3f 3e f1 68 27 be
       -0.031917986 -0.045282744 0.18733618 -0.16348626
000260 fd c1 30 bd b9 51 00 3e db 7a 0d be c9 ab ad bd
       -0.04315375 0.12531175 -0.13816397 -0.08480031
000270 10 7b 04 be b8 f6 30 bd 5b ed a6 be 99 97 90 be
       -0.1293757 -0.04320404 -0.32602963 -0.2824066
000280 75 e9 8e 3e da 9e 21 3e ca 86 1f 3e f3 d3 f7 3d
       0.2791249 0.15783253 0.15578762 0.12100973
000290 9f ee f1 3d 45 db 82 be 51 08 52 3e e5 a9 96 be
       0.118130915 -0.25557914 0.20510985 -0.29426494
0002a0 00 6b 51 3e 8d b6 aa bd ff 94 02 be b1 81 67 3e
       0.20450974 -0.083356 -0.1275215 0.22608067
0002b0 24 03 60 be 57 ca 4c 3e 7d 3f 72 bd 75 c7 9c bd
       -0.21876198 0.19999062 -0.05914258 -0.07655231
0002c0 8c 8d 87 be 13 0d 97 be 7b 6f ae bd 5d 74 b3 bd
       -0.2647518 -0.29502162 -0.08517357 -0.08762429
0002d0 09 0b 72 be eb ec 34 3e 71 9a a4 be 84 85 50 3d
       -0.23637022 0.17668502 -0.3214908 0.05090858
0002e0 c3 4e 8c bd 52 3c 58 be 4f 27 b1 be 76 cd 0b be
       -0.0685096 -0.2111676 -0.34600303 -0.13652596
0002f0 ac 6a 98 3e 0b 10 82 be d3 11 a5 be 97 94 b3 bd
       0.29768884 -0.25402865 -0.3224016 -0.08768576
000300 b8 56 33 be 2c 3e 35 be 6b b2 b0 3d 15 fb b6 3d
       -0.1751355 -0.17699498 0.086277805 0.08934609
000310 e4 c4 b1 bc 5f 80 70 3e 60 86 6e 3e a8 a1 93 3d
       -0.02170033 0.2348647 0.23293447 0.07208568
000320 75 95 15 be 4a 0b c6 3e 48 d0 3b be 85 61 fb 3d
       -0.14607795 0.38680488 -0.18341172 0.1227446
000330 44 5b 04 3d eb 7f 92 bd 11 3a 33 be 7c d4 b0 be
       0.0323136 -0.07153305 -0.1750262 -0.34537113
000340 0d 11 38 3d fa 66 60 3e 01 87 d5 bd e9 b5 42 3e
       0.044938136 0.21914282 -0.104261406 0.19014706
000350 21 4e bd 3c ce 19 ba 3e 1f 45 75 3d 2d 18 1d 3e
       0.023108544 0.36347812 0.059880372 0.15341254
000360 31 82 c0 be 45 a4 c5 3e fe 96 90 bd 11 73 c6 3e
       -0.37599328 0.3860189 -0.070600495 0.38759664
000370 32 e2 6b 3e f0 d1 11 3d c2 b6 69 bd 2a 5a 45 3d
       0.23035505 0.035600603 -0.057059057 0.04818169
000380 62 6b 41 3e 21 9d 4e bd c2 5a 55 be 2c ac 37 be
       0.1888862 -0.05044282 -0.20835403 -0.17936772
000390 1f 63 fe bd 10 93 ae 3d 2b 64 36 3e 0d b2 99 bd
       -0.124212496 0.08524144 0.17811649 -0.075046636
0003a0 b0 e2 8f 3e 78 44 93 be fc 4d 40 3e 69 ef 37 be
       0.28102636 -0.28763175 0.18779749 -0.17962421
0003b0 41 dc 42 bd 24 90 9f be e3 46 58 be 8c e7 c7 3e
       -0.04757333 -0.31164658 -0.21120791 0.39043844
0003c0 8e 50 2d 3e 99 9b 69 3e 9b 9b 44 be c8 50 8f be
       0.1692526 0.22813262 -0.19199984 -0.2799132
0003d0 cf 2f 64 bc 90 fd ce 3e 64 25 25 3d c1 41 3c be
       -0.013927414 0.40427828 0.04031886 -0.18384458
0003e0 7a 93 01 be 9a db fd bd a4 33 2d 3e 0a 9f a4 3d
       -0.12653914 -0.12395401 0.1691423 0.08038147
0003f0 fb 4c a7 be 8b 50 2c be 89 d8 2a 3e 0e 41 e6 3c
       -0.3267592 -0.168276 0.16684164 0.028107192

weight_hh_l0 f4 [40, 10]
000000 18 e2 b4 3d 4a 23 ae 3e 74 a5 6d be 83 59 18 be
       0.088321865 0.34011298 -0.23207647 -0.14877896
000010 b2 48 b5 3c 03 92 6b bd 1f 3a 4c 3e af 91 47 3e
       0.02212939 -0.057512295 0.19944046 0.19489168
000020 72 90 bf bd d8 34 84 be 9c 1b 99 3b 8a a0 60 bd
       -0.09353723 -0.25821567 0.0046724807 -0.054840602
000030 95 31 51 be 08 53 06 3e fc f2 5e be 20 a6 eb 3d
       -0.2042907 0.13117611 -0.21772379 0.11506295
000040 27 9a bc be 4b a1 bb be dc 71 26 be f7 d6 ee 3d
       -0.3683636 -0.36646494 -0.16254371 0.11662095
000050 e7 49 c5 bc 2e 6a 53 be 39 e3 30 3e c2 32 c7 bd
       -0.024083091 -0.20645973 0.17274179 -0.09726478
000060 85 b9 96 3e f1 ec 63 be 8e 5e 9e bc 70 91 50 be
       0.29438415 -0.22258355 -0.019332197 -0.2036798
000070 4b 61 b8 3d e9 ac 29 bd f2 4f 81 be 43 3b 2c 3e
       0.09002932 -0.041424666 -0.25256306 0.16819482
000080 b6 1c 83 3e 74 1a de bd c0 c8 1b be 57 c2 39 3e
       0.25607842 -0.10844889 -0.15213299 0.18140541
000090 ec 63 9d be 7b e1 27 3e 0a 75 2f 3e 4e 0a 43 be
       -0.30740297 0.16394608 0.1713449 -0.190469
0000a0 9f 13 6f be 98 24 8e bd ff 62 81 3e 91 bc 8c be
       -0.23347329 -0.069405735 0.2527084 -0.27487615
0000b0 02 26 9d 3e b7 9e 0a 3d cf 86 68 be cb e7 3b be
       0.3069306 0.03384277 -0.22707675 -0.18350141
0000c0 36 2a ec bd 84 15 9e bd 1d 05 5c 3e 00 a3 8b 3e
       -0.115314886 -0.077189475 0.21486326 0.27272797
0000d0 b7 b9 3a 3e 52 b6 77 3e 33 f6 b0 3e 8d 77 4b bd
       0.18234907 0.24190643 0.34562835 -0.04967456
0000e0 db e9 9b 3d 6e 29 65 3e 26 06 b9 3d 12 97 65 be
       0.07612964 0.22379085 0.09034376 -0.2242091
0000f0 dc 5f ad 3e 32 eb 14 3e 6c 3e b1 3d ba 26 81 3e
       0.33862197 0.14542845 0.08654484 0.2522486
000100 e3 6a b8 bc b3 65 33 3e c3 d9 40 be 41 83 98 bd
       -0.022511905 0.17519264 -0.1883307 -0.0744691
000110 eb e8 7f be 72 b1 33 3e 2f 1f 2e be ba bf 46 be
       -0.24991195 0.17548159 -0.17004083 -0.19409075
000120 6f 38 8a bd 91 6c 31 be dd 65 11 be 94 59 d7 3d
       -0.06749045 -0.17326571 -0.14199014 0.105151325
000130 17 76 a8 3d 2c 37 08 3e 89 ad 4e 3e fc f9 b6 3d
       0.08225649 0.13302296 0.20183386 0.089343995
000140 b4 f3 01 3e 39 47 50 3e 80 39 95 3e c6 e4 c4 3d
       0.12690622 0.2033967 0.29145432 0.096139476
000150 3d 5b 1c be cd 8a 67 3d 09 b1 83 bd d5 09 9f be
       -0.1526918 0.056528855 -0.06430251 -0.3106219
000160 34 44 9e 3d 7c 4b 9b be 79 5f 0c be b0 aa d0 bb
       0.077278525 -0.30331028 -0.13708295 -0.006368004
000170 4a bf 51 3e 3a 32 31 3e 67 f5 64 3d 69 4e 63 be
       0.20483127 0.17304316 0.055898096 -0.2219788
000180 6b 7e 7e bc 3c 6d 22 be 95 5b 18 3d 8a 71 b1 be
       -0.01553307 -0.15861982 0.037196714 -0.34656936
000190 e6 21 99 3e 9b 58 bc bd 88 14 d2 3e 26 d5 5d 3d
       0.29908675 -0.09196588 0.4103129 0.054158352
0001a0 9c 05 2a 3e 4e 3e c1 3e 7a d3 d0 bd 94 ef 7e 3d
       0.16603702 0.37742847 -0.10196586 0.0622402
0001b0 55 25 a8 bc c0 0b c3 3c be ce 89 3d 05 d9 d8 3e
       -0.020525614 0.023809314 0.06728886 0.42353073
0001c0 fd 25 10 3e 31 c2 58 3c 5e 89 7e 3e a6 af ff bd
       0.14076991 0.013229893 0.24857089 -0.12484674
0001d0 1b 2f ad bd b6 b9 4e be 6a 51 cc be fd f7 a2 bc
       -0.0845625 -0.2018803 -0.39905864 -0.01989364
0001e0 0b 1f 53 3e b5 5e e3 3d a9 20 ae 3e ee ce 0e 3e
       0.2061731 0.11102048 0.34009293 0.13946125
0001f0 5f 41 2f 3e a4 cd ad 3e 36 61 ef bd b5 27 2e be
       0.17114781 0.33945954 -0.116884634 -0.17007335
000200 04 d4 b7 be 13 e5 0e be 25 4b 56 3e a0 fd cd 3e
       -0.35903943 -0.13954572 0.20927103 0.40232563
000210 f8 e5 92 3e b8 a5 ab be bb 2f a2 3d d7 de f8 bd
       0.28691077 -0.3352487 0.0791926 -0.12151878
000220 8c 01 00 3e ed 9b f0 bd 8d be dd be 8c 72 c7 bd
       0.1250059 -0.117484905 -0.4330944 -0.09738645
000230 50 20 c0 3d 82 71 85 be da 21 c7 bd 2e 8b 27 3e
       0.09381163 -0.26063162 -0.097232535 0.16361687
000240 e0 2a a0 3d 43 60 bc bb f5 8a 85 3e bd 7b 82 3e
       0.07820678 -0.00574878 0.26082578 0.2548503
000250 de 74 a4 3a 55 77 20 be 11 c4 91 bd c8 c9 42 3e
       0.0012547036 -0.15670522 -0.07117475 0.19022286
000260 68 db 3d 3e cd 60 37 3c 2e ba 92 3e d7 93 e4 bc
       0.18540728 0.011192513 0.2865767 -0.027902527
000270 75 87 ad be 7e fc 44 bd bf 03 c5 bc b6 b2 c8 be
       -0.33892408 -0.048092358 -0.024049638 -0.39198846
000280 19 a3 63 3d 74 1b 23 3e 34 b6 4d bd 03 aa c7 3d
       0.055575464 0.15928441 -0.05022259 0.09749224
000290 e5 61 fb bd b3 c0 b5 3e aa 1a f2 bd 27 52 72 bd
       -0.12274531 0.3549858 -0.11821492 -0.059160378
0002a0 87 2d b8 3d 4d 75 49 3b 38 8e 42 3e 1b 59 33 be
       0.08993059 0.0030740083 0.18999565 -0.1751446
0002b0 4e 09 0a 3e f5 2c 2f bd 79 ca c0 3e c8 ea e4 3d
       0.13480112 -0.042767484 0.37654474 0.111775935
0002c0 7f 92 85 3e 86 75 ee bc 26 87 d5 bd 03 6e a3 be
       0.2608833 -0.029108774 -0.10426168 -0.3191987
0002d0 af 50 d3 3c 88 17 b4 b9 54 1a d4 3e 30 f5 4d be
       0.025795309 -0.00034349808 0.41426337 -0.20113063
0002e0 9e ff 91 3e cb f8 f4 3d 1b c8 f7 bd a5 ae e2 3c
       0.28515333 0.11961516 -0.12098714 0.027671168
0002f0 f2 69 ad be 6f 6c 1b 3e 2c 9a 27 3e 75 6a 8c 3e
       -0.33869892 0.15178083 0.16367406 0.2742497
000300 f1 81 e0 3d 91 97 0c be a9 66 75 be 9d 4c b4 bc
       0.10962284 -0.13729693 -0.23964943 -0.022009188
000310 b0 2e 76 bd 8f ee d8 bb 7e bb 10 3e d2 d3 32 bd
       -0.06010312 -0.0066202353 0.14134023 -0.04365904
000320 e8 c2 26 be 6a 23 6f 3e 6a 01 34 3e 4a ad de bd
       -0.16285288 0.23353353 0.17578664 -0.10872896
000330 3f 8b 16 be ec 93 b0 bc c0 4e 9b 3d f6 f3 e1 3b
       -0.14701556 -0.02155491 0.0758338 0.0068955375
000340 71 30 1e bc 6c 90 03 3d 54 c6 90 be 25 ba e0 bd
       -0.009655104 0.032120153 -0.28276312 -0.10973004
000350 e1 e8 c6 3e c0 a8 4c bc 10 b1 2f 3e 4a 14 1b be
       0.38849548 -0.012491405 0.17157388 -0.15144458
000360 30 ed 64 bd 39 17 2e be d6 93 92 3d 7c 8b cd be
       -0.055890262 -0.17001046 0.07157104 -0.4014548
000370 06 e9 ab bd 5a f2 cc bd d9 d6 b5 3e 55 71 9e 3b
       -0.08394055 -0.100071624 0.35515478 0.0048352876
000380 13 21 c6 3d b7 0a be 3e 81 34 c9 bd 3a dd 43 be
       0.09674277 0.3711755 -0.098244675 -0.1912736
000390 da 75 0e 3e df 20 ff 3c b8 ba 5c be 02 d2 3f bc
       0.13912144 0.031143604 -0.21555603 -0.011707785
0003a0 5f 96 07 be fe f7 b1 3d ef 1f 7d bc a5 0b 5e 3e
       -0.13240956 0.08689879 -0.015449508 0.2168413
0003b0 09 ce a1 3d d5 0a 82 be 8c b0 e5 3d 62 ff 05 bc
       0.07900626 -0.2539889 0.11215314 -0.008178564
0003c0 12 a8 92 be d2 6d 9b bd f4 0e ba 3e f4 53 f8 3d
       -0.28643852 -0.07589306 0.36339533 0.12125388
0003d0 86 54 4d be bf 18 b4 bd 23 50 56 bd ac 51 f1 bd
       -0.20051774 -0.087937824 -0.052322518 -0.11783156
0003e0 55 46 dc 3d 08 bb 89 be 65 85 b6 3c de 25 10 be
       0.10755602 -0.26900506 0.022280404 -0.14076945
0003f0 33 45 9e 3e 2b 47 9d be 47 b2 7e 3c f3 4a 75 3e
       0.3091217 -0.3071836 0.015545434 0.23954372

bias_ih_l0 f4 [40]
000000 2d 5e 4a bd 90 3c a7 3e e1 8c e2 3d 5c fd ba bc
       -0.04940622 0.32663393 0.11062027 -0.02282589
000010 51 3f 36 3d a1 6d 38 be 08 9b 24 3e 40 0a 83 be
       0.044493977 -0.1801057 0.16074765 -0.25593758
000020 fa 90 b3 3d 0d e3 93 3e 16 17 73 3e 1f 66 a1 bd
       0.087678865 0.28884163 0.23739275 -0.07880806
000030 9b 5f fa 3d bf 1b a8 3d cf e8 ab 3e 88 0b a5 3d
       0.122252665 0.08208417 0.33576056 0.0805884
000040 55 15 a2 bc 8f 5c 8d be 2e 13 1e be b5 5a 3b bd
       -0.019785563 -0.2760968 -0.15437004 -0.0457408
000050 02 63 2f 3e d0 c5 b0 3e 1b 6c a9 bd b3 9d 4b be
       0.17127612 0.3452592 -0.082725726 -0.19884376
000060 cd ab 1b bd 9f 10 1f 3e 0f 9b 3a be 5b c4 0f be
       -0.03800564 0.15533684 -0.18223213 -0.14039747
000070 a6 2b a8 be df ea 91 be b5 fd 37 be 7a 1a 44 bd
       -0.328458 -0.28499505 -0.17967875 -0.047876813
000080 4e 56 8c 3e 21 11 b3 bd de c0 c1 bd f8 e3 79 be
       0.27409595 -0.087435015 -0.094606146 -0.2440337
000090 40 05 42 3b 02 1b 1b 3e c4 01 dc bd 92 a0 a9 3e
       0.002960518 0.15147021 -0.10742524 0.33130318

bias_hh_l0 f4 [40]
000000 13 60 ea bc d2 76 18 3e b6 c5 5e be 48 87 9d 3d
       -0.028610265 0.14889076 -0.21755108 0.076918185
000010 0a 31 ea 3d 15 73 9d 3e 56 a3 4c be 4b 51 9d 3e
       0.11435135 0.30751863 -0.19984183 0.30726084
000020 cf b6 ed bd 47 78 06 be be 09 5e bd 13 27 99 3a
       -0.116071336 -0.1313182 -0.05420851 0.0011684619
000030 4a be a6 3e 80 dd 26 be f9 52 a7 3c 8d 51 7a bd
       0.32567054 -0.16295433 0.020425307 -0.06111293
000040 d6 52 19 3d 8c 28 0f 3e 2f 2f 71 3e 67 10 6b 3e
       0.037432514 0.13980311 0.23553155 0.22955476
000050 27 1e b5 3e dd ec 4e bd 97 dc 87 3e 00 72 8a 3d
       0.35374567 -0.05051886 0.26535484 0.06760025
000060 ab 50 ae ba 7c 8c a7 3e 12 22 b6 be 14 e4 5c 3e
       -0.0013299187 0.3272437 -0.3557287 0.2157138
000070 d5 70 aa be f5 5f 1c 3e f3 1a b8 3e cb af 4d bd
       -0.3328921 0.1527098 0.3595806 -0.050216477
000080 46 98 b2 bc 6c 67 c5 3e b5 47 b2 3e f5 ea 55 3e
       -0.021801125 0.38555467 0.34820333 0.2089041
000090 e4 d3 7f 3e 11 50 5d be 80 3e 4f bd fa fa cd 3d
       0.24983174 -0.21612574 -0.050596714 0.100576356

weight_ih_l0 f4 [40, 22]
000000 81 f3 85 3e 58 3c 99 3e 84 49 6e be ac 28 1f be
       0.2616234 0.2992885 -0.23270231 -0.15542859
000010 73 49 92 3e 20 50 00 be 00 76 04 be a5 21 72 3e
       0.28571662 -0.12530565 -0.12935638 0.23645647
000020 da f5 65 3e 21 a6 83 3e 4f 9d 88 be a4 d5 ab 3e
       0.22457066 0.25712684 -0.26682517 0.33561432
000030 df fc 45 be 61 82 a0 3e ed e9 b8 bc a4 eb 15 be
       -0.19334744 0.3134947 -0.022572482 -0.14640671
000040 73 f7 2f be 37 4d 3c be 6d a6 74 3e e6 0e a3 3e
       -0.17184238 -0.1838883 0.23891611 0.31847304
000050 84 fe 83 3e 3a 15 95 3e 16 1f 03 be 34 04 dc 3d
       0.25780118 0.29117757 -0.12804827 0.10742989
000060 f4 58 6a bd 70 84 5a bd cc 64 24 be fe ac 21 3d
       -0.05721374 -0.05334896 -0.16054076 0.03947162
000070 c4 a2 59 be 57 a3 32 3d aa bb 2d be 2b d8 51 3e
       -0.21253496 0.043612804 -0.1696612 0.20492618
000080 7e d1 f0 3d ba ce 93 3e 7d 6b 7d be 97 ba 72 3e
       0.117587075 0.28868657 -0.24748035 0.23703991
000090 cc d0 10 3e 2c 5b 44 be 4f 1e 17 3e e5 5f 9b 3e
       0.1414215 -0.19175404 0.14757656 0.303466
0000a0 24 9e 9a be e8 36 17 3b aa e0 67 3e 66 c1 a8 bd
       -0.30198777 0.0023073498 0.22644296 -0.08240013
0000b0 7d c5 47 be a7 96 20 be 1d 8b d0 bd 32 52 8b 3e
       -0.1950893 -0.1568247 -0.10182784 0.27211148
0000c0 77 33 02 be ee 12 47 3e 4e d1 92 3e 89 18 08 be
       -0.12714945 0.19440815 0.28675312 -0.1329061
0000d0 c0 94 8b be cd f5 7c 3e b3 26 87 3e 2d 99 85 bd
       -0.27261925 0.2470314 0.26396713 -0.065233566
0000e0 94 47 8e 3d 49 22 4d 3e 6b f2 ba bd fc a5 b3 3e
       0.06947246 0.2003261 -0.09128269 0.35087574
0000f0 33 60 1e 3c df 1d 60 be 4c e1 45 be e0 2d a9 b8
       0.00966649 -0.21886395 -0.19324225 -8.067093e-05
000100 00 b3 86 3e eb 1f 72 3e d2 d9 fd 3d e8 0c 04 3e
       0.2630844 0.23644988 0.123950616 0.12895548
000110 a2 e7 c3 3d a3 4f ba 3e 2f 84 84 be b6 0b 70 3d
       0.09565665 0.36388883 -0.25882098 0.05860492
000120 55 76 e5 3d 75 24 18 be 67 b0 e3 bd e8 52 da 3c
       0.11204211 -0.14857657 -0.111176305 0.02665086
000130 ed 0d 15 3e ea 60 47 3e 4e 2d 22 be 4e 99 b2 3e
       0.14556094 0.19470564 -0.15837595 0.34882587
000140 62 83 a0 be fd 01 a3 3e a5 7f 98 3e ad a7 82 be
       -0.31350237 0.31837454 0.29784885 -0.2551855
000150 cd c8 16 3e 68 9e 0b bc 4c 23 19 be bd f6 86 3e
       0.14725037 -0.008521654 -0.14954871 0.2636012
000160 c9 5a dd 3d 4e bf a4 3e b3 99 7d 3e 19 75 49 3d
       0.108083315 0.32177204 0.24765663 0.04918394
000170 3d 91 65 3e 51 dd 92 be 1e 98 85 be 61 c1 4c 3e
       0.22418685 -0.28684476 -0.2609262 0.19995643
000180 26 3f 96 be 3c 49 02 be 85 91 7c 3e ed 24 37 3d
       -0.29345053 -0.12723249 0.24664886 0.04471295
000190 89 4d 94 3e 4d a8 80 be ec 92 a0 be 41 71 1a 3e
       0.28965405 -0.25128403 -0.31362092 0.15082265
0001a0 56 41 97 3e ed 5b a2 3e 27 ae 42 be 4a 49 89 be
       0.29542035 0.3171076 -0.19011746 -0.26813728
0001b0 a8 9b 64 be 01 d2 3c be fb a9 88 bd 59 51 ba bd
       -0.22325003 -0.18439485 -0.06673046 -0.09097547
0001c0 8a de af bd bc 19 18 be f7 1d ab bd ed 3e 85 3d
       -0.08587368 -0.14853567 -0.08355325 0.06506143
0001d0 0c f6 0e 3e 32 5e 71 be 93 ac 66 be 8c 3f 94 3e
       0.13961047 -0.23571089 -0.2252677 0.28954732
0001e0 cb 07 9a 3e 8e b4 32 3e ce c3 48 3e 38 94 76 3e
       0.3008407 0.17451689 0.19605944 0.24079978
0001f0 18 4e 97 3d d5 0e 88 be 58 8c 3e be 5a 8c 6c 3e
       0.07387942 -0.26573816 -0.18608224 0.23100415
000200 f8 c1 25 bc 8a 7e 7d 3d 3f 80 f3 3c a8 14 f8 3d
       -0.010117047 0.061888255 0.029724238 0.12113315
000210 43 a4 50 be 40 a3 3b 3e bb f8 32 3e d6 65 5f be
       -0.20375161 0.18323994 0.17477696 -0.21816191
000220 84 b3 3a 3e 5a 36 19 be 86 8d 68 3e c5 a4 87 3e
       0.18232542 -0.1496214 0.22710237 0.26492897
000230 13 c1 09 be 41 08 3f be 5b 30 13 3e ec 32 95 3e
       -0.13452558 -0.18655492 0.14373915 0.29140413
000240 16 b3 0f 3e 22 d7 79 3e 5d 2d 8c be 85 d6 53 be
       0.1403316 0.24398473 -0.2737836 -0.20687301
000250 89 d8 a2 bd 54 e3 6d be 34 ac 32 bb aa d9 be 3e
       -0.07951457 -0.2323125 -0.0027263286 0.3727544
000260 3f 3d 93 3e 91 f8 97 3d 5d 59 98 3d e5 70 ac 3b
       0.28757665 0.07420457 0.0743892 0.0052624815
000270 5c c4 ad 3e 9f 4b 3f 3e 7d dc d5 3d bd 92 29 be
       0.33938873 0.18681191 0.104424454 -0.16559882
000280 2a 45 9b 3e ce 7e de bd 1b 5c 87 3e 06 71 55 bd
       0.30326205 -0.1086403 0.26437458 -0.05210974
000290 03 eb 56 be 8f e2 1b be 9a b5 15 3e bb 89 00 3e
       -0.20988087 -0.15223144 0.14620057 0.1255254
0002a0 8e 48 c0 3d 52 54 29 3e 45 80 78 3e ea 32 e7 3c
       0.09388839 0.16536072 0.24267681 0.02822252
0002b0 e1 1d 42 3d f8 53 26 be cf d5 4d bd 33 84 1e 3d
       0.047391776 -0.16242969 -0.050252732 0.038700294
0002c0 db f8 3a be e0 f7 64 be 5e be 81 be d8 ee e0 bd
       -0.18258993 -0.22360182 -0.2534055 -0.10983056
0002d0 88 54 69 be 00 e0 99 3e 75 ef 32 3d 75 5b fe bd
       -0.22786152 0.3005371 0.043685395 -0.12419788
0002e0 23 7b 1f 3e 9f ad 40 be 8e 1d 33 3d 6f 6d d4 3d
       0.15574317 -0.18816231 0.043729357 0.10372435
0002f0 c4 76 88 be cc 58 8a be 32 51 ae be 6a cd 26 be
       -0.2665311 -0.27020872 -0.34046322 -0.16289297
000300 19 0e e2 bd 70 0a 9f be 42 91 49 be 08 1f 51 be
       -0.11037845 -0.3106265 -0.19684318 -0.20421994
000310 8d e6 a0 3e 53 e2 4b be b4 2e f4 bd cb 84 8d bd
       0.31425896 -0.19910555 -0.119229704 -0.06910094
000320 87 58 86 be c3 83 c7 bd b7 33 80 3e 8e 9d af bc
       -0.26239416 -0.097419284 0.25039455 -0.021437433
000330 be 5a 34 3e c0 ae b1 3d a6 27 bb bb d2 92 ca bd
       0.1761274 0.08675909 -0.0057115136 -0.09891285
000340 3d 8a 88 3e 03 dc 74 3e 12 17 b3 3e c4 3a 61 3e
       0.26667967 0.23912053 0.3497854 0.21995074
000350 4d 84 50 bd a3 21 6a 3e 94 7b 5f 3e 7b 46 9b be
       -0.05090742 0.22864394 0.21824485 -0.3032721
000360 52 33 aa bd 8c 46 97 be 76 7f 6a 3e 53 1f 8d 3e
       -0.0831057 -0.2954601 0.22900185 0.2756296
000370 4a e1 da bd 60 76 ce bd ee 6e 57 be 43 fe 3d 3e
       -0.10687502 -0.10081172 -0.2103841 0.18554024
000380 0e 99 00 be 58 86 95 3e fb 31 d3 bd d1 54 a1 3e
       -0.12558386 0.2920406 -0.103122674 0.31510022
000390 1d 11 36 3e 1d e8 86 3e d7 70 04 be e0 fa 10 bc
       0.17779966 0.26348963 -0.1293367 -0.008848876
0003a0 50 53 7e be bc 17 2b be 8d 46 c0 3d 00 95 c7 3d
       -0.24836469 -0.16708273 0.093884565 0.09745216
0003b0 65 29 ad 3c 09 53 07 3e 65 58 50 bd fe bd 1e 3e
       0.021137903 0.13215269 -0.05086555 0.15502164
0003c0 d3 c6 7c 3d a2 2c 4a be f8 32 f5 3d f1 6e 5f be
       0.06171305 -0.19743589 0.11972612 -0.21819665
0003d0 37 e2 56 be 25 67 c9 3d 89 d0 d1 bd 66 86 eb bc
       -0.20984732 0.098341264 -0.10244853 -0.02875061
0003e0 f3 55 9f 3d 34 14 45 3e a4 64 af 3d d8 6c 8d be
       0.077800654 0.19245988 0.085641176 -0.27622104
0003f0 05 ce 9c be 87 f0 89 3e a1 dd a3 3e 5c 89 03 3e
       -0.3062593 0.2694132 0.32005027 0.12845367

weight_hh_l0 f4 [40, 10]
000000 82 b1 28 bd a1 8b 35 3e 06 c1 92 3d af e9 12 bd
       -0.04118491 0.17729045 0.071657225 -0.03586739
000010 fe bf 80 be 51 96 63 3e f4 d6 22 3d f1 c4 6d be
       -0.25146478 0.2222531 0.039755777 -0.23219658
000020 65 7c 31 be f4 c9 ae 3d a3 e7 a8 3c 7e 28 50 3e
       -0.17332609 0.08534613 0.020618265 0.20327947
000030 66 f1 82 3e 7d 9e 06 be c3 60 8d be b2 09 26 bd
       0.25574797 -0.13146396 -0.27612886 -0.04053659
000040 c0 18 b5 bd b0 be 12 3c 08 72 97 be 0c 5c ad 3e
       -0.08842611 0.008956596 -0.29579186 0.3385929
000050 c7 05 9a 3d ce 9b 6c be a1 2e b3 3e 17 8b f3 3d
       0.07520633 -0.2310631 0.34996513 0.11891764
000060 d7 1b 44 be 84 29 36 3e ba 6e af be f5 8d 1d 3d
       -0.19151245 0.17789274 -0.34264165 0.03846546
000070 c2 ed 08 bd a7 22 0f be c9 b3 d3 3b 95 1e 9d be
       -0.03342987 -0.13978063 0.006460641 -0.30687395
000080 54 19 b0 3d 94 d1 bf bd 02 83 b9 3d 30 e9 04 3e
       0.08598581 -0.09366146 0.09058191 0.12979579
000090 ca b8 5b be b8 3e 82 3e 6b 4d b6 3d aa aa 48 be
       -0.2145721 0.25438476 0.08901485 -0.19596353
0000a0 fd f1 4a 3e 60 9b 6a 3e 5d 17 63 3e 3f 87 47 3c
       0.19818874 0.22910833 0.22176881 0.012178241
0000b0 61 93 91 be 36 0f a7 be d9 54 2a be dd 32 8b 3e
       -0.28432754 -0.32628793 -0.1663393 0.27187243
0000c0 0f 51 7b bd 9d 97 60 3e 95 26 8b 3e 81 95 9c be
       -0.0613566 0.21932836 0.27177873 -0.30582812
0000d0 f9 56 48 bd 15 09 b4 be 19 62 7e bc 5a 78 a2 bd
       -0.04891107 -0.3516318 -0.015526318 -0.079331115
0000e0 30 e7 84 be 0b 50 1e bc a8 19 92 be fe 15 da bd
       -0.25957632 -0.009662638 -0.285352 -0.10648726
0000f0 7d 76 56 3e 70 bb 00 bd 20 3b 28 be 98 64 c6 bd
       0.20943637 -0.031428754 -0.16428804 -0.096871555
000100 78 df cf bd 3c 24 c1 be f5 d1 05 3e 0d b4 41 be
       -0.10150045 -0.37722957 0.13068374 -0.1891634
000110 88 60 32 3e 92 89 15 be 42 6b 5a bd 88 7d 84 be
       0.17419636 -0.1460326 -0.053324945 -0.25877023
000120 8e fb b1 bc b8 7b 32 3e dc 66 3f be 10 bb 5b be
       -0.021726396 0.17430007 -0.18691581 -0.21458077
000130 55 a1 3c 3e d3 31 f7 3d 9d 46 e9 3d 54 95 9c be
       0.18420918 0.1207005 0.113904215 -0.30582678
000140 a2 9e e4 3d 28 8c 88 be 42 54 6b bd 86 40 2d 3c
       0.11163069 -0.2666943 -0.0574534 0.010574466
000150 87 f4 c0 3c 75 5e 57 bc 72 db 66 3d 1f 7e b2 3e
       0.0235541 -0.013145079 0.056361623 0.34861848
000160 c8 a6 17 3e eb 38 ad bc b2 1f 89 3e 05 57 13 3e
       0.14809716 -0.021145305 0.26781994 0.14388664
000170 8a ab 38 3e 8f 54 a9 be 5e 62 5d be 39 46 99 be
       0.18034187 -0.33072326 -0.21619555 -0.29936388
000180 7b 21 0b 3e b5 c6 7f be 7a 29 ea bb 5e fc 94 3e
       0.1358699 -0.24978144 -0.0071460577 0.2909879
000190 45 cc 75 be b0 ab a1 3d 11 6e 9e bd 78 03 57 3d
       -0.24003704 0.07894075 -0.07735837 0.052493542
0001a0 d9 17 c0 bd 44 bf 19 3e 3f 5d 25 be 73 ba 7a bd
       -0.093795486 0.15014368 -0.16148852 -0.061212968
0001b0 36 12 47 3d 97 e5 27 3e a7 23 c1 be 0d 49 51 3e
       0.04860135 0.16396175 -0.37722513 0.20438023
0001c0 65 0e 10 3d 81 3a 33 3e a3 01 13 3e 81 43 43 bd
       0.035169978 0.17502786 0.14356093 -0.0476718
0001d0 0c 4d a3 be 40 0a 3b 3e ed 05 6c 3e b8 92 86 3c
       -0.3189472 0.18265629 0.23049136 0.016427383
0001e0 27 62 2e bd a3 4f 85 3d d2 0b 75 3e 8d 8e 38 3e
       -0.042574074 0.0650933 0.2393029 0.18023129
0001f0 cf 1e 26 3e 7a e4 1f bd 54 49 aa be 10 b0 cf 3d
       0.1622269 -0.03903625 -0.3325907 0.10141003
000200 e0 bc 28 3c 3e 8b 2b 3e 82 e8 d8 be 54 0a b8 bd
       0.010298938 0.16752335 -0.4236489 -0.08986345
000210 ca af 00 3d 54 b6 26 3e 97 57 1b 3e 0c 69 cc bd
       0.031417646 0.1628049 0.15170132 -0.099809736
000220 87 cf 08 3e 48 7b 5c bd e5 d6 86 3c cc 5e 89 3e
       0.13360415 -0.053828508 0.016459892 0.26830137
000230 ee 4b 9d bc cd 6d 2c 3e 68 08 4b 3c 36 b0 cf bc
       -0.019201245 0.1683876 0.012392141 -0.025352579
000240 31 9c df bd 1f 02 41 bd 36 13 4f 3e 49 82 a8 3d
       -0.10918463 -0.047121163 0.20222172 0.08227975
000250 fb e3 0a be 9e b8 21 3e db 50 15 3e ac 97 32 be
       -0.1356353 0.15793082 0.14581625 -0.1744067
000260 00 b9 23 3d 98 5c 83 3d 73 3b e3 bd 16 33 98 3e
       0.03997135 0.06414145 -0.110953234 0.29726475
000270 09 cb 38 be 80 f9 f2 bd 1e d2 f0 3d 81 1f ab bd
       -0.18046202 -0.118639946 0.11758827 -0.08355618
000280 50 22 59 3e 98 9e 44 be ba 5f 8b 3e a7 d0 bf bd
       0.21204495 -0.19201124 0.2722147 -0.09365969
000290 11 c5 44 3e d5 04 2e be 71 fd bb bd 89 bc 18 be
       0.192158 -0.16994031 -0.091791995 -0.1491567
0002a0 a0 4b 87 3e ca 37 67 3e 25 35 b8 bd 43 92 f1 3d
       0.26424885 0.22579876 -0.089945115 0.11795475
0002b0 08 b4 6a 3e f4 49 de 3d 4d 80 e0 bd aa 46 23 be
       0.22920239 0.10853949 -0.109619714 -0.15944925
0002c0 40 36 6f 3e 6c fd 6a bd 5c 1c b5 bd 62 70 3f be
       0.23360538 -0.05737059 -0.088433 -0.18695214
0002d0 bc c4 87 be 48 a0 ff 3c c8 ac a0 3e 22 81 b4 be
       -0.26517284 0.031204358 0.31381822 -0.3525477
0002e0 ca c6 7b bd 67 30 71 bc 16 ee 39 3e 27 ea 95 3e
       -0.061468877 -0.014721013 0.18157229 0.29280207
0002f0 19 c6 4f 3e b7 ac 4a be 27 b5 27 bd 27 18 b0 3d
       0.20290412 -0.19792448 -0.040944245 0.08598357
000300 a7 74 ac bd f4 d0 15 bb d8 13 e7 bd f0 eb 2f 3c
       -0.08420687 -0.0022860141 -0.11283082 0.010737404
000310 79 c8 78 3e 58 03 89 3e 94 4d 55 bc 04 97 5b bd
       0.24295224 0.26760364 -0.013018984 -0.053610817
000320 a6 14 e4 ba d0 96 03 bd b0 b8 2e be a5 de 8b be
       -0.0017401173 -0.032126248 -0.1706264 -0.27318302
000330 79 27 fc 3a f6 be 8c be b3 05 a6 3e 4c 65 71 3e
       0.0019237838 -0.27489442 0.32426223 0.23573798
000340 0a 7d 5b be 26 a7 26 3e ab d9 00 be eb 20 5a be
       -0.21434417 0.162747 -0.12583034 -0.2130162
000350 68 e0 36 be 8e 7e 0d 3d 4d 13 7a bd fd 65 3c be
       -0.17859042 0.03454452 -0.061053563 -0.1839828
000360 8e 31 de 3d 8a 33 5f 3d 4b 9f 7f 3e e8 41 56 be
       0.108492956 0.05449251 0.24963109 -0.20923579
000370 6b 96 79 3e 5c bd 81 be 88 f3 4f be 9e 0d 73 be
       0.24373786 -0.25339782 -0.20307744 -0.23735663
000380 cc 28 34 be 33 c8 28 3e ed 95 51 3e 1d c2 ad bd
       -0.17593688 0.1648262 0.20467348 -0.0848429
000390 d3 a3 85 bd 6f a1 43 3e 4e c4 83 bd f0 47 56 3e
       -0.065253876 0.19104551 -0.064339265 0.2092588
0003a0 b7 c6 23 3e b7 1c 7f 3e 36 55 69 3e 1d 69 7e 3e
       0.15993772 0.24913298 0.22786412 0.24844785
0003b0 0b 34 7a bd 92 ad e7 bd f9 3e be 3d 3e c3 e8 bd
       -0.06108479 -0.11312403 0.09289355 -0.113653645
0003c0 c4 e9 80 3e d9 65 da 3d 03 d5 8f 3e de c7 39 3e
       0.2517835 0.10663957 0.28092203 0.1814265
0003d0 81 f6 59 3e 80 0e 89 3e d3 eb 94 be 20 6a ab bd
       0.2128544 0.26768875 -0.2908617 -0.08369851
0003e0 c4 3e 78 3e 1c 51 83 be 9d ea 03 3e 7a 0e 63 3d
       0.24242693 -0.2564782 0.12882467 0.055433728
0003f0 28 d3 72 ba 9b cb 0d 3e a7 f1 6a 3d 4e 3e af 3d
       -0.0009263032 0.138472 0.057359364 0.085568056

bias_ih_l0 f4 [40]
000000 69 11 43 be ab 97 80 3e c0 4e 1a 3e 2e 25 99 bd
       -0.1904961 0.25115713 0.15069103 -0.074777946
000010 ab 5b e1 bd c6 f5 f8 bb 95 02 62 3e c6 95 ae be
       -0.110038124 -0.007597658 0.22071297 -0.34098643
000020 90 60 9e 3e f2 7a 4e 3d 43 85 5d bd 3e 05 ab 3e
       0.30933046 0.05041022 -0.054082166 0.33402437
000030 de 7a 45 bd c4 f9 14 3e 17 3b 8b 3e 40 8f 64 be
       -0.04821288 0.14548403 0.2719352 -0.2232027
000040 72 b4 d0 bd b3 b5 4e bc e8 a7 30 3e 71 08 da 3d
       -0.10190667 -0.012616563 0.17251551 0.10646141
000050 4c 4d 9a be 8a b1 3b 3d 34 7f 16 3a c2 77 91 bc
       -0.30137098 0.04582361 0.00057410006 -0.0177573
000060 76 10 0a 3d b2 e7 93 bd 86 d8 06 bd 3b 1a b8 bd
       0.033707105 -0.07221927 -0.032921337 -0.08989378
000070 20 a3 89 3d 17 9f 60 be 25 a4 36 3e 78 5f 6e 3d
       0.06720567 -0.21935688 0.17836054 0.058196515
000080 6a 74 03 be ef 1c 22 3e 17 a2 c4 bd 84 f0 f3 3d
       -0.12837377 0.1583135 -0.09601229 0.11911109
000090 e3 99 cd 3a 76 c8 55 3e bc 06 1d 3d 27 2d 8f bd
       0.0015686121 0.20877251 0.0383365 -0.06991034

bias_hh_l0 f4 [40]
000000 cc b7 8d 3e bf 1e 4a be 61 05 3d be 53 a2 18 be
       0.27679288 -0.19738291 -0.18459083 -0.14905672
000010 db 52 37 3e f4 08 47 3d e2 7f 8d bd 89 47 f8 3d
       0.179027 0.048592523 -0.06909157 0.12123019
000020 17 4d 01 3e 87 3d 00 be 9a 19 b7 3e 3f 5d 44 3d
       0.12627064 -0.12523471 0.3576172 0.04794049
000030 a8 ea 8b 3e 1b 5e 1d bd c9 75 55 3a 69 45 27 be
       0.27327466 -0.038419824 0.00081428565 -0.16335072
000040 ec 3d da 3d b4 98 8f 3c 3e b3 24 3e 5c c9 8b 3e
       0.10656342 0.01752887 0.16084 0.27302063
000050 a2 d7 8e be 32 9f 32 bd 46 4d 05 3e 89 9b 3f be
       -0.2789889 -0.04360885 0.13017759 -0.18711676
000060 0b 13 8d 3e 12 d0 c3 bd e1 d7 52 be bc 33 46 bb
       0.2755359 -0.09561171 -0.20590164 -0.0030243238
000070 f6 0f 14 3d a6 d2 99 be 3c c9 7a 3d ae 14 88 bd
       0.036148034 -0.30043525 0.06122707 -0.06644569
000080 ab 4c 18 be a8 4e 4b 3e 68 93 b9 3e 19 35 65 3e
       -0.14872997 0.19854224 0.36245275 0.22383536
000090 17 0f 49 3e 92 02 82 3e 66 50 93 3e 9b df 5d be
       0.19634663 0.25392586 0.28772277 -0.2166733

weight_ih_l0 f4 [40, 22]
000000 a6 15 bb bc 18 da 7c be a9 d3 a3 bc e2 51 1b bd
       -0.022837471 -0.24692571 -0.019998388 -0.037919886
000010 b4 5b 55 3d 6c 02 63 bd 76 89 8b 3c 35 71 51 bc
       0.052089408 -0.05542223 0.01703332 -0.012783338
000020 21 f0 87 bd 75 39 9b 3e db 2f d4 bd 09 91 b4 3d
       -0.06637598 0.30317274 -0.1036069 0.08816726
000030 f0 7b a5 bd 43 03 53 3e f4 a3 6d 3c ee 97 a4 3e
       -0.0808028 0.20606713 0.0145044215 0.32147163
000040 dd aa 35 3d e3 f3 1c 3e 31 7b b9 bd e2 a6 db 3d
       0.0443524 0.1532741 -0.090567 0.1072519
000050 05 43 bf bd db e6 47 be 69 16 87 3e 4a 66 ba 3e
       -0.09338955 -0.19521658 0.26384285 0.36406165
000060 bf a1 51 3e 4f 5b 2f 3c 03 ce 1b 3e f4 ce 4e 3d
       0.20471857 0.010702922 0.15215306 0.050490335
000070 3a c8 9e bd 9c 60 04 3d 04 12 7d bb b2 2d 82 3e
       -0.07753034 0.032318696 -0.0038615474 0.25425488
000080 1d f9 78 be b1 d9 a5 3e 54 de 14 3e 95 80 6b be
       -0.24313779 0.32392648 0.14537936 -0.22998269
000090 7d 83 0b 3e 65 ed ee 3d aa 24 36 3e ab a7 07 be
       0.13624378 0.11666373 0.17787424 -0.13247554
0000a0 43 d5 87 be 23 2a ce 3d 94 93 d2 bd 81 8e a6 bd
       -0.26529893 0.10066631 -0.102820545 -0.08132649
0000b0 99 db 4d 3e f5 1e 5d 3e 19 bb 82 3e 87 67 7a bc
       0.20103301 0.2159384 0.2553337 -0.015283472
0000c0 4c 4d 5e 3e 24 b0 de 3d 80 73 38 be 94 fa 64 3b
       0.21709174 0.1087344 -0.1801281 0.0034939395
0000d0 f0 bd 31 be 23 61 37 bc da 23 8c be ba 2f 89 bb
       -0.17357612 -0.011192593 -0.27371103 -0.0041865977
0000e0 bc ff 8e be 02 72 24 be 2b 0f 89 bd 01 6a ae 3d
       -0.27929485 -0.16059116 -0.06692346 0.085163124
0000f0 c7 52 0e be 47 e6 7d 3d d8 62 00 3e 6d fe 69 be
       -0.13898765 0.061987188 0.12537706 -0.22850962
000100 8f 0b 05 3d c1 b2 6f 3b f4 8a 97 3d 9f 24 8a 3d
       0.032481726 0.0036575051 0.0739955 0.06745266
000110 22 06 2e be 4d 28 9a 3e 23 c9 e3 bd a9 32 03 be
       -0.16994527 0.30108872 -0.11122348 -0.12812294
000120 d0 1a 69 be 70 de 2a 3e e0 17 4a 3e a2 4b 81 3d
       -0.22764134 0.16686416 0.1973567 0.06313254
000130 3e 04 ba be f5 83 60 bc c7 2a a0 be 00 98 7a 3e
       -0.36331362 -0.013703336 -0.31282637 0.24472046
000140 b3 62 b1 3c 57 3d 92 bb 05 84 0b bd 5c da aa 3c
       0.021653509 -0.0044628787 -0.03406145 0.020856075
000150 7a e9 a3 be 68 bd 2f 3e 22 86 bf 3e 5e 60 a5 3e
       -0.32014066 0.17162097 0.37407023 0.32300085
000160 63 64 a3 be 0f a8 23 be 40 c7 ad 3d 90 34 21 be
       -0.31912526 -0.15982078 0.084852695 -0.15742707
000170 b7 af c9 3c 18 ac 93 3e 3e 97 7d 3e 7c 8a 69 3d
       0.02461992 0.28842235 0.24764726 0.057016835
000180 89 d9 26 be fc c6 be bd 7c 10 60 3e 0d 15 2d be
       -0.1629392 -0.09315297 0.21881288 -0.16902561
000190 4f c9 ab 3d ed 43 eb bc 8a 91 1b 3e e6 4f 80 bd
       0.08388006 -0.028718913 0.15192237 -0.062652394
0001a0 b1 c5 84 be ba dd a3 3d f9 b2 90 3d 7a 1b 28 bd
       -0.25932077 0.08001275 0.07065386 -0.04104183
0001b0 ba cf e9 bc a9 da 9a be 23 ed ce 3d be 1a 06 3e
       -0.028541435 -0.3024495 0.10103824 0.13096139
0001c0 20 a1 2f 3e 79 03 bc 3c 70 d7 61 be 49 a7 80 3d
       0.17151308 0.022950875 -0.22054839 0.06281907
0001d0 68 de 65 be 2e 7b 63 bc 14 fd 58 be 9c 70 35 3d
       -0.22448123 -0.013884349 -0.21190292 0.044296846
0001e0 f6 5f a4 3d b8 2c 6a 3e f0 0f 5c bd 31 c2 31 3e
       0.080261156 0.22868621 -0.053726137 0.17359234
0001f0 a6 ce f8 bc 38 d5 53 be f4 78 5e be 2c b0 75 be
       -0.030371975 -0.20686805 -0.21725827 -0.23992985
000200 29 39 a5 bd 61 4a 12 3e dc 9d e9 bd d8 cc 5f 3e
       -0.08067543 0.14286186 -0.114070624 0.21855485
000210 20 9c 0f bd a2 dc 9c be 4a cb 32 3d 6e ee 87 bc
       -0.035061 -0.3063708 0.043650903 -0.016593184
000220 e0 fa 82 3d 14 8f 33 3e 40 1c ac 3d 5e 49 44 be
       0.06395507 0.17535049 0.08403826 -0.19168612
000230 0d 75 25 be 7a a6 9c 3c bf 63 50 3c 2e 3d 8c 3d
       -0.16157933 0.019122351 0.012719094 0.068476066
000240 e6 79 ae be 0f 3b 13 be 9d 54 91 3d ae f1 b1 3e
       -0.34077376 -0.14377998 0.07096217 0.347547
000250 71 6d 04 3e a0 68 0c be dd f2 53 3e f0 3f 52 3e
       0.12932374 -0.13711786 0.20698114 0.20532203
000260 28 d9 4c 3e fb bd 42 be b4 7e 67 bc 8f 9d 87 bb
       0.20004714 -0.19017784 -0.0141293295 -0.0041386555
000270 fb 4f 5e be d0 64 19 bb 03 72 c5 3d 2a 79 89 3e
       -0.21710198 -0.0023406036 0.09640887 0.26850253
000280 19 c6 e6 bd 0b 85 dd 3c 71 4f 57 be 1a 43 ef 3d
       -0.11268253 0.027040979 -0.21026398 0.116827205
000290 d8 49 c1 bb de cf 8a be 9d d0 61 be 2a fd 00 be
       -0.0058986954 -0.27111715 -0.22052236 -0.12596574
0002a0 c6 bc 94 be 43 a5 3f be 6d dd 12 be a0 18 39 3e
       -0.29050273 -0.18715386 -0.1434228 0.180758
0002b0 9f 42 57 be 8e 9d 4a 3d 78 2f 60 be ab 80 7d 3d
       -0.21021508 0.049466662 -0.21893108 0.061890285
0002c0 05 74 8d 3d 9f 53 8e be e0 f6 9a be c9 3c 96 3e
       0.069068946 -0.27798173 -0.30266476 0.2934325
0002d0 bb ba 8a be 59 13 62 be 7e 42 85 be 68 38 1c be
       -0.2709559 -0.22077693 -0.26027292 -0.15255892
0002e0 1b 99 a6 3e 44 ae c5 bd 00 3e 1a 3e fb 5d bb 3e
       0.32538685 -0.09652379 0.15062714 0.3659514
0002f0 90 06 88 be 0d e1 41 3e f2 07 2f 3e 71 41 90 3e
       -0.26567507 0.18933506 0.17092875 0.28174928
000300 d2 34 62 3e b8 a0 85 3e 53 af aa bd 70 61 2c 3e
       0.22090462 0.2609918 -0.08334222 0.16834044
000310 03 ac 9a 3e c5 12 64 3e c9 5b c0 bd b2 64 25 3e
       0.3020936 0.22272785 -0.09392507 0.16151693
000320 2f 62 86 3d 05 f3 8b be 69 7c a2 be 6b 3f 7c bd
       0.06561696 -0.27333847 -0.31735542 -0.061583918
000330 02 ce de 3c 43 0f 2d 3e 85 b0 2a be 59 e8 93 3d
       0.027197842 0.16900353 -0.166689 0.07222051
000340 b6 bd 0e 3e 24 bd 2e be bf f5 20 3e 10 2a 32 3c
       0.13939556 -0.17064339 0.15718745 0.010874286
000350 18 d0 46 bd f8 45 93 3e e2 b1 32 bd 6e 89 4e 3e
       -0.048538297 0.2876432 -0.043626674 0.20169613
000360 a8 9a a7 bd 40 e0 24 be 92 eb b1 3d dd 66 b1 bd
       -0.08183795 -0.1610117 0.086875096 -0.08662198
000370 25 87 82 3d d8 1d 87 3c 18 ad 9a be 59 40 11 bd
       0.06373433 0.016493723 -0.30210185 -0.035461757
000380 11 ae 78 be ef 04 a6 3e 29 2a 5c 3e 9c 16 5a 3e
       -0.24285151 0.3242564 0.21500458 0.21297687
000390 f1 c5 f5 bd 4b 4e 88 3e bb c9 89 3e 56 15 b1 3e
       -0.12000645 0.26622233 0.2691172 0.3458659
0003a0 c5 80 5f 3e f4 7a b8 bd 49 54 b5 bd ba 3e e2 3d
       0.21826465 -0.090078264 -0.08853967 0.110471204
0003b0 a1 eb 9f be b4 1d 9b 3c 3b 06 81 3e 5f c3 8f 3e
       -0.31234458 0.018935062 0.25200066 0.28078744
0003c0 89 7d b9 3e 8c b1 41 3e 51 57 79 3d 91 49 09 3e
       0.36228588 0.18915385 0.060874287 0.1340697
0003d0 96 26 17 be 1a 77 d8 3d 18 c6 75 be 93 54 06 3c
       -0.14760813 0.10569592 -0.24001348 0.008198875
0003e0 cf 06 9d be 1b 6d a2 bd 24 d6 da 3d 4a fb 5b 3c
       -0.30669257 -0.079309665 0.10685375 0.013426611
0003f0 fe 7a 44 be e6 40 16 3e 4b 3b 42 3e b8 1c 4e 3e
       -0.19187543 0.14673194 0.18967931 0.20128143

weight_hh_l0 f4 [40, 10]
000000 a9 4d ec 3c 44 20 9e bd 3e af a1 bd 09 d3 60 3d
       0.028845625 -0.07720998 -0.07894753 0.05488876
000010 1a 7a a3 3d 66 15 92 bd 3f 1d ae 3d bd 4d a7 bd
       0.079822734 -0.07132988 0.08501672 -0.08169124
000020 13 73 a5 be 90 72 99 be 0c 2d 0d 3d ea 3f b7 be
       -0.32314357 -0.29970217 0.03446679 -0.3579095
000030 ee 58 95 3e 91 ae ae bd 37 5a c0 bd fa 97 9e be
       0.2916941 -0.0852939 -0.09392207 -0.30975324
000040 ca aa 6d be 00 69 c4 bc a4 08 88 3d a4 68 95 bd
       -0.23209682 -0.02397585 0.06642273 -0.07295349
000050 f0 0e 38 3d ee 7c 6f 3e 26 c3 32 bd 6c d4 84 3e
       0.04493612 0.233875 -0.04364314 0.25943315
000060 4c ef 18 3d a7 9f 15 be a4 bf 55 be bb 19 a5 be
       0.037337586 -0.14611684 -0.20873886 -0.32246193
000070 bf ea 68 be ab 16 60 3d 4a 52 d7 bc e1 27 00 3e
       -0.22745799 0.054709118 -0.026284356 0.12515213
000080 45 be 1a 3d 70 c1 46 3d 82 43 36 3e 5a 95 4a be
       0.03777911 0.04852432 0.1779919 -0.19783536
000090 8d 62 aa 3e 2e 73 30 3e 56 ae 3d bd 97 c1 25 3d
       0.33278313 0.17231438 -0.046308838 0.040467825
0000a0 fa 80 57 bb 68 b1 26 3d 62 d4 ff bd 87 10 55 bd
       -0.0032883273 0.04069653 -0.12491681 -0.052017715
0000b0 09 ef 40 3e 3e fa 8d be 18 e0 8e bd 07 76 90 bc
       0.18841185 -0.27729982 -0.06976336 -0.017634405
0000c0 17 3d 8d bc a3 78 37 3d 3a ac d6 bd cd 4d 41 be
       -0.017241044 0.044792783 -0.10482068 -0.18877335
0000d0 88 87 39 bb c0 fa 23 3e 7b 86 84 3e 21 5f 14 be
       -0.0028309543 0.16013622 0.2588385 -0.14489414
0000e0 38 97 75 3e c5 4b 28 3e 95 4a bb 3d 61 f9 91 3e
       0.23983467 0.16435154 0.09145085 0.28510574
0000f0 21 c4 8b 3e 21 b2 d0 bd 9b b8 c0 be 7e f7 c8 3e
       0.27298072 -0.101902254 -0.37640843 0.39251322
000100 cf 4d a1 bd ea 12 1b be 81 62 3f 3e c8 17 41 be
       -0.07876169 -0.15143934 0.1868992 -0.18856728
000110 18 24 79 be 61 93 12 3e ba 06 1d 3d 29 fe 4c bd
       -0.24330175 0.14314033 0.038336493 -0.050047074
000120 3e 5e 1e be 7d ba f5 3d b0 81 12 3d 0d 23 ad be
       -0.15465638 0.119984604 0.03576821 -0.33815804
000130 c6 6c b7 bd ee 0b 61 3d 57 a4 66 3d 7e f9 06 3e
       -0.08956294 0.054943018 0.05630907 0.13181111
000140 fa f5 1c be fd bf e5 bd 67 14 06 3e 0e 2b a2 bd
       -0.15328208 -0.112182595 0.1309372 -0.07918368
000150 88 2f 7b be 28 9e 1e 3d 3b 09 9c bd 92 ba fa bc
       -0.2452985 0.03872505 -0.07618948 -0.030606542
000160 fc 8a 95 bd b5 d3 72 bd 1c 1a 60 be 81 c0 79 3c
       -0.073019 -0.05928393 -0.2188496 0.01524365
000170 d6 e3 a1 be 6c 00 88 be ff 4f a8 3e cf cf 78 3e
       -0.31619138 -0.26562822 0.32873532 0.24298023
000180 e9 26 70 3e b6 b9 08 3d 8c e4 78 be eb 82 4e bc
       0.23452343 0.033380233 -0.24305934 -0.012604455
000190 6b 15 e0 bc c3 f7 b4 be 78 35 8e bd 7b c5 59 3e
       -0.027353963 -0.35345277 -0.06943792 0.21266739
0001a0 87 7c 29 3c 14 45 41 bc 1e 9e 01 be 08 2d 04 be
       0.010344631 -0.011796255 -0.12657973 -0.12907803
0001b0 e1 60 b3 be 5d 5e 2d 3d 9d 62 ca bd fa 2a b1 be
       -0.3503485 0.04232632 -0.0988209 -0.346031
0001c0 dd 12 70 3e 08 6a 1a be 9a ee 3c be 1b 55 37 bd
       0.23444696 -0.1507951 -0.18450394 -0.044758897
0001d0 79 3c 4f 3e 37 f9 5c 3e 9c 44 20 be 14 c4 0c 3e
       0.20237912 0.21579443 -0.15651172 0.13746673
0001e0 d4 8a 03 3e 00 d1 03 3e f2 2b 8a be 88 d6 51 3e
       0.12845927 0.12872696 -0.26986653 0.20491993
0001f0 ec 6f 6e be 66 bf ec 3c 78 43 91 bd c2 4e a9 be
       -0.23284882 0.02889986 -0.07092947 -0.330679
000200 b6 7b 21 be 74 ce a8 3d f8 a1 fd 3d 25 15 1f 3e
       -0.15769848 0.08242503 0.12384409 0.1553541
000210 9f e0 f6 bd 05 65 75 3e 41 a5 87 be d0 f0 92 be
       -0.12054562 0.23964317 -0.26493266 -0.2869935
000220 bf 3a 1f be e5 52 13 3e d1 33 49 3d 13 5f 74 be
       -0.15549754 0.1438709 0.04912168 -0.23864393
000230 de c4 45 3e 97 ca 58 3e e6 c1 9b bb 71 00 be bd
       0.1931338 0.21171032 -0.004753339 -0.09277428
000240 a5 da 4f 3d 5f 71 a1 3e 13 52 2d 3e 74 3a 2a be
       0.050745625 0.31531808 0.1692584 -0.1662386
000250 b3 b5 29 3e 7e 91 dc bd d8 93 24 be 01 ca 19 3e
       0.16573219 -0.10769938 -0.16072023 0.15018465
000260 b9 c4 af 3d 47 00 90 3e 8a e2 48 be 03 c9 3f be
       0.08582444 0.28125212 -0.19617668 -0.18729024
000270 e4 0d f1 3c 07 f6 08 3e f1 b7 8e be 1b e8 63 bd
       0.029425569 0.13375102 -0.2787471 -0.055641275
000280 a7 8c 43 3e 13 db 42 3e 09 a5 a1 be 87 29 5b 3e
       0.19096623 0.19028883 -0.31571224 0.2140256
000290 7d 35 5c 3e 84 11 82 bd fe e2 d6 3c b6 cb c6 be
       0.21504779 -0.06350997 0.026231285 -0.38827294
0002a0 e1 1d 14 3e 75 33 86 3d 6a 4f 50 bd 7b 4e 5e bc
       0.14464523 0.065527834 -0.050856985 -0.013568516
0002b0 92 cb 7c 3c 45 e0 18 3e 08 49 d7 bd eb a6 cc 3c
       0.015429394 0.14929302 -0.105119765 0.024981936
0002c0 46 b8 76 be 5b d4 b6 bd 9b 77 c0 be c9 e2 72 3e
       -0.24093732 -0.08927222 -0.37591252 0.23719324
0002d0 65 f7 96 bd c9 b4 b6 3d 8d e2 bf bd 8e 45 4d be
       -0.073714055 0.08921201 -0.09369383 -0.20046064
0002e0 83 ad 25 3e e3 b3 c4 3c ac f3 ce 3d 71 0a 53 3e
       0.1617947 0.024011558 0.101050705 0.20609452
0002f0 d8 57 02 be 3c e5 e6 bd ab cc 85 bd 86 7a 2b 3e
       -0.12728822 -0.11274192 -0.06533178 0.16745958
000300 b0 a5 19 bd a2 62 50 3e 68 21 be bd 1b 3e 25 be
       -0.037511528 0.20350125 -0.092837155 -0.16136973
000310 d2 3c 46 3c bb c6 8c be 31 c3 87 3e 92 33 fd 3b
       0.012099462 -0.2749537 0.26516107 0.007727095
000320 78 d5 6d be ac f7 8f be 16 fb ae be fc 73 a6 bc
       -0.23225963 -0.28118646 -0.34175938 -0.020318978
000330 33 6f 83 bd ff b5 f6 3d 97 d6 5a be 0c ff 1d 3e
       -0.06417694 0.12046432 -0.21370922 0.15429324
000340 21 d3 17 be a0 ea 33 39 18 90 aa be bc 2a 98 3e
       -0.14826633 0.00017158175 -0.3331306 0.29720104
000350 52 e2 e7 3c b9 67 26 be f9 8c 8c bd e9 59 58 be
       0.02830616 -0.16250505 -0.06862826 -0.21128048
000360 f5 f0 9f bd d9 cb f2 bd bc 8b c8 3e 13 a9 43 3e
       -0.07809631 -0.11855287 0.3916911 0.19107465
000370 35 b4 ef bd b1 14 72 3e 9f 64 4c be b1 dd 91 3d
       -0.11704294 0.23640706 -0.19960259 0.071223624
000380 be d3 39 bc c5 ab 8c bc ea 92 80 3e 0d c8 97 3e
       -0.011341987 -0.01717175 0.25112087 0.29644814
000390 04 62 38 3e 0f 9f b7 bd 07 a6 d1 bd de c8 14 3d
       0.1800614 -0.08965885 -0.10236745 0.036324374
0003a0 71 14 98 bd ff 1e e8 3d 32 be 45 3e 8a 36 87 bd
       -0.07425774 0.11334037 0.19310835 -0.066021994
0003b0 ba cf ad 3e 2a 34 4d be b1 1a 88 be d8 8c 73 3e
       0.33947545 -0.2003943 -0.26582864 0.23784196
0003c0 c3 06 34 3e 9a 20 3b be d8 f4 28 be 6c 1e 1e 3e
       0.17580704 -0.18274155 -0.1649965 0.15441293
0003d0 c0 56 c7 3d e0 2b 8a bd 1f df 96 3d c2 87 8c bc
       0.09733343 -0.0674665 0.07366776 -0.017154578
0003e0 8c c1 5d 3e 7e 96 eb 3c e3 aa f6 3d 13 be 8a 3e
       0.21655864 0.028758284 0.12044313 0.2709814
0003f0 ee bf 4c 3e 32 bc 09 3d 17 de 34 be 4b a3 62 be
       0.1999509 0.033626743 -0.17662846 -0.22132604

bias_ih_l0 f4 [40]
000000 ff 31 c4 bd 91 fa 3a bd 06 78 38 3e c4 05 84 3b
       -0.095798485 -0.045649115 0.18014535 0.0040290076
000010 c7 82 8c be 3f 2f 7a 3d 84 be e8 bc 5a 82 30 be
       -0.27443525 0.061080214 -0.028411157 -0.17237225
000020 46 1f 81 3e 46 08 73 bc 01 93 a7 3e 51 f6 20 be
       0.25219172 -0.0148335155 0.32729343 -0.15718962
000030 dd 74 41 3e 97 cf ae 3d 94 99 01 bd 88 c7 d3 3d
       0.18892236 0.08535688 -0.031640604 0.10340792
000040 f4 6c 1f be c0 4a bb 3e 26 e6 47 3e f9 7e 18 be
       -0.15568906 0.36580467 0.19521388 -0.14892186
000050 d7 ad a7 3e 67 d8 35 3e 21 32 11 be aa 48 07 be
       0.32749817 0.17758332 -0.14179279 -0.13211313
000060 f0 cb b1 3e ca 06 a2 be 61 02 5c be 9d 2e a7 bd
       0.34725904 -0.31645805 -0.21485282 -0.08163188
000070 8b e3 7b 3e 15 ca 57 3e 0e 0e 86 bd 1b 11 3c be
       0.2459852 0.21073182 -0.065456495 -0.183659
000080 1e 7a c6 3d b4 f1 07 bd 13 cb 57 be 2a 38 5b 3e
       0.09691261 -0.03318949 -0.2107356 0.21408144
000090 ee 26 ef 3d ee 22 8d 3d 22 bf 5c be 96 d1 01 3d
       0.11677347 0.06891428 -0.21557286 0.031694017

bias_hh_l0 f4 [40]
000000 55 7e 53 3e ee ae 7a 3e 52 bb 07 be 27 db bb 3e
       0.2065366 0.24480793 -0.13255051 0.36690637
000010 e3 51 55 3c 12 05 5f be 76 29 c4 bd 4e a3 40 3d
       0.013020012 -0.21779278 -0.095782205 0.04703074
000020 da 7a c2 3e 91 5d a6 3e e9 78 0c 3e 5c b1 53 3d
       0.37984353 0.3249326 0.13717999 0.051682815
000030 77 f8 80 3e b7 3f 0e 3e 5e b5 53 be ee f4 a4 bd
       0.25189564 0.13891493 -0.20674655 -0.08054529
000040 7d 2b de bd a3 bd 8f 3e dd 94 21 3d 7d 04 29 be
       -0.108481385 0.2807437 0.039448608 -0.16505618
000050 09 ff 3b be 85 f6 ba be 21 78 fe 3d b8 77 61 bd
       -0.18359007 -0.36516204 0.124252565 -0.055045813
000060 90 4b 96 3e f3 b4 71 3d 51 f7 78 bd 8b fe 9f be
       0.29354525 0.059010457 -0.060782734 -0.31248888
000070 8a c5 e9 bb f8 70 e2 3d b8 70 07 be 0c 7a b0 3e
       -0.007134144 0.11056703 -0.13226593 0.34468114
000080 00 51 76 be 38 8d da 3d da 3f 4d 3e 55 1b b2 bd
       -0.24054337 0.106714666 0.20043889 -0.086966194
000090 b7 d3 6e be 72 df 55 be 79 78 e0 bd 98 f7 82 be
       -0.2332295 -0.20886019 -0.10960478 -0.25579524
