LSTM/code/model/old_model/model_mk7_final.pt (torch, 46468 bytes, 32 tensors)

weight_ih_l0 f4 [40, 22]
-0.12729609 0.1293738 0.34229836 -0.29881054 -0.33648807 -0.07145016 0.3398443 -0.23016061
-0.4590044 -0.27135047 0.106342584 0.11507807 -0.07420092 -0.24381435 -0.021588681 -0.19916017
0.0947131 0.22481012 0.10611809 0.076576956 0.3619001 -0.41646484 0.006333466 -0.25364769
-0.24832347 0.24718207 0.23530932 0.078167684 -0.45579645 -0.17318086 -0.14469154 0.21113853
-0.19482945 -0.032349627 -0.1813033 0.13306625 0.06503747 -0.03669864 -0.17211196 -0.096577875
-0.15308979 -0.21596459 0.19717927 0.2809436 0.06363441 -0.25860247 -0.23985533 0.18813805
0.17580432 -0.28330794 -0.33901036 -0.005406765 0.033519726 0.24030195 -0.26875067 -0.1036064
0.38513485 0.14536186 -0.30983758 0.042929314 0.49996468 -0.058493204 -0.4298533 -0.20319757
-0.09741972 0.38260776 -0.042023838 -0.2860381 0.24923141 0.16502392 -0.077444956 -0.23453446
0.052033797 -0.025844606 0.06494861 -0.16143292 -0.107860826 0.32319325 -0.04404252 0.2443512
0.29030162 0.20456497 0.0843179 -0.09211401 -0.06276901 0.0025673746 -0.09593671 0.1649013
0.16070408 -0.30319235 -0.29009575 0.26794267 0.1769879 -0.1965151 -0.047753595 -0.25877854
-0.14598984 -0.052879367 0.13480648 -0.0895724 0.11382429 -0.37239674 0.1688518 -0.1038678
-0.054676652 -0.3688569 -0.27338862 0.17958257 -0.0068746363 -0.15122825 -0.21810724 -0.18749237
0.1860727 0.19624527 -0.15281746 -0.31604812 -0.008811244 0.210401 -0.0737636 -0.25394037
0.26364964 -0.13266428 -0.35527405 -0.15294197 0.12541412 0.04737417 -0.28079513 -0.2682957
-0.14173134 -0.16495572 0.2808424 -0.20736793 -0.1666836 -0.16739093 -0.017784148 0.061169703
0.22576304 -0.16392943 0.16694932 -0.23536015 -0.0026309125 0.26765218 -0.20675412 0.13776259
0.31773084 -0.038255684 0.12892124 -0.26974368 0.044077214 -0.10723296 -0.06898715 0.1504076
-0.041238625 0.137821 0.15655261 0.15578793 0.4321285 0.17072563 -0.19771647 -0.24102408
0.42151666 -0.003789451 -0.27293003 0.050370477 -0.1892426 -0.1397478 -0.21262117 0.13856784
0.10325313 -0.07827515 -0.25673714 0.23220077 -0.0033215296 -0.06435845 -0.10761947 -0.23447889
-0.30149573 0.18531172 -0.29163966 0.20129725 0.123603396 -0.12017811 -0.024548553 -0.18635651
-0.18505937 -0.28938508 -0.32217565 -0.10594107 0.14091729 -0.22739987 -0.37895116 -0.09145476
-0.37822452 -0.42203766 0.12035471 -0.0830595 0.28178054 0.14159112 -0.30949005 -0.12041892
0.30407193 -0.09083556 -0.13771084 0.20405464 -0.07701151 -0.24797136 -0.26095718 0.078025036
0.19262163 0.11684183 0.1171468 -0.16070943 0.2457507 0.15941171 -0.25936168 -0.017355075
-0.26713932 0.10062014 0.30186188 0.189227 -0.07695416 0.09662446 0.2429455 -0.2273085
-0.26093182 -0.31558788 -0.031706396 0.30731386 -0.2941888 -0.26955777 0.028529756 -0.2556813
-0.5057935 -0.27410132 0.15805762 0.212929 0.07318738 -0.344254 0.10945585 -0.14818704
0.2673713 0.024248641 -0.23847064 0.18959266 -0.28542337 -0.22638312 0.012412544 -0.18778692
0.038521737 0.2340389 0.18477175 0.002949174 -0.41845858 0.2504987 0.28867462 -0.06886514
00000000: e859 02be 917a 043e bb41 af3e b2fd 98be
00000010: 2a48 acbe 7654 92bd 1200 ae3e 39af 6bbe
00000020: a002 ebbe 73ee 8abe 24ca d93d 0dae eb3d
00000030: a7f6 97bd 78aa 79be bfda b0bc a5f0 4bbe
00000040: f1f8 c13d a034 663e 7154 d93d 61d4 9c3d
00000050: f84a b93e e13a d5be f788 cf3b 1cde 81be
00000060: 8248 7ebe 4c1d 7d3e edf4 703e 6116 a03d
00000070: 275e e9be 5356 31be 052a 14be b334 583e
00000080: 5f81 47be 0b81 04bd 93a7 39be 8542 083e
00000090: 5d32 853d 5051 16bd 1e3e 30be 9fca c5bd
000000a0: 92c3 1cbe d225 5dbe 5de9 493e d7d7 8f3e
000000b0: c252 823d 8b67 84be a39c 75be 43a7 403e
000000c0: 0c06 343e bd0d 91be c492 adbe 3b2b b1bb
000000d0: fb4b 093d b711 763e b099 89be 982f d4bd
000000e0: 6530 c53e bdd9 143e 08a3 9ebe a6d6 2f3d
000000f0: 5ffb ff3e 9296 6fbd bb15 dcbe 0613 50be
00000100: fd83 c7bd 2ae5 c33e 3021 2cbd 9673 92be
00000110: 8536 7f3e 08fc 283e 769b 9ebd cd29 70be
00000120: 6421 553d 11b8 d3bc c703 853d ac4e 25be
00000130: 23e6 dcbd 9679 a53e ee65 34bd 3337 7a3e
00000140: 6aa2 943e 7b79 513e ddae ac3d 45a6 bcbd
00000150: 0a8d 80bd 6641 283b 777a c4bd e3db 283e
00000160: 9c8f 243e 073c 9bbe 6e87 94be c82f 893e
00000170: 513c 353e 413b 49be 4699 43bd 9f7e 84be
00000180: 5c7e 15be 0998 58bd b60a 0a3e bc71 b7bd
00000190: b61c e93d c9aa bebe 7ce7 2c3e a4b8 d4bd
000001a0: a0f4 5fbd d0da bcbe 98f9 8bbe 7ee4 373e
000001b0: a144 e1bb 94db 1abe 8157 5fbe 00fe 3fbe
000001c0: d889 3e3e 85f4 483e 2e7c 1cbe 0fd1 a1be
000001d0: 095d 10bc 5c73 573e 5f11 97bd 7904 82be
000001e0: 16fd 863e 25d9 07be 7be6 b5be d29c 1cbe
000001f0: 8f6c 003e 6b0b 423d 61c4 8fbe 0e5e 89be
00000200: 0522 11be 27ea 28be 93ca 8f3e 4258 54be
00000210: 1baf 2abe 8768 2bbe 10b0 91bc 158d 7a3d
00000220: 6d2e 673e 1edd 27be c3f4 2a3e 4002 71be
00000230: 636b 2cbb b509 893e 5ab7 53be a311 0d3e
00000240: 9ead a23e feb1 1cbd ee03 043e d81b 8abe
00000250: 4f8a 343d f49c dbbd 2349 8dbd 7304 1a3e
00000260: d5e9 28bd f320 0d3e 544f 203e df86 1f3e
00000270: f23f dd3e b3d2 2e3e 3076 4abe 04cf 76be
00000280: 08d1 d73e 7058 78bb 7cbd 8bbe 4651 4e3d
00000290: d0c8 41be 0c1a 0fbe 5db9 59be bae4 0d3e
000002a0: 6176 d33d b94e a0bd 0d73 83be 0ac6 6d3e
000002b0: 05ae 59bb 5dce 83bd 9967 dcbd 3c1b 70be
000002c0: a65d 9abe 5bc2 3d3e cb51 95be de20 4e3e
000002d0: c723 fd3d f11f f6bd 0c1a c9bc 3ed4 3ebe
000002e0: 3480 3dbe 482a 94be 35f4 a4be a2f7 d8bd
000002f0: 9f4c 103e 83db 68be e305 c2be a24c bbbd
00000300: a5a6 c1be 5215 d8be 887c f63d 191b aabd
00000310: 8a45 903e 43fd 103e 7b75 9ebe 329e f6bd
00000320: 51af 9b3e fe07 babd 1204 0dbe b3f3 503e
00000330: 36b8 9dbd 34ec 7dbe 2e9c 85be 97cb 9f3d
00000340: 9b3e 453e c54a ef3d a9ea ef3d 0391 24be
00000350: 12a6 7b3e d33c 233e 0ecb 84be 3b2c 8ebc
00000360: 7cc6 88be ef11 ce3d a48d 9a3e b9c4 413e
00000370: 259a 9dbd 0be3 c53d b5c6 783e 8fc3 68be
00000380: db98 85be bc94 a1be 91de 01bd 3e58 9d3e
00000390: ea9f 96be 7a03 8abe 3cb7 e93c a9e8 82be
000003a0: af7b 01bf 0257 8cbe dbd9 213e 0f0a 5a3e
000003b0: 44e3 953d 0f42 b0be 642a e03d 58be 17be
000003c0: e4e4 883e 16a5 c63c a631 74be 9424 423e
000003d0: 0323 92be fad0 67be fc5d 4b3c 374b 40be
000003e0: f8c8 1d3d e5a7 6f3e ce34 3d3e ee46 413b
000003f0: 3440 d6be 5e41 803e 29cd 933e 2b09 8dbd

weight_hh_l0 f4 [40, 10]
0.14676589 -0.18886007 -0.022042595 0.046670657 0.13642628 0.24795797 -0.14018656 0.062345296
-0.40116888 -0.08935756 0.23406067 -0.010730432 0.14744 -0.3575204 0.10543931 -0.18737362
-0.1704347 -0.1678965 0.21465611 0.086344466 -0.03934724 0.354327 0.066012606 -0.15436149
0.044959605 -0.020764804 -0.06677068 -0.3217814 0.029735018 -0.049390607 -0.17398296 0.21148758
0.01951094 -0.24416853 -0.041964587 -0.2446211 0.2669125 0.21369517 -0.38668227 -0.038991496
0.008135021 0.24739733 0.44799542 -0.2258388 0.016268825 -0.083424136 0.33153617 0.3418988
-0.09811541 0.22419228 -0.07394055 -0.10073845 0.029769639 0.25826675 -0.09181581 -0.12216679
0.27351162 -0.07729765 -0.10755818 -0.2077761 -0.073123194 0.34645757 0.08062085 0.17176782
-0.03779795 0.007976197 0.0697156 0.087524585 0.057929683 -0.12514955 -0.061751578 0.14469619
-0.3301423 -0.014282521 -0.030486874 0.2024118 0.12641038 -0.12296929 -0.31662637 -0.31551227
-0.44717193 0.14396961 -0.06966208 -0.45764434 0.40486538 -0.4821711 0.43317804 0.55914235
0.3557964 -0.12390357 -0.26581886 -0.09505397 0.3314148 0.15494268 0.32287893 -0.008563576
0.2769112 0.30867237 0.20222038 -0.11858127 0.18319161 0.103224605 -0.1553028 -0.04756847
-0.08251667 -0.0030364823 0.017607639 -0.06267248 -0.51735085 0.02243152 -0.02710884 0.21355037
-9.235271e-05 -0.15842186 0.011254226 -0.32853988 0.0636801 -0.074330255 0.21310797 0.3043055
-0.26350245 0.31676757 -0.059392616 -0.02546675 0.29847366 -0.3017488 -0.10521241 -0.028115464
-0.1284373 -0.012736967 0.054630473 0.2930167 0.07979079 0.18337424 0.2323369 0.24774107
0.33823952 -0.23002191 -0.43806496 0.11201858 0.06392669 -0.2187127 0.3632713 -0.22068365
0.24232532 -0.2607987 -0.017650347 -0.007127224 -0.2441053 0.17633377 -0.29434526 -0.21518157
-0.14435603 0.25758302 -0.03736186 0.25553596 -0.2727496 0.097877614 0.28307542 0.22297974
-0.15023585 0.31139794 0.18585196 -0.1910245 0.23406121 -0.2944692 -0.18852545 -0.06746146
0.18238288 -0.23697658 0.3535543 -0.2738372 -0.31968656 0.03996908 -0.17079644 0.17644957
0.2703054 0.07274723 0.38509637 -0.08758419 -0.06295238 -0.3318905 0.44064635 -0.35560417
0.26574928 -0.3471459 0.044183243 0.1730361 -0.20141485 0.30885196 0.10308723 0.06991036
-0.0007701881 0.22027569 0.016968189 0.070741974 -0.03339395 -0.07845397 -0.21306215 -0.25087473
0.22641295 0.24566774 -0.24278939 0.25066787 0.22649592 -0.063761435 0.3244241 -0.23092884
0.35598025 -0.24284796 0.25336888 0.117312185 0.27646714 0.0023743096 -0.30952245 0.31129143
-0.3008178 0.19761547 -0.15842919 0.051793918 -0.14323561 -0.21228392 0.038610004 0.24874876
0.17313708 0.10249064 -0.16165176 -0.35726148 -0.1385264 -0.23745285 0.032355443 0.09515403
0.1391404 -0.17166747 -0.16540812 -0.09794443 0.015386696 -0.12948537 -0.11090148 -0.21474524
-0.26313442 0.12333039 0.10364221 0.0960713 0.3073728 -0.36856225 0.014427551 -0.12153869
0.21151762 0.28162906 0.23581168 0.28747267 -0.13370241 -0.19004609 0.12440722 0.075109206
00000000: cc49 163e 8964 41be ac92 b4bc bb29 3f3d
00000010: 55b3 0b3e b2e8 7d3e 118d 0fbe c85d 7f3d
00000020: 0266 cdbe 1901 b7bd 9aad 6f3e b2ce 2fbc
00000030: 83fa 163e ea0c b7be 91f0 d73d dfde 3fbe
00000040: 6f86 2ebe 0fed 2bbe d0ce 5b3e 5ed5 b03d
00000050: 922a 21bd 596a b53e 9e31 873d f010 1ebe
00000060: 9027 383d f31a aabc 11bf 88bd 88c0 a4be
00000070: da96 f33c ce4d 4abd 9728 32be 3390 583e
00000080: 68d5 9f3c 5107 7abe 0fe3 2bbd f47d 7abe
00000090: c1a8 883e e8d2 5a3e 38fb c5be 8cb5 1fbd
000000a0: c048 053c ba55 7d3e a85f e53e 4942 67be
000000b0: 3346 853c 46da aabd 1cbf a93e 5c0d af3e
000000c0: bbf0 c8bd a992 653e 256e 97bd f64f cebd
000000d0: 75df f33c 8a3b 843e ed09 bcbd 9532 fabd
000000e0: b709 8c3e 3b4e 9ebd 7747 dcbd 42c3 54be
000000f0: 9dc1 95bd e362 b13e 8b1c a53d e7e3 2f3e
00000100: 06d2 1abd 98ae 023c 0dc7 8e3d 1740 b33d
00000110: ad47 6d3d 3427 00be 39ef 7cbd 3d2b 143e
00000120: 6908 a9be 3c01 6abc 9cbf f9bc 0a45 4f3e
00000130: b971 013e 53d7 fbbd da1c a2be d38a a1be
00000140: b8f3 e4be c56c 133e feaa 8ebd 5c50 eabe
00000150: 844a cf3e 21df f6be 83c9 dd3e f423 0f3f
00000160: f22a b63e 28c1 fdbd 6919 88be a8ab c2bd
00000170: 33af a93e 4ba9 1e3e 6350 a53e 3e4e 0cbc
00000180: 4ec7 8d3e 4e0a 9e3e dc12 4f3e bdda f2bd
00000190: 9596 3b3e 6c67 d33d b207 1fbe 28d7 42bd
000001a0: 80fe a8bd b8ff 46bb e53d 903c 6e5a 80bd
000001b0: 1b71 04bf 4fc2 b73c 5c13 debc f3ac 5a3e
000001c0: 7cad c1b8 5739 22be a563 383c 6136 a8be
000001d0: b66a 823d 763a 98bd fa38 5a3e eecd 9b3e
000001e0: cbe9 86be 5c2f a23e ac45 73bd a59f d0bc
000001f0: 8ad1 983e d27e 9abe 9b79 d7bd 6752 e6bc
00000200: 1185 03be b6ae 50bc 34c4 5f3d 4906 963e
00000210: 5b69 a33d 75c6 3b3e b9e9 6d3e d6af 7d3e
00000220: bb2d ad3e dd8a 6bbe 0d4a e0be ff69 e53d
00000230: ffeb 823d 39f6 5fbe b2fe b93e e5fa 61be
00000240: 2124 783e 6887 85be 7697 90bc 7d8b e9bb
00000250: bdf6 79be d790 343e 6cb4 96be 8f58 5cbe
00000260: 11d2 13be ece1 833e c008 19bd 9cd5 823e
00000270: d6a5 8bbe 0f74 c83d 43ef 903e cd54 643e
00000280: 6dd7 19be 8d6f 9f3e fa4f 3e3e ed9b 43be
00000290: bead 6f3e abc4 96be d10c 41be 3c29 8abd
000002a0: 94c2 3a3e fda9 72be 1205 b53e 6434 8cbe
000002b0: f5ad a3be 9eb6 233d 43e5 2ebe 32af 343e
000002c0: 7865 8a3e 80fc 943d 5a2b c53e 575f b3bd
000002d0: 2ded 80bd 8ded a9be 669c e13e c011 b6be
000002e0: 4a10 883e 1bbd b1be 7df9 343d 6030 313e
000002f0: b23f 4ebe d821 9e3e 661f d33d 2a2d 8f3d
00000300: 73e6 49ba f38f 613e df00 8b3c 2be1 903d
00000310: 18c8 08bd 7aac a0bd f72c 5abe a772 80be
00000320: ccd8 673e 5390 7b3e c89d 78be 8a57 803e
00000330: 8cee 673e 5b95 82bd ea1a a63e 9c78 6cbe
00000340: 0b43 b63e 23ad 78be 91b9 813e 5f41 f03d
00000350: 1a8d 8d3e 4e9a 1b3b ba79 9ebe 9761 9f3e
00000360: ca04 9abe b65b 4a3e 433b 22be dc25 543d
00000370: 5bac 12be f560 59be 8625 1e3d ffb7 7e3e
00000380: d94a 313e 9de6 d13d 0a88 25be faea b6be
00000390: ddd9 0dbe d726 73be 2487 043d 1ee0 c23d
000003a0: d27a 0e3e 99c9 2fbe bf60 29be 1797 c8bd
000003b0: 7b18 7c3c d097 04be 5120 e3bd 2de6 5bbe
000003c0: 8eb9 86be a594 fc3d 5e42 d43d 08c1 c43d
000003d0: f85f 9d3e 31b4 bcbe 8961 6c3c 47e9 f8bd
000003e0: 1398 583e af31 903e 9e78 713e 9e2f 933e
000003f0: 49e9 08be 719b 42be 36c9 fe3d dbd2 993d

bias_ih_l0 f4 [40]
0.23418523 0.14748895 0.2841034 -0.070343435 -0.12015184 -0.06280887 0.114524096 -0.07285148
0.18945105 -0.047278233 -0.034620486 0.19321062 -0.20899813 0.31455478 -0.067775354 0.15037766
-0.08817533 0.004513825 -0.18147887 -0.16020209 0.045812894 -0.04350144 0.024046224 -0.15811329
-0.21467054 -0.11210862 0.03912875 -0.067636296 0.2829219 -0.17357396 -0.19856247 0.26160678
0.084669806 -0.11297911 -0.1362003 0.058185685 -0.12766945 0.064714305 -0.07172541 -0.14437044
00000000: 41ce 6f3e 5807 173e 0076 913e 3810 90bd
00000010: 2b12 f6bd f0a1 80bd 9c8b ea3d 2833 95bd
00000020: 75ff 413e d2a6 41bd 36ce 0dbd 01d9 453e
00000030: 9b03 56be 530d a13e cecd 8abd 9afc 193e
00000040: 4495 b4bd b5e8 933b 99d5 39be 040c 24be
00000050: 4da6 3b3d 912e 32bd 96fc c43c 73e8 21be
00000060: 98d2 5bbe 3499 e5bd 7845 203d e684 8abd
00000070: 24db 903e 5fbd 31be f653 4bbe 53f1 853e
00000080: 5d67 ad3d 9761 e7bd 1778 0bbe 1d54 6e3d
00000090: c8bb 02be ef88 843d c6e4 92bd d8d5 13be

bias_hh_l0 f4 [40]
0.10438621 -0.055800945 0.22690924 0.31067333 -0.14935799 -0.2184667 0.22770207 0.074371696
0.20337184 0.30255723 -0.22691096 -0.15620758 0.10189025 0.33788717 0.32629117 0.08201573
0.020226408 -0.054777555 -0.08514884 0.34882256 0.22895715 0.2634374 0.22540754 -0.20273659
0.3067238 -0.2951287 0.38973296 -0.23690742 0.26882854 0.05588186 0.068542086 0.14976361
0.29621553 0.22567594 -0.23256905 0.092763096 0.056710407 0.03958039 0.02881817 0.042891208
00000000: 70c8 d53d 888f 64bd e55a 683e 9310 9f3e
00000010: 4df1 18be bcb5 5fbe bb2a 693e 3050 983d
00000020: b540 503e c8e8 9a3e 595b 68be e1f4 1fbe
00000030: d6ab d03d 8cff ac3e a30f a73e ddf7 a73d
00000040: dab1 a53c 6e5e 60bd 8462 aebd df98 b23e
00000050: be73 6a3e 44e1 863e 3cd1 663e 2e9a 4fbe
00000060: e70a 9d3e 1c1b 97be 148b c73e dc97 72be
00000070: e5a3 893e 61e4 643d cb5f 8c3d a25b 193e
00000080: 90a9 973e 9817 673e 9526 6ebe 94fa bd3d
00000090: 2c49 683d 0c1f 223d 1514 ec3c b1ae 2f3d

weight_ih_l0 f4 [40, 22]
0.31291342 0.2895977 -0.26800492 -0.081080906 -0.22358765 -0.08435824 -0.14598411 0.13552311
-0.26691228 -0.04590578 -0.3612904 -0.2089264 -0.20394106 -0.26528287 -0.3599549 0.015776236
-0.15477057 0.11425751 0.24373166 -0.21372475 -0.07828971 -0.07587609 0.10785782 -0.047814634
-0.3558418 0.18670432 -0.16150902 -0.13967787 -0.35594863 0.13923092 0.125329 0.36716592
0.2464775 0.09376107 -0.01929505 0.023728056 -0.043951444 0.30573148 -0.23573662 -0.028272986
-0.19786724 0.29970282 -0.0014454906 -0.05458464 0.050093345 -0.0256813 -0.17812994 -0.07260642
0.16840173 -0.16619591 0.197447 0.026971485 0.029189425 -0.31849676 -0.041863546 0.23562096
-0.18367168 -0.20729172 -0.363784 0.34081772 0.04067508 -0.26058024 -0.13222522 0.050332304
0.30779174 -0.017226204 -0.064133994 -0.32568803 0.11904018 0.29004115 0.2544869 -0.07649221
-0.21111144 0.17903635 0.068162665 -0.13283452 0.10523494 0.21604861 0.14415303 0.11934576
0.26928777 0.37969634 0.28993598 0.30278268 0.23007478 0.30117092 0.04458518 -0.037059896
-0.22908364 -0.04098049 -0.13660674 -0.07637222 0.00841285 0.08040098 0.0019642797 -0.1893106
-0.025428768 0.034502484 0.11600634 0.22251403 -0.30416614 -0.037980754 0.32066146 -0.03840105
0.4006383 -0.2910577 0.15928368 -0.025144259 -0.15889612 -0.037603665 -0.24335454 0.32185996
-0.049684245 0.16629846 -0.14684695 0.16281971 -0.25813743 -0.22928655 0.05256713 0.30643466
-0.17387605 0.0055333884 -0.09145133 -0.019666277 0.18915921 -0.17844406 -0.04153027 0.19282939
-0.07223943 0.34278452 -0.39395836 0.2737352 0.3783778 0.123270795 0.24848406 0.18497783
0.2620115 -0.0146156745 0.014474714 0.23242696 0.44760054 -0.34247425 0.106505714 0.05145146
0.02412343 0.055462766 -0.27180275 -0.27833527 -0.066720545 0.22551505 0.18512985 0.13329297
0.116562225 -0.209521 -0.088375196 -0.18853064 0.023475362 -0.23610799 0.2691769 0.16956192
-0.2271334 -0.22217135 -0.22125912 0.045968585 -0.3143837 -0.099473484 -0.35277018 -0.31642756
-0.3269225 -0.24018271 -0.1313313 -0.108499326 -0.15880533 0.14997384 0.27084818 -0.044876277
0.34471953 -0.280863 0.018345594 0.15705729 0.07162498 -0.09338677 -0.44948724 0.17023799
-0.1463677 -0.26574197 -0.15898183 0.22456644 -0.07961554 -0.0064337538 -0.30392966 0.32498184
0.22937845 -0.03457308 0.09231182 0.29777732 0.3946656 0.2850671 0.03305912 0.12869446
-0.14777681 0.28892553 -0.17210254 0.27398464 -0.07013097 0.20184757 0.25463682 -0.006270642
-0.32582372 0.04410674 0.20260961 -0.2838557 0.002242559 -0.05576992 -0.33998814 -0.18052977
-0.12770727 0.12024201 0.23894009 -0.16164596 -0.08524707 -0.039434485 0.23300354 -0.33727872
-0.15519543 0.06400095 -0.15504415 -0.24375363 0.053383306 0.002697968 -0.04585084 0.24424818
0.35109562 0.29858595 -0.110978246 0.1896975 0.22246341 0.28933525 -0.101921566 0.03589578
-0.100646935 -0.06305708 -0.35425583 0.35736364 -0.4120974 0.024115827 -0.03109853 0.21082523
0.0176998 0.0022639167 -0.26110995 0.019016843 -0.43671864 0.19397412 0.077743284 0.35984072
00000000: 3036 a03e 2646 943e f137 89be bf0d a6bd
00000010: 29f4 64be 03c4 acbd dc7c 15be 92c6 0a3e
00000020: baa8 88be b307 3cbd 0efb b8be cdf0 55be
00000030: edd5 50be 28d3 87be 024c b8be 2a3d 813c
00000040: 2d7c 1ebe d7ff e93d cb94 793e a9da 5abe
00000050: 5b56 a0bd ec64 9bbd 90e4 dc3d 47d9 43bd
00000060: e530 b6be 6b2f 3f3e 9f62 25be b707 0fbe
00000070: e63e b6be 8d92 0e3e 3f56 003e 2cfd bb3e
00000080: 9964 7c3e ce05 c03d a710 9ebc 5761 c23c
00000090: 6e06 34bd d688 9c3e f164 71be c09c e7bc
000000a0: b69d 4abe a672 993e 9e76 bdba 2594 5fbd
000000b0: ae2e 4d3d 9761 d2bc b267 36be adb2 94bd
000000c0: 8171 2c3e 432f 2abe 8c2f 4a3e 4ef3 dc3c
000000d0: a91e ef3c 0212 a3be 1c79 2bbd 9f46 713e
000000e0: 6e14 3cbe 4844 54be e541 babe a97f ae3e
000000f0: ea9a 263d c66a 85be 0c66 07be 3f29 4e3d
00000100: e196 9d3e f81d 8dbc af58 83bd 95c0 a6be
00000110: 57cb f33d 4680 943e 1b4c 823e f3a7 9cbd
00000120: 992d 58be 4e55 373e de98 8b3d c605 08be
00000130: 6b85 d73d d93b 5d3e da9c 133e 8d6b f43d
00000140: 16e0 893e 8f67 c23e 7d72 943e 5506 9b3e
00000150: b998 6b3e 1333 9a3e f39e 363d 1ecc 17bd
00000160: e794 6abe 29db 27bd a3e2 0bbe 0a69 9cbd
00000170: 0dd6 093c 45a9 a43d 25bb 003b a3da 41be
00000180: fe4f d0bc 7a52 0d3d bb94 ed3d b8da 633e
00000190: aabb 9bbe b591 1bbd bd2d a43e 6b4a 1dbd
000001a0: 7720 cd3e 8405 95be 431b 233e 55fb cdbc
000001b0: aab5 22be 4d06 1abd ef31 79be d4ca a43e
000001c0: b581 4bbd 254a 2a3e 0c5f 16be 36ba 263e
000001d0: 972a 84be 18ca 6abe a250 573d 01e5 9c3e
000001e0: 900c 32be 6d51 b53b d64a bbbd 2c1b a1bc
000001f0: f4b2 413e 0aba 36be a51b 2abd 1175 453e
00000200: 44f2 93bd 7481 af3e e9b4 c9be 0527 8c3e
00000210: bcba c13e 6675 fc3d 9b72 7e3e d46a 3d3e
00000220: 5f26 863e 9576 6fbc 5a27 6d3c 5501 6e3e
00000230: e62b e53e c958 afbe ab1f da3d c4be 523d
00000240: 809e c53c ed2c 633d bb29 8bbe f681 8ebe
00000250: c8a4 88bd 6bed 663e ae92 3d3e f47d 083e
00000260: 2db8 ee3d ac8c 56be 0efe b4bd 2d0e 41be
00000270: 674f c03c 4bc6 71be 8ed1 893e a4a1 2d3e
00000280: a895 68be e380 63be c091 62be 8e49 3c3d
00000290: e6f6 a0be c1b8 cbbd 4b9e b4be cb02 a2be
000002a0: 6362 a7be 75f2 75be b67b 06be e534 debd
000002b0: dd9d 22be be92 193e 9dac 8a3e 30d0 37bd
000002c0: 147f b03e 46cd 8fbe 8049 963c a0d3 203e
000002d0: 1eb0 923d 9041 bfbd 3123 e6be de52 2e3e
000002e0: 6ae1 15be 550f 88be 22cc 22be bff4 653e
000002f0: 790d a3bd 3dd2 d2bb ab9c 9bbe 0564 a63e
00000300: 2fe2 6a3e 809c 0dbd fb0d bd3d 4576 983e
00000310: 9c11 ca3e 51f4 913e 0069 073d 7bc8 033e
00000320: ce52 17be 0cee 933e a63b 30be b747 8c3e
00000330: d3a0 8fbd 21b1 4e3e c25f 823e f579 cdbb
00000340: 5ed2 a6be 45a9 343d e578 4f3e 8955 91be
00000350: e6f7 123b 006f 64bd ed12 aebe ccdc 38be
00000360: b2c5 02be 7141 f63d b6ac 743e 8586 25be
00000370: 0496 aebd 0e86 21bd 7b98 6e3e ccaf acbe
00000380: 8deb 1ebe ee12 833d e5c3 1ebe 8d9a 79be
00000390: 74a8 5a3d 64d0 303b 17ce 3bbd 321c 7a3e
000003a0: cec2 b33e 42e0 983e 9048 e3bd 1040 423e
000003b0: 73cd 633e c023 943e 41bc d0bd 7407 133d
000003c0: fb1f cebd 1224 81bd 0561 b5be 5ef8 b63e
000003d0: 6efe d2be 8e8e c53c 58c2 febc 92e2 573e
000003e0: 2cff 903c 385e 143b 34b0 85be 36c9 9b3c
000003f0: 9699 dfbe 27a1 463e df37 9f3d 0b3d b83e

weight_hh_l0 f4 [40, 10]
0.23761788 0.036618248 -0.2647062 -0.2765345 -0.02361175 0.20741308 -0.27033305 -0.03589592
0.2348111 -0.32741362 -0.32148188 -0.1623537 0.0944166 0.075667456 -0.20241274 -0.18730968
-0.20606348 0.046050243 -0.18236436 0.36598885 0.08187244 -0.3448931 -0.27733454 -0.21441208
-0.17831108 -0.21236125 0.096821405 0.14612293 -0.29158393 -0.16508295 0.16025339 -0.27703178
0.005348143 -0.23766035 -0.14260998 -0.06582074 0.49264944 0.31249636 -0.117896646 0.05966038
-0.28557074 0.24778906 0.20269562 -0.272592 -0.036420826 -0.29707274 -0.010575817 -0.09130926
0.24211763 -0.008939651 -0.09956707 0.134621 -0.09281491 -0.015955174 -0.09077374 -0.39047113
-0.3136198 -0.11640464 0.33403063 0.16550115 -0.20703802 0.058032505 -0.062418956 -0.3343753
-0.20010087 0.336179 0.07226467 -0.14723873 -0.074223734 -0.002632101 0.17609766 -0.14887415
0.1878322 0.08617368 -0.22335313 -0.23755251 0.24704683 -0.12598285 0.027554853 0.10583888
-0.062071975 -0.4572396 -0.021203896 -0.18356755 -0.04654054 -0.021017788 -0.55130327 0.43316442
-0.12756339 0.24171126 0.15420151 0.1261296 0.019011313 0.164926 -0.05869044 -0.21494114
-0.12202279 -0.02982569 -0.10031806 0.054316863 0.19957863 -0.025240563 0.12192189 0.27809492
-0.03518787 -0.1062105 -0.15272738 -0.04015478 0.1479418 0.055079494 0.15751526 -0.1077977
0.002939863 0.24782147 -0.107154585 -0.22661139 0.10224186 -0.019546581 -0.27645946 0.16616061
-0.15590547 0.057967324 0.09227654 0.15651548 -0.3568397 -0.31111696 -0.09550332 0.17227164
-0.15804765 -0.0044932733 0.15747659 0.32792413 -0.10557362 -0.06359552 -0.013129749 0.28215507
0.12872316 0.32780236 0.2839529 0.30642432 0.22682202 0.08284077 -0.14388473 0.17525348
0.025296645 -0.046469063 -0.047590625 0.15751573 -0.34348756 0.29903072 -0.31434536 -0.16384357
-0.3716403 -0.30006543 -0.19473329 -0.17607567 0.15543923 0.22085851 -0.057488743 0.17992333
0.052338693 -0.14491087 -0.27008864 -0.069620326 -0.2691344 -0.08618927 -0.108429424 0.28020898
-0.27237543 0.19723405 -0.34224427 0.16611615 -0.26968074 -0.014723608 0.049075518 -0.4070342
-0.23199287 -0.20066099 0.10678453 -0.07710507 -0.09038414 -0.30215412 -0.3007985 -0.31031695
-0.16844127 0.15080346 -0.36421436 0.345471 -0.0813968 0.34313494 0.008450906 -0.33321553
-0.16404834 0.31163213 -0.2600928 -0.0881743 0.220406 0.0735931 0.012701488 -0.02492068
-0.30193654 0.3152462 0.08706843 -0.029296799 0.27708885 0.12405642 0.17824042 0.0054805884
-0.03150895 -0.043086946 -0.23441698 -0.07568982 -0.20100737 0.09211912 0.2391929 0.018828925
0.22577181 0.2683722 0.107808046 0.187111 0.015919898 0.28541315 -0.23370226 -0.09947452
-0.21041603 -0.16698779 -0.072648585 -0.10722235 -0.25063264 0.087853834 -0.2025626 -0.23743197
0.15085997 -0.020404635 0.24719213 -0.30287945 0.28349712 -0.20107223 0.24757914 0.35072017
0.28745824 -0.022074683 -0.06504758 -0.1915474 -0.25563836 0.11676027 0.08057715 0.032179672
0.020625165 0.2576081 0.2118425 -0.039878782 0.3364104 -0.042214278 0.32026502 -0.05475294
00000000: 1a52 733e 04fd 153d 9287 87be ee95 8dbe
00000010: 6e6d c1bc 1864 543e 1869 8abe 9a07 13bd
00000020: 5272 703e c2a2 a7be 4699 a4be 0c40 26be
00000030: 7e5d c13d 8af7 9a3d 4945 4fbe 1cce 3fbe
00000040: 4e02 53be 2e9f 3c3d b9bd 3abe e462 bb3e
00000050: bdac a73d d495 b0be cbfe 8dbe d78e 5bbe
00000060: 2e97 36be 3a75 59be 4d4a c63d 40a1 153e
00000070: 7d4a 95be 810b 29be 7719 243e 1cd7 8dbe
00000080: 7a3f af3b 3c5d 73be 5a08 12be 06cd 86bd
00000090: 8c3c fc3e 86ff 9f3e cc73 f1bd 715e 743d
000000a0: 5436 92be 6abc 7d3e 718f 4f3e 2e91 8bbe
000000b0: 012e 15bd eb19 98be 3146 2dbc 5900 bbbd
000000c0: afed 773e 9d77 12bc d2e9 cbbd 16da 093e
000000d0: be15 bebd 6db4 82bc 95e7 b9bd d5eb c7be
000000e0: c692 a0be 8e65 eebd 1006 ab3e 2279 293e
000000f0: c601 54be 7eb3 6d3d 05ab 7fbd 3d33 abbe
00000100: 3ee7 4cbe a71f ac3e 80ff 933d c0c5 16be
00000110: 9d02 98bd 547f 2cbb f252 343e 7772 18be
00000120: 1657 403e d47b b03d afb6 64be f740 73be
00000130: d8f9 7c3e a601 01be b7ba e13c 0ec2 d83d
00000140: 2f3f 7ebd 4f1b eabe cbb3 adbc 22f9 3bbe
00000150: 4ba1 3ebd 7f2d acbc 3622 0dbf bac7 dd3e
00000160: fa9f 02be 2883 773e 00e7 1d3e 1e28 013e
00000170: 9dbd 9b3c 5de2 283e 6365 70bd 8819 5cbe
00000180: 16e7 f9bd 0155 f4bc 8e73 cdbd 5c7b 5e3d
00000190: 575e 4c3e 4cc5 cebc 2fb2 f93d 7562 8e3e
000001a0: 2821 10bd e484 d9bd 9164 1cbe 5779 24bd
000001b0: 0e7e 173e 099b 613d ae4b 213e 0ac5 dcbd
000001c0: b7aa 403b e9c4 7d3e dd73 dbbd d10c 68be
000001d0: 2e64 d13d 2720 a0bc 188c 8dbe 0226 2a3e
000001e0: afa5 1fbe 256f 6d3d 7cfb bc3d 9845 203e
000001f0: b1b3 b6be b94a 9fbe 3f97 c3bd fa67 303e
00000200: 3ed7 21be 4f3c 93bb 8b41 213e ace5 a73e
00000210: fb36 d8bd 5e3e 82bd 291e 57bc a176 903e
00000220: 01d0 033e b6d5 a73e 4662 913e a6e3 9c3e
00000230: 0844 683e 6ca8 a93d 8556 13be a675 333e
00000240: e93a cf3c 5856 3ebd 63ee 42bd ce4b 213e
00000250: 9add afbe 8e1a 993e e0f1 a0be 9cc6 27be
00000260: a347 bebe 2da2 99be 2a68 47be 2e4d 34be
00000270: 762b 1f3e bc28 623e 5179 6bbd d23d 383e
00000280: 1961 563d 8463 14be 0f49 8abe 1a95 8ebd
00000290: fccb 89be 0084 b0bd 3f10 debd 8d77 8f3e
000002a0: cb74 8bbe b9f7 493e a43a afbe 5a1a 2a3e
000002b0: 9813 8abe 4a3b 71bc 6903 493d c966 d0be
000002c0: 8a8f 6dbe 137a 4dbe d9b1 da3d 43e9 9dbd
000002d0: 521b b9bd f2b3 9abe 4302 9abe dde1 9ebe
000002e0: de7b 2cbe 396c 1a3e 4e7a babe 93e1 b03e
000002f0: 5eb3 a6bd 62af af3e ab75 0a3c 3a9b aabe
00000300: 4afc 27be 3f8e 9f3e e22a 85be ba94 b4bd
00000310: 1cb2 613e fbb7 963d e719 503c 7426 ccbc
00000320: 6d97 9abe f367 a13e ef50 b23d d7ff efbc
00000330: 97de 8d3e 4b11 fe3d a884 363e 8296 b33b
00000340: 870f 01bd f07b 30bd 010b 70be 4403 9bbd
00000350: e0d4 4dbe f3a8 bc3d fcee 743e 1e3f 9a3c
00000360: ba30 673e 1568 893e 77ca dc3d 079a 3f3e
00000370: 726a 823c ac21 923e a54f 6fbe 4cb9 cbbd
00000380: 4d77 57be d9fe 2abe c8c8 94bd 6497 dbbd
00000390: ec52 80be b6ec b33d 926c 4fbe 5e21 73be
000003a0: 097b 1a3e 9f27 a7bc ef1f 7d3e 0413 9bbe
000003b0: 8926 913e e1e5 4dbe 6385 7d3e 9891 b33e
000003c0: ba2d 933e f7d5 b4bc aa37 85bd 0025 44be
000003d0: 08e3 82be 0220 ef3d a205 a53d d5ce 033d
000003e0: 1bf6 a83c 35e5 833e 3eed 583e ef57 23bd
000003f0: fc3d ac3e e1e8 2cbd c7f9 a33e 9e44 60bd

bias_ih_l0 f4 [40]
-0.22923517 -0.14816873 0.072284184 0.008875591 0.24234056 0.13861981 -0.2568657 0.0996397
0.22193745 0.04093235 0.01766225 0.2823602 -0.0182701 0.14419496 0.20971905 0.21875805
0.02677434 0.058693767 -0.13626727 0.24433601 0.10518054 -0.3149792 0.091892056 0.020280859
-0.18974002 -0.28013262 0.12103414 0.20701814 0.23599577 0.15685497 -0.054923803 0.3429609
-0.19390373 -0.10867347 -0.09373235 -0.056393087 0.2189506 -0.0024418586 -0.054504983 0.44434342
00000000: a0bc 6abe 8bb9 17be bb09 943d ed6a 113c
00000010: 2028 783e 5af2 0d3e e783 83be e60f cc3d
00000020: 9243 633e aea8 273d 6cb0 903c 8491 903e
00000030: 2dab 95bc d8a7 133e 97c0 563e 1c02 603e
00000040: dc55 db3c e068 703d a689 0bbe 3833 7a3e
00000050: e568 d73d f444 a1be e731 bc3d 0b24 a63c
00000060: 354b 42be 8b6d 8fbe bfe0 f73d 90fc 533e
00000070: e0a8 713e 979e 203e c8f7 60bd 9298 af3e
00000080: b38e 46be 3290 debd bff6 bfbd 70fc 66bd
00000090: 9634 603e 9707 20bb 9e40 5fbd fb80 e33e

bias_hh_l0 f4 [40]
-0.07474512 0.23347442 0.122959435 -0.0394628 -0.17351852 0.06893971 -0.06424574 0.16452207
0.11256543 0.21833172 0.21804653 0.32989886 0.06471588 -0.13226458 0.2600347 0.37654245
-0.05514036 0.039278485 -0.12189258 0.23840103 0.16342553 -0.1387605 -0.2450706 -0.2135941
-0.12962629 -0.097951874 0.09686372 0.28961015 0.1341455 0.1496463 0.24155404 -0.15803406
0.17104104 -0.082563065 -0.1768602 0.28426406 -0.13585977 0.26402357 0.06882627 0.26047012
00000000: f813 99bd eb13 6f3e 28d2 fb3d bfa3 21bd
00000010: d7ae 31be 4330 8d3d 4593 83bd 7978 283e
00000020: b488 e63d 5a92 5f3e 9747 5f3e 81e8 a83e
00000030: c289 843d 5e70 07be 4523 853e 2cca c03e
00000040: dcda 61bd 7ae2 203d d1a2 f9bd 661f 743e
00000050: 0659 273e 3c17 0ebe caf3 7abe 69b8 5abe
00000060: c1bc 04be fe9a c8bd 7c60 c63d c847 943e
00000070: 705d 093e e13c 193e f159 773e aed3 21be
00000080: 6225 2f3e d316 a9bd d71a 35be 0f8b 913e
00000090: d31e 0bbe 192e 873e caf4 8c3d 575c 853e

weight_ih_l0 f4 [40, 22]
0.19097367 0.15031108 0.117247485 -0.3055943 0.1509188 -0.30999145 -0.067149855 0.2360098
-0.013222481 -0.03982681 -0.026312845 -0.18274349 -0.23110914 0.25076857 0.07794074 0.18762952
0.31296906 -0.2729721 -0.28524616 0.16674049 0.1430916 -0.36978105 0.2460805 0.14891711
0.10159589 -0.16442591 0.21424282 0.23567331 -0.06356459 -0.014866912 -0.18445794 -0.15530445
-0.17295346 -0.21296978 -0.38922042 0.08935673 -0.23565842 -0.2876645 -0.24855925 -0.08231965
0.13151798 -0.41611385 0.16985212 -0.0062426035 -0.31592503 0.3816906 0.27011696 0.013959415
0.17610262 0.24386925 -0.107105516 0.20381755 -0.17133436 0.36791953 -0.3397925 -0.1664584
0.18030606 0.3273724 -0.40434402 -0.028728371 0.51650536 -0.22253366 -0.20462494 0.16837268
0.17400943 -0.010006741 0.13644521 -0.5199657 -0.25324526 0.023372078 -0.3298628 -0.27435753
-0.3039598 0.147979 -0.038249794 0.12020162 -0.1277138 -0.071674414 0.10294375 0.067194305
-0.22673321 0.1645161 -0.19606914 -0.25515378 -0.05348233 0.52444214 0.13316645 0.26031485
0.0053307237 0.014159857 0.31377894 0.10612101 -0.15552883 -0.21040173 -0.21978302 0.069062956
-0.04988051 0.35555512 0.0047044503 0.1480114 0.25295886 -0.3098765 -0.048533306 -0.25839815
0.17186274 0.21200433 -0.18700428 -0.1156002 0.22640263 0.27397305 0.050165646 -0.3187059
0.1002013 -0.14626223 0.12516806 -0.12544172 -0.19102 -0.0012471174 0.15850113 -0.27266997
-0.29554006 0.20980628 0.1462427 -0.12986131 -0.09692074 -0.06603722 0.028907575 -0.10012293
0.18018562 0.3165743 0.30453032 0.3740306 -0.2155306 0.067273244 -0.26054958 0.027409885
0.09504317 -0.27154595 -0.15973628 -0.016303187 0.2339398 0.22275998 -0.29988045 -0.0640044
0.33761612 0.36532658 -0.25571322 -0.32181475 0.14803192 0.5018887 -0.0113294 0.2645346
-0.139368 -0.20410533 -0.13082242 -0.048321374 -0.25350085 0.4253757 0.13724963 -0.23448074
-0.3394243 0.0061849793 0.29011866 0.016422216 -0.32056105 0.055120144 -0.011225092 0.014238835
0.10863406 0.02370855 -0.07730693 -0.0017361967 -0.04644103 0.32572234 0.10793705 -0.038359582
-0.05182762 -0.30261284 -0.36497068 0.36220893 0.23652703 -0.1816309 0.025491178 -0.15214749
-0.024814026 0.06840262 0.15852782 0.20105018 -0.037433427 -0.27747288 0.22055693 -0.118664786
0.15975872 -0.22816683 -0.13256077 0.30521944 0.13280074 0.061071508 0.20446141 -0.07643967
-0.2767323 0.2620983 0.058822513 -0.04365713 -0.06687897 0.42185044 0.3205391 -0.0245873
-0.27990443 0.030370886 -0.52455485 -0.057724785 0.13547598 0.17133392 -0.15066141 -0.22774135
-0.36247197 0.043306414 -0.08405518 0.2521209 0.15500824 -0.32555467 -0.07029365 0.11535904
-0.24067098 -0.066249765 0.101492435 -0.08742096 0.046881214 -0.115935504 -0.092305586 -0.21616274
-0.10456752 -0.20216027 0.009788597 -0.08896952 -0.084412724 -0.44779453 0.08829196 -0.08298677
0.12030452 -0.21923533 0.16426264 -0.17953613 -0.38015395 0.056275744 -0.30591306 0.02903648
-0.0067208214 0.31839827 0.064419515 0.26908883 -0.5061234 -0.021163633 -0.102643505 -0.2268057
00000000: 9a8e 433e 26eb 193e 731f f03d db76 9cbe
00000010: 758a 1a3e 33b7 9ebe dd85 89bd 8eac 713e
00000020: 1ba3 58bc 7021 23bd 098e d7bc 1c21 3bbe
00000030: e0a7 6cbe bd64 803e 659f 9f3d f421 403e
00000040: 7b3d a03e 00c3 8bbe c90b 92be 05be 2a3e
00000050: 9b86 123e f153 bdbe 87fc 7b3e ba7d 183e
00000060: 8211 d03d 445f 28be 7862 5b3e 5854 713e
00000070: 272e 82bd 5994 73bc 8be2 3cbe 2108 1fbe
00000080: b61a 31be c014 5abe e647 c7be a900 b73d
00000090: 7150 71be c348 93be 5186 7ebe 3497 a8bd
000000a0: a6ac 063e e00c d5be b7ed 2d3e c18e ccbb
000000b0: edc0 a1be f36c c33e c54c 8a3e 08b6 643c
000000c0: 3f54 343e dcb8 793e 235a dbbd 8cb5 503e
000000d0: 4672 2fbe f35f bc3e 48f9 adbe 1274 2abe
000000e0: 27a2 383e 5b9d a73e 2e06 cfbe c357 ebbc
000000f0: b239 043f dddf 63be 3389 51be e369 2c3e
00000100: 872f 323e 50f3 23bc 4bb8 0b3e 791c 05bf
00000110: 5da9 81be cd76 bf3c c7e3 a8be 9778 8cbe
00000120: 9ea0 9bbe cf87 173e d1ab 1cbd 442c f63d
00000130: 68c7 02be 09ca 92bd 2cd4 d23d 2b9d 893d
00000140: c02c 68be e976 283e 59c6 48be 84a3 82be
00000150: 4a10 5bbd d741 063f c95c 083e fd47 853e
00000160: 5aad ae3b bffe 673c a2a7 a03e f955 d93d
00000170: f342 1fbe 8d73 57be cd0e 61be e170 8d3d
00000180: 814f 4cbd 520b b63e ca27 9a3b 4d90 173e
00000190: d383 813e 22a8 9ebe dcca 46bd c34c 84be
000001a0: c9fc 2f3e aa17 593e 0d7e 3fbe ccbf ecbd
000001b0: 17d6 673e 3246 8c3e 7e7a 4d3d 6b2d a3be
000001c0: 5736 cd3d c4c5 15be 0e2c 003e cb73 00be
000001d0: bf9a 43be 5176 a3ba 1f4e 223e 669b 8bbe
000001e0: 0751 97be 75d7 563e a5c0 153e 5dfa 04be
000001f0: 627e c6bd 863e 87bd 94cf ec3c 400d cdbd
00000200: 9482 383e 0716 a23e 66eb 9b3e f080 bf3e
00000210: 0eb4 5cbe 8ec6 893d c166 85be b28a e03c
00000220: fea5 c23d 1208 8bbe e891 23be 438e 85bc
00000230: ea8d 6f3e 311b 643e ee89 99be bd14 83bd
00000240: 05dc ac3e 160c bb3e d8ec 82be e7c4 a4be
00000250: ae95 173e c77b 003f f39e 39bc 1471 873e
00000260: 7cb6 0ebe fd00 51be 50f6 05be a2ec 45bd
00000270: ddca 81be d8ca d93e 2b8b 0c3e b81b 70be
00000280: 06c9 adbe 5eab ca3b 6f8a 943e e287 863c
00000290: 9420 a4be a9c5 613d 73e9 37bc 014a 693c
000002a0: 897b de3d 6f38 c23c 1953 9ebd 1891 e3ba
000002b0: f338 3ebd 14c5 a63e 1a0e dd3d f01e 1dbd
000002c0: 3349 54bd 12f0 9abe 70dd babe 7373 b93e
000002d0: 2434 723e 73fd 39be e0d2 d03c 8dcc 1bbe
000002e0: c946 cbbc ac16 8c3d 1e55 223e 19e0 4d3e
000002f0: cb53 19bd ed10 8ebe add9 613e 8606 f3bd
00000300: ca97 233e 91a4 69be 03be 07be b945 9c3e
00000310: ebfc 073e 1e26 7a3d 555e 513e 678c 9cbd
00000320: dbaf 8dbe c031 863e e0ef 703d d2d1 32bd
00000330: d7f7 88bd c8fc d73e b31d a43e 4e6b c9bc
00000340: a24f 8fbe 5dcc f83c 3a49 06bf d370 6cbd
00000350: 37ba 0a3e 2972 2f3e fc46 1abe 0735 69be
00000360: ed95 b9be 1162 313d 1f25 acbd fe15 813e
00000370: 7bba 1e3e 1aaf a6be 1ef6 8fbd 5c41 ec3d
00000380: 7472 76be f5ad 87bd 44db cf3d c309 b3bd
00000390: 8406 403d 986f edbd b60a bdbd c459 5dbe
000003a0: 7f27 d6bd 1a03 4fbe 5a60 203c a735 b6bd
000003b0: 94e0 acbd 5345 e5be 6ad2 b43d f8f4 a9bd
000003c0: 3762 f63d 3a7f 60be 7734 283e 52d8 37be
000003d0: 8aa3 c2be 6581 663d a3a0 9cbe e9dd ed3c
000003e0: 563a dcbb 1905 a33e 61ee 833d 03c6 893e
000003f0: 4e91 01bf 5b5f adbc c236 d2bd c13f 68be

weight_hh_l0 f4 [40, 10]
0.010065492 0.115129046 0.1075447 0.21648587 -0.2848816 -0.087952584 0.10704174 -0.32061365
0.1924281 -0.19514436 -0.20969273 0.32327747 0.29090092 0.022024112 0.2896593 -0.11084099
0.2361888 0.0461202 -0.28987646 0.12339589 0.17736048 -0.24729376 0.23321319 -0.6678664
-0.21755463 -0.13040105 0.22395925 -0.004676656 -0.032467842 -0.17409962 0.1749738 -0.13357769
0.25117624 0.044668842 -0.0023809602 0.123332515 0.3346345 -0.031745207 -0.37766704 -0.085263565
0.012588876 -0.046000328 0.38289502 0.13348757 0.29618406 -0.17127877 0.6793145 -0.006218892
0.014955748 -0.16171516 -0.11578005 0.15239415 0.34655842 -0.3040365 0.33502927 -0.21891282
-0.14323147 0.2802863 -0.35848996 -0.17846255 -0.18631406 0.20941263 0.38219678 0.6874688
0.31231463 -0.15197764 -0.0459922 0.22030507 0.04844732 -0.22381012 -0.18736471 0.03897766
0.37901112 0.02893625 0.029223725 0.16062142 0.11418399 0.26689804 -0.0021885545 -0.31615105
-0.114946455 0.24806902 0.10645027 -0.22443946 0.16126776 0.24642937 0.1755857 -0.18375301
0.2448556 0.12518126 -0.3107717 0.32646146 0.38373324 0.28641176 0.3852512 -0.047035605
-0.0822494 0.13241333 -0.15104373 -0.27130488 -0.16238736 0.23763475 0.00023033797 0.2938074
0.018799977 0.0736696 -0.034188062 0.1821558 0.024920138 -0.22677943 0.11602973 0.075028606
-0.06036115 -0.11587835 0.20893171 0.06832203 0.13233794 -0.1586285 -0.0458878 -0.22190072
0.20511979 -0.1825559 -0.19395427 -0.60322464 -0.0022051116 0.2196208 0.091605596 0.12885527
-0.25734794 0.1198729 -0.24503277 0.079488456 0.21423866 -0.39274365 0.2419553 0.29973128
-0.21013717 0.010031287 -0.15427236 0.20205824 -0.13353097 0.21745084 0.20736033 -0.038422104
-0.0534208 0.49229127 -0.056128956 0.26323557 -0.34904587 0.137469 0.2441675 -0.20521204
-0.16511601 -0.09648151 0.0317168 0.19578211 0.032656766 0.06376167 -0.24135964 -0.15525855
0.22375838 0.23179232 0.09647093 0.26809803 0.37921056 -0.09499726 -0.2688139 0.27622032
0.28672394 0.17187038 0.10469185 -0.12921198 0.16967228 0.078442805 0.007856276 -0.042817388
-0.047175363 0.38951734 0.08030428 -0.033128917 -0.0056828517 0.06705958 -0.077414244 -0.11361655
0.205547 -0.22823614 -0.2267856 0.24282752 0.14330475 0.23230655 -0.31421465 0.25842825
-0.061781168 0.12996839 0.31674024 -0.17888242 -0.2753173 0.19004616 0.029160816 -0.032627616
-0.026286315 -0.39360154 -0.19629413 0.18853422 -0.07891313 -0.1663674 0.45448118 -0.09681763
-0.14695258 -0.17370354 -0.10577731 0.43039542 0.18965681 -0.16410075 -0.11103176 0.25489926
-0.34320918 -0.21027042 -0.041664086 0.109427944 0.04434515 0.24775222 -0.12237058 -0.05101414
0.39187786 0.18409528 -0.11264151 0.042874865 -0.2769856 0.18746844 -0.13604394 -0.059359796
0.3932654 0.34787542 -0.12604353 0.0040326347 -0.06480272 -0.037972655 0.04718649 0.066943966
0.26959857 -0.3147428 0.26190573 -0.091321975 0.30376792 0.04108611 -0.275127 0.030451372
-0.17783034 -0.04030986 -0.10150213 -0.02732281 -0.31926754 0.44782192 0.093419924 0.2949034
00000000: bce9 243c c7c8 eb3d 6540 dc3d 79ae 5d3e
00000010: 00dc 91be 7c20 b4bd b338 db3d 7927 a4be
00000020: df0b 453e ecd3 47be b1b9 56be a084 a53e
00000030: f7f0 943e e96b b43c 394e 943e 9a00 e3bd
00000040: 7adb 713e 89e8 3c3d b06a 94be fcb6 fc3d
00000050: fc9d 353e 933a 7dbe 70cf 6e3e 4bf9 2abf
00000060: a4c6 5ebe da87 05be 9355 653e a23e 99bb
00000070: 00fd 04bd 2c47 32be 552c 333e 97c8 08be
00000080: 2c9a 803e adf6 363d e209 1cbb c295 fc3d
00000090: 3755 ab3e 4307 02bd 935d c1be aa9e aebd
000000a0: 9341 4e3c d76a 3cbd d10a c43e f7b0 083e
000000b0: 70a5 973e b463 2fbe 8ee7 2d3f d9c7 cbbb
000000c0: f408 753c a998 25be 171e edbd 360d 1c3e
000000d0: 1b70 b13e acaa 9bbe f588 ab3e af2a 60be
000000e0: 45ab 12be b081 8f3e ff8b b7be e3be 36be
000000f0: 1dc9 3ebe 4470 563e 4caf c33e f5fd 2f3f
00000100: b4e7 9f3e 07a0 1bbe 5162 3cbd a797 613e
00000110: b270 463d 7b2e 65be 89dc 3fbe 0aa7 1f3d
00000120: bf0d c23e b70b ed3c 9866 ef3c f179 243e
00000130: 4cd9 e93d dca6 883e da6d 0fbb 8dde a1be
00000140: 0c69 ebbd ce05 7e3e 9902 da3d 75d3 65be
00000150: 6023 253e fb57 7c3e bdcc 333e c029 3cbe
00000160: 6dbb 7a3e 842f 003e 781d 9fbe f525 a73e
00000170: af78 c43e 90a4 923e a53f c53e 68a8 40bd
00000180: 6072 a8bd 5c97 073e 35ab 1abe 79e8 8abe
00000190: df48 26be 8656 733e e186 7139 ec6d 963e
000001a0: 6902 9a3c 16e0 963d c808 0cbd 0d87 3a3e
000001b0: 5125 cc3c de38 68be ffa0 ed3d 99a8 993d
000001c0: 413d 77bd a151 edbd 32f2 553e 6cec 8b3d
000001d0: 9983 073e 826f 22be d9f4 3bbd f139 63be
000001e0: ec0a 523e efef 3abe f39b 46be ee6c 1abf
000001f0: a283 10bb 46e4 603e b79b bb3d a3f2 033e
00000200: 1cc3 83be ec7f f53d dfe9 7abe d8ca a23d
00000210: 6161 5b3e b215 c9be 21c3 773e 6176 993e
00000220: 332e 57be 445a 243c 93f9 1dbe 5be8 4e3e
00000230: 58bc 08be 6fab 5e3e 4456 543e 7f60 1dbd
00000240: c5cf 5abd 9a0d fc3e 7ae7 65bd d0c6 863e
00000250: 24b6 b2be acc4 0c3e 0c07 7a3e 1b23 52be
00000260: 2c14 29be 1998 c5bd 7ae9 013d 1b7b 483e
00000270: 1ac3 053d 7a95 823d fb26 77be 19fc 1ebe
00000280: eb20 653e f75a 6d3e 8d92 c53d 2544 893e
00000290: e327 c23e ec8d c2bd faa1 89be c06c 8d3e
000002a0: 7bcd 923e cafe 2f3e ae68 d63d 2550 04be
000002b0: 92be 2d3e 9fa6 a03d 9cb7 003c 4961 2fbd
000002c0: f43a 41bd d16e c73e 9276 a43d 30b2 07bd
000002d0: 3737 babb 8856 893d 5c8b 9ebd cbaf e8bd
000002e0: ea7a 523e bcb6 69be 7c3a 68be c7a7 783e
000002f0: 7bbe 123e c5e1 6d3e bee0 a0be b550 843e
00000300: 400e 7dbd 6f16 053e c72b a23e f42c 37be
00000310: 64f6 8cbe 769b 423e aae2 ee3c 89a4 05bd
00000320: 6656 d7bc 2486 c9be 5401 49be 1d0f 413e
00000330: 359d a1bd 375c 2abe c2b1 e83e 5248 c6bd
00000340: bd7a 16be 57df 31be c6a1 d8bd ca5c dc3e
00000350: 6535 423e 070a 28be 9f64 e3bd 2882 823e
00000360: 1db9 afbe 2151 57be f6a7 2abd c21b e03d
00000370: 43a3 353d c2b2 7d3e 6d9d fabd 34f4 50bd
00000380: 37a4 c83e 7983 3c3e 98b0 e6bd 8e9d 2f3d
00000390: 0ed1 8dbe baf7 3f3e 1a4f 0bbe 4223 73bd
000003a0: 155a c93e ba1c b23e 8e11 01be 3124 843b
000003b0: 4ab7 84bd 3789 1bbd 9f46 413d eb19 893d
000003c0: d308 8a3e f825 a1be 8218 863e 0407 bbbd
000003d0: 7887 9b3e e949 283d 72dd 8cbe 2875 f93c
000003e0: 2819 36be f41b 25bd 59e0 cfbd 16d4 dfbc
000003f0: 0977 a3be ea48 e53e f252 bf3d 94fd 963e

bias_ih_l0 f4 [40]
0.19279322 0.26286367 -0.26602963 0.4367367 0.23423387 -0.14755097 0.0019432743 0.39087
0.35205227 0.16959071 -0.23560537 -0.058588546 -0.23993257 -0.025534937 -0.14069372 0.12797223
0.20359375 0.04286837 0.2543158 0.38210955 0.06188531 0.17108126 -0.2581558 0.31575683
0.09975932 0.24166277 -0.15233532 0.13970563 -0.14440785 -0.053124547 0.07657536 -0.16650306
0.056224953 0.21026199 0.08618053 0.3140923 0.5288154 0.22663197 -0.2515948 0.07491354
00000000: 966b 453e 1196 863e 0935 88be f49b df3e
00000010: 01db 6f3e 9a17 17be 77b5 fe3a 1d20 c83e
00000020: 3240 b43e 30a9 2d3e 8942 71be 8bfa 6fbd
00000030: e2b0 75be a52e d1bc 0412 10be 270b 033e
00000040: e17a 503e be96 2f3d ae35 823e dda3 c33e
00000050: 737b 7d3d ed2f 2f3e ff2c 84be e1aa a13e
00000060: 9d4e cc3d 7276 773e cafd 1bbe fe0e 0f3e
00000070: a7df 13be 2099 59bd 8bd3 9c3d c77f 2abe
00000080: 234c 663d eb4e 573e 6b7f b03d b5d0 a03e
00000090: 7260 073f 3612 683e 09d1 80be 456c 993d

bias_hh_l0 f4 [40]
0.1252975 -0.2451549 -0.21636485 0.015670115 -0.29210746 0.33272335 0.21557273 -0.07465126
0.3520401 -0.03545563 0.27266774 0.41622055 -0.0161931 -0.035928097 0.24622725 -0.0011357355
-0.03274566 0.28038603 -0.026261974 0.43830195 0.032795083 0.18834059 0.23849735 0.11329882
0.23503307 -0.15277524 0.13863291 0.25778267 -0.24781044 0.33098143 0.115182355 0.20002607
-0.098717846 0.013414167 0.13381268 -0.23873314 0.46811536 -0.120096736 0.17803441 -0.12530987
00000000: fd4d 003e e309 7bbe bf8e 5dbe 9d5e 803c
00000010: 1c8f 95be b75a aa3e 19bf 5c3e c3e2 98bd
00000020: 9a3e b43e ec39 11bd 1b9b 8b3e dc1a d53e
00000030: 64a7 84bc 5729 13bd ff22 7c3e f6dc 94ba
00000040: 5020 06bd c28e 8f3e 5a23 d7bc 1d69 e03e
00000050: 2354 063d 5bdc 403e a638 743e 3609 e83d
00000060: 82ac 703e 1d71 1cbe c9f5 0d3e 17fc 833e
00000070: 05c2 7dbe 6676 a93e bae4 eb3d a2d3 4c3e
00000080: 952c cabd 18c7 5b3c 3106 093e 7676 74be
00000090: d1ac ef3e 47f5 f5bd a74e 363e 3b51 00be

weight_ih_l0 f4 [40, 22]
0.18307479 -0.35028088 -0.18567704 0.45162472 -0.04429637 -0.1443616 -0.29424804 0.01061177
0.10406286 -0.2074024 -0.31952065 0.1370226 0.14531954 -0.097669214 -0.40326813 0.33613455
0.28749466 -0.08410753 -0.397532 0.47332966 0.40035728 0.064981334 -0.29686704 -0.0479512
-0.30900535 0.082636714 0.013499878 -0.45500416 -0.030926757 0.04471987 -0.23155332 -0.14228201
0.11702464 0.29280943 -0.32828593 0.2076177 -0.05746482 0.12068893 0.068953164 -0.084602654
0.06411507 -0.027921334 0.12466899 0.26707664 -0.04441967 -0.050785962 -0.3463519 0.0050971597
-0.19081552 -0.06307795 0.07431514 0.27372974 -0.29702327 0.05866491 0.081920125 -0.07562285
-0.28142342 0.2094492 -0.62038463 0.24570104 -0.16461569 -0.09001985 -0.102373645 0.20836075
0.1882348 -0.006451405 -0.20443234 0.020536063 -0.08834511 -0.21132937 -0.14623252 0.16645464
-0.085660316 0.18781279 -0.09994212 0.16686109 0.015959956 0.27417743 0.0060156696 -0.064303555
-0.1450599 0.1174489 0.25640228 -0.40438718 -0.40382978 0.073379345 0.29311782 0.23704036
-0.2239291 -0.07867852 0.096616074 0.060215592 0.0010778991 -0.20506896 -0.07186426 0.100466184
0.17234947 0.025042985 -0.27027792 0.069416806 0.46611023 0.21386762 0.07188982 -0.01778525
-0.13607952 0.18662183 -0.2540166 0.23683289 0.11647662 0.23504132 -0.06326948 -0.2706737
0.20745367 -0.047280025 -0.15405972 -0.1426577 -0.14817604 -0.08354084 0.01418885 -0.29321834
0.2547234 -0.18693835 0.049716476 -0.22480002 0.048205968 0.011696129 0.32086492 0.18333854
-0.12399356 -0.24843636 -0.076176025 0.042215675 -0.07855137 0.160867 -0.20892741 0.14569491
-0.111581124 -0.021387283 0.056230534 -0.0050333817 0.0038889754 -0.21798186 0.2717869 0.3660312
0.30413175 0.2544347 -0.23890941 0.1509057 0.40182963 -0.03995885 -0.0050066183 -0.058377247
-0.10036929 0.12188424 0.4159577 -0.2770569 0.14148091 -0.20387019 -0.09656806 0.011782063
-0.41926312 0.19527215 -0.02979314 -0.26781997 0.4313884 -0.09011312 0.15319936 0.1765427
0.13021125 0.08109644 -0.19495866 -0.20067956 0.101382755 -0.22771783 0.045717902 0.37890482
-0.013713898 0.30921122 -0.26160514 -0.21102948 0.2979271 -0.005224537 0.019358702 -0.104679525
0.03887522 0.16725756 -0.28097692 -0.3194972 -0.40339756 -0.08271021 -0.09532002 -0.2543473
0.08830893 0.11739909 -0.10670149 -0.31076354 0.16574407 0.287804 -0.08620183 -0.18420593
-0.04560809 -0.076156154 0.15740648 0.041027647 -0.36704043 -0.13191608 -0.11238872 -0.21769914
-0.31640804 -0.0033035793 -0.31282237 0.037602358 -0.28293335 -0.2246207 -0.25707763 -0.0059708403
-0.3793967 0.29789025 -0.21487911 -0.023536857 -0.14964029 -0.3547191 -0.0495753 0.096138366
0.22988464 0.014140931 0.09803225 -0.035982158 0.17469463 -0.46834418 -0.32965782 0.07948549
0.036842253 -0.28585824 -0.14798589 0.33358908 0.0986755 -0.18014212 -0.22529568 0.1581779
-0.09621376 0.0333396 0.20353773 0.008753554 -0.27185044 0.24568313 0.05956863 -0.3086973
0.022758067 0.28605887 -0.23093592 -0.21667172 0.086536475 0.5199562 -0.17727335 -0.35765117
00000000: f577 3b3e 0458 b3be 1f22 3ebe 5b3b e73e
00000010: 1c70 35bd 87d3 13be aea7 96be fddc 2d3c
00000020: e91e d53d 4b61 54be 3698 a3be a74f 0c3e
00000030: a5ce 143e cc06 c8bd 2979 cebe d419 ac3e
00000040: 8032 933e 9240 acbd 5089 cbbe 4458 f23e
00000050: a1fb cc3e ef14 853d f5fe 97be 7a68 44bd
00000060: f335 9ebe 703d a93d 982e 5d3c 4ef6 e8be
00000070: 1c5a fdbc 2f2c 373d 501c 6dbe 60b2 11be
00000080: 9daa ef3d 1eeb 953e 1815 a8be bc99 543e
00000090: 3b60 6bbd c22b f73d 5137 8d3d 2844 adbd
000000a0: c34e 833d 48bb e4bc 7552 ff3d 45be 883e
000000b0: 66f1 35bd f104 50bd 0955 b1be 1306 a73b
000000c0: 2565 43be 032f 81bd 8932 983d 4e26 8c3e
000000d0: 6f13 98be 9e4a 703d bdc5 a73d 27e0 9abd
000000e0: bb16 90be da79 563e 87d1 1ebf 0e99 7b3e
000000f0: 0491 28be 545c b8bd 46a9 d1bd 855c 553e
00000100: a0c0 403e 4f66 d3bb b656 51be 3f3b a83c
00000110: 48ee b4bd ba66 58be fabd 15be 1673 2a3e
00000120: ad6e afbd ff51 403e 74ae ccbd a2dd 2a3e
00000130: 74be 823c fc60 8c3e 181f c53b 95b1 83bd
00000140: 958a 14be 0d89 f03d 2947 833e d60b cfbe
00000150: c7c2 cebe e947 963d 8a13 963e b5ba 723e
00000160: ac4d 65be 3422 a1bd a6de c53d a0a4 763d
00000170: 4b48 8d3a 99fd 51be 922d 93bd 37c1 cd3d
00000180: 617c 303e f226 cd3c de61 8abe 662a 8e3d
00000190: 00a6 ee3e 1d00 5b3e f83a 933d 5fb2 91bc
000001a0: 6e58 0bbe cb19 3f3e 770e 82be 5284 723e
000001b0: 4b8b ee3d acae 703e 6e93 81bd be95 8abe
000001c0: bc6e 543e b3a8 41bd d5c1 1dbe dc14 12be
000001d0: 76bb 17be 7617 abbd 5a78 683c b720 96be
000001e0: 1b6b 823e c46c 3fbe 81a3 4b3d fa31 66be
000001f0: 9f73 453d 1fa1 3f3c 6848 a43e 19bd 3b3e
00000200: 56f0 fdbd 1a66 7ebe 2d02 9cbd 58ea 2c3d
00000210: 8adf a0bd 52ba 243e 11f1 55be 0c31 153e
00000220: a584 e4bd 6234 afbc fd51 663d 11ef a4bb
00000230: 2ede 7e3b a336 5fbe a727 8b3e 7168 bb3e
00000240: 28b7 9b3e 4445 823e aba4 74be 0687 1a3e
00000250: 9dbc cd3e e4ab 23bd 8f0e a4bb fb1c 6fbd
00000260: 6a8e cdbd 729e f93d 68f8 d43e 67da 8dbe
00000270: 5fe0 103e 59c3 50be 7ac5 c5bd 8e09 413c
00000280: a8a9 d6be 6cf5 473e be10 f4bc b31f 89be
00000290: f1de dc3e 3a8d b8bd 4be0 1c3e 9cc7 343e
000002a0: 1956 053e e415 a63d 3ea3 47be f17e 4dbe
000002b0: c3a1 cf3d dd2e 69be b242 3b3d d0ff c13e
000002c0: 42b0 60bc ef50 9e3e 1cf1 85be 1d18 58be
000002d0: e789 983e 9832 abbb 2496 9e3c 3862 d6bd
000002e0: 9f3b 1f3d 9145 2b3e 35dc 8fbe 2395 a3be
000002f0: 208a cebe f863 a9bd 2537 c3bd cf39 82be
00000300: 50db b43d ef6e f03d 5086 dabd 661c 9fbe
00000310: d0b8 293e 0c5b 933e 968a b0bd 7ba0 3cbe
00000320: 8ccf 3abd c2f7 9bbd 2a2f 213e 9b0c 283d
00000330: b9ec bbbe 0215 07be 0f2c e6bd 86ec 5ebe
00000340: 3c00 a2be dd80 58bb 412a a0be ee04 1a3d
00000350: a4dc 90be f802 66be ae9f 83be 0aa7 c3bb
00000360: 4940 c2be 1285 983e 4509 5cbe 5ed0 c0bc
00000370: 4e3b 19be be9d b5be 780f 4bbd 31e4 c43d
00000380: e166 6b3e 5daf 673c 22c5 c83d 0762 13bd
00000390: 26e3 323e cfca efbe e9c8 a8be 4ac9 a23d
000003a0: e7e7 163d 035c 92be 9d89 17be 30cc aa3e
000003b0: 6116 ca3d 2d77 38be e9b3 66be 63f9 213e
000003c0: b80b c5bd 1b8f 083d 326c 503e 116b 0f3c
000003d0: fb2f 8bbe 5c94 7b3e 3cfe 733d 930d 9ebe
000003e0: 206f ba3c 4f76 923e 777a 6cbe 31df 5dbe
000003f0: 093a b13d d91b 053f 2587 35be 0e1e b7be
