LSTM/code/model/old_model/model_mk6_50epoch_1.2167trainloss_0.8452validloss.pt (torch, 46404 bytes, 32 tensors)

weight_ih_l0 f4 [40, 22]
00000000: 404b 153e efbf 413b f421 98be 69bf 7b3e
00000010: 255f 00bc 7b28 5a3e 107f 96bd 91c4 bfbd
00000020: 55c1 fcbd 88af 033e 6158 9e3c 16d0 9e3e
00000030: 5abf 82be 0e50 043a d154 833d ff4b 24be
00000040: 27b9 b4bd 0c3f 24be 50cd 1e3e 2fb4 9c3e
00000050: 153d d53d e970 bdbd 6e2d 0e3e d4ca 4ebc
00000060: 327e babc 8b4c ccbd e67f 0ebe 766d 7c3e
00000070: ae07 2e3e 6df4 533e a138 f5bc 06c1 5b3e
00000080: 78a5 743e 61c6 b73e e251 3abe a983 173e
00000090: f9b3 003e 3cfd b93d 9acf a53d c65a 693e
000000a0: 27c5 be3d 9817 863d c005 583e 6ea7 f2bd
000000b0: 3648 803e aab6 d23d 7b8e 5d3d e26f 4cbe
000000c0: d06b 663e 81ef 9e3e a682 ef3c ad28 84be
000000d0: c1e3 893e b770 20be 2925 b6be 8349 83be
000000e0: a410 063e 436b 64be 5fa4 473e 9b32 a93e
000000f0: 51f4 37be 6733 443e 8da4 62be 6da4 7bbe
00000100: a5b8 073e 4b5f 373e e859 dd3d 2d71 b4be
00000110: 24c2 0ebe 0958 3f3e 9688 7d3e 0e59 2fbe
00000120: afac 9abd e2db 013d be63 d13d f95a 7d3e
00000130: 6408 8abe 6a02 893d 8008 8bbe a577 b3bd
00000140: 3a52 ab3d 355c 60be 56c9 4f3e 1ada a6be
00000150: 4786 44be 3c4d b73e ade3 30bd f8d4 5abd
00000160: 14f6 f8bd 6966 9a3e 1a17 2fbc 4ce2 19bd
00000170: 750e 633e 100e 30be 4cc1 343c f944 8c3d
00000180: 052b a9be 39a6 0c3d 6752 5a3e c049 54be
00000190: c453 153e 7b5b ee3d 5c21 46be 57fe 873e
000001a0: 3ccc 033d 6be2 47bc 15f9 3ebe db7b 08be
000001b0: c85e 84be 10bf f23d 296c ee3d 1a84 713e
000001c0: 675e c13d fa2f 593e db25 a43d 1453 183e
000001d0: c935 80be 359d 6ebd 16cd 1ebe 5f4a 2fbe
000001e0: 872b 8a3d 19db a53e 3268 4bbe e804 2abe
000001f0: 74de 363e fa32 143e c97f f73d 69af 333d
00000200: 566a 0bbe d31f 793e a44c 913e 5edd 1e3e
00000210: 4f47 6c3e fa16 53be eb2d cfbd 9f34 203d
00000220: bd17 faba 5873 d7bd beac 643e e926 e43d
00000230: f067 eabc 6055 8c3e f42b a83c f908 fa3d
00000240: be88 a33d b993 a23b 0e3a fabd 724a 833e
00000250: 8313 3bbd 38a1 38bd 0be8 123e 883c 20be
00000260: 6285 2ebd c4c9 123e fbdd f6bd 27cc c3bd
00000270: bb27 16be 33d2 09bd b38c 9dbe 54a1 96be
00000280: 7e3c 863e 3864 2b3e 0e42 323e 02b0 df3d
00000290: 0442 cf3d 7ef0 7bbe c180 643e cfab 9cbe
000002a0: 6dc0 3f3e 7228 97bd c032 e7bd a30b 613e
000002b0: 644c 6fbe e085 563e 834f 7fbd b23d 55bd
000002c0: d0bb 76be 2792 97be c772 e0bd a160 a2bd
000002d0: e00f 59be aa3c 333e cc39 b0be e4c4 723d
000002e0: 56ad 34bd aeea 59be 90c5 bcbe 3f3c 03be
000002f0: a54c a33e f1e2 82be 9b4a b2be 6e78 a2bd
00000300: 8cd3 42be b143 35be c7dd 353d ac0d c83d
00000310: 28d8 a4bc f73c 823e d052 603e d1ca a73d
00000320: e02a 04be fc47 bd3e 0c26 49be b4d9 083e
00000330: 5831 463d 3b9f b5bd 628f 40be 973f abbe
00000340: aedb 793d 82d4 4e3e 6410 eebd 38c7 4d3e
00000350: c8d2 253d b953 b13e 61ad 853d 985c 263e
00000360: 419c b3be 41df bc3e 1607 a2bd a754 bb3e
00000370: 4078 823e eb53 4a3d 6afb 79bd 5f9b 293d
00000380: 2554 593e 2ec5 16bd 0aec 56be 1a8a 3ebe
00000390: 46a0 cebd 7e82 ca3d 36dc 343e e069 a7bd
000003a0: 91a8 9b3e 0e3d 8cbe ef3f 3b3e e1cd 3ebe
000003b0: fff8 1bbd b2d5 96be e0a7 71be a776 c43e
000003c0: 51b7 253e 669e 6a3e 2566 3fbe 4dce 8dbe
000003d0: 644f bfbc 701c cd3e da5b 393d 8b5c 39be
000003e0: 7ae9 09be c5a8 02be a43d 323e 926b aa3d
000003f0: d276 abbe d009 30be 6664 2f3e 352f fd3c
0.14579487 0.0029563864 -0.29713404 0.24584736 -0.007835184 0.21304505 -0.07348454 -0.09363664
-0.12341563 0.12859929 0.019329252 0.31018132 -0.25536615 0.00050473295 0.06412662 -0.16044615
-0.088243775 -0.16039675 0.15508008 0.3060622 0.10412041 -0.092500515 0.13884518 -0.0126216
-0.022765253 -0.09975537 -0.13915977 0.24651131 0.16995117 0.2069871 -0.02993423 0.21460351
0.23891246 0.3589354 -0.18195298 0.14796318 0.12568654 0.09081504 0.080962375 0.22788534
0.093149476 0.06547469 0.21095943 -0.11848341 0.25055093 0.10288747 0.054090958 -0.19964555
0.22502065 0.31042102 0.029237103 -0.25812283 0.26931575 -0.15667997 -0.35575226 -0.25642022
0.13092285 -0.22306542 0.19496296 0.3304642 -0.17964293 0.19160233 -0.22133084 -0.24574442
0.1325403 0.17907445 0.10808164 -0.35242596 -0.13941246 0.18685926 0.24759135 -0.17123815
-0.07552468 0.031703837 0.102241024 0.24741735 -0.26959527 0.066899136 -0.27154922 -0.08763055
0.08365293 -0.21910174 0.20291647 -0.32588273 -0.19191848 0.35801113 -0.04318588 -0.05342576
-0.12156311 0.30156258 -0.01068666 -0.03756933 0.22173484 -0.17192864 0.011032414 0.06849093
-0.33040634 0.03433821 0.21320496 -0.20731258 0.14582735 0.11638542 -0.19348663 0.26561233
0.032177195 -0.012199978 -0.18649705 -0.13328497 -0.25853562 0.118528485 0.11641724 0.23585549
0.09441834 0.21209708 0.08015033 0.14875442 -0.25041035 -0.058255393 -0.15507922 -0.17118214
0.067465834 0.3239372 -0.19863966 -0.16603434 0.17858297 0.14472571 0.1208492 0.043868456
-0.13614783 0.24328546 0.28378785 0.15514132 0.23074077 -0.20614234 -0.1011618 0.039112683
-0.0019080561 -0.10520047 0.22331521 0.11140234 -0.028614014 0.27408886 0.020528771 0.12208743
0.07985066 0.0049614576 -0.12218104 0.25642735 -0.045672905 -0.045075625 0.1434633 -0.15648091
-0.042607673 0.1433478 -0.12054058 -0.09560423 -0.14663593 -0.033647727 -0.30771407 -0.2941996
0.26218027 0.16737449 0.1740801 0.10922243 0.10120013 -0.24603459 0.2231474 -0.3059983
0.18725748 -0.07380761 -0.11288977 0.21977095 -0.23368984 0.20949507 -0.062331688 -0.05206079
-0.24095082 -0.29603693 -0.10959392 -0.07928587 -0.21197462 0.1750361 -0.34419096 0.0592698
-0.04411062 -0.2128093 -0.36869478 -0.12815951 0.31894413 -0.25563768 -0.34822544 -0.079331264
-0.19026011 -0.17701603 0.044400956 0.09768233 -0.020122603 0.25437137 0.2190659 0.08192981
-0.1290698 0.36968982 -0.1964342 0.13364297 0.0483869 -0.088682614 -0.18804696 -0.33446953
0.06100052 0.20198253 -0.1162422 0.20095527 0.04048422 0.34634188 0.0652721 0.16246259
-0.3508015 0.3688908 -0.07911508 0.36588022 0.25482368 0.049396437 -0.061030783 0.04140794
0.21223505 -0.03680914 -0.2098848 -0.18607369 -0.100891635 0.09888171 0.17662129 -0.08174491
0.30402043 -0.2739033 0.18286107 -0.18633224 -0.038079258 -0.29459912 -0.23599195 0.38371775
0.16183211 0.22911987 -0.18691309 -0.27696458 -0.023353286 0.4006076 0.045253612 -0.18101709
-0.1346797 -0.12759693 0.17406327 0.08321299 -0.3348909 -0.17191243 0.17128143 0.0309063

weight_hh_l0 f4 [40, 10]
00000000: 1259 b53d 6359 ae3e f133 73be 12d9 1bbe
00000010: 0e6a d33c d4b7 5cbd 01b0 4a3e 9867 523e
00000020: 6135 c1bd 658a 85be 2e5b c73b 74a5 55bd
00000030: a0dc 54be ce55 023e 8535 5cbe 6468 f53d
00000040: d42f bebe ceb0 b4be 2a90 29be 7a7e e63d
00000050: 5506 c4bc 3fcb 53be 6d8d 2e3e 1c20 c4bd
00000060: c406 953e bb0b 66be d23a a2bc bdc9 40be
00000070: e9b9 b83d 280a 27bd 3e5f 7ebe 5bd5 303e
00000080: 505a 813e f1aa e9bd 1aba 20be 931f 3f3e
00000090: 8e6f 9fbe 467c 313e da0d 2b3e 9cff 48be
000000a0: 788f 6cbe 750d 88bd 1181 823e 2b39 8dbe
000000b0: 3f7f 9f3e f7f9 133d a0cb 69be 3f8f 3fbe
000000c0: 66bb f0bd 6ec2 a2bd 74ef 543e cec1 873e
000000d0: 241e 323e 0eaf 7f3e 5d91 ae3e 3936 6fbd
000000e0: b781 aa3d 2e59 763e 5ae5 c63d 7812 5dbe
000000f0: 4b4f ad3e c6de 143e 4205 973d 4256 7e3e
00000100: 7150 0bbd 996b 363e 7b2c 41be 3983 9bbd
00000110: fa11 80be e0c3 313e c618 2cbe 3727 44be
00000120: d8c5 a1bd 2559 35be b202 1ebe 0eeb e33d
00000130: df63 a43d dee7 0a3e c6e6 4c3e f9be ad3d
00000140: 7254 003e 70b4 4f3e 7ca0 8f3e 2515 c13d
00000150: b9b6 1dbe 629c 713d ea38 81bd 0c27 9bbe
00000160: a819 9f3d 29ca 9bbe cc97 1abe b96d a8bc
00000170: 153b 443e f304 413e 3a37 293d 3259 73be
00000180: d8aa 3dba 2bf5 11be 007c 513d 9a2f a9be
00000190: dc9a 903e e2f4 ddbd 6dd6 c63e c65e 8c3d
000001a0: 443c 253e 0fe6 ba3e afaa b4bd 2782 c53d
000001b0: 8cae 9bbb 960d 1a3d c1f4 663d 3ceb d33e
000001c0: 0085 013e 9b6d b03c e82b 783e a03b 07be
000001d0: 94ff 9abd ee92 37be 64a0 c7be 737a 37bc
000001e0: deeb 4d3e a3d5 d73d 07cb a93e d73c 153e
000001f0: a0d4 283e 3f34 aa3e 0022 e6bd 9cdb 1bbe
00000200: cd1c b5be f20d 09be b1c7 4f3e 23ef ca3e
00000210: d5b7 8a3e 80b0 a8be 44c9 7f3d f092 01be
00000220: e065 053e 9f16 b9bd aa69 dabe 33ee bcbd
00000230: 9986 cf3d 2762 81be 3fbe b9bd 73cc 203e
00000240: b7d9 b03d 46f5 e23a 66ab 823e 7a17 793e
00000250: 057d bcbb 53bf 27be 6111 9ebd 7500 3c3e
00000260: 0120 353e 9d3a 923c dc0b 913e 4eaa 10bd
00000270: 095c aabe 073c 10bd dc00 95bc 0617 c5be
00000280: 0edc 3e3d 69bf 193e a56e 92bd 7183 d43d
00000290: 3925 11be ebf3 b23e 8521 e2bd a9e2 3bbd
000002a0: 5bdf ca3d 2bae 243c 730c 383e 7152 3dbe
000002b0: 7168 e03d 0e5e 06bd d051 b43e 33a9 d83d
000002c0: 4bcf 8a3e 1f56 57bc 0db8 bdbd 17b1 9fbe
000002d0: 4414 383c f0af 62bc d476 c73e 8ff0 40be
000002e0: c38d 8a3e 3378 de3d 313a dcbd d8e4 8c3d
000002f0: f677 a6be 8907 283e 038f 163e 8295 833e
00000300: 93ee bd3d 561a f5bd 6fd8 82be a893 22bd
00000310: cc63 2fbd 3c87 793c efda 213e fc7f ccbc
00000320: 2e27 29be 67e6 6c3e d170 2b3e 0d39 e0bd
00000330: 5241 17be 9752 adbc 99b4 9d3d 4aa6 5d3c
00000340: 2ca7 ffbb 0ec2 043d d742 90be 3b35 dabd
00000350: b5a5 c53e 7703 8dbc ee2e 313e 4ec2 16be
00000360: bb5d 72bd 916a 28be 37cc 8a3d 6be0 cfbe
00000370: 8c74 a9bd b127 ccbd d22f b43e 67fd 833b
00000380: 9f26 b13d 786b bd3e 1a91 cbbd ccaa 3bbe
00000390: 894d 0d3e 1842 fe3c e43e 5bbe 0dfc 2ebc
000003a0: 1a28 fdbd 642a b23d 0f11 04bc 9f38 5e3e
000003b0: ab26 9d3d 8820 83be ff6e e33d 18e7 01bc
000003c0: 9c70 92be 0714 9abd 4de3 b93e 1fe6 f83d
000003d0: 60e3 45be 04c8 b3bd 8e6a 54bd 3de8 f1bd
000003e0: 8169 db3d a7ea 89be 4086 9a3c 0343 14be
000003f0: a7d2 9b3e 6aeb 9abe 6678 fa3b d16c 6f3e
0.088548794 0.34052572 -0.23750283 -0.15219525 0.025807407 -0.05388625 0.19793703 0.2054733
-0.09434009 -0.2608215 0.0060838675 -0.05215974 -0.20787287 0.12728044 -0.21504791 0.119828016
-0.37145865 -0.3529114 -0.165589 0.11254592 -0.0239288 -0.20683001 0.17046137 -0.09576437
0.29106724 -0.22465412 -0.019803438 -0.18826957 0.090198345 -0.04078117 -0.2484102 0.17268889
0.25264215 -0.114095576 -0.15695992 0.18664388 -0.31139797 0.17332563 0.16704503 -0.19628757
-0.23101604 -0.06643192 0.25489095 -0.27582678 0.3115177 0.036127057 -0.22831583 -0.18706988
-0.117544934 -0.07947241 0.20794469 0.2651505 0.1739431 0.24969122 0.34095278 -0.05840132
0.083255224 0.24057457 0.09711714 -0.21589077 0.33849558 0.14538106 0.0737405 0.24837592
-0.03401226 0.17814483 -0.18864624 -0.07593388 -0.25013715 0.17359877 -0.16806325 -0.19155584
-0.07899064 -0.17709787 -0.15430716 0.111288175 0.080268614 0.13565013 0.20009908 0.08483691
0.12532213 0.20283675 0.28052127 0.09427861 -0.15401734 0.05898703 -0.063096836 -0.30303228
0.077685654 -0.30427673 -0.15096968 -0.020560132 0.19163163 0.18849544 0.041312434 -0.23764494
-0.00072352355 -0.1425368 0.051143646 -0.3304413 0.28243148 -0.10837723 0.3883547 0.06854014
0.16136271 0.36503646 -0.08821618 0.09643965 -0.004751032 0.037610613 0.05638576 0.41390407
0.12648392 0.021536639 0.24235499 -0.13206339 -0.07568279 -0.17927143 -0.38989556 -0.011198628
0.20109507 0.10538795 0.3316271 0.1457399 0.1648736 0.33242986 -0.11236954 -0.15220493
-0.35373536 -0.13384226 0.2029102 0.39635572 0.27093378 -0.3294716 0.0624478 -0.12653708
0.13027143 -0.09037518 -0.4265874 -0.092251204 0.10133094 -0.25270197 -0.0906949 0.15702991
0.08635276 0.0017315529 0.25521392 0.24325362 -0.005752208 -0.16381578 -0.077181585 0.1835955
0.1768799 0.017850215 0.2832936 -0.035318665 -0.33273342 -0.035213497 -0.018188886 -0.38494128
0.04659658 0.15014423 -0.0715001 0.10376633 -0.14174356 0.3495172 -0.110415496 -0.045870457
0.09905883 0.0100512905 0.17973499 -0.1848848 0.109574206 -0.03280454 0.35218668 0.10579147
0.27111277 -0.013143091 -0.092636205 -0.31189796 0.0112353 -0.013835892 0.38957846 -0.18841766
0.2706128 0.1086277 -0.10753287 0.06879586 -0.32513398 0.16409124 0.14702992 0.25700003
0.0927402 -0.11967914 -0.2555575 -0.039691597 -0.042819783 0.015229996 0.15806173 -0.024963371
-0.16518852 0.23134767 0.16742255 -0.109483816 -0.14771011 -0.021157546 0.07700462 0.013528416
-0.007801911 0.032411627 -0.28175995 -0.10654684 0.38602987 -0.017213566 0.17303059 -0.14722559
-0.05917142 -0.16446902 0.06777232 -0.40600905 -0.08274183 -0.09968508 0.35192734 0.0040280106
0.086499445 0.36996055 -0.09939785 -0.18326873 0.13799109 0.031037375 -0.2141071 -0.010680211
-0.123611644 0.086994916 -0.008060708 0.21701287 0.07673391 -0.25610757 0.11105155 -0.007928632
-0.2860154 -0.07523351 0.3630623 0.12153267 -0.19325018 -0.08778384 -0.05185943 -0.11811874
0.10713483 -0.26936838 0.018862844 -0.14478688 0.30434152 -0.30257732 0.007643747 0.23381354

bias_ih_l0 f4 [40]
00000000: 7329 29bd 28f6 ad3e 199b e53d 278b 3fbc
00000010: 6de0 303d 3d73 3fbe fcc4 2b3e 755c 7cbe
00000020: 98a0 c43d e81d 8b3e df33 6c3e 58ed a8bd
00000030: 486d f33d 45d1 a63d 9958 ae3e 4edf 983d
00000040: 5876 b7bc 67d9 8fbe ba1b 25be e483 84bd
00000050: 1540 353e f2ca b63e 3ef2 aabd 97fb 50be
00000060: 252d 22bd fe77 1a3e c80d 36be 3344 0fbe
00000070: 5e77 adbe 7445 8bbe be8f 41be f8bb 7abd
00000080: d320 893e fa8b bfbd 9afb c3bd bd75 7fbe
00000090: 9ce7 8d3b 5d93 1f3e 8cd5 e9bd 2de5 9c3e
-0.041299295 0.33976865 0.11211223 -0.011690891 0.04318278 -0.18696304 0.16774362 -0.24644645
0.09600943 0.27171254 0.23066662 -0.08248395 0.11886078 0.08145384 0.3405197 0.07464467
-0.022395298 -0.28095552 -0.16123858 -0.06470469 0.17700227 0.3570171 -0.08346985 -0.20408474
-0.039593834 0.15084836 -0.17778695 -0.1399086 -0.33880132 -0.27201426 -0.1890249 -0.061214417
0.26782855 -0.0935287 -0.095694736 -0.24947257 0.0043305885 0.15583558 -0.11417684 0.30643597

bias_hh_l0 f4 [40]
00000000: 84f6 a7bc dbe9 253e 833e 5dbe 5155 b43d
00000010: 7281 e73d 78f0 993e 6279 45be 5d2d a23e
00000020: 31a7 dcbd 6202 18be bd96 79bd 1954 24bb
00000030: b201 a53e d482 27be d750 ce3c f754 89bd
00000040: 44a2 0e3d d32e 0a3e a326 6a3e 1ba5 573e
00000050: b70c b83e ccc3 1ebd 257b 873e 9c6c 7f3d
00000060: b53c 3fbb 3040 a53e 52db b3be 3c64 5d3e
00000070: 8dbc afbe f6aa 293e dc51 b33e a428 82bd
00000080: 28f1 e5bc b248 c23e fab8 b13e 3059 503e
00000090: 809d 803e b6d7 58be fae5 6abd ba0c 9b3d
-0.02050329 0.1620249 -0.21605878 0.08805335 0.113039866 0.30066276 -0.19284585 0.31675234
-0.10774077 -0.14844659 -0.06093477 -0.002507454 0.32227856 -0.163585 0.025185032 -0.06705659
0.034822717 0.13494425 0.22866301 0.21059076 0.359472 -0.038760945 0.2646114 0.062359437
-0.0029180471 0.32275534 -0.35128266 0.21620268 -0.3432354 0.16569123 0.3502339 -0.06355408
-0.028069094 0.37946087 0.34711438 0.20346522 0.25120163 -0.21176037 -0.05734823 0.07570787

weight_ih_l0 f4 [40, 22]
00000000: 6480 833e e7c5 963e 7019 6cbe 937d 1dbe
00000010: a31b 903e a977 05be 80aa 03be 51c3 733e
00000020: 1b9d 613e 6013 813e dc37 88be a6a4 ac3e
00000030: 87e7 49be 75f0 9d3e 2010 a7bc e648 14be
00000040: e836 37be 53eb 37be bc79 633e 1fda a03e
00000050: 93be 813e 067b 9c3e f66f fbbd ee09 003e
00000060: c751 34bd 8e45 94bd 60a6 20be e7c2 693d
00000070: 4dce 4abe aff4 c83c ee08 2abe ecdc 633e
00000080: 4f3d 073e 1808 8a3e c140 78be 7073 823e
00000090: 00da 1b3e 37e1 57be abac 053e 9a93 a53e
000000a0: 31ec 85be af13 24bd ce9f 563e 45d2 e8bd
000000b0: 2747 34be 1b93 1cbe 6142 f6bd 1ce1 8d3e
000000c0: 28dd ddbd f0a5 4a3e c95a 8a3e 6ff0 02be
000000d0: 67f4 81be e542 803e 6160 7d3e f682 76bd
000000e0: f77a b13d e6c0 503e 2c04 e2bd 5e38 b63e
000000f0: 3a0b 003d 2a45 5ebe 6cfd 45be e4a1 5b3c
00000100: 6e8b 8b3e 13b4 6f3e d283 e73d d87a 043e
00000110: f62d e23d de1c b63e d3f6 89be 7e41 723d
00000120: 73bd 003e b892 20be 5c79 f9bd 51d3 de3c
00000130: 8a13 233e 32ee 3e3e 43ea 2bbe 22e1 b23e
00000140: 6d09 99be 3dcc 9e3e edb0 8d3e d303 80be
00000150: 2d05 1b3e 7ae2 febc bd00 24be 792e 863e
00000160: 7ffc e33d 5ccb a43e 661d 733e 39ae 483d
00000170: 22fe 683e 25b8 92be 3140 8abe a298 4c3e
00000180: 4089 94be 8601 02be dc3f 733e 8290 363d
00000190: 4220 953e 1687 80be 4fcd a5be 3e45 1a3e
000001a0: adad 9e3e a170 a53e ed9f 4cbe 564e 81be
000001b0: 31d5 5ebe 5ec4 3fbe 55e1 a4bd b399 b1bd
000001c0: 4265 8abd 2d57 23be caa3 c6bd 4166 8e3d
000001d0: d634 203e 2da4 7cbe 256c 74be 5a8a 963e
000001e0: b7a7 a23e 706b 273e 59a0 3c3e bd1f 7b3e
000001f0: 64bd bc3d 3bb0 8dbe eedf 54be 5bad 753e
00000200: a049 cabb e9ec 1d3d 4b5b 833c 4a5c f03d
00000210: 37a5 64be 1693 3e3e 67e8 443e c433 66be
00000220: 64b5 263e 3c7b 15be bea4 793e dc3d 843e
00000230: fbb8 1dbe d74b 3bbe 594d 243e 16cc 913e
00000240: dfdb f83d 2770 7d3e abb0 82be cfa1 5abe
00000250: 51dc cebd b162 75be 415b 3d3c 5d78 b63e
00000260: 8797 913e a5d1 7f3d 7155 b53d 9b6c 883c
00000270: 7e1f a43e fed2 3f3e cf93 f43d fa75 1ebe
00000280: 724d 923e fe5e ddbd af09 8f3e 3810 29bd
00000290: fada 68be c24d 1bbe 911b 243e 0e9c 0b3e
000002a0: 5362 9a3d 17df 293e 3d36 883e 3506 2e3d
000002b0: 6b96 233d 0d88 16be 0b79 31bd 10d6 253d
000002c0: b5c3 33be ce3a 5bbe 430e 84be a344 f0bd
000002d0: 64b0 61be 5ba0 9e3e d962 233d 12d8 06be
000002e0: 841a 273e 082e 37be 0c80 233d 011c c53d
000002f0: cfe4 84be df96 85be e9e1 b0be 457a 2ebe
00000300: c828 d1bd ce2c 95be a1d7 4ebe 3d69 49be
00000310: eb8a 9d3e 25aa 51be b845 fbbd 2d61 36bd
00000320: 28bd 7ebe 40d2 f0bd 4010 7e3e e762 353b
00000330: fe86 413e 1760 883d e46b 03bc c4fe 98bd
00000340: 661e 8f3e d334 603e 54b6 b23e 45f3 793e
00000350: 57d3 1abd 8477 553e 2730 523e 9c31 8abe
00000360: b4b0 c8bd f39d a8be 68d3 4c3e 2589 8b3e
00000370: bdde debd 62ac c1bd 8931 55be d8d6 3a3e
00000380: c992 01be 793a 983e e57a d2bd 17bb 9f3e
00000390: a519 353e c39c 893e 7717 04be c871 44bc
000003a0: ee01 7ebe 44a3 25be 8f42 c43d 092f c13d
000003b0: a466 873c bfc0 203e fb02 8fbd 1163 163e
000003c0: 061a 473d 6858 3cbe b073 083e 7f65 59be
000003d0: 9b8f 5cbe bdbc bc3d 3e66 b8bd 7265 c0bc
000003e0: 0234 963d 51ae 3e3e 1ab9 c83d 04bb 8abe
000003f0: 751a 9fbe bebb 863e 4f81 aa3e 1928 093e
0.25683892 0.29447863 -0.23056579 -0.15379934 0.28146085 -0.13033928 -0.1285801 0.23804976
0.22032587 0.25210094 -0.26605117 0.33719367 -0.19717227 0.30847517 -0.020393431 -0.14480934
-0.17892039 -0.17960863 0.22214407 0.31416413 0.2534071 0.3056261 -0.12277214 0.12503788
-0.0440233 -0.07239829 -0.15688467 0.05707064 -0.1980526 0.024530737 -0.16604969 0.22252244
0.13206981 0.269593 -0.24243452 0.25478697 0.15219879 -0.21082006 0.13054149 0.32339174
-0.26156762 -0.040057834 0.20959398 -0.11368231 -0.17605267 -0.15290491 -0.120243795 0.27710807
-0.10833198 0.19789863 0.2702239 -0.1278703 -0.25381777 0.25051036 0.24743797 -0.060183488
0.08666032 0.20386085 -0.11035952 0.3558988 0.031260706 -0.21706071 -0.19334954 0.013405297
0.27254814 0.23408537 0.113044396 0.12937486 0.110439226 0.355689 -0.26946124 0.05914449
0.12572269 -0.15680969 -0.121813506 0.027200373 0.15925422 0.18645552 -0.16788583 0.34937388
-0.29890004 0.31015196 0.27674046 -0.25002918 0.15138693 -0.031113852 -0.16015907 0.2620733
0.11132144 0.321864 0.23741683 0.048994277 0.22753194 -0.28656116 -0.270021 0.199801
-0.29010963 -0.12695894 0.23754829 0.044571407 0.29126173 -0.25103062 -0.323832 0.15065476
0.3099188 0.32312492 -0.19982882 -0.25255078 -0.21761014 -0.18727252 -0.08050791 -0.08671894
-0.06757595 -0.15951224 -0.09699209 0.06953097 0.15645155 -0.24672003 -0.23869379 0.2940243
0.3176858 0.16349578 0.18420543 0.24523826 0.09215811 -0.27673516 -0.20788547 0.23991911
-0.0061733276 0.038556013 0.016034743 0.11736353 -0.2232865 0.18610796 0.1922928 -0.22480685
0.16280133 -0.14597791 0.2437925 0.25828445 -0.15402596 -0.1829065 0.16045131 0.28476018
0.12151312 0.24749814 -0.25525412 -0.21350788 -0.10100616 -0.23963429 0.011557401 0.35638705
0.2843592 0.062455792 0.08854187 0.01665335 0.32055277 0.18732831 0.11942255 -0.15474692
0.2857471 -0.10809134 0.27937075 -0.041275233 -0.22739783 -0.15166381 0.16026141 0.13633749
0.07538285 0.16589008 0.2660388 0.04248639 0.03993837 -0.14700337 -0.043328326 0.04048735
-0.17555125 -0.21409151 -0.2579213 -0.117318414 -0.22039944 0.30981717 0.03988919 -0.13168362
0.16318709 -0.17888653 0.039917037 0.09624482 -0.25955817 -0.26091668 -0.34547356 -0.1703883
-0.102128565 -0.29135746 -0.20199443 -0.19669051 0.30770048 -0.20475061 -0.12269157 -0.044526268
-0.24876845 -0.11758852 0.24810886 0.0027677359 0.18899152 0.06658953 -0.008021329 -0.07470468
0.2795288 0.21895151 0.3490473 0.24409206 -0.037799206 0.20846373 0.20526181 -0.26990974
-0.097993284 -0.32933006 0.2000252 0.2725307 -0.10882328 -0.094567075 -0.20819677 0.18246019
-0.1265365 0.2973211 -0.102773465 0.31197426 0.17685564 0.26877412 -0.12899576 -0.011990018
-0.24805424 -0.16175562 0.095830075 0.09432799 0.016528435 0.15698527 -0.0698299 0.14686228
0.048608802 -0.183931 0.13325381 -0.21230124 -0.21539156 0.092156865 -0.09003876 -0.023485873
0.073341385 0.18621184 0.0980093 -0.27095807 -0.31074873 0.2631511 0.3330178 0.13394202

weight_hh_l0 f4 [40, 10]
00000000: 32c2 09bd 1ace 413e 0144 8e3d 61c1 05bd
00000010: 7080 86be 7822 653e 0745 2a3d cfa2 6abe
00000020: 944f 35be facb 9c3d 453e 003d fade 5b3e
00000030: d1a7 733e 5909 f2bd d8dc 92be 58a0 dbbc
00000040: d30e 99bd 647c 56bb 23b7 98be 2d26 a33e
00000050: 71d5 873d 7663 6ebe 20d0 b23e f21e f13d
00000060: 06e9 42be 8409 353e ab6f b0be 91b8 303d
00000070: 4882 0ebd 7b4f 14be 5e3f b83c f69b 93be
00000080: 2581 9b3d 2fc2 a5bd c39d aa3d c47f 103e
00000090: 07e6 50be fee6 7d3e d8ac af3d 6d2a 55be
000000a0: 7611 413e 76d3 453e 2b0c 663e 328c 173c
000000b0: 0f09 8fbe 95e8 a8be cd1f 2cbe ffbc 8b3e
000000c0: 7a00 90bd 9e1a 6b3e ef69 943e 68ae 93be
000000d0: bf16 81bd 3e2b acbe a8f4 f7bc 44cc 85bd
000000e0: 9802 7cbe 6c45 98bc af56 94be 12f1 f4bd
000000f0: eb8b 753e d906 34ba 6cc0 3abe 33b7 8cbd
00000100: 0058 cebd e548 b4be 2304 1c3e efdf 57be
00000110: 9c83 453e 63cc 14be 42be 56bd deb9 87be
00000120: 6e51 08bd 659f 3a3e 0f9d 50be 3400 54be
00000130: bd6f 443e 3040 ff3d da2f d33d 984c a6be
00000140: 884b e33d 5abd 91be 12d7 84bd e975 2a3c
00000150: 6654 2d3c 8869 4fbc 8a1b 7b3d 3f88 af3e
00000160: cb99 073e d10b fdbc 0c2c 9c3e 499a 4b3e
00000170: 0cfe 103e a3e7 94be 8529 85be 650f 86be
00000180: afeb 2e3e ec4c 8abe f755 dbbc ff93 693e
00000190: 485a 6cbe f962 a23d 7b7d acbd 7fc6 6d3d
000001a0: a091 ecbd d8fe 1c3e 61b2 1fbe 40a7 78bd
000001b0: a52d ff3c 99a6 173e 5759 c1be 983c 643e
000001c0: bef1 e93c e42b 373e 470a 0a3e 391c 2dbd
000001d0: 8427 a1be e75e 363e 3ef5 6e3e 1bb7 d33a
000001e0: 11dc babc e3e2 f73d f80a 5e3e e85c 513e
000001f0: 69d9 403e 32b8 42bc b002 a1be 09cd b23d
00000200: d889 343d b812 233e 773f cfbe 5fba 89bd
00000210: b7d2 9d3c 6db4 353e e340 103e b399 b0bd
00000220: 4a1a 163e a7b1 7ebd 36c8 603c 0209 813e
00000230: f1ee b9bc a76d 143e 4f73 2f3c af9f b5bc
00000240: 1758 dcbd 8b7b 37bd 60a5 523e 6e9c a13d
00000250: 6f22 0fbe 20c2 273e 900a 283e 8286 25be
00000260: d482 c03c d117 a33d e4d2 08be c73e 9f3e
00000270: d44a 29be ea9d 03be 959d d63d 3fb2 d1bd
00000280: c437 7a3e 645e 26be be31 7e3e 73ea 7ebd
00000290: 7d20 443e 29ae 10be faa1 85bd 214c 32be
000002a0: ca5b 923e 1605 643e 9f3d b3bd 5321 e43d
000002b0: bcb7 5a3e 987b ee3d fd87 02be a503 1bbe
000002c0: 0ac4 783e a305 62bd a1f6 ccbd ba9c 56be
000002d0: 4597 89be 21ac 183c 1baa 9f3e 2ecc b5be
000002e0: 4e07 95bd f608 8abc 9c2f 3c3e 4b6e 943e
000002f0: 53df 403e ec3b 53be 133e 693c 3392 223e
00000300: c969 11be 1c98 543d 839c 35be b2ba 843d
00000310: d31e 973e 493b 6f3e 487c 21bd 0706 0dbe
00000320: fc61 503c 85a0 d3bc fb64 42be da21 81be
00000330: ca03 e33a f09f 81be 46e1 af3e c359 5e3e
00000340: c34c 4dbe bac2 1b3e 3b0e 0fbe e1a6 61be
00000350: 93f2 33be 45b7 e63c ee27 70bd 22cf 40be
00000360: 8aaf d33d ce56 7f3d df52 7e3e 3bb2 59be
00000370: fc03 793e 3692 6dbe bb9a 50be d084 71be
00000380: 5485 31be 170c 2c3e adcf 513e 8b99 aabd
00000390: 58c4 69bd f448 3b3e c7dc 94bd 0843 4e3e
000003a0: 31c8 213e 1216 7c3e 6408 663e a626 7d3e
000003b0: 0971 7fbd 0c06 e3bd 5246 c13d e806 f2bd
000003c0: 7edf 853e 8fb9 f43d 0ff5 863e 7520 493e
000003d0: 61ba 503e 23eb 903e a223 8ebe 2354 b6bd
000003e0: 57bd 853e 911c 8bbe 1adc 013e af3b 843d
000003f0: d2bc d0bb 0fd9 0e3e 4dfa 7d3d 3685 b53d
-0.033632465 0.18926278 0.069465645 -0.032655124 -0.26269865 0.2237643 0.041569736 -0.22913669
-0.17706138 0.07656093 0.031309385 0.21471778 0.23794486 -0.11818189 -0.28684115 -0.026809856
-0.074735306 -0.0032727951 -0.29827222 0.31865063 0.066325076 -0.23280129 0.34924412 0.117734805
-0.19034204 0.17679411 -0.34460196 0.043144766 -0.034792215 -0.14483444 0.022491153 -0.28829926
0.07592992 -0.08093678 0.08330872 0.14111239 -0.20400248 0.24795148 0.08577889 -0.20816965
0.18854317 0.19318947 0.22465579 0.009249734 -0.279366 -0.32989946 -0.16809006 0.2729263
-0.07031341 0.22959372 0.2898707 -0.28844 -0.063031666 -0.3362674 -0.030268028 -0.06533101
-0.24610364 -0.01858779 -0.28972384 -0.11960043 0.23979156 -0.00068674755 -0.18237466 -0.0687088
-0.100753784 -0.35211864 0.15235953 -0.21081518 0.19288486 -0.14531092 -0.052427538 -0.26508993
-0.033280782 0.18224867 -0.20372413 -0.20703202 0.1918325 0.12463415 0.10311861 -0.3248031
0.11098391 -0.28464776 -0.06486334 0.010404089 0.010579204 -0.012659438 0.06130556 0.34283635
0.13242261 -0.030889424 0.30502355 0.19883074 0.14159411 -0.29082975 -0.2600824 -0.2618362
0.17082094 -0.27011812 -0.02677439 0.22810362 -0.23081315 0.07929034 -0.08422371 0.05805063
-0.11551213 0.1533159 -0.1559539 -0.060706377 0.031149695 0.14809646 -0.37763473 0.2228874
0.028557654 0.17887837 0.13480483 -0.042263243 -0.3147546 0.1780964 0.2333574 0.0016152592
-0.022810014 0.12103822 0.21683872 0.20445597 0.18832935 -0.011884736 -0.31447363 0.087305136
0.04407677 0.1592511 -0.40478107 -0.067250006 0.019265516 0.17744608 0.14087252 -0.08623066
0.14658466 -0.06218114 0.013719609 0.25202185 -0.022696944 0.14494954 0.010708644 -0.02217087
-0.10758989 -0.044795554 0.20570898 0.07891165 -0.13977979 0.16382647 0.1641028 -0.16164592
0.023499884 0.07963527 -0.13361698 0.31102583 -0.16532451 -0.12853208 0.10479275 -0.10239076
0.24435335 -0.16246945 0.24823663 -0.062235307 0.19153018 -0.14128937 -0.06525035 -0.17411853
0.28585654 0.22267565 -0.08751988 0.111391686 0.21359152 0.116446674 -0.12747188 -0.15138109
0.24293533 -0.055181157 -0.10007978 -0.20958224 -0.26873222 0.0093183825 0.31184468 -0.3550734
-0.07276784 -0.016849976 0.18377537 0.28990397 0.18835191 -0.20628327 0.014235991 0.15876083
-0.1420051 0.051902875 -0.17735486 0.06480922 0.29515705 0.23362459 -0.039425164 -0.1377183
0.012718674 -0.025833378 -0.18983833 -0.2522114 0.0017319855 -0.25317335 0.34351557 0.21713929
-0.20048814 0.15211001 -0.13970272 -0.22036316 -0.17573003 0.028163562 -0.05863183 -0.18829015
0.10336216 0.062338643 0.248363 -0.21259396 0.24317926 -0.23200306 -0.20371525 -0.2358582
-0.17336017 0.16801487 0.20489378 -0.08330067 -0.057072014 0.18289548 -0.072686724 0.20142758
0.15799023 0.24617794 0.22464138 0.24721774 -0.062363658 -0.11085138 0.09437241 -0.118177235
0.26147074 0.11949455 0.2635884 0.19641288 0.20383598 0.28304395 -0.2776156 -0.089027666
0.26121017 -0.27170232 0.12681618 0.06456696 -0.0063701654 0.13949989 0.062006284 0.088632986

bias_ih_l0 f4 [40]
00000000: 3a6e 41be d5a9 6d3e df6c 1f3e 48f6 a9bd
00000010: a5bb e1bd 6b24 98bc d03d 5b3e 0d58 aebe
00000020: aa85 9a3e 797c f73c fe4f 6abd f3d1 a73e
00000030: 50c4 7ebd dec8 093e 806d 893e 322e 72be
00000040: 6157 00be 0562 8fbc 710e 2d3e 7a65 7a3d
00000050: 1b96 a4be 226b 513d 0652 ab3b b3b5 59bc
00000060: 8866 e33c e89c 8ebd a810 f4bc c5fa d3bd
00000070: 5513 9a3d f049 65be ebe1 2b3e 2303 273d
00000080: 97b1 07be a619 083e ec62 cbbd bd20 e23d
00000090: 5cdb 05bc 51b6 563e 56be e73c c1e2 d4bd
-0.18889704 0.23209317 0.15568875 -0.082989275 -0.110221185 -0.018572053 0.21410298 -0.34051552
0.30180103 0.03021072 -0.057205193 0.32777366 -0.062198937 0.13455531 0.26841354 -0.23650435
-0.12533332 -0.017502794 0.1690004 0.06113193 -0.3214577 0.05112756 0.005228284 -0.013287949
0.027758852 -0.06963521 -0.029793099 -0.10350565 0.075232185 -0.22391486 0.167854 0.040774476
-0.13251339 0.13291034 -0.09930977 0.110414006 -0.008169975 0.20967986 0.028289001 -0.103948124

bias_hh_l0 f4 [40]
00000000: 5b89 8e3e 38a4 5dbe 42e7 37be e50a 21be
00000010: f122 373e 7015 1a3d 5f09 9bbd 3f3e f93d
00000020: 8a2e f33d afec 14be 5580 b53e f1c3 2a3d
00000030: 74c1 843e b921 4abd 316f 31bb 5be4 34be
00000040: 9743 aa3d 4423 4f3c c719 213e 1528 693e
00000050: 7120 99be 9ae5 1cbd 5b11 0a3e fa07 3bbe
00000060: 6407 8a3e 4885 bebd e1a3 4fbe 8948 88bc
00000070: 4cf0 343d 2928 9cbe 83c0 4f3d bdc2 abbd
00000080: d889 1cbe 5f4b 313e 4be3 b73e 724d 5c3e
00000090: 2c16 3f3e 8779 823e 782b 8e3e 275d 80be
0.2783917 -0.21644676 -0.17959312 -0.15726812 0.17884423 0.0376181 -0.07570147 0.121700756
0.11874111 -0.14543413 0.35449472 0.04169077 0.25928843 -0.049348567 -0.0027074332 -0.17665236
0.08313673 0.012642685 0.1573249 0.22769196 -0.29907563 -0.038304903 0.13483183 -0.18264762
0.26958764 -0.09302765 -0.20277359 -0.01663615 0.044174477 -0.3049939 0.050720703 -0.08386753
-0.15286958 0.17313908 0.35915598 0.21513918 0.18660802 0.25483343 0.2776754 -0.2507107

weight_ih_l0 f4 [40, 22]
00000000: fa9c f6bc 9f6a 84be 96ac 94bc d96f 04bd
00000010: e825 683d 2486 89bd d98c 023d d480 ebbb
00000020: eb7f 92bd 30d3 973e c170 f4bd 6ddf af3d
00000030: f7bd 91bd c068 463e acc8 063d c0d4 a13e
00000040: 39f3 373d 21d0 0d3e e2f4 8fbd 0102 e03d
00000050: a979 b8bd 81d5 39be 039b 933e bcef be3e
00000060: 0f5a 483e ba78 533b c0d0 293e 875f 723d
00000070: 209c ccbd a83d cb3c 90e0 f83c 478f 863e
00000080: 76df 72be f0b7 a63e 2c99 163e 13de 62be
00000090: 91da f03d 3841 fb3d 353e 3c3e ce71 e6bd
000000a0: b5a2 8dbe ac8f bf3d c220 debd 31e3 e0bd
000000b0: b87d 563e 1188 613e efcd 783e 8a99 58bc
000000c0: 52c9 583e fc2c e83d 68fc 48be ece0 b53b
000000d0: 4b55 1ebe 2f22 0bbc 5198 8dbe 6149 1c3c
000000e0: f200 93be 1ef7 1ebe 6461 abbd 3d93 c53d
000000f0: eb9c 0bbe ab51 643d b016 e33d b63f 67be
00000100: 0811 063d d16f 40bc 08aa a43d 9569 6a3d
00000110: 6a26 3cbe f567 9e3e fb57 f7bd 1e12 0cbe
00000120: 540b 74be b35b 333e 47d9 583e 6356 6e3d
00000130: 31d1 bebe ac52 3c3c 447e a5be 1d64 733e
00000140: 0758 2c3c f06e ea3b 3518 0dbd a04c 3d3c
00000150: c6bb a9be 37c3 383e b854 c13e 4d4b a43e
00000160: db21 a9be 895e 0cbe 97c3 e23d 05f9 37be
00000170: fab4 ea3c 9c2a a03e eaac 8c3e 3798 0e3d
00000180: 3db9 4fbe 2418 80bd c584 753e af90 50be
00000190: 5c1d d23d 180a 913a 6690 303e bbc1 bbbd
000001a0: a6cb 77be 310c 773d d0a3 ba3d 7f76 82bd
000001b0: 8036 7ebd 7506 a2be 9338 c63d 874b 0a3e
000001c0: 9562 403e a02e 903c 2d63 53be c09b 883d
000001d0: ebb1 54be af61 9dbc 6bc2 70be 76d9 333d
000001e0: 1d9f b93d d89d 543e 1ec1 05bd 27b2 373e
000001f0: 1d3b 46bc 1b9f 60be 4952 4ebe 095d 74be
00000200: ffb9 74bd b0f5 0f3e 3bf0 f5bd d70b 6d3e
00000210: 04d4 ebbc 8c31 97be 665f 243d d177 adbc
00000220: bbd4 833d 683e 403e 7ba7 993d fafb 48be
00000230: 4eaf 1ebe cf5c d63c ecbc c73c 5bfe 8c3d
00000240: 0c96 aebe c227 01be 4510 783d 6312 b43e
00000250: d7ca 0e3e 5f83 0fbe 8b66 4c3e 0f70 503e
00000260: 2d9e 433e ac3a 55be 478e e8bc f021 84bb
00000270: 8910 47be 9f38 2bbc 1f25 d93d 9f85 893e
00000280: 9eb5 aabd 7150 9b3c 6685 76be 563d eb3d
00000290: 0c8c d73b dc61 96be acde 55be 3ad3 01be
000002a0: c48a 84be 559e 53be e67e 12be dc0a 4c3e
000002b0: 1717 37be 7863 2b3d 05a4 64be a554 9e3d
000002c0: 9079 983d e1ad 87be 10b4 98be f505 923e
000002d0: 9e75 84be 5c4c 54be e8f8 84be 74a6 24be
000002e0: 5093 a83e fe9b bebd b34c 2e3e 07c3 b53e
000002f0: 526d 85be 5aac 513e 310d 323e 4211 8e3e
00000300: 77f7 663e 46eb 913e 76f3 9ebd 7313 243e
00000310: c8bd 983e a8a8 553e 58ca c4bd 570e 0c3e
00000320: 3d27 7a3d 76fa 86be ec9f a5be b358 b8bd
00000330: 8c51 cf3c 8600 373e 4ee2 24be 34a3 6f3d
00000340: 4cef 043e e95a 0ebe 1856 123e bf42 7fbc
00000350: 26a0 45bd 7876 973e 8d3c 86bd 605a 613e
00000360: dfa0 aebd 4926 1bbe ef0b d93d 65c3 8abd
00000370: b75b 803d 16ec ea3c 5fd8 99be 84cb 34bd
00000380: 4000 65be 1224 ad3e b692 683e b233 513e
00000390: 8ae1 e8bd 3e6b 913e c21b 703e 11ef a83e
000003a0: bf2f 853e 171a 8dbd 0c3e 92bd 5303 c33d
000003b0: 1369 8bbe 583e c5bc bf71 8d3e f5d7 883e
000003c0: e33c aa3e 6b84 273e d031 b33d 8be5 0f3e
000003d0: ccae 1fbe ab94 ca3d 93b3 5fbe 674b 633c
000003e0: a205 a8be 4c65 b0bd 26e9 153e 55e0 8c3c
000003f0: 480c 3dbe 1029 193e a119 493e 8f8f 523e
-0.03010415 -0.25862595 -0.018148702 -0.03233323 0.056676775 -0.067150384 0.031872604 -0.0071869884
-0.07153305 0.2965331 -0.119355686 0.08587537 -0.07116311 0.19375896 0.03290622 0.31607628
0.04490969 0.13848926 -0.070291296 0.10937882 -0.0900758 -0.18147852 0.28829202 0.37292278
0.19565605 0.0032268004 0.16583538 0.059173133 -0.09990716 0.024809673 0.030380517 0.26281187
-0.23718056 0.32562208 0.14706868 -0.22155027 0.11760438 0.12268299 0.18383105 -0.11252175
-0.27663198 0.09353575 -0.10846092 -0.10980833 0.20946395 0.22024561 0.24297307 -0.0132202
0.21170548 0.11336705 -0.19627535 0.0055504944 -0.15462224 -0.008492037 -0.2765527 0.009538979
-0.2871166 -0.15523955 -0.08368185 0.09647224 -0.13634078 0.055741947 0.11088312 -0.22582898
0.032731086 -0.011745409 0.080402434 0.057229597 -0.18374029 0.30938688 -0.12077328 -0.13678786
-0.23832446 0.17515449 0.21176635 0.058187854 -0.37268975 0.01149432 -0.32322896 0.23768659
0.010519034 0.007154338 -0.034446914 0.011553913 -0.33151072 0.18043219 0.37759948 0.320887
-0.33033642 -0.13707937 0.11072462 -0.17966087 0.02865075 0.31282508 0.27475673 0.034813132
-0.20285507 -0.062546045 0.23976429 -0.20367692 0.10259506 0.001106563 0.17242584 -0.091678105
-0.2419878 0.06031436 0.09113276 -0.063702576 -0.062063694 -0.3164555 0.096787594 0.13505374
0.18787606 0.017600358 -0.20643301 0.06670332 -0.20770995 -0.019211618 -0.23511665 0.04390856
0.090635516 0.20763338 -0.032654874 0.17939053 -0.012099055 -0.21935694 -0.20148577 -0.23863615
-0.059747692 0.14058566 -0.12008711 0.23149048 -0.02878762 -0.2952999 0.04013004 -0.021175297
0.064370595 0.18773806 0.075026475 -0.19627371 -0.15496561 0.026167301 0.024382077 0.06884452
-0.34098852 -0.12612823 0.06056239 0.35170278 0.13944565 -0.14014958 0.19960992 0.20355247
0.19103308 -0.20823163 -0.028388156 -0.004032366 -0.19439901 -0.010450511 0.106027834 0.26859757
-0.08335422 0.018959256 -0.24074325 0.11486308 0.006577974 -0.29371536 -0.20885724 -0.12678233
-0.2588712 -0.20665868 -0.1430622 0.19926018 -0.17879902 0.041842908 -0.22328193 0.077309884
0.07445061 -0.26499847 -0.29824877 0.2852017 -0.25870985 -0.20732254 -0.2597115 -0.16079122
0.3292489 -0.09307097 0.17021446 0.35500357 -0.26059967 0.20475903 0.17387845 0.27747542
0.22555338 0.28499812 -0.0776128 0.16023044 0.29832292 0.20865119 -0.096089065 0.13677345
0.061072577 -0.26362962 -0.32348573 -0.09001293 0.02530744 0.17871293 -0.16101953 0.058505252
0.1298191 -0.13901867 0.14290655 -0.015579878 -0.048248433 0.29582572 -0.06554518 0.22007132
-0.085267775 -0.15151323 0.10597979 -0.0677555 0.06267493 0.028677028 -0.3004789 -0.0441394
-0.22363377 0.33816582 0.22712216 0.20429876 -0.11371143 0.28402132 0.23448089 0.32994893
0.2601299 -0.06889742 -0.07140741 0.095221184 -0.27228603 -0.02407758 0.27625844 0.26727262
0.33249578 0.16359107 0.08749735 0.14052407 -0.15594023 0.098916374 -0.21845846 0.013872958
-0.32816797 -0.08613071 0.1463972 0.017196814 -0.18461716 0.1495707 0.19638683 0.20562576

weight_hh_l0 f4 [40, 10]
00000000: c7cc 4f3c 2372 a0bd 30c1 a5bd a5d3 703d
00000010: e796 9d3d ab54 9abd cc24 b73d 3290 aabd
00000020: 97e2 aabe 5d74 9dbe 940e fd3c 2d42 b2be
00000030: 4c12 983e 919d c3bd df58 a6bd e46f 97be
00000040: b751 7abe b54d 45bc bcaf bb3d de7b 94bd
00000050: 2f5d 393d c7aa 723e 7770 38bd 7681 833e
00000060: bf9a 643d 0d2d 0ebe bdc7 5bbe 6a24 a2be
00000070: 5239 50be de0f 643d 3b39 30bd eedc 093e
00000080: c421 363d eb07 333d d213 313e 20e6 43be
00000090: 6657 a63e 50ec 373e 8818 16bd 19cd 173d
000000a0: b534 1abd 25e0 843d e475 c9bd 68f3 99bd
000000b0: 78ab 293e bdf2 82be 4459 babd 3cfb 1a3b
000000c0: 9c71 1ebb fd42 343d cc32 f6bd bcbb 3cbe
000000d0: 18be dd3b e270 1e3e a493 6d3e c48f 11be
000000e0: 8f87 713e 7d4b 2b3e cd28 a13d d4c9 8a3e
000000f0: 5e4e 873e 2e52 bdbd 7431 bdbe c28b c43e
00000100: 3a4a 90bd 744e 0ebe da0f 333e 699b 36be
00000110: 3bf9 61be 4dcc 153e 5cbf 933c a8e3 1cbd
00000120: 9277 0ebe 8ba3 e13d 289f 85bb f0d1 a9be
00000130: 3551 c8bd 7a11 853d 6c7d 303d 0043 e93d
00000140: 6cb0 23be bad7 d2bd a239 0e3e 40ee b3bd
00000150: 1d41 82be 6b31 483d fefa b2bd df11 a8bc
00000160: a0f0 64bd 16dd a3bd ef42 51be b28b e83b
00000170: 726f a6be f03b 82be e9af a63e 502c 6c3e
00000180: de6c 7a3e f87e d43c cefb 81be 4626 c2bc
00000190: 6ed6 95bd b784 aebe ea4b 6fbd 2c9b 4c3e
000001a0: 47d7 ae3c abef ba3b 304a 0dbe 2171 ebbd
000001b0: 7aea abbe 1985 443d 0c8f ccbd 101d adbe
000001c0: 5a20 733e 11a0 21be 528f 35be 3ce5 0ebd
000001d0: 2463 453e 7077 663e 0939 0dbe d00f 053e
000001e0: 7008 fa3d 34e4 0e3e ac81 87be 7706 493e
000001f0: 0ba8 67be 0e50 2a3d 80b4 aabd 4fe5 a2be
00000200: 6d20 07be a33b a13d 40e8 c23d d4a6 313e
00000210: 2218 d7bd 0646 683e b68d 8cbe 5f43 8bbe
00000220: 5b20 2fbe 0f76 223e 6040 873d 84fe 70be
00000230: 8aae 223e a25e 723e bbe9 bf3c 654b f2bd
00000240: bedf e23c e3bc ad3e 4e94 153e a869 14be
00000250: 6573 3b3e a800 d9bd 22a5 30be 6fbc 183e
00000260: 5186 b93d d5e8 8e3e 9943 56be 4e4f 3fbe
00000270: 3a1e f33c 142c 083e b504 94be 1098 73bd
00000280: 2412 3c3e 96a4 4f3e 3927 9dbe 516e 503e
00000290: 8e7d 613e 0f58 4dbd 85bb 513c ec95 c0be
000002a0: d945 2a3e e119 923d b4b8 9abd 05bf 483a
000002b0: 8b33 103d ffd0 073e 4d82 05be 79a3 203d
000002c0: c03f 82be 158f 9bbd 2e21 c0be 233f 6f3e
000002d0: c706 abbd 538e d63d c141 a1bd 1ed3 5cbe
000002e0: 70e1 1b3e 2251 233d 6f1b ab3d 0edb 613e
000002f0: 5cf4 d8bd ec96 03be 1a82 66bd 2d28 273e
00000300: 9d39 27bd e076 573e f040 ddbd b30d 2ebe
00000310: 6a3f 903c 57d9 8ebe e2e9 823e 1801 e3bb
00000320: bc36 81be 0cde 93be 8bf7 b2be c1f7 60bc
00000330: 7d75 40bd cf3b ed3d 1005 52be b755 183e
00000340: 9915 22be 0d54 5d3b 0861 a1be e7ad 903e
00000350: f75a 863c 5074 17be 0af1 6cbd f0ef 6bbe
00000360: ef1b 75bd 6de1 0bbe fdb9 b83e 0563 5c3e
00000370: b847 c9bd 1a0d 5f3e d3c3 5cbe bab4 b63d
00000380: b49a eebb 3afe 23bd c6c4 8b3e 235f 8d3e
00000390: 5079 133e eb3b acbd f2b9 f4bd 6e7f 3a3d
000003a0: 96d6 8fbd 1072 e23d 5864 443e b5ac 77bd
000003b0: d5c5 a93e 07b4 45be 7852 81be 8887 733e
000003c0: 7798 1f3e 93e9 35be 0290 22be 46db 1c3e
000003d0: 5fa3 a23d 0a95 89bd 38d2 943d 465b 76bc
000003e0: 7cf5 573e eae3 5c3c 0852 043e c21e 8a3e
000003f0: d95b 463e b180 173d 523b 29be 614c 62be
0.0126831 -0.0783427 -0.08093488 0.05879559 0.07694798 -0.075356804 0.08942565 -0.08328284
-0.33376 -0.3075284 0.03089074 -0.34816113 0.2970146 -0.09551538 -0.081224196 -0.29577553
-0.24445234 -0.012042453 0.09164378 -0.07250188 0.045254882 0.23697959 -0.04502913 0.25684708
0.05581164 -0.13884373 -0.21462913 -0.31668407 -0.20334366 0.055679195 -0.04302333 0.13463184
0.044465795 0.043708723 0.17292717 -0.19130754 0.32488555 0.1796124 -0.03664449 0.03706083
-0.03764792 0.06488065 -0.09836939 -0.07517129 0.16569316 -0.2557582 -0.09099057 0.0023648283
-0.0024176603 0.044009198 -0.120214075 -0.1843099 0.0067670457 0.15472749 0.23200852 -0.14214998
0.23586868 0.16728015 0.0786911 0.27107108 0.26426977 -0.0924419 -0.36951792 0.38387877
-0.070454076 -0.13897115 0.17486516 -0.17832722 -0.2206773 0.14628716 0.018035583 -0.038303047
-0.139128 0.110175215 -0.004077811 -0.33167982 -0.09781114 0.06497474 0.04308836 0.11389732
-0.15985268 -0.10295053 0.13889173 -0.08785677 -0.25440302 0.048875254 -0.08739279 -0.020516334
-0.05589354 -0.08001153 -0.2043569 0.007096731 -0.325069 -0.25436354 0.32556084 0.23063779
0.24455592 0.02593945 -0.25387424 -0.02369989 -0.0731629 -0.34085628 -0.058422007 0.19981068
0.021342887 0.00570484 -0.13797832 -0.11496187 -0.3357733 0.047978494 -0.099882215 -0.33811235
0.2374281 -0.15783717 -0.17730454 -0.034886584 0.192761 0.225065 -0.13791288 0.12994313
0.122086406 0.1395424 -0.2646612 0.19631372 -0.22622697 0.041580252 -0.08335209 -0.31815574
-0.13195963 0.07872703 0.095169544 0.17348796 -0.1050265 0.22682962 -0.27451867 -0.27199838
-0.17102186 0.15865348 0.066040754 -0.2353459 0.15886894 0.23668912 0.023426881 -0.118307866
0.02769458 0.33933172 0.14607355 -0.1449343 0.18305738 -0.10595828 -0.17250493 0.14915632
0.09058822 0.27912012 -0.20924224 -0.18682596 0.0296775 0.13298064 -0.2890984 -0.05947119
0.18366295 0.20277628 -0.30693987 0.20354582 0.22020552 -0.050132807 0.012801056 -0.3761438
0.16628207 0.07133842 -0.075547606 0.00076578587 0.035205405 0.1326332 -0.13037987 0.0392184
-0.25439262 -0.0759565 -0.37525314 0.23363928 -0.08350902 0.10476365 -0.0787387 -0.2156491
0.15222716 0.039872296 0.08354842 0.22056219 -0.10593483 -0.12850541 -0.05627642 0.1632392
-0.04082643 0.21041441 -0.108034015 -0.16997413 0.017608363 -0.27900192 0.25569063 -0.0069276206
-0.25237072 -0.28880346 -0.34954485 -0.013730944 -0.046987046 0.11583673 -0.20509744 0.14876448
-0.15828551 0.0033772022 -0.3151934 0.28257677 0.016400797 -0.14790463 -0.05784706 -0.23040748
-0.059841093 -0.13660212 0.36079398 0.21522148 -0.098281324 0.21782342 -0.21559076 0.089211896
-0.0072816256 -0.04003737 0.27298564 0.27611646 0.14401746 -0.08409866 -0.11949529 0.045531683
-0.07023351 0.11056912 0.19178903 -0.06046744 0.33158746 -0.19306956 -0.2525823 0.2378217
0.15585504 -0.17764883 -0.15875247 0.15318021 0.07941317 -0.0671788 0.072666585 -0.01503641
0.21089739 0.013482073 0.12921917 0.2697659 0.19370975 0.036987964 -0.16526535 -0.22099449

bias_ih_l0 f4 [40]
00000000: b8ba b8bd d1c5 59bd 4f92 3a3e 0e9c 493c
00000010: 27e1 97be 0b65 643d 2730 07bd 9ac7 38be
00000020: c7ce 793e 6ca2 a8bb d61f a33e 19f5 27be
00000030: 354e 3a3e 59b9 9a3d a88d 63bd 1ea9 cf3d
00000040: 3a2d 29be 92cb b23e ec2f 383e 0e09 13be
00000050: a8ce ab3e 95d9 3d3e a96c 06be 7efe eebd
00000060: 2f3b b13e 907a 9fbe 4dd0 50be d2e8 80bd
00000070: 03d9 6f3e 6640 5a3e 5259 bdbd 3a6e 43be
00000080: 20e9 c13d c65c 1ebd 23fd 69be 46ef 5a3e
00000090: 2812 e93d 67e2 873d 99f5 6bbe a4c8 243d
-0.09019989 -0.053167168 0.18219875 0.012305273 -0.29663965 0.055760425 -0.033004906 -0.18044892
0.24395286 -0.0051463153 0.31860226 -0.16402091 0.18193896 0.075548835 -0.055555016 0.101396784
-0.16521159 0.34920937 0.1798703 -0.14358923 0.33556104 0.18540032 -0.13127388 -0.11669634
0.34615466 -0.31148195 -0.2039196 -0.06294407 0.23422627 0.21313629 -0.09245552 -0.19085017
0.09468293 -0.038662694 -0.2285047 0.21380338 0.11380416 0.0663498 -0.23042907 0.04023041

bias_hh_l0 f4 [40]
00000000: f539 593e 2dfc 723e 09a1 05be e917 c03e
00000010: 067d 16bc 9e77 64be c591 cdbd 0d8e 1f3d
00000020: fa42 be3e 5153 ab3e a092 033e 20b6 373d
00000030: 2dca 7a3e 9834 043e 6032 6cbe 5813 a9bd
00000040: 1eac f1bd 753e 873e 2c77 c53c 928e 23be
00000050: 65bd 33be ecf5 b6be 9401 0a3e ce51 22bd
00000060: cfba 953e f80a 833d a02e 4cbd 1b6d 96be
00000070: 48c6 9abc 8f5d e73d 7916 23be 66cb ac3e
00000080: 7f99 78be 9957 cf3d ca0d 3b3e 09ad b2bd
00000090: 19de 71be b47f 58be 38e5 febd 9431 7dbe
0.21213515 0.2372901 -0.13049711 0.37518242 -0.009185081 -0.22311255 -0.10037569 0.03895383
0.37160474 0.33462003 0.12848902 0.044851422 0.24491186 0.12910688 -0.23066092 -0.08255643
-0.11800407 0.26414838 0.024104677 -0.15972355 -0.17552717 -0.35734499 0.13477165 -0.039628796
0.29244086 0.063985765 -0.049849153 -0.29380116 -0.018893376 0.11297142 -0.15926541 0.3374893
-0.24277304 0.1012413 0.18266979 -0.0872441 -0.2361988 -0.21142465 -0.12446064 -0.24725944

weight_ih_l0 f4 [40, 22]
00000000: 4cf6 8b3c c3a7 afbb f147 3cbe bd18 993e
00000010: 60e3 d6bd 42cb fb3d 52e3 5dbe f395 9bbd
00000020: d936 dc3d f423 f1bd ea18 8b3e e5d5 c0bd
00000030: 83b5 853e 2020 1fbe 55c1 2cbe 6eb9 11be
00000040: fde0 6b3d b6b4 d73d b5e7 9ebe 0a86 563d
00000050: 573f cabb 839a de3d b047 00be 3b93 f7bd
00000060: 8dd0 bb3c 6f8b e63d 6fc1 303e ddf8 32be
00000070: d6de 333e 6221 923d 10f6 56be 1201 573e
00000080: 6da7 843d 6a5b 22be 39dd 28be fe8a 3d3e
00000090: c3c3 413d 630e 2dbe b9ec 64be ebd9 733c
000000a0: ff65 0b3e a9bf 4fbe a4aa 85bd 39ca 70be
000000b0: e2c5 183d 6dcc 053c 9dc0 93be a0cb 53be
000000c0: c305 623e f9e4 acbe 27f5 03be 1461 cc3c
000000d0: dfa2 3f3e feae 563e 9087 383d 05a3 823e
000000e0: e447 8d3c b3e9 263e 4115 32be 29e1 28be
000000f0: cc03 833e 24be 013e 9bf4 923e 10df 803e
00000100: 93ac c33d 6a75 0abe 3466 503d 9f62 ad3e
00000110: c856 8cbd 4db5 c93d 20e5 773d 3624 84be
00000120: 886f 7cbb 99eb 1fbe 0b88 043e d7db 09be
00000130: 49fb d7bd e6f6 8abd e9e5 563e 2a72 823e
00000140: b8b1 8dbd a9a2 70be 9a11 623d d76b 023d
00000150: 22d0 a63d 83be 8f3e 6af4 fd3c 88eb b43e
00000160: 434f f83d 44a1 c73c 905d e63d 8d3c d5bd
00000170: b30e 5e3e 166d 433e c3f9 5b3e 9e96 68bc
00000180: e048 a9be b6fc 8bbd 22d5 64be b13a 3bbe
00000190: a61a 843e 19e7 b63d 02f4 85bc 5ebb aebd
000001a0: fc3e 0a3e 53e4 39be 130a a0be 1355 cabd
000001b0: 6826 a1be 0079 8f3d bb5a 0c3e 7c7b 493e
000001c0: 98c7 afbe 6400 c03e cb05 90be be29 bbbd
000001d0: 53b1 233e 0e0d 6bbe 871b 24be 7388 8abe
000001e0: 0ea0 8b3d edb3 05be 7742 9ebd 3d39 26be
000001f0: e22a 43be a9a4 07be a69b 96be 4fe2 cf3d
00000200: 3a89 2ebe d5ea 083e 3677 9d3e ae49 523e
00000210: cc2c 22bd 0ff7 6fbe c7fa f0bd 4d61 ac3e
00000220: 20ad 06be 78e6 aebd c030 6dbe a1bd 8e3e
00000230: be2a 6c3e 022c 8dbd 04bd f7bc ac1f aebd
00000240: 49ef 7f3e 302c c9bd dc9e 6cbe c6cb 1e3e
00000250: 0036 3dbe a645 55bd a3bc 93be c587 983e
00000260: b11b 813d 6e82 11be 4c76 3b3e c761 8fbd
00000270: aebb 053e f683 8f3e 52c9 33be 1ed2 8cbe
00000280: 135d b1be a684 2f3e 6649 913e 4250 2dbd
00000290: 3d20 8ebe 8f71 91be ae0c c4bd c5b5 7abe
000002a0: 38fa 0d3e f7e2 24be 55b4 eabd 9576 233e
000002b0: 866d 9dbe 2c35 8b3e 1646 9b3e 49d3 9c3e
000002c0: aeec 34bd 614d a23e 1e24 48be 432f 5a3e
000002d0: 6c2f 893c 346b d1bd 4401 d4bd 0989 493e
000002e0: 389e 6ebe 34d5 433e 50a9 66be 594b 1b3e
000002f0: 73a1 febd 6044 55bd 3cd4 613e c304 88bd
00000300: 5016 78be 6568 63bd f7b6 88be afc1 933e
00000310: 6ca0 f1bb 9c24 853e 1974 153d d32c 5e3d
00000320: d3d8 2dbe b8f7 763e 1e51 85be f4c3 b13d
00000330: 2d27 95bd 2c74 b23e ad0a bcbc a0ff 61be
00000340: 969b 323e e25b c83d 314a 13be 233a a23d
00000350: 1588 6abe 34ce 9a3e 0c57 58be da25 813d
00000360: 2323 b7be 8b4c ab3c 8fa2 bb3e 2b4e 1d3e
00000370: 23ed 953c f2a7 a1be f4fc 7bbd 47fd bb3e
00000380: aa40 b2be 6928 833e dbb6 5e3e 1e88 6abe
00000390: cd35 a03e 1dc8 423e af0d 7abe 07e1 8a3e
000003a0: 28c6 c2bd 2404 1c3e 7084 8f3e 2a55 e93d
000003b0: 1b0c 48be 645e 9c3e 5a9d 11be 9800 bbbc
000003c0: 5082 883d 0bb2 2cbe 71b4 31be b668 22be
000003d0: 52e9 93bd 1211 3d3e 66f6 c7bc 4cfc 70be
000003e0: 0a65 2a3d aa09 853d 8326 153d d186 443e
000003f0: b057 153e b808 943d 4ec6 593e 00e8 f3bc
0.017085217 -0.005360575 -0.18386818 0.29901686 -0.10492587 0.12294628 -0.21668747 -0.0759696
0.10752649 -0.11774436 0.27167445 -0.09415797 0.26115045 -0.15539598 -0.16870625 -0.14230892
0.057587612 0.10532515 -0.31036153 0.052373923 -0.0061721015 0.108693145 -0.12527347 -0.12088629
0.022926593 0.112570636 0.17261289 -0.17477746 0.17565474 0.071352735 -0.20992303 0.20996502
0.064772464 -0.15855184 -0.1649064 0.18510053 0.047305834 -0.1690002 -0.22355928 0.014883499
0.13613127 -0.20287956 -0.06526688 -0.23514642 0.03729809 0.008166415 -0.2885789 -0.20683146
0.2207251 -0.33768442 -0.12886487 0.024948634 0.18714474 0.20965192 0.045051157 0.25515
0.017246194 0.16300087 -0.1739092 -0.16492142 0.25588834 0.12670189 0.28702244 0.25170183
0.095544 -0.13521352 0.05087872 0.33864304 -0.0685249 0.098490335 0.060521245 -0.25808877
-0.0038518626 -0.15617217 0.12942521 -0.13462768 -0.10545976 -0.067853734 0.20986141 0.25477725
-0.06918663 -0.2349955 0.055192567 0.031841125 0.08145167 0.28075036 0.031000335 0.35335946
0.12124493 0.02436889 0.112483144 -0.1041194 0.21685295 0.19084582 0.21481995 -0.014196066
-0.33063412 -0.0683531 -0.22346929 -0.18284108 0.2580158 0.08930797 -0.016351704 -0.08531831
0.13500589 -0.18153505 -0.31257686 -0.09879508 -0.31474614 0.07005501 0.13706486 0.19676012
-0.34331965 0.37500298 -0.2812942 -0.09138821 0.15985613 -0.22954199 -0.16026126 -0.27057227
0.068176374 -0.13056917 -0.07727521 -0.16232772 -0.19059327 -0.13246407 -0.29415625 0.10150587
-0.17044535 0.13370831 0.30755013 0.20535919 -0.039593503 -0.23434089 -0.11766582 0.33667985
-0.1315198 -0.08540052 -0.23163128 0.2787905 0.2306318 -0.068931594 -0.030241497 -0.08502135
0.24993624 -0.09822881 -0.23107475 0.15507421 -0.1847763 -0.052068375 -0.28854856 0.29791084
0.0630411 -0.14209911 0.18306845 -0.070010714 0.13059875 0.28030366 -0.17557266 -0.27504057
-0.34641322 0.17140445 0.2837631 -0.042312868 -0.2775897 -0.2840695 -0.09572731 -0.24483402
0.13864982 -0.16102205 -0.11460177 0.15963204 -0.30747622 0.27189004 0.3032691 0.30629948
-0.044171028 0.3169966 -0.19545028 0.21307091 0.016746245 -0.102255255 -0.10351804 0.19681181
-0.23302543 0.191243 -0.22525525 0.15165462 -0.12433138 -0.05206716 0.22053617 -0.06641533
-0.24227262 -0.05551948 -0.2670209 0.28858706 -0.00737386 0.26004493 0.036487672 0.054241966
-0.16977243 0.24117935 -0.2603845 0.08679953 -0.07282863 0.34854257 -0.02295431 -0.2207017
0.17442164 0.0978315 -0.1438377 0.07921245 -0.22903474 0.30235445 -0.21126956 0.06306048
-0.35768995 0.020910522 0.3664746 0.1536185 0.018301552 -0.31573445 -0.06152053 0.36716673
-0.3481496 0.25616768 0.21749441 -0.22903487 0.31291047 0.1902165 -0.24419282 0.27124807
-0.095104516 0.15235955 0.2803073 0.11393197 -0.19535868 0.30540764 -0.14220181 -0.022827432
0.0666548 -0.16864793 -0.17353989 -0.15860257 -0.07222237 0.18463543 -0.024409484 -0.23533744
0.041600265 0.06495984 0.03641368 0.19192053 0.14584231 0.072282255 0.21267053 -0.029773712
