LSTM/code/model/old_model/model_mk6_400epoch_0.2106trainloss_0.0945validloss.pt (torch, 46404 bytes, 32 tensors)

weight_ih_l0 f4 [40, 22]
0	0x3df6e64a	0.12055643
1	0x39bde91d	0.00036222572
2	0xbe8808b8	-0.26569152
3	0x3e7058f1	0.23471428
4	0xbd0d243c	-0.034458384
5	0x3e583dfc	0.21117395
6	0xbd33600b	-0.043792766
7	0xbdd6b4cd	-0.10483704
8	0xbe19a232	-0.15003279
9	0x3e01c491	0.1267264
10	0x3d48d0e4	0.04902734
11	0x3e991197	0.29896232
12	0xbe8f23af	-0.27956912
13	0xbab365b0	-0.0013686921
14	0x3dc487c6	0.09596209
15	0xbe2fbdb9	-0.17162217
16	0xbda69484	-0.08133796
17	0xbe288014	-0.16455108
18	0x3e497133	0.19672088
19	0x3e97028a	0.29494125
20	0x3dcc50bb	0.099763356
21	0xbde31977	-0.110888414
22	0x3e0b0887	0.13577472
23	0x3ca33f35	0.0199276
24	0x3cc1bf9c	0.023650937
25	0xbe049ae4	-0.12949711
26	0xbe10b0c8	-0.14129937
27	0x3e8f0e4f	0.27940604
28	0x3e5d3261	0.2160125
29	0x3e357402	0.17720035
30	0xbd036bf4	-0.032085374
31	0x3e7d6fe8	0.2474972
32	0x3e91e852	0.2849756
33	0x3ea8840d	0.32913247
34	0xbe38ece9	-0.18059124
35	0x3e395c31	0.18101574
36	0x3e2f3529	0.17110123
37	0x3d7a13d1	0.061054055
38	0x3e003bbc	0.12522787
39	0x3e8348a2	0.25641352
40	0x3e06cff0	0.1316526
41	0x3d12789b	0.03575955
42	0x3e429e7c	0.1900577
43	0xbe178cc6	-0.14799795
44	0x3e89a51e	0.26883787
45	0x3de599f1	0.112110026
46	0x3d2b3017	0.04179391
47	0xbe4cf537	-0.20015417
48	0x3e78a707	0.24282466
49	0x3ea35f94	0.31908858
50	0x3c987d86	0.018614542
51	0xbe846658	-0.25859332
52	0x3e92fc8b	0.287083
53	0xbe178f7f	-0.14800833
54	0xbebb94d6	-0.3663699
55	0xbe8385c2	-0.25687987
56	0x3e16ddde	0.14733073
57	0xbe5b8739	-0.21438302
58	0x3e3a511b	0.18195002
59	0x3ea8f2c9	0.3299773
60	0xbe44ae70	-0.19207168
61	0x3e4db826	0.20089778
62	0xbe817e25	-0.25291553
63	0xbe7c2dcf	-0.2462685
64	0x3e04784a	0.12936512
65	0x3e3c0e87	0.18364917
66	0x3dd026a8	0.10163623
67	0xbeb18e24	-0.34678757
68	0xbdd39ee2	-0.10333039
69	0x3e30e9c4	0.17276675
70	0x3e7785c1	0.24172117
71	0xbe28f9b8	-0.1650151
72	0xbd2bf5c3	-0.041982424
73	0x3c8fd34a	0.017556805
74	0x3dc55c73	0.09636774
75	0x3e81dd5c	0.25364196
76	0xbe71b684	-0.2360478
77	0x3d580922	0.052743085
78	0xbe8c6df4	-0.27427638
79	0xbda64161	-0.08117939
80	0x3df4b396	0.11948316
81	0xbe6ed539	-0.23323525
82	0x3e6c555f	0.23079441
83	0xbea39519	-0.3194969
84	0xbe18b596	-0.1491302
85	0x3eb016f1	0.34392503
86	0xbd534eb1	-0.051588718
87	0xbd8c3b5e	-0.06847261
88	0xbdf7373b	-0.12071081
89	0x3e9dedb4	0.30845416
90	0xbcd10170	-0.02551338
91	0xbcf18c16	-0.029485743
92	0x3e641fb6	0.22277722
93	0xbe28a4fa	-0.16469184
94	0xbb533ee3	-0.0032233528
95	0x3d9cfb7f	0.076651566
96	0xbea8a1e2	-0.32936007
97	0x3d2a412c	0.04156606
98	0x3e4bb14b	0.1989185
99	0xbe4bec98	-0.19914472
100	0x3e159951	0.14609267
101	0x3dfd15a2	0.12357642
102	0xbe5586f4	-0.20852262
103	0x3e8c2bd4	0.27377188
104	0x3c8ac9ee	0.01694199
105	0xbbb6bf2c	-0.0055769887
106	0xbe4fb4f2	-0.20283869
107	0xbe001c29	-0.12510742
108	0xbe824bef	-0.25448558
109	0x3e017cea	0.12645307
110	0x3e0de765	0.13857801
111	0x3e72727f	0.2367649
112	0x3d92906c	0.071564525
113	0x3e64f99d	0.22360845
114	0x3dd38309	0.10327727
115	0x3e18a784	0.14907652
116	0xbe8b6693	-0.27226695
117	0xbd3f4533	-0.046696853
118	0xbe0723ab	-0.131972
119	0xbe2ef61f	-0.17086075
120	0x3d3acc61	0.045605067
121	0x3eabc7d3	0.3355089
122	0xbe34c134	-0.17651826
123	0xbe299a7a	-0.16562834
124	0x3e1f506c	0.15558022
125	0x3e200381	0.15626337
126	0x3df9e138	0.1220116
127	0x3d40f875	0.047111947
128	0xbe26f52f	-0.16304468
129	0x3e827264	0.25477898
130	0x3e92d1a8	0.2867558
131	0x3e30badb	0.1725878
132	0x3e49b983	0.19699673
133	0xbe533395	-0.20625146
134	0xbd96ffc8	-0.07373005
135	0x3d08bd90	0.033383906
136	0xbd193f32	-0.037413783
137	0xbdd66a38	-0.10469478
138	0x3e7e1c71	0.24815537
139	0x3dd85769	0.10563547
140	0xbd8358dc	-0.06413433
141	0x3e8c972d	0.27459088
142	0x3d39c94c	0.045357987
143	0x3dee339e	0.11630939
144	0x3d46dd38	0.048550814
145	0x3bb47491	0.00550706
146	0xbdbf96dd	-0.09354947
147	0x3e80582c	0.2506727
148	0xbd092eee	-0.03349202
149	0xbd3ec9aa	-0.04657904
150	0x3e47dd8b	0.19518106
151	0xbe26132e	-0.16218254
152	0xbd25e3d4	-0.040500477
153	0x3e003ad0	0.12522435
154	0xbe1b9000	-0.1519165
155	0xbdb7f39c	-0.08982012
156	0xbe037969	-0.12839283
157	0xbd1ab229	-0.037767563
158	0xbeadc5d7	-0.33940002
159	0xbe93210b	-0.28736147
160	0x3e8ed1fc	0.2789458
161	0x3e27343f	0.16328524
162	0x3e11d600	0.14241791
163	0x3dedad68	0.1160534
164	0x3df19e56	0.11797778
165	0xbe80108e	-0.2501263
166	0x3e44386a	0.19162145
167	0xbe98e083	-0.2985879
168	0x3e520fe9	0.20513882
169	0xbd9f8662	-0.07789303
170	0xbe1a6aef	-0.15079854
171	0x3e6c9a95	0.23105843
172	0xbe62d241	-0.22150518
173	0x3e5271f6	0.20551285
174	0xbd6494ff	-0.055806156
175	0xbd891fce	-0.066955194
176	0xbe86c1ec	-0.26319826
177	0xbe963a98	-0.29341578
178	0xbd9940ab	-0.074830376
179	0xbdb6ce0b	-0.08926018
180	0xbe6f6678	-0.23378932
181	0x3e36c527	0.17848645
182	0xbe9fd410	-0.31216478
183	0x3d49c1c1	0.049257044
184	0xbd86ff27	-0.06591635
185	0xbe566236	-0.20935902
186	0xbeac5f44	-0.33666432
187	0xbe0d7f19	-0.13818015
188	0x3e9a07a5	0.30083957
189	0xbe811141	-0.25208476
190	0xbe9fdbb4	-0.31222308
191	0xbdb6f377	-0.08933156
192	0xbe24810b	-0.16064851
193	0xbe32fb7d	-0.17478748
194	0x3dc464d0	0.09589541
195	0x3db3a4c8	0.08771664
196	0xbca7b75f	-0.02047318
197	0x3e6e97d8	0.23300111
198	0x3e774991	0.24149157
199	0x3d94e848	0.07270867
200	0xbe1e3ec2	-0.15453628
201	0x3ec795f1	0.38981584
202	0xbe3165fc	-0.1732406
203	0x3dfc4b96	0.123191044
204	0x3cc57b32	0.024106596
205	0xbd8c4bdb	-0.06850406
206	0xbe28cff5	-0.1648558
207	0xbeb09a60	-0.3449278
208	0x3d16657a	0.03671787
209	0x3e6382bf	0.22217844
210	0xbdc24589	-0.09485919
211	0x3e432e9b	0.19060747
212	0x3c6a5c72	0.014304267
213	0x3ebba5e7	0.3665001
214	0x3d68c059	0.056824062
215	0x3e1dccee	0.15410206
216	0xbec6a813	-0.38800105
217	0x3ec72edc	0.38902938
218	0xbd8fd9b5	-0.07023946
219	0x3eca84a0	0.3955431
220	0x3e77ac42	0.24186805
221	0x3d013667	0.031546023
222	0xbd442535	-0.047887046
223	0x3d35cadb	0.04438291
224	0x3e4e701c	0.20159954
225	0xbd5eafe8	-0.054366976
226	0xbe4bf0b1	-0.19916035
227	0xbe3b9b3c	-0.18320936
228	0xbde450c1	-0.11148215
229	0x3da68f4c	0.081328005
230	0x3e3fd1b8	0.18732345
231	0xbda192dc	-0.07889339
232	0x3e96a4cc	0.29422605
233	0xbe954871	-0.2915683
234	0x3e4a93c1	0.19782926
235	0xbe3bdddc	-0.18346351
236	0xbce67c69	-0.028135495
237	0xbea16e0f	-0.3152928
238	0xbe49465b	-0.19655745
239	0x3ec5ef91	0.38659337
240	0x3e2c6c61	0.16838218
241	0x3e5f5795	0.21810754
242	0xbe26ba1b	-0.16281931
243	0xbe89a697	-0.2688491
244	0xbc2147fc	-0.009843823
245	0x3eceeac9	0.40413502
246	0x3d914ef2	0.07095136
247	0xbe31427f	-0.17310522
248	0xbdf9c269	-0.12195284
249	0xbdfe2e4c	-0.12411174
250	0x3e4c95c6	0.19979009
251	0x3dba9c7e	0.0911188
252	0xbea4f52b	-0.32218298
253	0xbe2c7ca9	-0.16844429
254	0x3e4b2109	0.1983682
255	0x3d1fb5f0	0.03899187

weight_hh_l0 f4 [40, 10]
0	0x3dae8076	0.08520596
1	0x3eac8774	0.33697093
2	0xbe71641d	-0.23573346
3	0xbe12ed3c	-0.1434831
4	0x3c1860dd	0.009300438
5	0xbd7f5231	-0.062334243
6	0x3e4f63d6	0.20252928
7	0x3e4e3df6	0.20140824
8	0xbdb71ce8	-0.0894106
9	0xbe81ffd1	-0.25390485
10	0x3a1a5266	0.0005886912
11	0xbd6fbfc5	-0.058532495
12	0xbe468e6d	-0.19390269
13	0x3e0b169e	0.13582847
14	0xbe52bfeb	-0.20581023
15	0x3de6bad9	0.11266107
16	0xbeba3683	-0.36369714
17	0xbebcef5f	-0.36901376
18	0xbe2231fc	-0.1583938
19	0x3df9ac8f	0.12191116
20	0xbc9f50b5	-0.019447664
21	0xbe4e1802	-0.20126346
22	0x3e3c70ea	0.18402448
23	0xbdd35d2a	-0.10320504
24	0x3e9efb41	0.31051067
25	0xbe5e66b6	-0.21718869
26	0xbcc324d7	-0.023821278
27	0xbe67fb30	-0.22654414
28	0x3dad0d96	0.08449857
29	0xbd3e7bb2	-0.046504684
30	0xbe819a3b	-0.2531298
31	0x3e2b88c8	0.16751397
32	0x3e8624e2	0.26200014
33	0xbdda5085	-0.10659889
34	0xbe17c5cd	-0.14821549
35	0x3e3a5508	0.181965
36	0xbe9ce4f7	-0.30643436
37	0x3e2c2ad7	0.16813217
38	0x3e311744	0.17294031
39	0xbe41e6a5	-0.1893564
40	0xbe667e38	-0.22509086
41	0xbd79e461	-0.061008815
42	0x3e815c7f	0.2526588
43	0xbe91fd75	-0.28513685
44	0x3e9d5933	0.30732116
45	0x3d2541b7	0.040345874
46	0xbe72aa54	-0.23697788
47	0xbe3f97a4	-0.1871019
48	0xbe0076cd	-0.12545319
49	0xbdb28a14	-0.087177426
50	0x3e650483	0.22365002
51	0x3e9039e4	0.28169167
52	0x3e44b7da	0.19210759
53	0x3e6c59dc	0.23081154
54	0x3eba7c2c	0.3642286
55	0xbd1e6a4c	-0.03867559
56	0x3d8bf563	0.06833913
57	0x3e4b61a5	0.19861467
58	0x3da586ce	0.080823526
59	0xbe6fce0c	-0.23418444
60	0x3eae1eb3	0.34007797
61	0x3e161fa9	0.14660515
62	0x3db7de3f	0.08977937
63	0x3e8100f5	0.25196043
64	0xbc989136	-0.01862393
65	0x3e33f576	0.17574105
66	0xbe424ab6	-0.18973812
67	0xbd88b275	-0.06674663
68	0xbe808cb8	-0.2510736
69	0x3e329147	0.17438231
70	0xbe2ce3d5	-0.16883786
71	0xbe467ed4	-0.19384319
72	0xbd870b8e	-0.06594001
73	0xbe337749	-0.17525972
74	0xbe0b98df	-0.13632534
75	0x3dd8156d	0.10550962
76	0x3da620e0	0.08111739
77	0x3e094709	0.13406004
78	0x3e4d3968	0.2004143
79	0x3db32268	0.08746797
80	0x3e03f037	0.12884603
81	0x3e524a4e	0.20536157
82	0x3e996f2f	0.2996764
83	0x3dc2cf5b	0.09512206
84	0xbe14b305	-0.14521416
85	0x3d70ed3a	0.058819987
86	0xbd87ac73	-0.06624689
87	0xbe9f68a2	-0.31134516
88	0x3d9b6e51	0.075894006
89	0xbe9bedeb	-0.30454955
90	0xbdf58c68	-0.11989671
91	0x3c3225c1	0.010873259
92	0x3e6210df	0.22076748
93	0x3e1e4401	0.15455629
94	0x3d9a0edd	0.07522366
95	0xbe5079ad	-0.20358916
96	0xbd03c7b7	-0.032172885
97	0xbe2cef50	-0.16888165
98	0x3c9ce653	0.019152796
99	0xbebaffa3	-0.3652316
100	0x3e986090	0.2976117
101	0xbdc00f35	-0.093779005
102	0x3ecee978	0.40412498
103	0x3d6c1c6e	0.0576443
104	0x3e0e2414	0.1388095
105	0x3ebf974e	0.37420124
106	0xbdcd157e	-0.10013865
107	0x3d8061b1	0.06268633
108	0xbc8cabf1	-0.017171832
109	0x3cdf2d7b	0.027243366
110	0x3d8ebbf3	0.06969442
111	0x3eda6140	0.4265232
112	0x3e21f601	0.158165
113	0x3c33763f	0.010953485
114	0x3e8ab388	0.27090096
115	0xbdf364ff	-0.11884498
116	0xbdb1ab18	-0.08675212
117	0xbe56fd4b	-0.20995061
118	0xbecdbd33	-0.4018341
119	0xbcb76309	-0.02238609
120	0x3e60a8e7	0.21939431
121	0x3dff63d5	0.12470213
122	0x3eb93d93	0.3617979
123	0x3dffac3f	0.12484025
124	0x3e3fd9e3	0.18735461
125	0x3eb4a389	0.35281017
126	0xbe0442da	-0.12916127
127	0xbe5265c7	-0.20546637
128	0xbebefe1e	-0.3730325
129	0xbe1c2369	-0.15247883
130	0x3e571feb	0.2100827
131	0x3ece4eb2	0.40294415
132	0x3e9697f2	0.294128
133	0xbeabb518	-0.335366
134	0x3db00a3d	0.08595703
135	0xbdf5389a	-0.119736865
136	0x3dff8e7e	0.1247835
137	0xbdf871ce	-0.121310815
138	0xbedddb7d	-0.4333152
139	0xbdc85e7a	-0.09783645
140	0x3dc09f99	0.09405441
141	0xbe852934	-0.26007998
142	0xbdd6dd66	-0.10491447
143	0x3e25d608	0.16194928
144	0x3d9186c7	0.07105785
145	0xbc03809f	-0.008026271
146	0x3e848cd0	0.2588868
147	0x3e846eb4	0.2586571
148	0xba22bc35	-0.00062078546
149	0xbe222bf2	-0.15837076
150	0xbd7d0bea	-0.06177894
151	0x3e4cb8f1	0.19992425
152	0x3e4af9f8	0.19821918
153	0xb9e43e1f	-0.00043533833
154	0x3e9dc8d4	0.30817282
155	0xbc854c3e	-0.016271707
156	0xbeb19caa	-0.34689838
157	0xbd93415f	-0.07190203
158	0xbd0c4c2d	-0.034252334
159	0xbece1a1b	-0.40254292
160	0x3d5a9c62	0.053371795
161	0x3e204742	0.15652183
162	0xbd4f858d	-0.050664473
163	0x3dcde2e1	0.10053039
164	0xbdf50690	-0.11964142
165	0x3eb41f47	0.35180113
166	0xbdeea3f3	-0.116523646
167	0xbd55c06a	-0.052185453
168	0x3dbd4575	0.092417635
169	0x3babfb85	0.0052484893
170	0x3e411594	0.18855888
171	0xbe360bb6	-0.17777905
172	0x3e088c83	0.13334851
173	0xbd2bfb15	-0.041987497
174	0x3ec12666	0.37724608
175	0x3ddc1322	0.10745837
176	0x3e86b30b	0.26308474
177	0xbce3ebdd	-0.02782243
178	0xbdd2bd9b	-0.102900706
179	0xbea29cd6	-0.3176028
180	0x3d0129a7	0.031533863
181	0x3ba78854	0.005112687
182	0x3eda4148	0.4262793
183	0xbe536430	-0.20643687
184	0x3e96d240	0.29457283
185	0x3e003951	0.12521864
186	0xbe013950	-0.12619519
187	0x3bbe1fb3	0.0058021187
188	0xbeb01298	-0.34389186
189	0x3e169db4	0.14708596
190	0x3e3c63f9	0.18397512
191	0x3e9734bc	0.2953242
192	0x3e02b448	0.12764084
193	0xbe21a13d	-0.15784164
194	0xbe5bec06	-0.21476755
195	0x3b0a1c6a	0.0021074065
196	0xbda4dee9	-0.08050329
197	0xbcb61cb8	-0.022230491
198	0x3df68877	0.12037747
199	0xbd89cd68	-0.06728631
200	0xbe2b9ae4	-0.16758305
201	0x3e69ff25	0.22851236
202	0x3e2c897b	0.1684932
203	0xbdcf41f4	-0.101200014
204	0xbe2f36ed	-0.17110796
205	0xbce6641b	-0.028123906
206	0x3da4f603	0.080547355
207	0x3c8d775e	0.017268833
208	0xbb4e8c40	-0.00315167
209	0x3d1de09b	0.03854428
210	0xbe9375ce	-0.28800815
211	0xbdea530b	-0.114416204
212	0x3ecfef4b	0.40612254
213	0xbbfb8dce	-0.0076768165
214	0x3e3f4658	0.18679178
215	0xbe19374a	-0.14962497
216	0xbd501750	-0.050803483
217	0xbe312704	-0.1730004
218	0x3d9e7f69	0.07739145
219	0xbeca7cea	-0.39548427
220	0xbdbbf75e	-0.09178041
221	0xbddce6d3	-0.10786214
222	0x3ebab3a9	0.36465195
223	0x3c3c3026	0.011486089
224	0x3e0be8b8	0.13662994
225	0x3ebc2a1a	0.3675087
226	0xbdb65679	-0.08903212
227	0xbe416475	-0.18885978
228	0x3e168765	0.14700086
229	0x3d1bbbe1	0.038020972
230	0xbe5dec13	-0.21672086
231	0xbc529fab	-0.012855451
232	0xbe0d814d	-0.13818856
233	0x3db21158	0.08694714
234	0xbc9fe817	-0.019519849
235	0x3e5c777e	0.21529958
236	0x3da4197d	0.08012674
237	0xbe8482f5	-0.25881162
238	0x3de6c9af	0.11268937
239	0xbbf4632a	-0.0074581103
240	0xbe9167d7	-0.28399536
241	0xbd964c87	-0.07338815
242	0x3ebb51f5	0.36585966
243	0x3df01250	0.11722243
244	0xbe489795	-0.19589074
245	0xbdad5c2d	-0.08464847
246	0xbd5fefd4	-0.054672077
247	0xbdfbee18	-0.12301272
248	0x3dd5b025	0.104339875
249	0xbe8b7465	-0.2723724
250	0x3cf5e33f	0.030015586
251	0xbe07fbc3	-0.13279633
252	0x3ea288e1	0.31745055
253	0xbea29f2c	-0.31762064
254	0x3d2428ff	0.04007816
255	0x3e7f9de7	0.24962579

bias_ih_l0 f4 [40]
0	0xbd56b1ee	-0.05241578
1	0x3e9ebd51	0.31003812
2	0x3de4877a	0.111586526
3	0xbcd313c8	-0.025766268
4	0x3d525417	0.051349726
5	0xbe33ae92	-0.17547062
6	0x3e25f0c8	0.16205132
7	0xbe802c7e	-0.25033945
8	0x3db039c7	0.0860477
9	0x3e956d0d	0.29184762
10	0x3e6f27cb	0.23355024
11	0xbda1c16f	-0.07898223
12	0x3e0657e7	0.1311947
13	0x3da75217	0.08169954
14	0x3ead98ed	0.33905736
15	0x3db54e0d	0.08852778
16	0xbca617a0	-0.020274937
17	0xbe8db80d	-0.27679482
18	0xbe1b2554	-0.15150958
19	0xbcbd7050	-0.023124844
20	0x3e2c94d2	0.16853645
21	0x3ea9f76f	0.3319659
22	0xbdb1f52a	-0.086893395
23	0xbe4b6c50	-0.19865537
24	0xbd0f972b	-0.035056274
25	0x3e22fee1	0.15917541
26	0xbe3db678	-0.18526638
27	0xbe1538f9	-0.14572515
28	0xbea6660f	-0.3249974
29	0xbe93b806	-0.28851336
30	0xbe384719	-0.17995872
31	0xbd2c86cf	-0.04212075
32	0x3e8e7f42	0.27831465
33	0xbdb2f833	-0.087387465
34	0xbdb61d52	-0.08892311
35	0xbe768e5c	-0.24077743
36	0x3b232686	0.0024894788
37	0x3e1955f3	0.14974193
38	0xbdd08bb7	-0.101828985
39	0x3eb18372	0.34670597

bias_hh_l0 f4 [40]
0	0xbd0183bb	-0.03161977
1	0x3e07788a	0.13229576
2	0xbe5dc8a5	-0.21658571
3	0x3d9781b1	0.073977835
4	0x3df83b5f	0.12120699
5	0x3e9fd294	0.31215346
6	0xbe4b4d96	-0.19853815
7	0x3ea02f0e	0.312859
8	0xbdf10e02	-0.1177025
9	0xbe036450	-0.12831235
10	0xbd6dc70d	-0.058051158
11	0x3a8256e1	0.0009944105
12	0x3eab5253	0.33461246
13	0xbe274271	-0.16333939
14	0x3cc25640	0.023722768
15	0xbd59cc97	-0.053173628
16	0x3d1751c1	0.0369432
17	0x3e0e7162	0.1391044
18	0x3e741d09	0.23839201
19	0x3e811c88	0.2521708
20	0x3eb3b726	0.3510067
21	0xbd82af6c	-0.06381115
22	0x3e85ba78	0.26118827
23	0x3d8ad49f	0.067788355
24	0x3ad44361	0.0016194397
25	0x3ea9838c	0.33108175
26	0xbeb7afd3	-0.3587633
27	0x3e576f76	0.21038613
28	0xbea8ab3e	-0.32943147
29	0x3e18c5bc	0.1491918
30	0x3eb7f644	0.35930073
31	0xbd361c20	-0.044460416
32	0xbc900866	-0.01758213
33	0x3ec56dca	0.38560325
34	0x3eb530a9	0.35388687
35	0x3e594091	0.21216036
36	0x3e7f581a	0.24935952
37	0xbe5f1520	-0.21785402
38	0xbd3852bc	-0.045000777
39	0x3ded8685	0.11597923

weight_ih_l0 f4 [40, 22]
0	0x3e862d1f	0.262063
1	0x3e97cb96	0.2964751
2	0xbe748027	-0.23877011
3	0xbe19a328	-0.15003645
4	0x3e92518e	0.28577846
5	0xbe0342ed	-0.12818499
6	0xbe0a2012	-0.13488796
7	0x3e77aec9	0.24187769
8	0x3e66040a	0.22462478
9	0x3e822c4a	0.25424415
10	0xbe8b6e32	-0.2723251
11	0x3eae9d4e	0.3410439
12	0xbe45c5ab	-0.19313686
13	0x3e9f07b9	0.3106058
14	0xbcef43d3	-0.029207146
15	0xbe10609e	-0.14099357
16	0xbe2f03c1	-0.17091276
17	0xbe42553f	-0.18977831
18	0x3e75905e	0.23980853
19	0x3ea613e7	0.3243706
20	0x3e86e476	0.26346177
21	0x3e97c1bf	0.29640004
22	0xbe055222	-0.13019612
23	0x3dd5d140	0.10440302
24	0xbd830506	-0.063974425
25	0xbd411536	-0.04713937
26	0xbe2541b2	-0.16138342
27	0x3d14f711	0.036368433
28	0xbe6115fd	-0.21981044
29	0x3d4c21a8	0.049836785
30	0xbe2e9484	-0.17048842
31	0x3e4eaa0c	0.20182055
32	0x3de1f083	0.11032202
33	0x3e96feba	0.29491216
34	0xbe7e50b9	-0.24835481
35	0x3e6f859e	0.23390815
36	0x3e0a0274	0.13477498
37	0xbe3dfce7	-0.18553506
38	0x3e184729	0.14870895
39	0x3e98bb3c	0.29830348
40	0xbea02474	-0.31277812
41	0x3c034794	0.008012671
42	0x3e6ef612	0.23336056
43	0xbd9be56b	-0.076121174
44	0xbe50c296	-0.20386729
45	0xbe20818f	-0.15674423
46	0xbdbedc36	-0.09319346
47	0x3e8a51e8	0.27015615
48	0xbe0a4da8	-0.13506186
49	0x3e479810	0.19491601
50	0x3e96981f	0.29412934
51	0xbe0a1e7b	-0.1348819
52	0xbe8fa065	-0.2805206
53	0x3e7d7c97	0.24754559
54	0x3e8ae9e5	0.27131572
55	0xbd89a3e2	-0.06720711
56	0x3d7c2bad	0.06156509
57	0x3e4dd533	0.2010086
58	0xbda9c889	-0.08290202
59	0x3eb2a42d	0.3489088
60	0x3bbbcda4	0.0057313014
61	0xbe544e3a	-0.20732966
62	0xbe4aa09a	-0.19787827
63	0xbb57f89b	-0.0032954577
64	0x3e891154	0.26771033
65	0x3e77d972	0.24204043
66	0x3e0480a2	0.12939695
67	0x3e0479c1	0.1293707
68	0x3db8927b	0.09012314
69	0x3ebb56a2	0.36589533
70	0xbe812611	-0.25224355
71	0x3d713208	0.058885604
72	0x3dda8b3b	0.10671087
73	0xbe1611ed	-0.14655276
74	0xbdd63845	-0.10459951
75	0x3cdc9d5b	0.026930502
76	0x3e0f9997	0.14023434
77	0x3e49755c	0.19673675
78	0xbe1b71ce	-0.15180132
79	0x3eb2bf4a	0.34911567
80	0xbea37e5b	-0.3193234
81	0x3ea40a27	0.32038996
82	0x3e9ddc9d	0.30832377
83	0xbe822d1c	-0.2542504
84	0x3e10680f	0.14102195
85	0xba852d21	-0.0010160544
86	0xbe18f49e	-0.14937064
87	0x3e89c918	0.26911235
88	0x3e0ad3c3	0.13557343
89	0x3ea64fbb	0.32482705
90	0x3e75db50	0.24009442
91	0x3d69a5aa	0.057042755
92	0x3e824c2b	0.25448737
93	0xbe918df5	-0.28428617
94	0xbe89db68	-0.26925206
95	0x3e54c7ad	0.20779295
96	0xbe86b693	-0.26311168
97	0xbdff552c	-0.12467417
98	0x3e7408be	0.2383146
99	0x3d573a91	0.052546088
100	0x3ea409a0	0.32038593
101	0xbe7e9105	-0.24860008
102	0xbea53971	-0.32270387
103	0x3e2279cd	0.15866776
104	0x3ea2573a	0.31707174
105	0x3ea35ce8	0.3190682
106	0xbe3bbe8c	-0.18334407
107	0xbe8b7a83	-0.27241907
108	0xbe575b12	-0.21030834
109	0xbe3571a2	-0.17719129
110	0xbd6a741d	-0.05723964
111	0xbdbb2b0f	-0.09139072
112	0xbdbd5a8a	-0.092457846
113	0xbe165c9c	-0.14683765
114	0xbd99bf5f	-0.07507204
115	0x3d84099b	0.064471446
116	0x3e09afcb	0.13445966
117	0xbe6f9cac	-0.2339961
118	0xbe5dffe0	-0.2167964
119	0x3e93f1a1	0.28895286
120	0x3e9768b0	0.29572058
121	0x3e347611	0.17623164
122	0x3e51675d	0.20449586
123	0x3e75d91c	0.24008602
124	0x3d89de65	0.067318715
125	0xbe872f41	-0.2640324
126	0xbe38acd0	-0.18034673
127	0x3e609259	0.21930827
128	0xbb0c7f7d	-0.0021438294
129	0x3d854eb2	0.065091506
130	0x3cdc7e34	0.026915647
131	0x3de8e5c2	0.11371948
132	0xbe3f5e93	-0.18688421
133	0x3e421323	0.18952613
134	0x3e34577b	0.17611496
135	0xbe64bc70	-0.22337508
136	0x3e4cb6e9	0.1999165
137	0xbe12f334	-0.14350587
138	0x3e6a3103	0.22870259
139	0x3e84f798	0.2597015
140	0xbdef7961	-0.11693073
141	0xbe38c464	-0.18043667
142	0x3e14d086	0.1453267
143	0x3e9285f7	0.28617832
144	0x3e2236f4	0.15841275
145	0x3e8016b3	0.25017318
146	0xbe8bbd3e	-0.27292818
147	0xbe5930d2	-0.2121003
148	0xbd8bbb5b	-0.068228446
149	0xbe6413b5	-0.22273143
150	0xbb6e5bf0	-0.0036370717
151	0x3ebe700e	0.37194866
152	0x3e91168d	0.28337517
153	0x3d9148cf	0.07093965
154	0x3d80971e	0.06278823
155	0x3a18465a	0.0005808823
156	0x3eb1a4b4	0.3469597
157	0x3e3f96e5	0.18709905
158	0x3dbc1fb2	0.09185733
159	0xbe2e2706	-0.17007074
160	0x3e9f193d	0.31073943
161	0xbdddef71	-0.108366854
162	0x3e80ec63	0.2518035
163	0xbd67bbf9	-0.05657575
164	0xbe4f44e6	-0.20241126
165	0xbe1b9ba9	-0.15196098
166	0x3e0852ac	0.13312787
167	0x3df7f89c	0.12107965
168	0x3dd10751	0.102064736
169	0x3e299dbc	0.16564077
170	0x3e6f69ef	0.23380254
171	0x3cb3b7af	0.021938173
172	0x3d64927f	0.055803772
173	0xbe287a2d	-0.16452856
174	0xbd3e190b	-0.0464106
175	0x3d13299d	0.035928357
176	0xbe47c07f	-0.19507025
177	0xbe6ac818	-0.22927892
178	0xbe83d616	-0.25749272
179	0xbdd3fc9f	-0.10350918
180	0xbe769895	-0.24081643
181	0x3e970d68	0.29502416
182	0x3d21e476	0.039524518
183	0xbdf16528	-0.11786872
184	0x3e123962	0.14279702
185	0xbe4654d2	-0.19368294
186	0x3d223780	0.03960371
187	0x3de160e3	0.11004808
188	0xbe8f48a2	-0.27985102
189	0xbe8d33aa	-0.2757848
190	0xbeb07049	-0.34460667
191	0xbe2050b1	-0.15655781
192	0xbdfbc80f	-0.122940175
193	0xbea5de67	-0.32396242
194	0xbe4943b6	-0.19654736
195	0xbe51e021	-0.20495655
196	0x3ea47fdd	0.32128802
197	0xbe4cab6b	-0.19987266
198	0xbe269e35	-0.16271289
199	0xbdc0b16a	-0.09408839
200	0xbe80121f	-0.25013825
201	0xbdba4ae1	-0.09096313
202	0x3e51f75d	0.20504518
203	0xbd3899b5	-0.04506846
204	0x3e403462	0.18769982
205	0x3dbee3a3	0.09320762
206	0xbd510540	-0.051030397
207	0xbdfaf25d	-0.122532584
208	0x3e8e7467	0.27823183
209	0x3e7b7765	0.24557264
210	0x3e9b53a1	0.3033724
211	0x3e48e247	0.19617568
212	0xbd16bd30	-0.036801517
213	0x3e70bc46	0.2350932
214	0x3e45819b	0.19287722
215	0xbea93f85	-0.33056274
216	0xbdb7c620	-0.08973336
217	0xbe90be72	-0.28270298
218	0x3e7bb1fa	0.24579611
219	0x3e8cfb10	0.27535295
220	0xbdf1f791	-0.11814798
221	0xbdef0a74	-0.11671916
222	0xbe5dccfe	-0.2166023
223	0x3e4af20f	0.198189
224	0xbe0d2f77	-0.13787638
225	0x3e8db102	0.2767411
226	0xbdde8294	-0.108647496
227	0x3ea7d422	0.32779032
228	0x3e297bab	0.16551082
229	0x3e7e2489	0.24818625
230	0xbe0a07fb	-0.13479607
231	0x3b7c3806	0.003848554
232	0xbe859f2a	-0.26097995
233	0xbe3aed3c	-0.1825456
234	0x3db35db1	0.087581046
235	0x3de18ecf	0.11013567
236	0x3c26255d	0.010140744
237	0x3dd3ec31	0.10347784
238	0xbd484fce	-0.048904233
239	0x3e280d0f	0.16411231
240	0x3d968df8	0.07351297
241	0xbe45f469	-0.19331516
242	0x3ddf6b2a	0.10909112
243	0xbe5d7e1a	-0.21630135
244	0xbe574154	-0.21021014
245	0x3dd544a7	0.10413485
246	0xbde61f1e	-0.11236404
247	0xbcda05e6	-0.02661414
248	0x3d9dbbe1	0.07701851
249	0x3e4b0d48	0.19829285
250	0x3d9b16a7	0.0757268
251	0xbe8c5538	-0.27408767
252	0xbe9d2d17	-0.30698463
253	0x3e8cedb2	0.27525097
254	0x3e9ec6a5	0.3101093
255	0x3e059aee	0.13047382

weight_hh_l0 f4 [40, 10]
0	0xbd5b3c5f	-0.05352437
1	0x3e1bb434	0.15205461
2	0x3dabf2f8	0.08395952
3	0xbd52a37c	-0.051425442
4	0xbe751945	-0.23935421
5	0x3e54192d	0.20712729
6	0x3cde3a6b	0.027127465
7	0xbe656039	-0.22399987
8	0xbe44eeb2	-0.1923168
9	0x3dc9a7f9	0.09846491
10	0x3c73d379	0.014881962
11	0x3e4f383e	0.20236298
12	0x3e86d43d	0.263338
13	0xbe0e0f6b	-0.13873069
14	0xbe8bbb43	-0.27291307
15	0xbd42fdc2	-0.047605284
16	0xbdc4a124	-0.09601048
17	0x3c844e0b	0.016150495
18	0xbe990fa2	-0.2989474
19	0x3eb29f9a	0.3488739
20	0x3d9a2df2	0.075282946
21	0xbe6f84c9	-0.23390497
22	0x3eb4881f	0.35260102
23	0x3df5707f	0.119843476
24	0xbe2856b4	-0.16439325
25	0x3e350e09	0.17681135
26	0xbeaf926e	-0.34291404
27	0x3d06e25b	0.032930713
28	0xbd03c4c6	-0.03217008
29	0xbdf02644	-0.117260486
30	0x3a75f618	0.0009382679
31	0xbea31699	-0.31853178
32	0x3dbf16af	0.093304984
33	0xbdd5addc	-0.10433552
34	0x3dc8a1c8	0.09796482
35	0x3df6a106	0.120424315
36	0xbe631767	-0.22176896
37	0x3e83a26e	0.25709862
38	0x3da3c163	0.0799587
39	0xbe42d40e	-0.19026205
40	0x3e2863ef	0.16444372
41	0x3e343062	0.17596582
42	0x3e6ade36	0.22936329
43	0xbc6d01a2	-0.014465721
44	0xbe900ca5	-0.28134647
45	0xbeb51c28	-0.35373044
46	0xbe3ded27	-0.18547498
47	0x3e96c623	0.2944804
48	0xbdd6799d	-0.10472415
49	0x3e525543	0.20540337
50	0x3e880b1b	0.26570973
51	0xbea325df	-0.3186483
52	0xbd423943	-0.04741789
53	0xbeb762d8	-0.358176
54	0xbd39b620	-0.045339704
55	0xbdadd30f	-0.08487522
56	0xbe873f77	-0.26415607
57	0x3ae69638	0.0017592376
58	0xbe95c545	-0.29252067
59	0xbdf6a98c	-0.12044057
60	0x3e53d2e0	0.20685911
61	0xbd2066e5	-0.039160628
62	0xbe2f4b91	-0.1711867
63	0xbdc33cc6	-0.09533076
64	0xbdde346b	-0.10849842
65	0xbebfe424	-0.37478745
66	0x3e095b5d	0.13413759
67	0xbe4118a8	-0.18857062
68	0x3e2a74f7	0.16646181
69	0xbe1f7218	-0.15570867
70	0xbd54df83	-0.05197097
71	0xbe868c2a	-0.26278812
72	0xbc8e7f49	-0.017394679
73	0x3e356642	0.1771479
74	0xbe0d7f71	-0.13818146
75	0xbe57c9d0	-0.21073079
76	0x3e3cff69	0.18456806
77	0x3de548c0	0.111955166
78	0x3e013de1	0.12621261
79	0xbe8c85c9	-0.2744582
80	0x3ddaf355	0.10690943
81	0xbe86adc5	-0.2630445
82	0xbd4ad5ce	-0.049520306
83	0x3ba47d28	0.0050198026
84	0x3c9a437f	0.018831013
85	0xbc98b25b	-0.018639734
86	0x3d478eee	0.048720293
87	0x3eb76368	0.35818028
88	0x3e1f8fe3	0.15582232
89	0xbb50be87	-0.0031851844
90	0x3e857bf3	0.26071128
91	0x3e109b0d	0.14121647
92	0x3e4939d9	0.19650973
93	0xbead7506	-0.33878344
94	0xbe47cf2b	-0.19512622
95	0xbe9e17cc	-0.3087753
96	0x3e00909f	0.12555169
97	0xbe7f6a5e	-0.2494292
98	0x3c779dd2	0.015113311
99	0x3ea9c97c	0.33161533
100	0xbe800390	-0.25002718
101	0x3d86a501	0.06574441
102	0xbd78eba6	-0.060771607
103	0x3d1b25e6	0.03787794
104	0xbda8b026	-0.08236723
105	0x3e0b1b20	0.13584566
106	0xbe342e67	-0.17595826
107	0xbd50d280	-0.050982
108	0x3d1e8a9e	0.038706414
109	0x3e3d0dbb	0.18462269
110	0xbec31435	-0.38101354
111	0x3e4fdff9	0.20300283
112	0x3d1e359f	0.038625356
113	0x3e2e83a1	0.170424
114	0x3e10318a	0.14081398
115	0xbd55d811	-0.05220801
116	0xbea5be4a	-0.32371742
117	0x3e3edd99	0.1863922
118	0x3e6644b0	0.2248714
119	0x3d063ae5	0.03277101
120	0xbd759717	-0.059958544
121	0x3d1a3092	0.037643977
122	0x3e83f2dd	0.25771227
123	0x3e2ac0de	0.16675135
124	0x3e6d7241	0.23188116
125	0xbd65f78f	-0.056144293
126	0xbeb11ed4	-0.34593832
127	0x3dce1c81	0.100640304
128	0xbc50623b	-0.0127187325
129	0x3e4768b2	0.19473532
130	0xbee0a2f1	-0.43874314
131	0xbddcbf38	-0.107786596
132	0x3d57238f	0.052524146
133	0x3e0cbe0c	0.13744372
134	0x3e2fb3b8	0.17158401
135	0xbdfed288	-0.124424994
136	0x3de7859d	0.113047816
137	0xbd33451f	-0.04376709
138	0xbb0f7df7	-0.002189515
139	0x3e92e973	0.28693733
140	0xbd81e99c	-0.063433856
141	0x3de81edf	0.11334013
142	0x3cddf394	0.027093686
143	0xbd797e70	-0.060911596
144	0xbddb9595	-0.1072189
145	0xbdad0362	-0.08447911
146	0x3e31ab68	0.17350543
147	0x3df92e43	0.12167027
148	0xbe4c3cc6	-0.19945058
149	0x3e09ef9b	0.13470308
150	0x3e0f2ff5	0.13983138
151	0xbe3e760f	-0.18599723
152	0x3d30b702	0.04314328
153	0x3d68425b	0.056703907
154	0xbe1eb2cd	-0.15497895
155	0x3e94bead	0.29051724
156	0xbe3f08e9	-0.18655743
157	0xbdd1710a	-0.102266386
158	0x3de9e4c4	0.11420587
159	0xbdc79376	-0.09744923
160	0x3e549fa8	0.20764029
161	0xbe4b32b0	-0.19843554
162	0x3e85eb18	0.26155925
163	0xbdbfb87d	-0.0936136
164	0x3e3d33ce	0.18476793
165	0xbe2cdc33	-0.16880874
166	0xbdb6fd30	-0.089350104
167	0xbe10c5d0	-0.1413796
168	0x3e84450c	0.2583393
169	0x3e589a5f	0.21152638
170	0xbda91f04	-0.08257869
171	0x3df62478	0.120186746
172	0x3e6b91d0	0.23004842
173	0x3deefa8e	0.11668883
174	0xbd8c4d9b	-0.068507396
175	0xbe19d3d3	-0.15022211
176	0x3e74b7af	0.23898195
177	0xbd8f3cf3	-0.06994047
178	0xbd938330	-0.072027564
179	0xbe1e165d	-0.15438218
180	0xbe8a3f40	-0.2700138
181	0x3d13bdff	0.036069866
182	0x3ea3e8f4	0.32013667
183	0xbeb6997a	-0.35663968
184	0xbd84986e	-0.06474386
185	0xbc9ad25f	-0.01889914
186	0x3e342593	0.17592458
187	0x3e991dae	0.29905456
188	0x3e57af95	0.21063073
189	0xbe39b1ac	-0.18134183
190	0xbd3eca9f	-0.046579953
191	0x3db98f52	0.09060539
192	0xbd80c5a3	-0.06287696
193	0xbc0c96d6	-0.008580884
194	0xbd9fa5da	-0.077953056
195	0x3b8903b0	0.004181348
196	0x3e6c65be	0.23085687
197	0x3e8749aa	0.2642339
198	0x3d15ed07	0.036603
199	0x3b95a503	0.00456679
200	0x3c53635f	0.01290211
201	0xbc8fdfd1	-0.017562779
202	0xbe42f38d	-0.1903822
203	0xbe813e42	-0.2524281
204	0xbc9d4b5d	-0.019200975
205	0xbe822d30	-0.254251
206	0x3eaf93b9	0.3429239
207	0x3e6872e2	0.22700074
208	0xbe4bf30a	-0.19916931
209	0x3e103adb	0.14084952
210	0xbdf30a6e	-0.11867224
211	0xbe5835c6	-0.21114263
212	0xbe3d6e6d	-0.18499155
213	0x3d307d7e	0.04308843
214	0xbd8a2154	-0.06744638
215	0xbe34cea6	-0.17656955
216	0x3debad65	0.11507682
217	0x3d4e7dc6	0.050412916
218	0x3e8319ed	0.25605717
219	0xbe58e6e9	-0.21181835
220	0x3e770ffa	0.24127188
221	0xbe870f28	-0.2637875
222	0xbe46b334	-0.19404298
223	0xbe72e243	-0.23719124
224	0xbde03f2c	-0.10949549
225	0x3e24e6b2	0.16103628
226	0x3e4fed24	0.20305306
227	0xbdc2c226	-0.09509687
228	0xbd9147be	-0.07093762
229	0x3e6e93ec	0.23298615
230	0xbd53d7f0	-0.051719606
231	0x3e5b7050	0.21429563
232	0x3e13181c	0.14364666
233	0x3e89b862	0.26898485
234	0x3e567ea7	0.20946752
235	0x3e88f742	0.26751143
236	0xbd379ae9	-0.04482547
237	0xbdf83b00	-0.12120628
238	0x3dcc1d02	0.0996647
239	0xbe027b40	-0.12742329
240	0x3e7560d1	0.23962714
241	0x3dbd5cb6	0.09246199
242	0x3e9187a5	0.284238
243	0x3e3158cb	0.17319028
244	0x3e86061e	0.26176542
245	0x3e845321	0.25844672
246	0xbe98b0e5	-0.2982246
247	0xbda65aba	-0.081227735
248	0x3e669f7d	0.22521777
249	0xbe7caeb2	-0.24676016
250	0x3e061d69	0.13097157
251	0x3d64d1bb	0.055864077
252	0x3aa838b7	0.0012834285
253	0x3e12666e	0.14296886
254	0x3def70fb	0.11691471
255	0x3db4ca56	0.08827655

bias_ih_l0 f4 [40]
0	0xbe3d7a35	-0.1850365
1	0x3e83c8d0	0.25739145
2	0x3e184edf	0.14873837
3	0xbd9500f3	-0.07275572
4	0xbdd15ec0	-0.1022315
5	0xbbc1a20b	-0.0059092096
6	0x3e5c992e	0.21542808
7	0xbeae71a5	-0.3407108
8	0x3ea1a446	0.31570643
9	0x3d6883f3	0.05676646
10	0xbd298a18	-0.041391462
11	0x3eae13af	0.33999392
12	0xbd250b96	-0.040294252
13	0x3e24e3c8	0.16102517
14	0x3e97a0e7	0.29614946
15	0xbe5e4837	-0.21707235
16	0xbdd77db3	-0.10522022
17	0xbc991011	-0.018684419
18	0x3e36fdee	0.17870304
19	0x3dee5c18	0.11638659
20	0xbe9f1237	-0.31068584
21	0x3d2ceba2	0.042216904
22	0xbab948df	-0.0014136097
23	0xbcd11f34	-0.025527574
24	0x3d1116ec	0.03542225
25	0xbd9bbb45	-0.07604078
26	0xbcd6bf1f	-0.02621418
27	0xbdba1519	-0.09086055
28	0x3d84a6c4	0.064771205
29	0xbe6de56e	-0.23232052
30	0x3e3b7c1f	0.18309067
31	0x3d7fb199	0.06242523
32	0xbdf74ed3	-0.120755814
33	0x3e29c40b	0.1657869
34	0xbdb56cd7	-0.0885865
35	0x3df5bcf5	0.11998931
36	0x3b2c7a5e	0.0026318054
37	0x3e54403a	0.20727625
38	0x3d455c53	0.04818375
39	0xbd9dcedc	-0.07705471

bias_hh_l0 f4 [40]
0	0x3e908361	0.28225234
1	0xbe43bc6b	-0.19114845
2	0xbe3f0542	-0.1865435
3	0xbe169042	-0.14703467
4	0x3e3f5124	0.18683296
5	0x3d4df379	0.05028102
6	0xbd9852e5	-0.07437686
7	0x3df8d860	0.12150645
8	0x3e07d470	0.13264632
9	0xbdf376a5	-0.11887864
10	0x3ebd98fa	0.37030774
11	0x3d5cd118	0.053910345
12	0x3e8ff8af	0.28119418
13	0xbcbb6b38	-0.022878274
14	0x3ccd0c0c	0.025030158
15	0xbe20fe60	-0.15722036
16	0x3dd374ab	0.10324987
17	0x3c3bc703	0.011461022
18	0x3e2b0944	0.16702753
19	0x3e90de44	0.28294575
20	0xbe939c8d	-0.28830376
21	0xbd41651a	-0.04721556
22	0x3e034422	0.1281896
23	0xbe479097	-0.1948875
24	0x3e8df3cd	0.27725068
25	0xbdcba3a5	-0.09943322
26	0xbe4bf991	-0.19919421
27	0xbb82c6da	-0.00399099
28	0x3d0a171b	0.03371344
29	0xbea075e9	-0.31339958
30	0x3d871456	0.06595676
31	0xbd7ed731	-0.06221694
32	0xbe107f99	-0.14111175
33	0x3e52f5c4	0.20601565
34	0x3ebd60a7	0.36987802
35	0x3e661b5e	0.22471377
36	0x3e4a25c9	0.19740976
37	0x3e813e8d	0.25243035
38	0x3e985b0d	0.29756966
39	0xbe653063	-0.2238174

weight_ih_l0 f4 [40, 22]
0	0xbc8e9cbc	-0.017408721
1	0xbe77e607	-0.24208842
2	0xbb9b5532	-0.0047403807
3	0xbd2e2ac5	-0.042521257
4	0x3d84407d	0.06457613
5	0xbd3fd7b1	-0.04683656
6	0x3be84343	0.0070880963
7	0xbc8e5659	-0.017375158
8	0xbd721ff6	-0.05911251
9	0x3ea17aef	0.31539103
10	0xbdbd26e4	-0.092359334
11	0x3d9f65ff	0.07783126
12	0xbd7f363d	-0.062307585
13	0x3e6745cc	0.22585219
14	0x3bcd9cfb	0.006274817
15	0x3ea19c02	0.31564337
16	0x3d6172c7	0.0550411
17	0x3e598436	0.2124184
18	0xbdb78ff5	-0.089630045
19	0x3dddc641	0.108288296
20	0xbdca5c6a	-0.09880908
21	0xbe53255c	-0.2061972
22	0x3e87b758	0.26507068
23	0x3eb8d976	0.3610341
24	0x3e68ceeb	0.22735183
25	0x3bc024b6	0.0058637513
26	0x3e20e158	0.15710962
27	0x3d4bd96c	0.049767897
28	0xbd857fc4	-0.0651851
29	0x3ce14eb0	0.027503341
30	0xbc9705e2	-0.018435422
31	0x3e802cd4	0.250342
32	0xbe5a4c95	-0.21318276
33	0x3e9e61af	0.30933902
34	0x3e11d745	0.14242275
35	0xbe6d4257	-0.23169838
36	0x3e19af2f	0.15008233
37	0x3de9ded4	0.11419454
38	0x3e297405	0.16548164
39	0xbd8d34c7	-0.06894832
40	0xbe7d6682	-0.24746135
41	0x3dd5089e	0.10402034
42	0xbdd0d722	-0.10197283
43	0xbda426d2	-0.08015217
44	0x3e526276	0.20545372
45	0x3e5ec982	0.21756557
46	0x3e85dfe5	0.2614738
47	0xbc978854	-0.018497624
48	0x3e69e959	0.22842921
49	0x3de01b8d	0.10942755
50	0xbe30a421	-0.1725011
51	0x3993d3aa	0.00028195727
52	0xbe3687fc	-0.17825311
53	0xbbfd3b0d	-0.0077279867
54	0xbe877ac2	-0.26460844
55	0xbc4f2f66	-0.012645578
56	0xbe8deb59	-0.2771862
57	0xbe2100e5	-0.15722997
58	0xbd704057	-0.05865511
59	0x3da238f1	0.07921017
60	0xbe15ec35	-0.14640887
61	0x3dd31a83	0.10307791
62	0x3e0868f8	0.13321292
63	0xbe6ecc52	-0.2332013
64	0x3d0441d8	0.032289356
65	0x3bfadba4	0.0076555777
66	0x3d91be68	0.07116395
67	0x3db03561	0.08603931
68	0xbe1bdc8a	-0.15220848
69	0x3e934539	0.2876375
70	0xbdc037ea	-0.09385665
71	0xbddfc4cf	-0.1092621
72	0xbe582b20	-0.21110201
73	0x3e1d193e	0.1534166
74	0x3e47d873	0.19516163
75	0x3db3b27b	0.08774277
76	0xbeba2f32	-0.36364132
77	0xbd01271a	-0.03153143
78	0xbe996747	-0.29961607
79	0x3e8cd077	0.27502796
80	0x3d1ad83b	0.03780387
81	0xbc9eaec5	-0.019370446
82	0xbd059392	-0.032611437
83	0x3d115e42	0.035490282
84	0xbe9b92f0	-0.30385542
85	0x3e225a64	0.15854794
86	0x3eb9b9ec	0.3627466
87	0x3ea1e519	0.316201
88	0xbea60487	-0.3242533
89	0xbe84aa3e	-0.25911134
90	0xb79e437b	-1.886649e-05
91	0xbd752727	-0.05985179
92	0xbcc319b4	-0.023815967
93	0x3e3d896f	0.18509458
94	0x3e67f5f8	0.22652423
95	0x3e1e41d1	0.15454794
96	0xbdc394d0	-0.09549868
97	0xbe4191b7	-0.18903242
98	0x3ddb4b85	0.107077636
99	0xbd3ffdda	-0.04687295
100	0x3cb548c4	0.022129424
101	0xbdffb009	-0.12484748
102	0x3e1669fa	0.14688864
103	0x3c884125	0.016632626
104	0xbea1e9ed	-0.31623784
105	0x3d6b14f6	0.057393037
106	0x3d1b73b1	0.03795213
107	0x3d4b8071	0.04968304
108	0x3da97e76	0.08276074
109	0xbe478fde	-0.19488475
110	0x3dd6daa1	0.10490919
111	0x3e0685af	0.13136934
112	0x3e27bc96	0.16380534
113	0x3cc0cbf1	0.023534747
114	0xbe6b924a	-0.23005024
115	0x3d825303	0.063634895
116	0xbe702e2f	-0.23455118
117	0xbc5a2adc	-0.0133158825
118	0xbe5277f3	-0.2055357
119	0x3d3733ed	0.044727255
120	0x3d960816	0.07325761
121	0x3e72279e	0.23647925
122	0xbd6a7a16	-0.057245336
123	0x3e31c0d8	0.1735872
124	0xbd24f283	-0.04027034
125	0xbe505d04	-0.20347983
126	0xbe5824bc	-0.21107763
127	0xbe8c4143	-0.2739354
128	0xbdb9fe3e	-0.09081696
129	0x3e129349	0.14313997
130	0xbdee6787	-0.1164084
131	0x3e5b94ba	0.21443453
132	0xbccfb962	-0.025356952
133	0xbe9d32f0	-0.30702925
134	0x3d3681fb	0.044557553
135	0xbc78f911	-0.015196101
136	0x3da0924d	0.07840405
137	0x3e3241d6	0.17407927
138	0x3dafa746	0.08576827
139	0xbe42dc6f	-0.19029401
140	0xbe1f73e7	-0.15571557
141	0x3cb617ca	0.02222814
142	0x3c8e4e9c	0.017371468
143	0x3d880028	0.06640655
144	0xbeacfe02	-0.33787543
145	0xbe0ccd24	-0.1375013
146	0x3d9430e0	0.07235885
147	0x3eb30d09	0.34970883
148	0x3df927ea	0.12165816
149	0xbdcd417f	-0.10022258
150	0x3e4ff184	0.20306975
151	0x3e56b52d	0.2096755
152	0x3e528858	0.20559824
153	0xbe398659	-0.18117656
154	0xbbd5b4d9	-0.006521803
155	0xbb2f2569	-0.002672518
156	0xbe678732	-0.22610167
157	0xba2cd8f3	-0.0006593607
158	0x3dc4d6b2	0.096112624
159	0x3e8a218e	0.26978725
160	0xbdf77db8	-0.12084526
161	0x3ceb2934	0.02870617
162	0xbe49fada	-0.19724599
163	0x3df48115	0.11938683
164	0xbc9bc844	-0.019016393
165	0xbe85b2be	-0.26112932
166	0xbe5ba96c	-0.21451348
167	0xbdfc7b4c	-0.123282045
168	0xbe98c433	-0.29837188
169	0xbe3b41aa	-0.18286768
170	0xbe06ef49	-0.13177218
171	0x3e203223	0.15644126
172	0xbe5ffa1e	-0.21872756
173	0x3d4ccdd8	0.050000995
174	0xbe62e06d	-0.22155924
175	0x3d75e475	0.060032327
176	0x3dad723a	0.084690526
177	0xbe86264d	-0.26201096
178	0xbe91cd2f	-0.28476855
179	0x3e8a7b64	0.27047265
180	0xbe86b3ed	-0.26309147
181	0xbe50cf70	-0.20391631
182	0xbe8312f8	-0.2560041
183	0xbe33c210	-0.17554498
184	0x3e9de2c3	0.30837068
185	0xbd9d07b5	-0.076674856
186	0x3e53412f	0.20630334
187	0x3eae09c3	0.33991823
188	0xbe8e51a4	-0.27796662
189	0x3e524e59	0.205377
190	0x3e24fd72	0.16112307
191	0x3e8f7e6b	0.28026137
192	0x3e5566de	0.20840022
193	0x3e930bf8	0.2872007
194	0xbdc4d87c	-0.096116036
195	0x3e2414da	0.16023579
196	0x3e917671	0.28410676
197	0x3e5df020	0.21673632
198	0xbdc00488	-0.09375864
199	0x3e354f5e	0.17706057
200	0x3d87cd5b	0.06630965
201	0xbe927c55	-0.28610483
202	0xbea5ce26	-0.3238384
203	0xbd4fe7c3	-0.050758135
204	0x3d07af30	0.033126056
205	0x3e1ffcd6	0.15623793
206	0xbe398bc3	-0.18119721
207	0x3dae3d9a	0.08507843
208	0x3e026809	0.12734999
209	0xbe2da468	-0.16957247
210	0x3e173a1e	0.14768264
211	0x3a5be8b8	0.0008388865
212	0xbd39612b	-0.045258682
213	0x3e8f417b	0.27979645
214	0xbd154d0d	-0.036450434
215	0x3e133ff8	0.14379871
216	0xbd9d1e31	-0.07671774
217	0xbe3398ff	-0.17538832
218	0x3d8ffdaa	0.070308045
219	0xbdc246eb	-0.09486183
220	0x3d619dd8	0.055082172
221	0x3bc2ad07	0.0059410366
222	0xbe998e7e	-0.29991525
223	0xbcde29fe	-0.027119633
224	0xbe8013e3	-0.25015172
225	0x3ea3dd0a	0.32004577
226	0x3e54d05a	0.20782605
227	0x3e62a6bb	0.22133915
228	0xbde56fdd	-0.11202977
229	0x3e87df37	0.26537487
230	0x3e8c6be0	0.27426052
231	0x3eaf9d16	0.34299535
232	0x3e61d2b2	0.2205303
233	0xbd9bb2b0	-0.07602441
234	0xbdc2d3fb	-0.09513088
235	0x3ded0f68	0.11575204
236	0xbea42993	-0.3206297
237	0x3d8c40e9	0.06848318
238	0x3e7bf513	0.24605207
239	0x3e944c6f	0.28964564
240	0x3ebcc2ff	0.3686752
241	0x3e412ff5	0.1886595
242	0x3d5800c6	0.052735113
243	0x3e11ea99	0.14249648
244	0xbddeec59	-0.108849235
245	0x3daf104a	0.08548029
246	0xbe72550e	-0.23665258
247	0x3c9a46eb	0.018832644
248	0xbe8ec724	-0.27886307
249	0xbdcbc045	-0.09948782
250	0x3d8e11af	0.06936967
251	0x3c9ecc4e	0.01938453
252	0xbe0d4f5d	-0.13799806
253	0x3deb42df	0.11487364
254	0x3e384dcc	0.17998427
255	0x3e548655	0.20754369

weight_hh_l0 f4 [40, 10]
0	0x3cce55d8	0.025187418
1	0xbd92abab	-0.07161649
2	0xbd973cb7	-0.07384627
3	0x3d4c026a	0.04980699
4	0x3da5615b	0.0807521
5	0xbd88505a	-0.06655951
6	0x3da2480c	0.07923898
7	0xbda1f6ab	-0.07908376
8	0xbea22797	-0.3167083
9	0xbe9331cc	-0.2874893
10	0x3ce1512d	0.027504528
11	0xbeb539ff	-0.3539581
12	0x3e98a8e4	0.29816353
13	0xbdb7fb47	-0.08983474
14	0xbe146632	-0.1449211
15	0xbe9c6ef7	-0.3055341
16	0xbe718629	-0.23586334
17	0xbc8407c5	-0.016116986
18	0x3d8b2441	0.06794024
19	0xbd9c23ed	-0.0762404
20	0x3ce2bd24	0.02767808
21	0x3e774c48	0.24150193
22	0xbd0b2467	-0.033970263
23	0x3e829cb3	0.25510177
24	0x3c3c5422	0.011494668
25	0xbe116ab3	-0.14200859
26	0xbe59c1b1	-0.21265294
27	0xbea114ba	-0.31461126
28	0xbe69cd22	-0.22832158
29	0x3d261b0a	0.04055313
30	0xbd22b387	-0.039721992
31	0x3e051582	0.12996486
32	0x3d63de30	0.055631816
33	0x3d137fb5	0.036010463
34	0x3e2fceca	0.17168728
35	0xbe3b788d	-0.18307705
36	0x3ea3d8d1	0.32001355
37	0x3e3cb0e6	0.18426856
38	0xbd226935	-0.039651114
39	0x3c776841	0.01510054
40	0x3e11e2bd	0.1424665
41	0xbdbb65ee	-0.09150301
42	0xbe806053	-0.2507349
43	0x3d80434b	0.06262835
44	0x3e535dd0	0.20641255
45	0xbecc4477	-0.39895985
46	0x3d5c9ad3	0.05385859
47	0xbe0782ea	-0.13233534
48	0xbe197381	-0.14985467
49	0x3d9d9d40	0.07696009
50	0xbdb4d96f	-0.08830535
51	0xbe45a0a1	-0.19299556
52	0xbbe6bdc3	-0.0070416643
53	0x3e24fd6c	0.16112298
54	0x3e8e6c8e	0.27817196
55	0xbe15e445	-0.14637859
56	0x3e76d0fd	0.2410316
57	0x3e242983	0.1603146
58	0x3dc1b33e	0.09458016
59	0x3e96c63d	0.2944812
60	0x3e92a985	0.28644958
61	0xbde68676	-0.11256115
62	0xbec20bf7	-0.37899753
63	0x3ecbb420	0.39785862
64	0xbdd9f35e	-0.10642122
65	0xbe221143	-0.15826897
66	0x3e478191	0.1948302
67	0xbe47af52	-0.19500473
68	0xbe849030	-0.25891256
69	0x3df21e76	0.11822216
70	0x3d317057	0.043320026
71	0xbd5fdcff	-0.054654118
72	0xbe2588a7	-0.1616541
73	0x3dff77b4	0.124740034
74	0x3d8a3f48	0.06750351
75	0xbeafb0e0	-0.34314632
76	0xbdacdbb9	-0.08440346
77	0x3d3ca14d	0.046052266
78	0x3d75f851	0.060051266
79	0x3e0b839e	0.13624427
80	0xbe2f83eb	-0.17140166
81	0xbdc5f86f	-0.096665256
82	0x3e26a153	0.16272478
83	0xbdd6215e	-0.10455583
84	0xbe8f0174	-0.27930796
85	0x3d88a5cf	0.066722505
86	0xbdd34987	-0.103167586
87	0x3a9ca81a	0.0011951954
88	0xbd59e47d	-0.05319642
89	0xbdb581f3	-0.088626765
90	0xbe6f19dc	-0.23349708
91	0x3cedd954	0.029034294
92	0xbe9be5d6	-0.30448788
93	0xbe8ed828	-0.2789929
94	0x3eb08f7a	0.34484464
95	0x3e8459c6	0.25849742
96	0x3e639bc6	0.22227392
97	0x3d43ee53	0.047834706
98	0xbe67fef4	-0.2265585
99	0xbac08f1c	-0.0014691087
100	0xbcc6e26c	-0.024277888
101	0xbeb652c9	-0.35610035
102	0xbd99559b	-0.07487031
103	0x3e60ee0a	0.21965805
104	0x3c8ddf63	0.017318433
105	0xbca4f7f2	-0.02013776
106	0xbdf6db3d	-0.12053535
107	0xbe0d9c31	-0.13829114
108	0xbeb33ef7	-0.35008976
109	0x3d571733	0.05251236
110	0xbdf87af5	-0.12132827
111	0xbea7e3ed	-0.3279108
112	0x3e84b121	0.2591639
113	0xbe2e6468	-0.1703049
114	0xbe85e599	-0.26151732
115	0xbcd191f7	-0.025582297
116	0x3e3b0d2e	0.18266746
117	0x3e76f080	0.24115181
118	0xbe121256	-0.14264807
119	0x3de9083f	0.11378526
120	0x3dcd6a10	0.100299954
121	0x3e168a16	0.14701113
122	0xbe7e7d2a	-0.24852434
123	0x3e447e60	0.19188833
124	0xbe87eca7	-0.2654774
125	0x3d2d04eb	0.04224102
126	0xbdacebff	-0.0844345
127	0xbea07a4b	-0.31343302
128	0xbe15147f	-0.145586
129	0x3d559541	0.052144293
130	0x3de0e6fb	0.10981556
131	0x3e2293e5	0.1587673
132	0xbdd02bd2	-0.10164608
133	0x3e68faaf	0.22751878
134	0xbe865d74	-0.26243174
135	0xbe8b4cd4	-0.27207053
136	0xbe2db993	-0.16965322
137	0x3e1f0a10	0.15531182
138	0x3d7613e9	0.06007758
139	0xbe928a82	-0.28621298
140	0x3e9a2bbd	0.30111495
141	0x3ddd7419	0.108131595
142	0xbddaf85e	-0.106919035
143	0x3ac566ae	0.0015060508
144	0x3da9384f	0.08262693
145	0x3e5dbf16	0.21654925
146	0x3e8a60b8	0.27026916
147	0xbe830f0b	-0.25597414
148	0x3d7ba883	0.061440002
149	0xbdc91a4a	-0.09819467
150	0xbe00ba59	-0.12571086
151	0x3e08cb69	0.13358845
152	0x3d97c016	0.07409684
153	0x3e9396a2	0.2882586
154	0xbe3f5efa	-0.18688574
155	0xbe488aab	-0.19584148
156	0x3d1b2da5	0.037885327
157	0x3e006b5a	0.12540951
158	0xbe95d6d2	-0.29265457
159	0xbd2507d2	-0.04029066
160	0x3e568ed3	0.2095292
161	0x3e314f9c	0.17315525
162	0xbea634c3	-0.3246213
163	0x3e6768cf	0.22598575
164	0x3e272a48	0.16324723
165	0xbd9d84ff	-0.076913826
166	0x3d27ee51	0.04099876
167	0xbecc30e6	-0.39881057
168	0x3dfd63e0	0.12372565
169	0x3cd20c06	0.025640499
170	0xbd191393	-0.037372183
171	0xbd010759	-0.031501148
172	0xbc425344	-0.011860672
173	0x3e3018c4	0.17196947
174	0xbd49c501	-0.049260143
175	0x3a389d62	0.0007042495
176	0xbe5b6a58	-0.21427286
177	0xbdf4ef2e	-0.119596824
178	0xbec2668c	-0.37968862
179	0x3e8764f9	0.26444224
180	0xbd9e54ca	-0.07731016
181	0x3dbabdbc	0.0911822
182	0xbda9dac3	-0.082936786
183	0xbe5246cd	-0.20534821
184	0x3dff4c3b	0.12465712
185	0x3cf1d1cb	0.029518982
186	0x3dc7bdc2	0.0975299
187	0x3e5d45e9	0.216087
188	0xbdfb9b0f	-0.122854345
189	0xbe0d2261	-0.13782646
190	0xbd976c8a	-0.07393749
191	0x3e359b1e	0.17734954
192	0xbd02d56a	-0.03194181
193	0x3e4763e4	0.19471699
194	0xbd89d03e	-0.06729172
195	0xbe1a99ed	-0.1509778
196	0x3b9dbb8b	0.0048136166
197	0xbe880b7d	-0.26571265
198	0x3e8dc799	0.27691343
199	0x3cabd80d	0.020977044
200	0xbe6a6fe6	-0.22894248
201	0xbe917760	-0.28411388
202	0xbeaeff38	-0.3417909
203	0xbc8fd1e4	-0.017556138
204	0xbd718f1e	-0.058974378
205	0x3dee7c38	0.116447866
206	0xbe596c52	-0.21232727
207	0x3e183e37	0.14867483
208	0xbe165825	-0.14682062
209	0x3b0df225	0.0021659222
210	0xbe9605b7	-0.29301235
211	0x3e8437d7	0.25823852
212	0xbbdefbaf	-0.0068049054
213	0xbe071d19	-0.13194694
214	0xbc8e5af4	-0.017377354
215	0xbe773111	-0.24139811
216	0xbd443b50	-0.047908127
217	0xbe1cc991	-0.15311266
218	0x3ebee260	0.37282085
219	0x3e4535a2	0.1925874
220	0xbdc76f11	-0.09737981
221	0x3e65f91a	0.22458306
222	0xbe4e3413	-0.20137052
223	0x3d8e1399	0.06937332
224	0x3ae06392	0.0017119518
225	0xbc5d5e54	-0.013511259
226	0x3e7c5520	0.24641848
227	0x3e985e63	0.2975951
228	0x3e35351a	0.17696038
229	0xbdbd3147	-0.092379145
230	0xbdc82371	-0.09772385
231	0x3ce95c7d	0.028486485
232	0xbd807141	-0.062716015
233	0x3dddc939	0.10829396
234	0x3e3803be	0.17970178
235	0xbd7a28e6	-0.06107416
236	0x3eacc8bc	0.33746898
237	0xbe4a6701	-0.19765855
238	0xbe911083	-0.2833291
239	0x3e5c56d1	0.21517493
240	0x3e22543b	0.15852444
241	0xbe29db40	-0.16587543
242	0xbe203aa2	-0.15647367
243	0x3e0fdb9b	0.14048617
244	0x3e68fd26	0.22752818
245	0xbd500e09	-0.050794635
246	0x3d626efe	0.05528163
247	0xbbbc0bfa	-0.0057387324
248	0x3e786393	0.24256735
249	0x3d573c62	0.05254782
250	0x3dc90b91	0.09816659
251	0x3e8ff8fa	0.28119642
252	0x3e51d3ff	0.20491026
253	0x3d007472	0.03136105
254	0xbe3e6c58	-0.18596017
255	0xbe60b01d	-0.21942182

bias_ih_l0 f4 [40]
0	0xbdcd738d	-0.10031805
1	0xbd4eb150	-0.050462067
2	0x3e352e34	0.17693406
3	0xbc15a24e	-0.009132935
4	0xbe3502fe	-0.17676923
5	0x3d7c799d	0.061639417
6	0xbcdd424e	-0.027009156
7	0xbe2ece62	-0.17070916
8	0x3e6a93da	0.22907963
9	0xbce2dcbf	-0.02769315
10	0x3eabf513	0.33585414
11	0xbe359e5a	-0.17736188
12	0x3e357bce	0.17723009
13	0x3d93f09a	0.072236255
14	0x3d6a2ffa	0.05717466
15	0x3de0da29	0.10979111
16	0xbe16bb95	-0.14719994
17	0x3ec6505c	0.38733184
18	0x3e411bfb	0.1885833
19	0xbe210e2d	-0.15728064
20	0x3ea95489	0.33072308
21	0x3e533fa0	0.2062974
22	0xbe1108f4	-0.14163572
23	0xbe14a5a5	-0.14516313
24	0x3eae1ab1	0.3400474
25	0xbea4e4f2	-0.3220592
26	0xbe6689a4	-0.22513443
27	0xbdbd014c	-0.09228763
28	0x3e84d620	0.25944614
29	0x3e5b1d2a	0.21397844
30	0xbd7b3757	-0.061332073
31	0xbe2b0cd6	-0.16704115
32	0x3dde5b47	0.108572535
33	0xbd581a05	-0.05275919
34	0xbe08a34d	-0.13343544
35	0x3e644ac4	0.22294146
36	0x3dedc851	0.11610473
37	0x3d873450	0.06601775
38	0xbe551772	-0.20809725
39	0x3c8f8094	0.017517366

bias_hh_l0 f4 [40]
0	0x3e4edda3	0.20201735
1	0x3e75c134	0.23999482
2	0xbe0b0524	-0.1357618
3	0x3eb51dfb	0.35374436
4	0x3de2af33	0.11068573
5	0xbe5e725d	-0.21723314
6	0xbdc14a60	-0.09438014
7	0x3d4772e2	0.048693545
8	0x3eb6a567	0.35673067
9	0x3e9fc81a	0.31207353
10	0x3e153d09	0.14574064
11	0x3d01116d	0.03151076
12	0x3e75f7d4	0.2402032
13	0x3e00d01e	0.1257939
14	0xbdf185b6	-0.117930815
15	0xbd97e24d	-0.0741621
16	0xbdccc89d	-0.099992014
17	0x3e9ac33f	0.30227086
18	0x3d066c8c	0.032818362
19	0xbe3193b1	-0.17341496
20	0xbe38b1c6	-0.18036565
21	0xbeac42c3	-0.33644685
22	0x3dfeca6f	0.12440955
23	0xbd8b75df	-0.068095915
24	0x3e929a51	0.2863336
25	0x3d5ac382	0.053409107
26	0xbd918a65	-0.07106475
27	0xbea5731f	-0.32314393
28	0x3bcf4c72	0.0063262517
29	0x3de91740	0.11381388
30	0xbe033788	-0.12814152
31	0x3eb8fc10	0.36129808
32	0xbe6a604d	-0.22888298
33	0x3db2792e	0.087145194
34	0x3e8e33b1	0.27773812
35	0xbd9ff625	-0.0781062
36	0xbe6f831d	-0.2338986
37	0xbe58d6a5	-0.2117563
38	0xbdd1291c	-0.10212919
39	0xbe8a39cc	-0.2699722
