LSTM/code/model/old_model/model_mk7_400epoch_0.0014trainloss_0.0043validloss.pt (torch, 46468 bytes, 32 tensors)

weight_ih_l0 f4 [40, 22]
-0.09423609 0.1351324 0.33683825 -0.29807904 -0.2985129 -0.06633228 0.33472195 -0.22941017
-0.4211548 -0.26624033 0.101236634 0.115852 -0.035276465 -0.23897596 -0.02903386 -0.19850668
0.09790569 0.22580406 0.09057877 0.07741386 0.3608742 -0.4016695 0.0022272617 -0.252461
-0.22773731 0.239491 0.22918825 0.08031796 -0.43640268 -0.18087044 -0.15081286 0.21328382
-0.17537943 -0.040015 -0.18400714 0.13510746 0.08461504 -0.044431448 -0.16822006 -0.09166526
-0.15357612 -0.22356774 0.19095626 0.2813779 0.04685374 -0.26756173 -0.23051977 0.19008374
0.16227485 -0.29165944 -0.33124623 -0.003450088 0.019993318 0.23196727 -0.2609576 -0.101634696
0.37351698 0.13675216 -0.29938474 0.044835944 0.49894965 -0.066574216 -0.40783802 -0.20121598
-0.09843744 0.36382225 -0.042681865 -0.28872246 0.24077286 0.16827898 -0.0780321 -0.2365726
0.04417678 -0.022599384 0.06435774 -0.16349079 -0.115713656 0.3264891 -0.04533329 0.24187438
0.28146434 0.20773658 0.07967664 -0.105090976 -0.069090106 0.0059374985 -0.09546679 0.17181933
0.16175035 -0.304818 -0.292895 0.2732136 0.17730537 -0.19795896 -0.04987562 -0.25354806
-0.14567466 -0.054320488 0.13274662 -0.08444195 0.1131436 -0.37376148 0.16589378 -0.09821342
-0.059771787 -0.37121528 -0.27459756 0.18446718 -0.0007256415 -0.14076434 -0.21008256 -0.18170376
0.1791994 0.19564149 -0.14279446 -0.31086898 -0.015286852 0.20979656 -0.06379776 -0.24876325
0.25719115 -0.13332324 -0.3456791 -0.14794022 0.11815039 0.04694081 -0.28295854 -0.26599887
-0.14803232 -0.16574426 0.2828605 -0.20177965 -0.16249897 -0.17641768 -0.026626475 0.07435998
0.22928035 -0.17320922 0.15854266 -0.22220676 0.00091141684 0.2583794 -0.21511546 0.15074982
0.32076213 -0.047418773 0.12045407 -0.25599864 0.044768028 -0.11685539 -0.07075709 0.16300955
-0.024244202 0.14734812 0.15363394 0.14626199 0.42205042 0.1741654 -0.20031618 -0.25240925
0.41152266 -0.00031158692 -0.27550527 0.038956005 -0.19928212 -0.13620518 -0.21528031 0.12666538
0.09342592 -0.075127594 -0.25715825 0.22394046 -0.0059584863 -0.060615283 -0.10183279 -0.23741521
-0.29433736 0.18162003 -0.28706068 0.1947202 0.13085778 -0.12505496 -0.018754255 -0.19290927
-0.17778823 -0.29426235 -0.3164001 -0.11241476 0.14740154 -0.23197284 -0.37415794 -0.09835805
-0.37161213 -0.41594145 0.12821145 -0.08928233 0.2731501 0.13796885 -0.30377486 -0.118250445
0.29625386 -0.08858619 -0.13350599 0.20620853 -0.0840498 -0.24570975 -0.2567707 0.08016757
0.18558553 0.1191453 0.12026493 -0.15872349 0.23670466 0.1615437 -0.26561293 -0.020190887
-0.27851465 0.103015795 0.30336517 0.19673617 -0.04360446 0.108159944 0.24338938 -0.23177059
-0.22030988 -0.30481884 -0.03134046 0.30287448 -0.25374293 -0.25879553 0.028895348 -0.26008964
-0.4616399 -0.26364666 0.15682773 0.20837069 0.08488695 -0.33865112 0.10265084 -0.15253076
0.26068035 0.033877738 -0.23854157 0.18564467 -0.2760705 -0.22659163 0.007924126 -0.19085392
0.04747266 0.2338266 0.18033317 -0.00012180338 -0.4094659 0.2502986 0.2862235 -0.071986645
00000000: dafe c0bd 2660 0a3e 1076 ac3e d19d 98be
00000010: afd6 98be 38d9 87bd ad60 ab3e 80ea 6abe
00000020: 9aa1 d7be a750 88be 2755 cf3d d043 ed3d
00000030: 0e7e 10bd 1db6 74be 6bd8 edbc 5645 4bbe
00000040: c782 c83d 2e39 673e 5d81 b93d 288b 9e3d
00000050: 81c4 b83e a0a7 cdbe 40f7 113b 9142 81be
00000060: f833 69be 213d 753e 53b0 6a3e be7d a43d
00000070: 2c70 dfbe 1a36 39be b06e 1abe 1367 5a3e
00000080: aa96 33be c5e6 23bd 5e6c 3cbe 9c59 0a3e
00000090: a64a ad3d c0fd 35bd e141 2cbe ffba bbbd
000000a0: 0f43 1dbe f1ee 64be 0a8a 433e c410 903e
000000b0: b5e9 3f3d dafd 88be 600d 6cbe 50a5 423e
000000c0: 612b 263e 6354 95be 1b99 a9be df1a 62bb
000000d0: 07c9 a33c d488 6d3e 3c9c 85be da25 d0bd
000000e0: 9e3d bf3e c208 0c3e f548 99be e5a5 373d
000000f0: 5476 ff3e 1058 88bd 25d0 d0be 900b 4ebe
00000100: 9299 c9bd e946 ba3e 2ed3 2ebd 6ed3 93be
00000110: 298d 763e 5351 2c3e 4bcf 9fbd 1640 72be
00000120: b6f2 343d 5822 b9bc fecd 833d 216a 27be
00000130: 48fb ecbd 9429 a73e 66af 39bd ebad 773e
00000140: 181c 903e e6b8 543e 822d a33d f039 d7bd
00000150: 1d7f 8dbd 598f c23b 1884 c3bd 68f1 2f3e
00000160: e2a1 253e 1b11 9cbe 55f6 95be a7e2 8b3e
00000170: 8a8f 353e c1b5 4abe 614a 4cbd 0dd1 81be
00000180: bd2b 15be 297f 5ebd bbee 073e e7ef acbd
00000190: d5b7 e73d aa5d bfbe 0fe0 293e 1e24 c9bd
000001a0: 43d3 74bd ee0f bebe 0d98 8cbe f7e4 3c3e
000001b0: fa38 3eba 8724 10be e21f 57be 8d10 3abe
000001c0: 0c80 373e 3e56 483e b638 12be 382a 9fbe
000001d0: b475 7abc e9d4 563e 66a8 82bd cbbb 7ebe
000001e0: 8fae 833e e385 08be dafc b0be a47d 17be
000001f0: d5f8 f13d 0245 403d f1df 90be 0131 88be
00000200: c995 17be ddb8 29be 17d3 903e 539f 4ebe
00000210: 2166 26be d6a6 34be c41f dabc 0c4a 983d
00000220: 78c8 6a3e c25d 31be 0259 223e 2b8a 63be
00000230: 26ec 6e3a 4e4a 843e 3a47 5cbe 295e 1a3e
00000240: ef3a a43e 303a 42bd a0b0 f63d 4112 83be
00000250: ae5e 373d e151 efbd 18e9 90bd faeb 263e
00000260: c79b c6bc 6de2 163e 3752 1d3e b4c5 153e
00000270: fe16 d83e 6a58 323e af1f 4dbe c93b 81be
00000280: 19b3 d23e 7d5c a3b9 070f 8dbe 5590 1f3d
00000290: 9d10 4cbe 5f79 0bbe 7172 5cbe 92b4 013e
000002a0: 1756 bf3d 7fdc 99bd 3faa 83be a650 653e
000002b0: 683f c3bb bb47 78bd b68d d0bd f91c 73be
000002c0: 63b3 96be 9afa 393e 9ef9 92be bb64 473e
000002d0: 95ff 053e 680e 00be 86a2 99bc 028a 45be
000002e0: 1e0e 36be 8ea9 96be 32ff a1be b639 e6bd
000002f0: 6ef0 163e 4a8a 6dbe a191 bfbe f26f c9bd
00000300: f243 bebe 47f6 d4be dd49 033e a7d9 b6bd
00000310: 54da 8b3e b547 0d3e 6188 9bbe 4a2d f2bd
00000320: 96ae 973e ad6c b5bd cbb5 08be 5428 533e
00000330: 4d22 acbd 569b 7bbe 7377 83be e52e a43d
00000340: 220a 3e3e 7302 f43d 764d f63d 6988 22be
00000350: b562 723e b66b 253e 6bfe 87be 5c67 a5bc
00000360: 7999 8ebe f2f9 d23d ae52 9b3e 3575 493e
00000370: 979a 32bd f682 dd3d 113b 793e 4555 6dbe
00000380: ea98 61be 3711 9cbe db5e 00bd 5d12 9b3e
00000390: 98ea 81be d980 84be f0b5 ec3c 782a 85be
000003a0: 115c ecbe b2fc 86be 7397 203e 205f 553e
000003b0: 36d9 ad3d ae63 adbe 9b3a d23d 0631 1cbe
000003c0: e577 853e 62c3 0a3d 3e44 74be a319 3e3e
000003d0: 1d59 8dbe a307 68be 32d4 013c 366f 43be
000003e0: b172 423d 3d70 6f3e 42a9 383e b170 ffb8
000003f0: 84a5 d1be 2327 803e e38b 923e bc6d 93bd

weight_hh_l0 f4 [40, 10]
0.15518387 -0.175983 -0.023381343 0.043809615 0.13802648 0.25141066 -0.13930392 0.05593961
-0.377403 -0.08566467 0.23938446 -0.010774845 0.13381688 -0.35093024 0.09608406 -0.17874648
-0.17867279 -0.17089088 0.2046942 0.07985876 -0.048448145 0.34564164 0.074400954 -0.15242794
0.04840481 -0.02776606 -0.06343234 -0.3026899 0.03152795 -0.055117186 -0.17707618 0.20948695
0.020153658 -0.24453388 -0.04271091 -0.2432463 0.2663293 0.21123816 -0.37775278 -0.0409578
0.0013299828 0.24795432 0.4389995 -0.22713995 0.018014453 -0.082861006 0.3327371 0.33780283
-0.11177415 0.22671387 -0.06896548 -0.10014534 0.029666461 0.25905004 -0.092239216 -0.12181595
0.27253386 -0.08132804 -0.09254259 -0.20879462 -0.081594266 0.34653103 0.09736914 0.16960508
-0.03217142 0.0048695244 0.075386256 0.08813142 0.05726843 -0.12361655 -0.069992095 0.13616432
-0.30853444 -0.017855667 -0.021348488 0.19360472 0.1322991 -0.11490831 -0.30690703 -0.3072542
-0.42067987 0.1300395 -0.08693221 -0.44368747 0.3911847 -0.46099424 0.4176083 0.5421548
0.36521813 -0.13428779 -0.26858693 -0.0912952 0.3385366 0.15266168 0.3237852 -0.005464062
0.27714282 0.30817047 0.20053841 -0.115802184 0.19707496 0.10903758 -0.16392815 -0.044064365
-0.08664479 0.0058216234 0.012606933 -0.07268064 -0.49163938 0.019522524 -0.027848102 0.21684006
-0.00532094 -0.15960233 0.00997049 -0.32779655 0.06337157 -0.07104231 0.2046369 0.3046735
-0.26831344 0.30608654 -0.056759562 -0.01783753 0.29597434 -0.30286852 -0.10807604 -0.027044592
-0.1302426 -0.022216465 0.056921553 0.28959575 0.07636836 0.18608618 0.22781879 0.25141647
0.33474237 -0.2315469 -0.43014702 0.10601712 0.05874564 -0.22048609 0.3584656 -0.2210551
0.2434356 -0.25950733 -0.016326724 -0.010694291 -0.25080588 0.17652488 -0.2903926 -0.21268041
-0.14298841 0.25683808 -0.036283232 0.2555575 -0.27224544 0.09467336 0.29592633 0.22354394
-0.14765026 0.30982324 0.19881976 -0.19068737 0.23248138 -0.29014784 -0.1875435 -0.07303283
0.18436293 -0.23917429 0.33886513 -0.28091004 -0.30353305 0.03918968 -0.16617203 0.171091
0.2727647 0.07831138 0.38703147 -0.08054204 -0.043189965 -0.33735043 0.41822582 -0.35057527
0.25927863 -0.33654702 0.03650381 0.1722739 -0.1893036 0.3026734 0.10350866 0.072200485
0.0040963995 0.22072689 0.01512259 0.07638651 -0.03597925 -0.07925951 -0.21326482 -0.25100043
0.22255476 0.23727873 -0.24573289 0.2532867 0.22400825 -0.0642616 0.32331693 -0.22718641
0.34165218 -0.24673204 0.25283515 0.11745919 0.27780163 0.0028419748 -0.31082526 0.3126153
-0.301829 0.19648196 -0.16503891 0.050703388 -0.14338657 -0.20584215 0.027359981 0.24974541
0.17178243 0.10317692 -0.16198163 -0.36005616 -0.14498988 -0.23777898 0.033893812 0.09424295
0.14082484 -0.17237476 -0.16394085 -0.098969236 0.016832033 -0.12785281 -0.11041436 -0.21366434
-0.2629898 0.12066743 0.10029832 0.09857039 0.30414316 -0.36289155 0.012173114 -0.1248845
0.20710017 0.27520618 0.23370074 0.27989146 -0.1419097 -0.18735088 0.12226653 0.07494102
00000000: 85e8 1e3e e334 34be 3b8a bfbc b671 333d
00000010: d056 0d3e e6b8 803e b0a5 0ebe ef20 653d
00000020: f73a c1be f570 afbd 3321 753e fa88 30bc
00000030: 4b07 093e 21ad b3be b8c7 c43d 5109 37be
00000040: 00f6 36be 05fe 2ebe 5b9b 513e fd8c a33d
00000050: 9071 46bd f1f7 b03e 875f 983d 1216 1cbe
00000060: 1f44 463d a675 e3bc d1e8 81bd 2cfa 9abe
00000070: 7423 013d 8fc2 61bd 7553 35be bf83 563e
00000080: 4919 a53c 1767 7abe a3f1 2ebd 8f15 79be
00000090: 505c 883e d14e 583e d068 c1be 5ec3 27bd
000000a0: d152 ae3a bde7 7d3e 8bc4 e03e 6097 68be
000000b0: 0c93 933c 08b3 a9bd 845c aa3e 7ef4 ac3e
000000c0: d8e9 e4bd ae27 683e c63d 8dbd 0019 cdbd
000000d0: 1407 f33c 35a2 843e eae7 bcbd a47a f9bd
000000e0: 8f89 8b3e 518f a6bd f886 bdbd 42ce 55be
000000f0: e51a a7bd 846c b13e 7969 c73d f4ac 2d3e
00000100: 2ec6 03bd 8890 9f3b 1c64 9a3d 3f7e b43d
00000110: 4d92 6a3d ac2a fdbd 0458 8fbd a96e 0b3e
00000120: 3af8 9dbe 0c46 92bc 06e3 aebc 5140 463e
00000130: 6a79 073e 0c55 ebbd eb22 9dbe 6c50 9dbe
00000140: 5a63 d7be 1329 053e 8409 b2bd 012b e3be
00000150: 5c49 c83e 7007 ecbe c1d0 d53e a8ca 0a3f
00000160: dffd ba3e bd82 09be 3a84 89be faf8 babd
00000170: ab54 ad3e 5853 1c3e 2cc7 a53e e00b b3bb
00000180: aae5 8d3e 85c8 9d3e f159 4d3e b229 edbd
00000190: 05ce 493e 184f df3d c8dc 27be d67c 34bd
000001a0: d372 b1bd 51c3 be3b 4f8d 4e3c 96d9 94bd
000001b0: 28b8 fbbe b3ed 9f3c b421 e4bc 520b 5e3e
000001c0: 485b aebb cb6e 23be 445b 233c f3d4 a7be
000001d0: f4c8 813d a17e 91bd 568c 513e 2afe 9b3e
000001e0: 6160 89be 60b7 9c3e b77c 68bd 0320 92bc
000001f0: f389 973e 9511 9bbe f956 ddbd 9f8c ddbc
00000200: 515e 05be 4eff b5bc 9326 693d e545 943e
00000210: 0467 9c3d 608d 3e3e 5449 693e a9b9 803e
00000220: 5a63 ab3e a11a 6dbe 3b3c dcbe 811f d93d
00000230: 459f 703d 1bc7 61be ce88 b73e 455c 62be
00000240: 2f47 793e 25de 84be 9fbf 85bc 1c37 2fbc
00000250: a169 80be f0c2 343e 57ae 94be e5c8 59be
00000260: 8e6b 12be 4880 833e ba9d 14bd 6fd8 823e
00000270: c163 8bbe 1be4 c13d a883 973e b4e8 643e
00000280: a131 17be 27a1 9e3e 6897 4b3e 8d43 43be
00000290: 990f 6e3e 428e 94be 670b 40be 3d92 95bd
000002a0: a3c9 3c3e 1bea 74be bb7f ad3e 71d3 8fbe
000002b0: af68 9bbe 5c85 203d 0029 2abe 7b32 2f3e
000002c0: d1a7 8b3e b861 a03d fd28 c63e 3af3 a4bd
000002d0: f6e7 30bd 32b9 acbe b221 d63e 9a7e b3be
000002e0: 2bc0 843e e44f acbe 0585 153d 9268 303e
000002f0: ced8 41be 02f8 9a3e 59fc d33d d9dd 933d
00000300: 173b 863b 3b06 623e bdc4 773c 8870 9c3d
00000310: fa5e 13bd cf52 a2bd 1862 5abe 2183 80be
00000320: 65e5 633e 32f9 723e 67a1 7bbe cbae 813e
00000330: 6b62 653e 969b 83bd cc89 a53e 8ea3 68be
00000340: 09ed ae3e 53a7 7cbe 9c73 813e 728e f03d
00000350: 043c 8e3e 6d40 3a3b 7d24 9fbe 1d0f a03e
00000360: 5589 9abe 9132 493e f6ff 28be 5bae 4f3d
00000370: eed3 12be 49c8 52be 0a22 e03c 43bd 7f3e
00000380: bce7 2f3e 6c4e d33d 83de 25be 4859 b8be
00000390: 3a78 14be 557c 73be 3dd4 0a3d 7302 c13d
000003a0: 6334 103e 0283 30be 1ce0 27be 62b0 cabd
000003b0: 55e3 893c d9eb 02be ed20 e2bd d3ca 5abe
000003c0: 99a6 86be 7c20 f73d 3569 cd3d 46df c93d
000003d0: a7b8 9b3e eccc b9be be71 473c 72c3 ffbd
000003e0: 1112 543e d3e7 8c3e 3f4f 6f3e ef4d 8f3e
000003f0: c750 11be e9d8 3fbe e066 fa3d ad7a 993d

bias_ih_l0 f4 [40]
0.23506062 0.13993677 0.28621697 -0.066981204 -0.11525938 -0.063631505 0.12701072 -0.069599025
0.18331324 -0.04483583 -0.03896946 0.19325633 -0.21414919 0.31322455 -0.067365326 0.15060921
-0.08705677 0.005157009 -0.18683176 -0.16083851 0.046026554 -0.04445896 0.023348935 -0.15819873
-0.2183128 -0.11349068 0.03770448 -0.06752289 0.2800534 -0.17252494 -0.1980602 0.25937128
0.08433378 -0.10636925 -0.1336287 0.059974734 -0.12578677 0.068549804 -0.076334804 -0.1397228
00000000: bbb3 703e 964b 0f3e 088b 923e 712d 89bd
00000010: 1c0d ecbd 3c51 82bd 190f 023e ef89 8ebd
00000020: 77b6 3b3e c6a5 37bd 719e 1fbd fde4 453e
00000030: ed49 5bbe f85e a03e d5f6 89bd 4d39 1a3e
00000040: d24a b2bd 21fc a83b d350 3fbe dab2 24be
00000050: 5786 3c3d 991a 36bd 4446 bf3c d9fe 21be
00000060: 648d 5fbe cd6d e8bd 0370 1a3d 7149 8abd
00000070: 2963 8f3e 61aa 30be 4bd0 4abe 50cc 843e
00000080: 30b7 ac3d 1fd8 d9bd f6d5 08be 11a8 753d
00000090: 3fce 00be d763 8c3d 6c55 9cbd 7e13 0fbe

bias_hh_l0 f4 [40]
0.10526277 -0.06335287 0.22902231 0.31403276 -0.14446647 -0.21928868 0.24018675 0.07762415
0.19723402 0.304997 -0.23125944 -0.15616186 0.0967384 0.33655694 0.32670015 0.08224798
0.021344548 -0.054134235 -0.09050009 0.34818473 0.22917077 0.26248097 0.22470945 -0.20282203
0.30307856 -0.29651064 0.38830668 -0.23679498 0.26596004 0.05693117 0.06904346 0.14752845
0.29588065 0.2322856 -0.22999746 0.09455329 0.058592565 0.04341655 0.024208633 0.047536954
00000000: 0294 d73d 26bf 81bd d384 6a3e e7c8 a03e
00000010: 05ef 13be 368d 60be 84f3 753e 69f9 9e3d
00000020: b7f7 493e 9128 9c3e 46cf 6cbe e5e8 1fbe
00000030: c81e c63d 3151 ac3e 3e45 a73e a171 a83d
00000040: c3da ae3c dcbb 5dbd 1c58 b9bd 4545 b23e
00000050: beab 6a3e e863 863e 3c1a 663e 94b0 4fbe
00000060: 1d2d 9b3e 3ed0 97be 22d0 c63e 627a 72be
00000070: ea2b 883e a930 693d a866 8d3d b311 173e
00000080: ab7d 973e 47dc 6d3e 7484 6bbe 28a5 c13d
00000090: c2fe 6f3d 8dd5 313d 2f51 c63c 1cb6 423d

weight_ih_l0 f4 [40, 22]
0.3094428 0.28627235 -0.26018113 -0.080123484 -0.22653164 -0.08755596 -0.13936207 0.13648842
-0.2697791 -0.04910527 -0.354679 -0.207929 -0.20606147 -0.26850408 -0.35216135 0.016680874
-0.15145576 0.11367824 0.2411008 -0.21207055 -0.07397245 -0.07636482 0.10644323 -0.05526085
-0.34680912 0.18632516 -0.16206676 -0.14599846 -0.3481993 0.13885684 0.12481631 0.3608378
0.2542674 0.09340549 -0.018888332 0.016953131 -0.035183378 0.30536616 -0.23093082 -0.030411279
-0.19933772 0.30961922 -0.0052525615 -0.050923653 0.05499784 -0.037775423 -0.17259188 -0.08021561
0.17364694 -0.17937484 0.20293689 0.01940726 0.03445468 -0.33166978 -0.036447253 0.22813903
-0.17820601 -0.22061205 -0.35828465 0.33304062 0.062996976 -0.27164125 -0.1288645 0.046058547
0.29248372 -0.024486912 -0.06026466 -0.32477254 0.11395746 0.2829289 0.2560362 -0.07584482
-0.21334149 0.1719374 0.06965298 -0.13218644 0.10296625 0.20897052 0.14355358 0.120124675
0.26416308 0.3725077 0.29173088 0.29374084 0.2437279 0.2926324 0.034915186 -0.04586532
-0.21834593 -0.035960305 -0.14973876 -0.077417046 0.021954458 0.08499259 -0.010049818 -0.19035552
-0.011997867 0.03909702 0.10391313 0.22145209 -0.2926376 -0.033375505 0.30784082 -0.039422885
0.39817485 -0.28721753 0.157049 -0.028629998 -0.15934151 -0.037864704 -0.24725789 0.3187598
-0.037247144 0.16513447 -0.15242743 0.16002472 -0.24668291 -0.23046468 0.047096957 0.3036437
-0.162425 0.004342035 -0.09414914 -0.022261485 0.20165813 -0.17957994 -0.03129101 0.19488466
-0.074434854 0.347835 -0.38821957 0.2643717 0.37783596 0.13059385 0.25016198 0.17547461
0.2614437 -0.0065199793 0.016560929 0.22293314 0.44699016 -0.33440444 0.10866313 0.042055223
0.023582235 0.06322358 -0.27095792 -0.2880117 -0.07708731 0.2222346 0.20163244 0.12547813
0.100935765 -0.21516076 -0.09038507 -0.18566568 0.015990837 -0.23217842 0.2677881 0.17200276
-0.23360437 -0.21823786 -0.22261795 0.048421293 -0.32091746 -0.09559623 -0.3546758 -0.31367874
-0.33405074 -0.23617916 -0.1227323 -0.10777973 -0.16408692 0.15279533 0.2677548 -0.04090386
0.34933063 -0.24106732 0.017164903 0.15181026 0.0764354 -0.051486887 -0.45125058 0.16497926
-0.14159988 -0.22384633 -0.16070044 0.21934779 -0.07444039 0.035356358 -0.3071093 0.3197077
0.22414188 0.004563648 0.11907581 0.28205022 0.3910905 0.29103068 0.029429184 0.12256138
-0.13686031 0.2946135 -0.17607607 0.2677198 -0.06085468 0.20752567 0.25071526 -0.012541047
-0.3164626 0.049778067 0.19993822 -0.29013568 0.012677408 -0.050065223 -0.33762228 -0.18629262
-0.1309929 0.12551497 0.24426751 -0.1578858 -0.092049204 -0.04386887 0.23752041 -0.33456936
-0.16101639 0.05964206 -0.15196982 -0.24103516 0.04763731 -0.0016635571 -0.042793445 0.24700513
0.34556964 0.29414493 -0.10647889 0.19233647 0.22710632 0.2861583 -0.10684547 0.04050868
-0.096376516 -0.057962704 -0.35429516 0.3533049 -0.39169055 0.020673374 -0.030102065 0.20773451
0.035988066 -0.0011758725 -0.2599945 0.015919968 -0.41837212 0.19054312 0.0815241 0.35635513
00000000: 496f 9e3e 4a92 923e 7636 85be c817 a4bd
00000010: e9f7 67be 8a50 b3bd eeb4 0ebe 9fc3 0b3e
00000020: 7c20 8abe 9c22 49bd 7c98 b5be 57eb 54be
00000030: c701 53be 5e79 89be 7e4e b4be 54a6 883c
00000040: 3817 1bbe 23d0 e83d 21e3 763e 0629 59be
00000050: de7e 97bd 2965 9cbd e8fe d93d 3359 62bd
00000060: f790 b1be 06cc 3e3e d4f4 25be 9f80 15be
00000070: 2e47 b2be 7d30 0e3e b29f ff3d bbbf b83e
00000080: 562f 823e 614b bf3d b4bb 9abc 4be1 8a3c
00000090: 721c 10bd f458 9c3e 2179 6cbe 1321 f9bc
000000a0: 301f 4cbe 6986 9e3e ae1d acbb 5295 50bd
000000b0: 6a45 613d 67ba 1abd edbb 30be 1548 a4bd
000000c0: 81d0 313e 0aae 37be b0ce 4f3e f9fb 9e3c
000000d0: 5a20 0d3d 9fd0 a9be b749 15bd 479d 693e
000000e0: a37b 36be 20e8 61be 1671 b7be 4d84 aa3e
000000f0: 8f04 813d 9014 8bbe 0ef5 03be e3a7 3c3d
00000100: 6dc0 953e c798 c8bc 13d8 76bd 9648 a6be
00000110: 8762 e93d 0fdc 903e 2d17 833e 8754 9bbd
00000120: 3176 5abe 5c10 303e 39a6 8e3d e25b 07be
00000130: f8df d23d 5efc 553e b6ff 123e ed03 f63d
00000140: 6240 873e 54b9 be3e c05d 953e 3365 963e
00000150: ce93 793e ead3 953e 3a03 0f3d 46dd 3bbd
00000160: 1396 5fbe 1d4b 13bd 1e55 19be d48c 9ebd
00000170: d6d9 b33c 9810 ae3d fea7 24bc 8fec 42be
00000180: b492 44bc 3224 203d 68d0 d43d 56c4 623e
00000190: 98d4 95be c1b4 08bd 509d 9d3e e479 21bd
000001a0: 93dd cb3e 2d0e 93be 74d1 203e 7589 eabc
000001b0: 6c2a 23be 0518 1bbd 2c31 7dbe 7c34 a33e
000001c0: 7690 18bd 0319 293e f015 1cbe 85dd 233e
000001d0: 729a 7cbe effe 6bbe bde8 403d 3077 9b3e
000001e0: bd52 26be a147 8e3b 44d1 c0bd b85d b6bc
000001f0: 787f 4e3e cee3 37be 012b 00bd d88f 473e
00000200: 4d71 98bd 6e17 b23e b7c4 c6be ba5b 873e
00000210: b773 c13e 65ba 053e 3b15 803e 9eaf 333e
00000220: f3db 853e 8da5 d5bb c9aa 873c 9648 643e
00000230: e5db e43e 0f37 abbe c68a de3d 1942 2c3d
00000240: 882f c13c 5d7b 813d ffba 8abe 4576 93be
00000250: f4df 9dbd 7891 633e bc78 4e3e 577d 003e
00000260: 69b7 ce3d 1a53 5cbe cf1b b9bd 251f 3ebe
00000270: 37ff 823c 2ec0 6dbe 861b 893e 7e21 303e
00000280: fc35 6fbe bf79 5fbe f6f5 63be 6855 463d
00000290: 4b4f a4be f5c7 c3bd 1198 b5be 809a a0be
000002a0: b308 abbe f3d8 71be 125b fbbd 9ebb dcbd
000002b0: 6706 28be 6176 1c3e 2817 893e ce8a 27bd
000002c0: 77db b23e 5ada 76be 699d 8c3c 2674 1b3e
000002d0: 2a8a 9c3d eae3 52bd 510a e7be 53f0 283e
000002e0: 8fff 10be f937 65be a88e 24be b59c 603e
000002f0: 3474 98bd d4d1 103d 6e3d 9dbe bab0 a33e
00000300: 7385 653e a78a 953b 05de f33d e368 903e
00000310: 043d c83e f901 953e 7915 f13c 7601 fb3d
00000320: 1c25 0cbe 95d7 963e 494d 34be 9212 893e
00000330: c242 79bd 9c81 543e c05d 803e f778 4dbc
00000340: 6307 a2be 16e4 4b3d 9bbc 4c3e aa8c 94be
00000350: e7b4 4f3c 3111 4dbd d4dc acbe 7ec3 3ebe
00000360: 0123 06be ff86 003e 4321 7a3e d1ac 21be
00000370: 4b84 bcbd d8af 33bd 8d38 733e ad4c abbe
00000380: 7be1 24be 3c4b 743d fa9d 1bbe ecd1 76be
00000390: 571f 433d b70b daba 2e48 2fbd eaee 7c3e
000003a0: 81ee b03e 2a9a 963e 9b11 dabd daf3 443e
000003b0: 8f8e 683e 5783 923e ccd1 dabd 6eec 253d
000003c0: 0d61 c5bd 4d6a 6dbd 2d66 b5be 61e4 b43e
000003d0: aa8b c8be 355b a93c 9b98 f6bc 5bb8 543e
000003e0: 3968 133d bc1f 9aba 001e 85be 986a 823c
000003f0: df34 d6be bc1d 433e 1bf6 a63d 2e74 b63e

weight_hh_l0 f4 [40, 10]
0.23327164 0.037865724 -0.26601365 -0.2819696 -0.026015459 0.20456046 -0.2738213 -0.03340117
0.2426704 -0.32498562 -0.31905067 -0.1555706 0.09535229 0.068830445 -0.20525587 -0.18858816
-0.20553982 0.043361392 -0.18448114 0.36239454 0.08213667 -0.33990473 -0.26561832 -0.21806653
-0.18083666 -0.21059592 0.08595763 0.14251556 -0.28474784 -0.16924337 0.1667044 -0.27117482
0.014347493 -0.2348535 -0.13754396 -0.05732419 0.48817313 0.30675206 -0.10864941 0.052410346
-0.2835676 0.2435387 0.20283113 -0.26626584 -0.03269159 -0.2948245 -0.00830031 -0.09105614
0.23920092 -0.009345101 -0.094795786 0.14130025 -0.09258264 -0.018612992 -0.08820993 -0.3845528
-0.31284058 -0.119193286 0.33823964 0.16275793 -0.20133638 0.06885427 -0.043231145 -0.32518637
-0.19163671 0.34681442 0.051793966 -0.15946902 -0.051339135 -0.013473047 0.16948076 -0.15548141
0.18778832 0.09434212 -0.22613554 -0.24334224 0.25724897 -0.12083652 0.017178467 0.11167834
-0.05121483 -0.44946975 -0.0069591114 -0.17586727 -0.027488181 -0.0056156423 -0.5338909 0.41770476
-0.12765788 0.23224227 0.1477709 0.12765586 0.013724999 0.14898232 -0.06702245 -0.2208614
-0.123059615 -0.025491036 -0.09629542 0.05937032 0.19374904 -0.025555389 0.12007785 0.27460492
-0.037873283 -0.11046615 -0.15814938 -0.03645678 0.15721399 0.058281094 0.15979943 -0.099296466
0.0052694296 0.24243483 -0.10876716 -0.22706176 0.09670496 -0.023616802 -0.27424347 0.1616079
-0.15682693 0.06274666 0.10809853 0.15661584 -0.35755405 -0.30804297 -0.11225707 0.16757491
-0.14881513 -0.009054487 0.1596955 0.32305142 -0.10342745 -0.062484205 -0.011994036 0.28384414
0.135654 0.32834166 0.2801227 0.3064754 0.22869101 0.07838956 -0.14325178 0.18115307
0.029554024 -0.043421578 -0.045962553 0.15755954 -0.3442949 0.29886642 -0.3099286 -0.15844022
-0.37085193 -0.29774833 -0.19080663 -0.17235678 0.15537868 0.21766798 -0.054265376 0.17644219
0.06005545 -0.1323015 -0.24889822 -0.054806378 -0.25349987 -0.071610086 -0.12860988 0.26532647
-0.2507602 0.18423317 -0.3505986 0.1569319 -0.2697419 -0.007203901 0.044929896 -0.41446185
-0.216313 -0.19321254 0.09563343 -0.069102585 -0.087115295 -0.30245733 -0.2958697 -0.29992703
-0.15697062 0.15583935 -0.3469331 0.33840564 -0.093923785 0.34218627 0.0031695508 -0.33029082
-0.16704951 0.30027947 -0.26528522 -0.09144288 0.21619016 0.075478144 0.017888557 -0.02185553
-0.30334058 0.3092179 0.08234976 -0.02576609 0.27511114 0.122355185 0.17716332 0.007899399
-0.03594911 -0.040038217 -0.22820722 -0.073341265 -0.1932805 0.11349357 0.2508683 0.030179836
0.21529725 0.26101547 0.12419491 0.18051533 0.030950572 0.2951706 -0.23174553 -0.10880144
-0.19124085 -0.15328608 -0.07562394 -0.11824817 -0.24313892 0.07721612 -0.20141564 -0.23097512
0.15369357 -0.019645382 0.2511601 -0.299143 0.2729898 -0.20480469 0.2604968 0.3475521
0.28652313 -0.018460594 -0.065489694 -0.19330223 -0.2567823 0.11587648 0.07490639 0.031465203
0.02456825 0.25761193 0.20525226 -0.043834582 0.33632657 -0.03999474 0.31131464 -0.057782263
00000000: c3de 6e3e 1719 1b3d f132 88be 525e 90be
00000010: 5f1e d5bc 4c78 513e 4e32 8cbe aacf 08bd
00000020: 977e 783e 8464 a6be 9c5a a3be e64d 1fbe
00000030: 1048 c33d faf6 8c3d 982e 52be 411d 41be
00000040: 0879 52be b79b 313d a0e8 3cbe c78b b93e
00000050: 4537 a83d fe07 aebe 20ff 87be d54c 5fbe
00000060: 3f2d 39be 75a6 57be 8e0a b03d 99ef 113e
00000070: 78ca 91be 224e 2dbe 8fb4 2a3e 6dd7 8abe
00000080: bf11 6b3c 707d 70be 53d8 0cbe c5cc 6abd
00000090: d4f1 f93e 9b0e 9d3e 9583 debd 3bac 563d
000000a0: c62f 91be 3562 793e f7b2 4f3e ff53 88be
000000b0: 9ee7 05bd 3df3 96be 06fe 07bc a47b babd
000000c0: 16f1 743e 321c 19bc 4b24 c2bd 03b1 103e
000000d0: f89b bdbd 467a 98bc 68a7 b4bd 1be4 c4be
000000e0: a42c a0be 9c1b f4bd bf2d ad3e 04aa 263e
000000f0: 202b 4ebe 7803 8d3d 2413 31bd d47e a6be
00000100: 6a3c 44be a991 b13e e925 543d d94b 23be
00000110: fc48 52bd 0ebe 5cbc 5d8c 2d3e 8536 1fbe
00000120: 954b 403e 7136 c13d 1390 67be b52e 79be
00000130: 23b6 833e 2379 f7bd dbb9 8c3c 9db7 e43d
00000140: a4c6 51bd e620 e6be 4209 e4bb 8d16 34be
00000150: e52e e1bc 6c03 b8bb 13ad 08bf 66dd d53e
00000160: bfb8 02be ebd0 6d3e 4151 173e 38b8 023e
00000170: d1de 603c d28e 183e 1143 89bd 7e29 62be
00000180: ae06 fcbd 94d2 d0bc 8836 c5bd 4b2e 733d
00000190: 2666 463e 8959 d1bc 60eb f53d 0499 8c3e
000001a0: 0421 1bbd 143c e2bd e9f1 21be b453 15bd
000001b0: b4fc 203e 28b8 6e3d 76a2 233e f25b cbbd
000001c0: 2eab ac3b d640 783e 51c1 debd e182 68be
000001d0: 400d c63d 0678 c1bc a469 8cbe 8b7c 253e
000001e0: 3d97 20be 5281 803d c362 dd3d e75f 203e
000001f0: 5311 b7be cfb7 9dbe 09e7 e5bd c298 2b3e
00000200: fe62 18be 4559 14bc 3887 233e ff66 a53e
00000210: c5d1 d3bd 70ef 7fbd a282 44bc 0554 913e
00000220: e2e8 0a3e 661c a83e 3e6c 8f3e 58ea 9c3e
00000230: fa2d 6a3e b58a a03d 98b0 12be 3180 393e
00000240: 481b f23c d3da 31bd 3b43 3cbd 4a57 213e
00000250: 6c47 b0be 0505 993e f6ae 9ebe 273e 22be
00000260: 4ee0 bdbe 7872 98be d062 43be 4c7e 30be
00000270: 971b 1f3e 5be4 5e3e 5f45 5ebd 43ad 343e
00000280: b4fc 753d 0b7a 07be 2ddf 7ebe a77c 60bd
00000290: bcca 81be 4fa8 92bd 4fb2 03be dfd8 873e
000002a0: a463 80be 9fa7 3c3e a981 b3be c2b2 203e
000002b0: 9c1b 8abe b40e ecbb 6908 383d 5834 d4be
000002c0: 2881 5dbe 82d9 45be 76db c33d a885 8dbd
000002d0: 8169 b2bd b0db 9abe 3c7c 97be 0990 99be
000002e0: e8bc 20be 5a94 1f3e 37a1 b1be 8143 ad3e
000002f0: 1d5b c0bd 0a33 af3e 3db8 4f3b e11b a9be
00000300: 070f 2bbe 3bbe 993e 77d3 87be 6846 bbbd
00000310: f460 5d3e 4994 9a3d 068b 923c 5e0a b3bc
00000320: 754f 9bbe cf51 9e3e fea6 a83d 6813 d3bc
00000330: 5edb 8c3e 5b95 fa3d 4d6a 353e 7b6c 013c
00000340: 603f 13bd 1dff 23bd 27af 69be f233 96bd
00000350: 53eb 45be 516f e83d cf71 803e b43b f73c
00000360: e276 5c3e d2a3 853e e759 fe3d 03d9 383e
00000370: 0e8c fd3c 9a20 973e b34e 6dbe 4ad3 debd
00000380: a4d4 43be 07f7 1cbe b9e0 9abd 192c f2bd
00000390: 69f9 78be 7c23 9e3d e73f 4ebe be84 6cbe
000003a0: d961 1d3e 5aef a0bc 0e98 803e 4529 99be
000003b0: 52c5 8b3e 52b8 51be d65f 853e 59f2 b13e
000003c0: 29b3 923e ac3a 97bc 761f 86bd 05f1 45be
000003d0: f878 83be a650 ed3d 8568 993d a8e1 003d
000003e0: 5b43 c93c b6e5 833e a62d 523e e48b 33bd
000003f0: ff32 ac3e 86d1 23bd a264 9f3e 18ad 6cbd

bias_ih_l0 f4 [40]
-0.22817864 -0.14855035 0.06502977 0.0019849155 0.24125487 0.13739543 -0.26603255 0.10340576
0.21740034 0.04652772 0.020500567 0.27890605 -0.023858048 0.14278255 0.20825833 0.21594049
0.013313519 0.06510473 -0.13660851 0.24888983 0.1084644 -0.3223283 0.08541532 0.017245963
-0.18838863 -0.27350113 0.12247627 0.21171129 0.23630288 0.17372534 -0.05249665 0.34246242
-0.19255799 -0.11655218 -0.09345024 -0.05704183 0.21088897 -0.000680458 -0.05668378 0.44581014
00000000: a9a7 69be 951d 18be 542e 853d 5b15 023b
00000010: 840b 773e 63b1 0c3e 6b35 88be 66c6 d33d
00000020: 329e 5e3e da93 3e3d cef0 a73c c6cc 8e3e
00000030: f471 c3bc 9735 123e ac41 553e 811f 5d3e
00000040: f220 5a3c a155 853d 1ae3 0bbe fadc 7e3e
00000050: 9522 de3d 3708 a5be 3aee ae3d 6847 8d3c
00000060: f3e8 40be 5708 8cbe d7d4 fa3d d8ca 583e
00000070: 62f9 713e 0ee5 313e ba06 57bd 3c57 af3e
00000080: ec2d 45be e9b2 eebd d762 bfbd b2a4 69bd
00000090: 47f3 573e c360 32ba 402d 68bd 3a41 e43e

bias_hh_l0 f4 [40]
-0.07368926 0.2330928 0.11570502 -0.0463536 -0.17460422 0.067714386 -0.0734185 0.16828686
0.10802709 0.22392677 0.22088426 0.32644472 0.059128202 -0.13367699 0.25857648 0.37372258
-0.06860193 0.045689687 -0.12223418 0.24295485 0.16670768 -0.14610745 -0.251547 -0.21663034
-0.1282749 -0.091317594 0.09830585 0.29430354 0.13445261 0.16651666 0.24398021 -0.15853415
0.17238678 -0.09044178 -0.1765773 0.28361842 -0.1439214 0.26578796 0.066647366 0.26193684
00000000: 65ea 96bd e1af 6e3e c1f6 ec3d 46dd 3dbd
00000010: 73cb 32be d7ad 8a3d 705c 96bd 6453 2c3e
00000020: 4f3d dd3d 0f4d 653e 7c2f 623e c323 a73e
00000030: 6a30 723d 9fe2 08be 2364 843e 9158 bf3e
00000040: 2b7f 8cbd 1c25 3b3d ea55 fabd 28c9 783e
00000050: 6bb5 2a3e 319d 15be c5ca 80be 58d4 5dbe
00000060: 7f5a 03be b804 bbbd 9454 c93d f4ae 963e
00000070: f2ad 093e 5883 2a3e f3d5 793e c756 22be
00000080: 2986 303e 8a39 b9bd aed0 34be 6f36 913e
00000090: 2260 13be 5c15 883e 6a7e 883d 961c 863e

weight_ih_l0 f4 [40, 22]
0.18712585 0.1552728 0.118969746 -0.30309832 0.15667404 -0.31410214 -0.061255332 0.23850812
-0.012476012 -0.044059236 -0.026954234 -0.18412076 -0.24253382 0.24301851 0.08943394 0.1871721
0.30067554 -0.26921082 -0.28137654 0.17075099 0.14498182 -0.36443967 0.25028524 0.14080815
0.104742095 -0.15859291 0.21493351 0.22939938 -0.061392892 -0.008943907 -0.17816019 -0.16193298
-0.18075652 -0.20922695 -0.38030082 0.0905846 -0.23732309 -0.27749577 -0.24262063 -0.08244444
0.12688525 -0.40467325 0.17207782 -0.0040196953 -0.30800015 0.37090635 0.25030798 0.019100787
0.16777289 0.23164478 -0.10223829 0.20892853 -0.15401922 0.35852998 -0.3279444 -0.16520384
0.13932142 0.31064975 -0.3920547 -0.027510395 0.4837657 -0.21050417 -0.20637353 0.16796046
0.18005484 0.001096133 0.14999487 -0.5019989 -0.24192755 0.011076846 -0.30880323 -0.26603422
-0.30338567 0.1357004 -0.04046807 0.12514254 -0.10715717 -0.091142155 0.119732715 0.05943629
-0.22051813 0.14773744 -0.17938846 -0.25341675 -0.04279876 0.5075462 0.1235757 0.25693858
0.014019569 0.0020866925 0.29665157 0.12006531 -0.15366185 -0.21637502 -0.23014052 0.08300154
-0.0348487 0.3480782 -0.031264294 0.16489404 0.2642301 -0.30548787 -0.052552518 -0.24719857
0.18277566 0.2088405 -0.18175635 -0.106184505 0.23755747 0.27644643 0.04173991 -0.3175334
0.10464977 -0.15387812 0.11388084 -0.1149958 -0.20042856 -0.008824687 0.13705328 -0.2552102
-0.28674304 0.20344065 0.13396288 -0.11703001 -0.11874597 -0.07019772 0.021242766 -0.091341384
0.16487089 0.30780083 0.2962066 0.36089718 -0.25307816 0.066919275 -0.2554163 0.02424347
0.08008534 -0.27506483 -0.11564154 -0.019439466 0.21911758 0.21538669 -0.30624425 -0.068377964
0.31946182 0.34029356 -0.21153685 -0.31669953 0.14148507 0.4550883 0.025912995 0.26917803
-0.14260328 -0.20208415 -0.1346372 -0.028073158 -0.22178216 0.3923094 0.14516096 -0.20448178
-0.31566384 -0.026850525 0.26680654 0.033649825 -0.27327684 0.0140715195 0.007820191 0.036592185
0.13324516 -0.015529752 -0.043890916 -0.008895353 -0.01586048 0.2842941 0.07683646 -0.07486697
-0.037885856 -0.2861913 -0.3568771 0.35240534 0.24109362 -0.16705814 0.017104689 -0.16193087
-0.030075742 0.072205804 0.15352125 0.19575773 -0.028747953 -0.27440956 0.2140929 -0.11769921
0.1742902 -0.24350846 -0.1225498 0.3014142 0.12312774 0.04859035 0.22683117 -0.019853955
-0.22617735 0.21270585 0.092869826 0.020321447 -0.04253972 0.37259638 0.32536057 -0.0025460382
-0.24044485 -0.015098055 -0.4839025 -0.020767415 0.17713824 0.11769359 -0.12026099 -0.20111713
-0.30324247 0.0016640369 -0.1152121 0.22479795 0.1545491 -0.32157025 -0.06948226 0.11832038
-0.23202635 -0.07208586 0.10671197 -0.08446443 0.051311474 -0.12205384 -0.094470985 -0.21673606
-0.11204807 -0.21303019 0.019980812 -0.088563666 -0.09463391 -0.4492431 0.0902665 -0.078641534
0.12274146 -0.21365009 0.15700237 -0.18885519 -0.37147436 0.05573292 -0.31299773 0.021237925
0.006946117 0.31792647 0.057759963 0.25949454 -0.50521433 -0.022859449 -0.10712174 -0.23154609
00000000: eb9d 3f3e d5ff 1e3e 69a6 f33d b42f 9bbe
00000010: 296f 203e ffd1 a0be dfe6 7abd 793b 743e
00000020: 3068 4cbc 7577 34bd 20cf dcbc 278a 3cbe
00000030: c95a 78be d8d9 783e 2429 b73d 0baa 3f3e
00000040: 25f2 993e 00d6 89be 9610 90be 59d9 2e3e
00000050: 1d76 143e d697 babe 6325 803e 0330 103e
00000060: 0683 d63d 2e66 22be 8817 5c3e ace7 6a3e
00000070: 1d77 7bbd 7789 12bc a06f 36be c2d1 25be
00000080: 3d18 39be 973f 56be cab6 c2be 6b84 b93d
00000090: d304 73be ed13 8ebe 8b71 78be a1d8 a8bd
000000a0: 35ee 013e 5531 cfbe 2b35 303e a6b7 83bb
000000b0: 32b2 9dbe 70e7 bd3e 5e28 803e 4179 9c3c
000000c0: a8cc 2b3e 4a34 6d3e 4f62 d1bd 5cf1 553e
000000d0: 37b7 1dbe 3e91 b73e 54e8 a7be 322b 29be
000000e0: 46aa 0e3e 7c0d 9f3e 65bb c8be 7b5d e1bc
000000f0: 23b0 f73e 688e 57be 9553 53be d4fd 2b3e
00000100: 4c60 383e 1fac 8f3a 4198 193e 0083 00bf
00000110: dbbb 77be a97b 353c 751b 9ebe a335 88be
00000120: 5e55 9bbe 0cf5 0a3e d9c1 25bd 5e25 003e
00000130: 3875 dbbd bda8 babd 6d36 f53d 7873 733d
00000140: 81cf 61be 7c48 173e 9cb1 37be d7bf 81be
00000150: c14d 2fbd 8cee 013f 4215 fd3d 748d 833e
00000160: 56b2 653c e4c0 083b b7e2 973e cde4 f53d
00000170: 8859 1dbe 6a91 5dbe f5a9 6bbe b6fc a93d
00000180: 83bd 0ebd 4e37 b23e fd0e 00bd fcd9 283e
00000190: 2b49 873e e868 9cbe 4f41 57bd 9f21 7dbe
000001a0: 8b29 3b3e 49da 553e 561e 3abe 4377 d9bd
000001b0: 4442 733e 638a 8d3e 78f7 2a3d bd93 a2be
000001c0: 9e52 d63d 3a92 1dbe 5c3a e93d eb82 ebbd
000001d0: 253d 4dbe 6c95 10bc b257 0c3e e9aa 82be
000001e0: fccf 92be bf52 503e 912d 093e 6ead efbd
000001f0: 1631 f3bd d2c3 8fbd 4f05 ae3c 3111 bbbd
00000200: ead3 283e 1298 9d3e 64a8 973e 84c7 b83e
00000210: 7693 81be f90c 893d edc5 82be 3e9a c63c
00000220: c803 a43d 4cd5 8cbe 79d5 ecbd 843f 9fbc
00000230: 5c60 603e 548e 5c3e 0ccc 9cbe bf09 8cbd
00000240: 8090 a33e f53a ae3e 1e9d 58be 7126 a2be
00000250: 76e1 103e 5501 e93e 7d47 d43c b4d1 893e
00000260: 9806 12be 26ef 4ebe 56de 09be aef9 e5bc
00000270: dd1a 63be c7dc c83e 13a5 143e ac63 51be
00000280: b19e a1be a2f5 dbbc de9a 883e 66d4 093d
00000290: f1ea 8bbe 3b8c 663c 4220 003c b0e1 153d
000002a0: 6b71 083e 8070 7ebc f6c6 33bd d1bd 11bc
000002b0: d6ed 81bc ff8e 913e 6f5c 9d3d db53 99bd
000002c0: 332e 1bbd ab87 92be 98b8 b6be 796e b43e
000002d0: 3fe1 763e 4a11 2bbe 221f 8c3c 35d1 25be
000002e0: 6761 f6bc a3e0 933d ad34 1d3e b774 483e
000002f0: d480 ebbc 697f 8cbe 2b3b 5b3e 490c f1bd
00000300: 2179 323e 485a 79be 64fb fabd f652 9a3e
00000310: 662a fc3d ad06 473d 6e46 683e c3a4 a2bc
00000320: 099b 67be 90cf 593e 8932 be3d 2a79 a63c
00000330: 213e 2ebd f4c4 be3e a995 a63e 6fdb 26bb
00000340: 2d37 76be d55d 77bc 12c2 f7be 6d20 aabc
00000350: ba63 353e 5609 f13d 654b f6bd a6f1 4dbe
00000360: 9942 9bbe d01b da3a 52f4 ebbd 6f31 663e
00000370: 1f42 1e3e dba4 a4be b74c 8ebd f551 f23d
00000380: 5198 6dbe c0a1 93bd ce8b da3d b0fb acbd
00000390: fb2b 523d 5df7 f9bd 017a c1bd 0ff0 5dbe
000003a0: 7579 e5bd 9624 5abe cdae a33c de60 b5bd
000003b0: 6ccf c1bd 3103 e6be a5dd b83d d00e a1bd
000003c0: e05f fb3d 17c7 5abe 3bc5 203e 4163 41be
000003d0: e331 bebe 3448 643d 3d41 a0be 28fb ad3c
000003e0: 419c e33b 42c7 a23e b695 6c3d 78dc 843e
000003f0: ba55 01bf bd43 bbbc a562 dbbd 6b1a 6dbe

weight_hh_l0 f4 [40, 10]
0.0073545296 0.115155995 0.111033574 0.22303948 -0.2839123 -0.08716056 0.10682858 -0.3194698
0.18509205 -0.1972992 -0.21364434 0.32757798 0.29012322 0.012772038 0.28706074 -0.11100356
0.23299809 0.056429043 -0.2933547 0.12473912 0.16696137 -0.24095063 0.23106878 -0.6238966
-0.21030268 -0.12111971 0.22208734 -0.008027703 -0.038594145 -0.18301298 0.18369651 -0.14422144
0.24010366 0.048495304 -0.013667674 0.14922133 0.3209305 -0.03677351 -0.38139838 -0.08013457
-0.008642877 -0.031569883 0.3939057 0.15499316 0.30021966 -0.17022204 0.66300774 0.00829714
-0.0024078449 -0.1571779 -0.11226031 0.15237495 0.34126922 -0.30276304 0.33133602 -0.22716309
-0.1365055 0.27447906 -0.3458416 -0.16376762 -0.18527007 0.20290667 0.38692558 0.63256913
0.30774078 -0.14016803 -0.048536446 0.20339572 0.04559264 -0.21980903 -0.15113433 -0.0065372116
0.348501 -0.0052490737 -0.0018829706 0.18143232 0.09244451 0.25554305 0.022132156 -0.2813717
-0.10230943 0.23299827 0.09846173 -0.22354302 0.14886746 0.25733837 0.18233855 -0.2190173
0.24610612 0.14459468 -0.23138678 0.24945329 0.34725648 0.22863746 0.32752782 -0.11026348
-0.061020203 0.12861216 -0.115625985 -0.27540272 -0.16587234 0.23846036 0.0042765215 0.29827628
0.019920763 0.074848264 -0.037472043 0.18437243 0.015575998 -0.22955264 0.116859786 0.07173691
-0.061111096 -0.12027629 0.20378481 0.058191296 0.1284903 -0.16100992 -0.03944587 -0.2178315
0.20421517 -0.18597502 -0.20380008 -0.5694824 -0.0034985177 0.23532999 0.09822315 0.12052257
-0.25578523 0.120162055 -0.24979931 0.08154244 0.21614642 -0.3740366 0.24492702 0.311978
-0.23868352 0.02669154 -0.16893792 0.19367464 -0.1393348 0.21937361 0.20723987 -0.036545414
-0.059594788 0.4329569 -0.060400177 0.26526764 -0.35359678 0.1331997 0.23920767 -0.19807145
-0.16409153 -0.089939214 0.036094468 0.18235667 0.019028245 0.06640716 -0.23638311 -0.1592412
0.22610676 0.22356664 0.0903134 0.25120872 0.36941415 -0.06103776 -0.24716742 0.2536236
0.28993452 0.1810119 0.11573453 -0.14229874 0.15759571 0.05611589 -0.0011775913 -0.042671174
-0.06452713 0.37998414 0.07879801 -0.024537006 -0.007824358 0.066451564 -0.07062955 -0.107291855
0.20695816 -0.23052622 -0.21878676 0.22434866 0.13597605 0.23456855 -0.2850037 0.22345312
-0.075999945 0.112911 0.28942174 -0.2147884 -0.2696847 0.19151153 0.034373544 -0.031025501
-0.020188076 -0.3989202 -0.20053099 0.17939658 -0.081587665 -0.17599024 0.44551846 -0.09623862
-0.15240549 -0.18205571 -0.10729458 0.42830715 0.18897142 -0.16363648 -0.1120676 0.25317115
-0.34242272 -0.20766316 -0.039641272 0.11109914 0.049713377 0.23836027 -0.13604315 -0.042358793
0.38338855 0.20662563 -0.110745214 0.035579104 -0.26999557 0.19370869 -0.13694853 -0.06118762
0.39329332 0.35027674 -0.12613995 0.0075339805 -0.060463473 -0.043299984 0.04169936 0.06646679
0.2693708 -0.31503546 0.26004994 -0.09265455 0.30295575 -0.01182162 -0.27815342 0.030008892
-0.17542292 -0.04087967 -0.0996149 -0.030249137 -0.3174633 0.44671953 0.08961787 0.2920415
00000000: 44fe f03b e8d6 eb3d 9265 e33d 7664 643e
00000010: f45c 91be 3c81 b2bd f1c8 da3d 8c91 a3be
00000020: c588 3d3e cd08 4abe 95c5 5abe 4db8 a73e
00000030: 088b 943e cf41 513c a0f9 923e d655 e3bd
00000040: 0d97 6e3e 2422 673d 9632 96be 3977 ff3d
00000050: ecf7 2a3e c3bb 76be 4b9d 6c3e b0b7 1fbf
00000060: 9659 57be 9c0d f8bd dd6a 633e a086 03bc
00000070: e514 1ebd c167 3bbe f01a 3c3e c9ae 13be
00000080: bcdd 753e 03a3 463d 61ee 5fbc 7acd 183e
00000090: 0151 a43e d29f 16bd a646 c3be 981d a4bd
000000a0: db9a 0dbc 6c4f 01bd 02ae c93e 87b6 1e3e
000000b0: 64b6 993e b04e 2ebe e0ba 293f baf0 073c
000000c0: efcc 1dbb 3ef3 20be bce8 e5bd 2e08 1c3e
000000d0: d7ba ae3e c203 9bbe e0a4 a93e 719d 68be
000000e0: 19c8 0bbe 8588 8c3e 2612 b1be b3b2 27be
000000f0: 70b7 3dbe c4c6 4f3e 1c1b c63e 0df0 213f
00000100: 3390 9d3e 3588 0fbe 27ce 46bd f846 503e
00000110: 59bf 3a3d 9e15 61be f5c2 1abe 1b36 d6bb
00000120: b96e b23e 6c00 acbb 02ce f6ba 65c9 393e
00000130: 8c53 bd3d 8ad6 823e 7f4e b53c f40f 90be
00000140: 9b87 d1bd 1997 6e3e 4ea6 c93d 76e8 64be
00000150: b670 183e dbc1 833e f5b6 3a3e 1246 60be
00000160: 3e03 7c3e a110 143e a8f0 6cbe af70 7f3e
00000170: 9acb b13e f01f 6a3e bab1 a73e d2d1 e1bd
00000180: 52f0 79bd e8b2 033e 51cd ecbd 9601 8dbe
00000190: 70da 29be f42e 743e 1022 8c3b abb7 983e
000001a0: de30 a33c 0c4a 993d 497c 19bd 20cc 3c3e
000001b0: 7932 7f3c d90f 6bbe 2f54 ef3d cdea 923d
000001c0: a14f 7abd 6a53 f6bd f7ac 503e ff59 6e3d
000001d0: f692 033e c9df 24be fe91 21bd 390f 5fbe
000001e0: c81d 513e 3c70 3ebe f8b0 50be 99c9 11bf
000001f0: 6347 65bb 58fa 703e 3829 c93d 8ad4 f63d
00000200: 48f6 82be 8617 f63d 64cb 7fbe b9ff a63d
00000210: 7d55 5d3e ba81 bfbe 26ce 7a3e 95bb 9f3e
00000220: 7469 74be 37a8 da3c 10fe 2cbe a552 463e
00000230: c8ad 0ebe 7aa3 603e b036 543e a5b0 15bd
00000240: aa19 74bd 87ac dd3e 2d66 77bd 29d1 873e
00000250: a30a b5be 8165 083e dbf2 743e 3ed3 4abe
00000260: 9c07 28be 0d32 b8bd cbd7 133d b5bb 3a3e
00000270: 1fe1 9b3c 7a00 883d 6a0e 72be 2010 23be
00000280: 8888 673e a7ee 643e 3bf6 b83d 6e9e 803e
00000290: da23 bd3e bb02 7abd 7519 7dbe f4da 813e
000002a0: 4c72 943e 2f5b 393e 3a06 ed3d c3b6 11be
000002b0: c560 213e c7d9 653d 6859 9aba f8c7 2ebd
000002c0: cd26 84bd 488d c23e da60 a13d d501 c9bc
000002d0: bc31 00bc c217 883d 3aa6 90bd d5bb dbbd
000002e0: d7ec 533e 110f 6cbe a309 60be a8bb 653e
000002f0: 4e3d 0b3e bd32 703e 01ec 91be e5d0 643e
00000300: dca5 9bbd e23d e73d 162f 943e 7ef1 5bbe
00000310: 1d14 8abe 991b 443e 46cb 0c3d 3129 febc
00000320: 7761 a5bc 453f ccbe ff57 4dbe bdb3 373e
00000330: 6f17 a7bd c936 34be ff1a e43e c118 c5bd
00000340: 2f10 1cbe d06c 3abe 43bd dbbd 134b db3e
00000350: b981 413e 5290 27be b383 e5bd a69f 813e
00000360: 0852 afbe a7a5 54be e35e 22bd f287 e33d
00000370: 41a0 4b3d b714 743e e54e 0bbe 6a80 2dbd
00000380: 814b c43e ab95 533e 63ce e2bd 65bb 113d
00000390: dc3c 8abe 925b 463e 3c3c 0cbe df9f 7abd
000003a0: be5d c93e 7957 b33e d52a 01be 9cdf f63b
000003b0: 8ca8 77bd 535b 31bd f3cc 2a3d be1f 883d
000003c0: f8ea 893e 544c a1be 4425 853e abc1 bdbd
000003d0: 041d 9b3e 78af 41bc 206a 8ebe 35d5 f53c
000003e0: 11a2 33be 7171 27bd e602 ccbd 0acd f7bc
000003f0: 8d8a a2be 6cb8 e43e 9389 b73d 7786 953e

bias_ih_l0 f4 [40]
0.19526702 0.26881424 -0.26095632 0.42444575 0.24820098 -0.15485731 -0.001227961 0.35773188
0.3423681 0.12040648 -0.23261568 -0.058381706 -0.24215123 -0.020962937 -0.13600807 0.13216382
0.19675939 0.031553175 0.25540158 0.362051 0.057166424 0.17329985 -0.26447004 0.31520513
0.100923635 0.24037069 -0.1529103 0.14010309 -0.14663266 -0.0653503 0.077569984 -0.16506045
0.051245533 0.20473145 0.0883296 0.3143296 0.5233882 0.22365502 -0.2479972 0.07412246
00000000: 14f4 473e 05a2 893e 119c 85be f450 d93e
00000010: 6628 7e3e ea92 1ebe 89f3 a0ba a228 b73e
00000020: df4a af3e ac97 f63d ce32 6ebe a821 6fbd
00000030: 7ef6 77be 77ba abbc b345 0bbe f455 073e
00000040: 4b7b 493e e73d 013d ffc3 823e c05e b93e
00000050: 5727 6a3d 8475 313e 9e68 87be 9162 a13e
00000060: 0db1 ce3d bc23 763e 8594 1cbe 2f77 0f3e
00000070: df26 16be 61d6 85bd 03dd 9e3d 9b05 29be
00000080: d6e6 513d 1fa5 513e 26e6 b43d cfef a03e
00000090: c5fc 053f d205 653e faf2 7dbe 84cd 973d

bias_hh_l0 f4 [40]
0.12777135 -0.23920391 -0.21129248 0.0033800253 -0.27814126 0.32542026 0.21240228 -0.107787795
0.34235594 -0.08464111 0.27565652 0.41642758 -0.018412702 -0.031355985 0.2509123 0.0030558705
-0.039580323 0.26907066 -0.025173109 0.4182434 0.028075978 0.19055918 0.23218136 0.112749055
0.23619713 -0.15406732 0.13805792 0.25818536 -0.2500376 0.3187588 0.11617698 0.20146868
-0.10369706 0.007883589 0.13596147 -0.23849894 0.46267962 -0.123074986 0.1816318 -0.12610139
00000000: 7ed6 023e dff1 74be 0e5d 58be 6a83 5d3b
00000010: 8868 8ebe 7c9d a63e fc7f 593e d9bf dcbd
00000020: 4749 af3e 5158 adbd da22 8d3e ff35 d53e
00000030: 3cd6 96bc 226f 00bd 9477 803e 0045 483b
00000040: fa1e 22bd a1c3 893e d637 cebc 0024 d63e
00000050: 98ff e53c f221 433e f3c0 6d3e fae8 e63d
00000060: a9dd 713e d3c3 1dbe 0e5f 0d3e df30 843e
00000070: ee04 80be 5a34 a33e 32ee ed3d ce4d 4e3e
00000080: 205f d4bd 2b2a 013c 7c39 0b3e 1139 74be
00000090: 58e4 ec3e bd0e fcbd b0fd 393e b920 01be

weight_ih_l0 f4 [40, 22]
0.1764567 -0.30892947 -0.1695338 0.42992976 -0.034296468 -0.10816593 -0.2773758 -0.011164319
0.098429404 -0.1779607 -0.31738454 0.11742728 0.13726878 -0.09092306 -0.3756689 0.32126763
0.28034627 -0.08384059 -0.36919853 0.4594208 0.37924993 0.038043268 -0.29151082 -0.057816625
-0.29689002 0.079983346 0.018109204 -0.46366146 -0.032036282 0.042011783 -0.23622078 -0.14412543
0.13195828 0.29318827 -0.33658883 0.1960599 -0.04412212 0.11647749 0.05938047 -0.0977433
0.07732953 -0.033725485 0.12016591 0.26587135 -0.03202655 -0.03669243 -0.3443828 0.005601617
-0.1749523 -0.052006725 0.062560365 0.27418828 -0.2849131 0.067195415 0.124965 -0.07460454
-0.26041442 0.21935382 -0.5880756 0.24605231 -0.1425835 -0.07989244 -0.06974238 0.20798858
0.18969677 0.006381992 -0.21018669 0.028710363 -0.098439544 -0.21332137 -0.15276 0.1818713
-0.09181706 0.18575792 -0.09393804 0.18727039 0.009827205 0.27445665 0.003308655 -0.055316877
-0.15580007 0.11359189 0.25076547 -0.40029064 -0.41514415 0.0698135 0.2910183 0.23051578
-0.22519131 -0.0811782 0.103040494 0.05680242 0.00788373 -0.20825389 -0.054514546 0.0969657
0.18257417 0.025180027 -0.27362818 0.0755405 0.45880568 0.22029312 0.07283588 -0.01729949
-0.14651547 0.19228762 -0.25360632 0.23566383 0.11445563 0.23739532 -0.0553899 -0.2721908
0.21092425 -0.044012442 -0.14494537 -0.14081903 -0.1602744 -0.0803368 0.021421818 -0.28392056
0.27099258 -0.18713911 0.05272968 -0.2185762 0.06307816 0.01073983 0.321742 0.18880443
-0.1086932 -0.25078562 -0.07388641 0.042580023 -0.09131848 0.15607433 -0.20089662 0.14206535
-0.11633807 -0.018361015 0.07226174 -0.008575911 -0.007039744 -0.20931603 0.2583996 0.36528748
0.284568 0.25534 -0.24948394 0.15022588 0.3815787 -0.03949488 -0.016172579 -0.05849194
-0.09968215 0.11111305 0.402479 -0.29163074 0.14059933 -0.1927542 -0.11111135 0.00291979
-0.411894 0.20632991 -0.043877974 -0.268205 0.4149723 -0.078343175 0.13369021 0.17561233
0.11318616 0.09227262 -0.21493295 -0.20064667 0.08434618 -0.21643253 0.056811742 0.38333115
-0.028933702 0.29592317 -0.24332014 -0.21544307 0.29204196 -0.0075041326 0.04017148 -0.109062076
0.038879633 0.15627348 -0.28288123 -0.3078181 -0.40257752 -0.09864579 -0.107866816 -0.24113165
0.08807566 0.101722375 -0.12077872 -0.30094522 0.15906334 0.27875823 -0.09333553 -0.20136075
-0.040455073 -0.07279145 0.14602268 0.025358249 -0.36505753 -0.12852097 -0.1193687 -0.21297997
-0.3235648 0.0073466 -0.32428607 0.03839168 -0.29123476 -0.22046043 -0.26847002 -0.0054710503
-0.3888267 0.30041042 -0.21125424 -0.024774995 -0.1394978 -0.348944 -0.043108378 0.09439009
0.22730097 0.014084678 0.08053426 -0.0376999 0.16833702 -0.46959043 -0.30040646 0.07184766
0.04109549 -0.28377062 -0.11268555 0.3339626 0.105798624 -0.17891204 -0.18990485 0.15586585
-0.09372479 0.029929014 0.21769355 0.03315809 -0.2499045 0.21869572 0.077360354 -0.2871838
0.016021349 0.25902086 -0.24372546 -0.19898777 0.117599644 0.49184346 -0.182718 -0.35103166
00000000: 11b1 343e 012c 9ebe 459a 2dbe c11f dc3e
00000010: 747a 0cbd 1986 ddbd 3304 8ebe 8cea 36bc
00000020: 5b95 c93d 543b 36be 3a80 a2be b77d f03d
00000030: 3090 0c3e df35 babd ad57 c0be 317d a43e
00000040: 8c89 8f3e 9eb4 abbd 9707 bdbe 3439 eb3e
00000050: 0c2d c23e 42d3 1b3d e840 95be 20d1 6cbd
00000060: f801 98be 4fce a33d c159 943c 0965 edbe
00000070: 7a38 03bd 8c14 2c3d dce3 71be 9e95 13be
00000080: 1220 073e c61c 963e 5f55 acbe edc3 483e
00000090: 65b9 34bd c08b ee3d f038 733d a42d c8bd
000000a0: f25e 9e3d bc23 0abd 8b19 f63d 4a20 883e
000000b0: 462e 03bd cd4a 16bd f152 b0be c58d b73b
000000c0: b226 33be 0105 55bd a61f 803d 6862 8c3e
000000d0: 21e0 91be c09d 893d a6ed ff3d 44ca 98bd
000000e0: 0a55 85be 4a9e 603e 1f8c 16bf 23f5 7b3e
000000f0: 6901 12be a69e a3bd 18d5 8ebd f5fa 543e
00000100: df3f 423e 0720 d13b 2e3b 57be ff31 eb3c
00000110: ac9a c9bd eb70 5abe 1e6d 1cbe 783c 3a3e
00000120: 950a bcbd 5337 3e3e 9662 c0bd cfc3 3f3e
00000130: 4902 213c 9585 8c3e 05d6 583b f393 62bd
00000140: 0e8a 1fbe dda2 e83d 5564 803e e5f2 ccbe
00000150: c68d d4be 61fa 8e3d 5a00 953e 540c 6c3e
00000160: 8d98 66be c240 a6bd e506 d33d a8a9 683d
00000170: c32a 013c 8240 55be a54a 5fbd f495 c63d
00000180: b9f4 3a3e 5846 ce3c fe18 8cbe fab4 9a3d
00000190: 94e8 ea3e 8594 613e fa2a 953d a9b7 8dbc
000001a0: 2708 16be 0ce7 443e b0d8 81be dc51 713e
000001b0: b767 ea3d c217 733e 85e0 62bd 985c 8bbe
000001c0: 87fc 573e 6446 34bd 8f6c 14be dd32 10be
000001d0: f91e 24be 9f87 a4bd cf7c af3c 095e 91be
000001e0: 8abf 8a3e 65a1 3fbe 14fb 573d 70d2 5fbe
000001f0: 1f2f 813d 1df6 2f3c 5ebb a43e f355 413e
00000200: 8a9a debd f966 80be c251 97bd 6468 2e3d
00000210: 2f05 bbbd f3d1 1f3e d8b7 4dbe 9479 113e
00000220: a742 eebd d769 96bc f7fd 933d fa81 0cbc
00000230: a7ad e6bb f156 56be f44c 843e f606 bb3e
00000240: e6b2 913e edbb 823e b878 7fbe d0d4 193e
00000250: 495e c33e 62c5 21bd 5b7c 84bc 3f95 6fbd
00000260: 2826 ccbd 3d8f e33d ba11 ce3e a050 95be
00000270: 45f9 0f3e 5b61 45be 598e e3bd f359 3f3b
00000280: c5e3 d2be 2648 533e 64b9 33bd 2a52 89be
00000290: 4077 d43e 6372 a0bd 16e6 083e b8d3 333e
000002a0: 25ce e73d 6df9 bc3d 6217 5cbe 5276 4dbe
000002b0: b1bd ac3d 7da0 5dbe 6eb3 683d fb43 c43e
000002c0: 5f06 edbc 3e83 973e ea28 79be 1c9d 5cbe
000002d0: 8686 953e 3ae5 f5bb da8a 243d f05b dfbd
000002e0: 4040 1f3d 2806 203e cfd5 90be 569a 9dbe
000002f0: a41e cebe ce06 cabd 47e9 dcbd 37eb 76be
00000300: 0361 b43d d253 d03d d55a f7bd 7e15 9abe
00000310: 80e1 223e 66b9 8e3e b326 bfbd 8331 4ebe
00000320: 38b4 25bd af13 95bd f886 153e 1abc cf3c
00000330: d2e8 babe 009b 03be 9477 f4bd 6c17 5abe
00000340: 49aa a5be bfbb f03b d308 a6be 9840 1d3d
00000350: b91c 95be 61c0 61be e774 89be 7f46 b3bb
00000360: 4b14 c7be 65cf 993e 0853 58be eef4 cabc
00000370: 83d8 0ebe caa8 b2be 6992 30bd 974f c13d
00000380: 96c1 683e 6cc3 663c 25ef a43d 366b 1abd
00000390: 8a60 2c3e 286e f0be e0ce 99be de24 933d
000003a0: bf53 283d 624a 91be aec7 e6bd 25fd aa3e
000003b0: f3ac d83d b834 37be 6b76 42be 4c9b 1f3e
000003c0: c8f2 bfbd b12d f53c 0feb 5e3e c7d0 073d
000003d0: f7e6 7fbe c5f1 5f3e 1b6f 9e3d c109 93be
000003e0: 343f 833c 629e 843e 2b93 79be 73c3 4bbe
000003f0: 15d8 f03d e8d2 fb3e 6d1a 3bbe 6cba b3be
