LSTM/code/model/old_model/model_mk6_100epoch_1.0395trainloss_0.9664validloss.pt (torch, 46404 bytes, 32 tensors)

weight_ih_l0 f4 [40, 22]
00000000: fd7f 153e 7f34 92ba fe83 95be 7da1 7a3e
00000010: 790f 04bc d809 563e 358e 8cbd 480d c2bd
00000020: 1f3f fdbd 6f1f ff3d cd19 c63c 843d 9e3e
00000030: 2264 82be bb36 63bb 336e 8c3d 506f 25be
00000040: 34bc b2bd 4fc5 27be ba7f 213e 5c25 9c3e
00000050: 4b0f cc3d e3b1 b4bd 1c26 143e 62a7 e5bb
00000060: 2261 a5bc f346 cdbd e1cd 08be bbeb 803e
00000070: d290 303e fe73 533e 08c4 c7bc c32a 613e
00000080: 8b2d 773e e085 b73e 83b2 33be 7dff 1c3e
00000090: 34b4 023e 3afe b83d 0f9e b43d cd62 6e3e
000000a0: aca5 bd3d 361f 853d b11b 553e 94e7 ebbd
000000b0: 0b92 803e 9da5 d73d a2de 4c3d bcbb 4abe
000000c0: c468 673e 070f a03e baa9 ce3c ed4c 83be
000000d0: c663 8a3e 9530 1ebe 6c33 b8be 726d 82be
000000e0: cb3d 063e 8b31 62be 3fd7 433e c00d aa3e
000000f0: 2f22 3bbe 61ce 453e aa94 64be 2ff1 79be
00000100: 3f81 0a3e 50f1 353e 212f e03d da54 b4be
00000110: 9c90 03be b88b 393e 2f51 7e3e 0313 2fbe
00000120: d315 85bd 112b d53c 11e9 d23d a29f 7d3e
00000130: b6a2 84be eebc 7a3d 28d2 89be 53cd b2bd
00000140: e069 c03d 682d 66be e66f 563e fd75 a6be
00000150: 5974 3bbe 1e67 b43e 7307 52bd 7e75 57bd
00000160: e670 ecbd 8ca0 9d3e ff66 3dbc c888 17bd
00000170: d703 693e d933 29be 0584 2d3c 4a7e 8d3d
00000180: 6030 a6be d50e 283d c5e0 593e f9ac 53be
00000190: 1570 1b3e 5d0d fc3d 6f26 47be d94c 883e
000001a0: 1639 193d c48e 9dbb 80c7 41be 4cdd 07be
000001b0: ee4c 83be 1373 f23d 229c ed3d db8c 763e
000001c0: d94a be3d 267f 593e 14ed a33d 9a5a 1d3e
000001d0: 54ff 80be cc52 6dbd 2ce7 1ebe 7142 2abe
000001e0: e301 873d 9a04 a63e e7ef 4bbe 5704 25be
000001f0: a5a5 353e bc84 143e e855 f83d b42a 463d
00000200: e303 0bbe 2e6e 793e f7d2 913e 9f9e 1c3e
00000210: 5262 6a3e 3225 4dbe f639 b8bd 5982 053d
00000220: 543a 8ebb 1e57 cbbd 44bf 6f3e 33c7 d63d
00000230: 596f febc ad5b 8f3e 7657 003d 6ba8 ec3d
00000240: 8509 a23d 6d60 323c 7a30 e4bd e3e4 7f3e
00000250: f4ff 1bbd dbc6 21bd 4f82 1d3e b0e7 26be
00000260: d2cc 4bbd ed2f 0f3e a195 03be c4f0 c4bd
00000270: eae7 13be 7ba4 04bd 8ee3 a1be eda2 96be
00000280: b62c 873e 41b4 2c3e 3898 293e 49a7 df3d
00000290: 84fb d23d d39f 7abe 0069 5b3e 37b7 9cbe
000002a0: 4115 423e f68e 94bd f22b fdbd 4c01 5f3e
000002b0: 7b76 6bbe 2fd7 573e 29a8 67bd e380 69bd
000002c0: 6bf1 77be 41d9 95be 7165 cbbd 05e3 adbd
000002d0: 8f76 5abe 0ee3 363e 9218 abbe 37b3 5b3d
000002e0: b550 3abd b445 56be 71a4 b7be 0301 09be
000002f0: e052 a33e 150d 81be 2735 adbe 5c00 aebd
00000300: 8c83 3bbe e54c 31be 5e3a 5c3d 278b bc3d
00000310: b3c4 d7bc d7b5 803e 10ef 5f3e 81c4 a23d
00000320: 904f 08be 9b9e c13e 932d 4abe 4372 063e
00000330: 26c0 353d c23c a4bd 4893 41be e373 acbe
00000340: 1e6a 693d 1c86 573e aa0c f1bd fa5c 4b3e
00000350: 8987 153d 2bac b53e d916 7b3d 24cb 233e
00000360: b667 b5be 3638 c13e 5be7 94bd e2f7 be3e
00000370: 0485 793e a55f 203d be03 86bd 77ec 443d
00000380: 0482 4e3e e24c 41bd 9686 5cbe 9bc1 37be
00000390: c441 e4bd 3d3b b53d d03a 2f3e ded9 99bd
000003a0: e728 963e b293 91be 68ad 363e 8906 38be
000003b0: 848d 48bd 9bd0 9cbe 46a2 71be 8eda c73e
000003c0: 8d36 283e acf1 713e ceb1 38be b584 8ebe
000003d0: c625 e0bc 369a d03e 4e42 533d 531d 3bbe
000003e0: b136 0ebe 7960 f7bd 97b7 383e bde8 a63d
000003f0: e39d adbe a211 29be 00ca 353e 47bf ef3c
0.14599605 -0.0011154561 -0.29202265 0.24475665 -0.00806033 0.20902193 -0.06863061 -0.094751894
-0.12365555 0.12457167 0.024182225 0.30906308 -0.2546702 -0.0034670073 0.06856956 -0.16155744
-0.08727303 -0.16383861 0.1577138 0.30497253 0.099638544 -0.08822992 0.14467663 -0.007008479
-0.020187918 -0.10023298 -0.13359787 0.25179848 0.17242745 0.20649716 -0.024385467 0.21988969
0.24138467 0.35844326 -0.17548566 0.15331836 0.12764055 0.09032865 0.0881921 0.23279877
0.09260115 0.06500094 0.20811345 -0.115187794 0.25111422 0.10529635 0.050017007 -0.19798177
0.22598559 0.31261465 0.025227416 -0.25644627 0.27029246 -0.1544822 -0.35976732 -0.25474125
0.1310951 -0.22089212 0.19125079 0.33213615 -0.18274759 0.19317009 -0.22322336 -0.2440841
0.13525866 0.17767835 0.10946489 -0.35220987 -0.12848133 0.18119705 0.24835657 -0.17097096
-0.06498303 0.026021512 0.1029836 0.24767926 -0.2590539 0.061215334 -0.2691815 -0.08730569
0.09395194 -0.22478259 0.20941123 -0.32511893 -0.18306102 0.35234922 -0.051276635 -0.052602284
-0.11544971 0.3078655 -0.011560201 -0.03699568 0.22755371 -0.16523685 0.010590558 0.06908853
-0.32458782 0.04102977 0.21277149 -0.20671453 0.15179475 0.12307236 -0.19448255 0.2662113
0.037407957 -0.0048082788 -0.1892376 -0.13268012 -0.2564463 0.11838355 0.116020456 0.2407717
0.0929162 0.2123991 0.080042034 0.15366593 -0.251948 -0.05794029 -0.15517873 -0.16626908
0.06592157 0.32425386 -0.19915734 -0.16114937 0.1773897 0.14503759 0.1212576 0.04838057
-0.13575701 0.24358436 0.28481266 0.15294884 0.22889069 -0.2003372 -0.0899543 0.032595012
-0.0043404493 -0.09928726 0.23412806 0.10487213 -0.031058954 0.2799963 0.03133341 0.11555561
0.07911972 0.0108872475 -0.11142059 0.24989657 -0.038085893 -0.039496284 0.1538174 -0.1629932
-0.04975588 0.13983126 -0.12850048 -0.09616235 -0.14443937 -0.032383423 -0.31618923 -0.29421178
0.264013 0.16865636 0.16561973 0.10920579 0.10301879 -0.2447503 0.21426773 -0.30608532
0.1895342 -0.0725383 -0.123618975 0.21777838 -0.22994415 0.2107818 -0.056556854 -0.05700768
-0.24213187 -0.29267314 -0.09931458 -0.08490566 -0.21334289 0.17860052 -0.33417183 0.05363771
-0.045487124 -0.20925027 -0.35867646 -0.13379292 0.31899166 -0.25205293 -0.33829615 -0.08496162
-0.183119 -0.17314489 0.0537666 0.09206229 -0.02633891 0.25138733 0.21868539 0.079476364
-0.133116 0.3781632 -0.19743948 0.13129525 0.0443727 -0.08019401 -0.1890384 -0.33682165
0.056985967 0.21047252 -0.117699936 0.19859686 0.03650621 0.35482916 0.061301086 0.15995461
-0.35430688 0.37738198 -0.0727069 0.37298495 0.24367148 0.039153714 -0.065436825 0.048077073
0.20166785 -0.04719246 -0.21535715 -0.17944948 -0.11145356 0.088491894 0.17112279 -0.07512258
0.2932808 -0.28432995 0.17839587 -0.17971243 -0.048963085 -0.30627903 -0.23597059 0.39033931
0.1642706 0.23627347 -0.18036577 -0.27835622 -0.027361762 0.40742654 0.051576905 -0.18272905
-0.1388805 -0.120789476 0.18038784 0.0814986 -0.3390952 -0.16510633 0.17752838 0.029266013

weight_hh_l0 f4 [40, 10]
00000000: 15ad bb3d cefd af3e f509 70be 1c32 20be
00000010: 7076 d43c 487d 4fbd 2086 483e 3be8 423e
00000020: 3725 c8bd f6c6 86be 29ad 4b3c d377 3dbd
00000030: 8e0b 4ebe 2f44 f93d c5ef 56be eecc 003e
00000040: 4886 c0be 2fdd bdbe ac19 2fbe 84cc da3d
00000050: 097e b5bc 13a9 51be 7ac2 313e dbf6 c6bd
00000060: 0557 943e ee55 64be 2d74 b2bc c505 44be
00000070: e336 b53d 9cf2 2ebd 4919 81be f807 2d3e
00000080: dc1d 813e 0f2f e5bd 8fc8 1cbe 49a1 3c3e
00000090: 2f81 9dbe db1d 223e cb5b 2e3e aae7 44be
000000a0: 5f16 6dbe 0097 89bd 2d8d 833e 3916 8dbe
000000b0: 38e5 a03e a022 153d 20d8 69be ea64 3dbe
000000c0: 91b9 efbd aa30 a2bd bfff 573e 2a9d 893e
000000d0: 755a 373e c003 7d3e 67d6 ad3e b4f8 63bd
000000e0: 7bc2 a43d ca9b 643e 971d c13d 3188 60be
000000f0: fe82 ac3e a68e 133e 9b5f a13d 58e7 7e3e
00000100: 1509 e3bc e5a2 353e 2419 3fbe 17fb b6bd
00000110: be34 7fbe 11bd 333e 4f74 28be ea5c 40be
00000120: b022 8dbd c26f 38be 820a 12be 1211 e83d
00000130: ee41 9e3d 6ba5 fe3d b0f2 483e 30ed a73d
00000140: da5a fc3d 9b43 4d3e 9d7a 903e 7697 c43d
00000150: ada0 1ebe b61b 6a3d 339d 78bd 5c5b a2be
00000160: 9db3 a33d 4268 9abe f1c4 14be 7437 68bc
00000170: 16bb 4a3e d1a9 3a3e f383 4b3d fd31 6cbe
00000180: 8bce d1bb 4fc9 1bbe 8d84 393d 90da acbe
00000190: ccd7 963e b5b4 c4bd 6b8c cc3e 2050 663d
000001a0: c322 293e 647d c03e 63be c9bd 8349 963d
000001b0: 03ae 88bc 6969 da3c 15b6 893d 0b4e d93e
000001c0: 6781 0c3e 50db 413c 1368 803e b079 f9bd
000001d0: 390f adbd b0ee 4bbe 3faa ccbe 0608 b0bc
000001e0: df86 513e bcc5 df3d 1d38 ac3e 7d04 123e
000001f0: 713e 283e d3e7 ab3e d4a4 edbd 43d7 21be
00000200: 75eb b6be 23c7 0cbe e967 523e 6750 cc3e
00000210: 6885 8e3e 79a2 aabe a10b 953d e304 fcbd
00000220: 54ab 033e 542b e4bd 6503 dcbe fc57 c2bd
00000230: 711c ca3d b9d6 82be 3e2b b8bd 3ef9 223e
00000240: 6c6c b63d 1622 8839 cbaf 833e e3ce 7c3e
00000250: 2b21 61bb f1a0 25be a354 94bd f08d 413e
00000260: 412d 3c3e 4551 5c3c 9d67 913e b35c fcbc
00000270: dcad acbe 5374 4dbd 584f bbbc f3b1 c7be
00000280: 2a87 5d3d 63f6 213e b47f 74bd a19c c43d
00000290: 5771 08be fa67 b63e 1670 efbd 8c5d 7fbd
000002a0: 5167 ba3d 5e83 483b af93 493e b19e 2bbe
000002b0: de4c 053e 0267 49bd 71d0 bd3e d1d9 f43d
000002c0: ae0e 823e 2b50 04bd fbde e1bd 41c4 a7be
000002d0: c303 883c db1d 0dbc 63e3 cb3e 5691 46be
000002e0: b870 8c3e 43fc e83d 6574 e5bd 4fe2 3e3d
000002f0: 6a15 a9be 150d 233e 294a 203e 5af9 883e
00000300: 5070 d23d 9821 05be be54 79be c4f5 e8bc
00000310: df9a 55bd 6aab 59b9 d0bc 173e 5760 14bd
00000320: 7fe0 27be 8145 6e3e d0e2 2d3e ebe6 e4bd
00000330: 1ef6 15be 7577 a1bc 694b 9d3d 64a5 26b9
00000340: 7afe 1abc 5b51 023d f498 8cbe db08 cfbd
00000350: 543f c83e ec88 b3bc 4633 353e d7c8 11be
00000360: add7 81bd 9ba3 35be 99af 803d c274 d2be
00000370: b23b a1bd 1aaf c2bd 4c80 b53e 22d0 1b3a
00000380: fd0b 973d 84fc be3e f9c9 d3bd c147 46be
00000390: d04d 093e 19c8 db3c 8089 56be da34 c5bb
000003a0: 7361 fcbd 1117 ab3d cca5 2abc b0f4 613e
000003b0: 35f0 943d 1b18 7cbe cb96 da3d 6554 57bc
000003c0: 5d7c 92be 464e 9abd 7c75 ba3e 27be f93d
000003d0: c005 49be df06 b4bd a8d3 55bd 5b2f f1bd
000003e0: 5fd5 db3d 6ae4 89be 57db 9d3c 3a4f 13be
000003f0: a31e 9d3e caf4 9abe be34 cb3b 6ad2 6f3e
0.09163872 0.34373325 -0.23441298 -0.15644115 0.025935382 -0.050656587 0.19582415 0.19033901
-0.09772723 -0.2632367 0.012431421 -0.04625685 -0.20121595 0.12171208 -0.20989902 0.12578174
-0.37602448 -0.37082812 -0.17099637 0.106835395 -0.022154825 -0.20474653 0.17359343 -0.09715053
0.2897264 -0.22298405 -0.021783913 -0.19142826 0.088483594 -0.04271184 -0.25214604 0.16897571
0.25218093 -0.11190616 -0.15310882 0.184209 -0.30762622 0.15831701 0.17027204 -0.19228998
-0.23153065 -0.06718254 0.25693646 -0.27556017 0.3142488 0.036409974 -0.22836351 -0.18495527
-0.11705316 -0.07919438 0.21093653 0.2687772 0.179056 0.24708462 0.33952639 -0.055657104
0.08044907 0.22325054 0.09429472 -0.21926953 0.3369369 0.14409885 0.078795634 0.24892938
-0.027714292 0.1773792 -0.18661934 -0.0893461 -0.24922463 0.17552592 -0.16450618 -0.18785444
-0.06891382 -0.18011382 -0.14261821 0.11331381 0.07727419 0.12433895 0.19623828 0.08199537
0.12322016 0.2004532 0.28218547 0.095992014 -0.1549098 0.057155333 -0.06069679 -0.31710327
0.07993243 -0.30157667 -0.14528252 -0.014173377 0.1979793 0.18228842 0.049686383 -0.23065944
-0.0064027957 -0.15213512 0.045292426 -0.337605 0.29461515 -0.0960478 0.3995088 0.056228757
0.16517167 0.37595665 -0.098507665 0.0733824 -0.016684538 0.026661592 0.067241825 0.42442355
0.13721238 0.011832073 0.25079402 -0.12181413 -0.08450169 -0.19915271 -0.39973637 -0.0214882
0.20461605 0.10926387 0.3363656 0.14259525 0.1643007 0.33575305 -0.11603704 -0.15804772
-0.35726514 -0.1374784 0.20547451 0.39905092 0.27836156 -0.33327082 0.07277609 -0.123056196
0.12858325 -0.11141077 -0.4297134 -0.09489438 0.09868706 -0.25554445 -0.08992623 0.15915391
0.089073986 0.00025965337 0.25720057 0.24688296 -0.0034352045 -0.16174676 -0.07242706 0.18901801
0.18376638 0.013447111 0.28399363 -0.030805921 -0.33726394 -0.050159764 -0.022864982 -0.39002952
0.05408398 0.15816645 -0.0596921 0.09600187 -0.13324486 0.35626203 -0.116913006 -0.062345073
0.09101737 0.003059588 0.19685243 -0.16759755 0.13017604 -0.0491705 0.3707309 0.11955608
0.25401825 -0.032303017 -0.11028858 -0.32766917 0.016603356 -0.008613075 0.3982192 -0.19391379
0.27429748 0.1137624 -0.11203841 0.046602543 -0.3302415 0.15922959 0.1565329 0.2675274
0.10275328 -0.13001096 -0.24348733 -0.028437503 -0.05214965 -0.0002075859 0.1481812 -0.03622469
-0.16394232 0.23268701 0.16981053 -0.111768566 -0.14644668 -0.019710282 0.07680399 -0.00015892606
-0.009460086 0.031815868 -0.27460444 -0.10109111 0.39110816 -0.021915875 0.1769534 -0.1423677
-0.06339965 -0.17738192 0.062834926 -0.41104704 -0.07872714 -0.09506054 0.35449445 0.0005943795
0.073753335 0.3730203 -0.103412576 -0.1936331 0.1340859 0.026828812 -0.2095089 -0.0060182633
-0.123232745 0.08354009 -0.010415506 0.22065997 0.07272378 -0.2461857 0.10673293 -0.01314268
-0.28610507 -0.07534461 0.36417758 0.12194472 -0.196311 -0.08790373 -0.052203804 -0.117766105
0.10734057 -0.2693208 0.019269628 -0.14385691 0.30687436 -0.30264884 0.0062013557 0.2342011

bias_ih_l0 f4 [40]
00000000: 8f9d 2dbd 7fb8 ad3e 4f01 e93d fa1c 8ebc
00000010: d759 333d b024 3fbe cc1b 253e 670a 7bbe
00000020: c81f b93d 8977 8f3e c3fc 723e 5cf3 9abd
00000030: 2961 f93d 4180 a63d 48a7 ad3e 33a8 9e3d
00000040: 6419 9bbc 70ef 87be 4b60 23be eb75 5fbd
00000050: 691b 313e 858f b73e e51a a7bd 8ef7 48be
00000060: a970 23bd 1653 193e 09be 34be e352 0dbe
00000070: 6cfb a9be 594b 8dbe 13ab 35be 6e8b 47bd
00000080: 51e5 8b3e 36cd b1bd fb92 c1bd f4b4 7bbe
00000090: 1170 aa3b af13 243e 1f0f dabd 6dcc a33e
-0.042386588 0.33929822 0.11377203 -0.017347801 0.04378685 -0.18666339 0.16123885 -0.24515687
0.09039265 0.28020886 0.23729233 -0.07565948 0.12176735 0.08129931 0.33916688 0.07746925
-0.018933006 -0.26549864 -0.15954702 -0.054555815 0.17295612 0.35851684 -0.081594266 -0.19625685
-0.039902363 0.14973101 -0.17650618 -0.1380115 -0.33199632 -0.27596548 -0.17741041 -0.048716955
0.27323392 -0.08681719 -0.094518624 -0.24580747 0.0052013476 0.16023134 -0.10647415 0.31991902

bias_hh_l0 f4 [40]
00000000: b4de b0bc b86e 253e 618b 5bbe 6ebf a83d
00000010: 45be e83d ac17 9a3e 9222 4cbe 66d6 a23e
00000020: 0128 e8bd 314f 0fbe 5773 5ebd 7176 8d3b
00000030: b17e a63e 3fab 27be b43a c33c 108c 83bd
00000040: cad0 1c3d d402 1a3e 12e2 6b3e 8e09 623e
00000050: 65fa b53e 899f 18bd ec70 883e 71be 8f3d
00000060: 1275 53bb b2ad a43e 7933 b3be 8c55 5f3e
00000070: 9b40 acbe 239f 253e 3d44 b93e bf20 51bd
00000080: cea8 b9bc 65b8 c53e 2553 b23e f919 543e
00000090: a70f 813e 6457 54be 1e59 4bbd 29aa b63d
-0.021590568 0.16155517 -0.21439888 0.08239637 0.11364416 0.30096185 -0.19935063 0.31804198
-0.11335755 -0.13995053 -0.054309215 0.004317098 0.32518533 -0.16373919 0.023831703 -0.06423199
0.038285054 0.15040141 0.23035458 0.22073957 0.35542598 -0.03726152 0.26648653 0.07018746
-0.0032265824 0.3216377 -0.35000208 0.21809977 -0.3364304 0.16173987 0.36184874 -0.05105662
-0.0226635 0.38617244 0.3482906 0.20713033 0.25207254 -0.20736462 -0.049645536 0.08919174

weight_ih_l0 f4 [40, 22]
00000000: 9c89 853e 7dd4 983e 8c38 6cbe 2683 1dbe
00000010: d80e 923e f24d 01be 2264 03be 32c3 733e
00000020: 0b83 653e b827 833e f813 88be 84a5 ac3e
00000030: ae26 46be 9206 a03e 344a a8bc 7849 14be
00000040: 894a 32be cca2 3bbe 2e09 6f3e 443a a23e
00000050: 0ca1 823e 9a25 993e f56a f1bd 29fa f63d
00000060: 1dbe 56bd 9f33 7ebd b7d4 1abe e42a 573d
00000070: 14ae 53be ace4 0e3d 1233 24be a036 5f3e
00000080: c4bc fc3d e255 8f3e e44d 73be 2f1e 803e
00000090: 4cf5 133e 2248 4dbe 788f 163e 3ff3 a03e
000000a0: d42b 8dbe bef9 93bc 0cd0 5f3e ca3a cdbd
000000b0: d4a4 34be e174 20be 99b5 ecbd 6544 8d3e
000000c0: b4ee debd 3ecb 463e b38e 8c3e 0730 04be
000000d0: 8139 82be 7dac 7c3e 76e2 803e f18d 7bbd
000000e0: 47c0 b13d beec 4c3e 596a d9bd 1099 b53e
000000f0: 805c d83c 9ca8 5dbe 9889 49be 5cc4 dd3b
00000100: 9271 883e 22fc 723e 8b8e eb3d 0fbe 053e
00000110: 4382 d83d 5572 b83e 17fa 88be 59bb 773d
00000120: 150d f83d 22e3 1bbe 2382 f5bd 6cbf e93c
00000130: dd5d 1e3e 9ca0 433e aa98 2abe 898d b33e
00000140: c44d 9bbe a123 a13e f4ca 913e 3bd1 82be
00000150: 7474 1c3e 0da9 9abc c7d5 1dbe 3039 863e
00000160: e104 f13d bfe8 a43e 0d1a 723e 81be 543d
00000170: 4085 6f3e 07d4 92be fdd9 8abe 2c98 4f3e
00000180: ab46 91be 4f38 02be 710b 723e 5986 423d
00000190: 3fd5 983e 9f9c 80be 128c a6be d945 1d3e
000001a0: 538e 9e3e 91d0 a33e b2ae 47be 7064 85be
000001b0: 1bc7 5fbe 354e 3bbe 71b7 9bbd 5cb6 b9bd
000001c0: 4591 9ebd 41e2 19be 85f2 bcbd 1d67 863d
000001d0: ba5f 163e a52a 73be 5b91 6fbe 438a 943e
000001e0: d1bd 9d3e 4ce7 303e 105c 403e 781d 773e
000001f0: db67 a93d d5f3 88be 164a 48be 7c4b 6b3e
00000200: 9513 05bc 935f 613d 4819 de3c ddcd fa3d
00000210: 1a2e 65be 0ae0 383e 02d2 403e bda8 63be
00000220: 2689 263e f548 1bbe 6e6f 753e 3082 853e
00000230: 59e5 1dbe 9219 41be 1916 203e 8110 933e
00000240: 3ebb f73d 0da2 773e 81a2 84be 4a19 58be
00000250: a5a7 c7bd c6db 73be cc0c b9b8 225c bb3e
00000260: f6e9 923e 74d0 8c3d c725 bb3d 1c1e 033c
00000270: 31f7 a63e faa1 413e a0ef f73d 8649 27be
00000280: 9c17 953e 5bc9 d9bd d8de 8f3e bc54 4cbd
00000290: de4a 63be a186 19be 2827 263e 89e1 023e
000002a0: dda4 a33d 18ac 2b3e 9fe5 853e 0f73 113d
000002b0: 6acb 253d 4532 1ebe e0cf 46bd dd84 2f3d
000002c0: 2435 2cbe e02c 5abe f849 84be e3a5 e9bd
000002d0: c073 5abe 8efe 9e3e e004 223d 5b87 03be
000002e0: 9455 2e3e cc71 36be 8027 223d 78bb cb3d
000002f0: 66e9 80be 0b31 85be ca52 b1be ed28 2bbe
00000300: 08a3 cebd 67ce 97be d76b 43be 95ee 53be
00000310: 7d71 9e3e ac09 50be ccbb eabd 8de0 75bd
00000320: 99a5 85be a0d2 d0bd 1c03 833e 23ec 4ebc
00000330: 7908 353e 0763 a83d 035f 78b9 f886 b8bd
00000340: eede 883e 1a37 703e d927 b63e a534 6a3e
00000350: 1cc7 4bbd 6979 653e b36e 623e 8f99 94be
00000360: 60d8 cfbd 7120 99be dcb0 5b3e 7b85 913e
00000370: 4866 d3bd 7a2f c8bd 6342 58be 15fe 3f3e
00000380: 7e8e f8bd 47ba 963e f029 d7bd bd52 a23e
00000390: e164 3a3e 471c 883e c36d 06be 1bac e2bb
000003a0: e462 79be 64a0 28be 8b4e be3d 448c cb3d
000003b0: 1e1e bb3c e8ff 113e 9b24 76bd 9773 1e3e
000003c0: b1ed 633d 3658 3fbe 496f 093e 609a 57be
000003d0: d12a 5bbe 32d1 c53d 07cf b5bd 7044 afbc
000003e0: b5d7 983d 1544 433e 175b cb3d 6aa9 89be
000003f0: 446e 9ebe 9707 893e c00e ab3e f840 0b3e
0.2608155 0.29849616 -0.23068446 -0.1538206 0.2852695 -0.1262739 -0.12831166 0.2380493
0.2241327 0.2561624 -0.26577735 0.33720028 -0.19350693 0.31255013 -0.020543195 -0.14481151
-0.17411245 -0.18323821 0.23343346 0.31685078 0.25513494 0.299115 -0.117879786 0.12059433
-0.0524274 -0.06206095 -0.15120207 0.052531138 -0.20671874 0.034886047 -0.16035107 0.21798182
0.12340692 0.2799521 -0.23760182 0.25023028 0.14449042 -0.20047048 0.14703166 0.31435582
-0.275725 -0.018063422 0.21856707 -0.10020979 -0.17641002 -0.15669586 -0.115580745 0.27591243
-0.10885373 0.19413468 0.2745262 -0.12908946 -0.25434497 0.24675174 0.25172776 -0.061414663
0.08679252 0.20012185 -0.10615987 0.3546834 0.026411295 -0.2164635 -0.19681394 0.0067677926
0.26649147 0.23728994 0.11501797 0.13060783 0.105717205 0.36024728 -0.26753303 0.060481403
0.1211187 -0.15223363 -0.11987712 0.02853366 0.15465494 0.19104236 -0.16659799 0.3506892
-0.30332768 0.31472495 0.28475153 -0.25550255 0.15278798 -0.018879438 -0.15413581 0.26215506
0.11768509 0.3220882 0.2364275 0.05193949 0.23390675 -0.2867739 -0.27119437 0.20272893
-0.28374228 -0.12716793 0.23637177 0.047491405 0.29850194 -0.25119492 -0.3252874 0.15358676
0.3096796 0.3199506 -0.19500235 -0.2605319 -0.21853296 -0.18291552 -0.07603348 -0.090679854
-0.07742552 -0.15027715 -0.092259444 0.06562636 0.14684954 -0.23746736 -0.23395292 0.29011735
0.3080888 0.17275733 0.18785119 0.24132335 0.08271762 -0.2674853 -0.19559512 0.22978014
-0.0081223445 0.055022787 0.027111664 0.122462966 -0.22380868 0.18054214 0.18830112 -0.22232337
0.16263255 -0.1516455 0.23968288 0.26075888 -0.1541952 -0.1885741 0.1563343 0.2872353
0.120962605 0.24182911 -0.2590523 -0.21103397 -0.097487725 -0.23814306 -8.823871e-05 0.3659373
0.28694123 0.06875697 0.09138065 0.008002784 0.32610467 0.18909445 0.12106252 -0.1633664
0.29119575 -0.10634109 0.28099704 -0.049885496 -0.22196528 -0.14992763 0.16225874 0.12781347
0.079904296 0.16764867 0.2615175 0.03551012 0.040477194 -0.15448864 -0.04853809 0.042851318
-0.16817147 -0.21306181 -0.25837684 -0.114085935 -0.21333218 0.31053585 0.03955543 -0.12844603
0.17024833 -0.17816848 0.03958845 0.09947866 -0.2517807 -0.2601398 -0.34633476 -0.1671483
-0.100896895 -0.2964966 -0.19084106 -0.2069648 0.3094596 -0.2031619 -0.11461601 -0.0600286
-0.26102903 -0.101964235 0.2558831 -0.012629542 0.17679013 0.08222013 -0.00023686518 -0.09010118
0.26732582 0.2345852 0.35577276 0.22871645 -0.049750432 0.22409596 0.22112541 -0.29023406
-0.10148692 -0.29907563 0.21454185 0.2842215 -0.10322243 -0.097746804 -0.21119075 0.18749268
-0.12136553 0.29438993 -0.10506046 0.3170375 0.18202545 0.26584074 -0.13127808 -0.006917489
-0.2435413 -0.16467434 0.09292325 0.09938863 0.02284151 0.14257777 -0.060093503 0.15473782
0.055646602 -0.18685994 0.13421358 -0.21054983 -0.21403052 0.096590415 -0.08877378 -0.021394938
0.07463018 0.1906894 0.099294834 -0.26887065 -0.309435 0.26763603 0.3340969 0.13599002

weight_hh_l0 f4 [40, 10]
00000000: 13e9 1bbd 0bb3 3e3e 6626 933d 4f6f 18bd
00000010: 28e3 83be 8e2a 623e 0d45 1e3d b0c8 6abe
00000020: 33fd 31be 1692 a83d 33d5 c13c 3f9a 4f3e
00000030: 0299 793e dadd 00be 84cc 92be 27e4 0cbd
00000040: 73aa a6bd ffda d63b ad17 9abe 3125 a53e
00000050: f709 8b3d 02bd 66be b634 b43e 404f ed3d
00000060: 8192 41be e54a 343e 47c0 b0be cd08 2d3d
00000070: b84c 05bd bb9d 14be b28a 3a3c 8c2e 98be
00000080: 7f0a af3d dfde bebd 31a8 b93d 6983 053e
00000090: ac39 5bbe 1324 813e 83cf b43d 5e66 48be
000000a0: c270 403e 3400 523e 79ce 663e 69ef e03b
000000b0: 7d43 90be 11cc a9be 7a89 2ebe d976 8d3e
000000c0: d81f 93bd 544e 633e 6a74 8d3e 6a9a 99be
000000d0: 00b4 52bd 4d63 b3be 7b7b adbc 38fe a0bd
000000e0: 3f44 84be 818b 1ebc d552 92be 5f81 debd
000000f0: 18e5 673e e40c 93bc 4767 2fbe 1a07 abbd
00000100: bab3 d7bd 6d34 bbbe 036a 103e 0831 4dbe
00000110: 3f9a 3c3e 80e6 11be 1e40 63bd 8561 82be
00000120: e03f d3bc 8bd2 333e 0c55 45be 8a97 59be
00000130: b840 3e3e 0beb fd3d 761e e33d 5a8d a2be
00000140: d9f0 e63d cb7b 8ebe 8aad 8abd cafa 583c
00000150: 0b7c b43b 4856 2dbc 854a 7e3d ba53 b13e
00000160: 94cf 063e 0ece 20bd 8bc6 913e 31d9 3d3e
00000170: 9bc3 273e de2f a2be 19b2 73be 53b2 91be
00000180: 6dd8 193e 292c 84be 6ff6 53bc fe22 833e
00000190: fd76 74be 6776 a13d bbed 9ebd 279d 4c3d
000001a0: 586b d7bd 5ea3 163e eee3 26be a4c7 6bbd
000001b0: bf81 213d 7d27 223e 6d2b c3be 2e7b 513e
000001c0: abf1 f53c 2c0e 333e d1af 093e 85f5 3fbd
000001d0: d3b6 a2be ad08 3f3e 5991 673e ed68 9e3b
000001e0: a6c8 07bd 14e2 d33d 5939 6c3e ace6 433e
000001f0: d96c 313e f6ad cbbc 8b98 a5be c3e0 c23d
00000200: 3557 fe3c be77 233e 58ff d7be 9542 9ebd
00000210: ccd3 0e3d 065a 233e 039b 1e3e b873 d2bd
00000220: 9f75 053e d800 5abd efd0 903c f05a 8a3e
00000230: 45e3 c6bc 9a49 1f3e 6204 4d3c f640 d0bc
00000240: ab9b dfbd e263 41bd 4e5c 4f3e 59ce aa3d
00000250: 75b3 10be e3a5 213e 27f7 183e 8475 2fbe
00000260: a74a 153d eb94 843d 3ffb f6bd 2b37 983e
00000270: b560 37be 23ab f1bd 4b3a e53d 10a2 b6bd
00000280: 97a1 693e 83bd 39be 4360 863e 70c3 a3bd
00000290: 24ba 3e3e 552c 21be 24ea a2bd 91de 24be
000002a0: d79c 8c3e d28b 673e 0193 bcbd 9cd6 f73d
000002b0: d3da 653e 97c6 df3d 5ff4 e9bd 869e 21be
000002c0: 8e99 703e d9a5 5fbd 6476 babd 27bd 4bbe
000002d0: 6216 88be dc03 893c 9e55 9d3e dbd8 b3be
000002e0: 08f8 9dbd aedd 5ebc 0e56 3e3e f5b7 953e
000002f0: 1d08 403e 5ab5 5abe 2ca9 3fbc f546 0e3e
00000300: 6735 e8bd f6ff aa3c 9e6e 1abe 7d87 113d
00000310: 7da2 893e 4f4e 7f3e c086 c0bc 7d0b d5bd
00000320: 83cf e63b 3b9a 03bd 2a22 3abe e44e 85be
00000330: 5de0 e838 a129 86be 2f38 ac3e 3e8b 643e
00000340: 54f9 55be f783 1e3e 6586 08be 4520 5cbe
00000350: c68c 36be 4fe3 063d 543f 72bd 90da 3cbe
00000360: 2ef0 db3d 8feb 6d3d a41c 7e3e 616a 5abe
00000370: 2923 7b3e 4c62 70be 4786 50be d60b 71be
00000380: b46b 34be fbb7 2c3e 52d8 533e b5d5 aebd
00000390: 84c2 6dbd fdb4 3a3e e93e 86bd 3243 4f3e
000003a0: 5ea9 1d3e cdd3 813e fa07 623e 8b85 813e
000003b0: d163 68bd 307f e4bd d85c be3d be60 fdbd
000003c0: 0620 843e 3862 f43d 3fa3 8b3e 344c 433e
000003d0: fda1 593e c656 8e3e abab 90be 05ef b6bd
000003e0: d896 843e 2e6f 87be 089f 073e a301 883d
000003f0: 46b0 0fbc 7da4 133e ef8d 6d3d ffe7 bd3d
-0.038064074 0.18622987 0.07185058 -0.037215527 -0.25759244 0.22086546 0.03864007 -0.22928119
-0.17381744 0.08230989 0.023661232 0.20273684 0.24374774 -0.1258463 -0.28671658 -0.03439727
-0.08137979 0.006556868 -0.30096188 0.32254937 0.0678901 -0.22533038 0.35196465 0.11587381
-0.18903543 0.17606695 -0.34521696 0.04224472 -0.032543868 -0.14513294 0.011385607 -0.29723012
0.08546924 -0.09319853 0.09065283 0.1303841 -0.21408719 0.25222835 0.08828642 -0.195703
0.18793014 0.2050789 0.225397 0.0068644774 -0.2817649 -0.33163503 -0.1704463 0.27629736
-0.07183808 0.22197849 0.2762788 -0.3000062 -0.051441193 -0.35036698 -0.021177044 -0.078609884
-0.25833318 -0.009676815 -0.2857882 -0.10864519 0.22645986 -0.017950483 -0.17129241 -0.08350964
-0.10532327 -0.36563435 0.1410294 -0.20038235 0.18418215 -0.14248085 -0.05548107 -0.25465026
-0.025787294 0.17560785 -0.19270724 -0.21249214 0.18579376 0.123983465 0.11089794 -0.31748468
0.11276407 -0.27828822 -0.06771381 0.0132433865 0.005507951 -0.010579653 0.062082786 0.3463419
0.13165122 -0.03925901 0.2847179 0.18539883 0.16383211 -0.31677145 -0.23798408 -0.28456363
0.15023966 -0.25814942 -0.012937172 0.25612634 -0.23873515 0.078839116 -0.07760187 0.04995456
-0.10518521 0.14710757 -0.16297886 -0.05756344 0.039430376 0.15835376 -0.3811907 0.20457146
0.030022463 0.17485875 0.13445975 -0.046865005 -0.3178011 0.18655653 0.2261404 0.0048342855
-0.033150338 0.10345855 0.23068751 0.19130963 0.17326678 -0.024863224 -0.32342944 0.09515526
0.031047443 0.15963647 -0.42187 -0.07727543 0.034869954 0.1595231 0.1548882 -0.10275978
0.1303315 -0.05322346 0.017677752 0.27022505 -0.024278292 0.1555542 0.012513252 -0.0254216
-0.10918363 -0.047214396 0.20250055 0.08340139 -0.14130957 0.15785937 0.14938031 -0.17134672
0.036448147 0.06473716 -0.1205964 0.2972959 -0.17907985 -0.1180022 0.11192759 -0.0891763
0.22815548 -0.18138699 0.26245317 -0.07996261 0.18625695 -0.15739568 -0.07954815 -0.16100527
0.2746341 0.22611931 -0.09207726 0.1210148 0.22446756 0.1092655 -0.11423563 -0.15783128
0.23496076 -0.054601524 -0.091046125 -0.19896375 -0.26579577 0.016725473 0.30729383 -0.35126385
-0.07713324 -0.013602657 0.18587515 0.2924191 0.18753095 -0.21358243 -0.011698049 0.13894255
-0.11338311 0.020874005 -0.1508126 0.035529602 0.2688178 0.24932216 -0.023501754 -0.10402582
0.0070437803 -0.032129508 -0.18177095 -0.2603675 0.00011104413 -0.26203635 0.33636615 0.22318742
-0.20895892 0.15480028 -0.13332517 -0.21496685 -0.17827138 0.032931622 -0.059142426 -0.1844275
0.1073917 0.058085974 0.24815613 -0.21329643 0.24525131 -0.23474997 -0.20363723 -0.23539671
-0.1761921 0.16867058 0.20687988 -0.08536855 -0.058046833 0.18233104 -0.06554968 0.20240477
0.1539664 0.25356904 0.22073355 0.25297198 -0.056735817 -0.111570716 0.09295052 -0.12371968
0.25805682 0.11932796 0.27272984 0.19072038 0.212532 0.27800578 -0.28255972 -0.08932308
0.25896335 -0.2645201 0.1324426 0.06640937 -0.008770054 0.14418216 0.057996687 0.09272765

bias_ih_l0 f4 [40]
00000000: 676d 41be 1a45 783e 3a31 1e3e 2998 a0bd
00000010: 77b8 dbbd bfdc 18bc 3dc3 5d3e 466c adbe
00000020: d430 9c3e aace 3b3d 1f8b 55bd 7d1f aa3e
00000030: 30d1 5fbd fd25 173e 3540 8b3e 6641 65be
00000040: 3e32 e7bd dc5a 40bc fc87 2c3e 9d49 ab3d
00000050: e304 a0be 11fc 463d 10b2 943a 2ae7 71bc
00000060: 2704 fb3c 48e9 94bd 0ed3 04bd 6bc5 babd
00000070: 6c15 923d 531b 5fbe bc31 333e 4094 513d
00000080: c39e 05be 3c59 193e cd81 c4bd 0466 f33d
00000090: b4f5 d4ba a23f 593e 3a56 043d 901d b6bd
-0.1888939 0.2424511 0.15448466 -0.07841522 -0.10728543 -0.009329974 0.21656509 -0.3387167
0.30506003 0.045851387 -0.05213463 0.3322715 -0.054642856 0.14760585 0.27197424 -0.22388229
-0.1128888 -0.011740413 0.16848749 0.0836365 -0.31253728 0.048580233 0.0011344571 -0.014764586
0.030641628 -0.07271057 -0.03242784 -0.09119686 0.07132992 -0.21787767 0.17499441 0.051166773
-0.13048844 0.14975446 -0.0959507 0.11884692 -0.0016247542 0.2121568 0.032308795 -0.08892357

bias_hh_l0 f4 [40]
00000000: c189 8e3e f308 53be e722 39be d75b 1cbe
00000010: 8024 3a3e 74f0 3f3d 8ffe 95bd 64ed fc3d
00000020: 40db f93d 9ae8 04be ea18 b83e 702f 3d3d
00000030: d39f 883e 91ad 14bd 6599 5f3a 8ff7 27be
00000040: 20c0 c33d 37c6 963c 5293 203e c419 803e
00000050: 398f 94be ab54 27bd 2ee0 053e 0b8b 3cbe
00000060: 3581 8b3e a8d1 c4bd 8956 52be 82cd 8dbb
00000070: 97f4 243d c710 99be daff 6c3d 337a 96bd
00000080: 0477 1abe f58a 423e 8d9b b93e faef 643e
00000090: edc9 453e 25be 833e 623a 903e a657 71be
0.27839473 -0.20608883 -0.1807972 -0.15269409 0.18177986 0.046860173 -0.07323944 0.12349966
0.12200022 -0.12979355 0.35956508 0.046187818 0.26684436 -0.03629834 0.00085296325 -0.1640303
0.09558129 0.018405063 0.15681198 0.25019658 -0.2901552 -0.04085223 0.13073799 -0.18412416
0.27247015 -0.09610301 -0.20540823 -0.004327477 0.04027232 -0.29895613 0.057861187 -0.073475264
-0.15084463 0.1899832 0.36251488 0.22357169 0.1931531 0.25731006 0.28169543 -0.23568591

weight_ih_l0 f4 [40, 22]
00000000: 7575 e2bc ef3a 81be 32d1 a6bc f3e5 05bd
00000010: 1be2 6c3d 5b06 7cbd e610 f43c 6972 f7bb
00000020: b30d 87bd 2959 983e f47d edbd d142 bb3d
00000030: 822d 98bd ddd8 4a3e 578a f93c 9cdc a23e
00000040: 30f2 2b3d 19b7 123e b3fc 96bd df36 df3d
00000050: b517 b4bd fca1 3dbe 1cf3 8c3e d9fe bd3e
00000060: 3502 4c3e 28fa b83b 88d0 1d3e 778f 6d3d
00000070: 8ca7 c3bd e235 df3c 60eb 463c d0b2 863e
00000080: 0ad8 76be dea4 a53e b263 163e 908e 61be
00000090: 4d6a f63d 6356 f73d ff31 3f3e 93ca 07be
000000a0: 3a34 8cbe c31c c63d 3d98 e3bd 71e5 cbbd
000000b0: f7a5 563e 8cd6 5c3e e6a4 7a3e 9139 4dbc
000000c0: 2247 593e c54c e03d a3a7 48be cbac cc3b
000000d0: 6884 23be cf61 1cbc dfc0 8dbe 1fd3 473b
000000e0: b768 90be ffa0 20be 55d3 aabd fa1d c33d
000000f0: 013f 05be 9837 4a3d df81 e63d 4197 65be
00000100: c37b f53c 1d3d dabb 6588 a83d 3911 743d
00000110: 76c8 3cbe dc50 9f3e a728 f6bd 9274 0abe
00000120: ffbc 74be ff2d 353e 726a 5b3e d3b4 6c3d
00000130: ba7c c1be 0fd6 413c 1d0c a2be cc5a 773e
00000140: 7e4d 2b3c 722d 053c ba52 bbbc ad80 113c
00000150: 6327 a9be e3bf 3a3e 0509 c23e 593c a63e
00000160: 256f a7be e746 14be 0cf6 d03d efe7 2fbe
00000170: 4de9 e53c 3302 9b3e d065 8b3e 1dcd 2e3d
00000180: 7eac 3cbe 6c12 9cbd 0777 6e3e 3699 3fbe
00000190: ac0b bb3d 83f4 8abc f275 303e ddeb a8bd
000001a0: ad81 83be fd49 9d3d dcec af3d 36c3 6bbd
000001b0: d77a 32bd 1d70 9ebe 39fe bf3d ccc0 043e
000001c0: cb18 393e 1d3f b43c b694 5abe 676c 793d
000001d0: bcef 57be afc9 72bc 1acd 67be 0257 253d
000001e0: 733d ad3d f17f 623e 57f3 44bd 3fcd 2d3e
000001f0: 3d74 82bc 5f1b 5bbe 8e37 62be 8c4f 6bbe
00000200: 75b3 8abd 6a67 113e c082 e4bd 879b 6b3e
00000210: 05e4 f3bc 8e30 9bbe a21e 213d 4ac0 95bc
00000220: 96ed 783d 017b 383e fadd 983d eb04 46be
00000230: 155d 1fbe 2cea bb3c fe09 883c db2d 903d
00000240: 0296 aebe c912 0bbe a06e 763d 7793 b43e
00000250: 1c9c 0f3e 1506 16be c41b 4c3e ee0e 533e
00000260: 0a8f 453e 0e12 4fbe 205b 03bd d283 66bb
00000270: a187 4ebe d999 ecbb 5858 cc3d 3a1b 893e
00000280: e070 b0bd 42aa b53c e36a 6dbe 9d09 e93d
00000290: a9f2 be3a 58e6 8fbe 2e9d 64be eebe 06be
000002a0: 3076 86be ca72 4ebe aedb 22be 2b23 563e
000002b0: 9036 40be ac2a 2b3d 136f 5cbe ba78 963d
000002c0: 1cb6 8e3d 9842 8cbe 46b4 99be caf0 933e
000002d0: baa7 89be 945a 5dbe 2065 85be 2cd1 20be
000002e0: f0ab a63e 02ad c0bd 4aee 203e 4f52 ba3e
000002f0: 3236 88be 48bc 463e 88cb 2f3e 0cfc 8e3e
00000300: dbc7 623e aa42 8b3e dbce a5bd 8414 273e
00000310: 9bf9 983e 6875 5a3e 0e00 b9bd b6d2 143e
00000320: 69f4 703d 6e7d 86be 0191 a2be 8576 a4bd
00000330: 3650 a73c 33fc 373e 7be8 23be f8e1 773d
00000340: 3124 0e3e 7e29 1cbe 53f7 1b3e a5a5 e738
00000350: fa11 5dbd 126a 983e 420e 51bd 1d7e 613e
00000360: 6d28 b6bd 2005 19be f2c8 d03d 5174 8dbd
00000370: ac75 883d fbf4 f33c 21cc 9abe 31b6 2bbd
00000380: 53cb 62be 3327 ad3e fc0c 663e 4876 533e
00000390: 1319 dfbd 87eb 8f3e ac65 783e a8d1 ad3e
000003a0: a078 803e ad09 93bd e446 97bd 8180 ca3d
000003b0: 194b 91be 86ad 46bc 667d 8b3e 2d37 8a3e
000003c0: 6fef ae3e a5a8 2e3e 3943 963d bce6 0d3e
000003d0: 759f 1dbe 6b9b d13d 9c1a 71be 8cc8 563c
000003e0: cca4 a6be de51 a9bd 8baa 013e 4ab7 9e3c
000003f0: 832a 43be 390d 183e 07d3 443e e790 553e
-0.027643899 -0.25240275 -0.020363424 -0.03269 0.05783282 -0.0615295 0.029793214 -0.0075514806
-0.0659441 0.29755524 -0.11596289 0.091436036 -0.07430555 0.1980929 0.030461473 0.31808937
0.041979015 0.14327659 -0.07372417 0.10899138 -0.08793584 -0.18518823 0.27529228 0.37108496
0.19922717 0.0056450553 0.1541158 0.057998147 -0.095534414 0.027247373 0.012141079 0.26308298
-0.2410585 0.32352346 0.14686468 -0.2202704 0.12031994 0.12077024 0.18671416 -0.1326087
-0.27383596 0.096734546 -0.111130215 -0.09955872 0.20961748 0.21566218 0.24476966 -0.012525932
0.21218541 0.109521426 -0.19595198 0.0062461845 -0.15968478 -0.009544804 -0.2768621 0.0030490828
-0.2820489 -0.15686415 -0.0834109 0.09527202 -0.13012315 0.049369425 0.1125524 -0.2242098
0.02996624 -0.0066601173 0.0822914 0.059586737 -0.18435845 0.31116378 -0.120194726 -0.1352103
-0.23900221 0.17693327 0.21427324 0.057789635 -0.3779047 0.011830821 -0.31649867 0.2415573
0.010455487 0.008128511 -0.022866596 0.008880776 -0.33037862 0.18237261 0.37897506 0.32467917
-0.32701984 -0.14480172 0.1020318 -0.1717832 0.028065348 0.30275115 0.27226114 0.04267608
-0.18425176 -0.07620701 0.23287593 -0.18710789 0.091330856 -0.016962295 0.17232493 -0.08248112
-0.25684872 0.07680128 0.08590099 -0.057559215 -0.04357418 -0.3094491 0.09374661 0.12964171
0.18075864 0.022002751 -0.21345791 0.060894396 -0.21087545 -0.014818593 -0.22636834 0.04036618
0.08458986 0.22119118 -0.04808363 0.16972826 -0.015924567 -0.2139716 -0.22091505 -0.22979563
-0.0677251 0.14199606 -0.11157751 0.23008548 -0.029771814 -0.30310482 0.039335854 -0.018280167
0.060773455 0.18015672 0.07464214 -0.19337814 -0.15562852 0.02293881 0.016606327 0.07039996
-0.34098822 -0.13581385 0.060164094 0.35268757 0.14024395 -0.14650758 0.19932467 0.20611164
0.19292846 -0.20221731 -0.032069325 -0.0035173786 -0.20168926 -0.0072204885 0.09977788 0.26778585
-0.08615279 0.022175912 -0.23185305 0.11378787 0.0014568168 -0.28105426 -0.22325584 -0.13158771
-0.26262045 -0.20160976 -0.15904114 0.20911853 -0.18770814 0.041788742 -0.21526746 0.073472455
0.06968328 -0.27394557 -0.3002035 0.28894645 -0.26885778 -0.21616584 -0.26053715 -0.15704793
0.32553053 -0.094079986 0.157159 0.3639092 -0.26603848 0.19407761 0.17167485 0.27926672
0.22146551 0.27199298 -0.08096095 0.1631642 0.29877934 0.2133385 -0.090332136 0.14533505
0.058826838 -0.2626757 -0.31751254 -0.08030418 0.02042399 0.179673 -0.16006653 0.060518235
0.13880993 -0.15250203 0.15231065 0.00011045792 -0.053972222 0.29768425 -0.051038988 0.22020765
-0.08894429 -0.14943361 0.10194577 -0.06906951 0.06663069 0.029779902 -0.30233863 -0.0419218
-0.22147875 0.3381897 0.2246589 0.2065059 -0.108934544 0.2810938 0.24257535 0.33949018
0.2509203 -0.0717958 -0.07386568 0.098877914 -0.28377607 -0.012126332 0.2724411 0.2699522
0.34167048 0.1705652 0.073370405 0.1385755 -0.1539286 0.10234722 -0.23545307 0.013109338
-0.32547605 -0.08267568 0.12662713 0.019374508 -0.19059186 0.14848794 0.19221126 0.20856057

weight_hh_l0 f4 [40, 10]
00000000: f727 9f3c 4336 a2bd fc05 a8bd 2f3b 6f3d
00000010: e538 a23d 5aa9 98bd 3e82 b53d 33dc a9bd
00000020: 6cd0 a8be aa21 9ebe 3a7f f43c 6efc b3be
00000030: 8484 973e 4185 bcbd 2db2 a8bd 68f5 99be
00000040: 1263 75be 5fe2 8bbc 53f5 a93d 6225 83bd
00000050: 2468 343d 01ce 6f3e cf80 3abd 37ad 843e
00000060: 9d71 5f3d 901a 12be 77ff 57be e36c a4be
00000070: 6284 59be e734 823d bc7e 10bd 1983 043e
00000080: 0058 253d 9909 413d b0c6 353e b12f 48be
00000090: e759 a83e 00ca 333e 3268 27bd 783b 0f3d
000000a0: 3d24 a5bc 6d62 633d 8637 e1bd 98fa 86bd
000000b0: 0bb3 303e b2c9 87be a0b7 a9bd 95ac aabb
000000c0: da76 21bc b869 283d 702e e3bd 567c 40be
000000d0: 25e0 a039 174d 233e c0b5 763e bfae 15be
000000e0: f4fe 753e 2f3e 283e cdab a13d efca 8b3e
000000f0: 5b96 883e 0565 c5bd 37f4 bebe 1f8f c63e
00000100: 14ac 8cbd 4962 13be 2021 383e 4530 3bbe
00000110: 6677 69be 1e16 1c3e 2c69 f43c 10ca 2bbd
00000120: ec9e 15be 20c1 ea3d 4e98 cd3b d7ba abbe
00000130: eb5b c0bd 8ee6 7f3d 0127 3d3d 824b f13d
00000140: 73e3 20be f04b dabd 8b1c 0a3e 179b abbd
00000150: 33b8 7cbe 5954 353d ae0f a8bd b621 cdbc
00000160: de10 7fbd dfd4 80bd b22a 52be 2896 9d3b
00000170: abc3 a6be 4aa3 81be 8192 a83e b826 6b3e
00000180: a629 7c3e fc17 bf3c 87c6 82be 8199 c9bc
00000190: 313a 72bd b5f4 b0be a5ab 7fbd 413c 503e
000001a0: d403 963c 706d 893a 98f1 09be 348e f3bd
000001b0: 45a4 adbe 02d6 273d d2ee d1bd b2bd aebe
000001c0: 6a41 723e 40ab 1ebe 2489 33be 1de7 1cbd
000001d0: dfcf 493e 8149 623e f053 13be c668 103e
000001e0: 5517 fb3d b5d7 093e 8aba 88be d94f 4d3e
000001f0: 7465 65be 101b 143d 367f 9ebd a41b a6be
00000200: 0006 11be b939 b53d 1ef8 de3d e91a 283e
00000210: 9203 e7bd 945f 6f3e 2b80 89be 2f6e 8fbe
00000220: db4f 27be 65a6 1a3e c27c 6c3d a9d4 73be
00000230: c19b 343e 82ba 683e 0fd4 383c 5698 ddbd
00000240: 2c7f 103d a868 a83e e289 1e3e 02bc 1cbe
00000250: 67f4 323e 3653 e0bd 26a6 29be 36cc 173e
00000260: 4413 b23d aa2f 903e c77a 52be eda1 41be
00000270: bf70 003d abe8 063e add4 93be 5563 74bd
00000280: 5d7e 3d3e 0239 4b3e d0d6 9ebe 0186 543e
00000290: 8c9a 623e c2b8 60bd e137 923c d1e6 c2be
000002a0: 8422 233e 0a9d 9d3d db4a 86bd 19c2 893a
000002b0: 9975 023d a4b2 093e 722a 04be a334 183d
000002c0: 05ff 81be 0076 9bbd fbfb bebe 158a 6a3e
000002d0: 10e0 a4bd 8ab4 cc3d 47d3 abbd 2384 57be
000002e0: b721 223e a2aa 0c3d 5d02 b83d 73ba 5c3e
000002f0: a4d3 e7bd 3de8 e9bd e0f8 63bd 8213 243e
00000300: 6cc5 2ebd 7d61 593e a4dd cebd aba5 2fbe
00000310: 5eee a43c e872 90be 3044 823e 83b2 c5bb
00000320: 6821 7fbe 262c 92be c40e b1be 3d27 90bc
00000330: bc54 5dbd d187 f43d 3a7d 56be f3ca 1b3e
00000340: c8a1 1cbe 4354 4dbb 0605 a9be 55df 983e
00000350: bf54 fb3c cb14 27be 2cdb 9bbd f0d8 5abe
00000360: f55b 9dbd 3ad1 f4bd 37d7 c23e 9fae 463e
00000370: 6597 e0bd 554f 6c3e 00b0 50be 114f 9d3d
00000380: 9bf9 a2bc c6ec d1bc ef69 843e 1696 943e
00000390: cf60 263e c64a c5bd 4abe e3bd d642 223d
000003a0: 2beb 98bd cc46 ea3d 7290 4a3e c374 85bd
000003b0: 0f07 ac3e b67d 4abe 7ccd 83be 320c 6e3e
000003c0: b067 313e 058b 3ebe 3820 2cbe 447d 233e
000003d0: 1c7e b33d 252f 97bd 7b66 a13d cdef aebc
000003e0: 44e3 523e bc39 973c 4d59 013e e3b2 883e
000003f0: 9522 463e 15af 1b3d 88b6 25be e03f 64be
0.019428236 -0.07920506 -0.082042664 0.05840605 0.07921008 -0.07454176 0.08862732 -0.08293953
-0.32971513 -0.3088506 0.029845823 -0.35153526 0.2959329 -0.09205104 -0.08237109 -0.30070043
-0.23963574 -0.017075716 0.08298745 -0.064036146 0.04404463 0.23418428 -0.045532998 0.25913402
0.05455171 -0.14267945 -0.21093546 -0.32114324 -0.21241906 0.063577466 -0.035277113 0.12940635
0.040367126 0.047128294 0.17751575 -0.19549443 0.3288109 0.17557526 -0.040870853 0.034968823
-0.020158881 0.055513788 -0.109969184 -0.06590766 0.172558 -0.2652107 -0.08286977 -0.0052085617
-0.009854997 0.041116446 -0.110928416 -0.1879743 0.0003068458 0.15947376 0.2409277 -0.14617442
0.24023038 0.16429971 0.078940965 0.27303264 0.26677212 -0.096384086 -0.37295696 0.38781068
-0.06868759 -0.14392962 0.17981386 -0.18280132 -0.22799453 0.15242812 0.029835306 -0.04194075
-0.14611405 0.11462617 0.0062742596 -0.33540985 -0.09392532 0.062475733 0.046179775 0.1178198
-0.15711765 -0.10659015 0.13487451 -0.083791904 -0.24679641 0.044269893 -0.08206116 -0.025040489
-0.062271945 -0.06290602 -0.205241 0.00480916 -0.32571158 -0.25319892 0.32924274 0.22963989
0.24625263 0.023326866 -0.2554209 -0.02460933 -0.059137527 -0.34561697 -0.062419552 0.20335485
0.018312372 0.0010484885 -0.13471067 -0.118923575 -0.3391439 0.040975578 -0.102506295 -0.341291
0.23657766 -0.15495014 -0.17532784 -0.038306344 0.19708203 0.22098352 -0.14387488 0.14102468
0.122603096 0.13461192 -0.26704818 0.2004999 -0.22401983 0.03615862 -0.07739107 -0.32442963
-0.14162445 0.088489 0.10887168 0.16416515 -0.11279978 0.23376304 -0.26855597 -0.2801375
-0.16339056 0.15102537 0.057736166 -0.23811592 0.1763754 0.22727397 0.011281027 -0.108200714
0.03527753 0.32892346 0.15482286 -0.15306094 0.17476045 -0.10953371 -0.16567287 0.14823994
0.08695081 0.28161365 -0.20554648 -0.18909426 0.031357523 0.13174693 -0.28873196 -0.059665043
0.18505235 0.19845966 -0.31023264 0.20754243 0.22129267 -0.0548637 0.01784891 -0.38066724
0.15931135 0.076959684 -0.06557246 0.0010510116 0.03185043 0.13447052 -0.12906817 0.037159573
-0.25389877 -0.07590866 -0.3730162 0.22904237 -0.08050549 0.099953726 -0.08389907 -0.210465
0.15833174 0.034342416 0.08984826 0.215555 -0.11319664 -0.11421249 -0.055657268 0.16023067
-0.042668745 0.21228595 -0.10100868 -0.17153041 0.020133194 -0.28212667 0.25442648 -0.006033243
-0.24915087 -0.28549308 -0.34581578 -0.017596835 -0.054035887 0.119399674 -0.20946208 0.15214138
-0.1529609 -0.0031330741 -0.33011645 0.2985789 0.030680059 -0.16316526 -0.07610163 -0.21371818
-0.07683555 -0.11953969 0.3805482 0.1940255 -0.10966376 0.23077138 -0.20379639 0.07681096
-0.019894412 -0.025625598 0.2586207 0.29020756 0.16247867 -0.096334025 -0.11120279 0.03961452
-0.0746673 0.11439285 0.19781664 -0.06516411 0.33599135 -0.19774517 -0.2574271 0.2324684
0.1732471 -0.18607719 -0.16809165 0.15965754 0.08764288 -0.07382039 0.07880875 -0.02135458
0.20594507 0.018460147 0.12631722 0.2669898 0.1934913 0.038008768 -0.16182911 -0.22289991

bias_ih_l0 f4 [40]
00000000: 417b b9bd e2c3 4fbd 3049 3b3e 74c9 663c
00000010: a1db 93be 5a5e 763d f7a4 f6bc 567d 35be
00000020: 49a4 7d3e 4539 89bb d840 a43e 4a69 24be
00000030: 9ab6 3e3e baba a63d 0b6e 40bd 347d d33d
00000040: 8df0 24be 81ff b23e 7595 3d3e dfa4 10be
00000050: b6d6 a93e cd9b 313e db93 0fbe 3efb eabd
00000060: 97ea b33e a2b4 9ebe 1ceb 4cbe 925e 70bd
00000070: b7e8 723e 0733 593e 40e5 9fbd e17b 43be
00000080: a9e5 c13d 4b24 0fbd 62dc 64be a710 5a3e
00000090: 55bb ea3d dd0e 8b3d 1eab 66be 9853 293d
-0.09056712 -0.050723918 0.18289638 0.014086116 -0.288785 0.060148574 -0.030107958 -0.17723593
0.24769701 -0.0041877353 0.32080722 -0.1605579 0.18624344 0.08141084 -0.046979945 0.10326615
-0.16107388 0.3496056 0.18514045 -0.14125393 0.33171624 0.1734459 -0.14021246 -0.11473702
0.35139915 -0.30997187 -0.20011562 -0.05868394 0.23721586 0.21210872 -0.07807398 -0.19090225
0.09467632 -0.03494672 -0.22349694 0.21295415 0.11461512 0.06789944 -0.22526214 0.041339487

bias_hh_l0 f4 [40]
00000000: b3d9 583e aa7c 753e 28ea 04be 6301 c13e
00000010: 8b68 aeba 57f9 5fbe f6a2 c7bd 0fb7 2c3d
00000020: b92d c03e f0d0 ab3e 99d4 053e 91e5 453d
00000030: 9232 7f3e 4335 0a3e 786a 63be 423f a5bd
00000040: b432 e9bd 6472 873e 2da4 f03c 632a 21be
00000050: 41ad 37be c714 bdbe 62da 003e 434b 1abd
00000060: 376a 983e c922 863d 0a9a 3cbd ad3e 94be
00000070: 8948 82bc dd42 e53d 675c 14be a2c4 ac3e
00000080: 229b 78be c8f3 d63d 8b2e 403e 5b6a b4bd
00000090: 7809 71be 74e9 56be 7150 f4bd ce0e 7cbe
0.21176796 0.23973337 -0.12979949 0.3769637 -0.0013306303 -0.2187246 -0.09747879 0.042166766
0.37534884 0.33557844 0.13069381 0.048314635 0.24921635 0.1349688 -0.22208583 -0.08068706
-0.11386624 0.2645446 0.02937516 -0.15738826 -0.17937185 -0.36929914 0.12583306 -0.03766943
0.29768535 0.065496035 -0.04604534 -0.28954068 -0.015903728 0.11194394 -0.14488374 0.3374377
-0.24277928 0.10495716 0.18767755 -0.08809348 -0.23538768 -0.20987493 -0.119294055 -0.24615023

weight_ih_l0 f4 [40, 22]
00000000: 12b6 b23c 26f2 03bb a94b 42be 7460 993e
00000010: af56 d1bd 2a58 003e 1267 62be e690 9abd
00000020: db78 fa3d 2651 f5bd 0d24 8b3e 1a2e acbd
00000030: ffa3 8c3e 5688 f4bd e66a 2abe 365b 09be
00000040: ab58 903d f117 083e c5f7 9dbe 335c 743d
00000050: 695c c3bb 80f5 e33d a3a7 fdbd c201 02be
00000060: 22c8 963c 1197 ee3d df94 2c3e 1b7c 39be
00000070: 72a7 2f3e f227 9a3d 348e 4ebe 897b 503e
00000080: 8e9f 843d a51b 17be 38ea 20be 69ce 683e
00000090: bbda 3c3d ff71 22be a504 5dbe 057f 353d
000000a0: 26c0 093e 437a 46be c4df 7bbd cd1e 6cbe
000000b0: ae53 0a3d e1aa e63b f5c3 94be 7506 56be
000000c0: 33d5 5f3e 3cc6 adbe fa30 04be 8d51 ba3c
000000d0: 39c2 443e 07d0 573e a187 433d 5b03 863e
000000e0: 86ff ac3c 33bb 593e b09c 2bbe 86ea 24be
000000f0: 1a06 853e 6cd9 2d3e 6512 963e f000 823e
00000100: e127 bb3d 8967 0fbe 82da 813d 5423 af3e
00000110: 433c 99bd 8b31 cb3d afd3 8d3d 87f3 82be
00000120: 0a74 1dbc 4a37 1fbe d3ef 173e 2dce 0cbe
00000130: 7d31 d3bd a1b0 74bd c940 6b3e eb62 983e
00000140: d9ca 88bd c606 6bbe 8409 993d aae6 873d
00000150: e923 ab3d 0ee4 913e 15e6 ea3c f73e b43e
00000160: fc97 e63d e5e0 273c 894a e13d c6ad c2bd
00000170: c221 4e3e 815f 363e 42b9 583e fdbd a6bb
00000180: 8ca8 afbe facd 98bd 08ae 6dbe 73bf 3cbe
00000190: 7b67 7b3e e944 033d a691 f0bc d6ff aabd
000001a0: e94a fb3d 0d53 6dbe 8fb0 a6be f641 c4bd
000001b0: fef8 9cbe ed34 9e3d f70f f23d 906d 483e
000001c0: e206 adbe 3e3c bd3e a364 97be dc9d bebd
000001d0: d2d6 2d3e a897 70be 1247 34be ee53 86be
000001e0: d1bd 7c3d 61c8 f6bd c9a5 c3bd e30b 07be
000001f0: ef82 3bbe 4c9d 01be 3bf8 9fbe b4ba fd3d
00000200: e5a7 26be a977 0c3e 277f 9a3e 1b35 4d3e
00000210: 061d 22bd 9ed4 70be 7b83 e9bd 1c61 aa3e
00000220: 4323 05be 5441 afbd 59dd 6bbe 68bd 8c3e
00000230: 3921 683e 1787 85bd 69a1 dfbc 31d6 cfbd
00000240: 8227 7e3e 25a9 07be e649 6dbe a301 0f3e
00000250: a1f0 3ebe 80c5 94bd 4cf6 93be a56a 913e
00000260: e99c 743d f949 19be beb2 383e f55f 7cbd
00000270: c337 143e 4426 8a3e 44cd 26be 23fa 87be
00000280: b750 acbe 50ca 243e fbaa 863e 7c6f 09bd
00000290: 0f09 87be d4a4 99be a506 e9bd 1dfb 8ebe
000002a0: 287a 1d3e 0797 34be 710d 07be fb0b 0e3e
000002b0: 25a4 95be 29bf 833e c9b9 993e d14d 9a3e
000002c0: 07f0 61bd c76a a33e ac16 43be cad5 523e
000002d0: 6524 f83b 7238 ccbd 3f77 c7bd fd2a 423e
000002e0: c2e7 75be f842 4b3e a5e6 65be 656f 203e
000002f0: a21c 08be 348a 28bc aade 663e e1b3 82bd
00000300: ff63 80be 4f1c cfbc 6202 86be d7c0 933e
00000310: 031f 7dbc 7752 813e 2f60 2c3d 18cf 533d
00000320: 3b57 2dbe 88ff 7c3e d153 85be 882e af3d
00000330: b721 a5bd 377e b53e 4b00 fbbc 7daf 66be
00000340: fe5f 363e b3b3 b53d 6a6f 15be 319d 313d
00000350: 4d93 6cbe 4adc 973e fd68 59be dd75 033d
00000360: 4337 b8be 3b9a 8a3c 8c5c c13e b64a 263e
00000370: b669 a73c 542a a4be 89cd 91bd 5d53 bf3e
00000380: c6b4 b2be c111 803e a8a3 593e 23ea 63be
00000390: 669c a83e fd1e 383e 945d 7dbe 385c 943e
000003a0: 80cb a3bd 37a8 443e 105e 8f3e 21ff 053e
000003b0: 1e39 39be c269 b13e bdfc 12be 8fe3 dabb
000003c0: cf8f 9e3d d246 1ebe 8689 2ebe 8d9f 28be
000003d0: ce04 9bbd 9684 403e eacf c7bc 2086 77be
000003e0: dcf5 1b3d 5dec 8b3d 13cb 393d 471b 3d3e
000003f0: ba87 173e 5fd2 a63d e413 633e a4d9 2f3c
0.021815334 -0.0020133345 -0.18974175 0.299564 -0.10221612 0.12533632 -0.2210963 -0.075471684
0.122300826 -0.119783685 0.27175942 -0.08407231 0.2746887 -0.119400665 -0.16642341 -0.134137
0.07048162 0.13290383 -0.30853096 0.05965824 -0.005961944 0.1113081 -0.1238549 -0.12695983
0.018405978 0.116499074 0.16853665 -0.18113749 0.17153719 0.0752715 -0.20171434 0.20359625
0.06475745 -0.1475664 -0.15714347 0.22734989 0.046107035 -0.15863799 -0.21583803 0.04431059
0.13452205 -0.19382577 -0.061492696 -0.23058625 0.03377121 0.0070394133 -0.29055753 -0.209009
0.21858673 -0.33940303 -0.12909308 0.022743965 0.19214715 0.2107545 0.047736768 0.26174435
0.021117937 0.21262817 -0.1675899 -0.16105089 0.25981218 0.16977471 0.2931091 0.2539134
0.09138466 -0.1400434 0.06340505 0.3420664 -0.07482197 0.09921559 0.06925141 -0.25576422
-0.009610185 -0.15548435 0.1483758 -0.13750525 -0.103121735 -0.05973876 0.22973932 0.29762968
-0.06679315 -0.22951803 0.07472518 0.066357926 0.08356459 0.28494304 0.028674165 0.35204288
0.112594575 0.01024649 0.110005446 -0.09505801 0.20130065 0.1780987 0.2116442 -0.0050885663
-0.3430828 -0.07461162 -0.23210919 -0.18432407 0.24551193 0.03204814 -0.029366326 -0.08349578
0.12270147 -0.23176213 -0.3255658 -0.095828936 -0.30658716 0.077249385 0.11819451 0.19573045
-0.33794314 0.36960024 -0.29568967 -0.09307453 0.16976479 -0.23495352 -0.17605236 -0.26235908
0.06170446 -0.12049938 -0.095531054 -0.13188128 -0.18311666 -0.1265766 -0.31244072 0.123891264
-0.16274984 0.13717522 0.30175135 0.2003979 -0.03957846 -0.23518607 -0.11402031 0.33277214
-0.13001733 -0.08557382 -0.23033656 0.27488256 0.22668923 -0.06519907 -0.027298646 -0.10148276
0.24819759 -0.13248117 -0.23172721 0.13965468 -0.1864648 -0.07264233 -0.28898847 0.28401676
0.059719954 -0.14969625 0.18036935 -0.06161495 0.14474396 0.2698232 -0.1628924 -0.26558027
-0.3365533 0.16092801 0.26302323 -0.033553585 -0.263741 -0.30008566 -0.113782205 -0.2792596
0.1537863 -0.17635737 -0.13188721 0.13871758 -0.29226795 0.2573178 0.30024555 0.30137494
-0.05516055 0.31917402 -0.19051617 0.20589367 0.007572698 -0.099717036 -0.09739541 0.18961711
-0.2401419 0.19849765 -0.22451265 0.15667494 -0.13292173 -0.010286856 0.22545877 -0.063819654
-0.2507629 -0.025282053 -0.26173693 0.28858063 -0.015449288 0.25258228 0.042083915 0.051711172
-0.16927807 0.24706852 -0.2604051 0.08553797 -0.08063071 0.35447857 -0.030639788 -0.22527881
0.17810056 0.088721655 -0.14593282 0.0433628 -0.23103066 0.29660255 -0.21231456 0.032094825
-0.3597966 0.016919246 0.3776592 0.16239437 0.02043615 -0.32063544 -0.07119281 0.3736829
-0.34903544 0.25013545 0.21253836 -0.22257285 0.32931823 0.17980571 -0.24742728 0.28976607
-0.07997799 0.19204794 0.28001451 0.13085605 -0.18088195 0.34651 -0.14354225 -0.006679959
0.07742273 -0.15456703 -0.17044649 -0.16467114 -0.07569276 0.18800578 -0.024391133 -0.24172258
0.038076267 0.06832192 0.045359682 0.18467437 0.1479787 0.08145594 0.22175556 0.010733042
