LSTM/code/model/old_model/model_mk7_150epoch_0.0223trainloss_0.0220validloss.pt (torch, 46468 bytes, 32 tensors)

weight_ih_l0 f4 [40, 22]
000000 3e a8 7e bc de fa 1c 3e 7d f5 aa 3e d7 93 9c be
       -0.015543042 0.15330073 0.33390418 -0.30581543
000010 b6 dd 52 be ba 65 4b bd e8 e0 a9 3e ab cf 72 be
       -0.20592389 -0.04965756 0.33179402 -0.23712032
000020 4f 3f a8 be 28 8e 7f be fc 19 c9 3d 25 7b dd 3d
       -0.328608 -0.24956572 0.09819409 0.108145036
000030 03 73 7d 3d bb fc 63 be cc 51 07 bd 01 3a 53 be
       0.06187726 -0.22264378 -0.033036992 -0.20627595
000040 9c ff 17 3e ad 37 6e 3e 66 13 b9 3d 01 e7 8e 3d
       0.14843601 0.23263426 0.09036903 0.06977654
000050 e3 60 b0 3e 84 2b bd be 18 d9 d0 bb f0 f0 81 be
       0.3444892 -0.36947262 -0.006373536 -0.25379133
000060 f5 81 16 be 77 99 64 3e f2 8b 5d 3e 65 5a a8 3d
       -0.14698012 0.22324167 0.21635416 0.082203664
000070 4b 6d b8 be 7b d3 49 be 63 b0 27 be c7 50 5c 3e
       -0.36020884 -0.1970958 -0.1637588 0.21515189
000080 a5 87 ca bd 57 7e 65 bd a2 9c 3f be e6 78 0b 3e
       -0.098891534 -0.05602869 -0.18712094 0.13620338
000090 8e e9 23 3e 0a ac 7a bd 8a e7 30 be e8 60 b5 bd
       0.16007063 -0.061199225 -0.17275825 -0.08856374
0000a0 4c 44 0b be d7 cd 74 be e0 93 40 3e 24 b5 92 3e
       -0.13600272 -0.23906647 0.1880641 0.28653824
0000b0 a9 03 ad bd 64 08 92 be 67 29 5d be c7 85 5b 3e
       -0.08447964 -0.28522027 -0.21597825 0.21437751
0000c0 0e 07 17 3d de 92 9d be 16 3a a5 be c9 fa aa 3c
       0.036871962 -0.30776113 -0.3227088 0.020871537
0000d0 82 b7 d8 bd d9 0d 5d 3e 12 1c 81 be df 7f 9e bd
       -0.10581876 0.21587314 -0.25216728 -0.07739233
0000e0 2b 75 83 3e ca 0e f4 3d a6 3b 91 be a9 f6 8d 3d
       0.2567533 0.11916883 -0.2836582 0.06931812
0000f0 78 3d d3 3e bb fd b9 bd 7a bf bf be 6f 83 35 be
       0.41257834 -0.09081598 -0.37450773 -0.17725919
000100 82 47 aa bd 99 d8 a7 3e 14 7b 57 bd 11 ad 96 be
       -0.0831442 0.32782438 -0.05260761 -0.29428914
000110 4d da 6a 3e 5d 38 34 3e 99 56 b3 bd 78 5b 75 be
       0.22934838 0.17599626 -0.087567516 -0.23960674
000120 76 f2 03 3d a7 2c 74 bc 7b ab 60 3d a4 8c 2a be
       0.03221365 -0.014903224 0.054851037 -0.16655213
000130 a9 d6 02 be 88 32 ab 3e 51 cf 68 bd 2a f2 72 3e
       -0.12777199 0.3343699 -0.056838337 0.23725191
000140 1f ec 8a 3e 31 50 5c 3e 80 36 75 3d 9f 7d 18 be
       0.2713327 0.21514966 0.05986643 -0.1489167
000150 56 6c 47 bd f6 f8 66 3c cb 0d ae bd 63 6a 3d 3e
       -0.0486873 0.014097443 -0.084987246 0.18497615
000160 6c 1c 09 3e 7a 83 9d be 27 f0 a5 be 87 39 96 3e
       0.13389748 -0.3076437 -0.32409784 0.29340765
000170 a3 14 19 3e 76 66 4d be 06 64 a2 bd 71 28 6f be
       0.14949279 -0.20058617 -0.07929234 -0.23355271
000180 e7 9b 31 be 86 36 69 bd fa d5 d3 3d ff 12 85 bd
       -0.17344628 -0.056936763 0.10343547 -0.06497764
000190 a6 2b a9 3d 7e b4 c0 be c2 0a 0d 3e 00 c5 9b bd
       0.082602784 -0.37637705 0.13773635 -0.07605934
0001a0 37 c6 af bd 5f 1d be be 07 4f 84 be 69 7e 4f 3e
       -0.08582728 -0.37131783 -0.25841543 0.20263065
0001b0 06 ac 58 3c 28 71 c0 bd 15 2f 39 be e2 8a 26 be
       0.013224607 -0.09396583 -0.18084367 -0.16263917
0001c0 88 dc 17 3e 0e 8a 46 3e 42 d3 db bd ae 76 96 be
       0.1483022 0.19388601 -0.107336536 -0.2938742
0001d0 13 48 2f bd e3 05 55 3e d7 29 e9 bc 2d 55 6d be
       -0.042793345 0.20803027 -0.028462334 -0.23177023
0001e0 f2 45 6b 3e 55 a2 0a be 71 7b 9f be 1b 44 06 be
       0.22975901 -0.13538487 -0.31148866 -0.13111918
0001f0 3f 74 b0 3d c1 10 3d 3d 99 25 8c be 9c 46 7b be
       0.08615922 0.046158556 -0.27372435 -0.24538654
000200 9d 32 49 be 44 a1 2c be 89 61 8e 3e 2a 0b 33 be
       -0.19648214 -0.16858393 0.27808788 -0.17484728
000210 29 01 1c be a8 ab 26 be e8 6d 66 bd 5e c2 bb 3d
       -0.15234818 -0.16276419 -0.05625716 0.09167932
000220 3f 11 73 3e 1f d3 25 be 21 8b 07 3e e6 04 52 be
       0.23737048 -0.16193818 0.13236667 -0.20509681
000230 5b 5b 13 3c d9 11 8a 3e 63 ee 76 be 49 26 2b 3e
       0.008993949 0.26966742 -0.24114375 0.16713823
000240 69 0e a9 3e 94 c3 0f bd 6e cf b6 3d 70 c5 71 be
       0.33018807 -0.035098627 0.08926283 -0.23610473
000250 6c 59 5a 3d 93 ec b9 bd e2 21 f8 bd 08 cb 35 3e
       0.053307936 -0.09078326 -0.12115838 0.17753232
000260 27 87 7a 3b b1 03 38 3e 78 bf 25 3e 4b db f1 3d
       0.003822753 0.17970158 0.16186321 0.11809405
000270 f4 44 ca 3e 38 74 33 3e f8 8f 45 be 01 37 92 be
       0.39505732 0.17524803 -0.19293201 -0.2855759
000280 97 2b c5 3e c8 75 89 3a c7 3c 89 be de ef ba 3b
       0.3850982 0.0010487372 -0.26804182 0.005704864
000290 8e 4d 67 be 1d 87 09 be ac 20 55 be ca 45 bc 3d
       -0.22588179 -0.13430448 -0.20813245 0.09192999
0002a0 b7 44 83 3d 4c cb 9b bd 16 85 80 be 2f 53 46 3e
       0.06409591 -0.07607135 -0.25101537 0.1936767
0002b0 48 b0 58 bd a1 6d 6a bd 5e 88 bc bd 88 91 7d be
       -0.05290249 -0.057233457 -0.092056975 -0.24762547
0002c0 aa 65 91 be e3 b2 2f 3e 73 8c 85 be 1d a5 45 3e
       -0.28397876 0.17158084 -0.26083717 0.19301267
0002d0 ef ca 0f 3e ce 60 0d be c5 c6 9e 3b 6c 36 47 be
       0.14042257 -0.1380646 0.0048454725 -0.19454354
0002e0 a4 15 2c be 78 55 9d be 1a f8 95 be 9c 0c e9 bd
       -0.1680513 -0.3072927 -0.2929085 -0.11379358
0002f0 8e 23 1e 3e 6e 1d 7a be 97 cd b1 be e0 6d cf bd
       0.1544325 -0.24425289 -0.34727165 -0.10128379
000300 26 16 b4 be 10 68 cf be d3 90 2a 3e 0c 98 b7 bd
       -0.35173148 -0.4050908 0.16656809 -0.089645475
000310 c6 9b 84 3e 39 0b 13 3e 49 8e 98 be 96 ee d2 bd
       0.25900096 0.1435975 -0.29796055 -0.10299413
000320 ac 17 91 3e 79 6b a1 bd e6 0e 06 be ac bf 62 3e
       0.28338373 -0.07881827 -0.13091621 0.2214343
000330 4e 84 c7 bd d6 90 71 be 50 1b 82 be fa 51 c3 3d
       -0.09742032 -0.23590407 -0.25411463 0.0953712
000340 fa 34 30 3e 7d 36 04 3e 00 e9 f6 3d ee f2 13 be
       0.17207709 0.1291141 0.1205616 -0.14448139
000350 3d 57 64 3e cb f3 2e 3e 3d a7 8f be 11 a4 ef bc
       0.22298904 0.17085187 -0.2805728 -0.029253038
000360 e3 35 8f be 74 26 e8 3d 16 b2 9b 3e b9 af 5b 3e
       -0.279708 0.11335459 0.30409306 0.21453752
000370 64 f1 81 3c 8d c4 0b 3e 43 82 79 3e 2c b2 7b be
       0.015862174 0.13649197 0.24366097 -0.24579686
000380 d4 0c 11 be a5 95 8e be 5d 3c ff bc 47 eb 93 3e
       -0.1416505 -0.27848545 -0.031156713 0.2889044
000390 4e 7b 33 be cd 08 6e be 66 2a ed 3c a8 4e 8c be
       -0.17527506 -0.23245545 0.028950881 -0.2740376
0003a0 61 8f c1 be eb 3e 73 be 70 2c 21 3e 71 f0 46 3e
       -0.37804702 -0.2375447 0.15739608 0.19427659
0003b0 01 f5 0f 3e b6 a3 a6 be 98 3b f6 3d fc 6f 2a be
       0.14058305 -0.32546777 0.12023085 -0.16644281
0003c0 2f e4 75 3e 0b c2 7c 3d a6 dd 82 be 63 dd 3a 3e
       0.24012826 0.06170849 -0.2555973 0.18248515
0003d0 83 e4 6e be 45 df 65 be f3 c5 9c bc 55 f9 43 be
       -0.23329358 -0.22448452 -0.019137358 -0.19138081
0003e0 04 5e b0 3d 9f 94 71 3e d0 e6 1c 3e e6 3c 2f ba
       0.08611682 0.2359185 0.15322423 -0.0006684795
0003f0 4d c2 bd be 82 4c 81 3e ea 4b 89 3e 7a ca 95 bd
       -0.37062302 0.25253683 0.2681573 -0.0731401

weight_hh_l0 f4 [40, 10]
000000 63 f6 30 3e e5 de 1d be 50 91 e8 bc 33 76 3f 3d
       0.17281489 -0.15417059 -0.028389603 0.046743583
000010 95 e5 07 3e 65 17 89 3e 4c 76 14 be f7 3e b8 3c
       0.13271172 0.2677566 -0.14498252 0.022490961
000020 73 af b8 be a1 a5 b0 bd a9 21 82 3e 42 1f e9 bb
       -0.36071357 -0.08625341 0.25416306 -0.007114322
000030 eb b8 ac 3d 9a 5f a7 be f6 b4 8a 3d 46 f6 1a be
       0.08433708 -0.32690126 0.06772797 -0.15133008
000040 e0 e5 52 be 41 47 3b be fd db 2a 3e 3f f8 6e 3d
       -0.20595503 -0.182889 0.16685481 0.058342215
000050 07 81 8a bd 83 38 b2 3e 26 6a a9 3d 81 8e 31 be
       -0.06762891 0.3480874 0.08272199 -0.17339517
000060 85 e0 a1 3d 14 91 96 bd db 23 08 bd 37 33 4a be
       0.07904152 -0.0735189 -0.03323732 -0.197461
000070 25 14 85 3d 3b 8d 53 bd 45 28 6a be 07 48 55 3e
       0.06497983 -0.05164836 -0.22866924 0.20828258
000080 c8 83 41 3c c1 0d 7b be bf 8f 18 bd 44 17 7e be
       0.011811204 -0.24516965 -0.037246462 -0.24813563
000090 bc 4b 87 3e 38 4f 4c 3e b8 13 cb be db 14 86 bc
       0.26424968 0.19952095 -0.39663482 -0.016367367
0000a0 73 30 33 bc 48 55 84 3e dc a9 d0 3e 8e ab 7d be
       -0.010936844 0.25846314 0.40754592 -0.24772474
0000b0 9d 63 f7 3c 5b f0 b4 bd de aa b3 3e 3e 0f b3 3e
       0.030198867 -0.08834907 0.350913 0.34972566
0000c0 2b 45 07 be 29 39 6e 3e d2 3c 69 bd 4b d0 bd bd
       -0.13209979 0.23263992 -0.05694277 -0.09268244
0000d0 06 30 2d 3d 6b b4 86 3e 7f 33 cc bd 12 df e7 bd
       0.042282127 0.26309523 -0.099707596 -0.11321844
0000e0 bc 2b 89 3e a9 30 b5 bd c8 ae 9e bd 3d 42 61 be
       0.2679118 -0.08847172 -0.07748181 -0.21997924
0000f0 e1 58 af bd db 97 b1 3e 50 d5 07 3e b6 6d 2c 3e
       -0.08561874 0.3468617 0.13264966 0.16838726
000100 22 71 23 bd af 2e 8a 3c 55 54 a0 3d 30 0a c6 3d
       -0.039902814 0.016867964 0.07828585 0.09669912
000110 c1 28 41 3d c7 e5 06 be 26 9a 8b bd 7e 18 d8 3d
       0.047158007 -0.1317359 -0.06816511 0.105515465
000120 24 64 94 be ac 7f 4b bc cf 4d 63 bc d8 30 40 3e
       -0.2898265 -0.012420576 -0.0138735315 0.18768632
000130 dc 69 05 3e b1 ca c8 bd b0 88 90 be fa 63 95 be
       0.13028663 -0.09804285 -0.28229284 -0.2917784
000140 96 4c be be de 7e ca 3d 1f d8 06 be c4 25 d0 be
       -0.37167805 0.09887479 -0.13168381 -0.40653813
000150 3e 18 ba 3e 78 93 cd be d7 5c c2 3e d9 6a e9 3e
       0.3634662 -0.40151572 0.37961456 0.4558933
000160 f0 c8 bd 3e a7 d3 23 be 98 b6 8a be 46 d8 98 bd
       0.37067366 -0.15998708 -0.27092433 -0.07463126
000170 43 46 b2 3e 46 7f 19 3e 18 30 a5 3e ef df 9b 3b
       0.3481923 0.14989957 0.32263255 0.0047569196
000180 5c 4e 8d 3e 54 04 9b 3e 48 10 3d 3e 96 6c e5 bd
       0.27598846 0.3027674 0.18463242 -0.11202352
000190 09 fb 5f 3e 8b a7 ed 3d 24 81 38 be dd f9 03 bd
       0.21873106 0.11604222 -0.18018013 -0.03222071
0001a0 17 08 cd bd 01 3f e2 3c 83 15 9e ba 86 fc d9 bd
       -0.10011309 0.027617933 -0.0012060854 -0.10643868
0001b0 02 a6 f2 be c7 db 1f 3c 81 78 b0 bc 4d 48 72 3e
       -0.4739228 0.009756989 -0.021541836 0.23660393
0001c0 97 13 18 bd 39 8c 25 be b7 05 c3 3b d7 e2 a5 be
       -0.037128057 -0.16166772 0.005951609 -0.32399628
0001d0 65 fd 74 3d a5 cb 84 bd f8 0d 3b 3e 26 54 9c 3e
       0.05981197 -0.064841546 0.18267047 0.3053295
0001e0 3b 81 87 be a0 e0 89 3e 50 06 9a bd 62 3a b9 bb
       -0.26465783 0.26929188 -0.07520735 -0.0056527117
0001f0 13 f8 96 3e d7 6f a2 be 97 21 e1 bd 62 ea 37 3c
       0.2948614 -0.31725952 -0.10992735 0.011225315
000200 43 16 3f bd ce 3e 4a bd c5 79 d8 3c 80 57 92 3e
       -0.04665209 -0.0493763 0.026425252 0.28582382
000210 59 e9 87 3d b5 e8 3e 3e 4f 17 6b 3e 87 ba 7c 3e
       0.066363044 0.18643458 0.2295811 0.2468053
000220 63 14 aa 3e da ef 73 be 63 2e dd be e6 f2 ea 3d
       0.3321868 -0.23821965 -0.43199453 0.114721105
000230 f4 6d 63 3d 7a ce 60 be 2d 15 b0 3e 54 75 70 be
       0.05552478 -0.21953765 0.34391156 -0.23482257
000240 51 2c 7f 3e b2 1b 84 be 5b 3f 4a b8 a4 a1 17 3c
       0.24919249 -0.2580238 -4.8219557e-05 0.009254847
000250 b9 f7 7e be f1 ec 31 3e e7 4e 8f be 31 a5 4e be
       -0.24899186 0.17375542 -0.27989885 -0.20180203
000260 32 83 07 be 62 fa 84 3e 05 b9 2e bd b3 e7 86 3e
       -0.13233641 0.25972277 -0.042656917 0.26348647
000270 45 a0 8d be 9f 7a b3 3d 81 7d 9a 3e 2d 0c 5e 3e
       -0.27661338 0.087636225 0.30173877 0.21684332
000280 90 66 13 be 58 b0 a0 3e ae 28 83 3e 30 76 46 be
       -0.14394593 0.3138454 0.25616974 -0.19381022
000290 ae 8c 63 3e df ce 8a be a7 0d 3c be fb d0 91 bd
       0.22221634 -0.27110955 -0.18364583 -0.07119938
0002a0 01 35 31 3e a0 3c 7a be 1b 35 97 3e 47 5e 9a be
       0.17305376 -0.24437189 0.29532704 -0.30150053
0002b0 4a 26 95 be 25 04 3d 3d f1 34 27 be 7c 91 2b 3e
       -0.29130775 0.04614653 -0.1632879 0.16754717
0002c0 54 64 89 3e 70 4a b0 3d 67 9b c0 3e 8f 40 60 bd
       0.26834357 0.08607948 0.37618563 -0.054749068
0002d0 d2 ff 5d 3c 88 7a a7 be 55 59 be 3e 3b 80 b0 be
       0.013549762 -0.3271067 0.3717753 -0.34472832
0002e0 17 93 7f 3e 7f 2c a0 be c4 71 cd 3c b4 a1 2a 3e
       0.24958454 -0.31283948 0.025078662 0.16663247
0002f0 e4 ba 32 be d2 fd 91 3e 32 1e df 3d 94 14 b3 3d
       -0.17454106 0.28513962 0.10894431 0.08744159
000300 ce 5d d9 3b e1 bd 63 3e b1 98 0e 3c b2 88 b3 3d
       0.006633497 0.22240402 0.008703397 0.08766307
000310 2a ae 2d bd 17 1e a5 bd 59 d9 63 be 72 22 82 be
       -0.042402424 -0.0806238 -0.2225088 -0.25416905
000320 1d 81 4b 3e ff 50 6e 3e a4 94 7a be 5b 30 7b 3e
       0.19873472 0.23273085 -0.24470764 0.24530165
000330 69 2b 6f 3e 44 b7 a5 bd 38 bf aa 3e d6 12 56 be
       0.23356403 -0.08091596 0.33349013 -0.20905623
000340 8c cb 96 3e 76 f8 6e be 95 53 86 3e 55 69 e4 3d
       0.2945217 -0.23336968 0.26235643 0.11152903
000350 b6 76 89 3e 6d d3 56 3b c6 24 9e be 9a 8f a0 3e
       0.26848382 0.0032779828 -0.3088743 0.3135956
000360 0d 28 9b be 11 f2 42 3e 00 13 1a be 7c 85 55 3d
       -0.30303994 0.19037654 -0.1504631 0.052129254
000370 b0 c6 12 be 3b 21 58 be c2 dc d1 3b 08 75 7c 3e
       -0.14333606 -0.21106426 0.00640449 0.24654019
000380 9e c8 33 3e 8a 76 be 3d 20 62 1b be 60 a2 ad be
       0.17556998 0.09299953 -0.1517415 -0.33912945
000390 b5 0c d4 bd 85 62 79 be 1e 00 c6 3d 06 7b 98 3d
       -0.10353986 -0.24353988 0.09667991 0.0744534
0003a0 2b 7a 05 3e d4 bd 1d be ca 69 43 be 33 86 96 bd
       0.13034885 -0.15404445 -0.19083324 -0.07349815
0003b0 c3 20 83 ba 23 2c 06 be 86 d7 a0 bd 96 ce 84 be
       -0.0010004271 -0.13102774 -0.07853608 -0.25938863
0003c0 bf 8b 87 be f9 13 d3 3d 80 9a e1 3d 72 4b c1 3d
       -0.26473805 0.10306544 0.11015797 0.09438218
0003d0 9d 60 99 3e 64 b1 b3 be 2b e8 95 3c 52 20 eb bd
       0.29956523 -0.35096276 0.018299183 -0.11480774
0003e0 ea 6a 7e 3e b4 0e 74 3e 87 b3 5b 3e 5a a8 81 3e
       0.24845472 0.23833734 0.21455203 0.25323755
0003f0 7c 5e 30 be 51 31 3f be df 9c 02 3e 17 07 66 3d
       -0.17223543 -0.18671156 0.12755154 0.056159105

bias_ih_l0 f4 [40]
000000 1a f8 68 3e 93 44 ff 3d df e8 9e 3e 41 d7 70 bd
       0.22750893 0.12464251 0.31037042 -0.058799032
000010 45 97 c6 bd 34 93 88 bd 00 99 10 3e 3f c3 8b bd
       -0.09696821 -0.06668702 0.14120865 -0.068243496
000020 53 67 3b 3e 4d 76 0b bd c8 b2 58 bd 0f 7b 49 3e
       0.18301134 -0.034048367 -0.052904874 0.1967585
000030 af 04 60 be 6e f8 a1 3e fb da 64 bd 1b f2 12 3e
       -0.21876787 0.3163485 -0.0558729 0.14350168
000040 5b 2c ac bd 9b dd 56 bb f7 92 3f be c8 97 21 be
       -0.08406898 -0.0032785896 -0.18708406 -0.15780556
000050 0e ca 6e 3d 46 20 39 bd 8f 41 df 3c b6 8e 2e be
       0.058298163 -0.045196794 0.02725294 -0.17046627
000060 08 fd 66 be 23 8a ed bd 31 18 0f 3d 66 38 84 bd
       -0.22557461 -0.11598613 0.03493518 -0.0645607
000070 43 ee 8a 3e 23 a0 2a be 09 13 4f be 91 50 87 3e
       0.27134904 -0.1666265 -0.20222105 0.26428655
000080 a5 cb cd 3d 6a b1 b2 bd 6d e1 fc bd 02 01 73 3d
       0.10048608 -0.08725245 -0.12347684 0.059327133
000090 37 a4 00 be 13 09 93 3d c1 f0 bb bd be 26 f8 bd
       -0.12562643 0.07179465 -0.091767795 -0.121167645

bias_hh_l0 f4 [40]
000000 2e 1d c8 3d 2f 11 a1 bd 38 a0 81 3e 59 f9 a4 3e
       0.097711906 -0.07864606 0.2531755 0.32221487
000010 c0 33 01 be 64 ae 63 be 9e 3e 82 3e 19 c0 a1 3d
       -0.12617397 -0.22234493 0.25438398 0.07897968
000020 93 a8 49 3e 79 ae a1 3e 9a 14 7b be d3 52 1c be
       0.19693212 0.31578425 -0.24519578 -0.1526597
000030 72 aa bc 3d a7 ea ad 3e b8 27 ad 3e b8 e1 99 3d
       0.09212197 0.33968088 0.33819366 0.075137556
000040 84 55 c7 3c b4 24 80 bd 48 db b9 bd b0 d2 b3 3e
       0.02433277 -0.062570006 -0.09075028 0.3512168
000050 73 3c 77 3e c0 03 86 3e 44 1a 6a 3e 71 40 5c be
       0.24144153 0.26174736 0.22861582 -0.21508957
000060 53 75 97 3e 71 17 99 be 9e 65 c5 3e 66 71 6f be
       0.295817 -0.29900697 0.3855409 -0.23383102
000070 04 b7 83 3e 96 ad 80 3d a3 e0 84 3d 4f 1a 1c 3e
       0.25725567 0.06283109 0.064881586 0.15244411
000080 04 c3 9f 3e 04 b8 80 3e 3b 1f 61 be ce 51 c0 3d
       0.31203473 0.25140393 -0.2198457 0.09390603
000090 90 a7 70 3d c7 1f 3f 3d e5 c7 0f 3c 7b 5b 87 3d
       0.05875355 0.046661165 0.008775686 0.066092454

weight_ih_l0 f4 [40, 22]
000000 8f 2f 9a 3e 9d 31 89 3e 3a a3 68 be 3b e1 98 bd
       0.3011441 0.26795664 -0.22718516 -0.07464834
000010 92 b6 6f be db 86 d7 bd 1b d2 e4 bd e5 6a 11 3e
       -0.23409489 -0.105237685 -0.11172887 0.14200933
000020 0d e2 8d be 44 cd 88 bd c4 77 a7 be 40 1e 4f be
       -0.27711526 -0.06679776 -0.3270856 -0.20226383
000030 29 c0 56 be 64 8c 92 be 02 70 a4 be 84 8e b3 3c
       -0.20971741 -0.28622735 -0.32116705 0.021918543
000040 26 6e 1e be 05 4b aa 3d 73 f1 68 3e 31 eb 4b be
       -0.15471706 0.0831509 0.22748356 -0.19913937
000050 68 fa 82 bd 64 e1 77 bd 3a ca ee 3d 1b d6 96 bd
       -0.063954175 -0.060517684 0.116596654 -0.07365056
000060 12 70 a9 be 1a c8 42 3e 24 1d 1c be 28 c7 26 be
       -0.33093315 0.19021645 -0.15245491 -0.1628691
000070 1f 6b aa be 7a 2c 12 3e 1a b0 09 3e a8 19 b0 3e
       -0.33284852 0.14274779 0.13446084 0.34394574
000080 ec 20 8a 3e 3c 6e c7 3d 1e 9a bc bb 9d 03 a8 ba
       0.26978242 0.097378224 -0.005755677 -0.001281846
000090 a2 5a b0 bc f8 59 9e 3e b2 f6 5b be 21 58 3b bd
       -0.021527592 0.30928016 -0.21480826 -0.045738343
0000a0 e0 fd 2f be ae 31 b6 3e a1 43 b7 bb ee 40 b5 bc
       -0.1718669 0.35584778 -0.005592779 -0.022125687
0000b0 54 0c 82 3d b4 de 37 bd 3b 0f 27 be b2 a7 b6 bd
       0.06350008 -0.04489012 -0.16314404 -0.08918704
0000c0 f6 8e 39 3e b8 e3 41 be fc ca 58 3e c7 c8 2d 3c
       0.18120942 -0.18934524 0.21171182 0.010606951
0000d0 07 8b 2c 3d ef ea ae be 70 1c e6 bc c5 d0 60 3e
       0.042124774 -0.34163615 -0.028089732 0.2195464
0000e0 df e1 2d be 6d 91 6c be 2e e6 b3 be 00 af a5 3e
       -0.16980694 -0.2310235 -0.3513655 0.32360077
0000f0 37 b0 b9 3d 20 0e 94 be 31 76 0b be 1d 17 09 3d
       0.090668134 -0.28917027 -0.13619305 0.03346931
000100 64 1d 74 3e 62 ae cb bc 5a e6 71 bd be 28 a5 be
       0.23839337 -0.024863426 -0.05905757 -0.32257646
000110 dc 39 a8 3d e5 05 89 3e 63 8a 81 3e 04 06 99 bd
       0.08214161 0.2676231 0.25300893 -0.074718505
000120 6a e9 76 be bc 82 20 3e c2 61 88 3d be 32 06 be
       -0.24112478 0.15674871 0.06659271 -0.13105294
000130 ab 71 99 3d fc aa 46 3e 3b f1 09 3e 5c 59 f8 3d
       0.074923836 0.19401163 0.13470928 0.12126419
000140 d8 2d 70 3e 75 9e b6 3e 3f 20 a9 3e 3a b6 8b 3e
       0.23454988 0.35667768 0.33032414 0.27287465
000150 f9 c9 6f 3e 41 7b 90 3e c7 66 1c bc b6 d7 94 bd
       0.2341689 0.28219035 -0.009545988 -0.07267706
000160 82 5c 5a be 5b 66 ac bc fb b4 66 be 1c 89 92 bd
       -0.21324351 -0.0210449 -0.22529976 -0.07155058
000170 95 0a 08 3d 5c d1 c9 3d dc 36 a5 bd de e2 3c be
       0.033213217 0.09854385 -0.08067104 -0.18445918
000180 28 31 7f ba 35 af 57 3d 0e c4 06 3d a5 bd 68 3e
       -0.0009734803 0.052657325 0.032901816 0.22728594
000190 f2 b5 96 be 55 50 a1 bc c5 07 70 3e 09 10 09 bd
       -0.29435688 -0.019691626 0.23440464 -0.033462558
0001a0 b0 a5 c9 3e 1f 9b 7d be bf 67 ea 3d ea 42 26 bd
       0.39384222 -0.24766205 0.11445569 -0.040591158
0001b0 31 32 18 be 64 c0 14 bd 29 30 67 be 19 b3 99 3e
       -0.14862897 -0.03631629 -0.22576965 0.30019453
0001c0 a7 3b 5f bc d8 43 2c 3e 11 7e 08 be ba 57 11 3e
       -0.013625062 0.16822755 -0.1332934 0.14193621
0001d0 97 5f 64 be e3 de 68 be 81 2e 88 3d f9 35 92 3e
       -0.2230209 -0.22741275 0.06649495 0.28556803
0001e0 42 2c 0e be 8c a7 f1 3b 8a 57 8f bd 96 a7 21 bd
       -0.1388407 0.0073747095 -0.069991186 -0.039466463
0001f0 fd b9 64 3e ae a0 34 be 35 3e c7 3b 4d 0e 31 3e
       0.22336574 -0.1763942 0.0060804137 0.17290612
000200 a2 f7 77 bd 1e d0 ba 3e d5 5c bc be 43 50 88 3e
       -0.060538895 0.36486906 -0.36789575 0.26623735
000210 e0 2d ac 3e 23 c2 38 3e 47 cd 72 3e 85 79 2d 3e
       0.3362875 0.18042807 0.2371112 0.16940887
000220 a1 8e 5f 3e 4f 12 39 3d df 31 55 b8 c6 08 5e 3e
       0.21831752 0.045183476 -5.0829603e-05 0.21683034
000230 4e b1 ce 3e 6b ca 90 be 94 30 bd 3d 57 d3 13 3d
       0.40369648 -0.28279433 0.09237781 0.03609022
000240 37 30 9b bc bd aa e8 3d e5 3e 92 be 28 ba 96 be
       -0.018943889 0.11360691 -0.2856361 -0.294389
000250 7b c5 22 be 48 ea 77 3e 18 00 53 3e a6 0f 0d 3e
       -0.15895645 0.24210465 0.20605505 0.137755
000260 d1 9d cb 3d 5c 95 59 be 30 d8 55 bd 6b fc 36 be
       0.099422105 -0.21248382 -0.052208126 -0.17869727
000270 98 7b 96 3c 86 71 61 be f6 d6 9d 3e b7 84 34 3e
       0.018369481 -0.22015962 0.30828065 0.17628752
000280 1e c0 6a be 0e 31 53 be c4 58 3a be f6 0a 58 3d
       -0.2292485 -0.20624182 -0.18197924 0.05274483
000290 f3 38 a2 be 22 df ab bd 95 72 a1 be 1a 79 9d be
       -0.31684074 -0.083921686 -0.31532732 -0.30756456
0002a0 f0 b3 aa be 0d 22 65 be b6 3b 14 bd d1 32 ea bd
       -0.33340406 -0.2237627 -0.036189757 -0.11435474
0002b0 72 cf 20 be 85 29 15 3e 8e 71 93 3e da 27 eb bc
       -0.15704134 0.1456662 0.28797573 -0.028705526
0002c0 8d 9b ab 3e 2e b3 2d be c7 24 61 3d 28 d7 05 3e
       0.33517113 -0.16962883 0.054966714 0.13070357
0002d0 d9 d8 86 3d 76 31 d1 3c 20 fd d6 be e4 33 13 3e
       0.06584329 0.02553628 -0.41989994 0.14375263
0002e0 ad f0 1b be 88 56 16 be 14 31 04 be 49 fb 4a 3e
       -0.1522853 -0.14681447 -0.12909347 0.1982242
0002f0 ba c2 aa bd 25 52 e5 3d 28 f9 8b be dd d6 98 3e
       -0.083379224 0.111973085 -0.2733853 0.29851428
000300 16 78 44 3e 29 78 f7 3d 8d 32 31 3e bf f0 87 3e
       0.19186434 0.120834656 0.1730444 0.26550862
000310 72 9a cb 3e 29 a8 a5 3e 3e b8 d5 3c da d5 d6 3d
       0.3976627 0.3235486 0.02608883 0.10490008
000320 00 81 be bd 2a b0 9b 3e 83 a8 36 be 53 c9 7e 3e
       -0.093019485 0.3040784 -0.1783772 0.24881487
000330 3c a9 c1 bc 3c 28 5e 3e 1c 7b 7e 3e 92 d6 00 bd
       -0.023640268 0.21695036 0.2485165 -0.03145463
000340 82 de 8e be 4c 42 72 3d 6b 51 50 3e ab ed 9d be
       -0.27904135 0.059145257 0.20343558 -0.3084539
000350 44 ba 5c 3d 26 c0 25 bd d3 c9 af be f2 0f 6c be
       0.053888574 -0.04046645 -0.34333667 -0.23052958
000360 03 16 0f be a4 7d 05 3e 93 74 84 3e 55 5f 18 be
       -0.1397324 0.1303621 0.2587019 -0.14880116
000370 39 df e9 bd 7a e9 77 bd 16 43 87 3e c4 8e a6 be
       -0.114195295 -0.060525395 0.2641837 -0.32530797
000380 84 77 39 be dc f8 31 3d 88 7b 07 be 3d 49 6d be
       -0.18111998 0.04345022 -0.13230717 -0.2317247
000390 e1 85 e3 3c 28 60 92 bc ac c5 bd bc 60 4f 83 3e
       0.0277738 -0.017868116 -0.023165546 0.25646496
0003a0 b1 04 a8 3e 63 24 8e 3e 5c 16 a6 bd d0 27 4e 3e
       0.3281608 0.27762136 -0.081097335 0.20132375
0003b0 78 af 70 3e 35 d3 82 3e 4b ba 04 be 83 d7 83 3d
       0.23504436 0.25551763 -0.1296169 0.0643759
0003c0 fc 32 b0 bd 79 ed c6 bc e9 24 9b be bf 5b aa 3e
       -0.086034745 -0.024283158 -0.30301598 0.33273122
0003d0 1d 1b b4 be 47 29 d4 3c c0 21 af 3c 2b 66 41 3e
       -0.35176936 0.025898589 0.021378398 0.1888663
0003e0 60 26 92 3d d3 c7 83 3b 65 47 55 be 33 ce 42 bb
       0.07136226 0.0040216236 -0.20828016 -0.0029724955
0003f0 7b fc c3 be d6 7a 48 3e 75 da 10 3e 07 61 ac 3e
       -0.38278565 0.19578108 0.14145835 0.33667776

weight_hh_l0 f4 [40, 10]
000000 9e 87 5f 3e 38 64 10 3d cd bb 8c be 87 54 97 be
       0.21829078 0.035251826 -0.2748703 -0.29556677
000010 a0 58 0a bd 97 21 4a 3e 64 d2 8f be 1c e1 c0 bc
       -0.033775926 0.19739376 -0.28090203 -0.02354484
000020 01 7e 7d 3e ee 10 a2 be 39 a0 a4 be ca 94 1e be
       0.24755098 -0.3165354 -0.3215349 -0.15486446
000030 6f 6f b4 3d 23 0d ea 3c a0 fd 5b be b1 a1 4d be
       0.08810317 0.028570717 -0.21483469 -0.20081212
000040 db 99 41 be d5 76 3e 3d 2e 9c 65 be 1b 26 bb 3e
       -0.18906347 0.046500046 -0.22422859 0.3655251
000050 eb 89 7e 3d 03 da b1 be ae 00 85 be ab 68 4f be
       0.062143248 -0.34736642 -0.2597708 -0.20254771
000060 b2 82 44 be 86 1c 53 be f4 99 9a 3d 62 0a 18 3e
       -0.19190481 -0.2061635 0.075488955 0.1484771
000070 38 5a 91 be 2d 77 26 be 93 8f 31 3e 22 14 86 be
       -0.28389144 -0.162564 0.17339925 -0.26187235
000080 72 95 17 3d ea 30 67 be f3 35 08 be 53 b3 01 bd
       0.037007757 -0.22577253 -0.1330183 -0.031665158
000090 31 5a ed 3e c7 66 95 3e 55 3e 93 bd 8d f3 1c 3d
       0.46357873 0.29179975 -0.07189623 0.038318206
0000a0 22 31 93 be b3 e6 63 3e 8a ab 4b 3e 8f 5f 75 be
       -0.28748423 0.22255974 0.19889656 -0.23962234
0000b0 50 b7 af bc 6c b3 93 be fb 17 31 bc 17 7a ab bd
       -0.021449715 -0.28847826 -0.01080894 -0.08372896
0000c0 6c 6c 67 3e 6f c1 94 bb 66 e9 c9 bd d6 59 16 3e
       0.22599953 -0.0045396606 -0.0985897 0.14682707
0000d0 33 ca cd bd 8a 7d e6 bc 8c 76 b6 bd 04 c6 c3 be
       -0.10048332 -0.028136034 -0.0890933 -0.3823701
0000e0 4d 9d a1 be 79 51 ed bd ac a7 ac 3e a8 9f 29 3e
       -0.31565323 -0.11587805 0.33721673 0.1656481
0000f0 ac e0 38 be 78 b5 a1 3d 55 f1 cf bc 93 a4 8a be
       -0.18054456 0.078959405 -0.02538363 -0.27078685
000100 07 bd 21 be 50 ca bd 3e ac 42 5e 3d ad 7c 36 be
       -0.15794764 0.37068415 0.054262802 -0.17820998
000110 72 98 af bc ec 4d f1 bc e2 07 15 3e f2 83 2c be
       -0.021434996 -0.029456101 0.14553788 -0.16847208
000120 9c 9c 2e 3e 3b 58 9e 3d 5d 63 72 be 3f 54 82 be
       0.17051929 0.077316724 -0.23670717 -0.254549
000130 55 51 8d 3e ea 5a d9 bd 68 49 06 ba ab e6 08 3e
       0.27601114 -0.106130436 -0.0005122633 0.13369243
000140 58 de 2d 3d 1f f9 c5 be 3a 42 74 3d 75 df 26 be
       0.04244837 -0.38666627 0.05963347 -0.1629618
000150 2c f8 64 3d 36 81 9d 3d 7b f6 c2 be 97 0d af 3e
       0.055900738 0.07690661 -0.38078675 0.34190056
000160 ef 3d 38 be 67 5c 28 3e d7 23 01 3e e7 81 01 3e
       -0.17992376 0.16441499 0.12611328 0.1264721
000170 34 99 01 bc 70 a3 96 3d 8f 07 dd bd 19 04 84 be
       -0.007910062 0.07355392 -0.10792457 -0.25784376
000180 34 5f d5 bd 67 0e 91 bb df 2b b2 bd f2 6b a0 3d
       -0.10418549 -0.0044267657 -0.08699774 0.07833089
000190 cc e8 33 3e 57 01 04 bd a1 3d e0 3d ff 9f 88 3e
       0.17569274 -0.03222784 0.10949255 0.26684567
0001a0 f6 77 35 bd 16 f6 f4 bd 3a 12 2d be 16 e9 c4 bc
       -0.044303857 -0.11961 -0.16901484 -0.024036925
0001b0 c6 ab 21 3e 24 ca 8b 3d c4 06 1d 3e 68 a4 ca bd
       0.15788183 0.06825665 0.15334612 -0.09894639
0001c0 1d fe e7 ba 40 2b 45 3e 4f ac f7 bd 6f ed 74 be
       -0.0017699633 0.1925478 -0.12093412 -0.23918699
0001d0 68 ba da 3d e8 51 9e bc 02 29 9c be 63 da 2b 3e
       0.106800854 -0.019326165 -0.30500036 0.16782527
0001e0 26 25 39 be 22 05 52 3d f5 8b e8 3d 96 1a 47 3e
       -0.18080577 0.051274426 0.1135482 0.19443735
0001f0 87 30 b7 be bd d3 9c be 5a 30 f9 bd 9e ed 32 3e
       -0.3577921 -0.30630293 -0.121674255 0.17473456
000200 67 51 1f be 6a 78 fb ba 1f 7b 25 3e 4f 1c a2 3e
       -0.15558396 -0.0019185666 0.16160248 0.31662223
000210 84 48 c3 bd 2f e6 7a bd 0e 07 50 bc 64 9b 95 3e
       -0.09535316 -0.061254676 -0.0126969945 0.29220116
000220 a2 64 0c 3e 31 12 a7 3e 3a 96 8f 3e 19 a9 9b 3e
       0.13710263 0.32631066 0.280443 0.3040245
000230 45 87 69 3e b0 7d 7a 3d 25 6d 12 be 2d b2 53 3e
       0.22805507 0.06115502 -0.14299448 0.20673437
000240 2a 00 2f 3d 69 97 0a bd e0 ab 46 bd 94 78 25 3e
       0.042724766 -0.033835802 -0.048503757 0.16159278
000250 e1 27 b3 be 7d 2a 9a 3e 3b 14 a0 be 8a ee 1c be
       -0.34991363 0.3011054 -0.31265435 -0.1532537
000260 d9 50 c1 be e0 de 98 be 35 e2 3d be 58 ac 30 be
       -0.37756994 -0.2985754 -0.18543322 -0.17253244
000270 de fd 14 3e 2a e4 5f 3e 5b bf 72 bd c2 9e 34 3e
       0.14549968 0.21864381 -0.059264522 0.17638686
000280 e9 1e 59 3d a2 be 16 be ca a1 80 be f7 bf f5 3b
       0.053007994 -0.14721158 -0.25123435 0.0074996906
000290 8d 7b 5c be 1d 0f 87 bd b7 bd 18 be 43 53 8a 3e
       -0.21531506 -0.065946795 -0.1491612 0.2701665
0002a0 0c 08 85 be 19 9e 45 3e f3 a6 c2 be 4d 45 10 3e
       -0.25982702 0.1929859 -0.38017997 0.14088936
0002b0 7a 34 93 be 66 4a c9 bc 0b 6f f5 3c 49 7a dd be
       -0.28750974 -0.024571609 0.029960176 -0.4325736
0002c0 a2 f7 3d be c8 86 34 be 95 c4 8e 3d a6 03 2e bd
       -0.18551496 -0.1762954 0.06971089 -0.04248395
0002d0 47 9e 63 bd 0f 03 97 be 06 0d 95 be 27 5b 8f be
       -0.055570867 -0.2949452 -0.291115 -0.2799923
0002e0 e0 f9 07 be 73 c4 28 3e 34 17 50 be 1e 33 a5 3e
       -0.13278913 0.1648119 -0.20321351 0.32265562
0002f0 89 51 65 be 76 96 ac 3e ff 95 d2 bc 17 52 ad be
       -0.22394384 0.33708543 -0.02570629 -0.33851692
000300 8f 86 45 be 33 0a 71 3e f0 76 9c be a7 7f 01 be
       -0.19289611 0.23539047 -0.30559492 -0.12646352
000310 15 37 69 3e 33 83 cc 3d 27 5e 9d 3c 2b e7 7c 3b
       0.22774918 0.09985962 0.019209934 0.0038589935
000320 4b ed 9d be b6 90 97 3e 6c c8 89 3d c7 50 ad bc
       -0.30845103 0.29602593 0.067276806 -0.021156682
000330 41 33 87 3e f2 39 e0 3d 21 dd 22 3e b7 0e 8e 3c
       0.2640629 0.10948552 0.15904666 0.017341001
000340 94 cc db bc 10 61 e7 bc aa 4b 69 be 89 f6 93 bd
       -0.026830949 -0.028244525 -0.2278277 -0.07224757
000350 da aa 3e be 42 92 1d 3e 27 85 82 3e 64 33 24 3d
       -0.18619862 0.15387824 0.25492212 0.040088072
000360 67 39 22 3e 87 59 80 3e dc d0 56 3e 9e 96 2e 3e
       0.1584221 0.25068304 0.20978111 0.17049643
000370 62 5f c0 3d 0e 08 b1 3e 4f 2e 49 be ec 07 2f be
       0.09393193 0.34576458 -0.19646572 -0.17092866
000380 dc 00 10 be 11 99 df bd 85 97 d6 bd b6 61 2a be
       -0.14062828 -0.10917867 -0.10478119 -0.16638836
000390 0e d9 4d be ac ac f0 3c 00 e5 49 be a1 16 5c be
       -0.20102331 0.029379211 -0.19716263 -0.21493007
0003a0 85 b7 27 3e 1b 4c ac bc 96 b8 87 3e 28 4f 91 be
       0.16378601 -0.021032384 0.26508015 -0.28380704
0003b0 92 14 7f 3e 42 16 5b be ef b9 8f 3e 9b 26 ad 3e
       0.2491019 -0.2139521 0.28071544 0.33818516
0003c0 8e 8a 94 3e 8b ec 20 bb 64 d2 84 bd 4f 6a 54 be
       0.2901196 -0.0024555053 -0.06485441 -0.20743679
0003d0 9c 89 86 be e1 68 e2 3d 33 06 aa 3d 47 a0 dd 3c
       -0.26276863 0.1105516 0.08301964 0.027053965
0003e0 40 02 b0 3c 24 32 82 3e d4 8f 3e 3e 59 64 70 bd
       0.021485448 0.2542888 0.18609554 -0.05868945
0003f0 e8 5d a6 3e 54 e0 fb bc f3 dd 8f 3e 1c 25 9d bd
       0.3249352 -0.030746616 0.2809902 -0.07673094

bias_ih_l0 f4 [40]
000000 6c 9f 63 be 2e f7 13 be d1 3d 6a 3d bb 93 42 bc
       -0.22228783 -0.1444976 0.05718786 -0.011876042
000010 d9 0c 7d 3e 56 a2 0f 3e e4 14 8b be 56 90 ea 3d
       0.24711932 0.1402677 -0.27164376 0.11453311
000020 3c 9f 46 3e 0f 80 61 3d 14 59 f5 3c 85 7b 91 3e
       0.1939668 0.055053767 0.029949702 0.2841455
000030 22 9d a4 bc 7b 09 0e 3e 96 d8 54 3e bf 48 5c 3e
       -0.020094458 0.13870804 0.20785746 0.21512125
000040 2e 8d af 3c e4 9c ad 3d 0b 8b 06 be 76 b9 8c 3e
       0.021429624 0.0847719 -0.13138978 0.27485245
000050 24 f1 f9 3d f4 fd ab be ea 40 54 3d da 52 0c 3c
       0.12204197 -0.33592188 0.05181972 0.008564675
000060 8e 5c 44 be 06 36 81 be cd 58 02 3e 3c 1c 62 3e
       -0.19175932 -0.2523653 0.12729187 0.22081083
000070 7a 6e 72 3e a8 1a 52 3e 0a 3a 41 bd aa 93 b1 3e
       0.23674956 0.20517981 -0.04717449 0.3468297
000080 35 62 3e be 08 1a 0b be 4c 41 af bd ce b6 72 bd
       -0.1859215 -0.13584149 -0.08557376 -0.059256367
000090 6a fc 51 3e af aa 82 3c 45 0e 8c bd 06 0c e5 3e
       0.20506445 0.015950529 -0.06838659 0.44735736

bias_hh_l0 f4 [40]
000000 2b da 8a bd 48 d6 72 3e 0a e7 dc 3d 21 a4 76 bd
       -0.067798935 0.23714554 0.10786255 -0.06021512
000010 1e ca 2c be 5c 90 90 3d 72 db a1 bd 26 b8 37 3e
       -0.16873977 0.07058784 -0.07903184 0.17941341
000020 fb 3e ad 3d d3 07 6e 3e 85 dc 6b 3e 82 d2 a9 3e
       0.08459278 0.23245172 0.2303334 0.33168417
000030 ab cd 80 3d bb 0e 0d be b5 2f 84 3e 32 ed be 3e
       0.06289228 -0.1377515 0.25817648 0.3729034
000040 f5 bf 77 bd 66 d9 85 3d 2d a6 ef bd 11 b0 89 3e
       -0.0604858 0.06535606 -0.117016174 0.2689214
000050 cb 9c 38 3e ff 88 23 be 93 fe 91 be 5f b8 66 be
       0.18028562 -0.15970229 -0.28514537 -0.2253127
000060 1a ce 06 be 80 ba 8f bd 1e 31 d3 3d 78 57 9b 3e
       -0.13164559 -0.07017994 0.10312103 0.3034017
000070 0a 23 0a 3e f2 b8 4a 3e b7 48 7f 3e 84 de 1d be
       0.13489929 0.19797114 0.24930082 -0.15416914
000080 e0 51 37 3e 0d bc e0 bd 2f bf 2c be ec 14 90 3e
       0.17902327 -0.10973368 -0.16869806 0.28140962
000090 ff 56 19 be 38 99 90 3e 43 0d 61 3d 62 e7 86 3e
       -0.14974593 0.28241897 0.054944288 0.26348406

weight_ih_l0 f4 [40, 22]
000000 ee de 4e 3e d4 b7 29 3e 33 fe f0 3d 73 85 98 be
       0.20202228 0.16574031 0.11767235 -0.29789314
000010 31 2d 3e 3e c5 5c a8 be f8 14 64 bd ef a3 79 3e
       0.18571927 -0.32883278 -0.05568406 0.24378942
000020 65 42 91 3c f4 d4 5c bd ce 9c b2 bc 02 23 36 be
       0.017731855 -0.053914025 -0.021803286 -0.17786792
000030 45 38 7f be d1 6b 5e 3e 47 bf c9 3d c1 c1 3f 3e
       -0.24923809 0.21720816 0.098509364 0.18726255
000040 ca a7 8f 3e b7 fc 81 be 9d e8 9a be 18 c8 47 3e
       0.280577 -0.2538812 -0.30255595 0.19509923
000050 73 6c 18 3e 40 80 b2 be 07 23 8d 3e f5 83 ed 3d
       0.1488512 -0.34863472 0.27565786 0.115974344
000060 bd 43 9b 3d 77 3a f1 bd c4 32 6f 3e 62 93 45 3e
       0.075812794 -0.117787294 0.2335921 0.19294503
000070 0d fe da bd b7 4a 06 3d 26 65 da bd 1c d4 13 be
       -0.106929876 0.032786097 -0.10663824 -0.14436382
000080 04 b4 43 be bc 1c 31 be 87 d7 b1 be f1 46 d3 3d
       -0.1911164 -0.17296118 -0.34734747 0.103162654
000090 1a 0c a9 be 9a d9 66 be 21 d9 6d be 09 37 40 bd
       -0.33017045 -0.22543946 -0.2322736 -0.046927486
0000a0 4e d5 5d bb 70 5f a7 be ab 34 35 3e 47 dc 86 3c
       -0.0033849063 -0.3269 0.17695872 0.016462458
0000b0 9c 0e 8a be 7c 68 a8 3e b8 c3 46 3e 6a 2a 21 3d
       -0.2696427 0.32892215 0.19410598 0.03934709
0000c0 5c c3 20 3e ef 6a 44 3e a8 0c b0 bd f9 89 6a 3e
       0.15699524 0.19181417 -0.08596164 0.22904195
0000d0 d0 8c b7 bd 19 57 a4 3e 92 87 8d be 6b 5e 1f be
       -0.08962405 0.320977 -0.27642494 -0.15563361
0000e0 e5 8a 49 3d fd 36 87 3e 7e 4d b6 be b0 56 ce bc
       0.049204726 0.2640914 -0.35605997 -0.02518782
0000f0 6c 28 c3 3e 0e b9 2b be 69 20 5a be 18 2e 29 3e
       0.38116777 -0.16769812 -0.21301426 0.1652149
000100 d9 dd 49 3e d7 8b 0a 3d 4f 45 41 3e 74 76 e5 be
       0.19713534 0.033824768 0.18874095 -0.44816935
000110 e1 e7 36 be 84 d2 4c bd 1b 2b 65 be f5 ca 75 be
       -0.17861892 -0.05000545 -0.22379725 -0.24003203
000120 73 5a 8d be cb 71 98 3d 30 85 69 bd a0 e5 26 3e
       -0.2760807 0.07443579 -0.057011783 0.16298532
000130 ee fc b6 bc 6a b8 23 be 6f e5 48 3e 78 13 18 3d
       -0.022337403 -0.15988317 0.19618772 0.03712794
000140 c1 4d 3f be eb d6 a4 3d 07 5d 05 be 66 f8 75 be
       -0.18682005 0.08048805 -0.13023768 -0.24020538
000150 ad ff f4 3b 43 e0 e2 3e 76 fc 9c 3d da 97 6b 3e
       0.007476768 0.44311723 0.076653406 0.23007146
000160 f8 bb 78 3d 9a e8 35 bd f5 2d 6c 3e 5f fd 2d 3e
       0.060726136 -0.04441128 0.23064406 0.16991185
000170 05 a1 2d be b4 d8 6b be 3e 6b 8a be e2 eb 07 3e
       -0.16955955 -0.23031884 -0.27034944 0.13273576
000180 59 c4 00 bd f9 26 55 3e d3 76 bb bd 84 7e f3 3d
       -0.03143725 0.20815648 -0.09153523 0.11889365
000190 e6 b3 73 3e 76 2d 9f be 46 c0 22 bd b1 7d 5d be
       0.23799095 -0.3108937 -0.039734147 -0.21629979
0001a0 39 a6 61 3e 11 a6 49 3e 65 69 ef bd e3 95 d4 bd
       0.22036065 0.19692256 -0.11690024 -0.10380151
0001b0 78 82 93 3e c8 e4 76 3e b5 e0 ae 3d 03 dd 90 be
       0.28810477 0.2411071 0.08538953 -0.2829362
0001c0 a4 e7 ee 3d 66 5f 2c be 90 5b 06 3e 53 78 7f bd
       0.11665276 -0.16833267 0.13120866 -0.06237061
0001d0 8c b3 79 be 0d 8b c0 bc ab 53 f4 3d 97 c6 2c be
       -0.24384898 -0.023503805 0.11930021 -0.16872631
0001e0 e0 40 80 be 56 db 2f 3e 92 31 11 3e c1 fb 9b bc
       -0.25049496 0.17173514 0.14179066 -0.019040944
0001f0 7c 2c 3d be cb e4 ab bd 3f 7c 39 3d 51 07 db 3c
       -0.18474 -0.08393248 0.045284506 0.026736887
000200 a9 b7 db 3d 20 5d 8a 3e 9e d7 87 3e 49 df 9f 3e
       0.1072839 0.27024174 0.2653169 0.3122504
000210 14 c9 a1 be 08 c3 68 3d ed d5 73 be e0 c1 80 3c
       -0.31598723 0.05682662 -0.23812075 0.015717447
000220 70 04 6a 3d 50 55 9b be 93 83 69 bd 26 39 e6 bc
       0.05713314 -0.30338526 -0.057010245 -0.028103422
000230 d4 5f 3e 3e 2e aa 5c 3e bb 09 9a be 3f 74 91 bd
       0.18591243 0.21549293 -0.3008555 -0.0710225
000240 cd 3b 93 3e 03 e2 7a 3e c0 dc 21 be 63 9e 91 be
       0.28756562 0.24500279 -0.15806866 -0.28441152
000250 cb a7 06 3e 54 7c a0 3e ce a5 5d 3d 7c 5a 9a 3e
       0.13149945 0.31344855 0.0541132 0.3014716
000260 4f 1b 1b be 0e 75 33 be 1f df 11 be e4 3b 68 bd
       -0.15147136 -0.17525122 -0.1424527 -0.05669774
000270 14 14 60 be a2 ea bc 3e 77 43 d3 3d 0b 23 44 be
       -0.21882659 0.3689776 0.10315602 -0.19153993
000280 e3 47 9d be 03 23 4f bd b2 78 43 3e c3 f9 13 3d
       -0.30718908 -0.0505705 0.1908901 0.036126863
000290 be f4 2e be 31 eb 2e bd dc 9d 09 bd 9d 71 6e 3d
       -0.17085549 -0.042704765 -0.033597812 0.05821382
0002a0 52 58 26 3e c9 55 2d bd d3 e0 58 bd 44 19 f7 3c
       0.16244629 -0.04231814 -0.052948784 0.030163415
0002b0 8e 3f 0f 3d c6 01 69 3e 55 a4 75 3d e0 d6 e3 bd
       0.03497272 0.22754583 0.059971172 -0.111249685
0002c0 f3 5b 0e bd 9c ff 82 be 70 ee b2 be c9 82 a9 3e
       -0.03475566 -0.2558564 -0.34947538 0.33107594
0002d0 1a 53 5e 3e 2d 2b 0f be 31 61 04 3c 0e ca 3b be
       0.21711388 -0.13981314 0.008079813 -0.18338796
0002e0 32 8d 8b bd a2 3e 52 3d cf a9 f1 3d 1c 19 2d 3e
       -0.0681404 0.051329263 0.117999665 0.1690411
0002f0 3f 05 eb bc 1b 5d 81 be 7b f2 67 3e 64 32 f1 bd
       -0.028689025 -0.25266346 0.22651093 -0.117771894
000300 49 69 56 3e 14 31 82 be e6 ce 97 bd c4 5e 96 3e
       0.209386 -0.2542807 -0.074125096 0.29369175
000310 07 25 eb 3d 4c 94 a0 3c 53 42 94 3e 04 92 46 3d
       0.11481672 0.019601963 0.2895685 0.048479095
000320 9f 78 df bd 39 81 fd 3d 1a 1d 34 3e c6 20 f2 3d
       -0.109116785 0.12378163 0.17589226 0.11822657
000330 ca 09 93 bc 32 7d 91 3e 44 9b b1 3e e1 dc 73 3c
       -0.017949004 0.2841583 0.3468877 0.014884205
000340 4f c0 19 be e5 c0 10 be 47 bb ae be ad ca 6f 3d
       -0.15014766 -0.14136083 -0.34127256 0.058542896
000350 e8 d7 4f 3e f1 92 1a 3d 52 a0 1d 3c 3c 51 26 be
       0.20297205 0.03773779 0.009620743 -0.16241926
000360 c3 18 68 be 70 b4 9e bd f7 f1 3f be c4 8c 15 3e
       -0.22665696 -0.077492595 -0.18744646 0.14604479
000370 8b 25 1f 3e 0e 7d a0 be 51 e7 87 bd 85 a7 f8 3d
       0.15541665 -0.3134541 -0.06635917 0.12141327
000380 f7 a8 52 be 29 fc bd bd c0 a4 f2 3d b7 91 a6 bd
       -0.20572267 -0.09276611 0.1184783 -0.08133262
000390 a9 91 88 3d a7 15 0d be 56 09 c7 bd cd d0 58 be
       0.066684075 -0.13777791 -0.097185776 -0.21173401
0003a0 b3 85 e9 bd 66 37 82 be e0 d5 0c 3d 30 4e bf bd
       -0.11402454 -0.2543289 0.034383655 -0.09341085
0003b0 18 ed e7 bd 28 fc ec be b2 70 9e 3d 40 82 82 bd
       -0.11324519 -0.4628613 0.07736339 -0.063724995
0003c0 1d 8e ff 3d 4b 10 4d be 47 f4 27 3e df 40 5c be
       0.12478278 -0.20025747 0.16401778 -0.21509121
0003d0 45 d3 b2 be d0 88 7f 3d 24 d6 9b be 30 9c 04 bd
       -0.3492681 0.062386334 -0.30436814 -0.032375515
0003e0 fe 41 e2 3c 14 8b a6 3e ee a1 b3 3d f5 c6 80 3e
       0.027619358 0.32527983 0.0877112 0.25151792
0003f0 05 63 f4 be aa 89 4f ba 01 f7 c8 bd ed 70 7d be
       -0.47731796 -0.0007916937 -0.09812737 -0.24750109

weight_hh_l0 f4 [40, 10]
000000 66 0c 52 3a 96 9a e5 3d 4c e9 f6 3d 44 51 73 3e
       0.0008012712 0.112111256 0.120562166 0.23761469
000010 03 7e 8e be 6f ae a3 bd f3 e8 f1 3d 6f 6f 9d be
       -0.27830514 -0.07992255 0.1181201 -0.3074908
000020 00 7d 25 3e dc ce 4e be 42 06 81 be 7a c6 ba 3e
       0.16160965 -0.20196098 -0.25200087 0.3647955
000030 a0 57 94 3e 51 ad 38 3c 85 6e 95 3e 42 d8 cc bd
       0.28973103 0.011271791 0.29185882 -0.100021854
000040 67 e5 7d 3e 69 39 cb 3d 34 87 b0 be 7f bf 01 3e
       0.24794541 0.099230595 -0.34478152 0.12670706
000050 39 3d 07 3e 8a 81 5c be c1 5e 6d 3e b6 a2 fa be
       0.13206948 -0.2153379 0.23180677 -0.48952264
000060 e8 7e 43 be 1e 68 cb bd 4e f5 73 3e 92 09 6d ba
       -0.1909138 -0.09931968 0.23824045 -0.00090422586
000070 a7 af 7e bd 5a ab 5d be 78 1f 5d 3e ee 5c 36 be
       -0.062179234 -0.21647397 0.21594036 -0.17808887
000080 ff 59 56 3e 25 db 16 3d e0 be 2e bd 90 f2 52 3e
       0.20932768 0.036830086 -0.0426625 0.20600343
000090 ee 79 8a 3e 7a 9e 6c bd 8e a1 c2 be 60 54 86 bd
       0.2704615 -0.057768323 -0.3801388 -0.06559062
0000a0 17 dd 72 bd b7 9b b6 bd b8 e4 aa 3e 3b 7c 05 3e
       -0.05929288 -0.08916419 0.33377624 0.13035671
0000b0 17 19 9e 3e 73 4c 50 be 4c 0d bf 3e c8 0a fa bc
       0.30878517 -0.20341663 0.37314832 -0.030522719
0000c0 fb f2 36 bd 62 3c 34 be f6 d9 e0 bd 92 99 35 3e
       -0.044665318 -0.17601159 -0.10979073 0.17734364
0000d0 39 39 a6 3e 7c a7 74 be 36 97 a3 3e 01 46 7e be
       0.32465532 -0.23892015 0.31951302 -0.24831392
0000e0 08 be 47 bc a9 c9 91 3e 6b aa 97 be 28 fe 13 be
       -0.012191303 0.28474167 -0.29622206 -0.14452422
0000f0 4d 57 2d be 95 3e 23 3e 90 5e ce 3e ba 37 f6 3e
       -0.16927834 0.15941842 0.4030652 0.4808939
000100 b5 8f 8b 3e 5e 06 ee bd 4f 60 72 bd f8 32 1d 3e
       0.27258077 -0.11622308 -0.05917388 0.15351474
000110 55 5a ee 3c d2 2d 3f be 2c db 04 be 97 22 00 bd
       0.029095808 -0.18669823 -0.12974232 -0.031282987
000120 ee 7d 9d 3e 88 64 82 bd 43 2f 21 bd 4e 94 4e 3e
       0.3076014 -0.06366831 -0.039351713 0.20173761
000130 3c 39 a2 3c f9 1e 71 3e 50 17 66 3d fe 62 84 be
       0.019802682 0.23546971 0.056174576 -0.25856775
000140 03 d8 a3 bd 0c e5 53 3e e0 f2 ae 3d 7b 52 6d be
       -0.08000185 0.20692843 0.085424185 -0.23175995
000150 73 f9 07 3e a4 21 8f 3e 74 59 3d 3e f7 6c 85 be
       0.13278751 0.27955353 0.18491155 -0.26059696
000160 87 12 89 3e 7f 2b 33 3e 54 87 ef bd 33 c8 11 3e
       0.26771948 0.17497061 -0.11695734 0.14236526
000170 ed d0 8d 3e e6 fd da 3d 42 e4 82 3e bf ea 59 be
       0.2769846 0.106929585 0.25564772 -0.21280955
000180 2d 5c 70 bd 93 81 e1 3d 1a 49 7b bd cd a3 80 be
       -0.058681656 0.110110424 -0.061349012 -0.2512497
000190 f1 15 31 be 46 8e 71 3e 7f 00 68 3c ec ea 9a 3e
       -0.17293526 0.2358943 0.0141602745 0.30257356
0001a0 a1 c2 d0 3c b6 6f ad 3d 5d 26 5c bd 86 b1 45 3e
       0.025483431 0.08468573 -0.053747524 0.19306001
0001b0 f2 0e 50 bc 9b 78 6e be 63 18 e9 3d 13 47 aa 3d
       -0.012698876 -0.23288195 0.113816045 0.083143376
0001c0 fb 1e 86 bd 80 65 07 be 18 84 58 3e ff f7 52 3d
       -0.06548878 -0.13222313 0.2114414 0.05150604
0001d0 58 7d 00 3e ff 33 11 be 69 cb b6 bd 3c a8 44 be
       0.12547815 -0.14179991 -0.08925516 -0.19204801
0001e0 22 bc 48 3e 58 f4 40 be 4c df 68 be 8c 61 ef be
       0.19603017 -0.1884321 -0.22741431 -0.4675411
0001f0 ae 6a 48 bc 14 17 8f 3e e9 c9 0f 3e 19 2b e1 3d
       -0.012232466 0.27947295 0.14041866 0.10994548
000200 7f 06 84 be 54 05 e9 3d a4 8e 89 be 90 b0 c5 3d
       -0.25786206 0.113779694 -0.2686664 0.09652817
000210 60 8f 6f 3e 64 14 ab be 01 22 88 3e 50 f0 9d 3e
       0.23394537 -0.33413994 0.26588443 0.30847406
000220 c4 59 a1 be e8 3e 92 3d 07 4a 51 be d5 75 24 3e
       -0.31513798 0.07140905 -0.20438395 0.16060574
000230 d1 e0 1f be 51 49 4f 3e 34 ca 35 3e b4 9c 5a bd
       -0.15613104 0.20242812 0.17752916 -0.0533721
000240 0a 7c f5 bd ac e6 6f 3e e0 5e ff bd b5 d5 85 3e
       -0.11986549 0.23427838 -0.12469268 0.26139608
000250 c7 11 ae be dd 5a ac 3d 44 07 6d 3e 37 9a 35 be
       -0.33997938 0.08415768 0.23147303 -0.1773461
000260 ab cb 28 be 73 de 8f bd a6 0e 31 3d c2 f2 0e 3e
       -0.16483943 -0.07024851 0.04322686 0.13959792
000270 a3 66 83 3d fb 92 94 3d 53 0f 5b be b0 34 2b be
       0.06416061 0.07254597 -0.21392564 -0.16719317
000280 83 e4 6f 3e e4 fe 42 3e 0c df a2 3d 90 74 53 3e
       0.23427014 0.19042546 0.07952699 0.20649934
000290 fb e4 9e 3e 58 2f 43 3d 11 2e 58 be 34 46 52 3e
       0.31034073 0.047652572 -0.21111323 0.20534593
0002a0 85 9f 90 3e 7d d1 5a 3e d4 ab fb 3d cf 60 1c be
       0.28246704 0.21368976 0.12288633 -0.15271305
0002b0 55 d1 08 3e 04 e4 34 3c 36 87 cb bc 8c 19 40 bd
       0.13361104 0.011040691 -0.024844747 -0.046899363
0002c0 80 21 ed bd 83 4e bc 3e 8c 82 c4 3d 3f fe a5 bc
       -0.11578655 0.3677865 0.09595212 -0.020262836
0002d0 5d 55 2b bc 8f 88 72 3d e1 4d 78 bd 02 ac c5 bd
       -0.010457364 0.059212264 -0.060621146 -0.096519485
0002e0 71 d5 57 3e 2f a0 6a be 26 2e 62 be bd e9 52 3e
       0.21077515 -0.22912668 -0.22087917 0.20596977
0002f0 0c 64 0b 3e a4 1f 77 3e b3 58 5c be 79 95 2b 3e
       0.13612384 0.24133164 -0.21518211 0.16756238
000300 47 22 fc bd ab 64 2c 3d 16 47 7b 3e b0 21 a0 be
       -0.123112254 0.042088192 0.24538836 -0.31275702
000310 d3 f8 8e be 9c 14 42 3e 90 da 4d 3d 12 53 9e bc
       -0.27924213 0.18953174 0.050257266 -0.01932672
000320 08 ba c3 bc 48 0b cf be 93 26 5e be 18 a2 18 3e
       -0.023892418 -0.40438294 -0.21694402 0.14905584
000330 fa 14 e2 bd 11 87 71 be 24 ed c1 3e cb b6 01 be
       -0.11039157 -0.2358668 0.37876236 -0.12667386
000340 95 56 f4 bd c8 b9 5a be aa 2e e1 bd 41 c5 d1 3e
       -0.11930577 -0.21359932 -0.109952286 0.40970805
000350 27 c2 3d 3e c1 6e 2b be 09 37 e3 bd f7 53 7a 3e
       0.18531094 -0.16741468 -0.110944815 0.24446093
000360 35 77 b0 be 7f 48 31 be f6 5e 7f bd 30 c0 f3 3d
       -0.34465948 -0.17312811 -0.06234642 0.11901891
000370 c9 7d 14 3d d3 e7 80 3e a5 b8 1f be 70 7f 3a 3d
       0.03625277 0.25176868 -0.1559778 0.04553169
000380 f4 b1 b0 3e f7 fd 7f 3e da 24 1f bd 82 66 80 3d
       0.34510767 0.24999224 -0.038853504 0.06269552
000390 1e 83 82 be a4 1b 35 3e 74 9d 0d be 52 6b 8b bd
       -0.2549066 0.17686325 -0.13829595 -0.06807579
0003a0 9f 43 c9 3e f1 63 b9 3e 47 22 03 be 42 2b 8b 3c
       0.39309403 0.36209062 -0.12806045 0.0169884
0003b0 57 a4 1e bd 87 49 46 bd 73 42 d8 3c 7b 95 86 3d
       -0.038730945 -0.048409965 0.026398873 0.0657148
0003c0 50 0e 8a 3e 1f 5c a0 be c8 83 7a 3e 41 da d1 bd
       0.26964045 -0.31320283 0.24464333 -0.10246707
0003d0 88 f6 8d 3e 50 bd 36 be 24 ce 98 be e6 8c 08 3d
       0.2772715 -0.17845654 -0.29844773 0.033337496
0003e0 69 1f 09 be a3 96 73 bd a5 e6 c4 bd 0b da 26 bd
       -0.13390888 -0.05946983 -0.096143045 -0.040735286
0003f0 0b 50 9f be 65 02 d7 3e 43 09 b1 3d 9c 31 8b 3e
       -0.31115755 0.41994014 0.08644345 0.27186286

bias_ih_l0 f4 [40]
000000 36 46 4d 3e 29 13 9f 3e ee c1 76 be 95 d5 b9 3e
       0.20046315 0.31069306 -0.24097416 0.36295763
000010 11 9a 98 3e 0f b5 2c be 44 e2 23 bc 09 dc aa 3e
       0.29805043 -0.16865943 -0.010002676 0.33370999
000020 92 6a a4 3e 77 ae 03 3d 6f d5 6a be 91 99 43 bd
       0.32112557 0.032148805 -0.22932981 -0.047753874
000030 10 f2 76 be be 2a 07 bc 57 8a 01 be 75 5a 10 3e
       -0.24115777 -0.008249937 -0.12650429 0.14097007
000040 4b 47 35 3e f3 be c6 3c 1c 73 81 3e e7 c9 9f 3e
       0.17702977 0.024260974 0.25283134 0.31208727
000050 e5 85 b2 3d e3 c7 3e 3e 0b 97 82 be 54 3d 9f 3e
       0.087169446 0.18630938 -0.25505862 0.31101477
000060 8f 24 d1 3d b6 1d 72 3e 4b d2 1c be 27 fc 43 3e
       0.10212051 0.23644146 -0.15314595 0.19139157
000070 9a 04 28 be b6 d4 ec bd 7b 53 8a 3d 31 e1 3d be
       -0.16408005 -0.11564009 0.06754204 -0.18542935
000080 b5 e9 30 3d 00 8d 29 3e da a2 c7 3d 73 66 a7 3e
       0.04319163 0.16557693 0.09747858 0.3269535
000090 a4 da 00 3f 8f b1 6e 3e cb 62 7f be 78 2e 98 3d
       0.5033362 0.2330992 -0.2494003 0.07430738

bias_hh_l0 f4 [40]
000000 a0 28 08 3e f3 0f 4a be 73 e7 43 be 9a 05 6e bd
       0.13296747 -0.19732647 -0.1913126 -0.05811081
000010 fc c4 69 be 9d 8c 9f 3e 69 83 50 3e 73 f9 06 be
       -0.2282905 0.31161967 0.20362629 -0.13181095
000020 fa 68 a4 3e a1 0c 31 be e3 d1 8e 3e 0f a7 da 3e
       0.3211134 -0.17289974 0.27894506 0.4270558
000030 71 af 8e bc 18 b9 98 bc a3 55 85 3e fb 61 42 3c
       -0.017417641 -0.018642947 0.26041898 0.011864181
000040 e7 ed 72 bd e2 07 86 3e d7 46 e3 bc 27 8f bc 3e
       -0.059308913 0.2617789 -0.02774374 0.36827967
000050 47 e4 6d 3d 51 74 50 3e b0 64 77 3e 4e 57 de 3d
       0.05807903 0.20356871 0.24159503 0.10856496
000060 2b 17 73 3e d9 c9 21 be 48 21 0d 3e 55 73 9e 3e
       0.23739307 -0.15799655 0.13782227 0.30947366
000070 80 f3 88 be 4d 74 89 3e aa 64 d9 3d 38 72 39 3e
       -0.26748276 0.26846543 0.10614903 0.18109977
000080 ee dd e4 bd c4 15 00 bd 4f 97 14 3e b4 4b 67 be
       -0.11175142 -0.031270757 0.14510845 -0.22587472
000090 f1 9e e2 3e dd b7 e8 bd de 8d 38 3e b7 ef 00 be
       0.44261888 -0.11363194 0.18022868 -0.12591444
