LSTM/code/model/old_model/model_mk6_450epoch_0.1184trainloss_0.1890validloss.pt (torch, 46404 bytes, 32 tensors)

weight_ih_l0 f4 [40, 22]
0.12327929 0.00058450527 -0.26205832 0.2335244 -0.031780593 0.21142648 -0.040133704 -0.10602958
-0.14735055 0.12698124 0.0526902 0.29777437 -0.27680334 -0.0011462334 0.099451594 -0.17282705
-0.077371776 -0.16322865 0.19976877 0.29375955 0.10297169 -0.106924064 0.16225755 0.016788816
0.041626018 -0.1450999 -0.114580385 0.27735683 0.2353871 0.16154513 -0.0053787148 0.24545044
0.30436954 0.31343377 -0.15267852 0.17909436 0.18838713 0.04554939 0.15660375 0.2570234
0.14006664 0.019999947 0.1780195 -0.15874447 0.25859475 0.11547587 0.03168114 -0.19271144
0.23265117 0.3221127 0.0082608545 -0.251143 0.27690604 -0.14499193 -0.3767266 -0.24943584
0.13712937 -0.21139759 0.17194651 0.33743948 -0.20379527 0.19892083 -0.26105735 -0.23883934
0.12964998 0.18113627 0.10615234 -0.35247493 -0.0972825 0.16790186 0.24609755 -0.17081693
-0.03596305 0.012700759 0.10075055 0.24785315 -0.230033 0.04791267 -0.26995477 -0.08717423
0.12533614 -0.2381646 0.23650748 -0.3024628 -0.14338395 0.3391394 -0.040966265 -0.05378036
-0.12210911 0.3089047 -0.027610395 -0.028029846 0.22151904 -0.16428816 -0.005212859 0.07811084
-0.33062088 0.041965865 0.19693638 -0.19769824 0.14489843 0.1240624 -0.21062668 0.27526575
0.014473239 -0.0070490004 -0.20529297 -0.12366902 -0.25953773 0.1204646 0.12989907 0.23708718
0.06688 0.22614883 0.09427861 0.14929551 -0.27743748 -0.04414794 -0.14096902 -0.17064396
0.040423047 0.33806095 -0.1859033 -0.1654305 0.15111056 0.15880424 0.11455225 0.046541367
-0.16555676 0.25732166 0.28821856 0.17391492 0.20115724 -0.20923902 -0.06688559 0.028468097
-0.033298686 -0.107515894 0.25492063 0.10072743 -0.060012624 0.27178043 0.05211845 0.11142139
0.05259717 0.0026578463 -0.08683211 0.24570529 -0.028225698 -0.040482823 0.20189844 -0.16703464
-0.03508109 0.13407163 -0.15723456 -0.0900182 -0.12931612 -0.03626899 -0.3446619 -0.28816792
0.27777737 0.16480641 0.13716452 0.115249634 0.116804235 -0.24857211 0.18619198 -0.29964012
0.20446002 -0.07647845 -0.15634245 0.24670164 -0.21944675 0.20713538 -0.03988229 -0.051997375
-0.25549895 -0.29826576 -0.06529686 -0.09568952 -0.22623971 0.17414819 -0.3026433 0.04282642
-0.058363844 -0.21368405 -0.32714385 -0.14459933 0.30841723 -0.25644922 -0.30315775 -0.09578693
-0.15118043 -0.16810885 0.102568254 0.081310235 -0.0156038925 0.24240534 0.2442226 0.072031565
-0.15361573 0.38962382 -0.17059453 0.1225744 0.025128618 -0.068696365 -0.16220704 -0.34554508
0.03774111 0.22198683 -0.092270315 0.189968 0.015183728 0.36630875 0.058647186 0.15389684
-0.38753077 0.38883445 -0.06885183 0.39899468 0.24691258 0.029463587 -0.04444553 0.041720144
0.20645645 -0.056725036 -0.1956296 -0.18587123 -0.10661441 0.07898168 0.19085528 -0.081531934
0.29913884 -0.2940192 0.20139742 -0.18619695 -0.020454336 -0.30884466 -0.19044508 0.38399124
0.17934091 0.23288296 -0.14013053 -0.2729831 0.003194094 0.39316076 0.093184575 -0.1764166
-0.10815352 -0.1351289 0.22201392 0.08780767 -0.30836776 -0.17950827 0.22114806 0.0358293
00000000: da79 fc3d 7c39 193a 822c 86be 0521 6f3e
00000010: 5e2c 02bd 2f80 583e 3d63 24bd 0926 d9bd
00000020: 10e3 16be 5f07 023e aed1 573d e275 983e
00000030: 2bb9 8dbe 363d 96ba 47ad cb3d 93f9 30be
00000040: 1875 9ebd 6925 27be 2f90 4c3e a767 963e
00000050: d2e2 d23d 01fb dabd d826 263e b388 893c
00000060: 0b80 2a3d 1195 14be 1fa9 eabd b701 8e3e
00000070: 5109 713e 166c 253e ee3f b0bb 5c57 7b3e
00000080: 53d6 9b3e 647a a03e c257 1cbe 8364 373e
00000090: 8ee8 403e ff91 3a3d bc5c 203e 9298 833e
000000a0: a16d 0f3e eed6 a33c be4a 363e e98d 22be
000000b0: 8866 843e 9d7e ec3d 15c4 013d 2656 45be
000000c0: 1c3c 6e3e f5eb a43e 8958 073c d195 80be
000000d0: a1c6 8d3e c478 14be 4fe2 c0be 1c6c 7fbe
000000e0: a46b 0c3e 9c78 58be bf12 303e dec4 ac3e
000000f0: b5af 50be e7b1 4b3e 4fa9 85be 4d92 74be
00000100: f7c2 043e c97b 393e 6666 d93d 9877 b4be
00000110: 0c3c c7bd 77ee 2b3e ff00 7c3e a2ea 2ebe
00000120: fe4d 13bd d816 503c 4e56 ce3d 37cd 7d3e
00000130: c58d 6bbe 1340 443d 8337 8abe 6788 b2bd
00000140: 1e58 003e 6ce1 73be 042f 723e 67dc 9abe
00000150: 3ed3 12be aea3 ad3e 3ecc 27bd cb48 5cbd
00000160: 5714 fabd c228 9e3e 322f e2bc d99e e5bc
00000170: e3d5 623e 283b 28be a1d0 aabb 93f8 9f3d
00000180: 2447 a9be 66e4 2b3d b1a9 493e 6871 4abe
00000190: 4160 143e 6d14 fe3d 85ae 57be a2ef 8c3e
000001a0: 2a21 6d3c 4dfb e6bb 5238 52be 2f46 fdbd
000001b0: 21e2 84be 25b6 f63d 4304 053e fbc6 723e
000001c0: 62f8 883d 8f93 673e 2515 c13d ece0 183e
000001d0: 490c 8ebe 78d4 34bd 2f5a 10be 4abd 2ebe
000001e0: a392 253d 5316 ad3e 6f5d 3ebe 9d66 29be
000001f0: babc 1a3e 949d 223e 5f9a ea3d 29a2 3e3d
00000200: b687 29be aabf 833e 6291 933e c116 323e
00000210: 2afc 4d3e c142 56be 50fb 88bd ed35 e93c
00000220: 3464 08bd 4b31 dcbd f584 823e 2f4a ce3d
00000230: cccf 75bd ce26 8b3e 287a 553d e630 e43d
00000240: 2170 573d 432f 2e3b 09d5 b1bd 2b9a 7b3e
00000250: 9439 e7bc 51d1 25bd 77be 4e3e 210b 2bbe
00000260: 30b1 0fbd 134a 093e 1902 21be 765b b8bd
00000270: 726b 04be cb8e 14bd 8677 b0be bf8a 93be
00000280: d638 8e3e 03c3 283e db74 0c3e 0008 ec3d
00000290: 0f37 ef3d b089 7ebe 1ca9 3e3e 6e6a 99be
000002a0: f85d 513e bca0 9cbd 3c18 20be 5b9f 7c3e
000002b0: a6b6 60be 4c1b 543e 9d5b 23bd 33fb 54bd
000002c0: c2d0 82be 4ab6 98be 5cba 85bd def8 c3bd
000002d0: 62ab 67be e753 323e 10f4 9abe c26a 2f3d
000002e0: ed0e 6fbd fecf 5abe 667f a7be d911 14be
000002f0: dde8 9d3e 504d 83be 7e37 9bbe f02b c4bd
00000300: 0bcf 1abe ba24 2cbe 4e0f d23d fb85 a63d
00000310: 78a7 7fbc 1b39 783e 7d15 7a3e 4985 933d
00000320: 714d 1dbe c67c c73e 55b0 2ebe 4908 fb3d
00000330: 88da cd3c aeb0 8cbd 9a19 26be 49eb b0be
00000340: 6c96 1a3d 8450 633e 38f8 bcbd f986 423e
00000350: 2cc5 783c d28c bb3e 0838 703d 2297 1d3e
00000360: 6f6a c6be 4f15 c73e 3002 8dbd 0849 cc3e
00000370: a7d6 7c3e 9f5d f13c 840c 36bd bee2 2a3d
00000380: 5269 533e 8358 68bd 2053 48be 0755 3ebe
00000390: a858 dabd 26c1 a13d 916f 433e 37fa a6bd
000003a0: ba28 993e af89 96be 203b 4e3e 6aaa 3ebe
000003b0: da8f a7bc e320 9ebe 0904 43be 809a c43e
000003c0: 25a5 373e df78 6e3e 617e 0fbe 71c4 8bbe
000003d0: 0154 513b 5e4c c93e 8ed7 be3d 8ea6 34be
000003e0: 987f ddbd 3b5f 0abe 9e57 633e 82d4 b33d
000003f0: 61e2 9dbe 04d1 37be a374 623e bec1 123d

weight_hh_l0 f4 [40, 10]
0.089169756 0.33648795 -0.23600641 -0.14138883 0.0063579255 -0.06394691 0.20359991 0.20911022
-0.08623278 -0.25110003 -0.009772758 -0.0630814 -0.1952408 0.14341453 -0.21428084 0.1071348
-0.35338822 -0.36666086 -0.14960532 0.13151325 -0.012762074 -0.19327205 0.19703482 -0.11590475
0.32665575 -0.20526533 -0.03498098 -0.24838053 0.07005658 -0.059685316 -0.24838267 0.16496637
0.25990015 -0.10111984 -0.15228762 0.17720206 -0.30173457 0.17896494 0.17996316 -0.18285362
-0.22756086 -0.060699705 0.25172272 -0.28709334 0.30759665 0.04195475 -0.23837355 -0.19125035
-0.12801675 -0.08958299 0.22626002 0.28338918 0.20187154 0.22701585 0.38234326 -0.03509244
0.06454032 0.18743761 0.075948924 -0.2391223 0.34308457 0.14388251 0.086675726 0.2570171
-0.021762647 0.17062001 -0.18513218 -0.058481693 -0.24492306 0.1808583 -0.15860467 -0.19036317
-0.061643586 -0.17836966 -0.13021788 0.10741258 0.07747183 0.13325082 0.19784467 0.08590939
0.13026267 0.20426658 0.29922813 0.10057959 -0.15029272 0.05513713 -0.06091625 -0.30022997
0.08331633 -0.29779115 -0.115314715 0.014051524 0.22499435 0.1528216 0.07617111 -0.20252179
-0.032715548 -0.17130266 0.018857855 -0.36430514 0.3064428 -0.0918465 0.40563443 0.058031477
0.13769844 0.3739795 -0.10026206 0.06619568 -0.01540444 0.02963227 0.058763146 0.42064908
0.1551112 0.018894555 0.26121914 -0.12460206 -0.07776096 -0.20531721 -0.3933444 -0.014079614
0.2285236 0.13483627 0.37814388 0.110746995 0.20497553 0.36590767 -0.1423446 -0.225793
-0.3891591 -0.167367 0.2108166 0.3973959 0.28722572 -0.3266818 0.07783921 -0.12756659
0.13316299 -0.10908199 -0.42289945 -0.08766459 0.09235588 -0.259001 -0.103323326 0.15887535
0.07317045 -0.0054868534 0.2559396 0.2545493 -0.0045671505 -0.16249079 -0.059127726 0.20219316
0.20905067 -0.004862755 0.32625696 -0.012112789 -0.3510808 -0.08210313 -0.040065434 -0.40795815
0.059461895 0.15636268 -0.05107824 0.102147564 -0.11900663 0.34951496 -0.115225025 -0.048341088
0.09496584 0.008651078 0.1980938 -0.17495307 0.13602681 -0.04432164 0.3824544 0.108212374
0.26022848 -0.028075293 -0.10462478 -0.31807938 0.03692294 0.005936906 0.42760375 -0.20380326
0.29240918 0.123386115 -0.12366897 0.012094483 -0.33953178 0.15146127 0.20081621 0.3076757
0.1428012 -0.16903637 -0.20246895 0.012373517 -0.0897231 -0.034363363 0.110951595 -0.07462343
-0.16878219 0.22131622 0.15887322 -0.0897926 -0.18417113 -0.039095823 0.09080768 0.034368783
0.009869493 0.05152717 -0.3224083 -0.13378891 0.3887863 0.022576218 0.15877287 -0.17713803
-0.009669519 -0.15444057 0.10989107 -0.35471398 -0.089787014 -0.10625517 0.37999243 0.0075246193
0.16225423 0.37172282 -0.09302927 -0.19455473 0.14155501 0.032564517 -0.2123339 -0.0035769632
-0.12647107 0.072806306 -0.004841466 0.22771983 0.0669305 -0.27913767 0.09646151 -0.022503307
-0.28286386 -0.07198315 0.36936 0.11427498 -0.18925697 -0.0818952 -0.057238378 -0.12841026
0.10075488 -0.27580413 0.03472464 -0.12990636 0.33198598 -0.32395554 0.06376974 0.2558527
00000000: a29e b63d 2648 ac3e aaab 71be 3cc8 10be
00000010: 2556 d03b 99f6 82bd 7f7c 503e fd20 563e
00000020: d09a b0bd 2f90 80be eb1d 20bc d230 81bd
00000030: 34ed 47be 42db 123e 706c 5bbe 7d69 db3d
00000040: 4def b4be f9ba bbbe 2332 19be 69ab 063e
00000050: 0518 51bc 1ce9 45be 7fc3 493e 785f edbd
00000060: 6c3f a73e 1331 52be 3748 0fbd 7757 7ebe
00000070: d379 8f3d 9778 74bd 0758 7ebe f2ec 283e
00000080: a211 853e eb17 cfbd 49f1 1bbe 7574 353e
00000090: f47c 9abe 9642 373e 4348 383e fb3d 3bbe
000000a0: b705 69be 41a0 78bd cde1 803e e6fd 92be
000000b0: 4f7d 9d3e bed8 2b3d 3218 74be 22d7 43be
000000c0: d316 03be 4977 b7bd b5b0 673e 6318 913e
000000d0: 6ab7 4e3e d876 683e 7fc2 c33e 17bd 0fbd
000000e0: b72d 843d a5ef 3f3e 1c8b 9b3d 7adc 74be
000000f0: c8a8 af3e f055 133e 0b83 b13d bf97 833e
00000100: 9447 b2bc 03b7 2e3e 4a93 3dbe 808a 6fbd
00000110: 1ccd 7abe eb32 393e 4369 22be 90ee 42be
00000120: fc7d 7cbd 89a6 36be d657 05be 20fb db3d
00000130: 8da9 9e3d e772 083e cb97 4a3e 43f1 af3d
00000140: 9463 053e 422b 513e 6e34 993e acfc cd3d
00000150: 56e6 19be 79d7 613d 5183 79bd beb7 99be
00000160: c1a1 aa3d 1578 98be 1f2a ecbd 5d38 663c
00000170: eb64 663e 447d 1c3e 99ff 9b3d df61 4fbe
00000180: bd00 06bd f769 2fbe ca7b 9a3c 3486 babe
00000190: 12e6 9c3e 051a bcbd 51af cf3e 6ab2 6d3d
000001a0: d200 0d3e 3e7a bf3e 3256 cdbd 9a91 873d
000001b0: e862 7cbc 60bf f23c a0b1 703d 515f d73e
000001c0: 78d5 1e3e c1c8 9a3c 84be 853e 5d2f ffbd
000001d0: 2341 9fbd ad3e 52be 7064 c9be 2eae 66bc
000001e0: 1702 6a3e 8512 0a3e 139c c13e 52cf e23d
000001f0: 1be5 513e 4058 bb3e c8c2 11be 4836 67be
00000200: dd3f c7be 4162 2bbe 4fe0 573e 7a77 cb3e
00000210: 400f 933e d642 a7be 2a6a 9f3d d1a0 02be
00000220: e15b 083e 6166 dfbd 4786 d8be 7e89 b3bd
00000230: 1425 bd3d c79b 84be 2e9b d3bd 38b0 223e
00000240: 64da 953d 10cb b3bb 840a 833e 4954 823e
00000250: 09a8 95bb fc63 26be ea2f 72bd b90b 4f3e
00000260: 6111 563e bf57 9fbb 270b a73e b874 46bc
00000270: ddc0 b3be b025 a8bd a71b 24bd e4df d0be
00000280: 518e 733d 8a1d 203e 6b37 51bd be32 d13d
00000290: bfb9 f3bd a0f3 b23e 19fb ebbd 4e01 46bd
000002a0: 737d c23d 40bd 0d3c 1ad9 4a3e e626 33be
000002b0: 9d4a 0b3e 9c8a 35bd 10d1 c33e 739e dd3d
000002c0: ab3c 853e 28fe e5bc 8445 d6bd 4ddb a2be
000002d0: 823c 173d 618a c23b e1ee da3e cdb1 50be
000002e0: a8b6 953e dcb1 fc3d 2846 fdbd f027 463c
000002f0: 1cd7 adbe aa18 1b3e c4a2 4d3e ab87 9d3e
00000300: 7a3a 123e df17 2dbe 0554 4fbe 4bba 4a3c
00000310: bfc0 b7bd 99c0 0cbd 973a e33d 2bd4 98bd
00000320: 3dd5 2cbe b8a0 623e a9af 223e 2fe5 b7bd
00000330: 5b97 3cbe f122 20bd 60f9 b93d 48c6 0c3d
00000340: a7b3 213c 270e 533d b312 a5be f6ff 08be
00000350: ff0e c73e c3f1 b83c 5b95 223e ac63 35be
00000360: e76c 1ebc ab25 1ebe 920e e13d 129d b5be
00000370: 41e2 b7bd 509c d9bd 5e8e c23e 1591 f63b
00000380: f925 263e 7452 be3e 2186 bebd 5b39 47be
00000390: ccf3 103e 5f62 053d 0f6e 59be 7c6b 6abb
000003a0: a281 01be 791b 953d 29a5 9ebb 632f 693e
000003b0: dc12 893d 22eb 8ebe 9d8d c53d db58 b8bc
000003c0: 88d3 90be e76b 93bd c11c bd3e 0009 ea3d
000003d0: 94cc 41be acb8 a7bd ca72 6abd fb7d 03be
000003e0: 9358 ce3d 3336 8dbe 6d3b 0e3d 2c06 05be
000003f0: 11fa a93e 80dd a5be b699 823d 20ff 823e

bias_ih_l0 f4 [40]
-0.05360054 0.29425684 0.11901658 -0.030541709 0.052778598 -0.17291303 0.15720943 -0.24871817
0.07964148 0.29163837 0.23093806 -0.09013631 0.14414461 0.07176777 0.34340528 0.0927931
-0.023719411 -0.27620643 -0.15613227 -0.018487941 0.16009293 0.27508613 -0.08300882 -0.18726218
-0.032625783 0.16352388 -0.18774036 -0.14581366 -0.32096323 -0.28865358 -0.1820981 -0.046551865
0.27653024 -0.09034687 -0.08714583 -0.23888178 0.0022164555 0.14988375 -0.10449548 0.3525563
00000000: 3d8c 5bbd d5a8 963e f7be f33d 9b32 fabc
00000010: 5f2e 583d 1d10 31be 82fb 203e faaf 7ebe
00000020: 131b a33d a051 953e 077b 6c3e 6399 b8bd
00000030: a59a 133e fbfa 923d d1d2 af3e 4f0a be3d
00000040: 364f c2bc ee6a 8dbe 23e1 1fbe 0674 97bc
00000050: 67ef 233e 17d8 8c3e 8700 aabd a8c1 3fbe
00000060: 9da2 05bd ce72 273e 023f 40be 2d50 15be
00000070: 4b55 a4be 67ca 93be ed77 3abe 2bad 3ebd
00000080: 5f95 8d3e c807 b9bd 8379 b2bd 6d9d 74be
00000090: f441 113b 207b 193e ba01 d6bd 4282 b43e

bias_hh_l0 f4 [40]
-0.032804526 0.11651427 -0.2091554 0.06920225 0.1226359 0.31471032 -0.20338005 0.31448054
-0.12410872 -0.1285211 -0.060663424 -0.010159618 0.3475619 -0.17327094 0.028070496 -0.048908252
0.03349868 0.13969347 0.23376933 0.25680777 0.34256327 -0.12069073 0.26507258 0.07918136
0.004049985 0.33543038 -0.36123693 0.21029761 -0.3253973 0.1490512 0.35716107 -0.04889153
-0.019366376 0.38264394 0.35566413 0.21405602 0.24908642 -0.21771221 -0.047667406 0.12182912
00000000: 0a5e 06bd 099f ee3d d52c 56be e9b9 8d3d
00000010: 8828 fb3d b621 a13e dc42 50be 9803 a13e
00000020: b62c febd 099b 03be 367a 78bd 8774 26bc
00000030: a2f3 b13e f06d 31be 19f4 e53c 0554 48bd
00000040: e935 093d ce0b 0f3e 3a61 6f3e 4f7c 833e
00000050: 7464 af3e b42c f7bd 98b7 873e d629 a23d
00000060: bdb5 843b 88bd ab3e 0cf4 b8be 4258 573e
00000070: 7a9a a6be e1a0 183e d1dd b63e 7c42 48bd
00000080: 3ca6 9ebc e8e9 c33e 9c19 b63e 8031 5b3e
00000090: 8310 7f3e f3ef 5ebe e63e 43bd 8c81 f93d

weight_ih_l0 f4 [40, 22]
0.26719123 0.29389963 -0.23766898 -0.15153065 0.29083407 -0.13067922 -0.13326213 0.24038279
0.22966307 0.2517485 -0.2706727 0.339536 -0.18781489 0.30822638 -0.028134763 -0.14245982
-0.1666694 -0.20507123 0.25212425 0.31913003 0.26474375 0.29184076 -0.1242333 0.10366265
-0.06415815 -0.04854345 -0.15537734 0.03569102 -0.21959344 0.048426103 -0.16449939 0.20114107
0.11055536 0.29348823 -0.24214798 0.23334233 0.13450462 -0.18691835 0.15434597 0.28573152
-0.30142704 0.0025261217 0.23523174 -0.08062091 -0.20413563 -0.1565984 -0.09011788 0.26890683
-0.13535053 0.19551256 0.29701185 -0.13613085 -0.28079918 0.2481487 0.27418375 -0.0684477
0.06121365 0.20149384 -0.08008093 0.34764522 0.0033985118 -0.18879016 -0.20774613 -0.0030947262
0.2658957 0.24346402 0.1282036 0.1292225 0.08852488 0.36666393 -0.25344613 0.058680832
0.10511341 -0.14578047 -0.10580803 0.026725207 0.13864367 0.19750836 -0.15296932 0.34891778
-0.32083648 0.321165 0.30799982 -0.25584677 0.14187036 -0.0005814783 -0.14873575 0.2700213
0.1381925 0.32723552 0.23865382 0.05949254 0.2574969 -0.2818759 -0.2709827 0.21023361
-0.26011366 -0.12226683 0.23659363 0.05497392 0.32336974 -0.24603243 -0.3243332 0.16113524
0.32917094 0.30817366 -0.1778513 -0.27137253 -0.20577258 -0.17586476 -0.057927504 -0.090539776
-0.09611238 -0.14442068 -0.07571951 0.0651835 0.13088366 -0.23158246 -0.21745299 0.28965876
0.2921544 0.17863448 0.20386481 0.24080428 0.063859284 -0.26159912 -0.17846318 0.20496541
0.005523096 0.06640496 0.030323878 0.11365977 -0.18751398 0.1947182 0.17493756 -0.2222894
0.1993157 -0.1380446 0.22760487 0.26076236 -0.117549725 -0.17498088 0.14424485 0.2872091
0.15802833 0.25587147 -0.27426443 -0.2109758 -0.05951386 -0.23604518 0.0043074726 0.3719253
0.29173988 0.0691945 0.061059855 -0.0005128197 0.3489241 0.18622293 0.09013925 -0.17142165
0.31247064 -0.10922375 0.2501025 -0.057918016 -0.20069672 -0.1527925 0.13122037 0.11968119
0.104279 0.16473147 0.22898637 0.0330338 0.0498949 -0.16346459 -0.05457915 0.03793047
-0.19552432 -0.22922894 -0.25912675 -0.102694504 -0.24119605 0.29504982 0.037971728 -0.11705157
0.14241077 -0.19365926 0.038060248 0.11085889 -0.2801698 -0.27574778 -0.34612337 -0.15572955
-0.12199132 -0.33498433 -0.1906854 -0.20519465 0.32241902 -0.20112048 -0.19100225 -0.08875477
-0.2666676 -0.07349582 0.17734878 -0.040500164 0.16964549 0.11071197 -0.07871411 -0.11796449
0.26014605 0.26310074 0.27491492 0.20045379 -0.05246612 0.2525467 0.18310899 -0.31116018
-0.12626575 -0.2534079 0.25540924 0.3000057 -0.110944964 -0.12394228 -0.212902 0.19442306
-0.13076843 0.26998717 -0.104274325 0.32401374 0.17259939 0.24142694 -0.13039456 4.708503e-05
-0.25358394 -0.18913409 0.0910963 0.106414 0.015342711 0.07586944 -0.03029164 0.15488203
0.07589166 -0.20211355 0.12171857 -0.22051263 -0.2022135 0.09752645 -0.09964702 -0.02982774
0.085483536 0.19166651 0.08841921 -0.27730775 -0.29848826 0.26858634 0.32310778 0.12762171
00000000: 4acd 883e 037a 963e 7f5f 73be da2a 1bbe
00000010: 34e8 943e c6d0 05be de75 08be e826 763e
00000020: cc2c 6b3e 2ee5 803e 9d95 8abe aad7 ad3e
00000030: 8c52 40be d9cf 9d3e e07a e6bc fde0 11be
00000040: 62ab 2abe 31fe 51be 6e16 813e 0365 a33e
00000050: 7e8c 873e 276c 953e 076e febd 154d d43d
00000060: 5965 83bd 7fd5 46bd 3d1b 1fbe bf30 123d
00000070: 1add 60be 735a 463d 8772 28be edf7 4d3e
00000080: d96a e23d 1744 963e a4f5 77be 4bf1 6e3e
00000090: 94bb 093e 8667 3fbe df0c 1e3e 674b 923e
000000a0: a554 9abe 4a8d 253b 97e0 703e 931c a5bd
000000b0: ee08 51be 555b 20be b98f b8bd 28ae 893e
000000c0: 5499 0abe 7234 483e f011 983e e365 0bbe
000000d0: e9c4 8fbe b11a 7e3e d061 8c3e 4f2e 8cbd
000000e0: 2abb 7a3d 6754 4e3e 7801 a4bd 8efe b13e
000000f0: 91b9 5e3b 3552 41be 67bb 54be e4d0 4abb
00000100: 7b23 883e a24e 793e ce47 033e e752 043e
00000110: 884c b53d 60bb bb3e b1c3 81be 505b 703d
00000120: b345 d73d 7a47 15be e1b1 d8bd d2ee da3c
00000130: 9bf8 0d3e a23f 4a3e fda3 1cbe 5aa5 b23e
00000140: ae44 a4be bd6f a43e 27b2 9d3e 59fe 82be
00000150: 7746 113e 596e 18ba 2f4e 18be 3b40 8a3e
00000160: 5682 0d3e 6a8b a73e ab61 743e 73ae 733d
00000170: a2d6 833e 0a52 90be 3fbe 8abe 7b47 573e
00000180: 9e2d 85be 0867 fabd 9a45 723e 552c 613d
00000190: b890 a53e edef 7bbe 000f a6be a300 253e
000001a0: 1889 a83e f0c8 9d3e a71e 36be 57f1 8abe
000001b0: 0cb6 52be e415 34be 6445 6dbd eb6c b9bd
000001c0: 91d6 c4bd 04e3 13be d512 9bbd ed7e 853d
000001d0: 5e06 063e f423 6dbe ffab 5ebe 274e 943e
000001e0: 4395 953e f5eb 363e f0c1 503e 6695 763e
000001f0: a8c8 823d 52f0 85be 0dbf 36be 74e2 513e
00000200: 16fb b43b 53ff 873d c869 f83c 74c6 e83d
00000210: aa03 40be 3564 473e d522 333e d59f 63be
00000220: 6a19 4c3e 905b 0dbe 4011 693e a582 853e
00000230: e9bd f0bd 302e 33be ecb4 133e 120d 933e
00000240: 2ed2 213e 9601 833e 636c 8cbe 0a0a 58be
00000250: cec4 73bd d4b5 71be b325 8d3b fe6c be3e
00000260: ee5e 953e d9b5 8d3d e619 7a3d bf6e 06ba
00000270: 2ea6 b23e 39b1 3e3e ed9a b83d 2889 2fbe
00000280: 27fc 9f3e b4b0 dfbd 6f0d 803e 713b 6dbd
00000290: 7183 4dbe a375 1cbe a25e 063e 691b f53d
000002a0: 3a90 d53d 5eaf 283e 677b 6a3e 734e 073d
000002b0: 985e 4c3d 4363 27be 638e 5fbd fb5c 1b3d
000002c0: 8737 48be feba 6abe 43ac 84be 7f51 d2bd
000002d0: 19fc 76be c510 973e 3e88 1b3d bcb8 efbd
000002e0: 21d4 113e 9d4e 46be 10e5 1b3d fc09 e33d
000002f0: 6b72 8fbe d02e 8dbe 1537 b1be 9177 1fbe
00000300: 96d6 f9bd 1183 abbe 0943 43be 8c1e 52be
00000310: 1b14 a53e 87f2 4dbe 1896 43be 10c5 b5bd
00000320: a888 88be fa84 96bd eb9a 353e 80e3 25bd
00000330: 8cb7 2d3e f5bc e23d dd34 a1bd 5e97 f1bd
00000340: dd31 853e 24b5 863e a6c1 8c3e c243 4d3e
00000350: b7e6 56bd cd4d 813e ec80 3b3e 6350 9fbe
00000360: cf4b 01be aebe 81be 00c5 823e 599a 993e
00000370: 1d37 e3bd 73d5 fdbd fb02 5abe d716 473e
00000380: 29e8 05be c23b 8a3e c78d d5bd 21e5 a53e
00000390: e5bd 303e a038 773e 2786 05be 2a7d 4538
000003a0: c1d5 81be 5eac 41be b290 ba3d 95ef d93d
000003b0: fe5f 7b3c 7061 9b3d 2c26 f8bc 6599 1e3e
000003c0: 166d 9b3d dbf6 4ebe 9647 f93d 10ce 61be
000003d0: 0e11 4fbe f3bb c73d bd13 ccbd 4e59 f4bc
000003e0: fe11 af3d 3a44 443e 2115 b53d 48fb 8dbe
000003f0: 74d3 98be 2684 893e 626e a53e 44af 023e

weight_hh_l0 f4 [40, 10]
-0.052136328 0.15629667 0.07985714 -0.048940927 -0.23013502 0.21021406 0.02371548 -0.22308388
-0.18718636 0.108466685 0.01576646 0.20625253 0.2576552 -0.13531782 -0.2670938 -0.043675475
-0.09865159 0.017045034 -0.2944353 0.35781422 0.07649679 -0.23393643 0.35300902 0.12061041
-0.16536964 0.17724422 -0.34070206 0.03131876 -0.03152774 -0.12179094 -0.00065161864 -0.3224514
0.09584532 -0.10762003 0.09868702 0.11712445 -0.22347775 0.25810245 0.07657802 -0.18780987
0.15476382 0.1671129 0.23308647 -0.022562036 -0.27852613 -0.36185488 -0.19630936 0.30278417
-0.11407678 0.21925761 0.26212415 -0.3215739 -0.04548807 -0.3610166 -0.04800859 -0.087627955
-0.2680394 0.0046262294 -0.29565284 -0.11292786 0.20817591 -0.035109464 -0.17889029 -0.091110766
-0.11026711 -0.36934042 0.13129647 -0.18136299 0.1732304 -0.123485535 -0.04849977 -0.2617792
-0.013576229 0.17776291 -0.13235916 -0.21039152 0.1924834 0.1072391 0.12679595 -0.2950895
0.10697575 -0.26149008 -0.050428715 0.0051114312 0.018426523 -0.018262874 0.047767103 0.35905814
0.15666464 0.0001635317 0.24668267 0.12250238 0.21713002 -0.3565298 -0.20380189 -0.32766354
0.1171587 -0.24441555 -0.0059976084 0.33781898 -0.24786428 0.070593774 -0.06746183 0.041923303
-0.07157451 0.1405555 -0.17933722 -0.05047201 0.044895858 0.20096567 -0.37700498 0.21064836
0.027656935 0.17767705 0.15414998 -0.04403818 -0.3277274 0.18631576 0.23438655 0.06647046
-0.058984064 0.036700726 0.2598534 0.16652903 0.23127596 -0.056943297 -0.34327084 0.099636845
-0.013743114 0.18573521 -0.44427457 -0.11787184 0.059979334 0.12904046 0.17318177 -0.13349427
0.10796476 -0.040171795 -0.014077212 0.29284325 -0.06866822 0.10966643 0.027503977 -0.06416041
-0.10189067 -0.08758631 0.16680346 0.12573339 -0.20311329 0.14701445 0.1361004 -0.18861161
0.04333482 0.05442197 -0.15655129 0.28843847 -0.1913176 -0.09915209 0.11195892 -0.084983744
0.21828042 -0.18281701 0.24101959 -0.079167984 0.19120361 -0.15182722 -0.084387004 -0.13660915
0.27830914 0.24952501 -0.07909706 0.12112185 0.23340954 0.11745175 -0.0635548 -0.14971526
0.24591699 -0.07368593 -0.07132782 -0.166922 -0.26982388 0.03816612 0.31944618 -0.35635647
-0.06680038 -0.018343495 0.17544971 0.29915702 0.21161807 -0.17908491 -0.06316901 0.06918648
-0.038649924 -0.029030258 -0.08897102 -0.017860418 0.22002883 0.2721766 0.011075622 0.013650151
0.0016692193 -0.03664878 -0.17601825 -0.26594958 -0.042265054 -0.26915625 0.34608647 0.23206796
-0.22012694 0.11743914 -0.123369776 -0.22287968 -0.17800127 0.036526855 -0.07735327 -0.18421061
0.117284015 0.051507678 0.24543986 -0.22201502 0.24318175 -0.26233763 -0.19670032 -0.23516577
-0.10625235 0.16284531 0.20499854 -0.09717259 -0.06929536 0.23340039 -0.049645465 0.217153
0.14050858 0.27268812 0.20640187 0.2714277 -0.041867763 -0.12306607 0.103187345 -0.13188419
0.24108842 0.09366469 0.28137952 0.17490625 0.2660884 0.2600556 -0.2966177 -0.08251465
0.22691718 -0.24945113 0.13070846 0.05360044 0.0070252665 0.14064755 0.11121978 0.085545264
00000000: e78c 55bd 3c0c 203e 248c a33d 4876 48bd
00000010: 84a8 6bbe 5b42 573e f746 c23c 1a70 64be
00000020: c8ad 3fbe c823 de3d aa28 813c dd33 533e
00000030: 62eb 833e c190 0abe 85c0 88be 0ee5 32bd
00000040: d809 cabd 07a2 8b3c 39c0 96be 6d33 b73e
00000050: 59aa 9c3d 088d 6fbe 99bd b43e 9702 f73d
00000060: a956 29be 827f 353e 8070 aebe 1a48 003d
00000070: 3b23 01bd 876d f9bd 63d1 2aba 5a18 a5be
00000080: 8d4a c43d e467 dcbd 6c1c ca3d f2de ef3d
00000090: 5ad7 64be 0126 843e f0d4 9c3d 3b51 40be
000000a0: 687a 1e3e a51f 2b3e 38ae 6e3e 05d4 b8bc
000000b0: fa9a 8ebe 0b45 b9be 5205 49be 8706 9b3e
000000c0: 16a1 e9bd 1185 603e 2335 863e 56a5 a4be
000000d0: b351 3abd 2bd7 b8be a8a4 44bd 4976 b3bd
000000e0: 763c 89be a097 973b cf5f 97be b946 e7bd
000000f0: 112c 553e f1ce 0fbd 042f 37be 4898 babd
00000100: b9d3 e1bd 301a bdbe 9572 063e 38b7 39be
00000110: 4f63 313e fce5 fcbd b2a7 46bd ec07 86be
00000120: d56e 5ebc 7b07 363e 2989 07be e070 57be
00000130: 5e1a 453e 2ca0 db3d ccd6 013e f915 97be
00000140: 1a16 db3d 07e2 85be 578e 4ebd cb7d a73b
00000150: 38f3 963c 069c 95bc 70a7 433d 78d6 b73e
00000160: b26c 203e b579 2b39 629a 7c3e 87e2 fa3d
00000170: 5557 5e3e 138b b6be 71b1 50be 84c3 a7be
00000180: e7f0 ef3d 1248 7abe 9687 c4bb 9cf6 ac3e
00000190: 22d0 7dbe 7893 903d 6e29 8abd c5b7 2b3d
000001a0: a895 92bd c8ed 0f3e 2da4 37be bdbb 4ebd
000001b0: b8e4 373d f2c9 4d3e cc06 c1be 34b4 573e
000001c0: cc90 e23c f9f0 353e 7ed9 1d3e 6161 34bd
000001d0: e3cb a7be 8fc9 3e3e 0703 703e aa21 883d
000001e0: 4699 71bd 8053 163d 810b 853e 9686 2a3e
000001f0: 9bd3 6c3e 603d 69bd 32c1 afbe 670e cc3d
00000200: cc2a 61bc 5f31 3e3e f577 e3be cb66 f1bd
00000210: e4ac 753d 2f23 043e 9056 313e b9b2 08be
00000220: a11c dd3d 2e8b 24bd 1ba4 66bc 8def 953e
00000230: eca1 8cbd cb98 e03d 0550 e13c 8866 83bd
00000240: 0eac d0bd 7460 b3bd 87ce 2a3e 41c0 003e
00000250: eefc 4fbe f58a 163e e75d 0b3e 6723 41be
00000260: da7f 313d 92e9 5e3d fb4e 20be 35ae 933e
00000270: c3e8 43be 4010 cbbd b84a e53d f50b aebd
00000280: e784 5f3e 6234 3bbe d7cd 763e d322 a2bd
00000290: e1ca 433e 9878 1bbe 18d3 acbd 45e3 0bbe
000002a0: 897e 8e3e 7c83 7f3e a4fd a1bd bc0e f83d
000002b0: e902 6f3e 8b8a f03d 0529 82bd f54e 19be
000002c0: aad1 7b3e a6e8 96bd 5214 92bd 9aed 2abe
000002d0: 5b26 8abe 1454 1c3d 738e a33e 5b74 b6be
000002e0: a3ce 88bd 1945 96bc 17a9 333e 1c2b 993e
000002f0: 68b2 583e 0962 37be c15e 81bd a4b1 8d3d
00000300: 624f 1ebd ddd0 edbc 7036 b6bd 0350 92bc
00000310: 3d4f 613e bb5a 8b3e 8776 353c e2a4 5f3c
00000320: b5c9 da3a 081d 16bd 213e 34be 8b2a 88be
00000330: 1f1e 2dbd d9ce 89be 3f32 b13e 39a3 6d3e
00000340: f568 61be ef83 f03d 4ba9 fcbd 923a 64be
00000350: f745 36be 2f9d 153d 646b 9ebd b5a1 3cbe
00000360: 9a32 f03d b7f9 523d 9654 7b3e e857 63be
00000370: a304 793e 1e51 86be cf6b 49be 4ccf 70be
00000380: d59a d9bd ecc0 263e 23eb 513e 6c02 c7bd
00000390: baea 8dbd 8300 6f3e 0b59 4bbd 5b5d 5e3e
000003a0: 7be1 0f3e c79d 8b3e 035b 533e 92f8 8a3e
000003b0: 887d 2bbd 100a fcbd e353 d33d a60c 07be
000003c0: e2df 763e 46d3 bf3d fa10 903e a01a 333e
000003d0: bd3c 883e 0226 853e 46de 97be 71fd a8bd
000003e0: fa5c 683e 1e70 7fbe 70d8 053e 238c 5b3d
000003f0: 3534 e63b e905 103e 32c7 e33d 5b32 af3d

bias_ih_l0 f4 [40]
-0.18651727 0.2559632 0.14750987 -0.07197923 -0.09985289 -0.003525422 0.21637607 -0.34148455
0.31652734 0.07420705 -0.04521975 0.33329943 -0.040372517 0.1664219 0.298206 -0.2150649
-0.1152086 -0.018852491 0.17882381 0.13507077 -0.30125198 0.04500014 -0.0038031363 -0.026058333
0.03363338 -0.07348409 0.00011449096 -0.084531255 0.06381761 -0.22598615 0.18527035 0.065416515
-0.11986955 0.16707104 -0.08888539 0.121590935 0.0076407436 0.207605 0.050605066 -0.06723557
00000000: 62fe 3ebe 9c0d 833e d40c 173e d969 93bd
00000010: ac7f ccbd c40a 67bb b091 5d3e 10d7 aebe
00000020: df0f a23e def9 973d 5838 39bd 39a6 aa3e
00000030: a75d 25bd 816a 2a3e 75ae 983e f939 5cbe
00000040: 7df2 ebbd 8a70 9abc 971d 373e fe4f 0a3e
00000050: b33d 9abe 1152 383d 0a3e 79bb 4978 d5bc
00000060: 28c3 093d d47e 96bd de1a f038 b91e adbd
00000070: cfb2 823d ea68 67be 83b7 3d3e 18f9 853d
00000080: 2b7e f5bd ac14 2b3e 8b09 b6bd ab04 f93d
00000090: 345f fa3b 6896 543e 4247 4f3d cdb2 89bd

bias_hh_l0 f4 [40]
0.28077152 -0.19257641 -0.18777199 -0.14625828 0.18921162 0.05266482 -0.07342908 0.12073222
0.13346751 -0.10143808 0.36647925 0.0472155 0.28111625 -0.01748177 0.027086567 -0.15521291
0.09326149 0.011292942 0.1671483 0.30162987 -0.2788699 -0.044432323 0.12580001 -0.19541816
0.27546194 -0.09687653 -0.17286539 0.0023381794 0.032759774 -0.3070646 0.0681364 -0.059225697
-0.14022505 0.20729978 0.36957863 0.22631525 0.2024187 0.25275886 0.29999083 -0.21399805
00000000: 49c1 8f3e c032 45be 4d47 40be bbc4 15be
00000010: b1c0 413e 11b7 573d fc61 96bd 7442 f73d
00000020: b5ab 083e c5be cfbd 2ba3 bb3e 0a65 413d
00000030: 78ee 8f3e ee35 8fbc a6e4 dd3c 22f0 1ebe
00000040: e1ff be3d 0806 393c ed28 2b3e 3b6f 9a3e
00000050: 09c8 8ebe abfe 35bd b8d1 003e b31b 48be
00000060: 5909 8d3e 3467 c6bd a003 31be 243c 193b
00000070: 1d2f 063d 9237 9dbe 198b 8b3d a596 72bd
00000080: 2897 0fbe 6546 543e 6939 bd3e 2fbf 673e
00000090: d946 4f3e 9c69 813e 6698 993e 4e22 5bbe

weight_ih_l0 f4 [40, 22]
-0.013390525 -0.24119343 0.0049760886 -0.04668928 0.07014349 -0.043571323 0.014103311 -0.02154017
-0.06257201 0.32279003 -0.08951378 0.07315672 -0.06044357 0.23861444 0.0071906378 0.31406546
0.05877706 0.22967997 -0.093852304 0.10781141 -0.10421256 -0.21130195 0.27441043 0.36314887
0.23825733 0.0010073229 0.1682663 0.05283458 -0.055980198 0.02265514 -0.013789421 0.25184783
-0.2037568 0.30352336 0.15110767 -0.22871341 0.15773818 0.11311005 0.17208718 -0.062513016
-0.23985109 0.10416915 -0.1072138 -0.084362626 0.20846288 0.21669954 0.2637708 -0.019010188
0.23204598 0.10992773 -0.16898292 -0.00022595467 -0.17993563 -0.0002448366 -0.2684138 -0.012455037
-0.27717414 -0.14392073 -0.058061015 0.07855855 -0.14561486 0.120970145 0.12865289 -0.2327333
0.029889295 0.007270487 0.07364272 0.08534496 -0.14767861 0.286996 -0.09034237 -0.10681921
-0.2067178 0.1527923 0.19642657 0.095253006 -0.367898 -0.031915274 -0.29727042 0.29218718
0.039352782 -0.01916749 -0.029530853 0.04494791 -0.3068739 0.1624532 0.35988882 0.31434754
-0.32745484 -0.26858935 -0.0047971825 -0.05193514 -0.024317816 0.17599294 0.23306897 0.16247937
-0.08925621 -0.19575796 0.0951899 -0.037917394 0.019734986 -0.13051423 0.15325974 0.02398837
-0.32002634 0.06597485 0.03603239 0.058553915 0.09079639 -0.18797472 0.09457014 0.13250741
0.1591509 0.024748223 -0.23861876 0.063930094 -0.23742494 -0.012095568 -0.21104918 0.046256986
0.06941181 0.23939916 -0.06433736 0.17208096 -0.041236542 -0.20322214 -0.21849695 -0.27874875
-0.09004702 0.14369516 -0.114321575 0.21582489 -0.023053197 -0.30678606 0.047779668 -0.016079135
0.08202964 0.17625804 0.08948651 -0.19114576 -0.15844649 0.03282668 0.013207446 0.06638357
-0.33822402 -0.11821027 0.0731504 0.3496887 0.12202415 -0.082816906 0.19817923 0.21321468
0.20324446 -0.18214086 -0.007084521 -0.0034419782 -0.22756289 -0.00022448199 0.09555605 0.26899716
-0.12137351 0.029132461 -0.19846807 0.11838509 -0.020073554 -0.2602408 -0.21492076 -0.12422294
-0.29938322 -0.18235737 -0.13143899 0.15368682 -0.2203257 0.049974684 -0.2211421 0.060504872
0.0843908 -0.25627849 -0.28595167 0.26604098 -0.26542005 -0.1991811 -0.26272532 -0.17998163
0.30063966 -0.068211235 0.20859058 0.33667573 -0.2849014 0.21094815 0.15790461 0.27772206
0.20300186 0.30564564 -0.095473945 0.15475096 0.28044772 0.21498807 -0.09192769 0.18029544
0.062437925 -0.28108615 -0.3263649 -0.05144035 0.029501492 0.16126949 -0.16915013 0.08071966
0.13441874 -0.16271089 0.1518439 -0.009621041 -0.045048323 0.2840832 -0.028460018 0.1257643
-0.07155305 -0.16923463 0.07431837 -0.08930435 0.054564267 0.0031334066 -0.2991374 -0.024577051
-0.25023374 0.3185292 0.21021973 0.22388208 -0.1094202 0.26705557 0.26902336 0.34562337
0.21722664 -0.07153702 -0.092438325 0.1184449 -0.3246151 0.08225429 0.24683328 0.29285806
0.3699476 0.18951698 0.056334674 0.14900786 -0.09634145 0.0790959 -0.22700347 0.025219502
-0.26605234 -0.10584946 0.068419024 0.026475068 -0.12669106 0.10793819 0.18570134 0.21362036
00000000: ef63 5bbc 69fb 76be 750e a33b 423d 3fbd
00000010: 64a7 8f3d d877 32bd 9311 673c 0375 b0bc
00000020: c125 80bd bc44 a53e 0053 b7bd 31d3 953d
00000030: ad93 77bd 5857 743e 719f eb3b 30cd a03e
00000040: 37c0 703d 3a31 6b3e a335 c0bd 3bcc dc3d
00000050: 656d d5bd 8a5f 58be 867f 8c3e a6ee b93e
00000060: bbf9 733e 2608 843a 004e 2c3e 1369 583d
00000070: 7e4b 65bd 4697 b93c 06ed 61bc 33f2 803e
00000080: 9fa5 50be 6a67 9b3e f8bb 1a3e d933 6abe
00000090: 1e86 213e 3ea6 e73d 9f37 303e d306 80bd
000000a0: 869b 75be a356 d53d e992 dbbd 50c6 acbd
000000b0: 4b77 553e 7ce6 5d3e f70c 873e 41bb 9bbc
000000c0: 769d 6d3e ca21 e13d dc09 2dbe 3fee 6cb9
000000d0: 0c41 38be 6a5d 80b9 896d 89be 3610 4cbc
000000e0: c5e9 8dbe f55f 13be 63d1 6dbd 4ee3 a03d
000000f0: 101c 15be 32bf f73d 95bd 033e a351 6ebe
00000100: 65da f43c 443d ee3b ffd1 963d 57c9 ae3d
00000110: 1039 17be 24f1 923e 6c05 b9bd 08c4 dabd
00000120: d5ad 53be 9675 1c3e 0c24 493e 0214 c33d
00000130: 205d bcbe 97b9 02bd d433 98be 8f99 953e
00000140: 6230 213d 2405 9dbc b0ea f1bc 4d1b 383d
00000150: 931e 9dbe 225a 263e 5943 b83e 29f2 a03e
00000160: 29a8 a7be 8b84 89be af31 9dbb f1b9 54bd
00000170: 2836 c7bc 7e37 343e a2a9 6e3e fe60 263e
00000180: f6cb b6bd c674 48be ecf2 c23d 454f 1bbd
00000190: 44ab a13c 86a5 05be 1ff0 1c3e 4283 c43c
000001a0: 7eda a3be d21d 873d b396 133d 3bd6 6f3d
000001b0: 75f3 b93d 727c 40be fdad c13d 06b0 073e
000001c0: 74f8 223e c9bc ca3c 7a58 74be c8ed 823d
000001d0: 861f 73be 7d2c 46bc 471d 58be f777 3d3d
000001e0: c727 8e3d 0e25 753e 4ec3 83bd fe35 303e
000001f0: a6e7 28bd 7719 50be aabd 5fbe 28b8 8ebe
00000200: 926a b8bd d324 133e 6e21 eabd 3301 5d3e
00000210: 0fda bcbc 1013 9dbe 9db4 433d 64b8 83bc
00000220: 28ff a73d fd7c 343e b444 b73d b7bb 43be
00000230: cc3f 22be 4575 063d 0b64 583c 1cf4 873d
00000240: b32b adbe 3a18 f2bd e0cf 953d 660a b33e
00000250: cce7 f93d e99b a9bd 7fef 4a3e f354 5a3e
00000260: 511f 503e 2283 3abe 4525 e8bb d092 61bb
00000270: 3f06 69be ed62 6bb9 e4b2 c33d ffb9 893e
00000280: ad92 f8bd 33a7 ee3c 373b 4bbe e273 f23d
00000290: 4b71 a4bc 483e 85be 3014 5cbe 9968 febd
000002a0: c248 99be e4bb 3abe f197 06be 1460 1d3e
000002b0: 0f9d 61be 41b2 4c3d 1373 62be f5d3 773d
000002c0: 15d5 ac3d ef36 83be 4268 92be 8636 883e
000002d0: 23e5 87be 21f6 4bbe ef83 86be 1b4d 38be
000002e0: 71ed 993e 55b2 8bbd c598 553e c360 ac3e
000002f0: 99de 91be cb02 583e bfb1 213e 9631 8e3e
00000300: b8df 4f3e 967d 9c3e d887 c3bd 0977 1e3e
00000310: d896 8f3e d525 5c3e 9644 bcbd 5e9f 383e
00000320: e9be 7f3d 86ea 8fbe 4d19 a7be 1eb3 52bd
00000330: 1dad f13c d423 253e b135 2dbe 5950 a53d
00000340: 11a5 093e af9d 26be f87c 1b3e 92a1 1dbc
00000350: 9784 38bd 5a73 913e fc24 e9bc 5bc8 003e
00000360: 688a 92bd d84b 2dbe 3b34 983d 33e5 b6bd
00000370: c87e 5f3d d759 4d3b 8a28 99be d055 c9bc
00000380: a31e 80be 4216 a33e d743 573e 5841 653e
00000390: b317 e0bd 82bb 883e 6ebd 893e 8cf5 b03e
000003a0: a970 5e3e 0082 92bd 4e50 bdbd 3d93 f23d
000003b0: f333 a6be f074 a83d ddc1 7c3e 7ef1 953e
000003c0: c669 bd3e bd10 423e 30bf 663d 8495 183e
000003d0: ab4e c5bd 08fd a13d 9973 68be 2199 ce3c
000003e0: 0338 88be 9ac7 d8bd 461f 8c3d 3ee2 d83c
000003f0: 4dbb 01be b30e dd3d 7e28 3e3e 4cbf 5a3e

weight_hh_l0 f4 [40, 10]
0.022277515 -0.06856689 -0.070121355 0.04634119 0.083015315 -0.06305559 0.07646173 -0.0763437
-0.31463617 -0.2830136 0.020931084 -0.3495128 0.30273014 -0.09436773 -0.14910787 -0.30054778
-0.23951358 -0.01131296 0.0761365 -0.08049337 0.026874984 0.2422716 -0.03282278 0.2551759
0.01525472 -0.14214 -0.21148488 -0.31550363 -0.2289901 0.03638236 -0.03605338 0.12758759
0.054438215 0.037506104 0.17394967 -0.18427077 0.32286167 0.1819306 -0.042250767 0.010923438
0.1499989 -0.09923333 -0.25851527 0.070526205 0.20633775 -0.40671685 0.061758757 -0.13971707
-0.15765275 0.07575293 -0.08449506 -0.19389606 -0.007637964 0.16127126 0.27727592 -0.14666177
0.24092568 0.16067456 0.095455535 0.29085043 0.2856554 -0.111581415 -0.37696874 0.39675757
-0.109502986 -0.15676306 0.19465266 -0.1941141 -0.25881743 0.11151781 0.042657375 -0.054400522
-0.1618779 0.1249604 0.0672758 -0.34336147 -0.08415124 0.04588915 0.05970356 0.13882996
-0.1742977 -0.09468255 0.16755934 -0.10841677 -0.27492633 0.070391916 -0.1069113 0.0052840607
-0.050658315 -0.098848306 -0.2272605 0.02238385 -0.31065014 -0.27289623 0.3557548 0.25288907
0.22862169 0.04189113 -0.22918847 -0.0078686075 -0.022167584 -0.3577918 -0.07699532 0.22225043
0.025890842 -0.02269096 -0.11771573 -0.14114928 -0.35088786 0.05160061 -0.12838303 -0.32238773
0.2659133 -0.17660771 -0.2719927 -0.01869475 0.17727174 0.24825758 -0.13261466 0.09792405
0.09884328 0.14827828 -0.24721178 0.19185399 -0.2618248 0.042354967 -0.083521284 -0.313908
-0.14461327 0.044034705 0.111685015 0.15815401 -0.10167573 0.22768371 -0.26262948 -0.27173504
-0.16833864 0.1544384 0.060493737 -0.29176736 0.2979866 0.11067215 -0.1039491 -0.0010632429
0.08774622 0.21923468 0.26796597 -0.25313404 0.06402845 -0.107635185 -0.12118139 0.13202657
0.07451546 0.28727314 -0.19158193 -0.19494787 0.03657029 0.12719616 -0.2933678 -0.043712847
0.2094998 0.17326942 -0.32356462 0.22564223 0.16054086 -0.07617362 0.041757513 -0.39852217
0.12420729 0.014280519 -0.039339155 -0.030619033 -0.012202793 0.17208545 -0.048515957 0.00066885754
-0.21406606 -0.119916014 -0.37893 0.27051052 -0.08001233 0.09313996 -0.07937467 -0.20806712
0.12937886 0.03216572 0.09488597 0.21900699 -0.120610245 -0.1458865 -0.06323808 0.16641216
-0.0430556 0.20527548 -0.052978158 -0.16081783 0.015448959 -0.27576682 0.2718181 0.00854283
-0.22609021 -0.2867012 -0.3445179 -0.014258938 -0.049145345 0.11308569 -0.20895699 0.14496565
-0.14842257 -0.0016834461 -0.28944585 0.2543541 -0.0052204654 -0.13333164 -0.029420126 -0.23989342
-0.050516915 -0.1496865 0.3627703 0.18800926 -0.09977913 0.2263439 -0.19771755 0.065291025
-0.0049463557 -0.009041229 0.24112266 0.3026899 0.17917837 -0.09174222 -0.087629974 0.020913482
-0.06859061 0.11484078 0.1880469 -0.06772863 0.34588182 -0.20504685 -0.29261482 0.20449537
0.16048697 -0.16707176 -0.15842834 0.14185858 0.2253439 -0.052105293 0.056479674 -0.007317534
0.24115166 0.056309976 0.098178506 0.28037766 0.20194378 0.03459864 -0.17908977 -0.22310089
00000000: 567f b63c cc6c 8cbd c99b 8fbd 42d0 3d3d
00000010: ef03 aa3d 4a23 81bd f897 9c3d 165a 9cbd
00000020: fe17 a1be 29e7 90be aa77 ab3c 57f3 b2be
00000030: 72ff 9a3e de43 c1bd bcaf 18be 66e1 99be
00000040: 0c43 75be fe59 39bc 74ed 9b3d b5d9 a4bd
00000050: ed28 dc3c 0c16 783e 2e71 06bd 6aa6 823e
00000060: efee 793c 268d 11be 7e8f 58be b189 a1be
00000070: 617c 6abe ab05 153d b6ac 13bd 52a6 023e
00000080: 9bfa 5e3d 00a0 193d dd1f 323e 7ab1 3cbe
00000090: 204e a53e 044c 3a3e 240f 2dbd 38f8 323c
000000a0: 5099 193e d83a cbbd 1d5c 84be 0b70 903d
000000b0: 344a 533e 313d d0be c0f6 7c3d fe11 0fbe
000000c0: b96f 21be 5a24 9b3d bf0b adbd b08c 46be
000000d0: e347 fabb 4b24 253e 1cf7 8d3e 812e 16be
000000e0: 39b5 763e df87 243e 317e c33d 59ea 943e
000000f0: 6d41 923e cc84 e4bd 0c02 c1be cf23 cb3e
00000100: 1a43 e0bd 7f86 20be 0753 473e d9c5 46be
00000110: b883 84be 7363 e43d 80b9 2e3d 15d3 5ebd
00000120: 52c3 25be 3deb ff3d e5c7 893d 13cd afbe
00000130: 7c57 acbd 43f6 3b3d b88b 743d 7129 0e3e
00000140: 197b 32be ede8 c1bd ad94 2b3e 9d09 debd
00000150: 25c3 8cbe a329 903d 50f4 dabd ea25 ad3b
00000160: 187f 4fbd fb70 cabd fab6 68be 565e b73c
00000170: 890d 9fbe 0eb9 8bbe 7e25 b63e ad7a 813e
00000180: ce1b 6a3e 0996 2b3d 62b0 6abe 55eb 00bc
00000190: cb98 b5bc 7d30 b7be b9af 9dbd 9e95 633e
000001a0: 0819 d43c 64e2 b9bc f214 f1bd 7089 10be
000001b0: 93a7 b3be 295b 533d d776 03be 0110 a5be
000001c0: ca25 883e a7d8 34be a142 8bbe bb25 99bc
000001d0: b986 353e 3c37 7e3e 23cc 07be 688c c83d
000001e0: 586e ca3d 43d6 173e 1625 7dbe 5f75 443e
000001f0: e60d 86be 677c 2d3d 350d abbd 8db8 a0be
00000200: 8015 14be bc5d 343d 1dbb e43d 20f3 213e
00000210: 5d3b d0bd eb25 693e 5f77 86be db20 8bbe
00000220: f760 2cbe 1a25 1e3e 48c8 773d 8862 95be
00000230: b391 983e 15a8 e23d 44e3 d4bd 835c 8bba
00000240: 4ab4 b33d 0e7f 603e d632 893e c99a 81be
00000250: 5921 833d d66f dcbd f32d f8bd f931 073e
00000260: 909b 983d 7715 933e 0e2e 44be 6aa0 47be
00000270: baca 153d b63f 023e 4e34 96be 3e0c 33bd
00000280: 1e87 563e 8a6d 313e 43aa a5be c20e 673e
00000290: d364 243e ea00 9cbd ed09 2b3d 190b ccbe
000002a0: 6460 fe3d d7f8 693c 1822 21bd c4d4 fabc
000002b0: 39ee 47bc 2b37 303e abb8 46bd 4556 2f3a
000002c0: 2234 5bbe 8796 f5bd 1d03 c2be 5b80 8a3e
000002d0: 81dd a3bd 2ac0 be3d 308f a2bd 8c0f 55be
000002e0: e47b 043e 34c0 033d 9353 c23d 5e43 603e
000002f0: 8102 f7bd 4563 15be f782 81bd f367 2a3e
00000300: 125b 30bd bc33 523e a0ff 58bd 6ead 24be
00000310: a11d 7d3c 4f31 8dbe be2b 8b3e 3af7 0b3c
00000320: 3184 67be 80ca 92be a664 b0be 529e 69bc
00000330: a14c 49bd 7899 e73d d2f8 55be e071 143e
00000340: 16fc 17be 14a7 dcba 3f32 94be b33a 823e
00000350: 7010 abbb 1788 08be 7a02 f1bc 9fa6 75be
00000360: d3ea 4ebd 6b47 19be 07bd b93e 8085 403e
00000370: 0059 ccbd b2c6 673e 7876 4abe 4db7 853d
00000380: 0a15 a2bb aa21 14bc dce8 763e 2cfa 9a3e
00000390: 897a 373e 58e3 bbbd 5877 b3bd c052 ab3c
000003a0: 3c79 8cbd a531 eb3d 5e8f 403e 4fb5 8abd
000003b0: 6c17 b13e cdf7 51be 9cd1 95be 3c67 513e
000003c0: b256 243e dc14 2bbe 0a3b 22be 6043 113e
000003d0: 8dc0 663e 5c6c 55bd 3b57 673d edc7 efbb
000003e0: 76f0 763e 4aa5 663d d011 c93d a98d 8f3e
000003f0: 5aca 4e3e 4eb7 0d3d 4f63 37be 8f74 64be

bias_ih_l0 f4 [40]
-0.10445743 -0.055298626 0.1764365 -0.009614123 -0.16876392 0.06284838 -0.027850414 -0.1702842
0.22460425 -0.022857089 0.33859587 -0.18368131 0.1774085 0.07197432 0.054619204 0.10879982
-0.14789985 0.3875974 0.18574886 -0.14693633 0.33373123 0.20662634 -0.14419807 -0.144424
0.34152734 -0.32104963 -0.22420834 -0.092386894 0.25701863 0.21325056 -0.06383928 -0.16619739
0.10889371 -0.055263475 -0.1239815 0.22584924 0.112927146 0.061853696 -0.20944797 0.020613018
00000000: c7ed d5bd d080 62bd c5ab 343e 8e84 1dbc
00000010: 73d0 2cbe a7b6 803d 8d26 e4bc fb5e 2ebe
00000020: a8fe 653e ca3e bbbc 705c ad3e f416 3cbe
00000030: 93aa 353e 4667 933d 63b8 5f3d 71d2 de3d
00000040: 0f73 17be 2b73 c63e f334 3e3e 7a76 16be
00000050: d2de aa3e db95 533e a9a8 13be e3e3 13be
00000060: acdc ae3e 9e60 a4be df96 65be 5735 bdbd
00000070: f297 833e 5b5e 5a3e 2bbe 82bd a62f 2abe
00000080: aa03 df3d f45b 62bd 03ea fdbd 0645 673e
00000090: 5946 e73d 4d5a 7d3d 8779 56be a2dc a83c

bias_hh_l0 f4 [40]
0.19787806 0.23515855 -0.13625936 0.35326308 0.11869126 -0.21602401 -0.09522125 0.04911866
0.35225502 0.31690943 0.14848238 0.025191117 0.24038161 0.12553209 -0.12048629 -0.07515339
-0.10069197 0.30253643 0.029983873 -0.16307065 -0.1773577 -0.33611777 0.1218471 -0.06735681
0.28781354 0.054418832 -0.070138566 -0.32324323 0.0038989224 0.11308585 -0.13064897 0.36214155
-0.22856182 0.084640935 0.28719237 -0.075198755 -0.23707607 -0.21592037 -0.103479914 -0.2668763
00000000: 8ca0 4a3e 67cd 703e 9387 0bbe e6de b43e
00000010: 6714 f33d 6635 5dbe 5c03 c3bd a630 493d
00000020: c55a b43e f441 a23e c40b 183e 9a5d ce3c
00000030: 9926 763e 7c8b 003e 84c1 f6bd 05ea 99bd
00000040: 9737 cebd 0ee6 9a3e bda0 f53c fefb 26be
00000050: 429d 35be a117 acbe f98a f93d 5ef2 89bd
00000060: 4c5c 933e 48e6 5e3d cfa4 8fbd 2380 a5be
00000070: 1085 7f3b 8e99 e73d d8c8 05be 9e6a b93e
00000080: 1c0c 6abe 3a58 ad3d e10a 933e ce01 9abd
00000090: 12c4 72be 3b1a 5dbe 47ed d3bd 03a4 88be

weight_ih_l0 f4 [40, 22]
0.041935213 0.00032663604 -0.16705802 0.2921196 -0.087008834 0.13470882 -0.26913425 -0.08283885
0.11748859 -0.11617068 0.31205875 -0.10311192 0.32176897 -0.07471449 -0.1344955 -0.1454395
0.13009578 0.17244092 -0.27838448 0.04646596 -0.007037591 0.11377476 -0.10092195 -0.13360004
0.023291728 0.11823702 0.18053848 -0.1790819 0.12270273 0.077021845 -0.1832521 0.19092524
0.09094194 -0.15907694 -0.10255456 0.23894453 0.0642572 -0.16403754 -0.1510921 0.069253534
0.15270677 -0.2009015 -0.058874328 -0.22785869 -0.010803439 0.016014816 -0.2803567 -0.21889846
0.20798276 -0.32488665 -0.17301853 0.012888374 0.17298037 0.2250227 0.062442936 0.24640921
0.04043039 0.29710177 -0.14559232 -0.17391297 0.29198882 0.23346722 0.3156473 0.23926713
0.07393907 -0.15762576 0.052808437 0.34719846 -0.0661491 0.09390821 0.06203518 -0.24750131
-0.036488853 -0.16079107 0.15062399 -0.13628908 -0.08627283 -0.06867221 0.26151052 0.33019263
-0.0498625 -0.23636062 0.1137959 0.09602281 0.1001988 0.27579114 0.020593531 0.3440374
0.10632861 -0.0038958492 0.081723966 -0.075194776 0.17564298 0.15636505 0.23887074 0.014750581
-0.33905354 -0.08980991 -0.27077866 -0.16024455 0.20130226 -0.042822998 -0.066511445 -0.064731106
0.06545126 -0.2966079 -0.36213806 -0.07506608 -0.2876704 0.095051385 0.11221635 0.19735995
-0.33603087 0.366687 -0.31107873 -0.09912997 0.19193046 -0.23785315 -0.20244068 -0.25670213
0.06840074 -0.1203603 -0.13984038 -0.067189805 -0.1628636 -0.1278488 -0.36097914 0.17903735
-0.14312316 0.1372184 0.31166056 0.20571259 -0.019745307 -0.23652239 -0.09920425 0.32651022
-0.10093945 -0.08456132 -0.2257501 0.26872158 0.22457594 -0.050903734 -0.0016529143 -0.13505545
0.26669917 -0.06081216 -0.21959591 0.11769529 -0.16425556 0.000919559 -0.27783197 0.26596096
0.06737494 -0.1451727 0.13333768 -0.05332415 0.17383891 0.2530779 -0.18722335 -0.2647553
-0.27115482 0.14418648 0.2129222 -0.034863763 -0.24154153 -0.3133895 -0.18217112 -0.2548848
0.19249542 -0.1907269 -0.20345356 0.17121199 -0.25482312 0.2447547 0.30940518 0.3093969
-0.04275138 0.2898531 -0.2113297 0.23196761 -0.027841384 -0.12441937 -0.13890508 0.21572125
-0.21801528 0.16759506 -0.20630342 0.17879409 -0.1009676 -0.029228855 0.22487845 -0.0357166
-0.21722001 -0.03414453 -0.2634078 0.31275412 0.014261291 0.28717342 0.019522592 0.06002631
-0.14466262 0.2343312 -0.24880844 0.09055658 -0.043867175 0.34179032 -0.06649075 -0.22260177
0.19260219 0.06515443 -0.17605303 0.07074302 -0.20516539 0.2715441 -0.24000886 0.06565201
-0.33451554 -0.005977862 0.3810689 0.16560048 0.0156111065 -0.33705425 -0.059822585 0.38336632
-0.34946564 0.2414803 0.16059801 -0.21277055 0.32177174 0.15813445 -0.20107876 0.27879637
-0.027563412 0.25388277 0.3193605 0.13218941 -0.1142391 0.4274018 -0.10678003 -0.0076520424
0.104731366 -0.1221967 -0.14531134 -0.1718581 -0.06595212 0.18762276 -0.0006496966 -0.23949331
-0.0091785295 0.067960575 0.060587857 0.16713507 0.18216358 0.06525253 0.27633715 0.027774964
00000000: 42c4 2b3d 5940 ab39 4211 2bbe b390 953e
00000010: b031 b2bd 1cf1 093e f7cb 89be 6aa7 a9bd
00000020: dc9d f03d e5ea edbd 2ac6 9f3e 582c d3bd
00000030: e7be a43e e903 99bd 30b9 09be 18ee 14be
00000040: d437 053e 5a94 303e 6988 8ebe 1753 3e3d
00000050: 989b e6bb be02 e93d 2bb0 cebd 73ce 08be
00000060: 4bce be3c 4026 f23d 14df 383e 3f61 37be
00000070: 924b fb3d a1bd 9d3d 70a6 3bbe e881 433e
00000080: c53f ba3d 11e5 22be 2008 d2bd e0ad 743e
00000090: 4799 833d 75f9 27be e3b7 1abe ccd4 8d3d
000000a0: 2a5f 1c3e 1fb9 4dbe 3526 71bd ca53 69be
000000b0: e800 31bc 8131 833c ea8a 8fbe eb26 60be
000000c0: 6ff9 543e 8b57 a6be c52b 31be c229 533c
000000d0: c421 313e 5a6c 663e 2ac4 7f3d b252 7c3e
000000e0: 569a 253d b91d 983e 2716 15be 3e16 32be
000000f0: 8f7f 953e 0812 6f3e 869c a13e 7102 753e
00000100: 5e6d 973d a668 21be a94d 583d ffc3 b13e
00000110: 2e79 87bd f352 c03d 9a18 7e3d fc70 7dbe
00000120: 5675 15bd 6aa6 24be 2d3d 1a3e 5d8f 0bbe
00000130: cfaf b0bd 04a4 8cbd b5e4 853e 020f a93e
00000140: 9f3c 4cbd 8508 72be d30d e93d 9ba7 c43d
00000150: 0735 cd3d 7f34 8d3e c4b3 a83c ac25 b03e
00000160: d0c2 d93d 8151 7fbb e55e a73d b8ff 99bd
00000170: c1db 333e 291e 203e 889a 743e 6cac 713c
00000180: 6d98 adbe 42ee b7bd 80a3 8abe 2617 24be
00000190: 2e22 4e3e 2b67 2fbd 2737 88bd be91 84bd
000001a0: 4f0b 863d fedc 97be 296a b9be 3fbc 99bd
000001b0: 8949 93be 4daa c23d b0d1 e53d ba18 4a3e
000001c0: 3d0c acbe 66be bb3e b645 9fbe a704 cbbd
000001d0: 6b89 443e c78f 73be 9c4c 4fbe 766e 83be
000001e0: b015 8c3d 767f f6bd 5132 0fbe cf9a 89bd
000001f0: b7c5 26be ccea 02be 42d2 b8be 9155 373e
00000200: e18e 12be fb82 0c3e f991 9f3e 52a6 523e
00000210: e9c0 a1bc ed32 72be 992b cbbd 592c a73e
00000220: 58b9 cebd 7c2e adbd 092b 67be e095 893e
00000230: 3cf7 653e 6f80 50bd 9aa6 d8ba fa4b 0abe
00000240: cb8c 883e 2c16 79bd c0dd 60be 3a0a f13d
00000250: 9c32 28be 8f0e 713a fe3f 8ebe 092c 883e
00000260: dffb 893d 27a8 14be ac89 083e 6d6a 5abd
00000270: d402 323e 6d93 813e 7ab7 3fbe 028e 87be
00000280: ced4 8abe 9fa5 133e 4708 5a3e 4ecd 0ebd
00000290: aa56 77be 9774 a0be 118b 3abe 4380 82be
000002a0: 851d 453e ea4d 43be 2156 50be 3252 2f3e
000002b0: 2d78 82be faa0 7a3e 5b6a 9e3e 4569 9e3e
000002c0: 121c 2fbd a067 943e d066 58be eb88 6d3e
000002d0: 9d13 e4bc 95cf febd 223d 0ebe 08e6 5c3e
000002e0: 663f 5fbe 0a9e 2b3e 3441 53be cc15 373e
000002f0: 1ac8 cebd 5a71 efbc 8946 663e 924b 12bd
00000300: ec6e 5ebe 22db 0bbd 63dd 86be 4f21 a03e
00000310: 31a8 693c 6508 933e d8ed 9f3c 26de 753d
00000320: 7022 14be 85f4 6f3e a4c7 7ebe ba75 b93d
00000330: 11ae 33bd 24ff ae3e 4d2c 88bd b8f1 63be
00000340: 8239 453e b06f 853d 3f47 34be b7e1 903d
00000350: e016 52be d407 8b3e e2c4 75be 9074 863d
00000360: 9f45 abbe f1e1 c3bb 761b c33e 2c93 293e
00000370: bac5 7f3c 6092 acbe 8708 75bd 9748 c43e
00000380: 29ed b2be 9d46 773e ce73 243e 86e0 59be
00000390: 44bf a43e ffed 213e 97e7 4dbe 66be 8e3e
000003a0: aacc e1bc ecfc 813e 3883 a33e a95c 073e
000003b0: 30f6 e9bd 69d4 da3e 7daf dabd fcbd fabb
000003c0: 667d d63d 4342 fabd 7fcc 14be 92fb 2fbe
000003d0: e811 87bd 2e20 403e 6750 2aba bc3d 75be
000003e0: 8b61 16bc ea2e 8b3d f92a 783d 7525 2b3e
000003f0: 1789 3a3e 1ea3 853d 107c 8d3e 5288 e33c
