LSTM/code/model/old_model/model_mk7_300epoch_0.0008trainloss_0.0002validloss.pt (torch, 46468 bytes, 32 tensors)

weight_ih_l0 f4 [40, 22]
0	0xbd863b8f	-0.06554329
1	0x3e1067f3	0.14102153
2	0x3eabc490	0.33548403
3	0xbe9a20dd	-0.30103198
4	0xbe87ea53	-0.26545963
5	0xbd79438a	-0.060855426
6	0x3eaa81f7	0.3330228
7	0xbe6defe2	-0.2323604
8	0xbec6bdfb	-0.3881682
9	0xbe8582a4	-0.26076233
10	0x3dcbc111	0.09948934
11	0x3de73e19	0.11291141
12	0xb99f4338	-0.00030376925
13	0xbe6f4dfc	-0.23369592
14	0xbcfbbfb2	-0.030731056
15	0xbe4e5666	-0.20150146
16	0x3de24118	0.11047572
17	0x3e699aa9	0.22812904
18	0x3dafd2b4	0.0858511
19	0x3d989eea	0.074521855
20	0x3eb5a7c2	0.35479552
21	0xbec88a41	-0.3916798
22	0x3c010bc3	0.007876339
23	0xbe823ea9	-0.2543843
24	0xbe500ea4	-0.20318085
25	0x3e715f7f	0.23571585
26	0x3e6eb9ee	0.23313114
27	0x3da26ef3	0.07931318
28	0xbed359f3	-0.41279563
29	0xbe3d1542	-0.1846514
30	0xbe166840	-0.14688206
31	0x3e595dd3	0.21227197
32	0xbe1b50c2	-0.15167525
33	0xbd333f8a	-0.043761767
34	0xbe34f0f5	-0.17670043
35	0x3e092ba0	0.13395548
36	0x3ddab108	0.10678297
37	0xbd45bcdb	-0.04827581
38	0xbe28a022	-0.16467336
39	0xbdba044f	-0.09082853
40	0xbe1dc8ae	-0.15408584
41	0xbe68ab6a	-0.2272164
42	0x3e4258af	0.18979143
43	0x3e90ab64	0.2825576
44	0x3cbf9b7e	0.023389574
45	0xbe8c735b	-0.2743176
46	0xbe61fbe8	-0.22068751
47	0x3e49ab62	0.19694284
48	0x3e1165fe	0.14199063
49	0xbe9883db	-0.29788098
50	0xbea52668	-0.32255864
51	0x3b60c540	0.0034297258
52	0xb9b273c4	-0.00034037058
53	0x3e672ae7	0.2257496
54	0xbe811e4b	-0.25218424
55	0xbdc2099b	-0.09474488
56	0x3eb61b7f	0.35567853
57	0x3e05368d	0.1300909
58	0xbe946d69	-0.28989723
59	0x3d53af74	0.051680997
60	0x3efd8704	0.4951707
61	0xbd9b0780	-0.0756979
62	0xbec828cc	-0.39093626
63	0xbe470640	-0.19435978
64	0xbdbe1ba4	-0.09282616
65	0x3eb4f6b7	0.35344478
66	0xbd410aa0	-0.047129273
67	0xbe95d45c	-0.2926358
68	0x3e6fc42d	0.23414679
69	0x3e2d81d7	0.16944061
70	0xbda88919	-0.08229274
71	0xbe752b24	-0.23942238
72	0x3d1776f6	0.036978684
73	0xbcafccea	-0.021460015
74	0x3d764142	0.06012083
75	0xbe2a587c	-0.16635317
76	0xbdfbdda4	-0.12298134
77	0x3ea7c304	0.32765973
78	0xbd50246c	-0.050815985
79	0x3e744724	0.23855263
80	0x3e8d6b87	0.276211
81	0x3e55de3c	0.20885557
82	0x3d8e84ad	0.069589
83	0xbdf01df9	-0.11724467
84	0xbd83a949	-0.06428773
85	0x3beacf4d	0.0071658255
86	0xbdc26a3d	-0.094929196
87	0x3e315d33	0.17320709
88	0x3e1df71b	0.15426295
89	0xbe9e7cbf	-0.3095455
90	0xbe97f7b8	-0.29681182
91	0x3e8d919d	0.27650157
92	0x3e2d5607	0.16927348
93	0xbe4f1f27	-0.20226727
94	0xbd5a576b	-0.053306025
95	0xbe80282c	-0.2503065
96	0xbe1d5f28	-0.1536833
97	0xbd701cf4	-0.05862136
98	0x3e047187	0.12933932
99	0xbda68047	-0.08129936
100	0x3dd4ccd0	0.103906274
101	0xbec1992b	-0.3781217
102	0x3e26ca67	0.16288148
103	0xbdc19c50	-0.09453642
104	0xbd8b3e15	-0.067989506
105	0xbebfc482	-0.3745461
106	0xbe8a2ece	-0.26988834
107	0x3e3fe0c6	0.18738088
108	0x3ab93480	0.0014130026
109	0xbe05523b	-0.1301965
110	0xbe47c66b	-0.19509284
111	0xbe34838d	-0.17628308
112	0x3e2ec8d8	0.17068803
113	0x3e488963	0.19583659
114	0xbe00b7cd	-0.12570114
115	0xbe9cbec2	-0.30614287
116	0xbcba81dc	-0.022767
117	0x3e570e4c	0.21001548
118	0xbd3f9ecc	-0.0467823
119	0xbe79e3ff	-0.2440338
120	0x3e7fbc88	0.24974263
121	0xbe085ac4	-0.13315874
122	0xbea8224f	-0.32838675
123	0xbe12cc13	-0.1433566
124	0x3ddf29a3	0.108966134
125	0x3d41dad7	0.047327843
126	0xbe8fe543	-0.281046
127	0xbe868f74	-0.2628132
128	0xbe2a6249	-0.16639055
129	0xbe29be3c	-0.16576475
130	0x3e912294	0.28346694
131	0xbe416686	-0.18886766
132	0xbe1f7303	-0.15571217
133	0xbe32d592	-0.17464283
134	0xbd0cc99d	-0.03437196
135	0x3da726ee	0.08161722
136	0x3e709a7f	0.23496436
137	0xbe30149c	-0.17195362
138	0x3e1b6a15	0.15177186
139	0xbe5c1fff	-0.2149658
140	0x3bd813df	0.0065941657
141	0x3e84ef0f	0.25963637
142	0xbe632493	-0.2218192
143	0x3e21a559	0.15785731
144	0x3ea787bd	0.32720748
145	0xbd3caa42	-0.046060808
146	0x3de425bc	0.1114001
147	0xbe7e35c1	-0.24825193
148	0x3d489f06	0.04897978
149	0xbdeab171	-0.114596255
150	0xbdb96382	-0.09052183
151	0x3e2dd423	0.16975455
152	0xbc5cfc9b	-0.01348796
153	0x3e2221e1	0.15833236
154	0x3e265485	0.16243179
155	0x3e0cf35f	0.13764714
156	0x3ed25905	0.41083542
157	0x3e338de3	0.17534594
158	0xbe445aef	-0.19175313
159	0xbe866d63	-0.2625533
160	0x3ecd617d	0.4011344
161	0x3a76185a	0.0009387784
162	0xbe88a965	-0.26691738
163	0x3cebc4b4	0.028780319
164	0xbe56bff7	-0.20971666
165	0xbe0a18ea	-0.13486066
166	0xbe5407ae	-0.20706055
167	0x3deda2aa	0.11603291
168	0x3da644cb	0.0811859
169	0xbd983594	-0.07432094
170	0xbe8154c8	-0.25259995
171	0x3e5b7788	0.21432316
172	0xbcc37b53	-0.023862517
173	0xbd71b415	-0.05900963
174	0xbdca2684	-0.098706275
175	0xbe76edfc	-0.24114221
176	0xbe95f85d	-0.2929105
177	0x3e3c3443	0.18379311
178	0xbe8d9b52	-0.27657562
179	0x3e410f0a	0.18853393
180	0x3e073774	0.13204747
181	0xbdfdd518	-0.1239416
182	0xbc130a02	-0.008974554
183	0xbe4bdc5d	-0.1990828
184	0xbe34c8ea	-0.17654768
185	0xbe96180b	-0.29315218
186	0xbe9d0337	-0.30666515
187	0xbdf2c2a7	-0.11853533
188	0x3e177472	0.14790514
189	0xbe6c2caa	-0.23063913
190	0xbeb9a047	-0.36255094
191	0xbdd69e10	-0.10479367
192	0xbeba0ed7	-0.36339447
193	0xbecfefb5	-0.4061257
194	0x3e16a14c	0.14709967
195	0xbdc2f250	-0.09518874
196	0x3e8811d4	0.26576102
197	0x3e0aad65	0.13542707
198	0xbe9c57d2	-0.30535752
199	0xbdec156f	-0.11527526
200	0x3e951ce9	0.2912362
201	0xbdb37aa0	-0.08763623
202	0xbe0b6c55	-0.13615544
203	0x3e568773	0.20950107
204	0xbdb7a028	-0.08966094
205	0xbe7aa24c	-0.24475974
206	0xbe84ce8f	-0.25938842
207	0x3daaeafc	0.08345601
208	0x3e383adf	0.17991208
209	0x3df603da	0.120124534
210	0x3dee0674	0.116223246
211	0xbe1f6991	-0.15567614
212	0x3e6d5b27	0.23179303
213	0x3e264e5b	0.16240828
214	0xbe8cdcbe	-0.27512163
215	0xbcb72a1b	-0.022358945
216	0xbe8f6a29	-0.2801068
217	0x3dd52445	0.104073085
218	0x3e9aa8bf	0.30206868
219	0x3e4df845	0.20114239
220	0xbc64b18e	-0.013958348
221	0x3df49b9a	0.11943741
222	0x3e7b5954	0.24545795
223	0xbe742cef	-0.23845266
224	0xbe3bda2f	-0.18344949
225	0xbe969d5a	-0.29416925
226	0xbcf3903f	-0.029731868
227	0x3e97a86f	0.29620692
228	0xbe5e3a0f	-0.21701835
229	0xbe7e1941	-0.24814321
230	0x3cf98548	0.030459061
231	0xbe8891f7	-0.26673862
232	0xbed79a6f	-0.4211001
233	0xbe81a145	-0.2531835
234	0x3e226ff4	0.15863019
235	0x3e4e78fe	0.20163342
236	0x3dd5d594	0.104411274
237	0xbeaa5480	-0.33267593
238	0x3dd4a5b9	0.103831716
239	0xbe22f69c	-0.15914387
240	0x3e807221	0.25087073
241	0x3d2b87b0	0.04187745
242	0xbe707322	-0.2348142
243	0x3e3a91c9	0.18219675
244	0xbe86c789	-0.26324108
245	0xbe6679ee	-0.2250745
246	0x3c029fcb	0.007972668
247	0xbe461d6e	-0.19347164
248	0x3d741935	0.05959435
249	0x3e70f84c	0.23532218
250	0x3e38be25	0.18041284
251	0xbb33f208	-0.0027457494
252	0xbecb682f	-0.39727923
253	0x3e80ede4	0.25181496
254	0x3e93e239	0.28883532
255	0xbd990925	-0.07472447

weight_hh_l0 f4 [40, 10]
0	0x3e27a068	0.16369784
1	0xbe2d6f27	-0.16936933
2	0xbcdc6ed2	-0.026908312
3	0x3d36c551	0.04462177
4	0x3e0b98ea	0.13632551
5	0x3e841a36	0.25801247
6	0xbe10f63e	-0.14156434
7	0x3d3633e9	0.0444831
8	0xbebcb555	-0.36857095
9	0xbdaee3c9	-0.0853954
10	0x3e7893f7	0.24275194
11	0xbbe653ed	-0.0070290477
12	0x3df547b4	0.11976567
13	0xbeb0e873	-0.34552345
14	0x3db61637	0.08890956
15	0xbe2f52f0	-0.17121482
16	0xbe3dbcb4	-0.18529016
17	0xbe31ef0b	-0.17376344
18	0x3e44396d	0.19162531
19	0x3d9a917f	0.075472824
20	0xbd6c55e7	-0.05769911
21	0x3eae4261	0.34035018
22	0x3dac4390	0.08411324
23	0xbe1e105a	-0.15435925
24	0x3d66a712	0.056311674
25	0xbd24a500	-0.04019642
26	0xbd618d2e	-0.05506628
27	0xbe8995d4	-0.26872122
28	0x3d42e44b	0.047581
29	0xbd75ff01	-0.060057644
30	0xbe3b8d01	-0.18315507
31	0x3e515b66	0.20445022
32	0x3c7b542c	0.015339892
33	0xbe770f68	-0.24126971
34	0xbd366ee8	-0.044539362
35	0xbe7790d3	-0.2417634
36	0x3e863e2f	0.26219317
37	0x3e5165e3	0.20449023
38	0xbebf3ad7	-0.3734958
39	0xbd23cae0	-0.0399884
40	0xbb96559c	-0.004587842
41	0x3e7c827b	0.2465915
42	0x3ed64f75	0.41857496
43	0xbe6a19ec	-0.22861451
44	0x3c98e859	0.01866548
45	0xbda73c7b	-0.081658326
46	0x3eaab22c	0.3333906
47	0x3eab5dae	0.3346991
48	0xbdf89166	-0.121371076
49	0x3e67b0fb	0.22626106
50	0xbd872f54	-0.06600824
51	0xbdbfcfd2	-0.093658105
52	0x3d0d0c21	0.034435395
53	0x3e8437d8	0.25823855
54	0xbdbdc773	-0.092665575
55	0xbdf90077	-0.12158292
56	0x3e8bbb8b	0.2729152
57	0xbdaa71b0	-0.083224654
58	0xbdb8b570	-0.090189815
59	0xbe5659b7	-0.20932661
60	0xbdad9c8f	-0.08477127
61	0x3eb1ecac	0.3475088
62	0x3dda3463	0.10654523
63	0x3e2aa86f	0.16665815
64	0xbcf592d1	-0.029977234
65	0x3b8654d1	0.0040994664
66	0x3da2ed9e	0.07955478
67	0x3dbbc9fe	0.09169386
68	0x3d611392	0.054950304
69	0xbdfd28d2	-0.123613015
70	0xbd8d709d	-0.06906245
71	0x3e00814d	0.12549324
72	0xbe9555fd	-0.29167166
73	0xbc739e99	-0.014869356
74	0xbcb2d1c6	-0.021828543
75	0x3e47c9c7	0.19510566
76	0x3e0501f8	0.12989032
77	0xbde56d18	-0.112024486
78	0xbe9922e3	-0.2990943
79	0xbe9c9180	-0.30579758
80	0xbeccf39f	-0.40029618
81	0x3df1ee3a	0.11813016
82	0xbdceb7ee	-0.100936756
83	0xbedc6231	-0.43043664
84	0x3ec27146	0.37977046
85	0xbee1101b	-0.439576
86	0x3ecf0b84	0.40438473
87	0x3f05d45a	0.5227715
88	0x3ebc14f0	0.36734724
89	0xbe14d9ff	-0.14536284
90	0xbe89f51f	-0.26944825
91	0xbdb4d46c	-0.08829579
92	0x3eaf25fe	0.34208673
93	0x3e1c6845	0.1527415
94	0x3ea5004a	0.32226783
95	0xba97b6a0	-0.0011574812
96	0x3e8cdb05	0.2751085
97	0x3e9c15e0	0.3048544
98	0x3e4578e6	0.192844
99	0xbdec81cd	-0.11548195
100	0x3e56433b	0.20924084
101	0x3de0cedf	0.109769575
102	0xbe31054f	-0.17287181
103	0xbd1d77f3	-0.03844447
104	0xbdbde463	-0.09272077
105	0x3c8373d2	0.016046438
106	0x3bc36b90	0.00596375
107	0xbdb0af29	-0.08627159
108	0xbef55178	-0.47913718
109	0x3c70f05f	0.014705746
110	0xbce9b392	-0.028528009
111	0x3e650e05	0.2236863
112	0xbc662c8d	-0.014048708
113	0xbe257995	-0.16159661
114	0x3c2606a0	0.010133415
115	0xbea7a49a	-0.3274277
116	0x3d823e29	0.06359512
117	0xbd93f630	-0.07224691
118	0x3e48c87d	0.1960773
119	0x3e9d0c55	0.3067347
120	0xbe89e7c8	-0.26934648
121	0x3e9868c3	0.29767427
122	0xbd68a825	-0.05680098
123	0xbc589eed	-0.013221485
124	0x3e972b47	0.29525205
125	0xbe9d9cf2	-0.30783802
126	0xbdde36c5	-0.1085029
127	0xbc5d4280	-0.013504624
128	0xbdda8f88	-0.10671908
129	0xbd03d31e	-0.03218376
130	0x3d66c601	0.056341175
131	0x3e917791	0.28411534
132	0x3d8ef09f	0.069794886
133	0x3e42dd32	0.19029692
134	0x3e65257f	0.22377585
135	0x3e822df0	0.25425673
136	0x3ea8d42d	0.32974377
137	0xbe7231fd	-0.23651882
138	0xbed9286b	-0.4241365
139	0x3dd1f5f8	0.10251993
140	0x3d638bbc	0.055553183
141	0xbe65c058	-0.22436655
142	0x3eb03922	0.3441859
143	0xbe631caf	-0.2217891
144	0x3e793fda	0.24340764
145	0xbe84073a	-0.25786763
146	0xbc752fcc	-0.014965009
147	0xbc2d05fc	-0.010560509
148	0xbe816962	-0.25275713
149	0x3e322959	0.17398585
150	0xbe92e13c	-0.28687465
151	0xbe52211c	-0.20520443
152	0xbe0dbe99	-0.13842238
153	0x3e82bc27	0.25534174
154	0xbd14b955	-0.03630956
155	0x3e832516	0.25614232
156	0xbe8b0b8a	-0.2715724
157	0x3dc07648	0.0939756
158	0x3e991a00	0.2990265
159	0x3e655d4d	0.22398873
160	0xbe16b497	-0.14717327
161	0x3e9ee71d	0.310357
162	0x3e5717d5	0.21005185
163	0xbe45cf72	-0.19317415
164	0x3e6dee52	0.23235443
165	0xbe936bfc	-0.28793323
166	0xbe3cc1a2	-0.1843324
167	0xbd95aae6	-0.07307987
168	0x3e3a110e	0.18170568
169	0xbe7555f7	-0.23958574
170	0x3ea66b4c	0.32503736
171	0xbe9362f3	-0.2878643
172	0xbe93aaed	-0.28841344
173	0x3d2e4809	0.042549167
174	0xbe2cccd7	-0.16875015
175	0x3e313f0e	0.1730921
176	0x3e89f9a1	0.26948264
177	0x3da25589	0.07926471
178	0x3ec39b41	0.38204387
179	0xbd999413	-0.07498946
180	0xbcb18aa1	-0.021672549
181	0xbeafbe77	-0.34325
182	0x3ecb923f	0.39760014
183	0xbeaf0053	-0.34179935
184	0x3e803b73	0.25045356
185	0xbea4d6ac	-0.32195032
186	0x3cdb792d	0.02679118
187	0x3e2ceac8	0.16886437
188	0xbe375b38	-0.17905891
189	0x3e956141	0.2917576
190	0x3dd6f912	0.10496725
191	0x3d9b0a43	0.07570317
192	0x3be8ae36	0.0071008457
193	0x3e6366fe	0.22207257
194	0x3c413b84	0.011793975
195	0x3da95c33	0.08269539
196	0xbd227dc5	-0.039670724
197	0xbdaca2de	-0.08429502
198	0xbe60a804	-0.21939093
199	0xbe80faa3	-0.2519122
200	0x3e5a1670	0.21297622
201	0x3e700eb7	0.23443113
202	0xbe7d8a1e	-0.24759719
203	0x3e81484a	0.25250465
204	0x3e6713d5	0.22566159
205	0xbd8bfa47	-0.06834846
206	0x3ea67db9	0.32517794
207	0xbe66274c	-0.22475928
208	0x3ea6e159	0.32593802
209	0xbe795af6	-0.24351105
210	0x3e80fa89	0.25191143
211	0x3df3441a	0.11878224
212	0x3e8e58a9	0.27802017
213	0x3aba235b	0.001420121
214	0xbe9dffe6	-0.30859298
215	0x3e9fcfb9	0.31213167
216	0xbe99fa4c	-0.30073774
217	0x3e41b46e	0.18916485
218	0xbe2c1517	-0.1680492
219	0x3d583f4c	0.05279474
220	0xbe147264	-0.14496762
221	0xbe526746	-0.20547208
222	0x3c94a585	0.018145332
223	0x3e7dc45e	0.2478194
224	0x3e339084	0.17535597
225	0x3dc7d67a	0.09757705
226	0xbe21520f	-0.15753959
227	0xbeb5af39	-0.35485247
228	0xbe075936	-0.13217625
229	0xbe72c974	-0.23709661
230	0x3d2e7876	0.04259535
231	0x3dbc2b9d	0.09188006
232	0x3e105fd6	0.14099059
233	0xbe2ef43d	-0.17085357
234	0xbe2b7563	-0.16743998
235	0xbdc2d053	-0.09512391
236	0x3c7cf1cb	0.015438507
237	0xbdfed6b0	-0.12443292
238	0xbdd81bc6	-0.10552172
239	0xbe616141	-0.22009756
240	0xbe8776f0	-0.2645793
241	0x3deb6d70	0.11495483
242	0x3db93b92	0.09044565
243	0x3dcd597e	0.10026835
244	0x3e99bdcb	0.30027613
245	0xbeb6d426	-0.3570873
246	0x3c24014c	0.010010075
247	0xbe022ecf	-0.12713169
248	0x3e567b1f	0.20945404
249	0x3e8795ac	0.26481378
250	0x3e6c8cce	0.23100588
251	0x3e88f47e	0.26749033
252	0xbe1cab49	-0.15299715
253	0xbe3d73dd	-0.1850123
254	0x3df9f5c3	0.122050785
255	0x3d945c6e	0.07244192

bias_ih_l0 f4 [40]
0	0x3e6dca48	0.23221695
1	0x3e0ba45e	0.1363692
2	0x3e961ec1	0.29320338
3	0xbd86ae70	-0.0657624
4	0xbde6013d	-0.11230705
5	0xbd827e42	-0.06371738
6	0x3e08d694	0.13363105
7	0xbd8cbe0b	-0.06872185
8	0x3e35c56e	0.17751095
9	0xbd33144c	-0.04372053
10	0xbd3abdfa	-0.045591332
11	0x3e47e3d2	0.195205
12	0xbe5c9af4	-0.21543485
13	0x3e9efb20	0.31050968
14	0xbd8a0a7e	-0.067402825
15	0x3e1a259f	0.15053414
16	0xbdabac2b	-0.08382448
17	0x3b1b100e	0.0023660692
18	0xbe473a96	-0.19455943
19	0xbe25ebe8	-0.16203272
20	0x3d47ef13	0.048811983
21	0xbd30cf63	-0.04316653
22	0x3cd00895	0.025394717
23	0xbe23e9b2	-0.16007116
24	0xbe651ed4	-0.22375041
25	0xbde92011	-0.11383069
26	0x3d0b0dbc	0.033948645
27	0xbd89c9b0	-0.06727922
28	0x3e8e35ad	0.27775326
29	0xbe2fe395	-0.1717666
30	0xbe4cd861	-0.20004417
31	0x3e845868	0.258487
32	0x3db79e90	0.0896579
33	0xbdd1b527	-0.1023963
34	0xbe06d59a	-0.1316742
35	0x3d7c4084	0.061584964
36	0xbe0313fc	-0.12800592
37	0x3d8ee4b0	0.069772124
38	0xbda73345	-0.08164076
39	0xbe0b0414	-0.13575774

bias_hh_l0 f4 [40]
0	0x3dd1c1ec	0.10242066
1	0xbd890d2f	-0.06691968
2	0x3e71ac55	0.23600896
3	0x3ea168a1	0.31525138
4	0xbe10e8ce	-0.14151308
5	0xbe60a40c	-0.21937579
6	0x3e7cbaff	0.24680708
7	0x3da0c54d	0.07850132
8	0x3e4406ae	0.19143173
9	0x3e9cbabf	0.30611226
10	0xbe739731	-0.23788144
11	0xbe1dea10	-0.15421319
12	0x3dc37d7c	0.095454186
13	0x3eaaed59	0.33384207
14	0x3ea740a9	0.3266652
15	0x3da8496a	0.082171276
16	0x3cc955b8	0.024577007
17	0xbd692a8e	-0.05692535
18	0xbdc92a9a	-0.09822579
19	0x3eb1a871	0.34698823
20	0x3e6d861d	0.23195691
21	0x3e870d3c	0.26377285
22	0x3e683266	0.22675475
23	0xbe519b6d	-0.20469446
24	0x3e98647c	0.29764163
25	0xbe97fc8c	-0.29684865
26	0x3ec4e402	0.38455206
27	0xbe723ac6	-0.23655233
28	0x3e86fe6e	0.2636599
29	0x3d6c4b94	0.057689264
30	0x3d8955d3	0.06705823
31	0x3e162a41	0.14664556
32	0x3e9a3730	0.3012023
33	0x3e71edf5	0.2362593
34	0xbe698418	-0.22804296
35	0x3dc4f14f	0.096163385
36	0x3d66e901	0.056374554
37	0x3d36d6eb	0.044638555
38	0x3c9ada2b	0.018902859
39	0x3d52f388	0.05150178

weight_ih_l0 f4 [40, 22]
0	0x3e9e508b	0.30920824
1	0x3e906c9d	0.28207865
2	0xbe7d63b4	-0.24745065
3	0xbda2f7bc	-0.07957408
4	0xbe680658	-0.2265867
5	0xbdbbb742	-0.09165813
6	0xbe028203	-0.12744908
7	0x3e0c5721	0.13705112
8	0xbe8a1f52	-0.2697702
9	0xbd59f330	-0.053210437
10	0xbeaf7e4d	-0.34276047
11	0xbe544e96	-0.20733103
12	0xbe5136cc	-0.2043106
13	0xbe8b97ef	-0.27264354
14	0xbeae53e6	-0.34048384
15	0x3c8cc433	0.017183399
16	0xbe21615e	-0.15759799
17	0x3de26166	0.110537335
18	0x3e7aa44f	0.24476741
19	0xbe581927	-0.21103345
20	0xbd8dc287	-0.06921869
21	0xbd94ad43	-0.072596096
22	0x3de73027	0.11288481
23	0xbd77dc0c	-0.060512587
24	0xbeaea466	-0.341098
25	0x3e3f07c9	0.18655314
26	0xbe1ed700	-0.15511703
27	0xbe1a3b67	-0.15061723
28	0xbeafb0ab	-0.34314474
29	0x3e0e6d8e	0.1390898
30	0x3e06f651	0.131799
31	0x3eb660d9	0.35620764
32	0x3e84c8e3	0.25934514
33	0x3dbfd017	0.09365862
34	0xbc282300	-0.010262251
35	0x3c423fce	0.011856033
36	0xbcf72903	-0.030170923
37	0x3e9c7774	0.30559886
38	0xbe66195f	-0.22470616
39	0xbcffa3b5	-0.031205991
40	0xbe49cda8	-0.19707358
41	0x3ea65478	0.3248632
42	0xbc0813fc	-0.008305546
43	0xbd2ba16f	-0.041902002
44	0x3d870e57	0.06594532
45	0xbd2b1aee	-0.04177373
46	0xbe296448	-0.1654216
47	0xbdafffe5	-0.0859373
48	0x3e3cc040	0.18432713
49	0xbe3cdfb1	-0.18444706
50	0x3e5731ed	0.21015139
51	0x3c61085a	0.013734901
52	0x3d38f369	0.04515401
53	0xbeac6982	-0.33674246
54	0xbcf053e4	-0.029336877
55	0x3e63de65	0.22252806
56	0xbe2b1009	-0.16705336
57	0xbe6715d4	-0.2256692
58	0xbeb49111	-0.35266927
59	0x3ea78651	0.32719663
60	0x3d9da4cc	0.07697448
61	0xbe8f7576	-0.28019303
62	0xbdf69cfd	-0.12041662
63	0x3d11989e	0.035545938
64	0x3e8e7e89	0.27830914
65	0xbce9ce0c	-0.028540634
66	0xbd76aeb1	-0.060225192
67	0xbea76b85	-0.32699218
68	0x3dd9f5c9	0.10642583
69	0x3e8d336e	0.275783
70	0x3e81ff54	0.25390112
71	0xbd9ff035	-0.07809488
72	0xbe60bb56	-0.21946463
73	0x3e28c1ad	0.16480131
74	0x3d8a3907	0.06749158
75	0xbe09a830	-0.13443065
76	0x3dc63a22	0.09679057
77	0x3e4eb311	0.20185496
78	0x3e0e64ea	0.13905683
79	0x3df18bcc	0.11794242
80	0x3e8424c7	0.2580931
81	0x3ebb05b7	0.36527798
82	0x3e98ee38	0.29869246
83	0x3e90752e	0.282144
84	0x3e7be4ab	0.24598949
85	0x3e933213	0.2874914
86	0x3cb3d6a2	0.02195293
87	0xbd6ebc46	-0.05828502
88	0xbe5a742c	-0.21333379
89	0xbd05560a	-0.032552756
90	0xbe334219	-0.17505683
91	0xbd996e2f	-0.07491719
92	0x3cef1c3e	0.029188272
93	0x3db40567	0.08790093
94	0xbd0aa851	-0.033851925
95	0xbe405a07	-0.18784343
96	0xbb9eed89	-0.0048500937
97	0x3d2c12dd	0.042010177
98	0x3da3d26e	0.07999121
99	0x3e655212	0.22394589
100	0xbe94762e	-0.28996414
101	0xbcf8f4ed	-0.030390227
102	0x3e912ff0	0.28356886
103	0xbd171ddc	-0.03689371
104	0x3eccfca1	0.4003649
105	0xbe90660d	-0.2820286
106	0x3e10ff81	0.14159967
107	0xbd0414e5	-0.03224649
108	0xbe20731c	-0.1566891
109	0xbd1dba2d	-0.03850763
110	0xbe746961	-0.23868324
111	0x3ea058e5	0.3131782
112	0xbce35623	-0.027751034
113	0x3e2ae225	0.1668783
114	0xbe140493	-0.1445487
115	0x3e1e3382	0.15449336
116	0xbe72900d	-0.23687764
117	0xbe6a3794	-0.22872764
118	0x3d618472	0.05505795
119	0x3e98a25a	0.29811364
120	0xbe1c4d6e	-0.15263912
121	0x3bc72ea0	0.006078556
122	0xbdab97b0	-0.083785415
123	0xbce18a57	-0.027531786
124	0x3e56da9c	0.2098183
125	0xbe361560	-0.17781591
126	0xbc9b0b9b	-0.018926432
127	0x3e438705	0.19094475
128	0xbd86df6b	-0.06585582
129	0x3eb4ca6f	0.35310695
130	0xbec2aa9b	-0.38020787
131	0x3e861afd	0.26192465
132	0x3eb99f2d	0.36254254
133	0x3e16c81d	0.14724775
134	0x3e7a2639	0.24428643
135	0x3e2f8b1e	0.17142913
136	0x3e7bdf57	0.24596916
137	0x3c2e8aa2	0.01065317
138	0x3c24efb0	0.010066912
139	0x3e601d10	0.21886086
140	0x3edce7d4	0.4314562
141	0xbea26f51	-0.31725553
142	0x3dd171a3	0.102267526
143	0x3d1bbdcb	0.038022798
144	0x3bfc1829	0.00769331
145	0x3da3e581	0.08002759
146	0xbe8dd201	-0.27699283
147	0xbe95960c	-0.2921604
148	0xbdd4873a	-0.10377355
149	0x3e6ced86	0.23137483
150	0x3e5698fe	0.209568
151	0x3dfee99d	0.12446902
152	0x3dcb45b6	0.09925406
153	0xbe5d8275	-0.21631797
154	0xbda4a95a	-0.08040114
155	0xbe3b3f3b	-0.1828584
156	0x3c6bb088	0.01438535
157	0xbe664e0e	-0.22490713
158	0x3e8eb24e	0.2787041
159	0x3e3236fc	0.17403787
160	0xbe701fc5	-0.23449619
161	0xbe58033c	-0.21094984
162	0xbe58bf43	-0.2116671
163	0x3d4eb692	0.05046708
164	0xbea4cb71	-0.32186463
165	0xbdb4f116	-0.08835046
166	0xbeaff6aa	-0.34367877
167	0xbe9f542c	-0.31118906
168	0xbeac427a	-0.33644468
169	0xbe6a587e	-0.2288532
170	0xbdddd6c1	-0.10831977
171	0xbddf19bb	-0.108935796
172	0xbe22fb2f	-0.15916131
173	0x3e1c19b1	0.15244175
174	0x3e89d9ef	0.26924083
175	0xbd07853c	-0.033086047
176	0x3eb2b828	0.34906125
177	0xbe52f6d2	-0.20601967
178	0x3cb2f9d5	0.021847645
179	0x3e15440a	0.14576736
180	0x3d9f6ea1	0.07784773
181	0xbc6bb23d	-0.014385757
182	0xbee589e7	-0.44831774
183	0x3e22b67e	0.15889928
184	0xbe0f91be	-0.1402044
185	0xbe3f3961	-0.18674232
186	0xbe217b5f	-0.15769719
187	0x3e5a6833	0.21328811
188	0xbd955f03	-0.07293513
189	0x3d947ad3	0.07249989
190	0xbe9b2b69	-0.30306557
191	0x3ea09699	0.31364897
192	0x3e606034	0.21911699
193	0x3d3bd445	0.045856733
194	0x3e12909f	0.14312981
195	0x3e8c3be0	0.2738943
196	0x3ec90f6e	0.39269584
197	0x3e9aa840	0.3020649
198	0x3cd05176	0.025429469
199	0x3df2ee5d	0.118618704
200	0xbdedda76	-0.11613934
201	0x3e97cde6	0.29649276
202	0xbe38379f	-0.17989968
203	0x3e870d20	0.263772
204	0xbd2d0fd4	-0.042251423
205	0x3e566aec	0.20939225
206	0x3e7cd810	0.24691796
207	0xbc87216c	-0.016495429
208	0xbe987547	-0.29776976
209	0x3d5386a3	0.05164207
210	0x3e4c283b	0.19937222
211	0xbe969c08	-0.29415917
212	0x3d0457a4	0.032310143
213	0xbd454e0e	-0.048170142
214	0xbeb07954	-0.34467566
215	0xbe449323	-0.19196753
216	0xbe01b6ce	-0.1266739
217	0x3e047d75	0.12938483
218	0x3e7c5ac6	0.24644002
219	0xbe1e17fa	-0.15438834
220	0xbdce2e09	-0.10067374
221	0xbd4564a2	-0.048191674
222	0x3e7e06f1	0.24807335
223	0xbeaad709	-0.33367184
224	0xbe2d91e5	-0.16950186
225	0x3d630363	0.05542315
226	0xbe1230ad	-0.14276381
227	0xbe75e2f6	-0.2401236
228	0x3d20a746	0.039222024
229	0xbbc0e101	-0.0058861976
230	0xbd098fa1	-0.03358424
231	0x3e7de7aa	0.24795404
232	0x3ead3a21	0.3383341
233	0x3e945e5d	0.28978243
234	0xbdc54ae4	-0.09633425
235	0x3e45cf7b	0.19317429
236	0x3e638e91	0.22222354
237	0x3e907064	0.28210747
238	0xbddb2855	-0.10701052
239	0x3d3a35d4	0.04546149
240	0xbdbda95b	-0.092608176
241	0xbd4772e0	-0.048693538
242	0xbeae572f	-0.3405089
243	0x3eb192a6	0.34682196
244	0xbec0594b	-0.37568125
245	0x3cb6255d	0.022234613
246	0xbc7d34d6	-0.015454492
247	0x3e4ed675	0.20198996
248	0x3d4d686f	0.050148424
249	0x39c74e58	0.00038014608
250	0xbe7b21d8	-0.24524629
251	0x3c268846	0.010164326
252	0xbeceeb3a	-0.4041384
253	0x3e44b873	0.19210987
254	0x3dcc3175	0.09970371
255	0x3eb35272	0.35023838

weight_hh_l0 f4 [40, 10]
0	0x3e6c66f1	0.23086144
1	0x3d206f69	0.03916875
2	0xbe88c294	-0.2671095
3	0xbe91c592	-0.28471047
4	0xbcdd5cd9	-0.027021812
5	0x3e5026b8	0.2032727
6	0xbe8a9d00	-0.27072906
7	0xbcffd9f4	-0.031231858
8	0x3e79405a	0.24340954
9	0xbea5a690	-0.3235364
10	0xbea3df4e	-0.32006305
11	0xbe1fb721	-0.15597202
12	0x3dbdb2dc	0.0926263
13	0x3d7332b8	0.05937454
14	0xbe554ea7	-0.20830785
15	0xbe459ef4	-0.19298917
16	0xbe4c6bfe	-0.19963071
17	0x3d3670a3	0.044541012
18	0xbe4a5cd2	-0.1976197
19	0x3eb9ecff	0.36313626
20	0x3da5bd0a	0.08092697
21	0xbeacc912	-0.33747154
22	0xbe833fc1	-0.25634578
23	0xbe5f9c7f	-0.21837042
24	0xbe3906fe	-0.18069074
25	0xbe53dbdc	-0.20689338
26	0x3da2bdf5	0.07946388
27	0x3e0f9a74	0.14023763
28	0xbe8f4293	-0.2798048
29	0xbe2f438a	-0.17115608
30	0x3e304de6	0.17217216
31	0xbe867480	-0.26260757
32	0x3cd2c287	0.025727523
33	0xbe71bbd1	-0.23606803
34	0xbe098466	-0.13429412
35	0xbd3f2f31	-0.046675865
36	0x3ef0ea9c	0.47053993
37	0x3e98f34f	0.2987313
38	0xbdafd323	-0.08585193
39	0x3d33cc86	0.04389622
40	0xbe92ab70	-0.2864642
41	0x3e7089a8	0.23490012
42	0x3e4d4f72	0.20049837
43	0xbe86167c	-0.2618903
44	0xbcff39e7	-0.03115554
45	0xbe967f1f	-0.2939386
46	0xbc1680fb	-0.009186025
47	0xbdb31818	-0.0874483
48	0x3e72a7c7	0.23696814
49	0xbbc2fbf0	-0.0059504434
50	0xbdc1e8c7	-0.09468227
51	0x3e13ab5f	0.14420842
52	0xbdc45e95	-0.095883526
53	0xbcbd2e8c	-0.023093484
54	0xbdb6f685	-0.089337386
55	0xbec3ce08	-0.38243127
56	0xbe9e7a6f	-0.30952784
57	0xbdf1de93	-0.11810031
58	0x3ead6f3f	0.33873937
59	0x3e27d5b9	0.16390122
60	0xbe4773e9	-0.1947781
61	0x3d98b3b4	0.07456151
62	0xbd04bd42	-0.032407053
63	0xbe9cd620	-0.30632114
64	0xbe381f87	-0.17980777
65	0x3eb6935d	0.35659304
66	0x3d5455ac	0.051839516
67	0xbe2bcc28	-0.16777098
68	0xbd2ca6a3	-0.042151105
69	0xbca4db96	-0.020124238
70	0x3e208471	0.15675522
71	0xbe2a3056	-0.16620001
72	0x3e35a27e	0.17737767
73	0x3dc00376	0.0937566
74	0xbe6fa48f	-0.23402618
75	0xbe81905a	-0.25305444
76	0x3e8d5f31	0.27611688
77	0xbde27ff5	-0.11059562
78	0x3ba43337	0.005010988
79	0x3dfe4388	0.12415224
80	0xbcd61e70	-0.02613756
81	0xbede5d78	-0.43430686
82	0x3c81a205	0.015824327
83	0xbe286bfb	-0.16447441
84	0x3b9e2de1	0.0048272465
85	0x3ca52f0a	0.020164032
86	0xbf01b683	-0.50669116
87	0x3ec8ecc8	0.3924315
88	0xbe0eba41	-0.13938238
89	0x3e59a373	0.21253757
90	0x3e12fd5b	0.1435446
91	0x3e05fb5e	0.1308417
92	0x3c19c9a9	0.009386458
93	0x3e088db4	0.13335305
94	0xbd9d86ba	-0.07691713
95	0xbe6a8976	-0.22904
96	0xbdefda39	-0.117115445
97	0xbcb00daa	-0.02149089
98	0xbdc41345	-0.09573988
99	0x3d804965	0.06263999
100	0x3e437753	0.19088487
101	0xbccb5243	-0.024819499
102	0x3df470a8	0.1193555
103	0x3e8cbbf4	0.27487147
104	0xbd1b709a	-0.037949182
105	0xbde50cc7	-0.11184078
106	0xbe1fc606	-0.15602884
107	0xbd0bd7b7	-0.03414127
108	0x3e2151b2	0.1575382
109	0x3d73a714	0.05948551
110	0x3e2154e2	0.15755036
111	0xbdcac535	-0.099008955
112	0x3b317b4c	0.0027081547
113	0x3e6c2cdd	0.23063989
114	0xbde67324	-0.1125243
115	0xbe6ceb79	-0.231367
116	0x3dcbeb62	0.09957005
117	0xbcb8ef8b	-0.02257516
118	0xbe912c62	-0.28354174
119	0x3e26e168	0.16296923
120	0xbe20ab23	-0.15690283
121	0x3d87b85e	0.06626962
122	0x3df82ebc	0.12118289
123	0x3e270d8f	0.16313766
124	0xbeb4b726	-0.3529598
125	0xbe9a2c80	-0.30112076
126	0xbdfa032b	-0.122076355
127	0x3e26a751	0.16274764
128	0xbe1140e3	-0.14184909
129	0xbc5a6081	-0.013328672
130	0x3e23e63b	0.16005795
131	0x3ea4bda1	0.32175925
132	0xbdcd31d9	-0.10019273
133	0xbd88c9dc	-0.066791266
134	0xbc66cd05	-0.014086966
135	0x3e921598	0.285321
136	0x3e06e142	0.13171867
137	0x3ea7d400	0.3277893
138	0x3e928e74	0.28624308
139	0x3e9c5c93	0.3053938
140	0x3e6784b3	0.22609214
141	0x3d8fcd80	0.07021618
142	0xbe146564	-0.14491802
143	0x3e3d5d17	0.18492542
144	0x3d001efa	0.03127954
145	0xbd2bbbfd	-0.041927326
146	0xbd3fbc27	-0.046810295
147	0x3e24a292	0.1607764
148	0xbeb03979	-0.34418848
149	0x3e9ab328	0.3021481
150	0xbe9dd33a	-0.30825216
151	0xbe1d6e8e	-0.15374205
152	0xbebeaf8d	-0.3724331
153	0xbe992565	-0.29911342
154	0xbe42cbc8	-0.19023049
155	0xbe2e521c	-0.1702351
156	0x3e20302f	0.1564338
157	0x3e5e1561	0.21687843
158	0xbd5cdf6d	-0.053924013
159	0x3e339520	0.17537355
160	0x3d83b343	0.06430676
161	0xbe05c21c	-0.13062328
162	0xbe759313	-0.23981886
163	0xbcf99cd7	-0.030470295
164	0xbe70e029	-0.2352301
165	0xbd7af107	-0.061265018
166	0xbe048ce1	-0.12944366
167	0x3e84a42f	0.25906512
168	0xbe80e2a8	-0.25172925
169	0x3e3878c7	0.18014823
170	0xbeba8197	-0.36426994
171	0x3e152046	0.14563093
172	0xbe8f33f8	-0.27969337
173	0xbb916466	-0.0044370173
174	0x3d157a97	0.036493864
175	0xbed8bf1f	-0.42333314
176	0xbe4867dd	-0.1957087
177	0xbe3c2671	-0.18374039
178	0x3da848c6	0.082170054
179	0xbd64374f	-0.05571681
180	0xbd97872f	-0.07398831
181	0xbe9875b5	-0.29777303
182	0xbe9333ab	-0.28750357
183	0xbe9211bd	-0.28529158
184	0xbe0f1a49	-0.1397487
185	0x3e2818d2	0.16415718
186	0xbea50ffb	-0.32238755
187	0x3ea7044b	0.32620463
188	0xbdfcff46	-0.12353377
189	0x3eab7860	0.33490276
190	0xba84c831	-0.0010130462
191	0xbea75487	-0.32681677
192	0xbe2e9e32	-0.17052534
193	0x3e934a96	0.28767842
194	0xbe8bca4a	-0.27302772
195	0xbdc7dbf0	-0.097587466
196	0x3e5f98e4	0.21835667
197	0x3da03be5	0.07823924
198	0x3c9fee77	0.019522889
199	0xbc9c3d6f	-0.019072263
200	0xbe9e1312	-0.30873924
201	0x3e9a880d	0.30181924
202	0x3d9a04c0	0.07520437
203	0xbcd71bf5	-0.026258448
204	0x3e89c745	0.26909843
205	0x3deea5dc	0.11652729
206	0x3e294a3f	0.16532229
207	0x3c4c3281	0.012463213
208	0xbd02fd10	-0.03197962
209	0xbd0ca1c7	-0.03433397
210	0xbe671b48	-0.22569
211	0xbd8e4547	-0.06946807
212	0xbe417b4c	-0.1889469
213	0x3e05e02c	0.13073796
214	0x3e8301cf	0.25587317
215	0x3d1b9e30	0.037992656
216	0x3e49cfc0	0.19708157
217	0x3e8305db	0.25590405
218	0x3e1d6a46	0.15372571
219	0x3e33f6a7	0.17574559
220	0x3d3efb2e	0.046626262
221	0x3e9d116c	0.30677354
222	0xbe69ddc2	-0.228385
223	0xbdfb5fbf	-0.122741215
224	0xbe348df0	-0.1763227
225	0xbe104025	-0.14086969
226	0xbda5e580	-0.08100414
227	0xbe04e5dc	-0.1297831
228	0xbe705a9c	-0.23472065
229	0x3d86533f	0.06558847
230	0xbe4b7acb	-0.1987106
231	0xbe652861	-0.22378685
232	0x3e216325	0.15760477
233	0xbca75f5a	-0.02043121
234	0x3e834a46	0.25642604
235	0xbe9642ef	-0.2934794
236	0x3e89e39f	0.26931474
237	0xbe5594f0	-0.20857596
238	0x3e88897b	0.2666739
239	0x3eb0263d	0.34404173
240	0x3e9668a1	0.293767
241	0xbbefb20a	-0.007314925
242	0xbd76a162	-0.0602125
243	0xbe427627	-0.18990384
244	0xbe816447	-0.25271818
245	0x3df4ed52	0.11959328
246	0x3d9a0dd4	0.07522169
247	0x3cc8217b	0.024430027
248	0x3cc98312	0.024598632
249	0x3e8046d1	0.2505403
250	0x3e48ae29	0.19597687
251	0xbd530dc5	-0.051526804
252	0x3ea947ff	0.3306274
253	0xbd10b677	-0.035330262
254	0x3e99f527	0.3006985
255	0xbd852357	-0.06500881

bias_ih_l0 f4 [40]
0	0xbe690250	-0.22754788
1	0xbe17e3c5	-0.14832981
2	0x3d74285d	0.059608806
3	0xbb9fb039	-0.0048733023
4	0x3e79907d	0.24371524
5	0x3e0e7038	0.13909996
6	0xbe8a346e	-0.26993126
7	0x3de264a8	0.11054355
8	0x3e58f482	0.21187022
9	0x3d45a4db	0.04825292
10	0x3cb019dc	0.021496706
11	0x3e8f9251	0.28041318
12	0xbcecf836	-0.02892695
13	0x3e104296	0.140879
14	0x3e57648b	0.21034448
15	0x3e5c8f16	0.21538958
16	0x3c0bb40a	0.008526811
17	0x3d9db0ec	0.07699761
18	0xbe11115a	-0.14166775
19	0x3e81416a	0.2524522
20	0x3dea22bc	0.11432406
21	0xbea6f52b	-0.32608923
22	0x3d9f48c7	0.07777553
23	0x3c6c6b14	0.014429826
24	0xbe46ba82	-0.19407085
25	0xbe872da5	-0.26402012
26	0x3dfd5b87	0.12370973
27	0x3e611098	0.21978986
28	0x3e73b6ef	0.23800252
29	0x3e3ed3c3	0.18635468
30	0xbd54486e	-0.051826887
31	0x3eb049e1	0.34431365
32	0xbe43e896	-0.19131693
33	0xbe013b69	-0.1262032
34	0xbdb9a584	-0.09064773
35	0xbd6d6e39	-0.057966445
36	0x3e550adc	0.20804924
37	0x3bb8872f	0.0056313495
38	0xbd755b93	-0.059901785
39	0x3ee3370f	0.44377944

bias_hh_l0 f4 [40]
0	0xbd959f71	-0.07305802
1	0x3e6ee9b1	0.23331334
2	0x3de1dc31	0.11028326
3	0xbd59f4f2	-0.053212114
4	0xbe30467a	-0.17214385
5	0x3d8e2c68	0.069420636
6	0xbd9e5790	-0.07731545
7	0x3e33a26e	0.17542431
8	0x3dd1ea15	0.10249726
9	0x3e671147	0.22565185
10	0x3e63349f	0.22188042
11	0x3ea7e94e	0.32795185
12	0x3d5d6d31	0.05405921
13	0xbe0ad5a0	-0.13558054
14	0x3e8575c3	0.26066408
15	0x3ebf10fa	0.3731764
16	0xbd964ccb	-0.07338866
17	0x3d6bdb58	0.05758223
18	0xbe02593c	-0.12729353
19	0x3e7c6f8b	0.24651925
20	0x3e30b5ab	0.17256801
21	0xbe19776d	-0.14986964
22	0xbe84b46f	-0.2591891
23	0xbe60b6db	-0.21944754
24	0xbe092c0e	-0.13395712
25	0xbda79864	-0.08183363
26	0x3dcbdb41	0.09953929
27	0x3e9ad18c	0.30237997
28	0x3e0b6b7f	0.13615225
29	0x3e37720d	0.179146
30	0x3e7a8563	0.24464945
31	0xbe20725c	-0.15668625
32	0x3e31cb7f	0.17362784
33	0xbdccfdd7	-0.100093536
34	0xbe31f1c1	-0.17377378
35	0x3e90bd64	0.28269494
36	0xbe16488d	-0.14676113
37	0x3e8b50b5	0.27210012
38	0x3d81e718	0.06342906
39	0x3e85126b	0.25990614

weight_ih_l0 f4 [40, 22]
0	0x3e3d4c41	0.1848612
1	0x3e242112	0.1602824
2	0x3df65f61	0.12029911
3	0xbe9b024f	-0.302752
4	0x3e26238e	0.162245
5	0xbea2b02e	-0.3177504
6	0xbd68ded9	-0.05685315
7	0x3e7495eb	0.23885314
8	0xbba872ac	-0.005140623
9	0xbd4591fa	-0.048234917
10	0xbcf2cca7	-0.029638601
11	0xbe396b9a	-0.18107453
12	0xbe806dd3	-0.2508379
13	0x3e6e7d64	0.2329002
14	0x3dc8144f	0.097694986
15	0x3e3eb1ac	0.18622464
16	0x3e944e3a	0.28965932
17	0xbe8b62b5	-0.27223745
18	0xbe8f9ad2	-0.28047806
19	0x3e33bbc2	0.17552093
20	0x3e15c58c	0.1462614
21	0xbeb88e39	-0.36046007
22	0x3e7ff221	0.24994709
23	0x3e0c8bcb	0.13725202
24	0x3ddcf862	0.10789563
25	0xbe1b60d7	-0.1517366
26	0x3e5cb4cb	0.21553342
27	0x3e677be3	0.22605853
28	0xbd7706e5	-0.06030931
29	0xbb0708c0	-0.002060458
30	0xbe2cab8a	-0.16862312
31	0xbe286c9c	-0.16447681
32	0xbe3ec5fa	-0.1863021
33	0xbe529dc2	-0.20567992
34	0xbec078cd	-0.37592164
35	0x3dc071c8	0.09396702
36	0xbe7a2718	-0.24428976
37	0xbe8afc7d	-0.27145758
38	0xbe7bd2e6	-0.2459217
39	0xbd96e538	-0.07367939
40	0x3de2139c	0.110388964
41	0xbeca1fdc	-0.39477432
42	0x3e3004af	0.17189287
43	0xbb43c410	-0.00298715
44	0xbe919fa1	-0.284421
45	0x3eb59bdf	0.35470483
46	0x3e688421	0.22706653
47	0x3ce8a03e	0.028396722
48	0x3e22f6f1	0.15914513
49	0x3e5c23a4	0.21497971
50	0xbdd6caef	-0.10487925
51	0x3e5f6946	0.21817502
52	0xbe012b08	-0.12614071
53	0x3eb0ead3	0.34554157
54	0xbe9b796d	-0.30366078
55	0xbe23a593	-0.1598113
56	0x3dd49831	0.10380591
57	0x3e9425e8	0.2893517
58	0xbec66493	-0.38748607
59	0xbcbf90c6	-0.023384463
60	0x3ee6d6db	0.45085797
61	0xbe474975	-0.19461615
62	0xbe5a2983	-0.21304898
63	0x3e2e5dce	0.17027971
64	0x3e412211	0.18860652
65	0x3c909ea1	0.017653765
66	0x3e32c5b3	0.17458229
67	0xbef82d36	-0.48471993
68	0xbe65b78b	-0.22433297
69	0xbbbe4935	-0.005807067
70	0xbe8c10ba	-0.2735651
71	0xbe83fa4a	-0.25776893
72	0xbe9a2e0d	-0.3011326
73	0x3df35801	0.1188202
74	0xbd078308	-0.033083946
75	0x3e06f547	0.13179503
76	0xbda00a50	-0.07814467
77	0xbde80516	-0.11329095
78	0x3e179400	0.14802551
79	0x3d5d374a	0.054007806
80	0xbe5c1524	-0.2149244
81	0x3e07d809	0.13266005
82	0xbe20dc86	-0.15709123
83	0xbe749efc	-0.23888773
84	0xbcfd98ef	-0.030956713
85	0x3efb940a	0.49136382
86	0x3de4787d	0.11155794
87	0x3e7f32e6	0.2492176
88	0x3d123b31	0.03570098
89	0xbbb8e80f	-0.005642898
90	0x3e8ed991	0.27900365
91	0x3e0d1b18	0.13779867
92	0xbe0ff6db	-0.14059012
93	0xbe604c1c	-0.21904033
94	0xbe7ff60b	-0.24996202
95	0x3dce4823	0.10072353
96	0xbcd4be09	-0.025969522
97	0x3eac5a61	0.33662704
98	0xbd4b24c1	-0.049595598
99	0x3e273f44	0.16332728
100	0x3e8cef32	0.27526242
101	0xbe98c29b	-0.29835972
102	0xbd8568e9	-0.06514151
103	0xbe6f72c6	-0.23383626
104	0x3e4f3dc3	0.20238404
105	0x3e62b417	0.22139011
106	0xbe3c75ce	-0.18404314
107	0xbdc7533a	-0.09732671
108	0x3e80f5ba	0.25187474
109	0x3e8e9ffa	0.27856427
110	0x3d3218af	0.04348057
111	0xbe9e73f5	-0.30947843
112	0x3dde6bf9	0.10860438
113	0xbe23cb4a	-0.15995517
114	0x3de3963b	0.111126386
115	0xbdce0773	-0.100600146
116	0xbe5af353	-0.21381883
117	0xbc734cd0	-0.0148498565
118	0x3de7ef30	0.11324918
119	0xbe67b452	-0.2262738
120	0xbe8cde7c	-0.27513492
121	0x3e419cc0	0.18907452
122	0x3e05b96d	0.13059016
123	0xbdbb6458	-0.091499984
124	0xbe11af9a	-0.14227143
125	0xbd9cf1e9	-0.07663328
126	0x3cc42776	0.023944598
127	0xbd82af07	-0.0638104
128	0x3e133e87	0.14379321
129	0x3e97e9bc	0.29670513
130	0x3e92ac66	0.28647155
131	0x3eb17ca8	0.34665418
132	0xbe92f8a2	-0.28705317
133	0x3d6a3b16	0.057185255
134	0xbe844c29	-0.25839356
135	0x3ce1b096	0.027550023
136	0x3d81cb35	0.06337587
137	0xbe936938	-0.28791213
138	0xbdbe74f3	-0.0929965
139	0xbc83d0be	-0.016090747
140	0x3e5481ea	0.20752683
141	0x3e51dcae	0.20494339
142	0xbea37484	-0.31924832
143	0xbd85dd79	-0.06536383
144	0x3e9a1d1e	0.3010034
145	0x3e9c3274	0.30507243
146	0xbe3af5df	-0.18257855
147	0xbe9a0a67	-0.3008606
148	0x3e0bf98c	0.13669413
149	0x3ec74638	0.3892076
150	0x3d3f80bb	0.046753626
151	0x3e91897f	0.28425214
152	0xbe0bdbde	-0.13658091
153	0xbe418019	-0.18896522
154	0xbdfefc1f	-0.12450432
155	0xbce6665a	-0.028124977
156	0xbe4d381c	-0.20040935
157	0x3ebc86f0	0.368217
158	0x3e1d462e	0.15358803
159	0xbe43bf6a	-0.19115987
160	0xbe97f551	-0.2967935
161	0xbd509825	-0.050926346
162	0x3e7dd607	0.24788676
163	0x3d1bff17	0.03808507
164	0xbe5d64b5	-0.21620448
165	0xbcbf186c	-0.023327075
166	0x3cbb5d28	0.022871569
167	0x3d36e92c	0.044655964
168	0x3e19ba40	0.15012455
169	0xbd2366ae	-0.039892845
170	0xbc4b80e2	-0.012420865
171	0xbc14ee01	-0.009089948
172	0x3bc03cfb	0.0058666444
173	0x3e819255	0.25306955
174	0x3d67cf56	0.056594215
175	0xbdc9926f	-0.09842383
176	0xbd0fd011	-0.035110537
177	0xbe8a655e	-0.27030462
178	0xbeb428e5	-0.3518745
179	0x3eaecaca	0.3413909
180	0x3e77d868	0.24203646
181	0xbe1da644	-0.15395457
182	0x3c603681	0.01368487
183	0xbe311324	-0.17292458
184	0xbd38e3a2	-0.045138963
185	0x3d98e1bd	0.07464931
186	0x3e12f05a	0.143495
187	0x3e40df5e	0.18835208
188	0xbcbdecec	-0.023184262
189	0xbe8926dd	-0.26787463
190	0x3e5b19f3	0.21396618
191	0xbdf3f644	-0.11912206
192	0x3e41348b	0.188677
193	0xbe821df1	-0.25413468
194	0xbde6013a	-0.11230703
195	0x3e9794e6	0.29605788
196	0x3de9e540	0.11420679
197	0x3d0d7565	0.034535784
198	0x3e849d2b	0.2590116
199	0x3c8c9082	0.01715875
200	0xbe37ff6f	-0.17968534
201	0x3e33f1cf	0.17572711
202	0x3e0fd086	0.14044389
203	0x3d82856a	0.06373103
204	0xbd17a1e9	-0.037019644
205	0x3eabe5e2	0.33573824
206	0x3eab2421	0.33426002
207	0x3c3da827	0.011575735
208	0xbe4424ac	-0.19154614
209	0xbdac17ec	-0.08403
210	0xbed94d05	-0.42441574
211	0x3c320e20	0.0108676255
212	0x3e3f191a	0.18661919
213	0x3daaf41b	0.08347341
214	0xbd849200	-0.0647316
215	0xbe34df25	-0.17663248
216	0xbe8af135	-0.2713715
217	0xbcfb3b46	-0.030667912
218	0xbe11b6db	-0.1422991
219	0x3e4ba146	0.1988574
220	0x3e212149	0.15735354
221	0xbea21e97	-0.31663963
222	0xbd8a332a	-0.0674804
223	0x3df2db8d	0.11858282
224	0xbe6277f3	-0.2211607
225	0xbd9e0c80	-0.07717228
226	0x3de2ec9d	0.11080287
227	0xbdac768a	-0.08421047
228	0x3d759f42	0.059966333
229	0xbe0319c3	-0.12802796
230	0xbdc6513f	-0.09683465
231	0xbe5b9f2c	-0.21447438
232	0xbdeb54c3	-0.114907764
233	0xbe679e22	-0.22618917
234	0x3cdfa1a2	0.027298752
235	0xbdb78b51	-0.08962119
236	0xbdcf7d03	-0.10131266
237	0xbeeaa319	-0.4582756
238	0x3db9d847	0.09074455
239	0xbd992ca0	-0.07479215
240	0x3dfe1d2e	0.12407909
241	0xbe5708f2	-0.20999506
242	0x3e173548	0.14766419
243	0xbe3f2287	-0.18665515
244	0xbeb807b9	-0.35943392
245	0x3d6f8aa4	0.058481827
246	0xbea3e242	-0.3200856
247	0x3cc916d5	0.02454702
248	0x3cb48294	0.02203492
249	0x3ea42d96	0.3206603
250	0x3d5cd1a0	0.05391085
251	0x3e847240	0.25868416
252	0xbf00af7c	-0.5026777
253	0xbc8bf297	-0.01708345
254	0xbdeafa14	-0.1147348
255	0xbe6bc055	-0.23022588

weight_hh_l0 f4 [40, 10]
0	0x3bd35924	0.0064498354
1	0x3de657a2	0.112471834
2	0x3de8f2cf	0.11374437
3	0x3e6889d1	0.22708823
4	0xbe91248e	-0.28348202
5	0xbdab03fb	-0.083503686
6	0x3dd88d44	0.10573819
7	0xbea1dae4	-0.31612313
8	0x3e356b42	0.17716697
9	0xbe4a7884	-0.19772536
10	0xbe607f4d	-0.21923561
11	0x3eaae5a5	0.3337833
12	0x3e9419e5	0.28926006
13	0x3c23ee6f	0.0100055775
14	0x3e935be6	0.2878105
15	0xbde7d9b3	-0.1132082
16	0x3e6e1e22	0.23253682
17	0x3d8e3924	0.069444925
18	0xbe96e98d	-0.2947506
19	0x3dfe483b	0.124161206
20	0x3e1c7a7c	0.15281099
21	0xbe6bd7aa	-0.23031488
22	0x3e6e02a7	0.232432
23	0xbf14c03f	-0.58105844
24	0xbe4d1466	-0.20027313
25	0xbde5f869	-0.11229021
26	0x3e69e57c	0.22841448
27	0xbb8ae732	-0.0042389864
28	0xbd4f23a4	-0.0505711
29	0xbe48a148	-0.19592774
30	0x3e44eb75	0.19230445
31	0xbe1d16da	-0.15340748
32	0x3e6cb6a8	0.23116553
33	0x3d463dce	0.048398785
34	0xbcc2368d	-0.023707652
35	0x3e2ab361	0.1666999
36	0x3e9b63be	0.30349535
37	0xbd0972b7	-0.033556666
38	0xbec5e640	-0.3865223
39	0xbda223c6	-0.079169795
40	0xbd0da232	-0.03457851
41	0xbcaa7d7a	-0.020811785
42	0x3ece3ecb	0.40282282
43	0x3e2f4423	0.17115836
44	0x3e9d30fa	0.3070143
45	0xbe4196ea	-0.18905225
46	0x3f1f9bef	0.6234731
47	0x3cab4b2e	0.020909872
48	0xbcb67d00	-0.022276402
49	0xbe338d77	-0.17534433
50	0xbddeecd0	-0.10885012
51	0x3e1eb4ba	0.15498629
52	0x3eab435a	0.33449823
53	0xbe96c707	-0.2944872
54	0x3ea90845	0.33014122
55	0xbe713591	-0.2355559
56	0xbde50288	-0.111821234
57	0x3e898508	0.26859307
58	0xbea72227	-0.32643244
59	0xbe1beb6f	-0.1522653
60	0xbe442752	-0.19155625
61	0x3e4e543c	0.2014932
62	0x3ecfb0fa	0.4056471
63	0x3f12ce4e	0.57346046
64	0x3e9e522c	0.30922067
65	0xbe15e3f3	-0.14637737
66	0xbd66bb08	-0.05633071
67	0x3e472a89	0.1944982
68	0x3cf15b04	0.029462345
69	0xbe680911	-0.22659709
70	0xbdfaee64	-0.12252501
71	0xbd1e4109	-0.03863624
72	0x3ea27e3b	0.3173693
73	0xbd5ce0ae	-0.05392521
74	0xbcff2554	-0.03114573
75	0x3e4b1542	0.19832328
76	0x3d70c03c	0.05877708
77	0x3e73c019	0.23803748
78	0x3d1e15ce	0.038595013
79	0xbe826116	-0.25464696
80	0xbdb9687e	-0.090531334
81	0x3e60f363	0.21967845
82	0x3db9571a	0.090498164
83	0xbe66ee10	-0.22551751
84	0x3e0f03a4	0.13966233
85	0x3e8a339f	0.2699251
86	0x3e3fcb40	0.18729877
87	0xbe7a6d9b	-0.24455874
88	0x3e80a134	0.25122988
89	0x3e26034d	0.16212197
90	0xbe35714a	-0.17718998
91	0x3e4911ca	0.19635692
92	0x3ea42f13	0.32067165
93	0x3e36b847	0.17843734
94	0x3e95cc06	0.2925722
95	0xbe30af57	-0.17254387
96	0xbd47c5c2	-0.04877258
97	0x3e068c90	0.13139558
98	0xbdb12f08	-0.086515486
99	0xbe8d3bff	-0.27584836
100	0xbe2b5f4d	-0.16735573
101	0x3e7252e6	0.23664436
102	0x3bf764db	0.0075498647
103	0x3e9a0728	0.30083585
104	0x3ca88305	0.020570287
105	0x3da07770	0.07835281
106	0xbd308c1e	-0.043102376
107	0x3e40f648	0.18843949
108	0x3baf1574	0.0053431336
109	0xbe6bce13	-0.2302783
110	0x3def7bcb	0.116935335
111	0x3d9887e4	0.07447794
112	0xbd721db7	-0.05911037
113	0xbdfb59f4	-0.122730166
114	0x3e551060	0.20807028
115	0x3d305b2e	0.043055706
116	0x3e070e0a	0.13188949
117	0xbe1889d7	-0.14896332
118	0xbd0e08d7	-0.0346764
119	0xbe5f7113	-0.21820478
120	0x3e4d9c03	0.20079045
121	0xbe3f46e9	-0.18679394
122	0xbe58fcf4	-0.21190244
123	0xbf09a0b7	-0.53760856
124	0xbb688422	-0.0035479148
125	0x3e81871b	0.2529839
126	0x3de7c317	0.11316507
127	0x3def6181	0.11688519
128	0xbe84b229	-0.25917175
129	0x3df233fc	0.118263215
130	0xbe831512	-0.25602013
131	0x3db0701d	0.08615134
132	0x3e626be7	0.22111474
133	0xbeb71a1e	-0.35762113
134	0x3e802c89	0.25033978
135	0x3e9e794b	0.30951914
136	0xbe896117	-0.26831886
137	0x3d52784f	0.051384266
138	0xbe39bc9f	-0.1813836
139	0x3e3a33b8	0.18183792
140	0xbe190b27	-0.1494566
141	0x3e62273f	0.22085284
142	0x3e515e21	0.20446064
143	0xbd119127	-0.03553882
144	0xbd8e50bb	-0.06948992
145	0x3eb0d04c	0.34533918
146	0xbd8fec24	-0.07027462
147	0x3e8994e2	0.268714
148	0xbeb945c0	-0.36186028
149	0x3df5b264	0.11996916
150	0x3e7233f9	0.23652638
151	0xbe440899	-0.19143905
152	0xbe28106c	-0.16412514
153	0xbdb3f15a	-0.087862685
154	0x3d22d098	0.03974971
155	0x3e28824c	0.16455954
156	0x3ca98373	0.020692563
157	0x3d868782	0.06568815
158	0xbe67cbfa	-0.22636405
159	0xbe260285	-0.16211899
160	0x3e6addf9	0.22936238
161	0x3e585bb1	0.21128727
162	0x3db3951d	0.087686755
163	0x3e6d8468	0.2319504
164	0x3eb42645	0.35185447
165	0xbcd443d4	-0.02591125
166	0xbe6a91c6	-0.2290717
167	0x3e6c17e8	0.23055995
168	0x3e92d443	0.28677568
169	0x3e418743	0.18899255
170	0x3e05f5ca	0.13082042
171	0xbe22b165	-0.15887983
172	0x3e0f7999	0.1401123
173	0x3cac7576	0.021052103
174	0xbc8556c5	-0.016276726
175	0xbd27308b	-0.04081778
176	0xbdbadf10	-0.09124577
177	0x3ebbf0c6	0.36707133
178	0x3da8dc96	0.082451984
179	0xbc4320d1	-0.0119096795
180	0xbc0a5ec3	-0.0084454445
181	0x3d834d23	0.06411197
182	0xbd88837f	-0.06665706
183	0xbdd12156	-0.102114365
184	0x3e54f370	0.20795989
185	0xbe6b38d1	-0.22970892
186	0xbe5b8706	-0.21438226
187	0x3e58e263	0.2118011
188	0x3e08643a	0.13319483
189	0x3e7459bb	0.23862354
190	0xbe810452	-0.2519861
191	0x3e45dd13	0.19322614
192	0xbdba8092	-0.09106554
193	0x3db0ba12	0.0862924
194	0x3e8aa46c	0.2707857
195	0xbe891475	-0.2677342
196	0xbe8871cd	-0.26649323
197	0x3e4a858c	0.19777507
198	0x3d3cf3c9	0.04613093
199	0xbcfde471	-0.030992718
200	0xbc5e11b6	-0.013554027
201	0xbed231cc	-0.41053617
202	0xbe56fa77	-0.20993982
203	0x3e1df32e	0.15424797
204	0xbdc08834	-0.09400979
205	0xbe4a85d2	-0.19777611
206	0x3ed3acbd	0.41342726
207	0xbdf9656b	-0.12177547
208	0xbe176cd2	-0.14787605
209	0xbe3b6d9d	-0.18303533
210	0xbddfde70	-0.109310985
211	0x3edb2783	0.42803583
212	0x3e41f13d	0.18939681
213	0xbe28059e	-0.16408393
214	0xbde267f5	-0.110549845
215	0x3e7ddf3f	0.24792193
216	0xbeaf2a59	-0.34211996
217	0xbe3a5c5d	-0.18199296
218	0xbd242313	-0.040072512
219	0x3de0df3e	0.1098008
220	0x3d55a83b	0.05216239
221	0x3e6f02bc	0.23340887
222	0xbe178264	-0.14795834
223	0xbcea9475	-0.028635243
224	0x3ebf0a9c	0.37312782
225	0x3e6aa844	0.2291575
226	0xbdc9f402	-0.09860994
227	0x3d0b5542	0.034016855
228	0xbe883437	-0.26602337
229	0x3e4b0dfc	0.19829553
230	0xbe0c1cec	-0.13682908
231	0xbd8271ed	-0.06369386
232	0x3ec974e4	0.39346993
233	0x3eb507cd	0.35357514
234	0xbe01fe95	-0.12694772
235	0x3c2f76a2	0.010709437
236	0xbd677226	-0.056505345
237	0xbd37f59c	-0.044911966
238	0x3d0a6cfc	0.03379534
239	0x3d88118d	0.066439725
240	0x3e8a4b74	0.2701069
241	0xbea10c28	-0.31454587
242	0x3e82b9ae	0.25532287
243	0xbdc336fd	-0.095319726
244	0x3e9a8ab0	0.30183935
245	0xbda22982	-0.07918073
246	0xbe91022a	-0.28321964
247	0x3cefd1e6	0.029274892
248	0xbe2e2d98	-0.1700958
249	0xbd207f1d	-0.039183725
250	0xbdc5ca4a	-0.09657724
251	0xbd1080ea	-0.035279192
252	0xbea1c9a1	-0.31599143
253	0x3ee129e4	0.43977273
254	0x3db13fec	0.0865477
255	0x3e91d20f	0.28480574

bias_ih_l0 f4 [40]
0	0x3e48451d	0.19557615
1	0x3e8d30a0	0.2757616
2	0xbe80e616	-0.25175542
3	0x3ed0a0d0	0.4074769
4	0x3e882b86	0.26595706
5	0xbe2448d4	-0.16043407
6	0x3b07a645	0.002069847
7	0x3eaac5c1	0.33354
8	0x3ea9be95	0.33153215
9	0x3dab32d8	0.08359307
10	0xbe6ddae8	-0.23228037
11	0xbd5dec7d	-0.05418061
12	0xbe7755a5	-0.24153765
13	0xbc881ae9	-0.016614394
14	0xbe0251f5	-0.12726577
15	0x3e0acd7f	0.13554953
16	0x3e41f0da	0.18939534
17	0x3c87ee3a	0.016593087
18	0x3e8223dd	0.25417987
19	0x3eae71f6	0.3407132
20	0x3d61a397	0.055087652
21	0x3e354b74	0.17704564
22	0xbe88f457	-0.26748917
23	0x3ea03e2a	0.31297427
24	0x3dd129ed	0.10213075
25	0x3e73ab30	0.23795772
26	0xbe1995e9	-0.14998592
27	0x3e197433	0.14985733
28	0xbe18e6e2	-0.14931825
29	0xbd9ba9ec	-0.076007694
30	0x3d9a017f	0.075198166
31	0xbe2b925c	-0.1675505
32	0x3d4c25d8	0.049840778
33	0x3e48447e	0.19557378
34	0x3dbff293	0.09372439
35	0x3ea212c6	0.31654948
36	0x3f037c7a	0.5136181
37	0x3e620f00	0.22076035
38	0xbe7e127d	-0.2481174
39	0x3d9bc16b	0.07605251

bias_hh_l0 f4 [40]
0	0x3e032787	0.12808047
1	0xbe6dd434	-0.2322548
2	0xbe4ef187	-0.20209323
3	0xbc5ea9d5	-0.013590296
4	0xbe855122	-0.26038462
5	0x3ea3c2ee	0.31984657
6	0x3e5ce03e	0.21569917
7	0xbe0725f1	-0.13198067
8	0x3ea9bcfd	0.33152
9	0xbdf8bd25	-0.121454515
10	0x3e8d4f33	0.27599487
11	0x3ed75ccf	0.42062995
12	0xbc91ce5d	-0.017798597
13	0xbcdd3e65	-0.027007291
14	0x3e84f1b8	0.25965667
15	0x3bd3194d	0.006442225
16	0xbd404755	-0.046943028
17	0x3e821b05	0.2541124
18	0xbcd83904	-0.026394375
19	0x3ecb3736	0.3969056
20	0x3cd4f8cc	0.025997542
21	0x3e46f7e2	0.19430497
22	0x3e6aaa05	0.2291642
23	0x3de257c1	0.11051894
24	0x3e731a77	0.23740564
25	0xbe203c5f	-0.1564803
26	0x3e105daa	0.1409823
27	0x3e892f76	0.26794022
28	0xbe81646f	-0.25271937
29	0x3e9dbf0a	0.30809814
30	0x3de912ae	0.11380516
31	0x3e4bc10d	0.19897862
32	0xbdd73ff5	-0.10510246
33	0xbaa6e4a4	-0.0012732935
34	0x3e10bf95	0.14135583
35	0xbe71f3e3	-0.23628192
36	0x3ee7e382	0.45290762
37	0xbe00fe42	-0.12596992
38	0x3e39de31	0.18151166
39	0xbdfe4d8d	-0.124171354
