LSTM/code/model/old_model/model_mk4.pt (torch, 73683 bytes, 18 tensors)

weight_ih_l0 f4 [80, 96]
0.08057644 0.07496492 0.049624488 -0.08600491 -0.021043675 0.014641461 -0.20303847 -0.2205295
-0.26072964 -0.013350159 -0.20052853 0.08691846 -0.31563395 0.14715669 0.1012222 -0.27367902
0.17238094 0.22850347 0.12651616 0.2421062 0.19272111 0.08182131 0.13541453 -0.17846672
0.12798119 -0.10194858 0.1653372 0.114966005 0.065835625 -0.12046741 -0.23200513 -0.07780395
0.020414041 -0.14984155 -0.05469084 0.06810892 0.15038644 0.00548835 -0.045604546 -0.0293272
0.14698783 0.16707505 -0.05057244 -0.039891537 0.029607994 0.2719475 0.0928712 -0.22082216
-0.2913083 -0.19809565 -0.0036317469 0.057109248 -0.13127446 -0.14777516 0.21225575 -0.048460573
0.4257421 -0.057367675 -0.0736854 -0.012247106 0.2567726 0.20583162 -0.1203418 -0.21064517
0.1482124 0.06295896 -0.30676568 -0.23394111 0.38035524 -0.08294125 0.06683907 0.07727578
0.2600318 0.107765116 0.09791313 0.0477275 0.2152043 0.17225544 -0.09692279 0.016716866
-0.0153083615 -0.023703191 -0.007010215 -0.09946434 0.030258052 -0.11158234 0.020498412 0.09516821
-0.26416695 0.22267003 0.18365985 0.3057757 0.006523213 -0.027624246 -0.2193323 0.070688695
0.21181996 0.09147442 -0.20404758 -0.18391015 -0.1266923 0.21885385 -0.3997696 -0.06416185
0.052997183 -0.07065702 -0.22154924 0.29362652 0.07008843 -0.16559549 -0.30800247 -0.15528631
-0.15919468 0.11948751 -0.16240783 0.00025552782 -0.2241016 0.12377915 0.04298121 0.16870716
0.21965775 -0.04281591 -0.38375944 0.08471059 0.18667251 -0.09582056 0.07771258 0.011134323
0.15099253 -0.13551739 -0.18397827 -0.0354445 0.16907872 -0.060562927 0.03409002 0.08869934
0.084766366 0.10820535 -0.4358336 -0.076120794 -0.00035912753 0.10189962 0.1465239 0.01875549
0.02523519 0.11212491 0.16473785 -0.16019344 0.19778712 0.043506 0.06092172 -0.10993298
0.16691002 0.1217829 0.29590148 0.14219567 0.07696397 0.08924018 0.0668701 0.049643926
0.14219259 -0.23258373 0.40475813 0.008606047 -0.16887267 0.005133663 0.011771754 0.094205245
-0.20465961 -0.14520103 0.4410308 0.06774343 -0.08603195 0.17172684 0.027788853 0.19882813
0.13608694 -0.042984445 0.45003152 0.18731642 0.0834658 0.08989909 0.21636502 -0.10977857
-0.1455826 -0.006089996 -0.14414239 -0.13155507 -0.18565857 0.13656147 -0.035118323 -0.1478579
-0.021298705 -0.111264564 0.15736389 0.0059699076 0.16117813 0.0073111663 0.110591926 -0.059274733
0.05940597 0.07143316 -0.17097954 0.005000303 0.25117567 0.030500857 -0.25014618 -0.03669945
-0.13433398 0.16124795 0.041267317 0.05897071 0.28539824 0.27102092 -0.2043704 0.014476758
0.13066636 0.16854875 0.014276078 0.09237374 -0.1869983 -0.090783596 -0.27273178 0.011913553
0.034377526 0.051864095 0.095152155 -0.05229208 -0.04992771 0.036488317 -0.16346027 0.01088744
0.012539022 -0.15042874 -0.22108957 -0.21291687 -0.017407669 -0.048577692 0.0545058 -0.20263022
-0.14148465 0.021215938 0.0037348233 0.10776982 0.12803952 0.09888237 -0.1411718 -0.16330469
0.14288741 -0.016946895 -0.2874778 -0.21624574 0.018760381 0.073392086 -0.25043592 -0.15165517
00000000: 4305 a53d 3587 993d 0c43 4b3d 5823 b0bd
00000010: c963 acbc bde2 6f3c 51e9 4fbe 7cd2 61be
00000020: 5b7e 85be a0ba 5abc 5a57 4dbe 4e02 b23d
00000030: c69a a1be 3eb0 163e 964d cf3d a81f 8cbe
00000040: a184 303e d0fc 693e 748d 013e b0ea 773e
00000050: af58 453e ee91 a73d 1baa 0a3e fbbf 36be
00000060: 800d 033e 6bca d0bd 284e 293e 4c73 eb3d
00000070: d4d4 863d 9eb7 f6bd c192 6dbe ad57 9fbd
00000080: 593b a73c 1070 19be 8103 60bd b07c 8b3d
00000090: e7fe 193e 9ed7 b33b d5cb 3abd 993f f0bc
000000a0: fa83 163e b915 2b3e 0c25 4fbd 4f65 23bd
000000b0: 778c f23c b43c 8b3e 4133 be3d 341f 62be
000000c0: 5d26 95be 96d9 4abe 9a02 6ebb 63eb 693d
000000d0: d06c 06be 5f52 17be 9259 593e 987e 46bd
000000e0: defa d93e 5efa 6abd 5fe8 96bd 16a8 48bc
000000f0: b377 833e 86c5 523e c375 f6bd 5eb3 57be
00000100: fec4 173e a1f0 803d 6410 9dbe 428e 6fbe
00000110: ecbd c23e 1add a9bd ece2 883d c442 9e3d
00000120: e322 853e f5b3 dc3d ae86 c83d e97d 433d
00000130: 845e 5c3e bb63 303e 757f c6bd cff1 883c
00000140: eccf 7abc 322d c2bc f2b5 e5bb f6b3 cbbd
00000150: bcdf f73c 4885 e4bd 49ec a73c 8de7 c23d
00000160: e440 87be 9d03 643e 5411 3c3e a28e 9c3e
00000170: adc0 d53b 3e4c e2bc a598 60be 3cc5 903d
00000180: 55e7 583e f156 bb3d d9f1 50be f152 3cbe
00000190: a0bb 01be 391b 603e 9aae ccbe 4a67 83bd
000001a0: 9313 593d a1b4 90bd cedd 62be 3756 963e
000001b0: 868a 8f3d dd91 29be 80b2 9dbe 6003 1fbe
000001c0: ee03 23be deb5 f43d 3d4e 26be 5df8 8539
000001d0: e47a 65be ec7f fd3d 110d 303d 92c1 2c3e
000001e0: f6ed 603e bc5f 2fbd 1e7c c4be bf7c ad3d
000001f0: 1427 3f3e 923d c4bd c627 9f3d bc6c 363c
00000200: c99d 1a3e 12c5 0abe cd64 3cbe 412e 11bd
00000210: f922 2d3e d510 78bd faa1 0b3d 00a8 b53d
00000220: fd99 ad3d c49a dd3d 9525 dfbe 38e5 9bbd
00000230: 4849 bcb9 bfb0 d03d 5c0a 163e 1da5 993c
00000240: 07ba ce3c bfa1 e53d 0ab1 283e c009 24be
00000250: b588 4a3e 5933 323d 0e89 793d 8b24 e1bd
00000260: 76ea 2a3e 5069 f93d 6680 973e be9b 113e
00000270: 499f 9d3d 8ec3 b63d 31f3 883d 6e57 4b3d
00000280: ef9a 113e 6e2a 6ebe 753c cf3e 6100 0d3c
00000290: f5ec 2cbe 4938 a83b 51de 403c aeee c03d
000002a0: 4a92 51be 94af 14be cace e13e 11bd 8a3d
000002b0: 8531 b0bd 29d9 2f3e 73a5 e33c 9a99 4b3e
000002c0: 605a 0b3e 7510 30bd 886a e63e e0cf 3f3e
000002d0: 1ef0 aa3d 041d b83d cb8e 5d3e 96d3 e0bd
000002e0: 9b13 15be 978e c7bb 109a 13be 5fb6 06be
000002f0: 481d 3ebe c5d6 0b3e 3bd8 0fbd 1068 17be
00000300: 9f7a aebc adde e3bd 0024 213e 379f c33b
00000310: e10b 253e 8292 ef3b 057e e23d 10ca 72bd
00000320: ad53 733d 8c4b 923d 4315 2fbe 95d9 a33b
00000330: 199a 803e efdc f93c 2913 80be 2a52 16bd
00000340: d98e 09be 2f1e 253e eb07 293d 458b 713d
00000350: b81f 923e 41c3 8a3e 7946 51be ed2f 6d3c
00000360: 67cd 053e 0b98 2c3e 36e6 693c 722e bd3d
00000370: 7b7c 3fbe c0ec b9bd 80a3 8bbe 1031 433c
00000380: 73cf 0c3d 726f 543d 22df c23d 3830 56bd
00000390: 0081 4cbd c674 153d 2162 27be 3c61 323c
000003a0: 7870 4d3c fe09 1abe 4e65 62be e106 5abe
000003b0: 879a 8ebc 67f9 46bd 7941 5f3d 4c7e 4fbe
000003c0: 5ae1 10be 0ccd ad3c f0c3 743b 6cb6 dc3d
000003d0: cb1c 033e d782 ca3d 578f 10be 5839 27be
000003e0: 1451 123e 37d4 8abc 4a30 93be 866f 5dbe
000003f0: 5faf 993c 974e 963d 2339 80be 7e4b 1bbe

weight_hh_l0 f4 [80, 20]
-0.1997316 0.24038874 0.032794703 0.1960358 0.047152445 0.2536424 0.12078532 0.22199693
0.14136747 0.35779926 -0.16605839 -0.23814785 0.01882971 -0.01317458 -0.21848547 0.013107672
0.063617565 0.054463822 -0.2449801 0.26475406 -0.07970773 0.2162971 0.014499966 0.33830562
-0.08105909 0.16752891 -0.0058719805 -0.016237553 -0.28997654 0.22218318 -0.117583364 -0.3924032
0.07583223 -0.04539993 0.08589754 0.25027317 -0.2897476 0.119689755 -0.20162338 -0.197577
0.2152696 0.15572098 0.35006532 0.17681362 0.038075816 -0.0066075227 0.011029631 0.1482864
0.1766587 0.23235427 -0.17875442 -0.22703812 -0.09827139 -0.34052345 0.17533538 0.18246177
-0.044964608 0.29629785 0.030221852 0.010027254 -0.1840622 -0.1339358 -0.026079036 0.20009255
0.109600246 -0.20899701 0.0020785439 0.39133525 0.14050284 0.50182664 0.21118735 -0.07452702
0.14860497 -0.100576736 -0.44306806 0.16720387 -0.36929533 0.19866118 0.09785875 0.07728808
-0.21518414 0.3794787 -0.13290477 -0.12809259 -0.31527296 -0.0749521 -0.06961971 0.2704001
0.33379823 -0.17724232 0.14573473 0.17496005 0.14569266 -0.16547628 -0.09159725 -0.26230723
-0.109939136 -0.07320946 0.45479822 0.060696844 -0.03375569 0.23128341 -0.1710198 -0.1946474
0.069688775 0.23927897 0.3589421 0.14504744 0.021452636 -0.004555905 0.13979895 0.3511229
0.21765111 -0.10188505 0.17618884 -0.2170617 0.11011386 -0.09428976 -0.1269094 0.05501141
0.054387987 0.07725516 0.00023366165 0.23082079 -0.13955018 -0.1095357 0.0821706 0.28511396
0.035753805 0.3287226 0.077607624 0.10252048 -0.13857952 0.24107109 -0.2635801 -0.14054067
-0.15144633 0.042153697 0.031216908 0.15347363 -0.12816955 -0.1245992 0.17953162 0.013574466
-0.02690789 0.08300126 -0.1164765 0.04259246 -0.41764846 -0.21788055 -0.14239934 0.20186453
-0.26672304 -0.04778195 0.3666196 0.06833567 0.061624713 -0.034020867 -0.03047305 -0.29211023
-0.15802892 -0.18565172 0.1307755 -0.1811141 0.14786138 0.03848946 0.18926705 0.09622073
-0.10049266 0.044422913 0.14455174 0.32680094 0.13083895 0.16886204 0.04463822 -0.0922843
0.043928307 0.017634252 0.2164914 0.14785439 -0.026329655 -0.13598096 0.34952492 0.05307497
-0.17731538 0.26819652 0.23669931 0.11746905 0.20742539 0.13624527 -0.16571282 -0.18375267
-0.11907445 -0.17403384 0.11360284 -0.08744638 0.073524155 0.055538267 -0.26124737 0.106657125
-0.01594209 -0.030072687 -0.09628253 0.1627343 0.07563969 -0.34592178 0.21690133 0.21401575
0.20836456 0.227094 0.111474164 -0.06821077 0.13231683 -0.07813565 -0.05095277 -0.11991248
-0.22056691 -0.14415047 0.0259764 -0.13568981 0.19093516 0.20277528 -0.046900958 0.16201487
-0.025189951 0.26885244 0.39029905 0.2556318 0.13266394 0.19228788 -0.10711773 -0.23434149
0.38014746 -0.39228892 -0.2736298 -0.019080333 -0.2492471 0.17589405 0.021343954 0.043125946
-0.2195477 -0.04520621 -0.0108039 -0.19087107 -0.1416122 0.025415013 -0.2675068 -0.068715096
-0.15057032 0.02556046 0.14823574 0.074718885 -0.03999428 -0.118535176 0.053321164 0.1416396
00000000: 7186 4cbe 7728 763e bd53 063d 9cbd 483e
00000010: ec22 413d 6bdd 813e 4b5e f73d 2a53 633e
00000020: a2c2 103e 7731 b73e 360b 2abe 08dd 73be
00000030: c440 9a3c 32da 57bc a8ba 5fbe 90c1 563c
00000040: ed49 823d 7515 5f3d 10dc 7abe d88d 873e
00000050: ce3d a3bd fd7c 5d3e 4491 6d3c 6536 ad3e
00000060: 4f02 a6bd b38c 2b3e be69 c0bb 9e04 85bc
00000070: ce77 94be fd83 633e 8ccf f0bd 12e9 c8be
00000080: ee4d 9b3d 47f5 39bd 0deb af3d ce23 803e
00000090: cc59 94be e71f f53d 5c76 4ebe a051 4abe
000000a0: a26f 5c3e 5275 1f3e c33b b33e a10e 353e
000000b0: 63f5 1b3d eb83 d8bb a0b5 343c 64d8 173e
000000c0: 05e6 343e 47ee 6d3e 660b 37be ae7c 68be
000000d0: 8342 c9bd 1759 aebe 1e8b 333e 42d7 3a3e
000000e0: cf2c 38bd 5ab4 973e d193 f73c 5a49 243c
000000f0: cd7a 3cbe 7726 09be b4a3 d5bc 10e5 4c3e
00000100: 1876 e03d 5003 56be 2e38 083b 185d c83e
00000110: fadf 0f3e b677 003f 7f41 583e 9fa1 98bd
00000120: e72b 183e 2dfb cdbd d1d9 e2be 7e37 2b3e
00000130: 4714 bdbe d66d 4b3e 2b6a c83d 3649 9e3d
00000140: 3b59 5cbe 084b c23e 3018 08be b42a 03be
00000150: 756b a1be 7d80 99bd c794 8ebd e271 8a3e
00000160: 9ae7 aa3e 037f 35be 7c3b 153e ba28 333e
00000170: 7530 153e 9d72 29be 5797 bbbd 224d 86be
00000180: c527 e1bd d7ee 95bd 50db e83e 419d 783d
00000190: 6843 0abd 8fd5 6c3e d01f 2fbe a651 47be
000001a0: fdb8 8e3d 8c05 753e 42c7 b73e 5187 143e
000001b0: 70bd af3c b349 95bb 7527 0f3e 61c6 b33e
000001c0: efdf 5e3e 1ca9 d0bd d96a 343e 6c45 5ebe
000001d0: 6083 e13d fd1a c1bd 8af4 01be a553 613d
000001e0: f0c5 5e3d f437 9e3d 1203 7539 495c 6c3e
000001f0: 3ee6 0ebe 4154 e0bd 0f49 a83d 75fa 913e
00000200: 9572 123d 544e a83e bff0 9e3d 42f6 d13d
00000210: cae7 0dbe 57db 763e f9f3 86be e5e9 0fbe
00000220: bf14 1bbe 5ba9 2c3d 9aba ff3c 3128 1d3e
00000230: e13e 03be de2d ffbd 23d7 373e 7067 5e3c
00000240: ef6d dcbc 91fc a93d 3b8b eebd 6e75 2e3d
00000250: 05d6 d5be 141c 5fbe 22d1 11be 93b5 4e3e
00000260: ec8f 88be 02b7 43bd 90b5 bb3e 92f3 8b3d
00000270: 326a 7c3d 7759 0bbd 9ea2 f9bc 798f 95be
00000280: 55d2 21be 7c1b 3ebe 03ea 053e fa75 39be
00000290: f968 173e 20a7 1d3d 39cf 413e 600f c53d
000002a0: 19cf cdbd cdf4 353d 5f05 143e 7452 a73e
000002b0: a5fa 053e 2cea 2c3e 91d6 363d 8dff bcbd
000002c0: 2bee 333d b575 903c ecaf 5d3e 2467 173e
000002d0: 4ab1 d7bc 983e 0bbe eef4 b23e 2465 593d
000002e0: 2a92 35be 0e51 893e 4e61 723e 9d93 f03d
000002f0: 5267 543e e183 0b3e 9fb0 29be a929 3cbe
00000300: 4edd f3bd ed35 32be 9ba8 e83d 1617 b3bd
00000310: d593 963d 187c 633d 37c2 85be 0d6f da3d
00000320: fc98 82bc ff5a f6bc c62f c5bd d2a3 263e
00000330: fbe8 9a3d a91c b1be 621b 5e3e f226 5b3e
00000340: 855d 553e 548b 683e 914c e43d 17b2 8bbd
00000350: 107e 073e 9505 a0bd dab3 50bd ad94 f5bd
00000360: 4bdc 61be 2e9c 13be 76cc d43c 45f2 0abe
00000370: 8284 433e 53a4 4f3e 381b 40bd 3ae7 253e
00000380: 285b cebc 07a7 893e 47d5 c73e 2ce2 823e
00000390: 0ed9 073e 1de7 443e 8a60 dbbd 37f7 6fbe
000003a0: b0a2 c23e 18da c8be 3519 8cbe 5c4e 9cbc
000003b0: a23a 7fbe 921d 343e 84d9 ae3c d5a4 303d
000003c0: 1dd1 60be 262a 39bd d702 31bc b573 43be
000003d0: ca02 11be 2533 d03c a7f6 88be 80ba 8cbd
000003e0: 1b2f 1abe 2b64 d13c 1ccb 173e 3706 993d
000003f0: 0bd1 23bd 92c2 f2bd 4b67 5a3d f909 113e

bias_ih_l0 f4 [80]
0.13805935 0.20865571 -0.062076356 -0.11191109 -0.098729014 0.044540364 0.09030382 0.069136456
0.108753294 -0.1764519 0.0025744338 0.09409018 -0.108064994 -0.113516465 0.06800898 0.07904886
-0.23719852 0.003325932 0.046410173 -0.07998475 0.08159067 -0.18052231 -0.013984763 -0.17975791
-0.032048486 0.096356764 0.05592607 0.07410466 -0.18741015 -0.066864215 0.19423597 0.2519488
-0.19144388 -0.066230245 0.15708217 -0.020289982 0.22640856 0.19270584 0.17816229 -0.03819997
0.0597618 0.06366251 -0.053372554 -0.051453613 0.09879239 -0.0020373482 0.14364453 -0.084636495
0.13516477 -0.17697525 -0.08523123 -0.054414023 -0.071011245 -0.10365808 -0.14953765 0.032283675
0.021393444 0.28882393 -0.004682532 0.15332322 0.06775712 -0.1983521 -0.055027757 0.13836503
-0.124849364 0.025011837 0.08819416 0.1489308 -0.25186116 0.005120447 0.11395416 0.16564776
-0.19823126 0.017800378 -0.020170502 0.1964469 -0.013582549 -0.069726296 0.055683486 -0.07248857
00000000: 6e5f 0d3e d8a9 553e c743 7ebd a431 e5bd
00000010: 7032 cabd f56f 363d 36f1 b83d 6a97 8d3d
00000020: 0cba de3d cfaf 34be d5b7 283b 5ab2 c03d
00000030: 2e51 ddbd 527b e8bd 4b48 8b3d 5ee4 a13d
00000040: 2be4 72be e1f7 593b 9818 3e3d 0bcf a3bd
00000050: 0219 a73d d7da 38be 5920 65bc 7512 38be
00000060: 4645 03bd b256 c53d bc12 653d 2fc4 973d
00000070: 72e8 3fbe 1bf0 88bd cbe5 463e 6fff 803e
00000080: dd09 44be b9a3 87bd 26da 203e 2d37 a6bc
00000090: a5d7 673e ae54 453e 2d70 363e 9277 1cbd
000000a0: cac8 743d 7d61 823d 2e9d 5abd 06c1 52bd
000000b0: aa53 ca3d 0885 05bb 8d17 133e e655 adbd
000000c0: a268 0a3e 0039 35be b68d aebd 3de1 5ebd
000000d0: 586e 91bd b04a d4bd 6620 19be e33b 043d
000000e0: 4e41 af3c bbe0 933e ed6f 99bb c300 1d3e
000000f0: 3fc4 8a3d d01c 4bbe c964 61bd 90af 0d3e
00000100: 06b1 ffbd a0e5 cc3c 249f b43d 5181 183e
00000110: f2f3 80be 6cc9 a73b cc60 e93d 919f 293e
00000120: 23fd 4abe 19d2 913c 9c3c a5bc 6029 493e
00000130: 5789 5ebc a9cc 8ebd 5e14 643d e374 94bd

bias_hh_l0 f4 [80]
0.17429255 0.013604381 -0.21276489 0.14965296 -0.009245642 -0.0037674608 -0.14453666 -0.11806858
-0.09991433 0.12035805 0.0881529 0.17385598 -0.115895554 0.09490333 0.03790521 0.050853923
-0.2627402 0.08705176 0.043737724 0.25049257 0.0774358 -0.20019247 0.061106697 0.01343144
-0.028721936 -0.08093591 -0.15907268 -0.024966119 -0.25076467 -0.15469687 0.338868 0.04379059
-0.07054138 0.091804795 0.1208503 0.08772405 -0.046545107 0.20304976 0.110057026 0.18518384
-0.123696215 -0.15246849 0.16318114 -0.04421817 -0.047224637 -0.1188558 -0.10643493 0.003987109
0.12926175 0.069255516 0.19123492 -0.14859782 -0.13436845 0.18805452 -0.11131709 -0.1672657
0.0826642 0.022910567 0.051694173 0.06327338 -0.050851963 0.05106807 0.0018872138 0.10630271
-0.10691771 0.07200373 -0.032470856 -0.04228359 -0.23103942 -0.14872329 0.13409394 0.06990957
-0.12894323 -0.035555582 0.06311704 0.09697059 0.076661214 0.107884705 -0.021786267 -0.12615067
00000000: bf79 323e e9e4 5e3c 0adf 59be a03e 193e
00000010: 097b 17bc 81e7 76bb 6b01 14be f1cd f1bd
00000020: e29f ccbd 487e f63d 8289 b43d 4d07 323e
00000030: a65a edbd ad5c c23d 7e42 1b3d 344c 503d
00000040: e285 86be 3148 b23d 5426 333d 9040 803e
00000050: a996 9e3d 41ff 4cbe 044b 7a3d 8b0f 5c3c
00000060: 444a ebbc bac1 a5bd f3e3 22be bf85 ccbc
00000070: 3a64 80be db68 1ebe 1b80 ad3e c35d 333d
00000080: 0078 90bd 2704 bc3d 5d80 f73d aba8 b33d
00000090: 15a6 3ebd 47ec 4f3e 9465 e13d d5a0 3d3e
000000a0: 7154 fdbd b320 1cbe f518 273e 1d1e 35bd
000000b0: 9f6e 41bd ab6a f3bd 8efa d9bd 4ba6 823b
000000c0: 315d 043e d6d5 8d3d 16d3 433e 072a 18be
000000d0: e297 09be 5d91 403e 37fa e3bd b347 2bbe
000000e0: d94b a93d f1ae bb3c 45bd 533d 7995 813d
000000f0: 264a 50bd c12c 513d 635c f73a 3cb5 d93d
00000100: acf7 dabd b176 933d 2900 05bd 8f31 2dbd
00000110: 9995 6cbe eb4a 18be ec4f 093e c02c 8f3d
00000120: b209 04be bba2 11bd 8243 813d 8498 c63d
00000130: 8e00 9d3d a8f2 dc3d 1d79 b2bc a42d 01be

weight_ih_l1 f4 [80, 20]
-0.06576406 0.13312708 0.19947866 0.23281477 -0.0011399168 -0.15757553 -0.14939795 -0.24791794
-0.34100372 -0.0009772612 0.03721184 0.08172056 -0.021226138 0.033758402 0.013656858 -0.10398266
0.12701811 -0.14911102 -0.23217595 -0.16198888 -0.06763838 0.043324556 0.21366207 0.10980081
0.118963175 -0.044051163 -0.19985782 0.11932567 0.18273398 0.07517198 0.14850587 -0.2749084
0.28613818 0.04801963 0.03290075 0.18825093 0.02806422 0.18518282 -0.133428 0.3538067
-0.091835454 -0.19896981 0.09744376 -0.1582518 -0.08708642 -0.06031452 -0.26227573 -0.09291648
0.24036749 -0.15444165 -0.08688653 -0.22796845 0.18605135 -0.10314415 -0.15138614 -0.13362952
0.101467066 0.028980296 0.19502991 0.082819365 0.13102855 -0.1726865 0.18509303 0.21664241
-0.27705538 0.251387 -0.3223268 -0.3094136 0.077998854 -0.2823621 -0.32251546 0.025203886
-0.08228444 -0.23911735 0.3265985 -0.115892105 -0.06737272 -0.06623235 -0.25172746 -0.43041608
-0.06685414 -0.2113957 -0.030784704 0.046555944 -0.28621647 -0.053549662 -0.0029977916 -0.34669223
-0.08018588 -0.07251334 0.11429739 0.07082397 -0.2409014 -0.0044319006 0.040118214 -0.11485654
0.3012741 0.07359433 -0.0048259697 -0.15322495 0.009838887 -0.12461834 -0.06198435 -0.046246357
-0.042015057 0.110475846 -0.013205166 -0.051403154 -0.026544116 -0.25698233 0.058687806 0.3714575
-0.1682103 0.19621244 -0.07994409 0.0147567475 -0.039163277 0.19825459 -0.20907094 -0.1071775
-0.12557366 -0.1655573 0.25994456 -0.009546766 -0.11026381 0.033554893 0.023398088 -0.2658251
-0.002628075 -0.0905071 -0.10569866 0.4767388 -0.12258854 0.26131386 0.36802354 -0.22276545
-0.396245 0.15501247 -0.0838172 -0.087821916 -0.015843958 -0.10422124 0.009543132 0.10172162
0.018024307 0.19575863 0.16647425 0.014804312 -0.024370618 0.15479888 -0.19317241 -0.1922592
0.25479272 0.123734646 0.10630213 -0.010159322 0.06918665 0.2329408 -0.14283338 -0.22140422
0.47531715 -0.081563435 0.37916818 0.4653641 -0.17661172 0.5300668 -0.093311384 0.0030293977
0.10933693 0.029379921 -0.33174697 0.161174 0.008743381 -0.054615986 0.32880852 -0.3445079
-0.33622888 0.04413294 -0.39774898 -0.36873552 0.12625131 0.20799558 -0.12623458 -0.018902995
-0.051420324 -0.028454067 -0.3514779 -0.19938414 -0.18775612 -0.13561466 0.22739454 0.032650817
-0.09751826 0.040618237 0.28768 0.018994464 -0.096938364 -0.20838968 0.13943373 -0.056403477
0.014934964 -0.07960185 0.16618001 0.024686867 -0.2786152 0.0692357 -0.1968018 -0.03602174
-0.15487854 -0.1982861 0.017619492 -0.026580166 -0.025054047 0.10180191 0.028411357 0.045552097
-0.17176153 0.1742996 -0.39970964 0.14225031 -0.07267518 0.21592288 0.007113746 -0.15767378
-0.2665417 -0.033012994 -0.14815591 0.14920837 -0.05180899 0.15406172 -0.17849776 -0.085942425
0.031151645 -0.3411456 0.16826798 -0.33544487 0.12109959 0.21921226 0.17541705 -0.01603449
0.21096584 -0.26745245 0.30334538 0.013853574 -0.057877965 0.21508364 0.082411475 0.28145254
-0.33617145 -0.080147654 0.08253786 -0.037900217 -0.047939263 -0.16924222 -0.014777871 -0.1941165
00000000: 4faf 86bd 7752 083e 2244 4c3e ff66 6e3e
00000010: 4369 95ba 7b5b 21be c7fb 18be 33de 7dbe
00000020: 0a98 aebe 7217 80ba 716b 183d 1c5d a73d
00000030: 70e2 adbc 4046 0a3d 04c1 5f3c dcf4 d4bd
00000040: 0911 023e 8fb0 18be 88bf 6dbe 6ae0 25be
00000050: fe85 8abd 1775 313d 3bca 5a3e 3fdf e03d
00000060: f7a2 f33d fe6e 34bd 87a7 4cbe 0461 f43d
00000070: 9e1e 3b3e c4f3 993d ec11 183e cbc0 8cbe
00000080: b480 923e 3bb0 443d f0c2 063d dac4 403e
00000090: efe6 e53c 91a0 3d3e 5aa1 08be 2726 b53e
000000a0: 3a14 bcbd bebe 4bbe 9890 c73d c30c 22be
000000b0: 5d5a b2bd 5c0c 77bd 0149 86be ff4a bebd
000000c0: e522 763e f425 1ebe 91f1 b1bd 9070 69be
000000d0: 3f84 3e3e 3d3d d3bd f804 1bbe 2dd6 08be
000000e0: f7cd cf3d 1668 ed3c ecb5 473e 339d a93d
000000f0: 592c 063e bbd4 30be 0789 3d3e 82d7 5d3e
00000100: 34da 8dbe ccb5 803e 0508 a5be 766b 9ebe
00000110: ddbd 9f3d c491 90be bf20 a5be 6178 ce3c
00000120: bf84 a8bd 2edb 74be eb37 a73e d758 edbd
00000130: b5fa 89bd d4a4 87bd 6ce2 80be 7f5f dcbe
00000140: d3ea 88bd 1d78 58be 3430 fcbc 72b1 3e3d
00000150: f78a 92be e456 5bbd 9976 44bb a581 b1be
00000160: 7f38 a4bd e081 94bd c014 ea3d 280c 913d
00000170: dbae 76be 7a39 91bb ff52 243d e839 ebbd
00000180: 9940 9a3e a0b8 963d 2b23 9ebb 00e7 1cbe
00000190: 4833 213c e637 ffbd 4de3 7dbd d26c 3dbd
000001a0: fb17 2cbd 2941 e23d 7b5a 58bc 1d8c 52bd
000001b0: 0c73 d9bc 3093 83be a062 703d ad2f be3e
000001c0: 523f 2cbe eaeb 483e bab9 a3bd 49c6 713c
000001d0: ac69 20bd 4003 4b3e b116 56be e17f dbbd
000001e0: 6296 00be da87 29be 7417 853e 0a6a 1cbc
000001f0: fed1 e1bd db70 093d 59ad bf3c 3a1a 88be
00000200: c83b 2cbb c95b b9bd 8a78 d8bd 1c17 f43e
00000210: b30f fbbd eeca 853e 956d bc3e a01c 64be
00000220: a0e0 cabe 97bb 1e3e 5aa8 abbd fadb b3bd
00000230: 30cb 81bc f271 d5bd cc5a 1c3c 6d53 d03d
00000240: b6a7 933c f374 483e 3a78 2a3e c98d 723c
00000250: e4a4 c7bc 9983 1e3e fdce 45be 99df 44be
00000260: 3174 823e 9768 fd3d eeb4 d93d 4973 26bc
00000270: bbb1 8d3d 0888 6e3e ea42 12be cab7 62be
00000280: c55c f33e bb0a a7bd 5522 c23e 3444 ee3e
00000290: b4d9 34be 75b2 073f 0a1a bfbd dc88 463b
000002a0: 0aec df3d 29ae f03c bdda a9be cc0a 253e
000002b0: 6640 0f3c 03b5 5fbd 9759 a83e 5763 b0be
000002c0: 3126 acbe bec4 343d c1a5 cbbe e7ca bcbe
000002d0: 0648 013e cbfc 543e a343 01be 74da 9abc
000002e0: 1e9e 52bd 8118 e9bc e9f4 b3be 5b2b 4cbe
000002f0: 2443 40be 92de 0abe 1dda 683e ddbc 053d
00000300: a7b7 c7bd 4f5f 263d cb4a 933e 479a 9b3c
00000310: 9f87 c6bd 1b64 55be b7c7 0e3e 5507 67bd
00000320: c7b1 743c 4b06 a3bd 182b 2a3e 1d3c ca3c
00000330: a7a6 8ebe 72cb 8d3d 6986 49be 888b 13bd
00000340: 7b98 1ebe 830b 4bbe c156 903c a6be d9bc
00000350: 253e cdbc 857d d03d efbe e83c d694 3a3d
00000360: 41e2 2fbe 987b 323e bea6 ccbe 11aa 113e
00000370: bad6 94bd e31a 5d3e 6d1a e93b 3c75 21be
00000380: 2778 88be a238 07bd 2fb6 17be 14ca 183e
00000390: aa35 54bd 5bc2 1d3e 1ec8 36be 9502 b0bd
000003a0: bc31 ff3c a3aa aebe 714e 2c3e 6ebf abbe
000003b0: 1003 f83d 2e79 603e 87a0 333e c35a 83bc
000003c0: 6e07 583e 87ef 88be 1650 9b3e 1afa 623c
000003d0: 7211 6dbd e33e 5c3e 59c7 a83d 8c1a 903e
000003e0: aa1e acbe 7424 a4bd 9c09 a93d 423d 1bbd
000003f0: f65b 44bd d54d 2dbe e21e 72bc 7ac6 46be

weight_hh_l1 f4 [80, 20]
0.28254217 0.018707782 0.093406044 0.05503045 -0.03580695 0.0124679115 0.044617783 0.09927579
-0.20064275 -0.02559568 0.14331108 -0.19835655 0.15363081 -0.2007186 0.14109027 0.014746624
0.02089158 0.26432133 0.16396393 0.14231569 0.3679244 0.14875552 0.28206015 0.11609365
-0.1864846 0.39792597 0.061686974 0.1282692 0.22510378 -0.22492872 0.43237352 0.085509926
0.1303862 -0.2590698 -0.2942408 -0.3409534 -0.155718 -0.21706612 0.19626893 0.29326427
0.1940091 -0.12484139 0.018272357 -0.05302685 -0.15886974 0.018232964 -0.1625886 0.15324894
-0.0022546959 -0.14982164 0.08148899 0.0025745283 -0.028483413 -0.0478508 -0.14900784 0.016007759
0.06864174 0.09118012 -0.066047944 0.16229393 -0.28210586 -0.20621444 0.3242725 0.101666
0.11541248 0.18509607 0.23392594 0.26752627 -0.22922817 -0.004809103 -0.06432895 0.03497142
-0.36297163 -0.14862525 0.16618858 -0.28759933 -0.007929068 -0.09852226 -0.2340782 -0.14409089
0.064238735 0.21211982 0.11040385 -0.031349987 -0.18960027 0.09758785 0.14926808 0.2533626
-0.08008737 -0.027893456 0.29681453 -0.010464179 -0.15286231 0.1598466 -0.07132271 -0.3609197
-0.027350072 0.039900046 -0.16112761 0.20764674 -0.16081643 -0.13597326 0.11080241 0.06466722
-0.12774959 -0.15520468 0.14462359 -0.006117367 0.265728 0.13138066 -0.1944067 -0.0067721372
-0.006138619 -0.04093309 0.36251417 0.018006315 -0.17179711 -0.089010686 0.009291026 -0.23263106
0.040352173 0.15480153 -0.005657241 -0.14821967 0.15350422 0.29561242 -0.12262551 -0.29088393
-0.039113645 0.10700519 0.15135223 -0.16638163 -0.23313256 0.121214874 -0.034202863 -0.11812826
-0.04685691 0.101113044 0.10005794 -0.25827983 0.24892555 -0.028191531 0.3133071 -0.041833337
-0.09329425 -0.17426918 0.049359906 -0.23564672 -0.31657955 -0.24319384 -0.09709004 -0.01684819
-0.28796074 -0.06492535 -0.03339376 -0.16281644 -0.403193 -0.06482831 0.18895188 -0.026960194
-0.3127759 -0.24781325 0.09083184 0.17518762 -0.118478835 0.1934661 0.22356246 0.039321676
-0.0031250645 -0.041565068 -0.35260573 -0.08318025 -0.090098806 0.09678303 0.45739326 0.28550538
-0.28481326 -0.4647178 0.43109518 -0.5951121 -0.008699549 0.08517187 0.05794767 -0.13719721
-0.24996103 -0.00012765365 -0.072075285 0.24347407 0.1711897 -0.0835278 -0.13680275 -0.050932486
0.10173266 -0.009218263 -0.15724845 -0.3377899 0.12115989 0.0960247 -0.06323064 -0.006391338
-0.033600852 -0.13857804 0.12622567 -0.025805013 -0.2021111 0.00031333696 -0.040216547 -0.19441536
0.042197905 0.089041956 0.004593985 0.16886796 0.07301613 0.1866819 -0.14465484 0.03570705
-0.25226763 -0.091775015 0.09590681 0.15399095 0.1630943 0.087121405 0.09542202 0.22805633
-0.15728907 0.22421822 0.2071907 0.15303677 -0.046794683 -0.08857788 0.07699225 -0.049898557
-0.03743354 0.33038047 0.05412168 0.16849439 0.17633648 -0.26118058 -0.08918886 -0.17607185
0.12872782 -0.39507523 0.37436303 0.14428988 -0.093916655 0.041188557 0.031710677 0.047997292
-0.212687 -0.016889984 0.045217626 0.10016246 -0.15010956 -0.012543945 -0.042357262 0.03677079
00000000: 5ea9 903e 1041 993c ab4b bf3d 9c67 613d
00000010: 4faa 12bd 3646 4c3c 23c1 363d 1b51 cb3d
00000020: 4b75 4dbe 08ae d1bc 24c0 123e fb1d 4bbe
00000030: 6551 1d3e 2d89 4dbe f879 103e d39b 713c
00000040: d224 ab3c 2055 873e 29e6 273e 34bb 113e
00000050: 9660 bc3e 5e53 183e 306a 903e 82c2 ed3d
00000060: d2f5 3ebe f4bc cb3e 7bab 7c3d 0059 033e
00000070: 9b81 663e b753 66be 1060 dd3e d41f af3d
00000080: f683 053e cca4 84be bba6 96be 7291 aebe
00000090: 8a74 1fbe 9546 5ebe b9fa 483e bc26 963e
000000a0: 52aa 463e d8ac ffbd e9af 953c af32 59bd
000000b0: c0ae 22be 4c5d 953c a07d 26be 4aed 1c3e
000000c0: 85c3 13bb d86a 19be b3e3 a63d 6bb9 283b
000000d0: 0c56 e9bc 33ff 43bd 8395 18be b422 833c
000000e0: 0a94 8c3d a5bc ba3d 2544 87bd 6130 263e
000000f0: 2e70 90be e129 53be 0c07 a63e 4436 d03d
00000100: 615d ec3d d389 3d3e 488a 6f3e 34f9 883e
00000110: caba 6abe ae95 9dbb e6be 83bd 313e 0f3d
00000120: 6bd7 b9be 3831 18be 572d 2a3e 3840 93be
00000130: ece8 01bc 0ac6 c9bd 32b2 6fbe 908c 13be
00000140: 998f 833d f035 593e 6a1b e23d d868 00bd
00000150: 9326 42be 24dc c73d bbd9 183e beb8 813e
00000160: d904 a4bd d180 e4bc 13f8 973e f371 2bbc
00000170: f087 1cbe d4ae 233e a411 92bd 78ca b8be
00000180: 420d e0bc 3b6e 233d a3fe 24be 59a1 543e
00000190: 10ad 24be 933c 0bbe 60ec e23d 3f70 843d
000001a0: cad0 02be faed 1ebe 3518 143e 3274 c8bb
000001b0: 800d 883e a788 063e 8d12 47be cee8 ddbb
000001c0: 7826 c9bb 75a9 27bd 759b b93e fb81 933c
000001d0: 95eb 2fbe 3c4b b6bd 6339 183c d636 6ebe
000001e0: 5248 253d 4b84 1e3e 6160 b9bb e6c6 17be
000001f0: 3630 1d3e 835a 973e 1523 fbbd bdee 94be
00000200: a135 20bd 8925 db3d 14fc 1a3e f25f 2abe
00000210: 4dba 6ebe 813f f83d 4d18 0cbd 3bed f1bd
00000220: 08ed 3fbd 5b14 cf3d 2deb cc3d 413d 84be
00000230: 57e6 7e3e edf1 e6bc ca69 a03e 6f59 2bbd
00000240: 0e11 bfbd 9f73 32be 9d2d 4a3d 604d 71be
00000250: b716 a2be ce07 79be 25d7 c6bd 3705 8abc
00000260: 976f 93be 95f7 84bd e5c7 08bd 5ab9 26be
00000270: 506f cebe b4c4 84bd 9a7c 413e a0db dcbc
00000280: 2a24 a0be c2c2 7dbe 0b06 ba3d 6264 333e
00000290: 08a5 f2bd fa1b 463e 8fed 643e c40f 213d
000002a0: e2cd 4cbb 2240 2abd bd88 b4be 685a aabd
000002b0: b985 b8bd 2e36 c63d 732f ea3e c32d 923e
000002c0: 0bd3 91be 7eef edbe 82b8 dc3e 4459 18bf
000002d0: 8e88 0ebc 976e ae3d 895a 6d3d 6d7d 0cbe
000002e0: c9f5 7fbe c4da 05b9 359c 93bd 4451 793e
000002f0: 5a4c 2f3e a010 abbd 0516 0cbe 959e 50bd
00000300: 3659 d03d 3308 17bc bd05 21be ccf2 acbe
00000310: ad22 f83d 99a8 c43d 117f 81bd 6e6e d1bb
00000320: 0ca1 09bd 67e7 0dbe 4d41 013e 0965 d3bc
00000330: 36f6 4ebe 6047 a439 1bba 24bd d214 47be
00000340: b6d7 2c3d a15b b63d 2489 963b b9eb 2c3e
00000350: 7b89 953d 8a29 3f3e 6620 14be 8e41 123d
00000360: 3929 81be 8af4 bbbd ca6a c43d ceaf 1d3e
00000370: 3102 273e b56c b23d 9f6c c33d 9987 693e
00000380: 6310 21be 7699 653e cd29 543e acb5 1c3e
00000390: c8ab 3fbd 5268 b5bd 1dae 9d3d 6e62 4cbd
000003a0: e953 19bd a127 a93e b2ae 5d3d cb89 2c3e
000003b0: 8d91 343e 76b9 85be a6a8 b6bd 2e4c 34be
000003c0: 3ad1 033e 4d47 cabe 83ac bf3e bac0 133e
000003d0: 6057 c0bd 55b5 283d 0ee3 013d cf98 443d
000003e0: 9fca 59be dd5c 8abc 1e36 393d fa21 cd3d
000003f0: 52b6 19be 1e85 4dbc cf7e 2dbd f89c 163d

bias_ih_l1 f4 [80]
-0.005152225 0.20982535 0.123534195 0.07369567 0.28903276 -0.034210984 -0.09277297 -0.012743307
0.36720693 0.22636311 0.3808774 -0.13948481 0.22507806 0.09620977 0.19444355 0.13682742
-0.06607237 0.25392845 0.048674256 -0.068128705 0.2636615 0.25896406 -0.032692503 0.018355247
0.1114407 0.2258294 -0.054434773 0.2386728 -0.14115766 -0.11113034 0.2490966 -0.042364232
-0.019768242 0.18547708 -0.04782881 0.1841613 0.062791936 0.02894402 -0.18940164 0.17095397
0.021929929 -0.14870161 0.09529887 0.19618098 -0.03444419 -0.03998565 0.2179428 0.15935194
-0.12699379 -0.21738021 -0.07151911 0.13484533 -0.18805555 -0.15024649 0.06926902 -0.17270468
0.10546435 -0.23467964 0.16705844 -0.012118302 0.15362865 0.20947327 -0.044326637 0.12063693
0.07745634 0.2260568 0.030767512 0.14521517 0.36058226 0.13580118 0.18755732 -0.03146839
0.18850848 0.31544322 -0.04316398 0.3398036 -0.020128582 0.21288805 0.20758592 -0.02598694
00000000: ffd3 a8bb 75dc 563e 7fff fc3d c1ed 963d
00000010: 1afc 933e d120 0cbd c1ff bdbd 4ec9 50bc
00000020: 8c02 bc3e bbcb 673e 5d02 c33e 1bd5 0ebe
00000030: dd7a 663e a109 c53d 361c 473e 7d1c 0c3e
00000040: f350 87bd e902 823e a85e 473d 1087 8bbd
00000050: a4fe 863e f096 843e 93e8 05bd be5d 963c
00000060: 063b e43d d23f 673e fff6 5ebd a466 743e
00000070: a28b 10be 4e98 e3bd 2e13 7f3e 1e86 2dbd
00000080: 02f1 a1bc b4ed 3d3e 24e8 43bd c894 3c3e
00000090: 0f99 803d 021c ed3c 81f2 41be 8f0e 2f3e
000000a0: 65a6 b33c 3c45 18be 0e2c c33d abe3 483e
000000b0: 5a15 0dbd fec7 23bd 662c 5f3e 282d 233e
000000c0: a90a 02be eb98 5ebe 9c78 92bd e514 0a3e
000000d0: a291 40be 37da 19be eadc 8d3d 7fd9 30be
000000e0: b1fd d73d dc4f 70be 5e11 2b3e d88b 46bc
000000f0: d450 1d3e 2980 563e d98f 35bd 7f10 f73d
00000100: 6ea1 9e3d 6f7b 673e 260c fc3c 49b3 143e
00000110: 3d9e b83e 770f 0b3e 070f 403e 00e5 00bd
00000120: 5e08 413e c681 a13e b7cc 30bd bdfa ad3e
00000130: b2e4 a4bc 53ff 593e 6791 543e 90e2 d4bc

bias_hh_l1 f4 [80]
0.20155448 0.014931244 -0.0662668 0.24465409 0.1683226 0.15453945 -0.08741936 0.24743532
0.14149645 -0.19543423 0.13541442 -0.060579907 0.14727198 0.20330912 -0.19254717 -0.094651654
0.1125363 0.25412464 -0.09876048 -0.13105664 0.104439884 0.24677351 0.18860242 0.16679198
-0.03595487 -0.10735822 0.18858084 0.05627998 0.14943859 0.15683411 0.2973551 0.13088411
0.27326676 -0.23761372 0.09933506 -0.07427015 0.010096674 0.22172 0.02013985 0.13935474
0.07345053 -0.17437872 0.21464166 -0.20122807 -0.014926222 0.1935391 0.09808823 -0.16602217
-0.10521412 -0.108173616 0.0460659 -0.1364568 0.08288056 -0.029688565 -0.2370904 0.033788454
-0.14129299 0.08050497 0.07921467 -0.09678447 0.0018833603 -0.023620302 0.17382358 0.0664042
0.3182491 0.18162584 -0.053968664 0.22245036 0.34916258 0.12883298 0.29097316 -0.012870053
0.27368036 0.14336798 0.0658991 0.2755604 0.3524911 0.2083302 -0.007905402 0.043019123
00000000: 4c64 4e3e 2da2 743c e3b6 87bd 9a86 7a3e
00000010: c25c 2c3e 973f 1e3e ec08 b3bd af5f 7d3e
00000020: 72e4 103e e91f 48be 14aa 0a3e a322 78bd
00000030: 77ce 163e 4430 503e 162b 45be bad8 c1bd
00000040: 6f79 e63d a01c 823e ef42 cabd b633 06be
00000050: 94e4 d53d 32b2 7c3e fe20 413e 84cb 2a3e
00000060: 6a45 13bd a0de dbbd 561b 413e d685 663d
00000070: 6e06 193e 1f99 203e ed3e 983e 7c06 063e
00000080: 9fe9 8b3e 0351 73be 2e70 cb3d f31a 98bd
00000090: 856c 253c 910a 633e 54fc a43c 02b3 0e3e
000000a0: 3b6d 963d 5690 32be 06cb 5b3e bb0e 4ebe
000000b0: 1d8d 74bc 1d2f 463e 7be2 c83d b701 2abe
000000c0: 807a d7bd 218a ddbd 99af 3c3d 55bb 0bbe
000000d0: 48bd a93d 6f35 f3bc d3c7 72be c365 0a3d
000000e0: 1caf 10be cadf a43d 4d3b a23d f036 c6bd
000000f0: 16db f63a 5d7f c1bc cffe 313e edfe 873d
00000100: 8cf1 a23e 20fc 393e 3f0e 5dbd 07ca 633e
00000110: 70c5 b23e cbec 033e 6ffa 943e eadc 52bc
00000120: d51f 8c3e 0ecf 123e 1bf6 863d 4116 8d3e
00000130: b779 b43e 8354 553e a985 01bc d234 303d

weight_ih_l2 f4 [80, 20]
-0.004637913 -0.1649478 0.103415824 0.15655506 0.021141736 -0.009030376 0.3977813 -0.010452918
0.07410889 -0.25691688 0.14773983 0.04363892 -0.21718806 -0.1119105 0.036133017 -0.27098823
-0.17104872 -0.12568434 -0.09138683 -0.14896126 0.11121374 0.07967695 0.042460565 0.010291291
-0.061498858 0.17505762 0.39741865 0.06691212 0.32487562 0.06334784 0.13443485 -0.20062748
-0.15617734 -0.3071043 0.11060287 -0.19489749 -0.034359463 -0.49454483 -0.16417243 -0.034457017
0.121790975 0.07368421 0.01105343 0.23729484 -0.02260983 -0.028890906 -0.26061425 0.07549329
-0.50570756 -0.11932784 -0.5096568 0.20869204 0.242287 0.043366738 0.26024234 0.102338105
-0.06575036 0.01540832 0.44774443 -0.0025010232 0.044305135 -0.08795313 0.37801605 -0.12652011
-0.14509024 0.4752238 0.173179 0.15701544 0.16615318 -0.29591733 0.09627033 -0.16034083
-0.10984403 -0.37420118 -0.040392708 -0.2412717 -0.227912 -0.64241207 0.0749135 0.21637559
0.13230841 0.085444175 0.29025924 -0.19110036 -0.026176266 0.61425024 0.109903015 -0.113745406
0.50403816 -0.025852429 0.41926363 -0.10431266 -0.20639591 -0.17829694 -0.28481647 -0.2226523
-0.09807342 -0.61538416 -0.042661317 0.19969037 0.1367316 -0.1202021 -0.1815798 0.150233
-0.16697277 0.039742094 0.0025760029 -0.17229137 -0.018170638 0.06364569 -0.12739119 -0.13039
0.057956222 0.24651131 0.022787381 -0.0067466283 -0.17286319 -0.09310105 0.16082849 -0.0015074547
0.21641839 0.2379988 0.15227976 0.040548332 0.10154413 0.6531899 0.016147943 0.2268605
0.76141036 -0.23493004 0.1976581 -0.46914187 0.037134904 -0.58419365 -0.12948407 -0.16794498
-0.15970255 -0.8385298 -0.48836684 0.12797837 0.26004574 -0.2907602 -0.03611349 -0.027817544
-0.072960764 0.11071515 -0.019436056 -0.25255525 -0.028216159 -0.18448272 0.07539176 0.28729498
0.10001317 0.095938876 0.0880852 0.0536767 -0.26746348 -0.14598677 0.27329832 -0.1876032
0.17002109 0.12985584 0.1166324 0.15173855 -0.12489247 0.19418779 0.55963653 -0.15484738
-0.10547074 -0.14976545 -0.11425952 0.040058937 -0.087298386 0.08366762 0.06175296 0.056508675
-0.21311334 -0.45706844 -0.11145075 -0.07889893 0.30295712 -0.24166316 0.099180736 -0.17920569
-0.34403247 0.39004847 0.10880234 0.11455814 -0.029072927 -0.12269857 -0.020931661 0.06629985
-0.3326743 -0.30194682 -0.06990772 -0.04127586 -0.37778437 -0.51129246 -0.027882988 0.12084307
0.26136822 -0.1652696 0.1170582 0.07939772 -0.13463162 0.032138433 0.14949892 0.03393822
-0.36214876 -0.30201066 0.02349997 -0.09117935 -0.25338137 -0.086842954 -0.18476798 0.008743548
-0.2918151 -0.15665804 0.3105637 0.09064877 -0.02198599 -0.020469168 -0.18511651 0.48941505
0.18439944 0.03882724 0.36954096 -0.036996037 -0.07392417 0.03463391 -0.1965771 -0.130417
-0.09985093 -0.14565998 0.09665191 -0.1370999 0.14504847 0.0015335043 0.12521107 -0.25294727
0.21789965 -0.02068051 0.11472711 -0.16112676 -0.36730793 -0.0826364 -0.1709555 0.0129229985
-0.48756036 0.03844428 -0.3130411 0.11021689 0.20989722 0.23841 0.15807655 0.092642926
00000000: a2f9 97bb 13e8 28be adcb d33d f84f 203e
00000010: 6f31 ad3c 24f4 13bc fea9 cb3e b742 2bbc
00000020: 67c6 973d 9c8a 83be 1c49 173e b9be 323d
00000030: 8c66 5ebe 5531 e5bd 3700 143d f8be 8abe
00000040: 6527 2fbe 65b3 00be 0529 bbbd 4d89 18be
00000050: 08c4 e33d ab2d a33d 21eb 2d3d ce9c 283c
00000060: 3ae6 7bbd 4e42 333e 757a cb3e 3909 893d
00000070: 1956 a63e 83bc 813d 4aa9 093e 4a71 4dbe
00000080: f4ec 1fbe c63c 9dbe c283 e23d 3593 47be
00000090: 82bc 0cbd fb34 fdbe d11c 28be cd22 0dbd
000000a0: 8c6d f93d bfe7 963d 7219 353c 6bfd 723e
000000b0: 4038 b9bc 9fac ecbc 3b6f 85be 3a9c 9a3d
000000c0: 0d76 01bf 2862 f4bd de78 02bf 5eb3 553e
000000d0: 151a 783e 52a1 313d 7c3e 853e a496 d13d
000000e0: 20a8 86bd 2e73 7c3c c23e e53e 35e8 23bb
000000f0: 4d79 353d c520 b4bd 528b c13e 7d8e 01be
00000100: 8992 14be 8950 f33e d655 313e a8c8 203e
00000110: 0f24 2a3e 7a82 97be 6129 c53d 6330 24be
00000120: e8f5 e0bd 4c97 bfbe d372 25bd ee0f 77be
00000130: c361 69be 1e75 24bf 406c 993d 9091 5d3e
00000140: db7b 073e 5bfd ae3d dc9c 943e d0af 43be
00000150: 9c6f d6bc 813f 1d3f d514 e13d 5af3 e8bd
00000160: a508 013f 79c8 d3bc b9a9 d63e e0a1 d5bd
00000170: 7359 53be 7993 36be 77d3 91be f7fe 63be
00000180: b8da c8bd d189 1dbf a2bd 2ebd a27b 4c3e
00000190: 5e03 0c3e 852c f6bd 0ef0 39be aed6 193e
000001a0: e9fa 2abe 9bc8 223d 28d2 283b 266d 30be
000001b0: 97da 94bc ac58 823d d672 02be f584 05be
000001c0: 8163 6d3d 766d 7c3e 9aac ba3c d212 ddbb
000001d0: 0c03 31be c3ab bebd 39b0 243e c995 c5ba
000001e0: c89c 5d3e f5b5 733e 3aef 1b3e 0216 263d
000001f0: 5ef6 cf3d 7437 273f b148 843c 1e4e 683e
00000200: caeb 423f 8091 70be e366 4a3e 5d33 f0be
00000210: c51a 183d b78d 15bf 7997 04be c5f9 2bbe
00000220: 1189 23be e4a9 56bf 380b fabe c30c 033e
00000230: b724 853e 85de 94be bdeb 13bd 9ee1 e3bc
00000240: 746c 95bd a0be e23d 5d38 9fbc ec4e 81be
00000250: 9325 e7bc 0ae9 3cbe ff66 9a3d 5418 933e
00000260: b4d3 cc3d 9a7b c43d 0366 b43d 19dc 5b3d
00000270: f9f0 88be 8e7d 15be c2ed 8b3e 0e1b 40be
00000280: 021a 2e3e eef8 043e f8dc ee3d 5a61 1b3e
00000290: a0c7 ffbd 2ad9 463e 5744 0f3f 5090 1ebe
000002a0: 0b01 d8bd 1d5c 19be e500 eabd d714 243d
000002b0: 7fc9 b2bd ee59 ab3d acf0 7c3d a475 673d
000002c0: 623a 5abe e004 eabe 4a40 e4bd c395 a1bd
000002d0: 321d 9b3e 8c76 77be 451f cb3d b281 37be
000002e0: 0625 b0be 6fb4 c73e c3d3 de3d 759d ea3d
000002f0: 592a eebc 6349 fbbd e078 abbc 37c8 873d
00000300: 4954 aabe c698 9abe c72b 8fbd e010 29bd
00000310: f46c c1be 10e4 02bf dd6a e4bc 927c f73d
00000320: 0ed2 853e 6f3c 29be 36bc ef3d 469b a23d
00000330: dfdc 09be 97a3 033d 3f16 193e ce02 0b3d
00000340: 906b b9be 24a1 9abe 0283 c03c 3dbc babd
00000350: 34bb 81be b8da b1bd d133 3dbe 1941 0f3c
00000360: ca68 95be f76a 20be 3502 9f3e 10a6 b93d
00000370: f71b b4bc f5ae a7bc 2f8f 3dbe 9c94 fa3e
00000380: 35d3 3c3e 5009 1f3d 7934 bd3e 2889 17bd
00000390: 8e65 97bd 49dc 0d3d 824b 49be 098c 05be
000003a0: a57e ccbd e427 15be 70f1 c53d eb63 0cbe
000003b0: 9687 143e deff c83a 5537 003e 4e82 81be
000003c0: 1621 5f3e 2c6a a9bc 0cf6 ea3d 6afe 24be
000003d0: c90f bcbe 463d a9bd f50e 2fbe fcba 533c
000003e0: 83a1 f9be c077 1d3d ec46 a0be 65b9 e13d
000003f0: 4cef 563e c021 743e d2de 213e 93bb bd3d

weight_hh_l2 f4 [80, 20]
-0.086898476 -0.019309623 -0.06328175 -0.04922846 0.09822236 -0.15563443 -0.05202062 0.07785343
-0.100198396 -0.3087749 -0.17448606 -0.06365518 0.09528808 0.22629791 0.049205333 0.16064408
-0.1710192 -0.13698283 0.11729387 0.00920409 -0.27970466 0.0041466244 0.23714636 0.15473495
-0.15491526 -0.20583107 -0.09819507 0.18715213 0.4188174 -0.035715517 0.1329704 0.07072307
0.24420546 0.20939977 0.060429092 0.15837625 0.19803187 -0.095787086 -0.30365866 -0.14527927
0.036847778 -0.29339752 -0.03819563 0.1761497 -0.013947318 -0.10545691 0.049140736 -0.23074715
0.09606707 0.16772622 0.028906828 -0.31028256 0.019223237 0.030024162 -0.228415 0.19254367
0.11016982 -0.21336024 -0.16308334 -0.13452798 0.004924844 0.037038993 -0.15719983 -0.19474885
-0.17058691 0.06574945 -0.016523132 0.2704651 -0.04794546 -0.027140323 -0.26157397 0.10182012
0.07167814 0.31830058 0.18527149 -0.092911825 0.07777132 -0.13313094 -0.21912608 -0.05332592
0.22222653 0.11510126 0.18457463 -0.19664493 -0.7364441 0.06859326 -0.29000238 0.11160639
-0.0673561 -0.13396738 -0.12690264 0.10729194 -0.15582609 -0.23205937 -0.20394738 -0.29863757
-0.33740026 0.15594491 0.12582605 0.31126878 -0.21936043 0.011509636 0.04885542 0.009104182
-0.014834427 -0.020105416 -0.26790157 0.27169597 -0.29560834 0.013581453 -0.026132597 0.25227088
0.29552576 0.15384072 0.07257896 -0.032849714 0.1971088 -0.050790057 0.0456467 0.29859886
-0.29268092 -0.1960525 0.0068432987 -0.08396798 -0.17433606 -0.094552584 0.1843694 -0.021394055
-0.04610978 -0.11117295 0.17636448 -0.1546699 -0.05819212 -0.18224874 -0.09776509 -0.29421398
-0.0756974 -0.040851425 0.1692698 0.3042903 0.072000585 0.025239559 -0.15011601 -0.3330637
-0.22984613 -0.29011247 -0.18240143 0.19914268 0.24895711 -0.15685233 -0.09743285 0.04730866
0.50069904 0.38664016 -0.02633404 0.42861748 -0.13435116 0.0036564535 -0.4151357 -0.1865792
-0.24469122 0.10653384 -0.20053828 -0.24699435 0.08088446 -0.10032814 -0.07134409 0.36444503
0.1443213 -0.0007248792 -0.28689688 -0.067366615 0.35679588 0.42172107 0.10839109 0.19117954
-0.19573843 0.33208317 0.09247441 -0.19195656 -0.14798059 0.30829388 -0.07713128 -0.17399904
0.1954296 -0.38348588 -0.21118635 0.20052187 0.38731906 -0.13787208 -0.22825234 -0.11540441
0.06124997 0.14344284 0.20272005 0.26629362 -0.15608644 0.21588182 -0.017771216 0.17370944
-0.3243592 0.02534723 -0.3243007 -0.44377428 0.18657935 -0.23959269 -0.27883986 0.3405717
0.12176134 -0.28394035 -0.42980254 -0.123822875 0.24970987 0.3236896 0.006632554 0.08316082
-0.058600593 0.09789668 0.12784812 -0.023274127 0.08687868 0.158563 -0.47170684 -0.07023005
-0.116362125 -0.11712121 0.10315005 0.18997015 -0.21026725 -0.11408662 -0.12216361 0.044115763
0.023224557 0.20873043 -0.0060627884 0.43981493 -0.28329787 0.22794078 -0.065356165 -0.3763054
0.29031038 -0.09671018 -0.096434996 -0.28805172 0.06702302 -0.00817081 -0.011656523 0.019755617
-0.038923584 -0.25688788 0.08423503 -0.23560764 0.33949634 0.05737444 0.22745153 0.2567413
00000000: d4f7 b1bd 372f 9ebc dd99 81bd c8a3 49bd
00000010: ce28 c93d a25e 1fbe 9313 55bd 9e71 9f3d
00000020: d134 cdbd be17 9ebe 79ac 32be a65d 82bd
00000030: 6626 c33d a4ba 673e 888b 493d e27f 243e
00000040: a81f 2fbe 3a45 0cbe c537 f03d c0cc 163c
00000050: 7335 8fbe 68e0 873b 7fd6 723e d772 1e3e
00000060: 1ba2 1ebe 61c5 52be 7f1a c9bd cfa4 3f3e
00000070: 3c6f d63e 6f4a 12bd 6429 083e 42d7 903d
00000080: ff10 7a3e e56c 563e 7f84 773d 622d 223e
00000090: dec8 4a3e 052c c4bd 2679 9bbe 17c4 14be
000000a0: b2ed 163d 3338 96be 0573 1cbd 9660 343e
000000b0: 4b83 64bc cbf9 d7bd cc47 493d fb48 6cbe
000000c0: d0be c43d 6cc0 2b3e 03ce ec3c 5bdd 9ebe
000000d0: 0d7a 9d3c 3bf5 f53c 9fe5 69be 2b2a 453e
000000e0: b7a0 e13d 1b7b 5abe 52ff 26be b4c1 09be
000000f0: 9660 a13b 33b6 173d fef8 20be 3e6c 47be
00000100: 56ae 2ebe a6a7 863d 855b 87bc 677a 8a3e
00000110: 7562 44bd 6255 debc 06ed 85be 1187 d03d
00000120: fdcb 923d 4bf8 a23e cfb7 3d3e 8e48 bebd
00000130: 9246 9f3d 7a53 08be 9662 60be 486c 5abd
00000140: 5a8f 633e 36ba eb3d 2201 3d3e 4a5d 49be
00000150: 9a87 3cbf a07a 8c3d 317b 94be e491 e43d
00000160: fff1 89bd bf2e 09be c4f2 01be e0bb db3d
00000170: e090 1fbe f9a0 6dbe 95d7 50be 06e7 98be
00000180: babf acbe 06b0 1f3e 8bd8 003e 9f5e 9f3e
00000190: 05a0 60be ea92 3c3c 9f1c 483d b529 153c
000001a0: 190c 73bc 1db4 a4bc 652a 89be bc1b 8b3e
000001b0: fa59 97be be84 5e3c 0714 d6bc a629 813e
000001c0: 274f 973e 6c88 1d3e 47a4 943d 6c8d 06bd
000001d0: e4d6 493e 3c09 50bd 09f8 3a3d f3e1 983e
000001e0: 46da 95be fdc1 48be c03d e03b 68f7 abbd
000001f0: 2785 32be c9a4 c1bd 55cb 3c3e 9642 afbc
00000200: 9cdd 3cbd a5ae e3bd e498 343e c961 1ebe
00000210: dc5a 6ebd 6a9f 3abe 1039 c8bd 37a3 96be
00000220: 3d07 9bbd d353 27bd 1055 2d3e f0cb 9b3e
00000230: 0b75 933d 31c3 ce3c 03b8 19be 5387 aabe
00000240: c95c 6bbe 9f89 94be 71c7 3abe 0fec 4b3e
00000250: 9dee 7e3e e69d 20be e08a c7bd bac6 413d
00000260: d02d 003f b3f5 c53e 7cba d7bc c073 db3e
00000270: 5a93 09be 1ca1 6f3b ab8c d4be 9e0e 3fbe
00000280: 5690 7abe 6a2e da3d e859 4dbe 16ec 7cbe
00000290: c0a6 a53d d778 cdbd da1c 92bd 8a98 ba3e
000002a0: f6c8 133e d205 3eba 26e4 92be 82f7 89bd
000002b0: f3ad b63e d3eb d73e 26fc dd3d 92c4 433e
000002c0: a86f 48be ce06 aa3e 3963 bd3d 4390 44be
000002d0: 3988 17be b2d8 9d3e 01f7 9dbd ce2c 32be
000002e0: b21e 483e 4358 c4be 3c41 58be 9b55 4d3e
000002f0: af4e c63e 572e 0dbe fbba 69be 2659 ecbd
00000300: 40e1 7a3d aee2 123e d895 4f3e a357 883e
00000310: 20d5 1fbe 2010 5d3e f194 91bc e3e0 313e
00000320: 6912 a6be fea4 cf3c be0a a6be 6236 e3be
00000330: a80e 3f3e c957 75be 19c4 8ebe 6a5f ae3e
00000340: 025e f93d a160 91be 140f dcbe d996 fdbd
00000350: f2b3 7f3e a5ba a53e e555 d93b 3850 aa3d
00000360: 2d07 70bd 0e7e c83d 9eea 023e 62a9 bebc
00000370: 73ed b13d 575e 223e 8f83 f1be c6d4 8fbd
00000380: 444f eebd 3fdd efbd 5540 d33d 8987 423e
00000390: 4c50 57be 3fa6 e9bd ea30 fabd bbb2 343d
000003a0: 6d41 be3c 6ebd 553e 5baa c6bb 6c2f e13e
000003b0: 6b0c 91be 4f69 693e 74d9 85bd 1aab c0be
000003c0: 90a3 943e fd0f c6bd b67f c5bd 847b 93be
000003d0: 5d43 893d dcde 05bc 00fb 3ebc 88d6 a13c
000003e0: 566e 1fbd cf86 83be 6a83 ac3d 2143 71be
000003f0: 77d2 ad3e 7601 6b3d 0ee9 683e 9873 833e

bias_ih_l2 f4 [80]
-0.015187464 -0.10723615 0.06568325 -0.024982028 -0.07564391 0.1272585 0.12878768 0.06257272
0.17083557 0.059693687 0.4173869 0.13847694 -0.061357636 0.13574548 0.19197614 0.35030773
-0.05257246 0.26713467 0.2042891 0.4496823 -0.07117718 0.08363966 0.24635582 0.1330903
0.28421322 0.3522065 0.40841687 0.3092119 0.013161548 0.276923 0.35032138 0.038577773
0.21044703 0.22284971 -0.041339513 0.1947872 0.251549 0.20577826 0.4432134 -0.08040799
-0.18371078 0.082959644 0.115894005 -0.051571436 0.14762725 0.09001643 -0.28839603 0.36848837
0.16453074 -0.3360463 -0.26462924 -0.110229164 0.12762341 -0.082788624 0.138805 0.15929979
0.118560426 0.1751543 0.17413849 0.27832398 0.15166453 0.034918185 0.09505781 0.23490149
-0.013027451 0.21627653 0.28014484 0.34051993 0.36078677 0.20414898 0.15995046 0.381886
-0.061612252 0.3899278 0.31984654 0.13060342 0.23541446 0.19303271 0.30038726 0.52119756
00000000: d7d4 78bc a09e dbbd f184 863d 1ca7 ccbc
00000010: 32eb 9abd 0d50 023e ebe0 033e 2026 803d
00000020: 85ef 2e3e 5e81 743d bcb3 d53e e6cc 0d3e
00000030: 2552 7bbd dd00 0b3e 6595 443e 895b b33e
00000040: 3856 57bd e0c5 883e 2931 513e c23c e63e
00000050: 57c5 91bd 454b ab3d b344 7c3e d348 083e
00000060: 6584 913e 6954 b43e 041c d13e 0651 9e3e
00000070: 89a3 573c dac8 8d3e 535d b33e ba03 1e3d
00000080: 6d7f 573e b732 643e 9f53 29bd 4c76 473e
00000090: 08cb 803e 89b7 523e deec e23e f2ac a4bd
000000a0: ae1e 3cbe bfe6 a93d d659 ed3d 923c 53bd
000000b0: 992b 173e 895a b83d a5a8 93be 82aa bc3e
000000c0: bf7a 283e 430e acbe 7c7d 87be d4bf e1bd
000000d0: b6af 023e 158d a9bd e622 0e3e 7c1f 233e
000000e0: cfcf f23d a65b 333e 5c51 323e 7b80 8e3e
000000f0: f24d 1b3e 5f06 0f3d abad c23d 048a 703e
00000100: 1771 55bc 9877 5d3e 256f 8f3e a158 ae3e
00000110: 0bb9 b83e 6e0c 513e 0eca 233e 9086 c33e
00000120: 215d 7cbd 9ea4 c73e edc2 a33e e7bc 053e
00000130: 7d10 713e 5eaa 453e 5ccc 993e 346d 053f

bias_hh_l2 f4 [80]
0.21621318 -0.0518436 0.013806129 0.06022659 0.23225576 -0.09149015 0.17256698 0.003950507
0.12014423 0.30999127 0.06381664 -0.099001296 0.07607811 -0.070972785 0.1005872 0.06358124
0.08122775 0.0039744023 -0.048091237 0.17753148 0.10036712 0.058118075 0.24280691 0.118815824
0.4605647 0.08147366 0.19612132 0.15524426 0.31068507 0.18103123 0.23817368 0.17721793
-0.017299632 0.13141158 0.26292038 0.043210264 0.41420227 -0.010602069 0.12877381 0.29217696
0.08789123 0.033819888 -0.14977643 -0.13956164 -0.01454288 -0.14806919 0.034248453 0.18257153
0.23376718 -0.18349285 -0.24650048 0.06981139 0.30076426 0.0025512145 -0.07796997 0.084188186
-0.049753897 0.19187652 -0.11155199 -0.112489834 0.12136244 0.2048497 -0.04168496 0.26728636
0.1835313 0.33103624 0.40180704 0.35014787 0.25711444 0.15573414 0.33913714 0.61758405
0.22157244 0.087427355 0.4671548 0.32056183 0.41110873 0.43917555 0.59411144 0.34266347
00000000: fd66 5d3e f459 54bd 1a33 623c 28b0 763d
00000010: 74d4 6d3e 305f bbbd 66b5 303e 4173 813b
00000020: 2e0e f63d 2db7 9e3e 4cb2 823d 31c1 cabd
00000030: d7ce 9b3d 2e5a 91bd a900 ce3d e236 823d
00000040: bc5a a63d b43b 823b 51fb 44bd d0ca 353e
00000050: 478d cd3d 380d 6e3d 60a2 783e b655 f33d
00000060: 23cf eb3e aadb a63d 07d4 483e 5af8 1e3e
00000070: 1d12 9f3e 4060 393e cde3 733e 9e78 353e
00000080: f5b7 8dbc c290 063e 809d 863e 3ffd 303d
00000090: 5212 d43e 4db4 2dbc 48dd 033e 3898 953e
000000a0: 5100 b43d b986 0a3d fe5e 19be 3fe9 0ebe
000000b0: 4245 6ebc 739f 17be 1b48 0c3d 08f4 3a3e
000000c0: aa60 6f3e 8de5 3bbe 9f6a 7cbe 46f9 8e3d
000000d0: c6fd 993e 4732 273b b8ae 9fbd db6a ac3d
000000e0: beca 4bbd 477b 443e 5f75 e4bd 1261 e6bd
000000f0: df8c f83d 1fc4 513e d9bd 2abd c2d9 883e
00000100: a1ef 3b3e 957d a93e a7b9 cd3e 9546 b33e
00000110: 81a4 833e c578 1f3e 62a3 ad3e fd19 1e3f
00000120: e3e3 623e 1d0d b33d ea2e ef3e ae20 a43e
00000130: d87c d23e 9edb e03e b017 183f 9671 af3e
