LSTM/code/model/old_model/model_mk7_350epoch_0.0015trainloss_0.0234validloss.pt (torch, 46468 bytes, 32 tensors)

weight_ih_l0 f4 [40, 22]
00000000: 3f2b a4bd 5483 0f3e 91a5 ac3e 8d38 9abe
00000010: 6d77 90be f126 7cbd 6d79 ab3e ca1e 6ebe
00000020: 3f49 cfbe 60df 85be d5aa cf3d c7de e63d
00000030: dfd3 8fbc 2df1 6fbe 4c41 edbc f480 4ebe
00000040: a1c8 d53d 9579 6a3e d3dc b33d d130 983d
00000050: 276c b63e 2a39 ccbe 7b9f 553b eed2 82be
00000060: 4717 5fbe a329 743e 91dc 6a3e cb2d 9f3d
00000070: c896 dabe 044b 3abe c043 1abe 54be 573e
00000080: f6d8 29be b32b 28bd fae7 3abe c8a2 073e
00000090: b589 bf3d 7f68 3abd 5529 2bbe 045f bfbd
000000a0: fda9 1cbe 92f6 65be e032 443e 3a8f 903e
000000b0: 561d 103d 77e0 8bbe 01b3 65be e9e4 463e
000000c0: 9c0f 1c3e 550c 98be dec9 a6be b8f3 383a
000000d0: 287b 253c 3b1a 683e e2c6 82be 08a0 c7bd
000000e0: 7ca4 ba3e a76a 063e fc29 96be b8a0 483d
000000f0: bcb2 fe3e 6709 95bd c165 cabe 5dca 49be
00000100: 68c2 c1bd f5cb b73e a201 2cbd fac7 95be
00000110: 19e9 733e cca6 2c3e 94eb 9dbd 2ca5 75be
00000120: aaff 283d e38b b6bc 17b6 853d aed0 2abe
00000130: e203 f3bd f754 a73e 247b 38bd d011 743e
00000140: 7c1e 8f3e 350c 553e 591d 9e3d 1b8f e7bd
00000150: 6756 87bd ae98 cd3b ea28 c5bd ae12 303e
00000160: 1046 243e 77a5 9cbe 89c2 95be adeb 8c3e
00000170: 9e16 343e 87a5 4bbe 1517 4abd c7ca 80be
00000180: 68a2 16be ef38 62bd c681 083e 4af0 a8bd
00000190: 0687 e33d 76d3 bfbe 31b2 2a3e 2e9e c4bd
000001a0: b851 78bd 6ab1 bebe 6278 8abe 14c5 3e3e
000001b0: 2635 b3b9 91ca 0abe 986e 50be de18 36be
000001c0: 1456 353e cb09 473e 85cd 0abe 8455 9dbe
000001d0: 3d51 8abc e88a 553e eac6 67bd 4f12 7bbe
000001e0: 20df 823e 50d6 09be 8f28 adbe cde7 13be
000001f0: 9eae ec3d 2666 3b3d 1098 90be c1b3 86be
00000200: 9161 20be e51a 2bbe 8bc2 903e 1064 49be
00000210: 089e 22be d6d8 32be 39c6 e8bc 7d14 a23d
00000220: 001c 6e3e 66c3 2fbe a8d6 203e afa6 5ebe
00000230: 3b7e 883b a017 853e 29be 5dbe 0630 1f3e
00000240: a303 a63e ab87 3bbd 6953 f13d fe80 80be
00000250: 4625 403d 309e ebbd 845c a2bd fb93 2b3e
00000260: 533c 9cbc dc34 1e3e 920b 203e 3a01 133e
00000270: 3cd8 d43e 4d97 343e 9a6e 4abe 5201 83be
00000280: 99a7 cf3e 4b6c fb3a afb4 8bbe 3456 113d
00000290: bb2b 52be 0326 09be 6ee3 59be 90ea fb3d
000002a0: 6573 b13d f8b4 95bd a2f8 82be 5290 643e
000002b0: 858b 6bbc 8079 6ebd 80ac c9bd 7626 73be
000002c0: c2da 96be 7569 3c3e dce2 8fbe c14f 433e
000002d0: a642 053e 619f fcbd 0bba 51bc 3e9d 49be
000002e0: 25c5 36be 69ca 95be 95f5 9ebe 7352 eebd
000002f0: a2e7 153e c3a9 6bbe f840 bcbe 8fd9 d1bd
00000300: 099a bcbe a9aa d1be c481 0b3e 54bb bebd
00000310: f5eb 893e 575e 0b3e 11f4 9abe 43af efbd
00000320: 5b43 973e ebdf b6bd 46b8 07be 559e 543e
00000330: b92e aebd bd54 7cbe 70f7 82be 2b1a a73d
00000340: f0fd 3c3e f497 f23d 970b f73d 8032 21be
00000350: f583 713e 4ca8 243e 3b97 88be 4619 aebc
00000360: d07d 8ebe c59b d13d 906e 9a3e 2d4a 4a3e
00000370: ed3b ebbc b571 ed3d 89db 7b3e 7603 73be
00000380: 25c1 4ebe 4c42 98be 8bc9 edbc fe3b 983e
00000390: a014 71be 22b2 80be 387a ff3c 3fff 87be
000003a0: 92a5 e1be 9e3c 83be 2bef 223e 42a8 4f3e
000003b0: 2edb c23d 40bc aabe ff17 d33d 77d5 21be
000003c0: 0614 823e 9544 0c3d fff6 71be 4915 3b3e
000003d0: cc50 8abe 4b80 67be 9603 0a3c 1e00 46be
000003e0: 7c09 5a3d ebf4 6f3e e930 393e 5951 2cbb
000003f0: f4ae cebe 666a 803e 343d 933e 219e 98bd
-0.08016061 0.14014941 0.33720067 -0.3012127 -0.28216115 -0.061560575 0.33491078 -0.23253933
-0.4048557 -0.26146984 0.101400055 0.1127296 -0.017557083 -0.23431845 -0.0289618 -0.20166379
0.104386576 0.22897942 0.08782353 0.07431186 0.3562939 -0.39887363 0.0032596278 -0.25551552
-0.21786223 0.23844008 0.22935702 0.07772406 -0.42693162 -0.18192679 -0.15064907 0.21068698
-0.1658667 -0.0410573 -0.18252555 0.1324569 0.093524374 -0.04550981 -0.16714986 -0.09344295
-0.1529922 -0.2245734 0.19160032 0.28234273 0.035184227 -0.2731969 -0.22431566 0.1942326
0.1524033 -0.2969691 -0.32575887 0.000705536 0.0101001635 0.22666256 -0.2554236 -0.097473204
0.36453617 0.13126622 -0.29328907 0.0489814 0.49745739 -0.07277184 -0.39530757 -0.19706102
-0.09460908 0.35897794 -0.041993745 -0.29254133 0.23819388 0.16860503 -0.077109486 -0.2398879
0.041259445 -0.0222835 0.065288715 -0.16681167 -0.11865975 0.3268201 -0.04503931 0.2383492
0.27952945 0.20805438 0.07720441 -0.11306592 -0.06608277 0.0062743044 -0.09626944 0.17194626
0.16042352 -0.3059499 -0.2924998 0.27523556 0.17586753 -0.19887362 -0.04933842 -0.25154707
-0.1471039 -0.055230077 0.13330755 -0.082489565 0.11109738 -0.3746602 0.16669537 -0.09600483
-0.060624808 -0.3724473 -0.2704497 0.18629867 -0.0003418114 -0.13553835 -0.20354688 -0.17782924
0.17708617 0.1943733 -0.13554962 -0.30729306 -0.01688444 0.2085377 -0.056586184 -0.24518703
0.25560856 -0.1346066 -0.33820006 -0.14443894 0.11556743 0.045751713 -0.28241014 -0.26309016
-0.15662219 -0.16709478 0.28273425 -0.19667077 -0.15880597 -0.17465529 -0.028414832 0.07914064
0.23252869 -0.17164382 0.15706885 -0.21743272 0.0041654385 0.25994587 -0.21654572 0.15545663
0.3242465 -0.04578368 0.11783487 -0.25098413 0.046910547 -0.11504781 -0.07927802 0.16755669
-0.019071734 0.15449852 0.15629414 0.14355937 0.41571224 0.17635842 -0.19768754 -0.25586945
0.40557554 0.0019182054 -0.27286288 0.0354826 -0.20524494 -0.13393407 -0.21278164 0.123005986
0.08664588 -0.07309908 -0.25580317 0.22320679 -0.014376526 -0.05822134 -0.09847355 -0.2374514
-0.29463774 0.18399604 -0.28102767 0.19073392 0.13013706 -0.123350866 -0.012800704 -0.1968889
-0.17848642 -0.2925599 -0.3104674 -0.1163682 0.14639142 -0.23013978 -0.36768317 -0.10246574
-0.3683627 -0.40950516 0.1362372 -0.09313074 0.26937833 0.13610207 -0.30264333 -0.117033504
0.29543576 -0.08929428 -0.13253888 0.20763524 -0.085050054 -0.246417 -0.25579405 0.08159288
0.18456244 0.11845389 0.120627575 -0.1574192 0.23585494 0.16079825 -0.2667788 -0.021252286
-0.27830362 0.10234789 0.30162477 0.19754858 -0.028715098 0.115939535 0.24595465 -0.23731789
-0.20190866 -0.2973808 -0.029026767 0.2973327 -0.23543024 -0.25135905 0.031186208 -0.26561925
-0.44071633 -0.25632185 0.15911548 0.20279029 0.095144615 -0.33346748 0.10307311 -0.15804087
0.25405902 0.034245092 -0.23629378 0.18269838 -0.27014768 -0.22607534 0.0084237065 -0.19335982
0.0532317 0.23433273 0.18085064 -0.0026293604 -0.40367854 0.25081176 0.28757632 -0.07452036

weight_hh_l0 f4 [40, 10]
00000000: 28e2 253e 4684 33be d982 dbbc 29aa 3b3d
00000010: b0ec 0a3e e53d 833e b469 11be 388b 4f3d
00000020: a7c1 bbbe 0e01 b3bd 2530 753e 982a 17bc
00000030: e4e4 023e a87e b2be e66c bf3d 9a82 34be
00000040: 7d9a 39be 8a55 2ebe 006d 493e c281 a13d
00000050: 4b32 64bd 15f1 ae3e b313 a33d de5d 1cbe
00000060: 373d 583d cdcc 0dbd 6065 72bd 3f61 92be
00000070: 37f0 173d 1d36 6abd c3a9 3cbe 4418 533e
00000080: 982a a43c 8941 78be bdb6 31bd eb61 77be
00000090: 2855 873e fbcc 523e 70d7 bfbe b8e5 23bd
000000a0: 13b1 2dbb 2359 7c3e 8ccd dd3e 349b 69be
000000b0: cbc1 9c3c 55b3 a8bd 0b01 ab3e 21f1 ab3e
000000c0: 649f ecbd edf9 673e af94 86bd 7776 c5bd
000000d0: 4b62 f13c c3a7 843e 5fc7 bebd e150 f7bd
000000e0: 3e29 8b3e 7179 abbd 2766 b8bd c352 56be
000000f0: c264 a8bd 8565 b23e 9d2e d13d 6c32 2b3e
00000100: 24a1 f6bc 9644 9a3b 52cc a03d f9e2 b73d
00000110: 43ca 633d d19b fabd 52ee 89bd 6428 073e
00000120: b571 96be ca23 93bc 1389 a8bc c409 463e
00000130: 760f 083e 8d17 e5bd b1fd 9abe 50d4 9dbe
00000140: d61f d2be 22d3 fe3d 0993 c3bd 980a e0be
00000150: 438e c53e e2cd e6be 4c86 d23e 295e 083f
00000160: bc5d bb3e 37b1 0dbe b9d5 89be 6030 bfbd
00000170: 3d11 ae3e 2029 1e3e faaa a43e 3b03 0bbb
00000180: b5a1 8c3e cc7f 9c3e 30a7 4a3e aad4 f0bd
00000190: 64d7 523e 4ab8 d93d 9b99 2ebe f5ec 1fbd
000001a0: 90ac bbbd edc5 563c f6da e93b 9c02 a4bd
000001b0: e4ca f5be ce6f 723c ce54 f3bc c958 603e
000001c0: ec48 0bbc bcf6 23be 506d 263c 93fa a7be
000001d0: 59d9 813d 02ff 92bd 4c4f 4b3e beba 9c3e
000001e0: aeb5 8bbe c9d4 9c3e cfb9 5bbd 0f9a 9bbc
000001f0: 6e0b 993e 79c9 9dbe 39b2 d6bd 588f a6bc
00000200: f901 fabd 8d8a bbbc 57dd 5b3d 9714 923e
00000210: e597 9a3d 4ea2 413e 502e 673e 28f4 813e
00000220: 27f7 a93e a52c 72be 4cc8 dabe 401e d53d
00000230: 099c 633d 89f4 63be 802d b53e a5ca 63be
00000240: f9ad 7a3e bdd6 84be 6951 66bc edd9 2dbc
00000250: 0ba2 80be 1803 343e d403 93be 71f5 55be
00000260: b94c 12be d078 833e 4f60 18bd 9a91 833e
00000270: 90c5 8bbe 2e65 be3d 73dc 983e 8a83 643e
00000280: 21ed 14be 1390 9f3e 4efa 513e b68e 45be
00000290: a009 6f3e 67b0 93be f944 3dbe fd78 97bd
000002a0: cfaf 3b3e d2fa 73be c651 ab3e 9b20 91be
000002b0: 0afc 94be e109 203d 17b6 29be 66d8 2e3e
000002c0: 64d0 8b3e ea17 a43d 877e c53e ce94 a2bd
000002d0: 94a4 0ebd 5acb adbe 1a6e d13e 7a0d b2be
000002e0: 0065 833e 7e99 a9be 22f3 073d cda8 2f3e
000002f0: dfa6 3ebe 3e6b 993e aeb2 d33d 2531 8f3d
00000300: d8a0 a43b 07d0 643e 27cb 423c f68c a53d
00000310: 6000 22bd 3335 a9bd 5e2a 5dbe 18bb 81be
00000320: ae4c 5d3e 6bb5 723e 17e0 7abe d5f7 803e
00000330: 0632 673e ef9c 8abd 8c94 a63e 3f59 66be
00000340: 668f a93e 4d94 7abe be68 803e dac5 f23d
00000350: 4121 8f3e a9bb e13a 7d69 9ebe 1b88 9f3e
00000360: 89f2 99be 92c2 473e 4f31 2dbe 44fa 543d
00000370: 86dd 15be 82fd 51be e2f2 d13c 4963 7e3e
00000380: 0ccb 323e 3635 cc3d 38cf 22be f33e b7be
00000390: ee6f 0fbe 10f4 71be 60bb 1f3d b720 c23d
000003a0: 6ee5 0e3e ca72 30be 8fa6 29be b63f c8bd
000003b0: 4928 853c cc7e febd 7004 e0bd 22bc 5dbe
000003c0: 4886 87be da2b ef3d 91fa c73d 1178 ca3d
000003d0: 1a56 9b3e 2411 b9be 8b8f 4a3c 4f5b ffbd
000003e0: 084b 563e 14d2 893e 64a7 6c3e 1234 8c3e
000003f0: fa11 15be 4225 3fbe 3568 fb3d f194 953d
0.16199553 -0.17530927 -0.026795791 0.045816574 0.13566852 0.2563316 -0.14200479 0.05066988
-0.36671183 -0.087404355 0.23944147 -0.009226464 0.12782627 -0.34862256 0.093469426 -0.17627946
-0.18125339 -0.17024818 0.19670486 0.078860775 -0.055712026 0.34168306 0.07962742 -0.15270182
0.052792754 -0.03461914 -0.05917871 -0.28589818 0.03709432 -0.057180513 -0.18424134 0.20614725
0.020039842 -0.2424375 -0.043387163 -0.24158446 0.26432157 0.20586006 -0.37469053 -0.040014
-0.002650325 0.24643378 0.43320882 -0.22813112 0.019135376 -0.0823733 0.33399233 0.33582404
-0.11553839 0.22653933 -0.06571328 -0.09641736 0.029465815 0.25909242 -0.09315371 -0.12075973
0.27179903 -0.083727725 -0.09003859 -0.20930009 -0.08222343 0.34843078 0.10213969 0.16718453
-0.030106135 0.004707883 0.07851471 0.089788385 0.055612814 -0.12236751 -0.06734909 0.13199002
-0.29383627 -0.017961401 -0.020573175 0.19339663 0.13287148 -0.111861326 -0.30271676 -0.30826044
-0.41039914 0.12442614 -0.09549529 -0.43758082 0.385851 -0.4507895 0.41118085 0.53268677
0.3659495 -0.13837133 -0.2692087 -0.09335399 0.33997527 0.15445375 0.32161695 -0.0021211642
0.27467123 0.3056625 0.1979034 -0.117593125 0.20589978 0.106308535 -0.17050783 -0.03904434
-0.09163773 0.013108713 0.007136698 -0.0800831 -0.48006356 0.014797164 -0.029703524 0.21908869
-0.008501273 -0.1601209 0.010157898 -0.3280836 0.06340284 -0.07177545 0.19854468 0.30611223
-0.27287048 0.30631092 -0.053643998 -0.01899436 0.29891533 -0.30817774 -0.10483212 -0.020332024
-0.122074075 -0.022893215 0.053677883 0.28531334 0.07548503 0.1890957 0.2257626 0.2538159
0.33196375 -0.23649843 -0.4273094 0.1040616 0.05556873 -0.22261252 0.35386276 -0.22245272
0.24480428 -0.25945082 -0.014057496 -0.01061104 -0.2512363 0.17579305 -0.28713858 -0.2089441
-0.1428708 0.2567811 -0.037201222 0.25697023 -0.27299166 0.09296642 0.2985569 0.22315803
-0.14543582 0.31164607 0.2050564 -0.19292721 0.23343515 -0.28845522 -0.18483342 -0.073961236
0.18328784 -0.23826149 0.33460826 -0.28345188 -0.2909854 0.03907192 -0.16573368 0.17074737
0.27307427 0.08012374 0.38573095 -0.079385385 -0.034824923 -0.33944207 0.40904313 -0.34775907
0.25662994 -0.33124918 0.033190854 0.17154236 -0.18618344 0.29964632 0.10336815 0.069917955
0.005024057 0.22344981 0.011889256 0.08083527 -0.03955114 -0.082621 -0.21598193 -0.25338054
0.21611282 0.23702018 -0.24499546 0.2518908 0.22577676 -0.06768214 0.32535207 -0.22494982
0.33117217 -0.24470635 0.25079912 0.118541434 0.27955058 0.0017222065 -0.30939856 0.31158528
-0.30067852 0.19507816 -0.16913341 0.051996484 -0.14635286 -0.20506862 0.02562851 0.24842562
0.17460269 0.09971087 -0.1589936 -0.35790214 -0.14007542 -0.23628259 0.038997054 0.09478896
0.13954708 -0.17231289 -0.16567443 -0.09777777 0.016254561 -0.12426528 -0.109383464 -0.21653798
-0.26469636 0.11678286 0.097645886 0.09886182 0.30339128 -0.3614589 0.012363325 -0.124685876
0.2092706 0.2691809 0.2311073 0.27383476 -0.14557639 -0.18666556 0.12275735 0.07303799

bias_ih_l0 f4 [40]
00000000: 2687 6d3e 8445 0e3e cdac 943e 357d 88bd
00000010: 3650 e8bd 2b1b 85bd 26af 063e 7ac2 89bd
00000020: 21c5 373e 914f 3abd f02b 36bd e87e 463e
00000030: 7e81 58be 4f5a 9f3e e08d 87bd 9739 193e
00000040: e887 acbd e821 bd3b aa2e 42be 0a4d 27be
00000050: 3456 483d c45b 2fbd 9abf ca3c ccee 22be
00000060: 6474 61be b50b e7bd 18b1 233d 54e6 88bd
00000070: 2cb0 8e3e ee2a 31be 648b 4cbe ca73 843e
00000080: 3cc7 b63d ffd9 d2bd 02c9 08be f919 743d
00000090: 207e 01be 3ba8 913d dd62 a4bd 26b8 0ebe
0.23196086 0.13893706 0.29038087 -0.06664506 -0.11343424 -0.064993225 0.13152751 -0.067265466
0.17946292 -0.045486037 -0.044475496 0.19384348 -0.21143147 0.31123587 -0.066188574 0.14963375
-0.084243596 0.005771864 -0.18963113 -0.16337982 0.048910335 -0.042812124 0.024749566 -0.15911406
-0.22017056 -0.1128153 0.03996381 -0.066845566 0.27868783 -0.17301533 -0.19975048 0.2586959
0.0892472 -0.10295486 -0.13357928 0.059595082 -0.12645769 0.071121655 -0.08026669 -0.13937435

bias_hh_l0 f4 [40]
00000000: e93a d13d c4ca 83bd 0ec8 6e3e 17f5 a03e
00000010: 7010 12be 2ff2 61be 9193 7a3e dec0 a33d
00000020: 6106 463e 2ad3 9b3e b872 72be fa4e 1fbe
00000030: 29b0 cb3d 884c ab3e 8fdf a73e b471 a63d
00000040: c7e6 c53c 3937 5bbd 8d13 bfbd 22f8 b03e
00000050: f49f 6d3e da3b 873e 4e89 673e 87a0 50be
00000060: b339 9a3e 9f77 97be 62f8 c73e 0ac9 71be
00000070: ed78 873e d62d 673d 3ef0 893d 7760 163e
00000080: 4901 9a3e 5a5b 713e 8077 6bbe 12de c03d
00000090: 1440 6d3d c15e 3c3d 4d1b a63c 4e24 443d
0.10216314 -0.06435159 0.23318502 0.3143699 -0.14264083 -0.22065042 0.24470355 0.07995771
0.19338371 0.30434543 -0.23676574 -0.15557471 0.09945709 0.33456826 0.3278775 0.08127156
0.024157895 -0.05351946 -0.09329901 0.3456431 0.23205549 0.2641285 0.22610971 -0.20373736
0.30122146 -0.2958345 0.3905669 -0.23611847 0.26459447 0.056440197 0.06735276 0.14685236
0.30079105 0.23570004 -0.22994804 0.094173566 0.057922438 0.045988802 0.02027669 0.047886185

weight_ih_l0 f4 [40, 22]
00000000: 5ac8 9e3e 5680 913e 77da 82be b01f a4bd
00000010: 416c 67be 0c98 b7bd c116 0abe 1fc1 0b3e
00000020: dbd6 89be 29b3 51bd a949 b3be 89e9 54be
00000030: 44e2 51be e689 8abe 2134 b2be 2b54 883c
00000040: f5dc 1dbe 9977 e63d 7252 7a3e 745f 58be
00000050: d8d8 91bd 62f0 9abd 48d9 e33d 88dc 6cbd
00000060: 85be b1be 16c2 403e 3304 21be 7dc6 17be
00000070: bc95 b2be 4b26 103e 1cc3 043e f09b b73e
00000080: 35e2 813e 273b c33d 19fb 5fbc be63 6e3c
00000090: 2207 13bd c253 9d3e 8c0b 68be f439 04bd
000000a0: c190 4abe e449 a23e 5174 97bb 96f9 38bd
000000b0: ff01 753d 6d40 27bd f915 2cbe 2937 abbd
000000c0: 8da2 363e 6257 3bbe 19bf 543e 116f 833c
000000d0: 5673 203d 48a5 abbe 13b2 01bd be32 663e
000000e0: a75f 31be 7992 65be 9f80 b5be b3c1 a83e
000000f0: 6f10 8f3d dc09 8ebe b244 fdbd 84db 233d
00000100: 027d 923e 71dd e2bc 93c1 7abd 9451 a6be
00000110: 037c e43d f044 8f3e 0c3d 823e 0382 9bbd
00000120: 144e 5cbe eae5 2c3e 613a 8b3d f371 07be
00000130: 1522 cf3d 7cd5 523e 9840 103e 77da f53d
00000140: 4058 863e 171d bd3e 86da 963e e23a 943e
00000150: c23c 773e 9dd6 943e e4d6 e43c 6f94 4abd
00000160: 0454 5dbe ab9b 0abd 1f81 23be 3c83 9cbd
00000170: 4fbe d03c bbf1 b13d 2435 a0bc 75e6 41be
00000180: 1b66 0bbc eae7 273d 783d c13d 26c8 633e
00000190: f0d8 94be 45d6 00bd 05bb 983e 885a 1dbd
000001a0: 5e58 cc3e beee 91be fe96 183e 0a08 ffbc
000001b0: 4c59 22be d13a 1dbd 1e7a 79be 767c a13e
000001c0: faf7 07bd abbc 2a3e e91c 19be a675 203e
000001d0: 2356 78be 635c 6abe c8f6 4c3d 64c3 993e
000001e0: 300f 22be 4885 c23b d94b b8bd 187b d0bc
000001f0: a9e8 513e f33d 36be 36e3 c3bc b565 453e
00000200: 06af 8cbd 68a2 b33e be20 c4be 7b87 863e
00000210: c299 be3e f97e 093e 96b7 7f3e 2a4a 303e
00000220: 46f9 823e 0f67 27bb d135 823c 1fe0 603e
00000230: 0cf6 e13e 8f30 a9be 2844 dd3d f6b7 1e3d
00000240: 7f5e 913c 714e 893d 3ae2 8abe 142f 95be
00000250: 647c b8bd 051a 643e f85b 513e 16ec fd3d
00000260: 27a3 c93d e7cb 5dbe aa72 b5bd 63dd 3ebe
00000270: 4cd6 713c d5a2 69be cc46 8a3e 0816 2f3e
00000280: daeb 6fbe 565a 5bbe 069b 61be 2f2c 423d
00000290: c3ac a4be d192 bbbd 3e63 b4be 8116 a1be
000002a0: b7c1 abbe 68b6 6dbe e7ff f2bd 80a0 dfbd
000002b0: 1028 27be f9fb 1c3e 8122 893e dd70 18bd
000002c0: ced3 b43e cd0d 5ebe c3a1 473c 5822 183e
000002d0: ee94 a53d 2bfb d7bc 94cc e9be e199 253e
000002e0: 977d 0cbe bf7e 4bbe 460d 2abe 2149 5d3e
000002f0: 7f80 8fbd 1e00 783d 2bfc 9fbe 7b06 a23e
00000300: 9fd5 643e c120 ee3c 9ee1 073e 8f2d 8d3e
00000310: 8966 c83e 30e8 983e 3269 f63c f806 f93d
00000320: f964 02be d582 963e 1201 34be 5194 883e
00000330: 3264 54bd 73d6 533e 7484 803e bd4f 5dbc
00000340: ab66 9dbe 6135 493d 7a3f 4e3e 000d 95be
00000350: 0602 b13c 60ad 4fbd 69f6 aebe 35c6 3fbe
00000360: 744e 00be c559 013e 6e65 7a3e 7ec5 22be
00000370: a49d c0bd 49e3 3bbd 22be 763e e13a abbe
00000380: c71d 27be c007 6c3d 4d63 18be 9fac 76be
00000390: 5c4b 3a3d 2b56 71bb be63 22bd 4b19 7d3e
000003a0: b0f3 af3e 6b8d 953e 5086 d3bd 840f 453e
000003b0: 87dd 663e d3b5 913e 88f0 d8bd b3b6 303d
000003c0: 3df3 c0bd 83ce 5dbd 637b b0be 66dd b33e
000003d0: 6de1 c4be 6c23 aa3c 9147 a6bc 0e08 533e
000003e0: fe49 2e3d 310a 8eba 9913 80be bab3 693c
000003f0: 4ed4 d2be 4337 433e fe89 bd3d e389 b53e
0.3101223 0.28418225 -0.255573 -0.080138564 -0.2259989 -0.089645475 -0.13485242 0.13647889
-0.26921734 -0.05119625 -0.35017136 -0.20792212 -0.2049647 -0.27058333 -0.34805396 0.016641697
-0.1541632 0.1125328 0.24445513 -0.21130162 -0.07121438 -0.07565381 0.111254275 -0.057827502
-0.34715667 0.18824038 -0.15724258 -0.14821811 -0.34879863 0.14077108 0.12965053 0.35861158
0.25367895 0.09532767 -0.013670706 0.014550148 -0.035895474 0.30727965 -0.22660655 -0.03228183
-0.19781782 0.31697 -0.0046220203 -0.0451599 0.059816357 -0.040832926 -0.16805257 -0.0836013
0.17835446 -0.18295053 0.20776023 0.016044172 0.039172493 -0.33524537 -0.031663965 0.22480294
-0.17321645 -0.22419156 -0.35449693 0.3296028 0.06985556 -0.27741897 -0.12366618 0.04000427
0.28610998 -0.027693482 -0.061219763 -0.32484114 0.11156466 0.27982283 0.254372 -0.07593157
-0.2151416 0.1688458 0.06798244 -0.13227062 0.101139225 0.2058925 0.1408714 0.120045595
0.26239204 0.36936256 0.29463595 0.28951174 0.24144271 0.29069987 0.0279345 -0.049457964
-0.2161408 -0.033839863 -0.15967225 -0.076422185 0.025481371 0.086886846 -0.01955659 -0.18935569
-0.008508231 0.040992655 0.09435552 0.2224432 -0.2907176 -0.031454343 0.29830185 -0.038416415
0.3991117 -0.28502458 0.14901349 -0.031131763 -0.15854377 -0.03838617 -0.2436299 0.3154027
-0.033195473 0.16673534 -0.14952435 0.1566988 -0.24251609 -0.22886805 0.050040036 0.30031884
-0.15826106 0.0059362985 -0.08998842 -0.02544932 0.20498909 -0.17797069 -0.023912054 0.1927708
-0.068693206 0.35084844 -0.3830623 0.26275238 0.37226683 0.13427342 0.24972376 0.17215791
0.25580806 -0.0025543605 0.015894802 0.21960495 0.4413303 -0.3304486 0.108040154 0.038749658
0.017745255 0.06704415 -0.27125722 -0.2913748 -0.09008101 0.2227555 0.2044524 0.123985454
0.09845572 -0.21659814 -0.08859761 -0.1863914 0.014760565 -0.22816022 0.2700714 0.17098248
-0.23429814 -0.21421179 -0.22031793 0.047405418 -0.32163057 -0.091588624 -0.35231966 -0.31462482
-0.3354623 -0.23214114 -0.11865216 -0.10919285 -0.16323876 0.15330495 0.26784137 -0.03721701
0.35317844 -0.21684952 0.012184563 0.14856851 0.08085047 -0.026364883 -0.45663893 0.16171981
-0.13719784 -0.19872569 -0.16606626 0.21609928 -0.070069306 0.060546987 -0.31247076 0.3164557
0.22347115 0.029068353 0.1326966 0.2757382 0.39140728 0.29864645 0.030079458 0.12159532
-0.1273383 0.29396692 -0.17578533 0.26675656 -0.051853366 0.20687275 0.25101054 -0.013507781
-0.30742392 0.04912317 0.20141402 -0.2911148 0.02160741 -0.050702453 -0.3417237 -0.18727954
-0.12529927 0.126319 0.24452755 -0.1589565 -0.094050676 -0.045871053 0.24095967 -0.3344336
-0.16319953 0.05762458 -0.1488163 -0.24089287 0.045482025 -0.0036825042 -0.039645903 0.2471668
0.34365606 0.29209456 -0.103283525 0.192442 0.22545443 0.28459033 -0.10592753 0.043142986
-0.09421394 -0.054152023 -0.34469137 0.3512985 -0.38453236 0.020768844 -0.020297797 0.20608541
0.042551033 -0.0010836778 -0.25014952 0.014264042 -0.411776 0.1906405 0.092548355 0.35456762

weight_hh_l0 f4 [40, 10]
00000000: aae5 6d3e b73c 1e3d 842d 88be 1b37 91be
00000010: b5e4 d8bc cae1 503e 9ad9 8bbe e81f 05bd
00000020: 6ed6 783e 331e a6be c0b2 a3be b0aa 1fbe
00000030: 5a62 c03d c110 833d ab11 54be 6520 43be
00000040: 3fc3 50be 99a3 333d 8d03 42be 01e5 b93e
00000050: 84fe a83d 41e8 acbe 733f 85be 243b 61be
00000060: bb83 39be 66de 55be e9f0 ab3d 7b2c 103e
00000070: 2c8f 90be d940 2fbe 5092 2c3e c841 89be
00000080: 9d51 9a3c ad43 6fbe f560 0bbe a01f 5abd
00000090: 50b0 f63e 9f94 9b3e 40e4 cabd 4d82 483d
000000a0: f9b9 91be a491 753e 8598 4e3e 50b8 87be
000000b0: 1e82 02bd ab8d 96be c7a6 fbbb ac54 b7bd
000000c0: 8543 743e 0b33 febb 7325 c2bd 891b 123e
000000d0: 047b c1bd a759 b2bc affe b6bd 6a3e c4be
000000e0: 1c7b 9fbe ab7c f2bd 404b ad3e 147e 273e
000000f0: 4c66 4abe 4f60 943d aa0f 16bd c956 a3be
00000100: ec48 3fbe 8313 b43e 30bb 433d 913f 28be
00000110: 2bf7 3bbd 02c2 8fbc 76a5 273e 0c88 23be
00000120: 9fa6 3b3e bcab c23d 7d45 6dbe b5dd 7dbe
00000130: 9742 873e f128 edbd fc83 443c 82bc ef3d
00000140: 4aa3 1fbd d8d2 e2be ed45 df3b 827f 2bbe
00000150: faa5 ffbb 8d9c 163c f0fa 07bf 5687 ce3e
00000160: 1537 07be 36b2 623e e4ed 163e d8e9 053e
00000170: e8ac 583c f4f9 113e 28c1 8fbd 5893 64be
00000180: c5c2 fabd 00f6 cebc e327 c1bd 8077 733d
00000190: e21b 453e f65e cdbc 7b7e f63d 2d89 8c3e
000001a0: 7ba3 1abd df8c e3bd 3b16 22be 036e 11bd
000001b0: d07b 213e dd73 703d db2c 233e e985 c9bd
000001c0: 8a40 9f3b 8a45 733e 70be e1bd 04fd 69be
000001d0: 65e4 c33d d890 c5bc 58a6 8dbe c466 253e
000001e0: 8cd8 20be a64a 843d 67c3 ea3d ad9d 203e
000001f0: 863b b7be a186 9cbe d314 edbd f291 293e
00000200: fce6 15be bc7a 33bc 3700 233e 017b a43e
00000210: 7375 d2bd 3aa5 82bd 1055 56bc 9c47 913e
00000220: 244f 0b3e 4a71 a83e fd52 903e 3619 9d3e
00000230: 8f50 693e 707d 993d 0152 13be 8cca 3a3e
00000240: 2e67 fb3c aec6 2cbd 9c22 3bbd 809b 223e
00000250: 4cf7 afbe aeba 993e b17f 9ebe 5f6a 20be
00000260: 17a6 bebe a5c3 98be e48e 43be db25 30be
00000270: 4847 1f3e e5f1 5e3e 80d4 5ebd c187 343e
00000280: fa74 823d 2914 04be a4da 77be c0c9 3abd
00000290: b4ba 7abe 50d7 85bd 8a0c 09be e839 853e
000002a0: ebae 7dbe aa72 383e 9cb4 b6be 839d 1c3e
000002b0: 5f1f 8cbe 1f2d bfbb ca0f 203d 602d d6be
000002c0: 0eab 57be 8daf 41be 8e90 b93d 222c 82bd
000002d0: 48ca a9bd 0f2e 9bbe 4943 95be cfdb 94be
000002e0: e7ad 15be baea 243e ebd7 afbe 1713 aa3e
000002f0: 13ef dabd 4ffb ad3e ab25 103b 17b5 a7be
00000300: 4ca9 2bbe 9526 973e 5d27 89be d15d bfbd
00000310: 47f9 5b3e 6ec7 9a3d 6cce a53c a79b b0bc
00000320: 8a13 9dbe c103 9c3e 7de1 9e3d e980 d2bc
00000330: 0b3b 8b3e f36c f33d a278 303e 9afd 2f3c
00000340: 54fd 0cbd ec42 15bd 0af5 69be cf94 95bd
00000350: 956c 45be 0c41 fb3d 693c 813e d96c 053d
00000360: 8c30 573e 5754 853e 6a1f 0a3e 83f5 373e
00000370: 7ab2 1d3d 70de 993e 36b4 6bbe 20e5 e9bd
00000380: 4c35 3bbe 581e 16be d5ae a1bd a3ca fdbd
00000390: b85b 74be 0bb8 923d ce10 4cbe d32b 68be
000003a0: c457 203e 6808 a0bc 3b28 823e 6580 97be
000003b0: 67f6 893e 2a74 54be 4107 873e 189d b03e
000003c0: c03d 943e 74fd 58bc 8625 81bd e6d5 43be
000003d0: a3a1 82be 9020 f03d c79a 953d ec26 e73c
000003e0: fcc7 cf3c 542b 823e 24d0 4d3e 270d 41bd
000003f0: b15b ab3e 3ed3 1bbd 547d 9c3e 21af 75bd
0.23232141 0.03863212 -0.26597226 -0.28362355 -0.026476244 0.20398632 -0.27314454 -0.03250113
0.24300548 -0.32444915 -0.31972313 -0.15592456 0.09393759 0.0639968 -0.20709865 -0.19055326
-0.2038698 0.04385719 -0.18946667 0.3630753 0.0825167 -0.33770946 -0.2602497 -0.21995217
-0.18116657 -0.2088562 0.08395559 0.14079468 -0.2823423 -0.17114581 0.16852689 -0.26808
0.018837744 -0.2336566 -0.13611205 -0.053252816 0.4818139 0.30386826 -0.099068165 0.04895239
-0.28462198 0.23981339 0.20175369 -0.26507807 -0.03186237 -0.2940496 -0.0076797935 -0.08951697
0.23853882 -0.0077575496 -0.09479799 0.14268316 -0.094472915 -0.021771265 -0.08935296 -0.38328868
-0.31148612 -0.11840185 0.33846474 0.16356689 -0.19765586 0.07244932 -0.036636032 -0.3190215
-0.18680161 0.35171136 0.047785938 -0.16430499 -0.045890015 -0.017548565 0.16371712 -0.15969867
0.1832528 0.09505412 -0.23171039 -0.24791606 0.26417992 -0.115800746 0.011994358 0.11705877
-0.038974084 -0.44301486 0.0068137557 -0.16747859 -0.0078017684 0.009192598 -0.53117275 0.40337628
-0.13204606 0.22138295 0.14739186 0.13077486 0.013224818 0.14255506 -0.070192635 -0.22321832
-0.122441806 -0.025263786 -0.09431436 0.059440136 0.19248918 -0.025069695 0.12035843 0.27448407
-0.037753563 -0.111108534 -0.15828793 -0.035505306 0.15769887 0.058704246 0.1593508 -0.098399945
0.0048599886 0.23756996 -0.11022651 -0.22850424 0.09565047 -0.024116918 -0.27665973 0.16152483
-0.15707606 0.064595506 0.11463051 0.15685149 -0.357876 -0.30571464 -0.115762375 0.1655958
-0.14638895 -0.010954555 0.1591805 0.32125095 -0.10276308 -0.06379171 -0.013081804 0.28374946
0.13604409 0.32898933 0.28188315 0.30683297 0.22784637 0.074946284 -0.14386751 0.18241328
0.030688848 -0.042181663 -0.045687303 0.15879631 -0.3436836 0.30025238 -0.30956796 -0.15665577
-0.37236091 -0.29836765 -0.19097477 -0.1720194 0.15554535 0.21771963 -0.054401875 0.17629911
0.06369968 -0.12898315 -0.24204499 -0.04560256 -0.24485284 -0.06535208 -0.1338369 0.2602074
-0.24773757 0.18012491 -0.3568467 0.15294461 -0.27367684 -0.0058342363 0.039077558 -0.41831493
-0.21061346 -0.18914624 0.09060775 -0.06356074 -0.08290535 -0.30308577 -0.29152897 -0.2907395
-0.1461712 0.16105166 -0.3434442 0.3321769 -0.10690131 0.33980796 0.0021995108 -0.32755348
-0.167638 0.29521623 -0.26787844 -0.09344066 0.2148181 0.075575694 0.020240031 -0.021558596
-0.3067897 0.30471614 0.07757852 -0.025696235 0.27193484 0.11886015 0.17233518 0.010741616
-0.03442128 -0.036440775 -0.22847381 -0.073037736 -0.19279702 0.12268266 0.25241402 0.03257451
0.21014613 0.2604091 0.13488546 0.17964749 0.038500287 0.3005252 -0.23017964 -0.11420655
-0.1828205 -0.14660013 -0.07894675 -0.123921655 -0.23863113 0.0716401 -0.19928285 -0.22672968
0.1565848 -0.019535258 0.25421318 -0.29590145 0.26945803 -0.20747438 0.26372722 0.34494853
0.28953362 -0.013244022 -0.06305985 -0.19124565 -0.25513944 0.11724961 0.07304912 0.028216802
0.025363915 0.25423682 0.2009893 -0.047131684 0.33468392 -0.038043253 0.30564368 -0.05998147

bias_ih_l0 f4 [40]
00000000: e29e 69be 1127 16be 1e06 7d3d a75e 86ba
00000010: 680b 783e 3e4f 0e3e 7bdd 89be 1df7 db3d
00000020: 3032 5b3e 04c7 3b3d ea74 a93c 31d9 8e3e
00000030: c1a0 d6bc f31a 123e 2434 563e 4d68 5d3e
00000040: ff26 123c 202e 903d ecbc 0dbe 485e 7f3e
00000050: b421 e53d 3265 a5be 6746 a83d 1353 773c
00000060: 02ab 43be 25a2 89be d6d4 fd3d 735e 5c3e
00000070: 690c 723e 5b79 363e 2bfb 54bd d364 b03e
00000080: 4502 46be 2d5b f6bd 5ac1 bcbd eecf 68bd
00000090: bae0 543e 7799 773b 8b1f 72bd cef9 e23e
-0.22814515 -0.1466334 0.061773412 -0.0010251597 0.24223101 0.13897416 -0.2692679 0.107404925
0.21405864 0.045844093 0.020685632 0.2790008 -0.0261997 0.14268093 0.20918328 0.21621819
0.00892043 0.07040048 -0.13841599 0.24938309 0.11188069 -0.32303768 0.08216553 0.01509549
-0.19108203 -0.2688152 0.12394111 0.21520405 0.23637547 0.17819731 -0.051997345 0.34451923
-0.19336803 -0.12029109 -0.092165664 -0.056838922 0.20788851 0.003778068 -0.059112113 0.4433121

bias_hh_l0 f4 [40]
00000000: 9fd8 96bd 65a6 703e 564b e63d b931 4abd
00000010: 8fcb 31be fde9 8d3d acfc 9cbd 0a6c 303e
00000020: f465 d63d 9599 643e dd5f 623e 2e30 a73e
00000030: 0b99 683d 43fd 08be 42dd 843e 2d7d bf3e
00000040: 777e 95bd 35d6 503d 7809 febd 9a4a 793e
00000050: fc34 2e3e 2b57 16be e574 82be 2b08 60be
00000060: 8e1c 06be dd6a b1bd 9354 cc3d 6c78 983e
00000070: f9c0 093e a517 2f3e cb58 7a3e c93b 20be
00000080: d0b1 2f3e cee1 c0bd bd7f 33be ee50 913e
00000090: af72 16be f65d 8a3e 7085 833d 2ad5 843e
-0.07365536 0.23500974 0.11244838 -0.049363825 -0.17362808 0.06929395 -0.07665381 0.17228714
0.10468665 0.22324212 0.22106881 0.32653946 0.05678658 -0.13377862 0.25950056 0.3740019
-0.07299512 0.050985534 -0.1240415 0.24344864 0.170124 -0.1468169 -0.25479808 -0.21878116
-0.1309683 -0.08662961 0.09977069 0.29779375 0.1345252 0.17098863 0.24447934 -0.15647806
0.17157674 -0.09418069 -0.17529197 0.28382057 -0.14692186 0.27024812 0.064219356 0.2594388

weight_ih_l0 f4 [40, 22]
00000000: e31f 413e da62 213e e57f f53d 1345 9bbe
00000010: 04d7 253e 06da a1be 275c 6fbd b011 743e
00000020: 7f1f f5bb 4e8b 3fbd c6b1 eabc 80b3 3bbe
00000030: 92cc 7abe 456c 723e e282 c23d 35d1 3e3e
00000040: 9e08 983e 3eb5 8bbe 9b69 8ebe b5ba 303e
00000050: 06ff 143e de82 b9be e24d 803e 98bc 0f3e
00000060: dcd3 e33d 3957 24be 98cd 5e3e afda 6a3e
00000070: 3edf 70bd 9bfb 30bc 85c1 32be bbdb 26be
00000080: a4a2 38be 5953 59be c274 c0be b385 bb3d
00000090: e019 75be 13f3 8ebe 9e47 78be 776f a8bd
000000a0: c154 fd3d bf5d cfbe eb62 2b3e 42bc 06bc
000000b0: 0a16 98be 8080 b93e 0b5f 733e 7275 c83c
000000c0: dfdc 273e 18d3 633e b2d3 d1bd 846c 5b3e
000000d0: 7fc9 0cbe f8fb b33e 48c0 a2be af47 25be
000000e0: 7ed3 fa3d a7ee 983e d38f c6be bf01 cbbc
000000f0: fe25 ef3e 8ca1 4dbe dfb6 54be 0f46 2e3e
00000100: 4db2 3d3e b65b 2b3c f5fd 263e 75a8 fcbe
00000110: a271 6ebe 8bda cb3a 485c 94be 3a16 86be
00000120: fce1 99be 7531 013e ca55 1cbd f7a1 023e
00000130: 9f37 bbbd 7c42 d6bd 95e5 0a3e 251c 673d
00000140: 34cb 5cbe a061 0f3e 355b 2abe 922e 7dbe
00000150: 891d 12bd 5a77 ff3e 5678 ed3d 5ef6 803e
00000160: 744d 973c 4563 c9ba a91c 953e ffbc 023e
00000170: 66f0 1abe 9278 5ebe e534 70be 8291 b93d
00000180: fa77 02bd 8b4c b03e 641c 35bd 19fc 2a3e
00000190: 2a11 893e 568f 9bbe 7c28 62bd f97a 77be
000001a0: 3978 413e 8e2c 5a3e 939c 3abe 59de d0bd
000001b0: 307e 793e 397b 8d3e 4390 333d ea2a a2be
000001c0: 5e59 cf3d d15e 1dbe 3e52 db3d e6ce e2bd
000001d0: a28a 59be fe80 0dbc 9ada 033e c888 79be
000001e0: b2df 8fbe 2d50 4b3e 77d2 023e a484 d6bd
000001f0: 0586 0abe ce15 8dbd 8335 a03c a886 94bd
00000200: 39ef 193e 4400 9d3e 292e 973e 3408 b73e
00000210: 5657 8abe 68ac 7b3d b03d 82be 2457 d03c
00000220: 9ed8 923d 2d00 90be 14f9 d0bd 3d7f 95bc
00000230: fd23 583e ee2d 543e c162 a0be e053 8ebd
00000240: 70e0 9e3e 476c a53e 5eec 48be 9db9 9ebe
00000250: 7cbf 0f3e 1fb4 d83e 298d 0c3d 4232 8d3e
00000260: 4633 0fbe 8041 47be 0ab9 01be ddee e3bc
00000270: fa88 57be d401 c33e b24b 1d3e 9396 4abe
00000280: 0416 9dbe 30d1 1cbd 071f 863e bf97 0c3d
00000290: 3670 76be f9fd f3bb a2fa a93c c180 2b3d
000002a0: 6350 0f3e e83c cdbc e7c8 a4bc 9b90 1bbc
000002b0: 6540 12bc b389 8a3e 4899 883d 7a3b b2bd
000002c0: 02a6 05bd b6c6 8dbe c3b6 b4be ed92 b23e
000002d0: 0843 7b3e 49f5 22be 7f13 5e3c da8a 29be
000002e0: 60f4 16bd a30a 9b3d 7ec6 193e 5ca1 433e
000002f0: 5f47 b7bc a522 8abe 38a0 563e 5c06 efbd
00000300: b2e4 3c3e 6846 7dbe 6315 fdbd 2685 993e
00000310: 04c2 f53d b4d9 303d 8abb 773e 06aa 833b
00000320: b6e2 4fbe 5427 473e b9aa ea3d a5cc 3f3d
00000330: b48f 25bd 8279 b53e 1f3d aa3e c495 0c3c
00000340: 0939 5cbe 1da7 4abd e3a2 e9be adb8 97ba
00000350: 6061 3a3e 6ad7 ce3d 6390 bebd a6f3 3dbe
00000360: 7ac7 92be e565 55bc 1a1a 04be 45c7 583e
00000370: 3a67 213e e16f a3be 6f9c 8bbd 7afc f13d
00000380: 1a12 66be 49f6 98bd 214c e03d 1f52 adbd
00000390: 0c8b 663d f640 00be 396c c4bd e293 5dbe
000003a0: 1f02 e6bd e7c8 61be d387 ce3c 4e13 b7bd
000003b0: 36b4 c6bd 77a0 e9be edd8 be3d 00b3 9dbd
000003c0: ad7e fc3d 35cd 58be 2d94 1c3e c463 3fbe
000003d0: 62e8 b8be 9113 543d b59f a1be 60aa b43c
000003e0: 1750 8b3c 9bc3 a03e f325 643d 5522 843e
000003f0: 93c0 ffbe 7236 c9bc b055 e2bd fba6 6dbe
0.1885982 0.15760365 0.119872846 -0.30326137 0.16195303 -0.3161165 -0.058437493 0.23834872
-0.0074805613 -0.04676371 -0.028649222 -0.18330193 -0.244921 0.23674114 0.0949762 0.18634494
0.29694074 -0.27286714 -0.27814946 0.17258723 0.14550409 -0.36232656 0.2505942 0.14036787
0.11124393 -0.16048898 0.21758115 0.22934984 -0.05880665 -0.010802175 -0.17456634 -0.16294758
-0.18030792 -0.21223201 -0.3758908 0.091563605 -0.23935652 -0.27919826 -0.2424607 -0.08224385
0.12369681 -0.4050121 0.16736953 -0.008223595 -0.29704314 0.3623085 0.23766725 0.024470065
0.1639285 0.22248495 -0.10245456 0.21428114 -0.1374874 0.35153174 -0.31787324 -0.16140626
0.1224737 0.29869577 -0.38781604 -0.024781106 0.46708673 -0.20081156 -0.20772885 0.17018913
0.18525048 0.010458877 0.16307814 -0.49347273 -0.23285535 0.0015552802 -0.28976655 -0.26188833
-0.30055225 0.12616523 -0.038167752 0.12757097 -0.09141468 -0.104619 0.13564141 0.056423325
-0.21561891 0.14002085 -0.16636355 -0.24724796 -0.0356727 0.49895746 0.11595218 0.25187963
0.01846955 -0.0015364668 0.29123428 0.12767409 -0.15130767 -0.21725681 -0.23457678 0.090609565
-0.0318527 0.34433398 -0.04421653 0.1669773 0.26770908 -0.30382794 -0.05521439 -0.24168004
0.18893518 0.21306059 -0.18223791 -0.101986594 0.24364543 0.27633074 0.04383875 -0.31673366
0.10124467 -0.15368201 0.10709046 -0.11074619 -0.2124429 -0.008636711 0.12876359 -0.24368584
-0.28100353 0.19854803 0.12775598 -0.10474518 -0.13527687 -0.068889245 0.019556766 -0.07252246
0.15032662 0.30664265 0.29527405 0.35748446 -0.27019757 0.061443716 -0.2543769 0.025432177
0.07170223 -0.28125134 -0.10203758 -0.018249149 0.21107478 0.20720646 -0.31325343 -0.06949592
0.31030607 0.32309172 -0.19621417 -0.31000987 0.14037889 0.4232492 0.03431431 0.27577406
-0.13984403 -0.1945858 -0.12668243 -0.02782386 -0.21048346 0.38087332 0.15360907 -0.19784002
-0.3068086 -0.038285434 0.26195547 0.034324404 -0.24066243 -0.0074460474 0.020749394 0.041870836
0.13995509 -0.025053456 -0.020115329 -0.009494926 -0.008926486 0.2705818 0.06669861 -0.087027505
-0.03262902 -0.27690667 -0.35295686 0.3487772 0.24537289 -0.15913881 0.013554453 -0.16556874
-0.036854148 0.07570388 0.15017125 0.19104522 -0.0223729 -0.26979557 0.20959556 -0.11671135
0.18446615 -0.24733889 -0.12357595 0.29984397 0.11999896 0.043176368 0.24192634 0.004018071
-0.20301327 0.19448596 0.11458344 0.046826024 -0.04042025 0.35444266 0.33249757 0.008580629
-0.21506132 -0.049475778 -0.45632085 -0.0011575423 0.18201208 0.10099681 -0.09304883 -0.18549976
-0.28667814 -0.013024782 -0.12900582 0.21169765 0.15762034 -0.31921294 -0.06816947 0.11815734
-0.22467843 -0.0746885 0.109520204 -0.08462929 0.05628495 -0.1252478 -0.09590954 -0.21638444
-0.11230873 -0.22049294 0.02521125 -0.08939229 -0.09702341 -0.45630237 0.09318719 -0.07700157
0.12328849 -0.2117203 0.152909 -0.18690401 -0.36114794 0.051776472 -0.3156716 0.022053897
0.017005963 0.31399235 0.055700254 0.25807443 -0.4995161 -0.024562094 -0.110515 -0.23208229

weight_hh_l0 f4 [40, 10]
00000000: cb3d e93b 1278 e83d 2458 e63d 42e5 643e
00000010: 5861 91be f516 adbd f067 d43d 03cf a2be
00000020: bdf1 383e 29ae 4abe 82bf 55be b5ba a53e
00000030: decf 903e 2736 d23a a24d 8f3e d542 ddbd
00000040: 0683 663e 5bba 723d c0b6 96be 18a3 063e
00000050: afe2 233e 7a76 71be f103 6e3e 1c3e 1bbf
00000060: a4b1 51be db45 f1bd fa3a 673e 48fa a2bb
00000070: aeb7 35bd ce9e 42be 9ff7 413e d034 1abe
00000080: ff78 6f3e 5997 3b3d 8824 a6bc cbb7 253e
00000090: 96fd 9e3e 30cb 16bd ab0d c4be 3623 9fbd
000000a0: 4a1c 97bc b8f4 f4bc 1b00 cb3e 426a 223e
000000b0: 5473 9a3e 078c 36be be99 253f 0020 2d3c
000000c0: ec37 31bc 078a 22be 324a e8bd 5a0e 203e
000000d0: bfc8 ae3e b9de 97be 3719 ab3e 3884 6fbe
000000e0: f3e8 fabd 4269 8d3e 7b5d aebe 164d 26be
000000f0: 4b45 41be 2408 503e 28d9 cb3e b60d 1a3f
00000100: 6cf4 9e3e 9b19 15be 942c 56bd 2d08 4b3e
00000110: 226f 133d 213c 65be 6385 0cbe 835e bdbc
00000120: eb70 aa3e dcab 00bd eacd 85bc 08e7 433e
00000130: 7144 a03d c0eb 7e3e e863 f53c 5d89 89be
00000140: 34a1 c8bd 33d9 693e 9e84 c43d bd6f 65be
00000150: e4fc 133e 7e81 863e 8615 3d3e 414e 6cbe
00000160: 4bb2 7a3e 3209 1b3e 37f7 52be 21e6 663e
00000170: 8108 ac3e ea9e 553e d9bd 9e3e 38d9 15be
00000180: 03c1 4fbd 0c6e 073e 9da5 c7bd 3513 8dbe
00000190: 744c 2abe 8acd 723e 65aa c23b 9974 983e
000001a0: fb8d a33c 867d 9e3d c377 2fbd 4582 3e3e
000001b0: d83c 273c 3ac3 6bbe 7d1b fd3d cb0e 853d
000001c0: b2b9 83bd fd67 01be 2f4c 4d3e 0933 493d
000001d0: 63e0 013e eb48 23be 6e4c 10bd e877 5bbe
000001e0: 36d7 4e3e 5313 3ebe 7376 53be 0661 0ebf
000001f0: a468 1fbb 6c22 783e 9cce d93d 1b5f f73d
00000200: 51fb 83be 669e f13d e178 80be 9f91 a73d
00000210: 94d0 5d3e 42c0 bcbe aea4 7b3e 12a4 a13e
00000220: 4759 83be 3d8a 173d c17e 31be 8db4 423e
00000230: 2ae7 10be 19b0 5f3e de3a 523e 6d40 1bbd
00000240: a894 85bd fd1b c83e 582d 85bd 95d5 873e
00000250: b6bf b6be 9bd1 033e df0b 713e 173c 45be
00000260: 9424 26be 4f7c b0bd 9b6f 243d bbf2 303e
00000270: 660e 933c ee5a 8d3d 55b2 6fbe 5c03 27be
00000280: bb5b 693e 88a4 5f3e e8ad b83d d4df 753e
00000290: fb92 b93e cf65 44bd ab0a 73be 0611 773e
000002a0: 5857 933e f32c 3d3e a25f f93d 85ae 18be
000002b0: 1545 193e c878 193d 4b27 f5bb 9b2d 27bd
000002c0: b746 99bd 720a c03e 12e6 a13d 391a 9ebc
000002d0: d191 17bc f0e5 883d 72e3 89bd 4a9e d7bd
000002e0: 26e1 543e 77ef 6cbe b39a 5ebe b8c9 5f3e
000002f0: 220e 073e aac3 703e b86c 89be ff28 563e
00000300: edcb aabd c860 ce3d d788 8e3e 95dd 79be
00000310: e02f 89be 6c4c 473e c6ac 273d c31a e9bc
00000320: 1682 d9bc 4f22 c9be 13dc 49be 1b70 353e
00000330: 90d4 a0bd a59c 3dbe 0a34 e13e af6c d2bd
00000340: b687 1abe a1f7 3ebe 069d dcbd d0cf d93e
00000350: 7087 413e 05cd 27be 0ce2 e4bd 7b3f 7f3e
00000360: 671e afbe ac19 42be 39e2 18bd 4600 e13d
00000370: 0fb8 4b3d 274e 733e 5746 0fbe dfee 16bd
00000380: 48aa c23e 5721 5d3e 772f d6bd 8e1f 193d
00000390: 3986 89be ae57 463e 478e 0cbe beef 7dbd
000003a0: 42d9 c93e b155 b33e caea 00be 7cbf 1d3c
000003b0: e975 75bd 0a2b 32bd dc66 173d 0836 863d
000003c0: 04a5 8a3e 01f1 a1be 46ae 833e 2c79 c2bd
000003d0: 3611 9a3e 6675 33bd cbd8 8fbe ae0b ed3c
000003e0: 0412 32be 3199 27bd 0d79 c9bd f3c2 05bd
000003f0: 22da a1be df17 e33e 0c08 b53d ac3c 953e
0.007117962 0.113510266 0.1124728 0.2235308 -0.2839458 -0.08451644 0.10371387 -0.31798562
0.18060966 -0.19793 -0.20873836 0.3236901 0.2828359 0.0016037867 0.27988917 -0.10803763
0.22510919 0.059259754 -0.29436302 0.13148153 0.16004442 -0.23580351 0.23243691 -0.60641646
-0.20477921 -0.11780902 0.22581092 -0.0049736835 -0.044364624 -0.19005892 0.18942116 -0.15059209
0.23386 0.045798633 -0.020281091 0.16183393 0.31052846 -0.03681487 -0.38291678 -0.07770388
-0.018446106 -0.029901847 0.39648518 0.15860847 0.30166113 -0.17826854 0.64687717 0.010566711
-0.0108165555 -0.15872966 -0.11342277 0.15630475 0.34137532 -0.2966211 0.33417675 -0.23390281
-0.12251463 0.27619368 -0.34055695 -0.16240343 -0.1887409 0.20315605 0.39814115 0.6017717
0.31045854 -0.14560549 -0.052288607 0.19827338 0.035994656 -0.22386219 -0.13722758 -0.023116356
0.33289275 -0.031413898 -0.016333539 0.191311 0.07825554 0.24894619 0.029954866 -0.26862612
-0.09796372 0.22836761 0.09595607 -0.22405906 0.14451939 0.2627067 0.18465242 -0.23076726
0.24482076 0.15140226 -0.20602117 0.22548725 0.33600238 0.20861402 0.31004217 -0.14633644
-0.05072118 0.13225573 -0.09748385 -0.27553716 -0.16630727 0.2371122 0.005940723 0.29776457
0.019965163 0.077387854 -0.042838823 0.18604381 0.010207377 -0.23023692 0.123587586 0.06496962
-0.06431903 -0.12637325 0.20048593 0.049120937 0.12683253 -0.15945785 -0.03522914 -0.2143246
0.20199284 -0.18562059 -0.20650654 -0.55616796 -0.0024323845 0.24231881 0.10635111 0.12078687
-0.25777677 0.1179779 -0.25092223 0.08182072 0.21661597 -0.3686543 0.24574539 0.31570488
-0.2565405 0.03699707 -0.17333509 0.19014187 -0.14150682 0.2184452 0.20530269 -0.037903238
-0.065224946 0.39083853 -0.06502789 0.26530138 -0.3569314 0.12872927 0.23539685 -0.19261204
-0.16224891 -0.0861746 0.040145498 0.17280094 0.017951202 0.06902109 -0.23407872 -0.16309875
0.22788899 0.21840107 0.09017545 0.24011165 0.3624495 -0.047948655 -0.23734538 0.24127588
0.28777575 0.18474178 0.12176444 -0.14910324 0.14967759 0.0374687 -0.0074814907 -0.040814977
-0.07484191 0.3750797 0.079052106 -0.019299613 -0.009251074 0.06684482 -0.06732835 -0.10528238
0.20789012 -0.23138224 -0.217387 0.21854293 0.13188985 0.2351214 -0.26840758 0.20914076
-0.08339677 0.10077053 0.27838776 -0.24400933 -0.26794338 0.19462746 0.040936254 -0.028455144
-0.026551288 -0.39283988 -0.19712858 0.17718546 -0.07853043 -0.18516786 0.43985015 -0.10274636
-0.15090832 -0.1864915 -0.10772137 0.4254136 0.18899322 -0.16386802 -0.111759275 0.2492656
-0.34202883 -0.18955106 -0.037325118 0.1098638 0.04973608 0.23760282 -0.13991676 -0.0368489
0.3802054 0.2159475 -0.10458272 0.03738361 -0.26860216 0.19369385 -0.1372615 -0.061996214
0.39423567 0.35026315 -0.12589565 0.009628173 -0.0599269 -0.043498076 0.03696333 0.065532744
0.27079022 -0.31629184 0.25718898 -0.09495768 0.30091256 -0.04381313 -0.28095087 0.028936233
-0.17389685 -0.04091758 -0.09837542 -0.03265662 -0.31611735 0.4435415 0.088394254 0.2914785

bias_ih_l0 f4 [40]
00000000: abc6 473e 48af 883e 5ae0 82be 9670 d43e
00000010: 17fb 823e a03d 1ebe edd1 38b8 af4a b13e
00000020: dd70 ad3e d273 d13d 225b 6ebe 9d58 7ebd
00000030: e49c 76be 89d3 a8bc 9776 09be 4b67 0b3e
00000040: 19a4 453e fcf3 d03c 5931 833e dae0 b33e
00000050: 1618 853d 29b1 323e 3148 87be 3e21 a13e
00000060: c1ba cd3d a82c 753e 6469 1bbe 66df 153e
00000070: ab8d 16be 9f2d 8dbd c52e 9a3d 0426 2dbe
00000080: 01db 523d f2a5 4c3e 35d8 b93d b5fb a23e
00000090: e8c7 043f faba 643e 4fa9 7bbe 3e3e 9b3d
0.1950938 0.2669623 -0.25561792 0.41492146 0.2558219 -0.15453196 -4.4064527e-05 0.34627292
0.3387517 0.10227169 -0.23276952 -0.062096227 -0.24083287 -0.02060868 -0.13424145 0.13613622
0.1930088 0.025506966 0.25623587 0.35132486 0.06498735 0.17450394 -0.26422265 0.31470674
0.10045386 0.23942816 -0.15176922 0.14636001 -0.1470248 -0.06893467 0.07528452 -0.16909033
0.05147839 0.19985178 0.09074441 0.31832662 0.5186753 0.22336951 -0.24576305 0.07580231

bias_hh_l0 f4 [40]
00000000: 15a9 023e b9d6 76be fce5 52be 0e56 c9bb
00000010: 9181 8abe a0c8 a63e 23b6 5a3e 6337 f4bd
00000020: 456f ad3e 2b7c d2bd d20e 8d3e 444f d33e
00000030: a009 8cbc 05f7 fdbc 2b5f 813e d84f e63b
00000040: db7a 31bd 2bab 863e fe61 c7bc 1aa6 d03e
00000050: e308 133d 975d 443e 5702 6e3e 44e2 e53d
00000060: cf62 713e e7ba 1ebe 2f8a 0e3e c964 873e
00000070: 0638 80be 3a5e a13e f43f e93d 652d 4a3e
00000080: 44e5 d3bd 99e3 443b 4bb2 0d3e dd21 70be
00000090: ab7a ea3e c2a4 fcbd 5f47 3c3e f0d0 febd
0.12759812 -0.24105348 -0.20595545 -0.0061442917 -0.27051976 0.3257494 0.21358542 -0.11924627
0.33873954 -0.102775894 0.2755037 0.41271412 -0.017094433 -0.031001577 0.2526792 0.007028561
-0.043330055 0.26302466 -0.024338719 0.40751725 0.035897147 0.19176327 0.2324308 0.11224797
0.23572849 -0.15500985 0.139199 0.2644408 -0.25042742 0.31517202 0.11389151 0.19743879
-0.10346463 0.0030042885 0.13837545 -0.23450418 0.45796713 -0.123361126 0.18386601 -0.124421954

weight_ih_l0 f4 [40, 22]
00000000: 52bf 353e e2c6 96be fcba 27be 148e d73e
00000010: ba86 efbc e4bc c0bd 0616 8bbe 6318 a5bc
00000020: c892 ca3d 5d65 29be c1cd a0be 5cc1 e03d
00000030: 832b 0b3e 0e34 bbbd 8d17 b8be c3a9 a13e
00000040: 48dd 8e3e b111 b0bd 2490 b4be f995 e83e
00000050: be93 bd3e a9ef e53c f5bc 9bbe 73c0 80bd
00000060: 96f5 93be cd60 9a3d 3d2c 593b 8a14 efbe
00000070: 906e d8bc a733 193d 661e 77be 8133 15be
00000080: 673e 0b3e b7e7 9a3e f1d8 b1be d747 403e
00000090: b16e 3bbd 65c9 fc3d ee47 453d 9288 dbbd
000000a0: d632 9a3d 73fc e9bc 2003 e73d e215 843e
000000b0: 755a e3bc 9c4b fdbc c3b1 adbe 3836 883b
000000c0: ca9d 2abe a9ce 40bd 8f41 823d 89a2 8b3e
000000d0: 7c88 8bbe a637 8d3d 6871 123e 5e61 90bd
000000e0: 864a 82be d898 613e 173e 12bf 2967 803e
000000f0: 82a0 0cbe e25c adbd d353 59bd 425a 593e
00000100: 8237 3e3e 557c 153c 64e4 50be 72a6 163d
00000110: 7e89 ccbd b7a3 5fbe 73c2 15be 1ea6 453e
00000120: f22b bfbd c4fe 383e 0c75 a3bd b7bd 4f3e
00000130: efc8 0f3c 941b 8b3e 69ef 163c 3331 02bd
00000140: 72a7 20be 0921 da3d 2b95 823e 8006 c4be
00000150: 3dfd d4be 8390 803d 85f1 923e 2b0d 673e
00000160: 7844 63be 8635 b1bd 651a d13d 7a49 683d
00000170: 0560 193c 4edf 5abe 8b77 40bd 8c45 c63d
00000180: 66bf 413e c17b 993c 2108 8fbe acb3 a73d
00000190: a6b5 e63e ad25 513e 671c 843d 4f17 87bc
000001a0: 215f 21be 7379 343e fe07 86be 92ea 703e
000001b0: 5cb1 e73d ae77 723e 4b49 62bd 8943 89be
000001c0: d923 5c3e e2b7 40bd fc2b 0fbe fe7b 0abe
000001d0: f574 24be 76d7 aabd 97f1 ab3c e64d 8dbe
000001e0: 2af2 8e3e 6222 43be 347a 413d a2e6 5ebe
000001f0: 379d 903d fd3b ed3b b832 a13e 23f8 3e3e
00000200: d13b cebd 9379 82be 083c 9bbd 641c 213d
00000210: a67b d4bd 17b5 213e a09f 41be 7497 0b3e
00000220: 61da f2bd 488f 54bc 6b00 b23d 0596 69bc
00000230: fce3 b3bc 5965 4cbe d387 813e 47fd b93e
00000240: cc48 8a3e 3004 853e 7d5c 7fbe 3591 163e
00000250: ca6e bc3e 7dc3 13bd fba0 86bc 3f69 7cbd
00000260: 9784 d7bd fc0d c43d f3cf c73e 1cf9 97be
00000270: 0e0f 103e 417c 3dbe 75f3 f8bd f050 17bb
00000280: 0a8f d0be 692a 5b3e 4e69 57bd aabc 88be
00000290: fa4a ce3e b6e4 8abd c2af fc3d 036f 353e
000002a0: ea90 cf3d 95b9 d03d 524d 66be ed3f 4bbe
000002b0: ba2f 953d 5df8 53be bda5 853d 7eb8 c63e
000002c0: 1ffa 00bd 7bc9 943e eb68 73be 36f5 58be
000002d0: 4aa5 953e 9b1c 20bc c0de 353d 2203 d8bd
000002e0: 2176 313d c20a 1e3e 4170 90be e2cc 9abe
000002f0: f89e c9be bce3 ccbd 764e e1bd 464e 6fbe
00000300: 92cd c43d 1e4f d13d 05af fabd 49e0 96be
00000310: f2cd 243e 22d9 8e3e d7d4 c6bd fa39 4dbe
00000320: 0aa2 2abd 7f52 90bd 733a 103e ac07 d73c
00000330: 5dad bbbe 7234 01be 69ae f3bd 77b5 52be
00000340: 9fff a3be a2fd 803c 70d0 a5be d6a6 373d
00000350: 11a8 93be ac7b 59be faf4 88be 094f f53a
00000360: b710 c6be a7c5 9d3e f0aa 54be 9570 bebc
00000370: 7b9d 04be b660 b0be 41a8 26bd 8819 bc3d
00000380: a788 683e 9472 7f3c 550f 923d 47eb 24bd
00000390: a111 283e 7776 efbe dd49 92be 04be 863d
000003a0: ef4b 333d 009f 91be 87ff bcbd c80d ab3e
000003b0: 38a6 e13d 0a26 37be 97f6 2cbe 2b94 1e3e
000003c0: 4ec5 c1bd ec7d d53c 2c77 5c3e 7830 2e3d
000003d0: 4d55 71be 0165 523e 2d61 a13d 5f22 8ebe
000003e0: 3cb7 963c 05b2 7b3e ef48 80be 7311 45be
000003f0: 61e6 033e 99bd f53e 7f16 44be 5dc3 b3be
0.17748764 -0.2944861 -0.16379923 0.42100585 -0.029239047 -0.09411028 -0.2716524 -0.02015323
0.098912776 -0.16542573 -0.31406978 0.109743804 0.13590817 -0.09140788 -0.35955468 0.3157483
0.279032 -0.08597124 -0.3526622 0.4542692 0.3702678 0.02806838 -0.304176 -0.06286707
-0.28898305 0.075379945 0.003313794 -0.46695358 -0.026419908 0.037402775 -0.2413269 -0.14570428
0.13598023 0.3025491 -0.34735826 0.18777405 -0.04575986 0.123431005 0.0481643 -0.10719408
0.075292274 -0.02856276 0.11279893 0.25797945 -0.027753094 -0.030919842 -0.33924684 0.004156854
-0.16661754 -0.047072086 0.063601606 0.27272442 -0.27252567 0.0689538 0.14301074 -0.07049821
-0.25447482 0.22030962 -0.5712599 0.25078705 -0.13733104 -0.084649816 -0.053058457 0.21225837
0.18575862 0.009123881 -0.20399624 0.03677983 -0.09987162 -0.21839796 -0.14624958 0.1930165
-0.09334554 0.18065935 -0.07981309 0.20287214 0.008775934 0.27169478 0.009212353 -0.0317852
-0.15688875 0.10650832 0.2550443 -0.3828621 -0.41599455 0.062775634 0.2869989 0.22563617
-0.22194088 -0.08652787 0.102101125 0.056710698 0.009361272 -0.21374246 -0.046989005 0.09681234
0.18920669 0.018735768 -0.2793589 0.081885666 0.45060462 0.20424528 0.0645073 -0.016490607
-0.15758945 0.17624454 -0.26177973 0.23526981 0.113131255 0.23678467 -0.05524568 -0.26809338
0.2149805 -0.047050364 -0.13981622 -0.13523862 -0.1606024 -0.08341877 0.020989222 -0.27598494
0.27919132 -0.19056085 0.047235683 -0.21767667 0.07061236 0.007239817 0.31484008 0.18649344
-0.10070003 -0.2548338 -0.075798094 0.039333716 -0.103751466 0.15791737 -0.18908548 0.13631994
-0.11858059 -0.012973614 0.08691486 -0.014256959 -0.021959297 -0.19960536 0.25298938 0.36326048
0.27008665 0.25979757 -0.24937625 0.1470383 0.36803275 -0.036075104 -0.016434183 -0.061623808
-0.105233364 0.0957298 0.3902584 -0.29682243 0.14068243 -0.1850443 -0.12155811 -0.0023089014
-0.4073413 0.21402897 -0.05259066 -0.2670644 0.40291578 -0.067819044 0.12338211 0.17718129
0.10135062 0.10191647 -0.22490433 -0.19848605 0.07284494 -0.20700212 0.06525753 0.3881263
-0.031488534 0.29059967 -0.23770492 -0.2118729 0.29227668 -0.009772445 0.044401884 -0.105474725
0.043325547 0.15433791 -0.28210643 -0.30234438 -0.39379096 -0.100043744 -0.11001293 -0.23369703
0.09609522 0.102201685 -0.122404136 -0.2946799 0.16094187 0.27900034 -0.09708565 -0.20041648
-0.04165844 -0.07046985 0.14084797 0.026248775 -0.36655703 -0.12617663 -0.118985005 -0.20577036
-0.3203096 0.015745942 -0.32385588 0.04483684 -0.28839162 -0.21238583 -0.26749402 0.0018715571
-0.38684627 0.3081486 -0.20768332 -0.023247043 -0.12950699 -0.34448785 -0.040687803 0.09184557
0.22708379 0.015591282 0.071318306 -0.04026344 0.16412975 -0.4677007 -0.28571978 0.06579211
0.043773588 -0.2844162 -0.092284255 0.33408952 0.11018032 -0.17885605 -0.16890942 0.15486209
-0.09461461 0.02606102 0.21529835 0.042526692 -0.23567696 0.20546342 0.07879863 -0.27760598
0.01839792 0.24579628 -0.25055644 -0.19244938 0.12880851 0.47996214 -0.19149207 -0.35109988
