LSTM/code/model/old_model/model_mk2.pt (torch, 72559 bytes, 18 tensors)

weight_ih_l0 f4 [80, 88]
0	0xbd303ab9	-0.043024752
1	0xbe404db2	-0.18779638
2	0x3d378783	0.04480697
3	0xbcf1415a	-0.029450107
4	0x3e112342	0.14173606
5	0x3dfafd59	0.122553535
6	0x3d345b41	0.04403234
7	0xbd8ed7a1	-0.06974722
8	0x3e117438	0.1420449
9	0x3e2f195b	0.17099516
10	0xbc91cba5	-0.0177973
11	0x3df82acf	0.1211754
12	0xbe4a52fc	-0.19758219
13	0x3d463c8b	0.048397582
14	0x3c7d8c11	0.015475289
15	0xbe465d7a	-0.19371596
16	0xbcb3452a	-0.021883566
17	0x3d488ffd	0.048965443
18	0xbe6909c6	-0.22757635
19	0x3e4f5d60	0.20250463
20	0xbdc2a455	-0.09504
21	0x3bafcb4d	0.0053648115
22	0x3d6df3df	0.0580939
23	0x3d92f698	0.0717594
24	0x3d9bcb14	0.076070935
25	0x3ddd5984	0.108080894
26	0x3d310a7f	0.0432229
27	0x3d81dba0	0.06340718
28	0xbe4301bd	-0.19043632
29	0x3e21c6df	0.1579852
30	0x3d938e0b	0.07204827
31	0x3dae521d	0.085117556
32	0x3ddda6a1	0.108227976
33	0xbd236229	-0.039888535
34	0x3deb74b1	0.114968665
35	0x3c15b350	0.00913699
36	0xbd86b67d	-0.065777756
37	0x3d8f45db	0.06995746
38	0x3d963cdf	0.07335829
39	0xbdc03427	-0.09384947
40	0x3e234fba	0.15948382
41	0x3e19d4ad	0.15022536
42	0x3d05fa22	0.03270925
43	0x3e7a4c77	0.24443232
44	0x3d155f70	0.03646797
45	0xbe865965	-0.26240078
46	0x3e21a6e6	0.15786323
47	0x3e3db8f8	0.18527591
48	0x3ded35ed	0.11582551
49	0x3e4fda69	0.2029816
50	0xbdc607d3	-0.09669461
51	0xbde8054e	-0.11329137
52	0xbe73cbaf	-0.23808168
53	0x3db7b307	0.08969694
54	0x3da809cb	0.08204993
55	0xbddda9c3	-0.10823395
56	0xbd893a21	-0.0670054
57	0xbdd02e45	-0.10165075
58	0xbe85c3e9	-0.2612603
59	0x3cc20b67	0.023687078
60	0xbd4307e4	-0.047614947
61	0xbe0a81bc	-0.13526052
62	0x3dcaf969	0.099108525
63	0xbd6c98a3	-0.057762753
64	0x3dcc838f	0.0998603
65	0xbe2bfb1a	-0.16795006
66	0x3e59417b	0.21216385
67	0x3dfa44aa	0.12220128
68	0x3e7a0ecb	0.24419706
69	0xbdd99005	-0.10623173
70	0xbda31b2b	-0.07964166
71	0xbd8311aa	-0.063998535
72	0xbdb7fdad	-0.08983932
73	0x3cc38d17	0.023870988
74	0xbe0327a1	-0.12808086
75	0xbd4f217e	-0.05056905
76	0xbe1c422d	-0.15259619
77	0x3d4fa446	0.050693773
78	0xbe53d5c1	-0.2068701
79	0xbd13e241	-0.036104444
80	0xbe42874d	-0.18996926
81	0xbe2355d2	-0.15950707
82	0x3e1d0380	0.15333366
83	0x3e284234	0.16431504
84	0xbdd541e7	-0.104129605
85	0xbdd1bace	-0.10240708
86	0x3da36cf9	0.07979769
87	0x3e34f5b0	0.17671847
88	0xbe29e080	-0.16589546
89	0xbe334da2	-0.17510083
90	0x3d9e81e0	0.077396154
91	0xbdab3666	-0.08359985
92	0xbe4ee17a	-0.202032
93	0xbd9d032e	-0.07666622
94	0xbd4a3356	-0.049365364
95	0x3dd4bf53	0.10388055
96	0xbdefc886	-0.11708169
97	0xbd2a4687	-0.041571166
98	0xbd914c7b	-0.070946656
99	0xbe2cb04e	-0.1686413
100	0x3c987a21	0.018612923
101	0x3ccb43ae	0.024812546
102	0x3daa15c4	0.08304933
103	0x3d06efaf	0.032943424
104	0xbb91431d	-0.0044330494
105	0xbd7b6cf5	-0.061383206
106	0xbc825b24	-0.0159126
107	0x3e3a6fa5	0.18206652
108	0xbe9615e7	-0.29313585
109	0xbe44fcaa	-0.19237009
110	0xbe89f0d8	-0.26941562
111	0x3cf6906c	0.030098163
112	0xbce38fac	-0.027778469
113	0x3c95276d	0.018207276
114	0xbca615a0	-0.020273983
115	0x3e24e479	0.1610278
116	0xbd8b08d3	-0.067887925
117	0x3e850165	0.25977626
118	0xbe12c052	-0.14331177
119	0xbe1740da	-0.14770833
120	0xbddead5f	-0.10872912
121	0x3e5a6e8a	0.2133123
122	0xbe81f645	-0.253832
123	0xbdfe8560	-0.12427783
124	0xbe8711cb	-0.26380762
125	0x3e006b3f	0.12540911
126	0x3e09148c	0.13386744
127	0xbdef7ff6	-0.116943285
128	0x3e5b0b1a	0.21390954
129	0x3e17a269	0.14808048
130	0xbe77f42a	-0.24214235
131	0x3e53e2a6	0.20691928
132	0x39fb3832	0.0004791632
133	0x3e423c2a	0.18968263
134	0x3d6e5db1	0.05819482
135	0xbd3db24e	-0.046312623
136	0xbe00136c	-0.12507409
137	0x3cc2994e	0.023754742
138	0xbc15710d	-0.009121192
139	0x3e8107cf	0.2520127
140	0x3deaeed4	0.11471334
141	0xbd145426	-0.036213063
142	0x3e246b3c	0.16056532
143	0x3dddfc6d	0.10839162
144	0xbdb8cc02	-0.090232864
145	0x3e99af58	0.3001659
146	0xbd8910a7	-0.06692629
147	0xbd1ebf27	-0.038756516
148	0xbbad9cf8	-0.005298253
149	0x3e08a206	0.13343057
150	0xbe0f1ad1	-0.13975073
151	0xbd2c9703	-0.042136203
152	0x3dd1001d	0.102051
153	0x3e29a5fd	0.16567226
154	0x3e299be4	0.16563374
155	0xbd1e4430	-0.038639247
156	0x3da1ad8a	0.07894428
157	0xbd26c920	-0.04071915
158	0xbd38014c	-0.04492311
159	0xbe2f36e6	-0.17110786
160	0xbe1cb6c2	-0.15304092
161	0x3e4aa37c	0.19788927
162	0xbd4cc1f0	-0.04998964
163	0x3e3ae6a7	0.1825205
164	0xbdadd923	-0.08488681
165	0x3df1184b	0.11772212
166	0x3e451ba8	0.19248831
167	0x3d6f1c6a	0.058376707
168	0x3d2276b6	0.039663993
169	0xbe07271e	-0.13198516
170	0x3d0eb8cf	0.034844216
171	0x3e854e46	0.2603628
172	0xbe641d23	-0.2227674
173	0xbc15d9b4	-0.009146143
174	0x3e01d5e0	0.12679243
175	0xbd3f9a02	-0.046777733
176	0x3d0900cf	0.033448037
177	0xbe52ed81	-0.20598413
178	0x39ac5f35	0.0003287733
179	0xbc66b677	-0.014081589
180	0xbc9207a4	-0.017825909
181	0x3df20806	0.118179366
182	0xbad522c1	-0.0016260968
183	0xbe1466f7	-0.14492403
184	0xbca1e98d	-0.019764686
185	0xbe17a1f1	-0.1480787
186	0xbe6a8125	-0.22900827
187	0x3e59dbc7	0.21275245
188	0xbca14371	-0.019685479
189	0x3d0367e5	0.032081503
190	0xbe3f3da9	-0.18675865
191	0x3e19edd4	0.1503213
192	0x3e54c0a3	0.2077661
193	0xbe0efbd5	-0.13963254
194	0xbde383ac	-0.11109099
195	0x3e25df6d	0.16198511
196	0xbd918e9a	-0.07107277
197	0xbe3572f6	-0.17719635
198	0xbe4164b6	-0.18886074
199	0x3e7fd9a9	0.24985375
200	0x3de9cfbc	0.11416575
201	0x3d5aafe2	0.05339039
202	0x3d8e8e02	0.069606796
203	0xbdf06b90	-0.11739266
204	0x3e23fdff	0.1601486
205	0xbe2b2f96	-0.16717371
206	0xbe32810c	-0.1743204
207	0x3def344a	0.11679895
208	0x3c684ff0	0.014179215
209	0xbe085863	-0.13314967
210	0xbb772875	-0.0037713323
211	0xbd9bc695	-0.07606236
212	0xbdc5f5d5	-0.09666029
213	0x3dd4e497	0.103951626
214	0xbe89fcd1	-0.26950696
215	0x3e5c23de	0.21498057
216	0x3d890365	0.066901006
217	0xbd32dd9d	-0.04366838
218	0xbe5ba3b3	-0.21449165
219	0xbdc15760	-0.094404936
220	0x3e5842b4	0.21119195
221	0xbe124d74	-0.14287359
222	0xbcfc3f63	-0.030791944
223	0x3d617454	0.05504258
224	0xbd94d06f	-0.07266318
225	0xbd58fddb	-0.05297647
226	0xbd923792	-0.071395054
227	0x3d87d875	0.06633083
228	0xbc7342d2	-0.014847474
229	0x3d59f398	0.053210825
230	0xbe5a34fb	-0.21309273
231	0x3d4923eb	0.04910652
232	0x3e5afb7a	0.21384993
233	0xbd1f9835	-0.038963515
234	0xbe4c67e6	-0.19961509
235	0x3e083699	0.13302077
236	0xbe4e9a3b	-0.20176022
237	0x3cf3d3ca	0.029764075
238	0xbe707abf	-0.23484324
239	0xbd043dd8	-0.03228554
240	0xbd56a9a9	-0.052407894
241	0xbd8b5cb2	-0.068047896
242	0xbdeeb8ea	-0.11656363
243	0x3e8f56c2	0.27995878
244	0xbe6017b9	-0.2188405
245	0xbde642cc	-0.11243209
246	0xbe1d1aba	-0.15342227
247	0xbcd051d0	-0.025429636
248	0x3ad174d9	0.0015980258
249	0x3db34ba5	0.087546624
250	0x3e609834	0.21933061
251	0x3e323136	0.17401585
252	0xbdb1692a	-0.086626366
253	0xbdb1ca46	-0.08681159
254	0x3d0d7199	0.034532163
255	0x3e5f2ef5	0.21795256

weight_hh_l0 f4 [80, 20]
0	0xbd952ebe	-0.07284306
1	0x3e8353b7	0.25649807
2	0xbdad2991	-0.08455194
3	0x3de63043	0.11239674
4	0xbddd4361	-0.10803867
5	0xbd844b9c	-0.06459734
6	0xbe6c0db5	-0.23052104
7	0x3db529ca	0.08845861
8	0xbda824c0	-0.082101345
9	0x3c8a6c50	0.01689735
10	0xbe50989a	-0.20370713
11	0xbdc3a2b7	-0.0955252
12	0x3db31ad3	0.08745351
13	0x3e0b022f	0.13575052
14	0x3db442c3	0.08801796
15	0x3e1c64e6	0.15272865
16	0xbdc54677	-0.09632581
17	0x3e4883bd	0.19581504
18	0x3e3da427	0.1851965
19	0xbe1d6a52	-0.15372589
20	0x3d5b40b5	0.053528506
21	0x3e719696	0.235926
22	0xbe8bf0f9	-0.27332285
23	0xbe11f665	-0.14254148
24	0x3e674e5b	0.22588484
25	0xbdc77390	-0.09738839
26	0xbcfe0dc4	-0.031012423
27	0xbe6944c7	-0.22780143
28	0xbc925c4a	-0.017866272
29	0xbe2273f2	-0.15864542
30	0x3bf0d494	0.00734956
31	0xbe274632	-0.16335371
32	0x3dac9078	0.08425993
33	0xbe17cd4a	-0.14824405
34	0x3d84cd09	0.0648442
35	0xbd97e24f	-0.07416212
36	0x3d9c99f6	0.07646553
37	0xbe5abe73	-0.21361713
38	0xbdb820d5	-0.08990637
39	0x3db8533e	0.09000252
40	0x3db7d8ef	0.08976924
41	0xbde7340e	-0.112892255
42	0xbd10bf50	-0.0353387
43	0xbd945267	-0.072422795
44	0xbe0b7035	-0.13617022
45	0x3e16be28	0.14720976
46	0xbdca923b	-0.098911725
47	0xbc7ce42a	-0.015435258
48	0xbe311773	-0.17294101
49	0xbe501290	-0.20319581
50	0x3ce5b33a	0.028039563
51	0xbc507cf2	-0.012725102
52	0x3cb5170d	0.022105718
53	0xbe682407	-0.22669993
54	0xbdd6025c	-0.10449669
55	0x3be0bd59	0.0068585095
56	0xbe0e2800	-0.13882446
57	0xbe3d07bb	-0.1845998
58	0x3e499431	0.19685437
59	0x3e313aa8	0.17307532
60	0x3e21f3c6	0.15815648
61	0xbdda53d2	-0.10660519
62	0x3dbd58b3	0.09245434
63	0x3df9c523	0.12195804
64	0x3e5ced3d	0.21574874
65	0xbd134e67	-0.035963442
66	0xbdba8005	-0.09106449
67	0x3c6ff332	0.014645385
68	0xbe056a07	-0.13028727
69	0xbcbb024f	-0.02282825
70	0xbcb2fc80	-0.021848917
71	0xbe51b017	-0.20477329
72	0xbe0dffb3	-0.13867073
73	0x3cf2f259	0.029656576
74	0x3cf8584b	0.030315539
75	0x3e5cff18	0.21581686
76	0xbcab7ff8	-0.020935044
77	0x3de067c8	0.10957295
78	0xbd297819	-0.0413743
79	0x3dcf3f86	0.10119538
80	0x3d2b6aa5	0.04184975
81	0xbe2cca43	-0.16874032
82	0xbe0ac23c	-0.13550657
83	0xbdef2561	-0.11677051
84	0xbe0323e3	-0.12806658
85	0xbdb1a449	-0.08673913
86	0xbd8083ef	-0.06275164
87	0x3bf54961	0.007485554
88	0xbd85b528	-0.065286934
89	0xbd9c1a72	-0.076222315
90	0x3c8cfba3	0.017209833
91	0xbdc9edb4	-0.098597914
92	0x3e3955bc	0.18099111
93	0xbe5fa1ae	-0.2183902
94	0xbe047654	-0.12935764
95	0xbe5b8003	-0.21435551
96	0x3dd5909c	0.10427973
97	0xbde0476a	-0.10951121
98	0x3c678022	0.01412967
99	0x3e7ec961	0.24881507
100	0x3be6fc32	0.007049107
101	0x3dfd8508	0.12378889
102	0x3dccf0a1	0.10006834
103	0xbe5e0811	-0.21682765
104	0xbd1548e9	-0.036446486
105	0x3e63e1cb	0.22254102
106	0x3d0e2a03	0.034708034
107	0x3e39afde	0.18133494
108	0xbe1834ea	-0.14863935
109	0xbd699cac	-0.05703418
110	0x3e5d9824	0.21640068
111	0x3dd9bb76	0.106314585
112	0xbcfabbc3	-0.03060711
113	0xbcb5f29e	-0.022210415
114	0x3df33fe6	0.11877422
115	0xbde89577	-0.11356633
116	0x3e29238a	0.16517463
117	0xbe804075	-0.25049177
118	0xbe2bfd87	-0.16795932
119	0x3e25c317	0.16187702
120	0x3e0e1b40	0.13877583
121	0x3e69258b	0.22768228
122	0x3d8088dc	0.06276104
123	0x3e2fba79	0.17160977
124	0xbdcbf2d5	-0.09958426
125	0xbd9ed560	-0.07755542
126	0xbd939fc6	-0.07208209
127	0x3d084ca7	0.033276226
128	0x3dfa4c32	0.12221564
129	0x3dea75c7	0.114482455
130	0xbe118824	-0.1421209
131	0x3c218cc1	0.0098602185
132	0xbcfbf776	-0.030757647
133	0x3e3a238f	0.18177627
134	0xbe1f7241	-0.15570928
135	0x3dd027f3	0.1016387
136	0x3d5ef37f	0.054431435
137	0x3e19da44	0.15024668
138	0x3de5a01b	0.11212178
139	0x3d29a846	0.041420244
140	0x3ceffc73	0.029295182
141	0x3d0f4f39	0.034987662
142	0x3e28eee0	0.16497374
143	0x3e9c33f7	0.30508396
144	0x3db009ed	0.08595643
145	0xbe8ab07d	-0.27087775
146	0xbd951da7	-0.07281046
147	0xbd87290b	-0.06599625
148	0xbdbc3b1b	-0.09190961
149	0xbda2790e	-0.079332456
150	0xbe178947	-0.14798461
151	0x3e05b4cd	0.13057251
152	0xbc424bb1	-0.011858867
153	0xbe4b53b4	-0.19856149
154	0xbe0e5c1a	-0.13902321
155	0x3e0a22df	0.13489865
156	0xbe1fb066	-0.15594634
157	0xbd419b8e	-0.04726749
158	0x3d5f12ab	0.054461163
159	0x3e178adb	0.14799063
160	0xbe16d0b7	-0.14728056
161	0x3d9d3287	0.07675653
162	0x3d847594	0.06467739
163	0x3d183f27	0.0371696
164	0x3dcba23b	0.099430524
165	0xbe6a18e7	-0.22861062
166	0x3dcb95ac	0.09940657
167	0xbe2bf696	-0.16793284
168	0x3c359913	0.011083859
169	0xbe35e974	-0.17764837
170	0x3e329381	0.17439081
171	0xbdb1783c	-0.08665511
172	0x3e04c824	0.12966973
173	0xbe489894	-0.19589454
174	0x3c38818c	0.011261355
175	0xbe0f960b	-0.1402208
176	0x3c696c81	0.014247061
177	0xbdbb4669	-0.09144289
178	0xbe2f4a6b	-0.17118232
179	0xbe0f420c	-0.13990039
180	0x3da293c6	0.07938342
181	0xbe5629a1	-0.20914318
182	0xbe2c75e7	-0.16841851
183	0x3e915751	0.2838693
184	0x3e6de90e	0.23233435
185	0xbe7b49da	-0.24539891
186	0xbeaafddc	-0.33396804
187	0xbed7cd21	-0.42148688
188	0xbeb7ca4c	-0.35896528
189	0x3d5f49e9	0.054513846
190	0xbe432164	-0.19055706
191	0x3e7f4518	0.24928701
192	0x3e610c68	0.21977389
193	0x3e8c3713	0.27385768
194	0xbeb1cbbf	-0.34725758
195	0x3ea9d546	0.33170527
196	0xbe9dff7b	-0.3085898
197	0xbdf948d4	-0.12172094
198	0x3efdf3f8	0.49600196
199	0x3d86711a	0.06564541
200	0xbe197366	-0.14985427
201	0x3e77e68c	0.2420904
202	0x3dd2de2d	0.10296283
203	0x3e19dc01	0.15025331
204	0x3e3380fb	0.17529671
205	0xbdd898ec	-0.105760425
206	0x3e4277c7	0.18991004
207	0xbd832f59	-0.06405515
208	0x3d86e1c6	0.065860316
209	0xbe0604e9	-0.1308781
210	0xbe41d804	-0.1893006
211	0x3d0bb913	0.034112047
212	0x3c82d132	0.015968893
213	0xbe4badf0	-0.1989057
214	0x3e7fa3eb	0.24964873
215	0x3c18fa6c	0.009337049
216	0xbdfe294a	-0.12410219
217	0xbe2dff6b	-0.16991965
218	0xbc41d854	-0.011831362
219	0xbe245b72	-0.16050509
220	0xbd185804	-0.037193313
221	0xbdfaba75	-0.12242595
222	0x3e53cf33	0.20684509
223	0xbe273866	-0.16330108
224	0x3d90bb72	0.07067002
225	0xbe11c0fc	-0.14233774
226	0xbc966eef	-0.018363444
227	0xbdbf8ce8	-0.093530476
228	0x3c1dfba7	0.009642518
229	0xbe853c0a	-0.2602237
230	0xbe18bd30	-0.1491592
231	0xbddeea14	-0.108844906
232	0xbe0c6bc3	-0.13712983
233	0xbda09cac	-0.07842383
234	0x3dc2e6ca	0.09516676
235	0xbdd29532	-0.10282363
236	0x3e83d314	0.25746977
237	0x3e767b4f	0.24070476
238	0xbe41d3c1	-0.18928434
239	0xbe7e88c1	-0.24856855
240	0x3e13e527	0.14442883
241	0xbd8045c9	-0.062633105
242	0xbd2b654b	-0.041844647
243	0xbdef1e46	-0.11675696
244	0xbcff7c91	-0.031187328
245	0xbe0efda3	-0.13963942
246	0xbe8cb801	-0.27484134
247	0x3e088781	0.1333294
248	0xbdb52509	-0.088449545
249	0xbe890311	-0.26760152
250	0x3e6d9c21	0.2320409
251	0x3e88b386	0.26699466
252	0xbdbc6e1c	-0.09200689
253	0xbe0abc35	-0.13548358
254	0xbd42b5f1	-0.047536794
255	0xbd096bf6	-0.033550225

bias_ih_l0 f4 [80]
0	0xbc8469b4	-0.016163684
1	0x3e35293a	0.17691508
2	0x3ccd1bc3	0.025037652
3	0x3daac7b3	0.08338871
4	0x3de20d62	0.11037709
5	0x3e26a541	0.16273977
6	0x3e300099	0.17187728
7	0x3dac34d7	0.08408516
8	0xbdadc9a0	-0.084857225
9	0x3e8f18f1	0.27948716
10	0xbe22cd71	-0.15898682
11	0xbe286ce2	-0.16447785
12	0x3e252b88	0.16129887
13	0x3e46b670	0.19405532
14	0x3e44af3a	0.19207469
15	0xbdfee40a	-0.12445839
16	0xbd52bd13	-0.051449846
17	0xbdebe6a9	-0.11518604
18	0x3e50707e	0.20355412
19	0x3e39e11b	0.18152277
20	0xb9743103	-0.00023287912
21	0x3d826d9b	0.06368562
22	0x3d08e976	0.03342577
23	0xbe3612d9	-0.17780627
24	0x3e2fd065	0.1716934
25	0x3e66aa72	0.22525957
26	0xbdc53090	-0.09628403
27	0xbdb8e4f3	-0.090280436
28	0x3e60aae6	0.21940193
29	0x3e076bdf	0.13224743
30	0x3db5d545	0.088785686
31	0xbdee3cac	-0.11632666
32	0x3dcb58c9	0.09929044
33	0x3e1323eb	0.1436917
34	0x3e9868b9	0.29767397
35	0x3c8f0700	0.017459393
36	0x3e582fd6	0.21111998
37	0xbdd1ecd9	-0.10250253
38	0xbdc17f39	-0.09448094
39	0x3bcafe15	0.0061948397
40	0xbcd99374	-0.026559569
41	0xbe170e86	-0.14751634
42	0xbdb49bab	-0.08818754
43	0x3e4d1a13	0.20029478
44	0x3e17be95	0.14818795
45	0x3dd0687e	0.1017618
46	0xbd260436	-0.04053136
47	0xbe128984	-0.1431027
48	0x3da4ad16	0.08040826
49	0xbdc7ddc0	-0.09759092
50	0x3d10f1f6	0.035387002
51	0x3dc0ddcf	0.09417307
52	0x3dc97bde	0.09838079
53	0x3e45b9ef	0.1930921
54	0x3d7a15cc	0.061055943
55	0x3dc29d77	0.0950269
56	0xbd8d70f2	-0.06906308
57	0xbcab5d18	-0.020918414
58	0x3daf3d44	0.08556607
59	0x3e23990f	0.15976356
60	0x3e6aea4c	0.2294094
61	0x3e1523ae	0.14564392
62	0xbd08a757	-0.033362713
63	0x3e344bc0	0.17607021
64	0x3d9c23f0	0.07624042
65	0xbe0be1ee	-0.13660404
66	0x3e4d7256	0.20063147
67	0x3dbe3aa0	0.092885256
68	0x3df8c965	0.12147788
69	0x3c993f80	0.018707037
70	0x3d8b3750	0.067976594
71	0x3e3303f7	0.17481981
72	0xbdd7fd23	-0.10546329
73	0xbdb9663f	-0.09052705
74	0x3e5c3c37	0.21507345
75	0x3e0a4fdd	0.13507028
76	0x3dcc5d00	0.09978676
77	0xbe6ca47f	-0.23109625
78	0xbe27a9fd	-0.16373439
79	0x3e4f7318	0.20258749

bias_hh_l0 f4 [80]
0	0x3e5bc716	0.21462664
1	0xbde88bf3	-0.11354818
2	0xbdb87b6a	-0.09007914
3	0x3e246373	0.16053562
4	0xbdc9f9f0	-0.09862125
5	0xbc873a1b	-0.016507199
6	0xbe0633af	-0.13105653
7	0x3df9d2fe	0.12198447
8	0x3e4f82b3	0.20264702
9	0x3e8e7c4e	0.27829212
10	0x3e019d5c	0.12657684
11	0x3e0a090c	0.13480014
12	0x3e341427	0.17585813
13	0x3e4f868d	0.20266171
14	0x3d0bc039	0.034118865
15	0xbdb9c849	-0.090714045
16	0xbe265a01	-0.16245271
17	0x3e601c1f	0.21885727
18	0xbe351859	-0.17685069
19	0x3d06aae1	0.032877807
20	0xbd8b670a	-0.068067625
21	0x3de46995	0.11152951
22	0x3e5af553	0.21382646
23	0x3ccb4f0a	0.024817962
24	0x3e258262	0.16163018
25	0x3e654fd5	0.22393735
26	0xbd5a55dc	-0.053304538
27	0x3e5b4996	0.2141479
28	0x3e0f8f7a	0.14019576
29	0x3dd5923a	0.10428281
30	0xbda1a19c	-0.07892153
31	0x3d5243d6	0.051334225
32	0x3e02a5c0	0.12758541
33	0xbd6420ac	-0.05569522
34	0x3b7271fc	0.003699421
35	0x3dd3ff8d	0.10351477
36	0x3e3f3fb0	0.18676639
37	0xbe25aeef	-0.16180013
38	0xbe3f63a5	-0.18690355
39	0xbe03a786	-0.12856874
40	0x3de05861	0.10954357
41	0xbdeac983	-0.114642166
42	0xbe45c99f	-0.19315194
43	0x3e17e9ed	0.1483533
44	0xbe592ac7	-0.21207725
45	0x3dfe9e87	0.124325804
46	0x3da30d23	0.0796149
47	0xbe8fa9c1	-0.280592
48	0x3d700ce0	0.05860603
49	0x3cad53eb	0.02115818
50	0x3d68d754	0.056845978
51	0x3d27f7f4	0.04100795
52	0x3dff5ed0	0.12469256
53	0x3d13d4b8	0.036091536
54	0x3db7c395	0.08972851
55	0x3e2cd55d	0.16878267
56	0x3d4bc445	0.049747724
57	0xbe505fce	-0.20349047
58	0xbac500d6	-0.0015030156
59	0x3e7a1d8b	0.24425332
60	0x3cd529cd	0.026020909
61	0x3e2a26a4	0.16616303
62	0xbc657a15	-0.014006157
63	0xbb839783	-0.0040158643
64	0xbe2b4451	-0.1672528
65	0xbe0fd0b0	-0.14044452
66	0x3d91d304	0.07120326
67	0x3d58435b	0.05279861
68	0x3cb24d7e	0.021765467
69	0x3c857c42	0.016294602
70	0xbe0adcd9	-0.13560809
71	0xbdc73253	-0.097263955
72	0x3db986da	0.09058924
73	0x3e2df1e0	0.16986799
74	0xbe04e549	-0.1297809
75	0xbd86637e	-0.065619454
76	0xbdf09676	-0.11747448
77	0x3e2e927b	0.17048065
78	0x3bcb165a	0.006197733
79	0x3e3a1fcc	0.18176192

weight_ih_l1 f4 [80, 20]
0	0x3e859ead	0.26097623
1	0xbe03295d	-0.12808748
2	0x3e659c73	0.22422962
3	0xbdf04950	-0.11732733
4	0x3d962be2	0.07332589
5	0x3e0efba5	0.13963182
6	0x3dc0ac40	0.09407854
7	0xbd0f0632	-0.034918018
8	0xbe2bba53	-0.16770296
9	0x3e034230	0.12818217
10	0x3dc233c4	0.0948253
11	0x3e6516e1	0.22372009
12	0xbda2e015	-0.079528965
13	0xbd94b376	-0.07260792
14	0x3e8d1abe	0.27559465
15	0xbdb0959f	-0.08622288
16	0x3e1cb168	0.1530205
17	0xbe702c15	-0.23454316
18	0xbe1882d7	-0.14893661
19	0xbcf5606d	-0.029953206
20	0x3d44ddbe	0.048063032
21	0x3dc70328	0.09717399
22	0x3e3ae2ba	0.18250552
23	0xbe1d0fbf	-0.15338038
24	0xbe677a94	-0.22605354
25	0xbe1772a5	-0.14789827
26	0xbd732c31	-0.059368316
27	0x3e1a3a38	0.15061271
28	0xbe0a15c8	-0.13484871
29	0x3d0fbdaf	0.035093006
30	0x3de4c23e	0.11169861
31	0x3de2234d	0.11041889
32	0x3e2fb737	0.17159735
33	0xbe2de11e	-0.16980407
34	0xbdb4953e	-0.08817528
35	0x3da867ca	0.08222921
36	0x3dcd9ba9	0.100394554
37	0x3e3b358f	0.1828215
38	0xbe63c608	-0.22243512
39	0xbdb90ab8	-0.090352476
40	0x3de95503	0.11393168
41	0x3d6c67cf	0.057716187
42	0x3d2ab288	0.041674167
43	0xbe4a19ff	-0.19736479
44	0xbcaebdc6	-0.021330725
45	0xbe309744	-0.17245203
46	0xbe108421	-0.14112903
47	0x3d8573be	0.06516217
48	0xbe60f247	-0.21967421
49	0xbe28d963	-0.16489176
50	0x3dfa9ba7	0.122367196
51	0xbde90555	-0.1137797
52	0x3e3ded49	0.18547548
53	0x3d0336ad	0.032034565
54	0x3e10ef29	0.14153732
55	0xbddc02d2	-0.107427254
56	0x3dc5bb37	0.09654849
57	0x3e660e64	0.22466427
58	0xbd991f53	-0.07476678
59	0xbde80306	-0.11328702
60	0xbd86e335	-0.06586305
61	0xbdcb8f51	-0.09939445
62	0xbd044aba	-0.032297827
63	0x3e4a61c7	0.19763862
64	0xbc18f0e0	-0.009334773
65	0xbdac8477	-0.08423703
66	0xbc56aeff	-0.013103246
67	0xbd82e7c3	-0.06391861
68	0xbe59ed20	-0.21281862
69	0xbd3645c4	-0.044500127
70	0xbd8a53af	-0.06754243
71	0xbd77f04b	-0.060531896
72	0x3d8e60cb	0.069520555
73	0xbd1a20ce	-0.03762894
74	0x3df989a4	0.12184456
75	0x3e10664f	0.14101528
76	0xbe3bbb94	-0.18333274
77	0x3d68a848	0.05680111
78	0xbd4f4f7f	-0.050612923
79	0xbdd48112	-0.10376181
80	0xbcbb5e9e	-0.022872265
81	0xbe838243	-0.2568532
82	0xbe148c30	-0.14506602
83	0x3e271246	0.16315565
84	0xbdd6ef71	-0.104948886
85	0x3cd1965e	0.025584396
86	0x3cf033ec	0.029321633
87	0xbc4e026b	-0.012573819
88	0xbdaf6e59	-0.08565969
89	0x3cb7578e	0.022380617
90	0x3dac4213	0.0841104
91	0x3e08964d	0.13338585
92	0x3d844887	0.06459146
93	0x3e245606	0.1604844
94	0xbdca8ad6	-0.09889762
95	0x3e09b41a	0.1344761
96	0xbe272758	-0.16323602
97	0xbe8884c0	-0.2666378
98	0x3bd4bca6	0.006492215
99	0x3daf107c	0.08548066
100	0xbd6ec456	-0.05829271
101	0xbe13f9e2	-0.14450791
102	0x3df7a1ff	0.12091445
103	0xbd90eabc	-0.07076022
104	0xbd5005df	-0.05078685
105	0xbe5bf3fe	-0.21479794
106	0x3d88001c	0.06640646
107	0x3e1b1a47	0.15146743
108	0xbe79c678	-0.24392116
109	0xbd7e64c5	-0.06210782
110	0xbdb9e8e0	-0.090776205
111	0x3e8ad297	0.27113792
112	0xbd9721df	-0.07379507
113	0xbb7c1572	-0.003846493
114	0xbd52dc99	-0.05147991
115	0xbe890080	-0.26758194
116	0x3d470673	0.048590135
117	0x3dd817e2	0.1055143
118	0x3de3b24f	0.11117994
119	0xbda679cb	-0.08128699
120	0xbd3a8289	-0.045534644
121	0xbe034c1c	-0.12822002
122	0x3e1ffe2d	0.15624304
123	0xbc53f70d	-0.012937319
124	0xbe2ad1ba	-0.16681567
125	0x3dc9b004	0.098480254
126	0xbe3a1f70	-0.18176055
127	0xbe1c2e7c	-0.15252107
128	0x3c7fa154	0.0156024285
129	0xbcfbf163	-0.03075475
130	0x3e1bdb92	0.15220478
131	0x3e7ffc7f	0.24998663
132	0xbdb5d384	-0.08878234
133	0x3d8c629a	0.06854744
134	0xbca014b3	-0.01954112
135	0xbca4c6de	-0.020114359
136	0x3db44b4e	0.08803426
137	0xbd4654cf	-0.048420724
138	0xbdb911c4	-0.09036592
139	0xbcd2b780	-0.025722265
140	0x3d464ad6	0.048411213
141	0x3e32ba54	0.17453891
142	0x3e316281	0.17322733
143	0x3e1af916	0.15134081
144	0x3e2480b5	0.16064723
145	0x3da4e9b9	0.080523916
146	0x3db1f93b	0.08690115
147	0xbe547184	-0.20746428
148	0xbc91f39c	-0.017816357
149	0x3e146b1c	0.14493984
150	0xbd0b409f	-0.033997174
151	0x3da21966	0.079150006
152	0x3e280272	0.16407183
153	0xbdb50d5c	-0.08840439
154	0x3e1ecd31	0.15507962
155	0x3db0745b	0.08615943
156	0xbd32404c	-0.04351835
157	0x3e17d0f4	0.14825803
158	0xbe7b003c	-0.24511808
159	0xbe392225	-0.18079431
160	0x3dcb301c	0.099212855
161	0x3e1f5032	0.15557936
162	0xbd2a6623	-0.04160131
163	0xbd6328c8	-0.055458814
164	0x3e2a0a91	0.16605593
165	0x3e0c147a	0.13679686
166	0xbd887b40	-0.06664133
167	0xbd43a714	-0.04776676
168	0x3ced6699	0.028979586
169	0xbe259c4a	-0.16172901
170	0xbe9fcd9e	-0.3121156
171	0x3da87825	0.08226041
172	0x3e4d5f0f	0.20055793
173	0x3d006593	0.03134687
174	0x3d16271b	0.036658388
175	0xbe13244b	-0.14369313
176	0xbe6451e1	-0.2229686
177	0xbe3265db	-0.17421667
178	0xbdafe804	-0.08589175
179	0x3ce47935	0.027889827
180	0xbdaf7958	-0.08568066
181	0xbdc39cac	-0.09551367
182	0x3e4249ac	0.18973416
183	0xbdfd75a0	-0.12375951
184	0xbd5d731a	-0.054064848
185	0xbe312065	-0.17297514
186	0xbea67c6c	-0.325168
187	0xbe3f524d	-0.18683739
188	0xbe875348	-0.26430726
189	0x3d817289	0.06320674
190	0xbe5c8bd3	-0.21537714
191	0xbdda5104	-0.10659984
192	0x3e724557	0.23659264
193	0x3e0a39c6	0.13498601
194	0xbe0393d3	-0.12849359
195	0x3ded0971	0.115740664
196	0xbe345bd8	-0.1761316
197	0xbcb5f92b	-0.02221354
198	0x3e40ebe5	0.18839987
199	0xbdb1e8f0	-0.086870074
200	0xbdd14d80	-0.1021986
201	0xbca165fd	-0.019701952
202	0x3e1d9246	0.1538783
203	0x3e84a948	0.259104
204	0xbe1f5369	-0.15559162
205	0xbea4a019	-0.32153395
206	0x3d1b041d	0.03784572
207	0xbcc3fffa	-0.02392577
208	0xbe134f13	-0.14385633
209	0xbe69ca7c	-0.22831148
210	0xbd13f570	-0.03612274
211	0x3dc489c7	0.095965914
212	0x3c951573	0.018198704
213	0x3cb71fb7	0.02235399
214	0xbe058f38	-0.13042915
215	0xbb06f1eb	-0.0020590972
216	0x3da7abc5	0.08187059
217	0x3dc79034	0.097443014
218	0x3e4b30fa	0.19842902
219	0x3d2d76b7	0.042349543
220	0x3eb823b3	0.35964736
221	0xbe652c69	-0.22380222
222	0xbe3e5f43	-0.18591027
223	0x3e638075	0.22216971
224	0xbc599afa	-0.013281578
225	0xbded60dc	-0.1159074
226	0xbdf67c1b	-0.1203539
227	0xbe1ab3d6	-0.15107664
228	0xbebf7062	-0.3739043
229	0xbe736f2e	-0.2377288
230	0xbb6600ca	-0.0035095685
231	0x3e31a66a	0.17348638
232	0x3e0901e9	0.13379635
233	0x3e02abc5	0.12760837
234	0xbe2ce983	-0.16885953
235	0x3e3c02f7	0.18360506
236	0xbea3fd52	-0.32029206
237	0xbe340929	-0.1758162
238	0x3e599eb1	0.21251942
239	0x3e362450	0.1778729
240	0x3e194c6a	0.14970556
241	0xbd41dea1	-0.047331456
242	0xbe6e90e9	-0.23297466
243	0x3e559744	0.20858485
244	0x3d3ed6df	0.046591636
245	0xbb44dcd3	-0.0030038848
246	0xbd7a76fc	-0.06114863
247	0x3c88e642	0.016711358
248	0xbda4403c	-0.08020064
249	0xbda261e8	-0.079288304
250	0xbe550760	-0.20803595
251	0x3d2e1765	0.04250278
252	0x3e04f329	0.12983383
253	0x3cdf26a8	0.027240112
254	0x3e2877cb	0.16451947
255	0xbe078f0f	-0.13238166

weight_hh_l1 f4 [80, 20]
0	0xbe12b2d7	-0.14326034
1	0xbd93af22	-0.07211138
2	0x3eaf66ac	0.3425802
3	0xbd5dfdaf	-0.05419701
4	0x3dacc0c4	0.084352046
5	0xbe761b42	-0.24033836
6	0x3e34dc7e	0.17662236
7	0xbe3f119d	-0.18659063
8	0xbe0cb6ee	-0.13741657
9	0xbe103b8c	-0.14085215
10	0xbd312286	-0.043245815
11	0xbddb111b	-0.10696622
12	0xbdb80508	-0.08985335
13	0xbc9a2d8e	-0.01882055
14	0x3e0cf1b9	0.13764085
15	0xbdce90df	-0.10086226
16	0xbd610a1e	-0.05494129
17	0xbe70b4fa	-0.23506537
18	0xbcfa88f0	-0.030582875
19	0x3c8df02f	0.017326443
20	0x3d83c0b5	0.0643324
21	0x3e8bdfaf	0.27319095
22	0x3dc4cb33	0.0960907
23	0xbdd7d8e6	-0.10539417
24	0xbd7e9042	-0.062149294
25	0x3c6844e6	0.014176583
26	0x3e54d475	0.20784171
27	0x3c8c5f15	0.017135182
28	0xbe5bb957	-0.2145742
29	0x3cc76579	0.024340378
30	0x3d7529c5	0.059854288
31	0xbe7d9513	-0.24763899
32	0xbcbd8721	-0.023135724
33	0x3e1d978c	0.15389842
34	0xbde07a48	-0.10960823
35	0xbeaaa392	-0.3332792
36	0x3dce5d55	0.100763954
37	0x3cd24eaa	0.025672276
38	0xbe6269e7	-0.22110711
39	0xbe31b430	-0.17353892
40	0xbdad3610	-0.08457577
41	0x3e519677	0.20467554
42	0xbdefc144	-0.11706784
43	0x3dc53593	0.09629359
44	0xbe708872	-0.2348955
45	0xbc97e82f	-0.018543331
46	0x3da2c0aa	0.07946904
47	0xbebd00db	-0.36914715
48	0x3d22a750	0.039710343
49	0x3dc10188	0.0942412
50	0x3dff1ad3	0.12456288
51	0xbe049c5a	-0.12950268
52	0x3dde76e0	0.10862517
53	0x3e9b57a0	0.3034029
54	0xbda14f1d	-0.07876418
55	0xbe8e852d	-0.2783598
56	0x3e7baf69	0.24578632
57	0xbe5d8e35	-0.21636279
58	0xbe03805b	-0.12841932
59	0x3e2e0c96	0.16996989
60	0x3d9fd321	0.078039415
61	0xbe2bbd3c	-0.16771406
62	0xbd463c90	-0.0483976
63	0x3e0a6cc0	0.13518047
64	0x3ddb6dd2	0.10714306
65	0xbe65f17d	-0.22455402
66	0x3c908dd6	0.017645758
67	0x3d8dd150	0.06924689
68	0xbe1910bf	-0.14947794
69	0xbd92e8bb	-0.07173296
70	0x3e070369	0.13184895
71	0x3d9e2b63	0.07723119
72	0xbe02eea4	-0.12786347
73	0xbd4a5644	-0.049398676
74	0xbdf79442	-0.12088825
75	0xbde555d8	-0.11198014
76	0x3de6ab21	0.11263109
77	0xbcf31384	-0.029672392
78	0xbe28001d	-0.16406293
79	0x3e3a849f	0.18214653
80	0xbd48583f	-0.048912283
81	0x3d18decd	0.037321854
82	0x3e49ed89	0.19719519
83	0x3e03d91c	0.1287579
84	0x3e25a6d4	0.16176921
85	0xbe609cbe	-0.21934792
86	0x3df8ed87	0.1215468
87	0xbe66129b	-0.22468035
88	0x3e049b85	0.12949951
89	0x3e8d7790	0.2763028
90	0x3e4bdf21	0.19909336
91	0x3cced974	0.025250174
92	0xbdb0fef7	-0.08642381
93	0x3df593c6	0.11991076
94	0xbe08dc44	-0.13365275
95	0x3da8631d	0.08222029
96	0xbe0302b0	-0.12793994
97	0x3d3406ea	0.043951906
98	0x3e612e42	0.21990302
99	0x3df26f9c	0.11837694
100	0xbc20854b	-0.0097974045
101	0x3e49c43b	0.19703762
102	0xbd8bd078	-0.06826872
103	0xbdaaa154	-0.08331552
104	0x3e153f21	0.14574863
105	0xbe35b71e	-0.17745635
106	0xbe2a3766	-0.16622695
107	0xbe63bd47	-0.22240172
108	0x3e5079bb	0.20358936
109	0x3e1e24ce	0.15443727
110	0x3e8427ef	0.25811717
111	0x3d9818e6	0.07426624
112	0xbd806718	-0.062696636
113	0x3e171bcd	0.14756699
114	0xbe14d2d1	-0.14533545
115	0xbd9c9997	-0.076464824
116	0xbe11a2c5	-0.14222248
117	0xbe36b28c	-0.17841548
118	0xbdad5517	-0.08463495
119	0x3e60b54f	0.21944164
120	0x3db2d2b8	0.08731598
121	0x3d343411	0.043994967
122	0xbc6f6bf0	-0.014613137
123	0xbe53ae19	-0.20671882
124	0x3d73b2b5	0.0594966
125	0x3bf876c1	0.007582516
126	0x3d091d9a	0.033475496
127	0x3cfcf3d7	0.03087799
128	0xbe7c5bcc	-0.24644393
129	0xbce19f3b	-0.027541747
130	0x3e220ba5	0.15824755
131	0x3e904a19	0.28181532
132	0xbe50a9a3	-0.20377211
133	0x3e058dab	0.13042323
134	0x3ce87469	0.028375821
135	0x3e26e224	0.16297203
136	0x3dbbfb42	0.09178783
137	0xbe9109ec	-0.28327882
138	0xbd4b2939	-0.04959986
139	0xbc9d4e7c	-0.019202463
140	0xbe48c02c	-0.19604558
141	0x3e4e4ccf	0.20146488
142	0x3e5f7a4f	0.21824001
143	0xbc709dbb	-0.014686043
144	0xbdf580fc	-0.119874924
145	0xbe7321e8	-0.23743403
146	0xbe5aee39	-0.21379937
147	0xbe91433a	-0.28371602
148	0xbdc35105	-0.095369376
149	0xbd37389b	-0.044731718
150	0x3e11d06f	0.14239667
151	0x3d6b6d02	0.057477005
152	0x3e48af96	0.1959823
153	0x3dd9e4b7	0.10639327
154	0xbedea9be	-0.43488878
155	0xbd3555f1	-0.044271413
156	0x3e5414e2	0.20711091
157	0xbe30a928	-0.17252028
158	0xbc7b5168	-0.015339233
159	0x3d8e54d3	0.06949773
160	0x3da93518	0.0826208
161	0xbd3ac366	-0.045596503
162	0xbe2dd31e	-0.16975066
163	0xbe0b537d	-0.13606067
164	0x3ce26e06	0.027640354
165	0xbe740ade	-0.2383227
166	0x3de52f87	0.11190706
167	0xbda2f83b	-0.079575025
168	0x3dd41ef7	0.103574686
169	0x3c15c5ad	0.009141368
170	0xbc99f119	-0.018791722
171	0x3cd01c81	0.025404217
172	0x3e286434	0.16444474
173	0xbe191aff	-0.14951704
174	0xbd87ba8c	-0.06627378
175	0x3dd5a4a1	0.10431791
176	0x3b85047e	0.0040593734
177	0xbe77715f	-0.24164341
178	0x3d914616	0.07093446
179	0x3e0b3460	0.13594198
180	0xbe36b23f	-0.17841433
181	0x3db451f7	0.08804696
182	0xbd654e07	-0.055982616
183	0xbd01c94e	-0.03168612
184	0xbd6fee85	-0.05857708
185	0x3d44f9a7	0.04808965
186	0x3e32274d	0.17397805
187	0x3d6112c5	0.05494954
188	0x3e7da390	0.24769425
189	0xbd9ab2dd	-0.07553647
190	0x3e967406	0.29385394
191	0x3e30ac78	0.17253292
192	0xbe8cdaf9	-0.27510813
193	0xbe374c60	-0.17900229
194	0x3e8f5cfa	0.28000623
195	0x3df3e0cf	0.11908113
196	0xbeacf797	-0.33782646
197	0x3d8e8e5a	0.06960745
198	0x3e50c898	0.2038902
199	0xbdaddbf4	-0.08489218
200	0x3e0267f5	0.12734969
201	0xbde83023	-0.11337306
202	0x3e419be7	0.18907128
203	0xbd4f4b3b	-0.050608855
204	0xbd720b94	-0.059093073
205	0xbe4cd4ed	-0.200031
206	0x3dd44357	0.103644066
207	0xbd2a6fd0	-0.04161054
208	0x3e31d983	0.1736813
209	0xbd921093	-0.071320675
210	0x3e6e48da	0.23269978
211	0x3e8b7cc3	0.27243623
212	0xbe1c3abd	-0.15256782
213	0x3e1fd6dd	0.15609308
214	0x3d1e3fb0	0.038634956
215	0x3df2e207	0.118595175
216	0xbe9e2d57	-0.30893967
217	0xbe149a10	-0.14511895
218	0xbcf52fcc	-0.029930018
219	0xbe07c2e2	-0.13257936
220	0xbdcc51f1	-0.099765666
221	0xbd4509e6	-0.048105143
222	0x3e7e230b	0.24818055
223	0xbdc1d9b9	-0.094653554
224	0x3dafc2a5	0.085820474
225	0xbe915102	-0.28382117
226	0x3ef612e0	0.48061275
227	0xbf0152be	-0.5051688
228	0x3ef1717d	0.47156897
229	0x3e93514e	0.28772968
230	0x3dffdb6e	0.12493025
231	0x3bdf2f08	0.0068110265
232	0xbe99a5c2	-0.30009276
233	0xbe2b94d5	-0.16755994
234	0x3e819d17	0.25315163
235	0x3d7bd94f	0.06148654
236	0xbea1e170	-0.31617308
237	0xbe56f655	-0.20992406
238	0x3cf6c058	0.030121014
239	0x3e0c5a66	0.1370636
240	0xbd783886	-0.06060078
241	0xbdc34602	-0.09534837
242	0x3de7d8df	0.11320662
243	0xbd9c326b	-0.07626804
244	0x3d65d773	0.05611367
245	0xbe4546d9	-0.19265307
246	0x3e3df324	0.18549782
247	0xbdef40c9	-0.11682279
248	0x3d298a1b	0.041391473
249	0x3e0ceaf7	0.13761507
250	0x3eaac62a	0.33354312
251	0xbd94f822	-0.0727389
252	0xbea55cca	-0.32297355
253	0xbe7834cb	-0.24238889
254	0x3e8afc59	0.2714565
255	0xbd997d6d	-0.07494626

bias_ih_l1 f4 [80]
0	0xbe057e24	-0.130364
1	0x3ddd28cf	0.10798799
2	0x3d8c2798	0.068434894
3	0x3da6aee8	0.081388295
4	0xbe0511e7	-0.1299511
5	0x3e614461	0.2199874
6	0xbdc0d637	-0.09415858
7	0xbe66dbd3	-0.22544794
8	0xbd3b509b	-0.04573117
9	0xbd96d806	-0.07365422
10	0x3e76b993	0.24094228
11	0x3e2928a9	0.16519417
12	0x3eb2f105	0.34949508
13	0x3db8648b	0.09003552
14	0xbd190ff6	-0.037368737
15	0xbd7087ff	-0.058723446
16	0x3e52f828	0.20602477
17	0x3d93c9bd	0.07216213
18	0x3e1af24e	0.15131494
19	0xbd3a46fe	-0.04547786
20	0xbc89af05	-0.016807089
21	0xbe38f3a9	-0.18061699
22	0x3eca05e0	0.39457607
23	0xbd91ea42	-0.07124759
24	0x3e1a19b3	0.15048866
25	0x3d6c1305	0.057635326
26	0x3e8f33d4	0.2796923
27	0x3eafefe0	0.34362698
28	0x3defdd02	0.11712076
29	0x3e9346d9	0.2876499
30	0x3d2bc07d	0.041931618
31	0xbd5776c2	-0.05260349
32	0xbd188af4	-0.03724189
33	0x3e6e61c7	0.23279487
34	0xbe1b31a4	-0.15155655
35	0x3e0c8723	0.13723426
36	0x3dcb5f90	0.099303365
37	0x3e85b027	0.26110956
38	0xbdfce1aa	-0.123477295
39	0x3c3a30e8	0.011364199
40	0xbdf0e26f	-0.11761939
41	0x3d1d8b65	0.038463015
42	0x3c403d13	0.011733311
43	0xbd86ab7d	-0.065756775
44	0x3e0760d1	0.13220526
45	0xbe4e3d7b	-0.2014064
46	0x3dcd22b5	0.100163855
47	0x3d4a16e9	0.049338255
48	0x3d8f2dcd	0.06991158
49	0x3e584afc	0.21122354
50	0x3d0b7d71	0.034055177
51	0x3e728eab	0.23687236
52	0x3cdc3108	0.026878849
53	0xbccbb186	-0.024864923
54	0xbdc30ea7	-0.09524279
55	0x3ca141e6	0.019684743
56	0xbe733156	-0.23749289
57	0xbe22bccf	-0.15892337
58	0xbdcddf13	-0.10052314
59	0xbd6ae495	-0.0573469
60	0x3dd3b207	0.103366904
61	0xbe274d9a	-0.16338196
62	0x3e5e259d	0.21694036
63	0x3e8ac016	0.27099675
64	0x3e6a784d	0.22897454
65	0xbc908f16	-0.017646354
66	0x3e7e648d	0.24843045
67	0xbd8328a2	-0.064042345
68	0x3e12f9f2	0.14353159
69	0x3e8ab0c6	0.27087992
70	0x3e58d269	0.21174015
71	0x3e0dac78	0.13835323
72	0x3ea12d3e	0.3147983
73	0x3e27f601	0.16402437
74	0x3e4cea23	0.20011191
75	0x3e41bd11	0.1891978
76	0x3e3d7146	0.18500242
77	0xbd12d0fe	-0.03584384
78	0xbb968104	-0.0045930166
79	0x3ea6b7c1	0.32562068

bias_hh_l1 f4 [80]
0	0x3cfa040d	0.03051951
1	0x3d43e593	0.04782636
2	0xbd39db55	-0.045375187
3	0x3e8a3ebb	0.27000985
4	0xbce486a6	-0.027896237
5	0xbc11ab36	-0.0088909175
6	0xbe047036	-0.1293343
7	0xbd2b17b8	-0.041770667
8	0x3ce43533	0.027857399
9	0x3caaec4a	0.020864625
10	0xbd0e9e57	-0.034818973
11	0x3e0a3b68	0.13499224
12	0x3ec7b16f	0.3900256
13	0xbdf25799	-0.11833114
14	0xbdd17fe1	-0.10229469
15	0xbdbddef3	-0.0927104
16	0xbe08321b	-0.13300364
17	0x3de588f9	0.11207766
18	0xbd1702c9	-0.03686789
19	0xbc685c64	-0.014182184
20	0xbd82f602	-0.063945785
21	0xbd8e48b5	-0.069474615
22	0x3ebfd239	0.37465075
23	0x3d53db4d	0.051722813
24	0x3d789993	0.060693335
25	0x3e7d46c7	0.2473403
26	0x3e8240cc	0.2544006
27	0x3e8134c3	0.25235566
28	0x3e07ec6b	0.1327378
29	0xbcd1ea0f	-0.025624303
30	0xbe2470d1	-0.16058661
31	0x3e84fe7d	0.2597541
32	0x3eab9cdb	0.3351811
33	0x3e444250	0.19165921
34	0x3e3efbd8	0.18650758
35	0xbd6a784d	-0.057243634
36	0x3da50594	0.080577046
37	0x3e6f9656	0.23397192
38	0x3c89ccac	0.016821228
39	0x3e83d11b	0.25745472
40	0xbe6423c3	-0.22279267
41	0x3d1c305b	0.038132053
42	0x3e4c841f	0.19972275
43	0x3d7864fb	0.060643177
44	0x3e02481e	0.12722823
45	0xbe3d180b	-0.18466203
46	0x3df689e8	0.12038022
47	0xbd0a042f	-0.033695396
48	0xbd401b51	-0.04690105
49	0xbcbbb39c	-0.022912793
50	0xbb9da474	-0.004810864
51	0x3cc0db14	0.023541965
52	0xbe3e4057	-0.18579231
53	0xbcf0cd42	-0.02939475
54	0x3da109d8	0.07863206
55	0x3d7e41c1	0.062074427
56	0xbd29ef74	-0.041488126
57	0xbe3ff03a	-0.18743983
58	0x3e4e3cb0	0.20140338
59	0x3e18bcd6	0.14915785
60	0x3e3b6b16	0.18302569
61	0x3d0b2b0d	0.033976603
62	0xbb5a5099	-0.00333122
63	0x3cdc7930	0.026913255
64	0x3d0a35ac	0.03374259
65	0x3e7096e7	0.23495065
66	0x3e52d07a	0.2058734
67	0xbb4e6a0d	-0.0031496317
68	0xbb59e980	-0.003325075
69	0x3db75f26	0.08953695
70	0x3e4f959b	0.20271914
71	0x3d158eef	0.036513265
72	0x3de8c717	0.113660984
73	0xbdb8ec8b	-0.09029492
74	0x3de6efde	0.1127622
75	0x3e245aaf	0.16050218
76	0x3d7ad2ca	0.06123618
77	0x3e881f45	0.26586357
78	0x3e33d090	0.17560029
79	0x3df916c1	0.12162543

weight_ih_l2 f4 [80, 20]
0	0xbdf5305e	-0.11972116
1	0xbcdbb169	-0.026817994
2	0x3dbe77de	0.093002066
3	0xbe46a589	-0.19399084
4	0x3e117500	0.14204788
5	0x3de1c7ae	0.11024414
6	0x3e91f300	0.28505707
7	0x3b577c80	0.0032880604
8	0x3dac36a4	0.08408859
9	0x3e4bc582	0.19899562
10	0xbd465a78	-0.04842612
11	0x3c76a79f	0.015054612
12	0x3d91befe	0.07116507
13	0xbd482e7d	-0.04887246
14	0x3de6a967	0.1126278
15	0xbc8432aa	-0.01613744
16	0xbdff567c	-0.124676675
17	0x3da5bf80	0.08093166
18	0xbd1f5198	-0.038896173
19	0x3dae8a65	0.085224904
20	0xbe4f2582	-0.20229152
21	0x3e8aa53e	0.27079195
22	0xbc6194ba	-0.013768369
23	0xbd9eb669	-0.07749636
24	0x3d0085ea	0.03137771
25	0xbe09a306	-0.13441095
26	0x3e89d519	0.26920393
27	0xbd835371	-0.064123996
28	0x3dd5918e	0.10428153
29	0x3e92ff14	0.28710234
30	0xbd44c6dd	-0.048041213
31	0x3e4e187c	0.20126528
32	0xbeb016b4	-0.3439232
33	0xbc14fb0b	-0.009093056
34	0xbdeddf90	-0.11614907
35	0x3d6cc9d7	0.057809677
36	0xbe472fcb	-0.19451825
37	0x3c8466ca	0.016162295
38	0xbd8fccef	-0.0702151
39	0x3da0fb6e	0.078604564
40	0xbd2ade98	-0.04171619
41	0x3e2b7a90	0.16745973
42	0xbbc75036	-0.00608256
43	0x3e089fdb	0.1334223
44	0xbd9ae564	-0.07563284
45	0x3d35f260	0.0444206
46	0x3e1fcaae	0.1560466
47	0x3dd03494	0.101662785
48	0x3ccebee1	0.025237503
49	0x3e2d466a	0.16921392
50	0x3e6dc99f	0.23221444
51	0x3ed295e0	0.4112997
52	0xbe115cdc	-0.1419558
53	0x3def0e5f	0.11672663
54	0xbe6e19ec	-0.23252076
55	0xbdd71757	-0.105024986
56	0xbd2c67da	-0.042091228
57	0xbe958d62	-0.2920943
58	0xbe61cddd	-0.22051187
59	0x3e65ceb9	0.2244214
60	0xbd19d2c6	-0.037554525
61	0xbe0f15b7	-0.13973127
62	0xbd3be741	-0.045874838
63	0xbe449404	-0.19197088
64	0xbda96d33	-0.08272781
65	0x3d375206	0.044755958
66	0x3e22ea76	0.15909752
67	0xbe8942e7	-0.26808855
68	0x3e04c986	0.129675
69	0x3e91267d	0.28349677
70	0xbd70e46f	-0.0588116
71	0x3d901682	0.07035543
72	0xbd81a2c2	-0.06329872
73	0x3d5499c4	0.051904455
74	0xbdf17388	-0.11789614
75	0x3e42b763	0.19015269
76	0xbcd93aea	-0.02651735
77	0xbd80e94b	-0.06294497
78	0x3d95b7ec	0.07310471
79	0xbc99aac1	-0.01875818
80	0xbe8f1a90	-0.27949953
81	0x3daf1875	0.08549587
82	0xbda6b2c3	-0.08139565
83	0xbe63db20	-0.22251558
84	0x3e8b7450	0.27237177
85	0xbe9d427a	-0.3071478
86	0xbcd6fc59	-0.026243376
87	0xbe71a99d	-0.23599859
88	0xbe1fad9e	-0.15593573
89	0x3e9ae724	0.3025447
90	0x3eaf6268	0.34254766
91	0x3e20d3aa	0.15705743
92	0xbe0309bf	-0.12796687
93	0xbe89b9e2	-0.2689963
94	0x3ea7fa78	0.3280828
95	0x3dd304e7	0.103036694
96	0xbd5f50d7	-0.054520454
97	0xbbed52e3	-0.007242547
98	0x3d1ee116	0.038788877
99	0xbc0e9a65	-0.008703803
100	0xbdcf8cc8	-0.10134274
101	0x3d4ddfd0	0.050262272
102	0x3e6d35b1	0.23165013
103	0x3de3ceeb	0.11123451
104	0x3e8fa9aa	0.2805913
105	0x3d8cb491	0.06870378
106	0x3ea91f9b	0.33031926
107	0xbda8b29d	-0.08237193
108	0xbca4416e	-0.02005073
109	0x3e42fbd2	0.19041374
110	0x3db14c03	0.08657076
111	0x3ddb8d0e	0.107202634
112	0xbe978e92	-0.2960096
113	0xbc850c74	-0.01624129
114	0x3ee05587	0.43815252
115	0xbe01b89d	-0.1266808
116	0xbdaba938	-0.08381885
117	0x3e07e005	0.1326905
118	0xbc488132	-0.012237834
119	0x3d170c4f	0.036876973
120	0xbdddfb61	-0.10838962
121	0xbe10a452	-0.14125183
122	0xbe0d61a3	-0.13806777
123	0xbdfdc838	-0.12391704
124	0x3ec139b2	0.3773933
125	0xbc98ba22	-0.018643443
126	0x3e340409	0.17579664
127	0x3d2e3076	0.042526685
128	0xbb7fb1e3	-0.003901594
129	0xbc33cdae	-0.010974331
130	0x3e1db05d	0.15399309
131	0x3e9c84c2	0.30570036
132	0xbdd14e3a	-0.10219999
133	0x3dc6bbb9	0.09703774
134	0x3e5675de	0.209434
135	0x3e28cd7c	0.16484636
136	0x3d950a90	0.07277405
137	0xbe7b20df	-0.24524258
138	0xbe2053e5	-0.15657003
139	0xbd977274	-0.07394877
140	0xbe9170f0	-0.28406477
141	0x3baea1db	0.0053293533
142	0xbce4290c	-0.027851604
143	0xbd855326	-0.0651
144	0x3d69f7ab	0.05712096
145	0x3ded6756	0.115919754
146	0xbd7b2410	-0.06131369
147	0xbe2dafe4	-0.16961628
148	0xbdfd1279	-0.12357039
149	0x3e0b950d	0.13631077
150	0x3e97d4ca	0.29654533
151	0x3e9b621f	0.30348298
152	0xbe36732a	-0.17817369
153	0x3e7b6883	0.24551587
154	0x3dc9bc21	0.09850336
155	0x3db03705	0.08604244
156	0xbd8d3f18	-0.068968
157	0xbdfc5510	-0.12320912
158	0xbd411b84	-0.04714538
159	0x3dd29780	0.102828026
160	0x3dcd52c3	0.10025551
161	0xbe0240b7	-0.12719999
162	0xbd6403e8	-0.055667788
163	0x3d394d39	0.04523966
164	0xbe0a422b	-0.13501804
165	0x3d9299e7	0.07158261
166	0x3dec058f	0.11524498
167	0xbec77aab	-0.38960776
168	0x3e995006	0.29943866
169	0x3e099d24	0.1343885
170	0xbc504c56	-0.012713512
171	0x3ce21d03	0.027601724
172	0xbdd46941	-0.10371638
173	0x3d302558	0.043004364
174	0x3d9378cb	0.07200774
175	0xbde3b6e7	-0.1111887
176	0x3d32de94	0.0436693
177	0xbe5e7a7d	-0.21726413
178	0xbe755ed1	-0.23961951
179	0xbd684bb7	-0.056712832
180	0xbdcdfb3a	-0.10057683
181	0x3c1fca0c	0.009752762
182	0x3e4b2c7c	0.19841188
183	0xbdd6c5db	-0.10486957
184	0x3e25a584	0.1617642
185	0xbe1b63fa	-0.15174857
186	0xbde770a2	-0.1130078
187	0xbd71ff1c	-0.059081182
188	0xbc885a64	-0.016644664
189	0x3dfb778c	0.12278661
190	0x3d2d71f3	0.042345
191	0x3e029ae6	0.12754402
192	0xbe2acf31	-0.166806
193	0xbdfaf5f5	-0.12253944
194	0xbb951cf0	-0.0045505688
195	0xbe295861	-0.1653762
196	0x3ba8f873	0.0051565706
197	0xbdb7e476	-0.08979122
198	0x3c77da24	0.015127692
199	0x3e82a37e	0.2551536
200	0x3dde350e	0.10849963
201	0x3e2a7b62	0.1664863
202	0xbd9e4b93	-0.077292584
203	0x3dd54daf	0.104152076
204	0xbcda1184	-0.02661968
205	0xbe3ce62d	-0.1844718
206	0x3e85f6f3	0.2616497
207	0x3aeb61d2	0.001795823
208	0xbdb19a46	-0.086720034
209	0x3e2ae85f	0.16690205
210	0xbda20546	-0.07911162
211	0xbe092fc1	-0.13397123
212	0xbe38efd4	-0.18060237
213	0x3dd7b330	0.10532224
214	0x3e2cdf6c	0.16882104
215	0x3e18be91	0.14916445
216	0xbe5c759b	-0.21529238
217	0x3e341971	0.1758783
218	0xbe8aed20	-0.27134037
219	0x3da95b83	0.082694076
220	0xbde0323e	-0.10947083
221	0x3ddc0c7f	0.10744571
222	0x3e0fa30e	0.14027044
223	0xbdb5d7af	-0.08879029
224	0x3e50d7a1	0.20394756
225	0x3d5f9713	0.054587435
226	0x3dbd13e7	0.09232312
227	0xbe814d4b	-0.25254282
228	0xbd821ba6	-0.0635293
229	0x3e958d2b	0.29209265
230	0xbd7011b9	-0.05861065
231	0x3eaaf170	0.33387327
232	0xbe390f46	-0.18072233
233	0xbe398e55	-0.18120702
234	0xbea0ff4d	-0.3144478
235	0xbe47cd27	-0.19511853
236	0xbea630c6	-0.32459086
237	0xbeba3179	-0.3636587
238	0xbe7e148b	-0.24812524
239	0xbcc1b69a	-0.023646642
240	0xbd039712	-0.032126494
241	0x3df60c93	0.12014117
242	0x3ddacd63	0.10683706
243	0xbd3972c3	-0.04527546
244	0x3d5e9c1d	0.0543481
245	0x3d644fab	0.05574004
246	0x3c4c79fd	0.012480256
247	0xbd32fd21	-0.043698434
248	0x3e802f89	0.25036266
249	0xbd8401c4	-0.06445649
250	0x3ea2f00e	0.31823772
251	0xbd988748	-0.07447678
252	0x3d516f1c	0.051131353
253	0x3dc4a6ba	0.09602113
254	0x3e75c9cb	0.24002759
255	0xbe1765d4	-0.14784938

weight_hh_l2 f4 [80, 20]
0	0xbd857212	-0.06515898
1	0xbdd0bff1	-0.1019286
2	0xbe2ed3ac	-0.17072934
3	0x3db982ac	0.09058127
4	0x3dde319d	0.10849307
5	0x3eb204a6	0.3476917
6	0x3e497741	0.19674398
7	0xbe0230d7	-0.12713943
8	0xbe670ff1	-0.22564675
9	0x3d6cc53e	0.057805292
10	0xbc9fe0b4	-0.019516326
11	0xbd8dec06	-0.069297835
12	0x3d06459f	0.03278124
13	0x3e28b889	0.16476645
14	0xbe27481e	-0.16336104
15	0x3e6b7f22	0.22997716
16	0xbdd307d8	-0.103042305
17	0xbd25b8da	-0.04045949
18	0xbddaeb02	-0.106893554
19	0x3cab5390	0.02091387
20	0xbd4a18a9	-0.049339924
21	0x3e07d27a	0.13263884
22	0x3de479cc	0.111560434
23	0xbc9ca32e	-0.019120779
24	0xbd8a3a40	-0.067493916
25	0xbe06ccac	-0.13164014
26	0x3e5da3b5	0.2164448
27	0xbddbab25	-0.107260026
28	0x3e71da03	0.23618321
29	0xbb0eaf56	-0.0021771989
30	0x3e5d6955	0.21622212
31	0x3d42110e	0.047379546
32	0xbce6ad00	-0.028158665
33	0x3da02ae2	0.07820679
34	0xbde07b5d	-0.1096103
35	0xbc9efbad	-0.019407118
36	0x3da831a8	0.08212596
37	0xbe6dd947	-0.23227416
38	0x3d8a97ca	0.06767233
39	0x3d85705f	0.06515574
40	0x3dac0fd9	0.0840146
41	0x3e358fd7	0.17730652
42	0x3d8eb9c4	0.06969026
43	0xbe13fdf1	-0.1445234
44	0xbdc39074	-0.095490366
45	0x3d8d22ab	0.06891378
46	0xbdc6332a	-0.096777275
47	0xbe1838a8	-0.14865363
48	0x3e3de2e8	0.18543589
49	0x3d0cb71c	0.034354314
50	0x3d3de892	0.046364374
51	0x3e101e48	0.14074051
52	0x3d1244eb	0.035710257
53	0x3d78c010	0.06073004
54	0xbd706bfd	-0.058696736
55	0x3e317990	0.17331529
56	0xbd761b0d	-0.06008439
57	0xbd1ede95	-0.03878649
58	0x3e0fc97d	0.14041705
59	0xbe4721b9	-0.19446458
60	0x3db490d7	0.088166885
61	0xbd4a92bd	-0.049456347
62	0xbe592630	-0.21205974
63	0x3d8cbad9	0.06871576
64	0xbd743b19	-0.059626672
65	0x3e7503f7	0.23927294
66	0xbe00933f	-0.1255617
67	0x3d7684fd	0.06018542
68	0x3d32c55b	0.043645244
69	0x3e634f5d	0.22198243
70	0x3dc38ee5	0.09548739
71	0x3e2e4082	0.17016795
72	0xbc5b85e3	-0.01339862
73	0x3cc87ffd	0.024475092
74	0x3e09a5f7	0.13442217
75	0x3dc51d43	0.09624722
76	0x3e3eb4ac	0.18623608
77	0x3e84fbc7	0.2597334
78	0xbdad292d	-0.08455119
79	0x3e0ff1a0	0.14057016
80	0x3dd8037a	0.10547538
81	0xbe6f36fc	-0.23360819
82	0xbe5c4ce6	-0.2151371
83	0xbe488ebf	-0.19585703
84	0x3c883aa7	0.01662953
85	0xbd7d058f	-0.06177288
86	0xbe153fa5	-0.1457506
87	0x3e98420e	0.29737896
88	0xbe2a7fae	-0.16650268
89	0x3e0a9422	0.1353307
90	0xbe22030f	-0.1582148
91	0xbd4b7747	-0.0496743
92	0x3d691e0e	0.056913428
93	0x3df11e14	0.11773315
94	0x3d366a85	0.04453518
95	0x3e9c1e06	0.30491656
96	0x3cdeea19	0.027211236
97	0xbd1431a1	-0.036180142
98	0xbe57894b	-0.21048467
99	0xbe34da2f	-0.17661355
100	0x3eac5c80	0.33664322
101	0xbd04bb77	-0.032405343
102	0xbe64c352	-0.22340134
103	0xbed91b78	-0.4240377
104	0xbde656a3	-0.112469934
105	0x3e74bacd	0.23899384
106	0xbe03e408	-0.12879956
107	0x3e5304f4	0.20607358
108	0x3d506c42	0.050884493
109	0xbca74c87	-0.020422233
110	0xbe72675c	-0.23672241
111	0xbd64675d	-0.055762637
112	0x3d94d99f	0.072680704
113	0x3d31929e	0.043352716
114	0x3e4b7117	0.19867359
115	0x3e0953db	0.13410895
116	0xbd26db42	-0.040736444
117	0xbda17d86	-0.0788527
118	0xbe57fa12	-0.21091488
119	0xbaf6c6b1	-0.0018827525
120	0x3e5b71af	0.21430086
121	0x3e14dfbd	0.14538474
122	0x3e1a1136	0.15045628
123	0xbe892390	-0.26784945
124	0x3ca8125d	0.020516569
125	0xbe0967f9	-0.13418569
126	0xbd9d6512	-0.07685293
127	0x3e12ddd6	0.14342436
128	0x3dcdd48b	0.10050305
129	0xbd5f5c40	-0.054531336
130	0xbc9e2622	-0.019305293
131	0x3cb797aa	0.022411186
132	0x3d244ef3	0.040114354
133	0xbe98c97b	-0.29841217
134	0x3e51107b	0.20416443
135	0xbcfc7e3a	-0.030821908
136	0x3e3a2631	0.18178631
137	0x3e4d6bf3	0.2006071
138	0xbdaa7b83	-0.08324339
139	0xbe5746c3	-0.21023087
140	0x3dce80c0	0.10083151
141	0xbe2cef6f	-0.16888212
142	0xbde3871f	-0.11109757
143	0xbc4ed661	-0.012624354
144	0xbe25b5fe	-0.16182706
145	0x3e716ac2	0.23575881
146	0xbd360d80	-0.04444647
147	0x3e7de16a	0.2479302
148	0x3dd3cb35	0.10341493
149	0x3d127cb7	0.03576347
150	0xbe0fb296	-0.14032969
151	0x3d694474	0.056950048
152	0xbe077e3d	-0.1323175
153	0x3e2ae038	0.16687095
154	0xbde9ddd0	-0.114192605
155	0x3dfec8a0	0.1244061
156	0xbe09bfc2	-0.13452056
157	0xbe1dc009	-0.15405287
158	0x3deb45df	0.11487936
159	0xbd92e62a	-0.071728066
160	0xbdc4f4bf	-0.09616994
161	0xbe28a932	-0.16470793
162	0xbde235d4	-0.11045423
163	0xbbb5f28f	-0.005552597
164	0xbe9fb651	-0.31193784
165	0x3e800a7b	0.25007996
166	0x3e1d729b	0.1537575
167	0x3e499b6e	0.19688198
168	0xbe4d1488	-0.20027363
169	0x3da975f3	0.0827445
170	0x3dddfda4	0.10839394
171	0x3e856c7c	0.2605933
172	0x3dc8279c	0.0977318
173	0xbe9acda3	-0.30235013
174	0x3dfd3523	0.12363651
175	0xbd9f8861	-0.07789684
176	0xbd1ba4dd	-0.037999023
177	0x3dbb280a	0.09138496
178	0xba8c1b83	-0.0010689351
179	0xbd702c7e	-0.05863618
180	0xbd63f0a3	-0.05564941
181	0xbddbf0cc	-0.10739288
182	0xbc0ad673	-0.00847398
183	0xbe552ff3	-0.20819072
184	0xbdf671f0	-0.120334506
185	0x3e3fee10	0.18743157
186	0x3d011561	0.03151453
187	0xbe0baf5c	-0.13641113
188	0xbd02367d	-0.031790245
189	0xbe0edd59	-0.13951625
190	0x3e105368	0.14094317
191	0xbd294887	-0.041328933
192	0x3e15c63f	0.14626406
193	0xbe5298ef	-0.20566152
194	0xbdcefdfd	-0.10107038
195	0x3da6df88	0.08148104
196	0x3a8d4897	0.001077908
197	0x3d6d3492	0.057911463
198	0xbdafe4f2	-0.0858859
199	0x3e620704	0.22072989
200	0x3e1a33fe	0.15058896
201	0xbca4f0ba	-0.020134319
202	0x3c7abeaf	0.015304252
203	0x3db7dac9	0.08977277
204	0x3de7c787	0.11317354
205	0x3ddcf02c	0.10787997
206	0xbde62aee	-0.11238657
207	0x3e49d9be	0.19711968
208	0xbd80958b	-0.06278523
209	0x3e30f4fe	0.17280957
210	0xbe195bef	-0.14976476
211	0x3dc90200	0.098148346
212	0xbe656046	-0.22400007
213	0xbc6b6bde	-0.014368979
214	0x3ddd960a	0.10819633
215	0xbd8bfa23	-0.06834819
216	0x3df97999	0.12181396
217	0xbd1dd6bb	-0.03853486
218	0xbe0eb764	-0.13937145
219	0x3bdd2de0	0.0067498535
220	0x3e2d051c	0.1689648
221	0x3e45a0b3	0.19299583
222	0x3d74dec8	0.059782773
223	0xbe6443c2	-0.22291473
224	0xbe7df27d	-0.24799533
225	0x3e912762	0.2835036
226	0x3e643bc5	0.22288425
227	0x3b3611e0	0.002778165
228	0xbe050ace	-0.12992403
229	0xbe110f22	-0.14165929
230	0x3a988b79	0.0011638246
231	0x3cf4ff2b	0.02990683
232	0x3cf6b8a0	0.030117333
233	0xbbcb580f	-0.0062055658
234	0x3e1016f7	0.1407126
235	0xbdc076d5	-0.093976654
236	0xbe10be9d	-0.14135213
237	0xbda1f251	-0.07907546
238	0x3e643f89	0.22289862
239	0xbd87d32c	-0.06632075
240	0x3c2e6931	0.010645197
241	0xbdda8cb5	-0.10671369
242	0x3e455dfb	0.19274132
243	0xbe5b1696	-0.21395335
244	0xbe33b7f9	-0.17550649
245	0x3e2d5089	0.16925253
246	0xbd05903b	-0.032608252
247	0x3df57cc7	0.1198669
248	0x3d0a4502	0.033757217
249	0x3e44d83c	0.19223112
250	0x3dc4290a	0.0957814
251	0x3e1b5628	0.15169585
252	0xbe1f4a1f	-0.15555619
253	0x3de2ede6	0.11080532
254	0xbe036c65	-0.12834318
255	0xbc04040c	-0.0080576055
