LSTM/code/model/old_model/model_mk7_450epoch_0.0001trainloss_0.0001validloss.pt (torch, 46468 bytes, 32 tensors)

weight_ih_l0 f4 [40, 22]
-0.11064814 0.1314688 0.33876598 -0.2976837 -0.31791553 -0.069696896 0.3365915 -0.22902533
-0.4404944 -0.26959953 0.10310039 0.11622597 -0.0556089 -0.24218729 -0.026167613 -0.19807106
0.094713345 0.22484472 0.09599499 0.07775684 0.3622556 -0.4086493 0.0026223569 -0.25120535
-0.23665142 0.24155332 0.2307006 0.08100173 -0.44500244 -0.17881064 -0.14930044 0.21396814
-0.18401018 -0.037970357 -0.18358861 0.1358786 0.07625069 -0.042338558 -0.16744734 -0.09231415
-0.15050548 -0.22156711 0.19285308 0.2790118 0.05140852 -0.2658035 -0.2374795 0.191265
0.16553831 -0.2901925 -0.33761904 -0.0022734564 0.023273088 0.23342726 -0.26734397 -0.100464605
0.37577894 0.13836111 -0.30676177 0.04604023 0.4995008 -0.06493346 -0.4177886 -0.20004922
-0.095288545 0.37618807 -0.04328815 -0.28898117 0.24235754 0.16798203 -0.07872479 -0.23754212
0.045818865 -0.022891643 0.06366777 -0.16445108 -0.11407573 0.32617128 -0.045813996 0.2411946
0.28347653 0.20748349 0.080879964 -0.10021173 -0.066703245 0.0055804984 -0.0941572 0.16992554
0.16306902 -0.30439767 -0.29097164 0.27136058 0.17879254 -0.19757831 -0.048151594 -0.25537717
-0.14418474 -0.053943884 0.13444358 -0.08621238 0.11494701 -0.37345284 0.16799541 -0.1003151
-0.056848127 -0.37103012 -0.2740495 0.1828553 -0.0027729827 -0.1453421 -0.21083571 -0.18501489
0.18385 0.19626455 -0.14483593 -0.31377587 -0.010762329 0.21041866 -0.06581394 -0.25167018
0.2617126 -0.13266954 -0.34756932 -0.15077221 0.122815065 0.04745801 -0.2818133 -0.2673603
-0.14685814 -0.16500781 0.2823987 -0.20303117 -0.16143052 -0.17210962 -0.01831074 0.06618335
0.23040457 -0.16841447 0.16640829 -0.23036183 0.0020216072 0.2631695 -0.20726894 0.1426868
0.3221273 -0.042761303 0.12837249 -0.2645098 0.046085488 -0.112601176 -0.06816952 0.15518183
-0.034704335 0.1424302 0.1554677 0.1547204 0.42742577 0.1722841 -0.19881155 -0.24266648
0.4167668 -0.0022192483 -0.27401227 0.04871505 -0.19401789 -0.13816297 -0.21374519 0.13668706
0.09839173 -0.07678848 -0.2574512 0.23101495 -0.006438184 -0.06271879 -0.1042771 -0.23686768
-0.29815632 0.18360034 -0.28886515 0.1976667 0.12707323 -0.12242171 -0.021049982 -0.18997915
-0.18158251 -0.29162967 -0.31868804 -0.10953141 0.1440114 -0.22952883 -0.37589824 -0.09520336
-0.37475687 -0.41964123 0.12676524 -0.08655421 0.27740353 0.13905533 -0.30696365 -0.11976344
0.29912195 -0.089553624 -0.13598071 0.20465001 -0.081312284 -0.24668443 -0.2592371 0.07861527
0.18831971 0.11814436 0.11822157 -0.16014825 0.24023764 0.16065225 -0.2640508 -0.018963259
-0.27391163 0.10195491 0.3035716 0.19332862 -0.060252592 0.102072835 0.24259305 -0.2291237
-0.24127653 -0.31055638 -0.032020763 0.30550954 -0.2746284 -0.2645281 0.028218606 -0.25747043
-0.48449922 -0.26921988 0.15673186 0.21106803 0.07743111 -0.3413799 0.10341774 -0.14994238
0.26417986 0.029463904 -0.2374234 0.18794481 -0.27959472 -0.22821304 0.0115642045 -0.18901573
0.044084795 0.232206 0.18396023 0.0017182421 -0.4128764 0.24866746 0.2891373 -0.07009129
00000000: 7e9b e2bd c29f 063e bc72 ad3e ff69 98be
00000010: d3c5 a2be 3fbd 8ebd b955 ac3e 9e85 6abe
00000020: 7b88 e1be f308 8abe 4c26 d33d e207 ee3d
00000030: 28c6 63bd f2ff 77be 765d d6bc 24d3 4abe
00000040: 12f9 c13d b23d 663e 0599 c43d fa3e 9f3d
00000050: 9179 b93e 7b3a d1be d9db 2b3b fd9d 80be
00000060: c054 72be c159 773e c73c 6c3e 3ce4 a53d
00000070: 5cd7 e3be 231a 37be 37e2 18be 771a 5b3e
00000080: 2a6d 3cbe ce86 1bbd a7fe 3bbe c223 0b3e
00000090: 5229 9c3d 326b 2dbd 5177 2bbe 330f bdbd
000000a0: 1c1e 1abe 7de2 62be 477b 453e a2da 8e3e
000000b0: be91 523d 6517 88be d32d 73be f9da 433e
000000c0: e082 293e 1d94 94be 67dc acbe 45fe 14bb
000000d0: 34a7 be3c 8e07 6f3e 4fe1 88be 63c0 cdbd
000000e0: 1966 c03e 89ae 0d3e e10f 9dbe ae94 3c3d
000000f0: 92be ff3e d5fb 84bd 63e8 d5be b4d9 4cbe
00000100: a426 c3bd b99b c03e ea4e 31bd 57f5 93be
00000110: 932c 783e 7b03 2c3e 763a a1bd 3e3e 73be
00000120: 90ac 3b3d 4187 bbbc 3f64 823d dd65 28be
00000130: 89a0 e9bd ecff a63e 75a7 3bbd b8fb 763e
00000140: d623 913e 8d76 543e 65a4 a53d cf3b cdbd
00000150: b69b 88bd 9ddc b63b 7dd5 c0bd f600 2e3e
00000160: 91fb 263e 03da 9bbe 3cfa 94be c6ef 8a3e
00000170: 6415 373e f851 4abe 9b3a 45bd ccc0 82be
00000180: 2aa5 13be 43f4 5cbd 94ab 093e 1e90 b0bd
00000190: 5769 eb3d 3635 bfbe fd06 2c3e 0172 cdbd
000001a0: 95d9 68bd a9f7 bdbe 3750 8cbe 6b3e 3b3e
000001b0: eeba 35bb 8fd4 14be 51e5 57be 8b74 3dbe
000001c0: 2d43 3c3e 93f9 483e df4f 14be 3ba7 a0be
000001d0: 7b54 30bc fd77 573e 75c9 86bd eada 80be
000001e0: 32ff 853e 86da 07be 9bf4 b1be 0864 1abe
000001f0: 7786 fb3d 5563 423d d549 90be 73e3 88be
00000200: fb61 16be cff7 28be 9096 903e 67e7 4fbe
00000210: 0b4e 25be 813d 30be 6800 96bc 238b 873d
00000220: 2def 6b3e d874 2cbe ef66 2a3e f9e3 6bbe
00000230: f17c 043b 27be 863e 4f3e 54be 7d1c 123e
00000240: dfed a43e 7a26 2fbd 1474 033e d46d 87be
00000250: 23c4 3c3d 729b e6bd 769c 8bbd fce7 1e3e
00000260: 2226 0ebd 39d9 113e ed32 1f3e 066f 1e3e
00000270: 8dd7 da3e 3e6b 303e 4195 4bbe 907d 78be
00000280: 7562 d53e cf70 11bb 564b 8cbe 6f89 473d
00000290: a0ac 46be 987a 0dbe 05e0 5abe b1f7 0b3e
000002a0: 9a81 c93d 4743 9dbd a5d0 83be 2f8f 6c3e
000002b0: 67f7 d2bb b572 80bd 3b8f d5bd 718d 72be
000002c0: f2a7 98be ba01 3c3e 22e6 93be 2469 4a3e
000002d0: 7c1f 023e 3cb8 fabd 0371 acbc e589 42be
000002e0: c4f0 39be 7c50 95be 142b a3be 0152 e0bd
000002f0: b977 133e 9b09 6bbe bc75 c0be fbf9 c2bd
00000300: 22e0 bfbe 37db d6be bfce 013e 5543 b1bd
00000310: d607 8e3e 8564 0e3e 572a 9dbe 8946 f5bd
00000320: 8326 993e e467 b7bd 873e 0bbe c68f 513e
00000330: 0e87 a6bd d89a 7cbe baba 84be 0b01 a13d
00000340: e2d6 403e acf5 f13d 271e f23d e7fd 23be
00000350: db00 763e 0682 243e ab31 87be d658 9bbc
00000360: 253e 8cbe bccd d03d bd6d 9b3e f0f7 453e
00000370: 6ccb 76bd 900b d13d 506a 783e 679f 6abe
00000380: 3211 77be 3f01 9fbe 3428 03bd bf6b 9c3e
00000390: 189c 8cbe 3a70 87be b52a e73c 2ad3 83be
000003a0: 4810 f8be 30d7 89be 517e 203e 3822 583e
000003b0: 3494 9e3d 59c9 aebe aecc d33d 7f8a 19be
000003c0: 9542 873e 495e f13c 1f1f 73be 9b74 403e
000003d0: 0a27 8fbe aeb0 69be ca77 3d3c 578d 41be
000003e0: 4292 343d 69c7 6d3e 1260 3c3e a336 e13a
000003f0: 8964 d3be afa2 7e3e ce09 943e 068c 8fbd

weight_hh_l0 f4 [40, 10]
0.15067601 -0.18163115 -0.022386564 0.0448546 0.137552 0.24936315 -0.13942888 0.059624307
-0.38881075 -0.08724567 0.23705229 -0.012437744 0.13919619 -0.3524433 0.09897563 -0.18157415
-0.17634448 -0.16996363 0.20835437 0.081689715 -0.04753448 0.3508156 0.07210154 -0.15641826
0.049868993 -0.027795244 -0.061857577 -0.30944622 0.028180297 -0.048834432 -0.17734616 0.21089351
0.021699818 -0.245514 -0.0409047 -0.24535449 0.26794365 0.21348634 -0.3816454 -0.039606813
0.0044431733 0.24654502 0.44372466 -0.2260685 0.01733541 -0.08320884 0.332251 0.33997682
-0.10556745 0.22446284 -0.07184622 -0.09806919 0.030123431 0.25787348 -0.09151303 -0.12195263
0.2735871 -0.08071838 -0.102310404 -0.2073017 -0.07463107 0.3468261 0.08473341 0.17115895
-0.036342494 0.008448538 0.07168694 0.08557818 0.059069548 -0.12467468 -0.06381261 0.1416162
-0.31684932 -0.01621136 -0.026284985 0.19835933 0.12922275 -0.120618686 -0.31389093 -0.30987746
-0.43126068 0.13653374 -0.08072648 -0.4502516 0.3967909 -0.47068188 0.4246054 0.55185413
0.3628261 -0.1304279 -0.2672453 -0.09200446 0.3347344 0.15387622 0.3230146 -0.007429153
0.27649525 0.30865237 0.19816078 -0.11664134 0.1905346 0.10711312 -0.15949878 -0.046177965
-0.084356174 0.0013475938 0.015337832 -0.06698909 -0.50290364 0.021100778 -0.027908843 0.2127946
-0.0028383657 -0.15738484 0.009403977 -0.32712582 0.06218236 -0.07412299 0.2073755 0.30344227
-0.2699837 0.31150886 -0.055487953 -0.02443513 0.30025753 -0.30520666 -0.103604354 -0.026487842
-0.13255583 -0.013689091 0.05328339 0.29164293 0.08076479 0.18307658 0.23205954 0.24755505
0.33845207 -0.2295207 -0.43447483 0.11018397 0.06024346 -0.22043565 0.36150965 -0.22072275
0.24326144 -0.26038647 -0.016650695 -0.009577344 -0.24798468 0.1759195 -0.2919635 -0.2124799
-0.14405201 0.25717726 -0.036952775 0.2561118 -0.27263054 0.09447187 0.288659 0.22337101
-0.14661402 0.3116459 0.18813252 -0.19148287 0.23345688 -0.29139754 -0.18739292 -0.072046064
0.18465051 -0.23749685 0.34868774 -0.2762527 -0.3096814 0.03966681 -0.16907468 0.17441617
0.27110943 0.07409037 0.3841993 -0.08324424 -0.052996457 -0.33384898 0.429792 -0.35433277
0.26351586 -0.3430039 0.041368313 0.17363536 -0.19462918 0.30714902 0.103759564 0.07189551
0.00049794634 0.22091424 0.015376399 0.07380025 -0.035622425 -0.07927992 -0.21561752 -0.25063995
0.22529128 0.24112786 -0.24394402 0.25193518 0.2253045 -0.064147696 0.3241106 -0.229365
0.351979 -0.24534272 0.25151047 0.11603734 0.279027 0.0019536982 -0.30924717 0.3107924
-0.30038455 0.19737189 -0.16169322 0.05206545 -0.14595658 -0.21032932 0.03574817 0.24948859
0.17294098 0.102296665 -0.1615372 -0.35861883 -0.14153197 -0.23739943 0.035086326 0.09416404
0.13824075 -0.17081311 -0.1658258 -0.09722526 0.014857779 -0.12912536 -0.10929994 -0.21510914
-0.26245734 0.12026546 0.100911655 0.09772428 0.30573916 -0.36617002 0.013226829 -0.12268427
0.20759141 0.2766208 0.23660459 0.28144208 -0.13827035 -0.18755558 0.12227902 0.076346695
00000000: d04a 1a3e 84fd 39be 0764 b7bc 75b9 373d
00000010: 6eda 0c3e 0e59 7f3e 72c6 0ebe 9e38 743d
00000020: 3412 c7be dcad b2bd d6bd 723e aec7 4bbc
00000030: 7289 0e3e 7373 b4be bcb3 ca3d 93ee 39be
00000040: a693 34be f20a 2ebe d95a 553e f04c a73d
00000050: 84b3 42bd 1a9e b33e f9a9 933d 1c2c 20be
00000060: 6e43 4c3d dab2 e3bc 5f5e 7dbd bc6f 9ebe
00000070: 5eda e63c 9d06 48bd 3b9a 35be 78f4 573e
00000080: d1c3 b13c 0668 7bbe b08b 27bd 353e 7bbe
00000090: e92f 893e 2a9c 5a3e 0767 c3be c13a 22bd
000000a0: 0a98 913b 4c76 7c3e e12f e33e 807e 67be
000000b0: fd02 8e3c 6569 aabd ce1c aa3e 7111 ae3e
000000c0: bf33 d8bd 96d9 653e 1c24 93bd 80d8 c8bd
000000d0: 6ac5 f63c fe07 843e 2f6b bbbd 4dc2 f9bd
000000e0: 9c13 8c3e ae4f a5bd 1e88 d1bd e646 54be
000000f0: 2dd8 98bd 3193 b13e b688 ad3d 4b44 2f3e
00000100: dedb 14bd bd6b 0a3c 9ad0 923d 9d43 af3d
00000110: e9f2 713d 7055 ffbd 30b0 82bd d603 113e
00000120: 133a a2be b0cd 84bc 9c53 d7bc b51e 4b3e
00000130: f852 043e ee06 f7bd 50b6 a0be 42a8 9ebe
00000140: 33ce dcbe 80cf 0b3e ed53 a5bd 6187 e6be
00000150: 2d28 cb3e 37fd f0be e165 d93e 5046 0d3f
00000160: 58c4 b93e e48e 05be 60d4 88be d66c bcbd
00000170: 4f62 ab3e ba91 1d3e 2b62 a53e 4170 f3bb
00000180: c990 8d3e af07 9e3e a9ea 4a3e a8e1 eebd
00000190: 811b 433e 205e db3d a653 23be 1b25 3dbd
000001a0: eec2 acbd bfa1 b03a 884b 7b3c 9331 89bd
000001b0: 4bbe 00bf 8adb ac3c 16a1 e4bc d4e6 593e
000001c0: e003 3abb 7e29 21be 2313 1a3c 097d a7be
000001d0: eeb2 7e3d cbcd 97bd 3e5a 543e c95c 9b3e
000001e0: 4e3b 8abe 177e 9f3e 5647 63bd 2f2c c8bc
000001f0: 5bbb 993e 0c44 9cbe 852e d4bd 08fd d8bc
00000200: b7bc 07be 3648 60bc af3f 5a3d 3952 953e
00000210: 0368 a53d 6d78 3b3e 04a1 6d3e 127f 7d3e
00000220: 9749 ad3e 7907 6bbe 7c73 debe 22a8 e13d
00000230: d9c1 763d e2b9 61be cb17 b93e 2505 62be
00000240: 8719 793e 6051 85be 0a67 88bc 4bea 1cbc
00000250: b2ef 7dbe 3e24 343e 3d7c 95be 5594 59be
00000260: 5f82 13be bdac 833e cb5b 17bd 1621 833e
00000270: 3b96 8bbe 787a c13d 1dcb 933e 5fbb 643e
00000280: fc21 16be 0d90 9f3e d0a5 403e 1614 44be
00000290: 520f 6f3e 0f32 95be eee3 3fbe e38c 93bd
000002a0: 0615 3d3e 6032 73be 3387 b23e fe70 8dbe
000002b0: 8f8e 9ebe aa79 223d ea21 2dbe 279a 323e
000002c0: dbce 8a3e b1bc 973d c5b5 c43e f57b aabd
000002d0: d012 59bd 41ee aabe b20d dc3e 1b6b b5be
000002e0: 8deb 863e 359e afbe d271 293d 78cd 313e
000002f0: df4c 47be a342 9d3e e57f d43d f43d 933d
00000300: 9d88 023a 5837 623e 4bed 7b3c 9624 973d
00000310: d2e8 11bd 835d a2bd d7ca 5cbe e153 80be
00000320: c2b2 663e 39ea 763e 76cc 79be a6fd 803e
00000330: 39b6 663e de5f 83bd d3f1 a53e a9de 6abe
00000340: 9736 b43e 1f3b 7bbe fbc5 803e fca4 ed3d
00000350: a0dc 8e3e 9e09 003b a555 9ebe 2e20 9f3e
00000360: 01cc 99be db1b 4a3e e892 25be 9542 553d
00000370: a475 15be 9260 57be ac6c 123d f079 7f3e
00000380: 7117 313e ea80 d13d 026a 25be e39c b7be
00000390: c2ed 10be d618 73be aeb6 0f3d 14d9 c03d
000003a0: fc8e 0d3e a2e9 2ebe 3dce 29be 0a1e c7bd
000003b0: 0b6e 733c 7039 04be a6d8 dfbd 9245 5cbe
000003c0: cf60 86be bd4d f63d c5aa ce3d ab23 c83d
000003d0: d889 9c3e a37a bbbe 57b5 583c e441 fbbd
000003e0: d892 543e 3ea1 8d3e 7948 723e 2d19 903e
000003f0: be96 0dbe 920e 40be 6c6d fa3d a85b 9c3d

bias_ih_l0 f4 [40]
0.23537579 0.14189409 0.28728434 -0.06733306 -0.116883315 -0.06287069 0.119258955 -0.07137273
0.18598957 -0.04593573 -0.036376473 0.19144139 -0.20899561 0.31532413 -0.06745875 0.15039125
-0.08699771 0.0048226723 -0.18311962 -0.16118892 0.045907326 -0.043139208 0.023887673 -0.1594378
-0.21598206 -0.11318017 0.03858997 -0.0660604 0.28056046 -0.17219868 -0.19831966 0.25944504
0.08613461 -0.10931727 -0.13508716 0.058399566 -0.12758036 0.06633794 -0.075398676 -0.14227423
00000000: 5a06 713e af4c 113e ef16 933e eae5 89bd
00000010: 8560 efbd 59c2 80bd 0a3e f43d de2b 92bd
00000020: 0d74 3e3e 1b27 3cbd 7fff 14bd 3609 443e
00000030: f202 56be 2a72 a13e d027 8abd 2a00 1a3e
00000040: db2b b2bd 8207 9e3b b683 3bbe b50e 25be
00000050: 5209 3c3d bdb2 30bd 15b0 c33c aa43 23be
00000060: 672a 5dbe 01cb e7bd 8410 1e3d ad4a 87bd
00000070: 9fa5 8f3e da54 30be 4f14 4bbe fbd5 843e
00000080: 5867 b03d bce1 dfbd 4a54 0abe 6234 6f3d
00000090: 6da4 02be 30dc 873d 9f6a 9abd 56b0 11be

bias_hh_l0 f4 [40]
0.10557742 -0.06139535 0.23009086 0.31368223 -0.14608999 -0.21852799 0.23243588 0.07585044
0.19991036 0.30389816 -0.22866637 -0.1579768 0.10189248 0.3386565 0.3266066 0.08202963
0.02140387 -0.054468546 -0.08678937 0.34783524 0.22905132 0.26380163 0.22524828 -0.2040611
0.30541128 -0.29620034 0.38919315 -0.23533161 0.2664671 0.057256546 0.06878488 0.1476013
0.29768118 0.22933711 -0.23145592 0.09297747 0.056798648 0.04120465 0.025144633 0.044986404
00000000: f938 d83d b179 7bbd f09c 6b3e f59a a03e
00000010: 9d98 15be cdc5 5fbe ac03 6e3e 7a57 9b3d
00000020: 4db5 4c3e 8a98 9b3e 8427 6abe acc4 21be
00000030: 01ad d03d 6364 ad3e fb38 a73e 27ff a73d
00000040: 2b57 af3c 691a 5fbd a0be b1bd 7617 b23e
00000050: 6e8c 6a3e 0211 873e 7ca7 663e 65f5 50be
00000060: de5e 9c3e 92a7 97be 5344 c73e c5fa 70be
00000070: 606e 883e d785 6a3d 16df 8c3d cc24 173e
00000080: ab69 983e 59d7 6a3e c802 6dbe f96a be3d
00000090: b3a5 683d 35c6 283d 1efc cd3c aa43 383d

weight_ih_l0 f4 [40, 22]
0.31190994 0.28754377 -0.2637647 -0.08085843 -0.22404821 -0.086301416 -0.14227827 0.13574879
-0.26733097 -0.047849827 -0.3575898 -0.20868888 -0.20426111 -0.26723424 -0.35578537 0.015982298
-0.15115406 0.113617055 0.2425911 -0.21309549 -0.0763236 -0.07637729 0.11016856 -0.05140504
-0.35155168 0.18644495 -0.1583835 -0.14286284 -0.35246137 0.13897236 0.12848374 0.36397722
0.24998716 0.09351031 -0.01583922 0.020353597 -0.039812166 0.30547467 -0.22965594 -0.030400258
-0.20140636 0.30431938 -0.003843006 -0.053344827 0.05173878 -0.03105334 -0.17553289 -0.07585348
0.1703387 -0.17188282 0.19987151 0.023740308 0.031135445 -0.3241796 -0.03947087 0.23241903
-0.18153824 -0.21306963 -0.3611729 0.3375125 0.04878335 -0.26499033 -0.1311664 0.048733175
0.3031646 -0.020249797 -0.06226915 -0.3253783 0.11734409 0.28635296 0.25503796 -0.076162465
-0.21125504 0.17535307 0.068684325 -0.1325044 0.10507163 0.21236601 0.1435685 0.11972303
0.2676489 0.37599215 0.28864542 0.2978872 0.23689061 0.29710743 0.040398207 -0.041905075
-0.22201547 -0.038541622 -0.1425897 -0.07699834 0.016711375 0.08263992 -0.0033853105 -0.18993863
-0.017187016 0.036743015 0.11062151 0.22187763 -0.29640493 -0.035735756 0.3149438 -0.039020725
0.39848444 -0.2893732 0.15969901 -0.0271194 -0.15864636 -0.03836828 -0.24627101 0.32135874
-0.04394553 0.16544026 -0.1503684 0.16247013 -0.25310618 -0.23014925 0.04910474 0.30608508
-0.16884676 0.0046676504 -0.09341512 -0.019944336 0.19485493 -0.17929323 -0.036059372 0.19576973
-0.07561088 0.34473458 -0.39142695 0.268133 0.379408 0.121805236 0.24705678 0.18282989
0.26313472 -0.016156733 0.01375531 0.23028341 0.44870493 -0.34402445 0.105821036 0.049352553
0.025107093 0.05384425 -0.27359617 -0.28054178 -0.06629116 0.21884127 0.19354583 0.13108923
0.11060613 -0.21133152 -0.09180055 -0.19003578 0.018923612 -0.23291793 0.26601967 0.16824567
-0.23144434 -0.21897784 -0.22440319 0.04465784 -0.3187198 -0.09629537 -0.3561702 -0.31777623
-0.33102718 -0.23698206 -0.13308482 -0.108307935 -0.1639672 0.15334398 0.27055654 -0.04151673
0.34732798 -0.27022117 0.013158416 0.15721211 0.074242756 -0.082253814 -0.4546238 0.17038807
-0.14376369 -0.2546125 -0.16411062 0.22473808 -0.07701486 0.0046991166 -0.30956873 0.32512376
0.23147863 -0.020873284 0.102741845 0.29468468 0.39289835 0.2913564 0.03106458 0.12566021
-0.1420586 0.29156542 -0.17409736 0.27092898 -0.06521899 0.20448415 0.25266933 -0.009330901
-0.3208701 0.046744645 0.20103262 -0.28690648 0.007551747 -0.05312539 -0.33789524 -0.18277341
-0.12847681 0.122432426 0.24129258 -0.15970291 -0.08738362 -0.04286147 0.23535816 -0.3359132
-0.15661743 0.0606556 -0.1532517 -0.24238464 0.052000254 -0.00064859126 -0.044068262 0.2456322
0.34951487 0.29520157 -0.10862898 0.19103931 0.22683142 0.28622928 -0.10427072 0.038402066
-0.09847889 -0.06039315 -0.35035723 0.3552552 -0.40233794 0.022328997 -0.02603325 0.20914848
0.026294297 0.00047672165 -0.25597012 0.0173367 -0.42809746 0.19219044 0.08380159 0.35799465
00000000: a9b2 9f3e f038 933e 2b0c 87be 1b99 a5bd
00000010: e56c 65be ccbe b0bd 65b1 11be bb01 0b3e
00000020: 9bdf 88be 2efe 43bd 0316 b7be 8ab2 55be
00000030: d329 51be edd2 88be 8029 b6be 4fed 823c
00000040: 21c8 1abe 0fb0 e83d cd69 783e b435 5abe
00000050: 8c4f 9cbd b26b 9cbd 0ea0 e13d 178e 52bd
00000060: 95fe b3be 6deb 3e3e 492f 22be a34a 12be
00000070: d175 b4be c54e 0e3e 3e91 033e 395b ba3e
00000080: a2fc 7f3e 5582 bf3d 40c1 81bc 96bc a63c
00000090: 1512 23bd 2d67 9c3e ed2a 6bbe f609 f9bc
000000a0: 783d 4ebe c0cf 9b3e f1da 7bbb 1b80 5abd
000000b0: 0bec 533d 9363 febc e5be 33be 1259 9bbd
000000c0: 456d 2e3e 0d02 30be 1eab 4c3e 097b c23c
000000d0: c30f ff3c defa a5be 35ac 21bd 41ff 6d3e
000000e0: 29e5 39be ed2e 5abe a8eb b8be 70ce ac3e
000000f0: 0dd1 473d d0ac 87be 7c50 06be 709c 473d
00000100: 6438 9b3e e7e2 a5bc f00d 7fbd fc97 a6be
00000110: 1952 f03d db9c 923e 5694 823e 11fb 9bbd
00000120: 3e53 58be c18f 333e 5eaa 8c3d 3caf 07be
00000130: cb2f d73d 7a76 593e 9f03 133e 5931 f53d
00000140: 4709 893e 0b82 c03e 55c9 933e ac84 983e
00000150: 7493 723e 771e 983e 9778 253d a8a4 2bbd
00000160: 0658 63be d2dd 1dbd 0903 12be 4eb1 9dbd
00000170: 4be6 883c 1e3f a93d 16dc 5dbb 467f 42be
00000180: c9cb 8cbc d87f 163d 888d e23d e433 633e
00000190: 63c2 97be a85f 12bd 5040 a13e 32d4 1fbd
000001a0: 2706 cc3e b928 94be 2388 233e 8129 debc
000001b0: 3174 22be 0f28 1dbd 782e 7cbe 2289 a43e
000001c0: 3a00 34bd 2c69 293e 2dfa 19be 925e 263e
000001d0: 2297 81be 3fac 6bbe 0d22 493d 2fb7 9c3e
000001e0: 2ae6 2cbe 17f3 983b 6d50 bfbd 4e62 a3bc
000001f0: 0d88 473e a598 37be feb2 13bd dc77 483e
00000200: e1d9 9abd 0d81 b03e 1d69 c8be bb48 893e
00000210: c441 c23e 0675 f93d 74fc 7c3e c237 3b3e
00000220: 98b9 863e 205b 84bc f45d 613c 6acf 6b3e
00000230: a7bc e53e f923 b0be b3b8 d83d e725 4a3d
00000240: 64ad cd3c ca8b 5c3d cc14 8cbe 2ca3 8fbe
00000250: a9c3 87bd ed17 603e e130 463e 413c 063e
00000260: 7785 e23d 4a67 58be ed01 bcbd bd98 42be
00000270: b105 9b3c 0a82 6ebe bb33 883e 9848 2c3e
00000280: bfff 6cbe ba3b 60be f3c9 65be 24eb 363d
00000290: 3e2f a3be 8236 c5bd f15b b6be 91b3 a2be
000002a0: 657c a9be 6dab 72be 6347 08be 8dd0 ddbd
000002b0: 05e7 27be 3406 1d3e 6386 8a3e 720d 2abd
000002c0: f9d4 b13e 6e5a 8abe 6696 573c 36fc 203e
000002d0: 960c 983d b074 a8bd 73c4 e8be 367a 2e3e
000002e0: ca36 13be 925c 82be 9d0c 28be bd21 663e
000002f0: f8b9 9dbd 0cfb 993b cb7f 9ebe 9f76 a63e
00000300: bc08 6d3e 73fe aabc 516a d23d e9e0 963e
00000310: f929 c93e ab2c 953e 257b fe3c 12ad 003e
00000320: cf77 11be 1048 953e 9446 32be 34b7 8a3e
00000330: 8991 85bd 4b64 513e e05d 813e a3e0 18bc
00000340: 1649 a4be 5077 3f3d 7fdb 4d3e 68e5 92be
00000350: a574 f73b 029a 59bd 9b00 adbe f428 3bbe
00000360: 6d8f 03be dabd fa3d 6715 773e 2989 23be
00000370: 2ff6 b2bd 828f 2fbd bb01 713e d1fc abbe
00000380: 5260 20be 0272 783d 03ee 1cbe ae33 78be
00000390: 38fe 543d 3906 2aba ec80 34bd 0287 7b3e
000003a0: 9df3 b23e a924 973e df78 debd cf9f 433e
000003b0: 7f46 683e a58c 923e e38b d5bd 7c4b 1d3d
000003c0: 4daf c9bd cf5e 77bd 0662 b3be 02e4 b53e
000003d0: 3dff cdbe 4deb b63c af43 d5bc 052b 563e
000003e0: 2367 d73c 7ff0 f939 840e 83be b205 8e3c
000003f0: 972f dbbe 92cd 443e 2ba0 ab3d 134b b73e

weight_hh_l0 f4 [40, 10]
0.23528714 0.03757497 -0.26567012 -0.28031397 -0.025816973 0.20512575 -0.27247646 -0.034383666
0.23856357 -0.32613504 -0.3208383 -0.15913285 0.09453031 0.072590284 -0.20447505 -0.18882918
-0.20887062 0.045013092 -0.1820268 0.36441922 0.08205862 -0.34259364 -0.27227187 -0.21522427
-0.17878306 -0.2120358 0.09234295 0.14483045 -0.28889865 -0.16691963 0.16531157 -0.27334186
0.010616804 -0.23504913 -0.13830586 -0.05994054 0.49355146 0.30875096 -0.11494334 0.054961655
-0.28394535 0.24604537 0.20329663 -0.270391 -0.033911027 -0.2949075 -0.008512876 -0.091695346
0.24094447 -0.009466195 -0.09696879 0.1376871 -0.09255981 -0.015100379 -0.08865352 -0.38742462
-0.31437415 -0.11816573 0.33626398 0.1638177 -0.20798717 0.06259061 -0.05558904 -0.33471006
-0.20230223 0.33846545 0.059998322 -0.15073892 -0.062578894 -0.0054231626 0.17197657 -0.15331256
0.18714884 0.0928191 -0.22577578 -0.24168289 0.25142464 -0.1215616 0.020861745 0.10975298
-0.062202416 -0.45708582 -0.018740585 -0.18718004 -0.04470101 -0.019431636 -0.5528554 0.4300725
-0.12578814 0.24083121 0.15015018 0.12678637 0.015636565 0.15660965 -0.06427634 -0.21943459
-0.1237816 -0.026852325 -0.0986417 0.057345886 0.19653685 -0.024953933 0.12069186 0.27453053
-0.037769996 -0.109182075 -0.15560338 -0.03799275 0.15253463 0.056779273 0.15817726 -0.103769936
0.0037925425 0.24510238 -0.10866185 -0.22763665 0.097283036 -0.02136831 -0.27483 0.16403258
-0.15570854 0.060585573 0.10081225 0.15834856 -0.3547698 -0.3092422 -0.10359951 0.16965725
-0.15340087 -0.0072280117 0.15963423 0.32525337 -0.10423688 -0.06267171 -0.0117184855 0.28372398
0.1352807 0.327972 0.28020492 0.30632186 0.22885208 0.08133856 -0.14256607 0.1776387
0.028523648 -0.04349742 -0.045833908 0.15664917 -0.34340316 0.29822108 -0.31233826 -0.16197953
-0.37152216 -0.29697216 -0.1923357 -0.17473933 0.1541185 0.2193172 -0.05574382 0.1782871
0.051538482 -0.13982286 -0.2626287 -0.06655377 -0.2672156 -0.082822494 -0.12158238 0.27568188
-0.26028758 0.19361138 -0.34721333 0.16022024 -0.2699333 -0.008838448 0.046313033 -0.41160727
-0.22455414 -0.19525535 0.1002808 -0.072006814 -0.09301929 -0.30543548 -0.301628 -0.31420314
-0.16895622 0.14905195 -0.3660188 0.3449336 -0.084306955 0.34555525 0.0046393564 -0.33211535
-0.16665943 0.30568317 -0.26429594 -0.0915545 0.21697585 0.07551692 0.015167792 -0.022696845
-0.30328345 0.31107232 0.08446074 -0.026726544 0.27652824 0.123306 0.17808951 0.007031974
-0.03350602 -0.04097312 -0.23193546 -0.075398855 -0.19798438 0.10588174 0.24544652 0.024261182
0.2239433 0.2657088 0.11468891 0.18481961 0.023233239 0.29018056 -0.23226774 -0.10469308
-0.20153052 -0.15983227 -0.07491319 -0.112992175 -0.24657486 0.082521394 -0.20294704 -0.2356343
0.15117814 -0.020254534 0.24812356 -0.3024078 0.2788116 -0.20184109 0.2523572 0.3502343
0.28715777 -0.019943472 -0.06521411 -0.19133788 -0.25624302 0.116045184 0.07700572 0.03173548
0.022562278 0.25733155 0.20976241 -0.039951168 0.33821434 -0.042801958 0.3172398 -0.054564416
00000000: 1def 703e 36e8 193d ea05 88be 5085 8fbe
00000010: 1e7e d3bc 7c0c 523e 0982 8bbe e3d5 0cbd
00000020: 024a 743e 2cfb a6be eb44 a4be b9f3 22be
00000030: 1b99 c13d 37aa 943d e861 51be 705c 41be
00000040: 2ee2 55be a65f 383d 3c65 3abe 2895 ba3e
00000050: 5a0e a83d 6f68 afbe 3867 8bbe c063 5cbe
00000060: e812 37be ea1f 59be 4d1e bd3d 6f4e 143e
00000070: 86ea 93be fbec 2abe 7047 293e 77f3 8bbe
00000080: 1af2 2d3c b8b0 70be 0da0 0dbe 3684 75bd
00000090: c7b2 fc3e 9b14 9e3e 6a67 ebbd 791f 613d
000000a0: 4961 91be 51f3 7b3e fe2c 503e b070 8abe
000000b0: 4ae6 0abd 1efe 96be 9779 0bbc c5ca bbbd
000000c0: 26ba 763e 1918 1bbc 9397 c6bd d9fd 0c3e
000000d0: ff8f bdbd 9467 77bc fa8f b5bd 855c c6be
000000e0: a6f5 a0be e000 f2bd cb2a ac3e d4bf 273e
000000f0: 97fa 54be 812f 803d 55b1 63bd 1e5f abbe
00000100: 5128 4fbe 584b ad3e cdc0 753d 4e5b 1abe
00000110: 5d29 80bd c9b4 b1bb a01a 303e f8fd 1cbe
00000120: f2a3 3f3e f117 be3d c431 67be b87b 77be
00000130: bbba 803e 4af5 f8bd 40e6 aa3c 2cc6 e03d
00000140: f6c7 7ebd 2707 eabe db85 99bc 20ac 3fbe
00000150: 6818 37bd 182f 9fbc ee87 0dbf 7632 dc3e
00000160: 9bce 00be 759c 763e f8c0 193e 49d4 013e
00000170: 4118 803c 485e 203e 50a3 83bd 76b3 60be
00000180: 3581 fdbd 68f9 dbbc a904 cabd 85e3 6a3d
00000190: f540 493e 316c ccbc 4b2d f73d 448f 8c3e
000001a0: b6b4 1abd da9a dfbd 7e56 1fbe 499e 1bbd
000001b0: 0a32 1c3e 6291 683d 38f9 213e 5585 d4bd
000001c0: 4e8c 783b 1efc 7a3e 1b8a debd 9519 69be
000001d0: 543c c73d 980c afbc 85b6 8cbe 28f8 273e
000001e0: 0f72 1fbe 9428 783d a776 ce3d 2026 223e
000001f0: 63a4 b5be fe54 9ebe fb2b d4bd a1ba 2d3e
00000200: 1e15 1dbe f5d8 ecbb 2877 233e 9c87 a63e
00000210: 257a d5bd 075a 80bd e4fe 3fbc 4544 913e
00000220: 0687 0a3e f2eb a73e 0577 8f3e 38d6 9c3e
00000230: 3358 6a3e d594 a63d d7fc 11be ebe6 353e
00000240: 6daa e93c 5a2a 32bd 56bc 3bbd a468 203e
00000250: 8ad2 afbe 6fb0 983e cdea 9fbe f6dd 25be
00000260: 2738 bebe bc0c 98be a6f3 44be deee 32be
00000270: 3dd1 1d3e b094 603e a253 64bd e590 363e
00000280: 041a 533d b92d 0fbe 4577 86be 584d 88bd
00000290: 7cd0 88be d79e a9bd 2f00 f9bd 2d26 8d3e
000002a0: 6a44 85be 1042 463e f2c5 b1be c610 243e
000002b0: b334 8abe 23cf 10bc bcb2 3d3d 30be d2be
000002c0: 85f1 65be 05f1 47be 0560 cd3d 4f78 93bd
000002d0: e680 bebd 0a62 9cbe fc6e 9abe 3cdf a0be
000002e0: dc02 2dbe 13a1 183e d166 bbbe 239b b03e
000002f0: 20a9 acbd 9eec b03e be05 983b 060b aabe
00000300: c5a8 2abe 8182 9c3e cc51 87be ed80 bbbd
00000310: eb2e 5e3e 9da8 9a3d 5582 783c bcee b9bc
00000320: f847 9bbe df44 9f3e c1f9 ac3d a0f1 dabc
00000330: 1c95 8d3e db87 fc3d 195d 363e 796c e63b
00000340: 9c3d 09bd 6ed3 27bd 7d80 6dbe b76a 9abd
00000350: 6bbc 4abe 87d8 d83d 5556 7b3e 63bf c63c
00000360: 6451 653e fc0a 883e 05e2 ea3d 5a41 3d3e
00000370: a253 be3c 8c92 943e 98d7 6dbe 5369 d6bd
00000380: 045e 4ebe 12ab 23be 166c 99bd 7168 e7bd
00000390: 1f7e 7cbe fa00 a93d 59d1 4fbe 1e4a 71be
000003a0: 71ce 1a3e d6ec a5bc 1a14 7e3e 32d5 9abe
000003b0: 65c0 8e3e 6eaf 4ebe f734 813e e951 b33e
000003c0: 5806 933e 7e60 a3bc fa8e 85bd 14ee 43be
000003d0: 4932 83be 19a9 ed3d 2db5 9d3d 10fd 013d
000003e0: 87d4 b83c f6c0 833e f5cb 563e d6a3 23bd
000003f0: 6e2a ad3e 1b51 2fbd 416d a23e f07e 5fbd

bias_ih_l0 f4 [40]
-0.22897582 -0.148427 0.06915661 0.0052366895 0.24169214 0.13773897 -0.2588508 0.102785565
0.2223373 0.043554418 0.019076677 0.28056732 -0.021468077 0.1434081 0.20833072 0.21736573
0.023017563 0.06321938 -0.1338747 0.24722004 0.107674524 -0.31738895 0.08879561 0.019516172
-0.189508 -0.27851668 0.1230192 0.20890288 0.23590623 0.165857 -0.054047883 0.34360322
-0.1939437 -0.11295372 -0.09421141 -0.05591668 0.21797207 -0.0016731776 -0.05358428 0.44496334
00000000: a378 6abe 3ffd 17be fba1 8d3d 8998 ab3b
00000010: 257e 773e 720b 0d3e 1888 84be 3d81 d23d
00000020: 64ac 633e 1e66 323d b146 9c3c 85a6 8f3e
00000030: d2dd afbc 93d9 123e a654 553e 1f95 5e3e
00000040: 548f bc3c 2a79 813d 7316 09be 4027 7d3e
00000050: 7684 dc3d ce80 a2be 79da b53d 61e0 9f3c
00000060: 630e 42be bd99 8ebe 7ef1 fb3d a3ea 553e
00000070: 6791 713e 6bd6 293e 5061 5dbd c3ec af3e
00000080: 2d99 46be 4854 e7bd e9f1 c0bd e308 65bd
00000090: 1234 5f3e 864e dbba 317b 5bbd 3cd2 e33e

bias_hh_l0 f4 [40]
-0.07448622 0.23321615 0.11983186 -0.04310174 -0.17416695 0.06805879 -0.06623601 0.1676678
0.11296399 0.22095267 0.21945977 0.328106 0.0615179 -0.13305144 0.25864837 0.3751478
-0.058897417 0.043804087 -0.119500905 0.24128506 0.16591845 -0.1411685 -0.24816681 -0.21435927
-0.12939428 -0.09633311 0.09884878 0.29149532 0.13405596 0.15864833 0.2424299 -0.15739402
0.17100108 -0.08684332 -0.1773383 0.28474134 -0.1368383 0.26479235 0.06974642 0.26109004
00000000: 3b8c 98bd 37d0 6e3e 686a f53d 738b 30bd
00000010: d258 32be 6862 8b3d bfa6 87bd 1cb1 2b3e
00000020: aa59 e73d 6b41 623e 10ba 603e 82fd a73e
00000030: 32fa 7b3d a33e 08be 8f6d 843e 5f13 c03e
00000040: 6b3e 71bd ea6b 333d e4bc f4bd 6e13 773e
00000050: 87e6 293e 7a8e 10be 711f 7ebe ff80 5bbe
00000060: ef7f 04be 4b4a c5bd 3b71 ca3d e03e 953e
00000070: f745 093e b574 223e 8b3f 783e e62b 21be
00000080: e81a 2f3e e9da b1bd 2c98 35be 9ec9 913e
00000090: 571f 0cbe dd92 873e 36d7 8e3d 98ad 853e

weight_ih_l0 f4 [40, 22]
0.18940285 0.15218337 0.11947732 -0.30531755 0.15376683 -0.31223747 -0.06285376 0.23628114
-0.013647959 -0.043309372 -0.025861684 -0.1836604 -0.23583962 0.2462314 0.084801756 0.18638049
0.30787668 -0.27273175 -0.28129768 0.16754393 0.1434736 -0.36763626 0.24980155 0.14619532
0.1042178 -0.1632684 0.21545218 0.23337641 -0.063494064 -0.013675928 -0.17972018 -0.1588355
-0.17595711 -0.2125314 -0.38397124 0.08986443 -0.23680541 -0.28381673 -0.24470013 -0.0831466
0.13006377 -0.41231576 0.16877818 -0.0068869023 -0.31000912 0.37559825 0.26055062 0.017956315
0.17410895 0.23666331 -0.104708426 0.20780516 -0.16120908 0.36206982 -0.332343 -0.16497074
0.16246401 0.31813285 -0.3985447 -0.02696842 0.50330323 -0.2165171 -0.20590422 0.16928566
0.17875144 -0.002896076 0.1443506 -0.5119537 -0.24696475 0.015077669 -0.31900296 -0.2709152
-0.30376524 0.13969667 -0.038735397 0.12141256 -0.11963212 -0.081666596 0.111542374 0.06372591
-0.22323634 0.15349172 -0.18713968 -0.25339326 -0.04560948 0.5137692 0.12667198 0.257104
0.004627676 0.008083058 0.30934927 0.11109958 -0.15665798 -0.21374266 -0.22074278 0.07404037
-0.046496924 0.3533668 -0.013832695 0.15673524 0.25752032 -0.30877256 -0.047424443 -0.25576472
0.1742202 0.21127942 -0.18438525 -0.113563515 0.2299328 0.273174 0.0511404 -0.3176236
0.09761899 -0.1474927 0.12204112 -0.120031245 -0.20141463 -0.002452076 0.15318087 -0.26373547
-0.2912322 0.20801832 0.14121819 -0.121824175 -0.111415006 -0.065775104 0.026961641 -0.094096296
0.16931075 0.31538048 0.3020219 0.36925495 -0.22972217 0.06961678 -0.2572878 0.024968656
0.091049224 -0.2707186 -0.13849962 -0.018722272 0.22969738 0.22105902 -0.30098128 -0.06816277
0.33013573 0.35609534 -0.23411463 -0.31905028 0.14555238 0.48246786 0.008172458 0.26721123
-0.14196953 -0.20362753 -0.13769309 -0.03717448 -0.24225502 0.41231108 0.13641387 -0.21916889
-0.3275627 -0.006852491 0.27750847 0.02791307 -0.30464044 0.03980222 -0.007150501 0.0268983
0.12380801 0.0062142625 -0.066546604 -0.0017401594 -0.029882811 0.30802354 0.09489062 -0.053990312
-0.0452372 -0.29178324 -0.36091062 0.3579806 0.24001466 -0.17146687 0.01973787 -0.15635407
-0.028790653 0.07385519 0.16116841 0.19802801 -0.030051377 -0.27260306 0.21430716 -0.116230674
0.16916206 -0.23249105 -0.13046546 0.3059272 0.12851653 0.05484918 0.21780632 -0.04751693
-0.25175536 0.23775016 0.07645624 -0.011356099 -0.055637296 0.39753956 0.32759085 -0.015366869
-0.26001126 0.008536639 -0.5036301 -0.040742572 0.15651076 0.14389348 -0.1343445 -0.2151297
-0.332228 0.021522185 -0.09891372 0.2396726 0.15368658 -0.32445633 -0.06908458 0.116358794
-0.23733677 -0.06959584 0.10515729 -0.08642793 0.048072707 -0.1204309 -0.093154915 -0.21623152
-0.10801108 -0.20827474 0.015698966 -0.089335956 -0.08888698 -0.45017755 0.090720385 -0.08153397
0.12134972 -0.21655689 0.16152945 -0.18335429 -0.37468928 0.05472034 -0.30901074 0.024435518
-0.0002343992 0.31686717 0.063139334 0.2645192 -0.50494134 -0.022415396 -0.10546801 -0.22962952
00000000: d2f2 413e f5d5 1b3e 86b0 f43d 9552 9cbe
00000010: 0d75 1d3e 97dd 9fbe 79b9 80bd aff3 713e
00000020: b09b 5fbc 2b65 31bd e2db d3bc 7911 3cbe
00000030: f17f 71be 1624 7c3e 8bac ad3d 87da 3e3e
00000040: 03a2 9d3e 7fa3 8bbe 4006 90be a390 2b3e
00000050: beea 123e d23a bcbe facb 7f3e 3ab4 153e
00000060: 2470 d53d d52f 27be 7f9f 5c3e 3afa 6e3e
00000070: 2d09 82bd 0011 60bc 9108 38be c6a5 22be
00000080: 1a2e 34be d5a1 59be e197 c4be d80a b83d
00000090: 1e7d 72be 6d50 91be ac92 7abe c448 aabd
000000a0: 702f 053e 0d1b d3be 30d4 2c3e 86ab e1bb
000000b0: 84b9 9ebe 6a4e c03e e466 853e 1f19 933c
000000c0: 9e49 323e de57 723e 5f71 d6bd e0ca 543e
000000d0: fe13 25be 3761 b93e dd28 aabe 17ee 28be
000000e0: f75c 263e 4fe2 a23e 0d0e ccbe e0ec dcbc
000000f0: 7bd8 003f a9b6 5dbe 8ed8 52be 3859 2d3e
00000100: 9e0a 373e 18cc 3dbb a5d0 133e 660f 03bf
00000110: 54e4 7cbe 5408 773c 5b54 a3be 66b5 8abe
00000120: 1e87 9bbe a50c 0f3e 02a9 1ebd 26a7 f83d
00000130: af01 f5bd d140 a7bd 5470 e43d bb82 823d
00000140: 1198 64be ef2c 1d3e 8ba1 3fbe c3bc 81be
00000150: 02d1 3abd 6186 033f 4db6 013e 23a3 833e
00000160: c3a3 973b cd6e 043c 0763 9e3e 2d88 e33d
00000170: f36a 20be 5bdf 5abe 650a 62be 7aa2 973d
00000180: 8f73 3ebd 7eec b43e 87a2 62bc 347f 203e
00000190: b4d9 833e 7017 9ebe 2240 42bd 98f3 82be
000001a0: c866 323e a259 583e 7dcf 3cbe fd93 e8bd
000001b0: 8173 6b3e 76dd 8b3e 9978 513d 8f9f a2be
000001c0: 77ec c73d 5408 17be b2f0 f93d f1d2 f5bd
000001d0: a33f 4ebe 02b3 20bb 72db 1c3e 5608 87be
000001e0: 631c 95be c102 553e 809b 103e f47e f9bd
000001f0: 8d2d e4bd 19b5 86bd a9de dc3c 8fb5 c0bd
00000200: cc5f 2d3e 8d79 a13e 9da2 9a3e fc0e bd3e
00000210: 4a3c 6bbe 3e93 8e3d 3abb 83be 118b cc3c
00000220: 0478 ba3d a19b 8abe d8d2 0dbe 735f 99bc
00000230: ca35 6b3e 4c5d 623e 381a 9abe ec98 8bbd
00000240: 8d07 a93e 2152 b63e bfbb 6fbe 8f5a a3be
00000250: af0b 153e 0706 f73e c6e5 053c e9cf 883e
00000260: 7660 11be bc83 50be 6bff 0cbe 4444 18bd
00000270: b311 78be 701a d33e 14b0 0b3e cf6d 60be
00000280: 4cb6 a7be dc8a e0bb 9715 8e3e f3a9 e43c
00000290: d5f9 9bbe a707 233d c04e eabb d359 dc3c
000002a0: 0e8f fd3d 03a1 cb3b 9649 88bd 0f16 e4ba
000002b0: cccc f4bc 43b5 9d3e 0356 c23d f224 5dbd
000002c0: a44a 39bd 9d64 95be 47c9 b8be 3c49 b73e
000002d0: 67c6 753e 0395 2fbe 50b1 a13c 481b 20be
000002e0: 60da ebbc 6441 973d 5509 253e dbc7 4a3e
000002f0: 4e2e f6bc a192 8bbe 5673 5b3e 590a eebd
00000300: d238 2d3e 2212 6ebe bd98 05be 7da2 9c3e
00000310: d699 033e 89a9 603d 9f08 5f3e 1da1 42bd
00000320: 14e6 80be c774 733e 1795 9c3d ee0e 3abc
00000330: efe3 63bd 4e8a cb3e fdb9 a73e 52c5 7bbc
00000340: 3220 85be 42dd 0b3c e7ed 00bf afe1 26bd
00000350: 5b44 203e d058 133e 9b91 09be f64a 5cbe
00000360: ca19 aabe 4b4f b03c 4793 cabd bc6c 753e
00000370: 0460 1d3e 241f a6be 377c 8dbd 854d ee3d
00000380: 6908 73be 4488 8ebd b55c d73d 2001 b1bd
00000390: e3e7 443d 7aa4 f6bd 01c8 bebd cc6b 5dbe
000003a0: ea34 ddbd f945 55be 1e9b 803c c5f5 b6bd
000003b0: 610a b6bd ac7d e6be 9ccb b93d 48fb a6bd
000003c0: 3486 f83d 17c1 5dbe fa67 253e 3ac1 3bbe
000003d0: 46d7 bfbe 6f22 603d a836 9ebe ff2c c83c
000003e0: 0ec9 75b9 6a3c a23e 324f 813d 106f 873e
000003f0: d643 01bf 7ea0 b7bc 9dff d7bd 0024 6bbe

weight_hh_l0 f4 [40, 10]
0.008966335 0.11551332 0.109470166 0.21853247 -0.2841284 -0.088181995 0.10402339 -0.3202691
0.18864572 -0.1962169 -0.21236828 0.32605007 0.29108056 0.019565985 0.28930455 -0.11123401
0.23717272 0.05002257 -0.2862818 0.12237472 0.17111717 -0.24262957 0.23383462 -0.64828795
-0.21286754 -0.1286317 0.22131497 -0.0035370728 -0.03769141 -0.18019682 0.18067275 -0.14006951
0.24489108 0.04629531 -0.00757212 0.1361867 0.32786188 -0.03465708 -0.37905574 -0.08288499
0.008563276 -0.043312494 0.38303933 0.13749348 0.29640222 -0.17333087 0.6700292 -0.0053142593
0.011391185 -0.15124753 -0.113990106 0.15088336 0.3437517 -0.301474 0.33402368 -0.22443642
-0.14050262 0.27773532 -0.3538277 -0.17025565 -0.18475112 0.20508346 0.3841029 0.6572623
0.3092799 -0.14722185 -0.043361064 0.21195751 0.049315985 -0.22177601 -0.17027913 0.01886748
0.36485296 0.01441108 0.014392759 0.17072648 0.10564488 0.26169446 0.0093667675 -0.2990034
-0.10931533 0.24009678 0.103095114 -0.22550416 0.15422636 0.25228179 0.17959961 -0.20265901
0.24552536 0.13541543 -0.27163458 0.2898879 0.36553916 0.26082924 0.35813332 -0.070255935
-0.078844175 0.13530907 -0.14077336 -0.27337465 -0.16386175 0.23825133 0.0024705774 0.29458186
0.019729346 0.073679306 -0.03899554 0.18294883 0.020169737 -0.22803743 0.11766905 0.07282034
-0.061973944 -0.11895088 0.20603277 0.0637597 0.13064665 -0.16166165 -0.041738804 -0.21920747
0.20316109 -0.1822644 -0.19672477 -0.58852935 -0.0014084212 0.22418329 0.09301837 0.12797204
-0.2591625 0.11806757 -0.24634703 0.0796966 0.2143713 -0.38335478 0.2435984 0.3062387
-0.22502045 0.018001892 -0.16076717 0.19832462 -0.13201107 0.21378572 0.20391728 -0.041521613
-0.05992124 0.46135435 -0.061222333 0.2605517 -0.34901768 0.13888742 0.24207497 -0.20233397
-0.16528063 -0.092391826 0.03341931 0.1888968 0.02765034 0.06502879 -0.23849699 -0.15672635
0.22542132 0.2271427 0.09371837 0.2572104 0.37408173 -0.07956993 -0.2531941 0.26505312
0.28962263 0.17613342 0.10838162 -0.13307147 0.16565228 0.07050364 0.0048321947 -0.042938326
-0.052400757 0.38489547 0.080159865 -0.029787796 -0.0075659053 0.06701278 -0.07348311 -0.112375714
0.20579192 -0.22887942 -0.22280446 0.2325819 0.13990468 0.23367935 -0.30406547 0.2457621
-0.06530956 0.12533145 0.30903268 -0.1891762 -0.27481043 0.19200654 0.02488083 -0.03249778
-0.026220307 -0.39609805 -0.1955905 0.185301 -0.078690276 -0.17045882 0.4502881 -0.09545122
-0.1507471 -0.17696865 -0.10645523 0.42894492 0.19076079 -0.16301785 -0.109931976 0.25204486
-0.34149355 -0.211487 -0.038693976 0.10843253 0.04593583 0.24422812 -0.1270416 -0.050177507
0.38853222 0.19158761 -0.11329384 0.039956603 -0.2773883 0.18902446 -0.13683826 -0.059694316
0.3941275 0.34834945 -0.12553905 0.004467006 -0.0649092 -0.039612103 0.04365551 0.06594671
0.2696673 -0.31551984 0.26083207 -0.09213336 0.30027056 0.015801383 -0.27667806 0.030196078
-0.17799637 -0.041381855 -0.099456064 -0.029468087 -0.31906277 0.44530573 0.0913282 0.2932797
00000000: 89e7 123c 3f92 ec3d e531 e03d fac6 5f3e
00000010: 4779 91be c398 b4bd 370a d53d 50fa a3be
00000020: 582c 413e 15ed 48be 1277 59be 09f0 a63e
00000030: 8308 953e d848 a03c ba1f 943e a8ce e3bd
00000040: 68dd 723e 77e4 4c3d 8793 92be 999f fa3d
00000050: 5739 2f3e e373 78be 5872 6f3e 33f6 25bf
00000060: f3f9 59be 07b8 03be 64a0 623e 3cce 67bb
00000070: 4f62 1abd 8485 38be 4702 393e 626e 0fbe
00000080: bac4 7a3e 27a0 3d3d 8c1f f8bb 8774 0b3e
00000090: 83dd a73e 95f4 0dbd 9813 c2be 9bbf a9bd
000000a0: fc4c 0c3c 7168 31bd bb1d c43e 17cb 0c3e
000000b0: 08c2 973e a67d 31be 0987 2b3f 3d23 aebb
000000c0: 18a2 3a3c a2e0 1abe a573 e9bd 2b81 1a3e
000000d0: 3900 b03e cd5a 9abe 2705 ab3e a9d2 65be
000000e0: ebdf 0fbe 5333 8e3e e728 b5be 7f57 2ebe
000000f0: 662f 3dbe 6601 523e 23a9 c43e 5842 283f
00000100: ef59 9e3e 53c1 16be 5f9b 31bd 640b 593e
00000110: 8fff 493d 4019 63be a75d 2ebe f98f 9a3c
00000120: 02ce ba3e 731c 6c3c 9bcf 6b3c ecd2 2e3e
00000130: 585c d83d d1fc 853e 1277 193c f916 99be
00000140: b7e0 dfbd eedb 753e 8823 d33d 90ea 66be
00000150: 84ed 1d3e 142b 813e f6e8 373e d885 4fbe
00000160: 006b 7b3e 58aa 0a3e b013 8bbe 306c 943e
00000170: f327 bb3e 698b 853e 405d b73e 58e2 8fbd
00000180: 0e79 a1bd 768e 0a3e e426 10be c3f7 8bbe
00000190: 60cb 27be 28f8 733e 69e9 213b 6fd3 963e
000001a0: 709f a13c 2de5 963d cab9 1fbd f056 3b3e
000001b0: 013b a53c a582 69be 79fc f03d d522 953d
000001c0: 64d8 7dbd 859c f3bd 41fa 523e 7294 823d
000001d0: 3cc8 053e a28a 25be 4ff6 2abd ec77 60be
000001e0: 7609 503e 85a3 3abe 3872 49be dca9 16bf
000001f0: c69a b8ba 4e90 653e 6a80 be3d 1a0b 033e
00000200: f2b0 84be 69cd f13d 6542 7cbe f937 a33d
00000210: 2684 5b3e 1447 c4be dc71 793e 52cb 9c3e
00000220: c36b 66be b478 933c 26a0 24be 9c15 4b3e
00000230: e92d 07be a5ea 5a3e b1cf 503e 9112 2abd
00000240: f96f 75bd a336 ec3e 45c4 7abd 0867 853e
00000250: 72b2 b2be 8138 0e3e 80e2 773e a330 4fbe
00000260: 533f 29be ed37 bdbd b0e2 083d 2a6e 413e
00000270: f782 e23c d02d 853d 8e38 74be df7c 20be
00000280: d9d4 663e 1998 683e 6bef bf3d 15b1 833e
00000290: a487 bf3e 8ff5 a2bd a8a2 81be 0bb5 873e
000002a0: 6b49 943e 525c 343e 2ff7 dd3d e343 08be
000002b0: c0a0 293e 3664 903d 6357 9e3b 19e0 2fbd
000002c0: 2da2 56bd 0511 c53e db2a a43d 8905 f4bc
000002d0: 6aeb f7bb ff3d 893d 507e 96bd 3d25 e6bd
000002e0: 1ebb 523e 5e5f 6abe da26 64be f329 6e3e
000002f0: 2c43 0f3e a449 6f3e 78ae 9bbe 0fa9 7b3e
00000300: 05c1 85bd e356 003e 8839 9e3e 68b7 41be
00000310: f4b3 8cbe 5d9d 443e e2d2 cb3c 641c 05bd
00000320: f8cb d6bc 5dcd cabe e048 48be 8cbf 3d3e
00000330: 5e28 a1bd c28c 2ebe 298c e63e ee7b c3bd
00000340: 735d 1abe 4537 35be 3305 dabd ab9e db3e
00000350: cc56 433e 27ee 26be 0424 e1bd 060c 813e
00000360: 3ed8 aebe 0c90 58be 937d 1ebd e011 de3d
00000370: 3527 3c3d f016 7a3e 3117 02be ee86 4dbd
00000380: b2ed c63e 8b2f 443e 9a06 e8bd 89a9 233d
00000390: d705 8ebe a18f 413e 541f 0cbe 0782 74bd
000003a0: 14cb c93e dc5a b23e 4f8d 00be f65f 923b
000003b0: 1def 84bd 4d40 22bd 1fd0 323d 120f 873d
000003c0: d511 8a3e d18b a1be c88b 853e 6ab0 bcbd
000003d0: 10bd 993e e771 813c bfa8 8dbe c45d f73c
000003e0: ae44 36be 0580 29bd 9faf cbbd 0f67 f1bc
000003f0: 325c a3be 1dff e33e 480a bb3d c228 963e

bias_ih_l0 f4 [40]
0.1930529 0.2640612 -0.26205796 0.42844358 0.23922597 -0.1486699 -0.0004830337 0.37780732
0.3478695 0.14530918 -0.23460749 -0.059879825 -0.23922575 -0.024595344 -0.14210111 0.12982616
0.2001023 0.039884247 0.25562674 0.3759172 0.06329133 0.17216091 -0.26027197 0.31567246
0.10037724 0.23915236 -0.15281202 0.14082636 -0.14565219 -0.05950403 0.075168245 -0.16631292
0.055123292 0.20579569 0.086415246 0.3149943 0.52493256 0.22759002 -0.24839842 0.07285708
00000000: a9af 453e 0833 873e 762c 86be f55c db3e
00000010: a7f7 743e ec3c 18be b03f fdb9 f66f c13e
00000020: f31b b23e eecb 143e f23c 70be 8c44 75bd
00000030: 98f7 74be 2d7c c9bc f482 11be 26f1 043e
00000040: 9ee7 4c3e aa5d 233d 82e1 823e 3878 c03e
00000050: e39e 813d f34a 303e 5e42 85be d29f a13e
00000060: 9592 cd3d 5be4 743e c17a 1cbe c934 103e
00000070: d925 15be 7fba 73bd cff1 993d ef4d 2abe
00000080: f6c8 613d 1bbc 523e 7afa b03d ef46 a13e
00000090: fb61 063f 5c0d 693e 285c 7ebe 1836 953d

bias_hh_l0 f4 [40]
0.12555721 -0.24395688 -0.21239302 0.007379666 -0.28711745 0.3316078 0.21314676 -0.08771179
0.34785733 -0.059737787 0.27366495 0.41492873 -0.01548651 -0.0349885 0.24481986 0.000718577
-0.036237735 0.27740103 -0.02494983 0.4321096 0.034201153 0.18942024 0.23637888 0.11321514
0.23565117 -0.15528566 0.1381562 0.2589064 -0.24905494 0.32460395 0.11377524 0.2002162
-0.09981925 0.008948164 0.13404787 -0.23783077 0.46423146 -0.11913872 0.18123093 -0.1273671
00000000: 1292 003e d5cf 79be 8e7d 59be 20d1 f13b
00000010: 0f01 93be 7fc8 a93e 2543 5a3e 3da2 b3bd
00000020: 5b1a b23e 9caf 74bd d01d 8c3e 8a71 d43e
00000030: 21bb 7dbc 1a50 0fbd 0fb2 7a3e e35e 3c3a
00000040: 056e 14bd 8207 8e3e 9663 ccbc 783d dd3e
00000050: 8216 0c3d 61f7 413e 4e0d 723e 57dd e73d
00000060: 8a4e 713e 3403 1fbe d278 0d3e 618f 843e
00000070: 4208 7fbe 7d32 a63e fe02 e93d 7a05 4d3e
00000080: 096e ccbd 529b 123c d843 093e e989 73be
00000090: bfaf ed3e 00ff f3bd 9a94 393e 856c 02be

weight_ih_l0 f4 [40, 22]
0.1795097 -0.32759875 -0.18086448 0.44296572 -0.036981788 -0.12347662 -0.28658137 0.0019383013
0.10339091 -0.1883854 -0.31960946 0.12961842 0.14506234 -0.09204728 -0.3895299 0.3320917
0.2878035 -0.082175046 -0.38347894 0.47007802 0.39133438 0.05305563 -0.2909671 -0.050079495
-0.30333945 0.08422367 0.018981297 -0.4563185 -0.03207657 0.046294346 -0.22776082 -0.14074332
0.12747127 0.29288277 -0.3283026 0.20433891 -0.045826174 0.12042765 0.06805004 -0.08900675
0.07577528 -0.028556645 0.124981835 0.2687581 -0.033393554 -0.045498103 -0.34771192 0.008199196
-0.18086542 -0.05923546 0.06641865 0.27682084 -0.28770092 0.06084973 0.103857696 -0.07357438
-0.26778072 0.2144222 -0.6042707 0.24813819 -0.15062462 -0.084965095 -0.086133525 0.21018042
0.19091965 0.0016598986 -0.2044295 0.026237816 -0.09101082 -0.21380852 -0.14831747 0.17533205
-0.089031234 0.18531163 -0.09674014 0.17799798 0.015559203 0.27213833 0.004636593 -0.057656035
-0.14642158 0.11305181 0.2534041 -0.40012273 -0.40541056 0.069271185 0.29083937 0.23235363
-0.22337994 -0.08047568 0.0990941 0.05750615 0.004357991 -0.20692219 -0.06509533 0.0977318
0.18027616 0.024623375 -0.2744093 0.071339175 0.46216634 0.21882837 0.0690427 -0.018605497
-0.14221422 0.19024354 -0.25696903 0.23515847 0.11479516 0.2349503 -0.060680952 -0.2700282
0.21046592 -0.049157366 -0.14911693 -0.14031065 -0.1498044 -0.08542251 0.016606823 -0.28764376
0.2607605 -0.18872412 0.049341504 -0.22244419 0.05401036 0.008863412 0.3190956 0.18478377
-0.117706224 -0.25184512 -0.07887719 0.0385977 -0.08857625 0.16012006 -0.20195659 0.14214547
-0.11530811 -0.01904285 0.068439126 -0.008570881 -0.0068838564 -0.21104255 0.2656727 0.36540344
0.28991383 0.25417483 -0.2394676 0.14951153 0.38743013 -0.040908974 -0.0058427346 -0.059409127
-0.101773314 0.11532016 0.40829527 -0.28282902 0.14509258 -0.20073654 -0.103029154 0.0074426807
-0.41215417 0.1983631 -0.039573856 -0.2651681 0.4265112 -0.08571108 0.14066695 0.17572956
0.12698957 0.084693626 -0.20746039 -0.2015282 0.098124996 -0.22400826 0.048188854 0.37896997
-0.018948885 0.30552337 -0.25156823 -0.21393804 0.29848698 -0.004140084 0.030768597 -0.10759672
0.041840713 0.1642471 -0.28246143 -0.31188956 -0.40173703 -0.08840892 -0.09950641 -0.24655852
0.089333996 0.111108154 -0.11170298 -0.30440456 0.16197452 0.2833108 -0.08733718 -0.18575367
-0.043060653 -0.07329676 0.15524651 0.03958026 -0.36715662 -0.12905195 -0.11234752 -0.21123837
-0.31206045 0.0014401798 -0.31543702 0.04028692 -0.27745855 -0.22142045 -0.25974578 -0.003737068
-0.37476107 0.30073473 -0.21221237 -0.022551972 -0.14442143 -0.34939915 -0.046494327 0.09472853
0.23112628 0.01713903 0.08910296 -0.037362117 0.17374027 -0.46592456 -0.3151085 0.073969685
0.04179854 -0.28563568 -0.12992497 0.33284009 0.10498025 -0.18026939 -0.20733234 0.15649359
-0.095765404 0.031032097 0.21941602 0.029487893 -0.26161435 0.23357971 0.07669787 -0.2897929
0.015014907 0.2739457 -0.22868443 -0.2017591 0.11080002 0.5039322 -0.17129128 -0.34691808
00000000: 64d1 373e 06bb a7be 8a34 39be 67cc e23e
00000010: 377a 17bd 4fe1 fcbd cbba 92be 990e fe3a
00000020: 9dbe d33d 1ae8 40be daa3 a3be b1ba 043e
00000030: 398b 143e 4983 bcbd 7770 c7be ec07 aa3e
00000040: fb5a 933e 644b a8bd 5a57 c4be 11ae f03e
00000050: fb5c c83e dc50 593d a4f9 94be 2820 4dbd
00000060: 4f4f 9bbe 767d ac3d aa7e 9b3c 94a2 e9be
00000070: b962 03bd 249f 3d3d 223a 69be 041f 10be
00000080: d487 023e bbf4 953e 4717 a8be 383e 513e
00000090: 3ab4 3bbd c6a2 f63d d25d 8b3d 2c49 b6bd
000000a0: 1230 9b3d a0ef e9bc 7af6 ff3d a99a 893e
000000b0: aec7 08bd 385c 3abd 4c07 b2be ec55 063c
000000c0: c934 39be e2a0 72bd 8006 883d 76bb 8d3e
000000d0: 894d 93be 913d 793d 58b3 d43d 2aae 96bd
000000e0: 8e1a 89be 7e91 5b3e 7cb1 1abf f017 7e3e
000000f0: 573d 1abe 2e02 aebd c666 b0bd 8939 573e
00000100: 7180 433e f490 d93a f855 51be b0f0 d63c
00000110: e163 babd 9ff0 5abe 89e0 17be 3f8a 333e
00000120: 0256 b6bd 55c2 3d3e b21f c6bd 1a45 363e
00000130: 07ec 7e3c b755 8b3e 90ee 973b bc28 6cbd
00000140: 8aef 15be b587 e73d 2fbe 813e e3dc ccbe
00000150: f991 cfbe 0dde 8d3d e6e8 943e 1cee 6d3e
00000160: b6bd 64be 6fd0 a4bd d9f1 ca3d 928b 6b3d
00000170: 7acd 8e3b 69e3 53be b350 85bd 9c27 c83d
00000180: 509a 383e f6b6 c93c 607f 8cbe 461a 923d
00000190: 11a1 ec3e 8b14 603e 4266 8d3d 8e6a 98bc
000001a0: 9ba0 11be 34cf 423e 7291 83be 62cd 703e
000001b0: ba19 eb3d d096 703e 978c 78bd 2341 8abe
000001c0: 6184 573e 3c59 49bd 1cb2 18be 98ad 0fbe
000001d0: 5366 19be fff1 aebd 080b 883c 0b46 93be
000001e0: 6682 853e e540 41be 511a 4a3d 69c8 63be
000001f0: f839 5d3d d837 113c 8060 a33e f537 3d3e
00000200: f60f f1bd d8f1 80be 5d8a a1bd 9f18 1e3d
00000210: 7767 b5bd 83f6 233e b5cd 4ebe 958e 113e
00000220: a926 ecbd c0ff 9bbc d029 8c3d e16c 0cbc
00000230: f991 e1bb 8a1b 58be 4106 883e 2916 bb3e
00000240: 966f 943e 3423 823e ff36 75be 8d19 193e
00000250: 3e5d c63e 2b90 27bd 6974 bfbb fc56 73bd
00000260: 876e d0bd fa2c ec3d 140c d13e f7ce 90be
00000270: 2693 143e e18d 4dbe f300 d3bd bbe1 f33b
00000280: df05 d3be b21f 4b3e 3218 22bd 1dc4 87be
00000290: ad5f da3e 4a89 afbd ff0a 103e 73f2 333e
000002a0: 8e09 023e da73 ad3d 7f70 54be 695d 4ebe
000002b0: c2f5 c83d 6c62 65be ad61 453d 5a08 c23e
000002c0: b13a 9bbc 8f6d 9c3e 8dcd 80be 9312 5bbe
000002d0: 49d3 983e 8ba9 87bb 6d0e fc3c ab5b dcbd
000002e0: 2b61 2b3d 6430 283e c99e 90be fdaf 9fbe
000002f0: 7ab0 cdbe bc0f b5bd 04ca cbbd d679 7cbe
00000300: bef4 b63d ac8c e33d 88c4 e4bd eada 9bbe
00000310: a6dc 253e 1d0e 913e d6dd b2bd 3636 3ebe
00000320: 5e60 30bd 9d1c 96bd f1f8 1e3e e91e 223d
00000330: f4fb bbbe 3226 04be 7516 e6bd df4e 58be
00000340: 63c6 9fbe 6ac4 bc3a f680 a1be e603 253d
00000350: 0c0f 8ebe 0bbc 62be 66fd 84be 99e9 74bb
00000360: afe0 bfbe e7f9 993e 334e 59be eabe b8bc
00000370: 36e3 13be 72e4 b2be d670 3ebd 0801 c23d
00000380: 5eac 6c3e 2767 8c3c 9d7b b63d 0509 19bd
00000390: f8e8 313e aa8d eebe e755 a1be 6b7d 973d
000003a0: f234 2b3d d73e 92be 0d0b 05be 046a aa3e
000003b0: e3ff d63d 8a98 38be ee4e 54be db3f 203e
000003c0: a720 c4bd 0637 fe3c 98ae 603e 9890 f13c
000003d0: 51f2 85be 852f 6f3e c613 9d3d bc5f 94be
000003e0: 1601 763c 9c42 8c3e 402c 6abe f099 4ebe
000003f0: 1feb e23d b301 013f fb66 2fbe 3f9f b1be
