LSTM/code/model/old_model/model_mk6_500epoch_0.0339trainloss_0.0303validloss.pt (torch, 46404 bytes, 32 tensors)

weight_ih_l0 f4 [40, 22]
0.12282396 0.002584667 -0.25861552 0.23407501 -0.032378886 0.21368118 -0.037265945 -0.10547243
-0.1479441 0.12923695 0.055550516 0.29833865 -0.27754465 0.00097556476 0.10255367 -0.172293
-0.07858265 -0.16110884 0.20266844 0.2943287 0.10657663 -0.10319922 0.14917505 0.021596642
0.02759232 -0.1328777 -0.12774746 0.28100577 0.2217673 0.17375824 -0.01854959 0.24909255
0.29076147 0.32563862 -0.16562697 0.18269065 0.17460635 0.05777854 0.14474623 0.25279808
0.12790626 0.032206047 0.19220272 -0.14319824 0.25474796 0.11468579 0.026308186 -0.19065203
0.2289907 0.32068345 0.0033881485 -0.24908596 0.27324262 -0.14642319 -0.38158277 -0.24738534
0.1336213 -0.2126535 0.16698012 0.3395248 -0.20617269 0.19681457 -0.26488188 -0.23679785
0.1277247 0.17820328 0.106073104 -0.3474191 -0.09481292 0.16949172 0.24583274 -0.16482206
-0.03411107 0.01429858 0.100492254 0.2538584 -0.22819112 0.049518146 -0.2703789 -0.081353284
0.12734334 -0.23659115 0.23536138 -0.28287554 -0.14176467 0.34075326 -0.03512687 -0.04692206
-0.12146316 0.30584347 -0.029963182 -0.028042376 0.22233081 -0.16772908 -0.0069804145 0.07810646
-0.32981074 0.038524497 0.19518614 -0.1977098 0.14586058 0.12084226 -0.21275365 0.27529117
0.01614871 -0.009110077 -0.2078438 -0.123677485 -0.26370892 0.11710904 0.12442359 0.23715757
0.06235301 0.2279297 0.08865511 0.14920948 -0.28212845 -0.04235961 -0.14659166 -0.17073129
0.035729174 0.33984968 -0.19143137 -0.16549891 0.14674461 0.16059603 0.110531345 0.046105996
-0.16833863 0.2591054 0.2886927 0.17443284 0.20280217 -0.20638222 -0.06245391 0.028191652
-0.03182329 -0.10374415 0.25873467 0.10046168 -0.05853145 0.2755598 0.055921514 0.11116378
0.0539181 0.006233819 -0.082861386 0.24541277 -0.027681423 -0.030754725 0.20525199 -0.16728117
-0.031562068 0.13840444 -0.15648274 -0.08625532 -0.12614566 -0.036031477 -0.34402403 -0.2837278
0.28041357 0.16505234 0.13780876 0.11969896 0.11943587 -0.24831857 0.18669382 -0.29525754
0.207231 -0.07625333 -0.15626724 0.26402208 -0.21714044 0.20739752 -0.037257306 -0.049015958
-0.2544089 -0.29478788 -0.06139915 -0.09470565 -0.22537874 0.17903244 -0.29945993 0.043822307
-0.0574983 -0.20879431 -0.3239787 -0.14359625 0.30910406 -0.25191197 -0.2998261 -0.09481741
-0.15166284 -0.16049674 0.104761824 0.08232431 -0.009225814 0.25000563 0.25039262 0.07090815
-0.14872037 0.38848603 -0.16457969 0.12174144 0.02993479 -0.06982805 -0.15618682 -0.34637827
0.042542093 0.22085662 -0.08641385 0.18905646 0.019769575 0.3651691 0.06276014 0.1532871
-0.38474697 0.3877109 -0.06694654 0.402239 0.24539985 0.034298815 -0.042898286 0.043886147
0.20479888 -0.051529057 -0.1946194 -0.18370059 -0.1082644 0.08418743 0.19186334 -0.07935322
0.2973514 -0.28894782 0.20262131 -0.1840483 -0.022455335 -0.29836875 -0.18841042 0.38617444
0.18494357 0.23895939 -0.14794874 -0.271577 -0.0073188576 0.4012078 0.08533905 -0.17611548
-0.11809576 -0.12709205 0.21416417 0.088103 -0.318301 -0.1714786 0.21347563 0.03606287
00000000: 218b fb3d 8463 293b 4169 84be 5cb1 6f3e
00000010: b99f 04bd 3dcf 5a3e 2da4 18bd ee01 d8bd
00000020: a87e 17be b156 043e f088 633d d8bf 983e
00000030: 551a 8ebe 0bbd 7f3a a907 d23d 946d 30be
00000040: f1ef a0bd b7f9 24be 5188 4f3e 40b2 963e
00000050: d944 da3d 1d5a d3bd 58c1 183e 71eb b03c
00000060: 4a09 e23c 1711 08be 3bd0 02be fddf 8f3e
00000070: f816 633e aeed 313e 4ff5 97bc 1e12 7f3e
00000080: b0de 943e 1bba a63e 1e9a 29be 4213 3b3e
00000090: 02cc 323e 31a9 6c3d 5b38 143e c06e 813e
000000a0: dcf9 023e 7dea 033d cad0 443e 8fa2 12be
000000b0: 536e 823e 62e0 ea3d 4484 d73c 493a 43be
000000c0: 8a7c 6a3e 9f30 a43e b30b 5e3b 6410 7fbe
000000d0: 75e6 8b3e f6ef 15be d15e c3be 9552 7dbe
000000e0: 06d4 083e d7c1 59be d6fc 2a3e 32d6 ad3e
000000f0: ef1e 53be c289 493e 999e 87be 237b 72be
00000100: 44ca 023e ec7a 363e db3c d93d ebe0 b1be
00000110: 472d c2bd 3d8f 2d3e 94bb 7b3e 1dc7 28be
00000120: 0db8 0bbd 9744 6a3c e2ce cd3d baf9 813e
00000130: efaa 69be 8ad3 4a3d 1a6f 8abe 8d9c a6bd
00000140: 4b66 023e f344 72be 9302 713e 10d5 90be
00000150: c22a 11be 3677 ae3e 31e1 0fbd 5931 40bd
00000160: adc1 f8bd 8497 9c3e 5975 f5bc 20b9 e5bc
00000170: b0aa 633e 2cc1 2bbe f6bb e4bb 48f6 9f3d
00000180: f4dc a8be ddcb 1d3d e0de 473e 7074 4abe
00000190: 7a5c 153e 267c f73d 18dc 59be f7f2 8c3e
000001a0: 4d4a 843c 6f42 15bc 01d5 54be 9f4a fdbd
000001b0: db04 87be ddd6 ef3d ccd1 fe3d 6fd9 723e
000001c0: df65 7f3d 6766 693e cf90 b53d 5fca 183e
000001d0: 2473 90be 4581 2dbd 201c 16be 2fd4 2ebe
000001e0: c158 123d c700 ae3e 9606 44be 8c78 29be
000001f0: 3844 163e 4973 243e 425e e23d a4d9 3c3d
00000200: f660 2cbe 77a9 843e 88cf 933e 869e 323e
00000210: 5fab 4f3e dc55 53be accf 7fbd 2ef2 e63c
00000220: 2359 02bd d077 d4bd df78 843e dabe cd3d
00000230: acbe 6fbd 2d16 8d3e f50d 653d d6a9 e33d
00000240: 3ad9 5c3d 1045 cc3b 3bb3 a9bd 7c4d 7b3e
00000250: 27c4 e2bc 55f1 fbbc 942d 523e c14b 2bbe
00000260: 3a47 01bd e5b9 0d3e 033d 20be a1a6 b0bd
00000270: 542c 01be be95 13bd eb23 b0be c544 91be
00000280: 5e92 8f3e 7b03 293e bd1d 0d3e ba24 f53d
00000290: cb9a f43d 3947 7ebe aa2c 3f3e ff2b 97be
000002a0: 5d34 543e b52a 9cbd 8504 20be e72d 873e
000002b0: 105a 5ebe 0460 543e 1e9b 18bd f5c4 48bd
000002c0: e241 82be 70ee 96be ad7d 7bbd 09f5 c1bd
000002d0: afc9 66be 4854 373e d052 99be 057f 333d
000002e0: 5683 6bbd 2dce 55be 89e0 a5be e50a 13be
000002f0: e342 9e3e 9bfa 80be ce82 99be a12f c2bd
00000300: 814d 1bbe 4259 24be 5e8d d63d a699 a83d
00000310: de27 17bc bd00 803e 7633 803e 4b38 913d
00000320: 274a 18be a4e7 c63e 9487 28be 9353 f93d
00000330: ce39 f53c 0202 8fbd 70ef 1fbe 7e58 b1be
00000340: 9e40 2e3d 3d28 623e bff9 b0bd 0498 413e
00000350: cef3 a13c 72f7 ba3e 6388 803d 4bf7 1c3e
00000360: 8efd c4be 0b82 c63e 441b 89bd 45f2 cd3e
00000370: 194a 7b3e ea7c 0c3d 1db6 2fbd f6c1 333d
00000380: ccb6 513e 2210 53bd 4f4a 47be 021c 3cbe
00000390: bab9 ddbd 766a ac3d d377 443e f183 a2bd
000003a0: 713e 983e f8f0 93be f67b 4f3e 2877 3cbe
000003b0: 40f4 b7bc cac3 98be a9ee 40be a8b8 c53e
000003c0: d961 3d3e c5b1 743e e07f 17be 240c 8bbe
000003d0: 07d3 efbb 1c6b cd3e 3dc6 ae3d 9e57 34be
000003e0: 31dc f1bd 6b24 02be da4d 5b3e 586f b43d
000003f0: 59f8 a2be 1698 2fbe 5b99 5a3e a9b6 133d

weight_hh_l0 f4 [40, 10]
0.09217303 0.3376143 -0.23419401 -0.14204665 0.0075085917 -0.06328547 0.20234147 0.20971577
-0.08642379 -0.2514782 0.0018590238 -0.053191528 -0.1853821 0.13322063 -0.20445596 0.11746206
-0.36400762 -0.37624067 -0.15925798 0.121023834 -0.01114771 -0.19368553 0.20011948 -0.12023727
0.3317648 -0.20115791 -0.038672544 -0.25564593 0.06456565 -0.06442428 -0.24369165 0.16834877
0.2630059 -0.10292376 -0.15008445 0.17912176 -0.3039455 0.17858884 0.1788296 -0.18417095
-0.2269313 -0.058696166 0.25171852 -0.28914824 0.3081548 0.043969624 -0.2394885 -0.19501978
-0.13016601 -0.0912954 0.22771344 0.2831527 0.20724536 0.2246191 0.39131117 -0.03267507
0.062294852 0.18113676 0.07268828 -0.24244027 0.3445821 0.14401339 0.08706232 0.2576612
-0.022039156 0.1700647 -0.1849228 -0.056620196 -0.24377675 0.1818231 -0.15692392 -0.19029401
-0.060528677 -0.17857094 -0.12956274 0.10780001 0.076752484 0.13402371 0.19785376 0.085714154
0.1350112 0.20915 0.3039042 0.0987708 -0.14780231 0.057181753 -0.06317326 -0.29959524
0.08236302 -0.29891112 -0.1143298 0.018208701 0.2232879 0.1553024 0.07115999 -0.20548579
-0.03024442 -0.16710119 0.023227878 -0.3596319 0.311764 -0.088149056 0.40935823 0.054978542
0.14107023 0.3768171 -0.10352932 0.0637335 -0.017920684 0.027270665 0.0679591 0.42908564
0.16228367 0.010952831 0.26868695 -0.11667839 -0.08568079 -0.2133616 -0.40094027 -0.021913374
0.2292898 0.13458762 0.38124123 0.10773831 0.20956455 0.36887455 -0.1449283 -0.23034847
-0.3932483 -0.17091276 0.21512325 0.40009874 0.2895134 -0.32828075 0.079776354 -0.12611222
0.13131566 -0.109760225 -0.4238762 -0.088621445 0.09463768 -0.25586367 -0.100696795 0.15550642
0.075639725 -0.0018122671 0.25313523 0.2500822 -0.007986901 -0.1659456 -0.057875562 0.2021236
0.21429689 -0.0073853773 0.33432767 -0.009569465 -0.35324582 -0.08761718 -0.04356957 -0.41120726
0.061163843 0.1564901 -0.050357655 0.10210577 -0.11860705 0.34959152 -0.11561235 -0.047560148
0.09526077 0.008871213 0.19841114 -0.17580383 0.13567956 -0.04344865 0.38189754 0.1074045
0.26079783 -0.026606016 -0.10355562 -0.31704822 0.04221041 0.010960728 0.43193272 -0.20614892
0.29521567 0.12581137 -0.12630036 0.011279079 -0.34110445 0.14988774 0.20644748 0.3149989
0.14543408 -0.17060289 -0.2016681 0.012889986 -0.09040173 -0.036032196 0.111270465 -0.07338031
-0.16528167 0.22403955 0.16025275 -0.09019522 -0.18347538 -0.038923856 0.09020338 0.034996636
0.010268762 0.052004434 -0.31694037 -0.12637071 0.39052862 0.020843502 0.15941255 -0.17627053
-0.010346749 -0.15629889 0.10990032 -0.353413 -0.09075071 -0.108604684 0.38483545 0.0075664045
0.17092603 0.3720533 -0.09323711 -0.19401444 0.14072855 0.031528044 -0.21540122 -0.0062402436
-0.12747759 0.072573945 -0.00493873 0.2279758 0.066995196 -0.280832 0.09538027 -0.023481438
-0.28153503 -0.07087127 0.3730443 0.11220887 -0.18446872 -0.07940925 -0.058907937 -0.1321901
0.09831727 -0.27817184 0.037373055 -0.1302833 0.33857644 -0.32779482 0.07361314 0.2598839
00000000: 37c5 bc3d c8db ac3e 8ed0 6fbe ad74 11be
00000010: a20a f63b d09b 81bd 9a32 4f3e bbbf 563e
00000020: f5fe b0bd c0c1 80be 7daa f33a 5cdf 59bd
00000030: ced4 3dbe fd6a 083e e75c 51be f38f f03d
00000040: 355f babe 9ea2 c0be 8614 23be 58db f73d
00000050: e2a4 36bc 8055 46be 1fec 4c3e f53e f6bd
00000060: 13dd a93e 57fc 4dbe 1a67 1ebd 06e4 82be
00000070: ff3a 843d e0f0 83bd 4e8a 79be 9f63 2c3e
00000080: b6a8 863e b1c9 d2bd bdaf 19be b26b 373e
00000090: bf9e 9bbe fedf 363e 1b1f 373e 4f97 3cbe
000000a0: ae60 68be 646b 70bd 40e1 803e 3d0b 94be
000000b0: 77c6 9d3e 7e19 343d 793c 75be 44b3 47be
000000c0: 3d4a 05be 15f9 babd b62d 693e 64f9 903e
000000d0: 2138 543e 8d02 663e f059 c83e 4bd6 05bd
000000e0: e328 7f3d ea7b 393e 98dd 943d 4342 78be
000000f0: 116d b03e 3f78 133e bb4d b23d 2bec 833e
00000100: 768b b4bc 7125 2e3e 675c 3dbe 94ea 67bd
00000110: 9da0 79be d62f 3a3e aab0 20be 6fdc 42be
00000120: ebec 77bd 4ddb 36be 18ac 04be 40c6 dc3d
00000130: 6830 9d3d 833d 093e 2d9a 4a3e e78a af3d
00000140: 6040 0a3e 6b2b 563e 5599 9b3e 5848 ca3d
00000150: 7d59 17be 6a37 6a3d fb60 81bd 8c64 99be
00000160: f1ad a83d e10a 99be be25 eabd 6a2a 953c
00000170: 95a5 643e 9807 1f3e 54bc 913d de6a 52be
00000180: 25c3 f7bc 931c 2bbe 6448 be3c ac21 b8be
00000190: 889f 9f3e 7e87 b4bd 6797 d13e 2e31 613d
000001a0: b774 103e 2cee c03e 2e07 d4bd b686 823d
000001b0: 66ce 92bc bb66 df3c 242e 8b3d 1db1 db3e
000001c0: b12d 263e 8173 333c 5691 893e 14f5 eebd
000001d0: 6979 afbd 777b 5abe 0b48 cdbe ad83 b3bc
000001e0: f2ca 6a3e 56d1 093e 0d32 c33e e7a5 dc3d
000001f0: 1798 563e 20dd bc3e 1668 14be 78e0 6bbe
00000200: d757 c9be c103 2fbe 4549 5c3e bed9 cc3e
00000210: 1a3b 943e 6a14 a8be c961 a33d 9023 01be
00000220: 9d77 063e f8c9 e0bd 4d06 d9be 297f b5bd
00000230: 66d1 c13d 9000 83be 1f3a cebd 133d 1f3e
00000240: 00e9 9a3d 9889 edba f19a 813e c60a 803e
00000250: 7edb 02bc a5ed 29be ed0e 6dbd 7df9 4e3e
00000260: a570 5b3e 0901 f2bb ff2c ab3e 3fc9 1cbc
00000270: a3dc b4be a370 b3bd 0176 32bd c289 d2be
00000280: f086 7a3d f13e 203e d443 4ebd d41c d13d
00000290: 41e8 f2bd a9fd b23e 2bc6 ecbd 6ece 42bd
000002a0: 1418 c33d 9058 113c 4a2c 4b3e eb05 34be
000002b0: 95ef 0a3e 36f7 31bd 1388 c33e e4f6 db3d
000002c0: 4b87 853e dcf4 d9bc f814 d4bd 2554 a2be
000002d0: d3e4 2c3d a094 333c 4926 dd3e b418 53be
000002e0: 8226 973e b2d4 003e e254 01be e3cb 383c
000002f0: 3ea5 aebe 2c7c 193e f866 533e 8947 a13e
00000300: acec 143e 86b2 2ebe 1582 4ebe 8530 533c
00000310: 8b24 b9bd 7f96 13bd c5e1 e33d 6a48 96bd
00000320: 993f 29be a06a 653e 4c19 243e 46b8 b8bd
00000330: f8e0 3bbe 9f6e 1fbd 8dbc b83d a258 0f3d
00000340: 4f3e 283c 9a02 553d 0246 a2be 5367 01be
00000350: 5ef3 c73e febf aa3c 0b3d 233e 4380 34be
00000360: 6985 29bc d10c 20be 6b13 e13d 8cf2 b4be
00000370: 82db b9bd 226c debd 2709 c53e 9aef f73b
00000380: 3c07 2f3e c57d be3e 19f3 bebd b9ab 46be
00000390: 251b 103e 8d23 013d 2392 5cbe f57a ccbb
000003a0: 7c89 02be a6a1 943d 12d5 a1bb 7d72 693e
000003b0: c734 893d 36c9 8fbe bb56 c33d 255c c0bc
000003c0: 5c25 90be f524 91bd aaff be3e c4cd e53d
000003d0: 5ee5 3cbe 51a1 a2bd 7349 71bd d75c 07be
000003e0: 915a c93d 8a6c 8ebe 7d14 193d fc68 05be
000003f0: e459 ad3e b9d4 a7be 7cc2 963d 810f 853e

bias_ih_l0 f4 [40]
-0.05304533 0.30641407 0.12106442 -0.028925382 0.05276387 -0.1711 0.15696836 -0.2484618
0.08064374 0.29047018 0.23309822 -0.08211454 0.14719419 0.07267599 0.3465972 0.09541342
-0.02388048 -0.27724028 -0.1546998 -0.020484628 0.15974344 0.26907912 -0.08137008 -0.18656604
-0.030970346 0.16661817 -0.1893572 -0.14741546 -0.3219248 -0.2884103 -0.18186249 -0.03701307
0.2768267 -0.09064553 -0.08525211 -0.2380544 0.0019974906 0.1490429 -0.10461071 0.35585406
00000000: 0f46 59bd 4ee2 9c3e 9ff0 f73d ecf4 ecbc
00000010: ee1e 583d d734 2fbe 50bc 203e c56c 7ebe
00000020: 8c28 a53d 82b8 943e 4db1 6e3e ab2b a8bd
00000030: 13ba 163e 26d7 943d 3075 b13e 1c68 c33d
00000040: ffa0 c3bc 70f2 8dbe a069 1ebe 61cf a7bc
00000050: c993 233e bdc4 893e 5ba5 a6bd 2b0b 3fbe
00000060: 86b5 fdbc f49d 2a3e dbe6 41be 14f4 16be
00000070: 54d3 a4be 84aa 93be 293a 3abe 049b 17bd
00000080: 3bbc 8d3e 5da4 b9bd a998 aebd 88c4 73be
00000090: 55e8 023b b49e 183e 243e d6bd 8132 b63e

bias_hh_l0 f4 [40]
-0.032249317 0.12867166 -0.20710737 0.07081862 0.12262111 0.31652322 -0.20362112 0.31473693
-0.12310646 -0.12968913 -0.05850327 -0.002137819 0.35061154 -0.17236273 0.0312622 -0.046288062
0.033337586 0.13865955 0.23520179 0.25481123 0.3422141 -0.12669788 0.26671138 0.07987746
0.005705396 0.3385249 -0.36285412 0.20869581 -0.32635888 0.1492946 0.35739654 -0.039352734
-0.019070212 0.38234606 0.35755804 0.2148834 0.24886753 -0.21855305 -0.04778265 0.12512705
00000000: dc17 04bd 81c2 033e f413 54be 5a09 913d
00000010: c720 fb3d 550f a23e 0e82 50be 3325 a13e
00000020: 3d1f fcbd 3acd 04be 20a1 6fbd a71a 0cbb
00000030: 5b83 b33e db7f 30be cb0c 003d 8d98 3dbd
00000040: fe8c 083d c5fc 0d3e bdd8 703e 9e76 823e
00000050: b036 af3e 17bd 01be 658e 883e cb96 a33d
00000060: 55f4 ba3b 2353 ad3e 04c8 b9be 5bb4 553e
00000070: 8318 a7be afe0 183e aefc b63e 5530 21bd
00000080: 2239 9cbc ddc2 c33e d911 b73e 650a 5c3e
00000090: 21d7 7e3e 5fcc 5fbe bdb7 43bd 4e21 003e

weight_ih_l0 f4 [40, 22]
0.26674056 0.29052365 -0.23937146 -0.15167548 0.29046506 -0.13442606 -0.13451731 0.24024059
0.22928497 0.2479989 -0.2719032 0.33939052 -0.18804833 0.30460453 -0.02955618 -0.14258853
-0.16677508 -0.21163134 0.25453505 0.31731436 0.2663273 0.29060212 -0.12309332 0.100166075
-0.06630967 -0.04964986 -0.15411702 0.03185591 -0.22117235 0.04731674 -0.16325073 0.19730276
0.108997665 0.2923746 -0.24075891 0.22966455 0.1326679 -0.18801513 0.15569688 0.27932054
-0.2989029 -0.00020639831 0.23677921 -0.08291808 -0.20433262 -0.15270722 -0.0873413 0.26986018
-0.13569067 0.20072722 0.29925686 -0.13516928 -0.281129 0.25336888 0.27639943 -0.067481264
0.060752895 0.2063395 -0.07777469 0.34858966 0.0014357375 -0.1778116 -0.21086769 -0.0006773634
0.26569 0.24597286 0.12788014 0.12809935 0.08677376 0.36650303 -0.25371137 0.057428226
0.10363523 -0.14594416 -0.1060813 0.025471985 0.13718216 0.19734292 -0.15311646 0.34771708
-0.32235962 0.32101068 0.3079306 -0.25948396 0.14382966 -0.0017208157 -0.1483925 0.26917192
0.13843091 0.32600266 0.23687616 0.05900219 0.25795737 -0.28341743 -0.27247068 0.20973067
-0.2596638 -0.123810664 0.2351252 0.054467052 0.323911 -0.24732715 -0.3257719 0.16064398
0.3330509 0.30215305 -0.17646055 -0.2724464 -0.20478031 -0.17706287 -0.059233155 -0.093480475
-0.09959655 -0.1441753 -0.07689571 0.061332032 0.12786043 -0.23134449 -0.21863872 0.2858004
0.28915226 0.17886844 0.20278595 0.237132 0.06084184 -0.2613487 -0.17850424 0.19837068
0.006080734 0.066022694 0.031757236 0.11271316 -0.19280781 0.19602737 0.1674373 -0.21841598
0.19422069 -0.1377667 0.22058323 0.26461822 -0.122658096 -0.17470956 0.13725154 0.29105866
0.15307793 0.25641987 -0.28129467 -0.20709871 -0.05918808 -0.23867054 0.00113607 0.3753294
0.2973881 0.07236464 0.062409572 0.0020093834 0.35386035 0.18503883 0.091390595 -0.16827285
0.3168204 -0.11039829 0.2513655 -0.054760095 -0.19636424 -0.15396385 0.13234611 0.12276652
0.108869955 0.16354808 0.23192413 0.034923825 0.051876456 -0.16382082 -0.0601329 0.037066266
-0.19558805 -0.23120533 -0.26036674 -0.10298062 -0.24118432 0.29272085 0.03702703 -0.117335655
0.1424179 -0.19598976 0.037130047 0.11057228 -0.28007996 -0.27797836 -0.34714916 -0.15600714
-0.12193101 -0.3414975 -0.18787365 -0.20713378 0.3228082 -0.20244752 -0.21124278 -0.07850825
-0.28485355 -0.059091736 0.15751362 -0.03205207 0.15131514 0.12510033 -0.0985587 -0.109513596
0.24183662 0.27748895 0.25494853 0.20902915 -0.069522485 0.2669448 0.17491904 -0.29987264
-0.14658114 -0.23426548 0.26521245 0.31653196 -0.11185603 -0.12878604 -0.21478309 0.19416608
-0.1316184 0.26465794 -0.10572118 0.3237555 0.17173997 0.23608921 -0.13182469 -0.00021459837
-0.25429383 -0.19448307 0.089546345 0.10616472 0.013102143 0.071336865 -0.029907117 0.15382856
0.078100346 -0.20319813 0.121821836 -0.22552581 -0.20465887 0.0968488 -0.0994578 -0.0353604
0.08356853 0.19098379 0.08859678 -0.2828504 -0.3003872 0.26790097 0.32342583 0.12206901
00000000: 3892 883e 84bf 943e cb1d 75be d150 1bbe
00000010: d6b7 943e fca6 09be e8be 09be a101 763e
00000020: aec9 6a3e 6cf3 7d3e e536 8bbe 98c4 ad3e
00000030: be8f 40be 20f5 9b3e cd1f f2bc ba02 12be
00000040: 16c7 2abe e3b5 58be 6b52 823e 0777 a23e
00000050: 0d5c 883e cdc9 943e 5a18 fcbd df23 cd3d
00000060: 5dcd 87bd a75d 4bbd dad0 1dbe 587b 023d
00000070: 017b 62be 33cf 413d 332b 27be bc09 4a3e
00000080: 2b3a df3d 20b2 953e 8189 76be 2f2d 6b3e
00000090: 18da 073e 0a87 40be 016f 1f3e 1a03 8f3e
000000a0: cd09 99be a06c 58b9 4076 723e f4d0 a9bd
000000b0: 923c 51be 485f 1cbe ffdf b2bd 1d2b 8a3e
000000c0: 7ff2 0abe 708b 4d3e 3238 993e d169 0abe
000000d0: 24f0 8fbe 91b9 813e 3a84 8d3e 9e33 8abd
000000e0: 07d8 783d a94a 533e 5648 9fbd 587a b23e
000000f0: 5b2f bc3a 3e14 36be b3ed 57be 1791 31ba
00000100: 8508 883e 4fe0 7b3e 03f3 023e 7a2c 033e
00000110: 71b6 b13d 49a6 bb3e 75e6 81be dc39 6b3d
00000120: b53e d43d 6372 15be 2741 d9bd a0aa d03c
00000130: 7b79 0c3e 4314 4a3e 90ca 1cbe f907 b23e
00000140: 520c a5be 835b a43e 14a9 9d3e 15db 84be
00000150: 1548 133e fe8c e1ba 34f4 17be e7d0 893e
00000160: d5c0 0d3e d2e9 a63e aa8f 723e 48ac 713d
00000170: fd12 843e 171c 91be 4781 8bbe a3c3 563e
00000180: a7f2 84be 7290 fdbd a9c4 703e d818 5f3d
00000190: aad7 a53e 5443 7dbe 93cb a6be db7f 243e
000001a0: a685 aa3e ceb3 9a3e 13b2 34be 187e 8bbe
000001b0: eeb1 51be f84f 35be 779e 72bd b172 bfbd
000001c0: 47f9 cbbd b1a2 13be 7f7b 9dbd 4c37 7b3d
000001d0: d8ed 023e 92e5 6cbe d4e2 5fbe 6e54 923e
000001e0: c40b 943e 4a29 373e 1fa7 4f3e bbd2 723e
000001f0: 4b35 793d 7fcf 85be d1c9 36be af21 4b3e
00000200: e540 c73b e836 873d e013 023d 28d6 e63d
00000210: 696f 45be 66bb 483e af74 2b3e 70a8 5fbe
00000220: cae1 463e b712 0dbe 92e0 613e 0a7c 873e
00000230: 2b34 fbbd 10e7 32be ab8b 0c3e a405 953e
00000240: 76c0 1c3e 7749 833e db05 90be af11 54be
00000250: 336f 72bd 0d66 74be 2fe8 943a 2d2b c03e
00000260: 4143 983e ea33 943d 2ea1 7f3d dcaf 033b
00000270: 2f2d b53e d27a 3d3e fe2a bb3d b84f 2cbe
00000280: 4936 a23e 8018 e2bd fbb2 803e 1f4c 60bd
00000290: b513 49be b3a8 1dbe bd85 073e 036d fb3d
000002a0: 36f7 de3d 2679 273e 857d 6d3e 490c 0f3d
000002b0: 687c 543d a5c0 27be ea4d 76bd ccd2 173d
000002c0: 3c48 48be 17c1 6cbe ca4e 85be 81e7 d2bd
000002d0: 06f9 76be 82df 953e a8a9 173d ad4d f0bd
000002e0: ffd5 113e 8ab1 48be ad15 183d b873 e23d
000002f0: a466 8fbe 2e53 8ebe 89bd b1be 56c0 1fbe
00000300: f7b6 f9bd c3d8 aebe f361 40be e11a 54be
00000310: 1e47 a53e 674e 4fbe 0750 58be efc8 a0bd
00000320: 53d8 91be 2d0a 72bd 404b 213e 0849 03bd
00000330: 5bf2 1a3e 4d1a 003e 25d9 c9bd aa48 e0bd
00000340: 05a4 773e 0813 8e3e 9d88 823e bd0b 563e
00000350: ce61 8ebd fdac 883e fa1d 333e e888 99be
00000360: 5e19 16be 4ae3 6fbe edc9 873e 7a10 a23e
00000370: c614 e5bd 7de0 03be 19f0 5bbe 79d3 463e
00000380: f9c6 06be 3f81 873e 5984 d8bd 48c3 a53e
00000390: 9adc 2f3e 5fc1 713e 0dfd 06be d005 61b9
000003a0: cd32 82be 9226 47be 1364 b73d e46c d93d
000003b0: 5faa 563c 1019 923d c5ff f4bc 3c85 1d3e
000003c0: 13f3 9f3d 2c13 50be ba7d f93d 3df0 66be
000003d0: 1892 51be aa58 c63d 88b0 cbbd 11d6 10bd
000003e0: fa25 ab3d 4191 433e 3b72 b53d c5d1 90be
000003f0: 5acc 99be 512a 893e 1298 a53e 51ff f93d

weight_hh_l0 f4 [40, 10]
-0.052273255 0.15661117 0.0796599 -0.048822194 -0.22739683 0.21012616 0.02054944 -0.22221266
-0.18701205 0.11765091 0.01568555 0.20696543 0.2564894 -0.13445438 -0.2641517 -0.043003958
-0.10247755 0.017525176 -0.29376498 0.36888704 0.07546798 -0.23603089 0.35517907 0.11906949
-0.16908698 0.1756121 -0.34005794 0.031221023 -0.03286839 -0.1263305 -0.00027746212 -0.32177153
0.095834434 -0.1074009 0.101019636 0.116984904 -0.22485465 0.2583809 0.07702957 -0.18424796
0.1528455 0.16570932 0.2337605 -0.023714826 -0.277522 -0.36326122 -0.2005424 0.30505618
-0.11617063 0.2296578 0.26139858 -0.32208565 -0.04508895 -0.36131135 -0.04833843 -0.0881237
-0.2703478 0.0053972583 -0.29630902 -0.102962784 0.20241053 -0.04177959 -0.17272192 -0.09720592
-0.11758378 -0.37607813 0.123662576 -0.1748466 0.165512 -0.10312155 -0.046125036 -0.2595129
-0.014836522 0.17920919 -0.13158122 -0.20858413 0.19930024 0.1048418 0.1286003 -0.31560108
0.10739723 -0.26047802 -0.051305495 0.0055769463 0.02119429 -0.017785152 0.046868276 0.35932085
0.15748605 0.0035655699 0.23481408 0.10678532 0.23705348 -0.37260804 -0.21817826 -0.34442365
0.108620554 -0.23843926 -0.024764525 0.35047662 -0.24794783 0.070383795 -0.06747407 0.04209495
-0.0707389 0.14039366 -0.18229581 -0.050025895 0.044792205 0.21517783 -0.3775588 0.21043782
0.02713436 0.17813526 0.15558143 -0.04391109 -0.3328605 0.18654872 0.23455405 0.08984908
-0.06106018 0.033105984 0.26374865 0.16334061 0.2274878 -0.06031411 -0.3433718 0.10091027
-0.017176582 0.17967902 -0.4440168 -0.11774549 0.06031532 0.12886362 0.17744996 -0.13416335
0.10445903 -0.03972712 -0.0140230665 0.3004017 -0.07129468 0.10775969 0.028293071 -0.06561609
-0.09991401 -0.08919193 0.16248728 0.127676 -0.20510365 0.1542375 0.13523856 -0.18937312
0.04379678 0.054160275 -0.15714234 0.2878952 -0.1942667 -0.09860068 0.11137602 -0.0709213
0.21319664 -0.18859181 0.2462506 -0.084309936 0.18545172 -0.15748903 -0.09185304 -0.13036372
0.2720762 0.27173156 -0.077333875 0.12233865 0.23316605 0.11801505 -0.063821204 -0.1488814
0.25210112 -0.07524629 -0.070570484 -0.18192385 -0.2695033 0.03896446 0.3188952 -0.35604036
-0.06591066 -0.01801326 0.17474622 0.2991024 0.21220426 -0.17624986 -0.08013236 0.047620323
-0.012873099 -0.05039857 -0.10988316 -0.040334467 0.20581487 0.28355354 -0.013000289 0.032694396
0.0013209609 -0.03656024 -0.17568454 -0.26642153 -0.04450256 -0.26916426 0.3518971 0.23165672
-0.22049856 0.09598831 -0.12436725 -0.22492428 -0.17595883 0.03457779 -0.08119859 -0.18607666
0.120663546 0.052392542 0.2434398 -0.23155956 0.24316972 -0.26271522 -0.19609311 -0.23526475
-0.105486974 0.16265874 0.20540814 -0.0976852 -0.06955032 0.2325388 -0.050943457 0.21362881
0.1407528 0.272095 0.2018382 0.2710581 -0.03994659 -0.1238142 0.10095814 -0.13651256
0.24127765 0.09380577 0.28000826 0.17538826 0.26807892 0.26051453 -0.29597098 -0.082778
0.22734998 -0.25328013 0.12801698 0.050021753 0.01107722 0.13675657 0.10665753 0.08189503
00000000: 7b1c 56bd ae5e 203e bb24 a33d c8f9 47bd
00000010: b7da 68be 502b 573e 4d57 a83c b78b 63be
00000020: 1680 3fbe f6f2 f03d fc7e 803c bfee 533e
00000030: 9452 833e 69ae 09be e43e 87be eb24 30bd
00000040: c0df d1bd f590 8f3c 5d68 96be c3de bc3e
00000050: f58e 9a3d 15b2 71be 08da b53e b4da f33d
00000060: 2325 2dbe a9d3 333e 131c aebe 3bc3 ff3c
00000070: 01a1 06bd c85c 01be 5678 91b9 3dbf a4be
00000080: d844 c43d 01f5 dbbd 62e3 ce3d c895 ef3d
00000090: 4c40 66be 804a 843e aec1 9d3d 7fab 3cbe
000000a0: 8883 1c3e b4af 293e ea5e 6f3e 9845 c2bc
000000b0: 5d17 8ebe 60fd b9be fd5a 4dbe 5330 9c3e
000000c0: deea edbd 6a2b 6b3e 09d6 853e 69e8 a4be
000000d0: 31af 38bd cdfd b8be 84fe 45bd 337a b4bd
000000e0: 076b 8abe 7cdb b03b d1b5 97be 27de d2bd
000000f0: b544 4f3e 1321 2bbd 04de 30be e613 c7bd
00000100: c4cf f0bd 508d c0be ce42 fd3d fd0a 33be
00000110: fa7b 293e 6431 d3bd 9bed 3cbd e0de 84be
00000120: e214 73bc 9d82 373e 3abd 06be 1497 55be
00000130: 5d15 4c3e 4cb7 d63d ccaf 033e 7796 a1be
00000140: 14f3 db3d 605d 85be b625 52bd d1be b63b
00000150: a69f ad3c 2bb2 91bc f3f8 3f3d e7f8 b73e
00000160: 0644 213e 56ac 693b 1a73 703e 43b2 da3d
00000170: 26be 723e 7bc6 bebe 1f6a 5fbe 4c58 b0be
00000180: 7474 de3d 6c29 74be f9de cabc ac71 b33e
00000190: 09e6 7dbe 6125 903d d82f 8abd c16b 2c3d
000001a0: 8edf 90bd 5bc3 0f3e c1ab 3abe f4e7 4cbd
000001b0: 0878 373d 9457 5c3e 634f c1be 037d 573e
000001c0: e148 de3c 1769 363e bd50 1f3e 1ddc 33bd
000001d0: b16c aabe a106 3f3e f02e 703e cb02 b83d
000001e0: 3d1a 7abd 249a 073d 100a 873e c342 273e
000001f0: 90f2 683e ee0b 77bd 6ece afbe 0baa ce3d
00000200: e7b5 8cbc c7fd 373e 2c56 e3be 8c24 f1bd
00000210: 320d 773d d3f4 033e 71b5 353e 1e62 09be
00000220: 9eee d53d e8b8 22bd 01c1 65bc 40ce 993e
00000230: f202 92bd 1db1 dc3d dfc6 e73c bb61 86bd
00000240: b79f ccbd 42aa b6bd 1163 263e 7fbd 023e
00000250: b106 52be 6ff0 1d3e fa7b 0a3e 07eb 41be
00000260: 4164 333d 2ad7 5d3d ece9 20be 0067 933e
00000270: daed 46be 27ef c9bd 1c19 e43d 303f 91bd
00000280: 3850 5a3e 361e 41be 1e29 7c3e b0aa acbd
00000290: 0ee7 3d3e ce44 21be 721d bcbd 117e 05be
000002a0: 924d 8b3e 6620 8b3e 3961 9ebd b08c fa3d
000002b0: 15c3 6e3e e0b1 f13d b1b4 82bd 5e74 18be
000002c0: 6613 813e ba1a 9abd 4287 90bd 3f4a 3abe
000002d0: 56fc 89be 3399 1f3d 3b46 a33e ec4a b6be
000002e0: 2bfc 86bd 8b90 93bc acf0 323e f323 993e
000002f0: 134c 593e d87a 34be 6f1c a4bd 870d 433d
00000300: b1e9 52bc bb6e 4ebd 6c0a e1bd c135 25bd
00000310: 22c1 523e ee2d 913e 2aff 54bc 8fea 053d
00000320: 1824 ad3a 31c0 15bd a6e6 33be 6768 88be
00000330: 5148 36bd e6cf 89be db2b b43e 6b37 6d3e
00000340: 60ca 61be 8595 c43d 42b4 febd 8d52 66be
00000350: 8d2e 34be 71a1 0d3d 724b a6bd e18a 3ebe
00000360: 731e f73d 9099 563d 4848 793e f31d 6dbe
00000370: 7c01 793e 9c82 86be a2cc 48be 3ee9 70be
00000380: 8e09 d8bd 0390 263e 8356 523e 2e0f c8bd
00000390: 6670 8ebd a71e 6e3e 16aa 50bd 83c1 5a3e
000003a0: 8121 103e 0950 8b3e acae 4e3e 21c8 8a3e
000003b0: 099f 23bd 4d92 fdbd 24c3 ce3d f3c9 0bbe
000003c0: 7d11 773e 3d1d c03d 3e5d 8f3e fb98 333e
000003d0: a441 893e 2962 853e 8289 97be 8387 a9bd
000003e0: 6fce 683e efad 81be e216 033e 9ce3 4c3d
000003f0: 3a7d 353c ea09 0c3e 436f da3d 95b8 a73d

bias_ih_l0 f4 [40]
-0.18660729 0.25486746 0.14849272 -0.07214238 -0.10038949 -0.0033007346 0.2201954 -0.3426383
0.31626588 0.08846083 -0.045465793 0.33263338 -0.037374616 0.16640037 0.2990483 -0.21493135
-0.11064553 -0.019234113 0.17869146 0.15525089 -0.3007459 0.046696242 -0.0040373597 -0.02473705
0.03303464 -0.06902437 0.0010373478 -0.082284115 0.06262797 -0.22348309 0.18542862 0.06720523
-0.11902032 0.16746709 -0.08985066 0.12306624 0.011549793 0.20708056 0.050831683 -0.056411818
00000000: fb15 3fbe fd7d 823e 7a0e 183e 62bf 93bd
00000010: 0199 cdbd 2351 58bb e77a 613e 4a6e afbe
00000020: 9aed a13e f42a b53d 573a 3abd ec4e aa3e
00000030: 2016 19bd dc64 2a3e dc1c 993e f716 5cbe
00000040: 209a e2bd dc90 9dbc e5fa 363e 17fa 1e3e
00000050: 5efb 99be 8f44 3f3d d44b 84bb 5ba5 cabc
00000060: 554f 073d a65c 8dbd 9ef7 873a 9384 a8bd
00000070: 1843 803d c0d8 64be 00e1 3d3e e5a2 893d
00000080: edc0 f3bd 7e7c 2b3e 9f03 b8bd 270a fc3d
00000090: 583b 3d3c ed0c 543e e234 503d 1410 67bd

bias_hh_l0 f4 [40]
0.28068137 -0.19367252 -0.18678914 -0.14642143 0.18867517 0.052889455 -0.06961006 0.11957863
0.13320597 -0.0871843 0.36623344 0.046549372 0.28411436 -0.017503174 0.027929163 -0.15507936
0.09782456 0.010911326 0.16701595 0.32181072 -0.27836382 -0.04273622 0.12556598 -0.19409706
0.27486354 -0.09241681 -0.17194273 0.0045853583 0.031569988 -0.30456161 0.068294816 -0.057437047
-0.13937597 0.20769583 0.3686136 0.22779053 0.2063277 0.2522344 0.30021727 -0.20317441
00000000: 78b5 8f3e 1752 46be a745 3fbe 80ef 15be
00000010: 1034 413e 9da2 583d b88f 8ebd a4e5 f43d
00000020: 2567 083e af8d b2bd f382 bb3e 8eaa 3e3d
00000030: 7077 913e d162 8fbc b3cb e43c 20cd 1ebe
00000040: 3e58 c83d 6bc5 323c 3b06 2b3e 60c4 a43e
00000050: b485 8ebe 2d0c 2fbd 5e94 003e 61c1 46be
00000060: eaba 8c3e 0645 bdbd c111 30be c640 963b
00000070: 884f 013d 80ef 9bbe 27de 8b3d 1c43 6bbd
00000080: 93b8 0ebe 37ae 543e ecba bc3e ec41 693e
00000090: 9247 533e de24 813e 14b6 993e f40c 50be

weight_ih_l0 f4 [40, 22]
-0.010437289 -0.24213864 0.013091233 -0.048146263 0.07209535 -0.04254817 0.020716533 -0.02296025
-0.06600252 0.3277947 -0.087806486 0.07141716 -0.059548274 0.25113192 0.0090839425 0.31191105
0.061851855 0.24172378 -0.09852627 0.10683227 -0.10707431 -0.21307717 0.27236578 0.36630386
0.24399073 -0.00052289816 0.16744195 0.05594128 -0.051216245 0.021150203 -0.012674074 0.25562367
-0.1984439 0.3008552 0.15184891 -0.22543453 0.16390367 0.11262022 0.17311801 -0.055991445
-0.23220627 0.104493655 -0.1093366 -0.085685335 0.21141028 0.21811993 0.26866022 -0.020040324
0.23379351 0.11203381 -0.16433953 -0.0012592784 -0.18092182 0.0053778295 -0.26786602 -0.012563041
-0.27663448 -0.13069744 -0.054584116 0.07636153 -0.14356935 0.1309303 0.12748744 -0.23441707
0.027966512 0.007188918 0.0738532 0.08598221 -0.14260578 0.28775632 -0.09073092 -0.10395725
-0.20215493 0.1535832 0.19470741 0.099647544 -0.3673259 -0.03112182 -0.29733956 0.3063939
0.044040043 -0.021263296 -0.028148727 0.05272482 -0.30643827 0.16293447 0.35947633 0.3155758
-0.33250085 -0.2732141 -0.00577525 -0.04677459 -0.027016444 0.17088048 0.2387493 0.16764863
-0.0864472 -0.19800244 0.087626554 -0.031639714 0.017853402 -0.13336453 0.1617467 0.02612027
-0.32248548 0.07101286 0.04076071 0.06302409 0.096166916 -0.18368101 0.09202586 0.13335226
0.15276618 0.025098082 -0.24017096 0.06401046 -0.24080054 -0.011784511 -0.20999625 0.043771658
0.06729757 0.2405125 -0.06605592 0.16675948 -0.042486545 -0.20278858 -0.22222905 -0.28794917
-0.08879327 0.14420372 -0.11289545 0.21586625 -0.022990773 -0.30234092 0.05032414 -0.015391456
0.081201494 0.17987214 0.092484616 -0.19047028 -0.15901893 0.040478412 0.011208816 0.06880757
-0.34009025 -0.10360617 0.07921674 0.3472816 0.12126241 -0.07263779 0.2011519 0.21375215
0.20390388 -0.1806415 -0.0013053237 -0.0041179736 -0.22581798 -0.0012491554 0.09966624 0.2685648
-0.12017987 0.028106099 -0.19893114 0.11742425 -0.018451154 -0.2614559 -0.21153215 -0.12420226
-0.299528 -0.18310364 -0.12697521 0.1537189 -0.22134142 0.048532117 -0.22209291 0.0598842
0.088257894 -0.25394675 -0.28822955 0.26174614 -0.26244232 -0.19712833 -0.26794192 -0.18431862
0.30020827 -0.06506741 0.20961335 0.33405298 -0.2844688 0.21241334 0.15230988 0.27904385
0.20294869 0.30664572 -0.097948186 0.15149163 0.27715206 0.21181935 -0.09496296 0.18295886
0.061885633 -0.2759347 -0.33118865 -0.052871488 0.026760438 0.16647534 -0.16290703 0.07913967
0.13586801 -0.1566606 0.15097947 -0.01655218 -0.04332255 0.28388643 -0.028588334 0.12304825
-0.06626333 -0.1656632 0.07870818 -0.083822764 0.05249744 -0.0018277088 -0.29792997 -0.021020716
-0.25209805 0.31504723 0.21341233 0.22745207 -0.10983966 0.26578 0.26609212 0.34939656
0.21423458 -0.06962224 -0.08997201 0.12116487 -0.3265927 0.09017989 0.24624567 0.29543817
0.3720459 0.19176182 0.050608627 0.1587953 -0.090197265 0.07578386 -0.23023452 0.03341971
-0.25973263 -0.109132834 0.06579407 0.036263954 -0.12090814 0.10417428 0.1843229 0.22016259
00000000: 2a01 2bbc 31f3 77be 9c7c 563c 0435 45bd
00000010: baa6 933d fd46 2ebd b8b5 a93c 2217 bcbc
00000020: 542c 87bd b5d4 a73e e3d3 b3bd 2943 923d
00000030: e4e8 73bd 5d94 803e d1d4 143c ceb2 9f3e
00000040: 5f58 7d3d 7086 773e 24c8 c9bd e1ca da3d
00000050: c749 dbbd e730 5abe 8773 8b3e 2e8c bb3e
00000060: b5d8 793e 1a13 09ba e775 2b3e af22 653d
00000070: 20c8 51bd 3143 ad3c eba6 4fbc 1be1 823e
00000080: e134 4bbe b109 9a3e 487e 1b3e 4fd8 66be
00000090: 5dd6 273e 6ea5 e63d d945 313e 4957 65bd
000000a0: 7bc7 6dbe c500 d63d deeb dfbd cb7b afbd
000000b0: f07b 583e d55a 5f3e d58d 893e 9b2b a4bc
000000c0: 9167 6f3e fb71 e53d 9f48 28be 5f0e a5ba
000000d0: 9243 39be 8138 b03b bc25 89be 37d5 4dbc
000000e0: 09a3 8dbe 8dd5 05be 9893 5fbd 6f63 9c3d
000000f0: d803 13be 9812 063e 118c 023e 070b 70be
00000100: 071a e53c 0491 eb3b 5940 973d 7117 b03d
00000110: 4007 12be cc54 933e 22d1 b9bd 8ae7 d4bd
00000120: b401 4fbe ea44 1d3e 6161 473e 0314 cc3d
00000130: 2412 bcbe 30f3 febc e43c 98be a9df 9c3e
00000140: 5563 343d 5d30 aebc 2998 e6bc fbf5 573d
00000150: 7ae5 9cbe 4bd8 263e 480d b83e 2793 a13e
00000160: 8d3d aabe b8e2 8bbe 4f3e bdbb b696 3fbd
00000170: 9751 ddbc 4bfb 2e3e b27a 743e 15ac 2b3e
00000180: 3b0b b1bd 27c1 4abe 8d75 b33d a598 01bd
00000190: 4c41 923c b690 08be eda0 253e 2dfa d53c
000001a0: d11c a5be 316f 913d b4f4 263d c612 813d
000001b0: 29f3 c43d e016 3cbe 0e78 bc3d 7f8d 083e
000001c0: bd6e 1c3e 7e9a cd3c 60ef 75be eb17 833d
000001d0: 6b94 76be d213 41bc 4209 57be e949 333d
000001e0: 4fd3 893d e948 763e 5448 87bd ffc2 2a3e
000001f0: 5f06 2ebd cfa7 4fbe 0390 63be 136e 93be
00000200: 3fd9 b5bd 24aa 133e bb35 e7bd 0b0c 5d3e
00000210: 2557 bcbc 6ecc 9abe af20 4e3d 722c 7cbc
00000220: f84c a63d 6730 383e 9368 bd3d a40a 43be
00000230: dcd5 22be b1cc 253d 2fa5 373c fcea 8c3d
00000240: 4f20 aebe 792f d4bd 633c a23d e5ce b13e
00000250: 6d58 f83d 1fc3 94bd c4fa 4d3e d8e1 5a3e
00000260: 2ecc 503e 16fa 38be 6517 abba 11f0 86bb
00000270: d43c 67be b3ba a3ba d01d cc3d 5381 893e
00000280: dd20 f6bd c33e e63c 9bb4 4bbe 207c f03d
00000290: e026 97bc 8cdd 85be e29b 58be c15d febd
000002a0: bc5b 99be 857f 3bbe ca05 02be 7d68 1d3e
000002b0: 53a7 62be 9dc9 463d 536c 63be 2349 753d
000002c0: 8ec0 b43d 4f05 82be d392 93be 9703 863e
000002d0: d75e 86be 02dc 49be af2f 89be 05be 3cbe
000002e0: e6b4 993e 1042 85bd e2a4 563e fe08 ab3e
000002f0: e5a5 91be e282 593e 1ff7 1b3e d6de 8e3e
00000300: c8d1 4f3e ab00 9d3e 0f99 c8bd 9f20 1b3e
00000310: e0e6 8d3e 2ce7 583e f17b c2bd 9159 3b3e
00000320: ca7b 7d3d 5047 8dbe 8f91 a9be c68f 58bd
00000330: b538 db3c 8378 2a3e 1ad1 26be fb13 a23d
00000340: fc20 0b3e a36b 20be 5d9a 1a3e 7098 87bc
00000350: fc72 31bd 9059 913e 1532 eabc b900 fc3d
00000360: 12b5 87bd 9da3 29be c131 a13d 45ab abbd
00000370: 8e07 573d bb8f efba 478a 98be a333 acbc
00000380: ff12 81be df4d a13e c388 5a3e 32e9 683e
00000390: 9ef3 e0bd 5114 883e 3a3d 883e 1be4 b23e
000003a0: 4f60 5b3e 1b96 8ebd 3f43 b8bd 4a25 f83d
000003b0: 2937 a7be 3cb0 b83d d327 7c3e ac43 973e
000003c0: cd7c be3e 365d 443e fe4a 4f3d 3c9b 223e
000003d0: 58b9 b8bd 9234 9b3d 99c2 6bbe 1be3 083d
000003e0: adfb 84be 0981 dfbd 0bbf 863d 8389 143d
000003f0: b09e f7bd 5359 d53d 24bf 3c3e 4d72 613e

weight_hh_l0 f4 [40, 10]
0.021613723 -0.06781555 -0.06852273 0.045467675 0.08379611 -0.06218303 0.07579484 -0.07583982
-0.3166475 -0.28143904 0.01741541 -0.34730008 0.30462664 -0.09562045 -0.14521694 -0.2990614
-0.24083176 -0.010205219 0.08260143 -0.08899004 0.024594374 0.24358515 -0.029856844 0.253445
0.01212707 -0.14021464 -0.2131567 -0.31328818 -0.230991 0.03560225 -0.03450949 0.12537728
0.053819977 0.03889669 0.17322712 -0.18552794 0.32434627 0.18079072 -0.047674846 0.008326657
0.15478079 -0.10428614 -0.26349512 0.075736515 0.20990098 -0.4119331 0.066726126 -0.1443764
-0.1629279 0.07203323 -0.081989564 -0.19441688 -0.008637138 0.16130246 0.27917862 -0.14679569
0.24115823 0.16055442 0.09870217 0.29041326 0.28592697 -0.112547316 -0.37653178 0.397103
-0.111293204 -0.15685472 0.1948475 -0.19357286 -0.26195258 0.107498586 0.037781153 -0.05223139
-0.15961498 0.12315248 0.062962785 -0.3412091 -0.08594264 0.048182715 0.058624137 0.14545247
-0.17763555 -0.09145552 0.17126483 -0.11214791 -0.27425995 0.074173495 -0.11022308 0.009040366
-0.04686054 -0.09718317 -0.2218408 0.016185543 -0.31687665 -0.26687723 0.3594989 0.246994
0.23436117 0.036306158 -0.23372917 -0.014183821 -0.019193867 -0.35990587 -0.079834886 0.22572306
0.032002416 -0.026301924 -0.11414061 -0.14463893 -0.3539241 0.053345375 -0.13407807 -0.31796005
0.27101818 -0.18024012 -0.27149683 -0.014662909 0.1732463 0.25234166 -0.123082705 0.08337047
0.0963775 0.14986056 -0.24411012 0.18991968 -0.26461858 0.044430878 -0.08521077 -0.31163654
-0.14488569 0.042528123 0.11201666 0.1573804 -0.101558834 0.22807784 -0.2641035 -0.27198634
-0.16794842 0.15426193 0.058067538 -0.29368106 0.2954435 0.112859346 -0.10135956 -0.0032002267
0.09330456 0.22140837 0.26580518 -0.25090924 0.066247985 -0.112171814 -0.11806874 0.13106756
0.07340021 0.2872419 -0.19092697 -0.19508465 0.036648884 0.12721469 -0.29138765 -0.043657865
0.20902985 0.17310612 -0.32243693 0.22520985 0.15890884 -0.07550455 0.041423105 -0.39754412
0.12337347 0.010613135 -0.04558233 -0.027985001 -0.00984952 0.16985293 -0.052683625 0.0033497529
-0.21625362 -0.11758037 -0.37863475 0.28096956 -0.082085006 0.09496052 -0.076955035 -0.21025167
0.13128956 0.03441556 0.09300296 0.22121932 -0.11855273 -0.14545289 -0.056542005 0.1587888
-0.051220905 0.2131422 -0.048295334 -0.16850981 0.022806382 -0.28298333 0.26555324 -0.00033907537
-0.2229658 -0.28923643 -0.3470557 -0.010961798 -0.043263517 0.10968391 -0.20572887 0.1415525
-0.15155238 -0.0032974589 -0.2919098 0.25454056 -0.0023707682 -0.13657668 -0.043307155 -0.23644304
-0.054251637 -0.14474636 0.35742408 0.19010225 -0.09969903 0.2267322 -0.19810593 0.06495453
-0.00455158 -0.008656373 0.24032912 0.30288485 0.18251052 -0.09137922 -0.08664052 0.019120451
-0.06834581 0.115653984 0.18646067 -0.06834928 0.3466786 -0.20546778 -0.29935616 0.20176084
0.16150719 -0.16766253 -0.15954137 0.14270629 0.2234642 -0.053021338 0.057096593 -0.008259301
0.24018912 0.05660045 0.102969825 0.27629358 0.19768064 0.040137038 -0.17527814 -0.22931355
00000000: 430f b13c e1e2 8abd a555 8cbd 503c 3a3d
00000010: 4b9d ab3d a2b3 7ebd 533a 9b3d e851 9bbd
00000020: 9f1f a2be c718 90be c3aa 8e3c 51d1 b1be
00000030: 06f8 9b3e a8d4 c3bd c0b3 14be 931e 99be
00000040: 9a9c 76be ca33 27bc f02a a93d 6940 b6bd
00000050: 247a c93c 636e 793e 5796 f4bc 8bc3 813e
00000060: 9eb0 463c 6d94 0fbe c045 5abe 4f67 a0be
00000070: e888 6cbe aad3 113d d359 0dbd e762 003e
00000080: 5672 5c3d 2352 1f3d 7362 313e 09fb 3dbe
00000090: b710 a63e 3421 393e b346 43bd 886c 083c
000000a0: db7e 1e3e f993 d5bd d5e8 86be bf1b 9b3d
000000b0: 48f0 563e e5e8 d2be b5a7 883d 68d7 13be
000000c0: 92d6 26be 2886 933d 25ea a7bd 3815 47be
000000d0: c882 0dbc 792c 253e 80f0 8e3e 9c51 16be
000000e0: 2ff2 763e 6168 243e 5d24 ca3d 0cb1 943e
000000f0: 0565 923e 357f e6bd c6c8 c0be 1651 cb3e
00000100: b1ed e3bd 869e 20be 1a86 473e f737 46be
00000110: a61e 86be 3828 dc3d 69c0 1a3d 95f0 55bd
00000120: 1c72 23be 5e37 fc3d a2f2 803d f6b2 aebe
00000130: b202 b0bd 3d5b 453d dd1f 703d 7ef1 143e
00000140: 18e6 35be 084d bbbd 0c60 2f3e cead e5bd
00000150: cd6b 8cbe 46e8 973d a3bc e1bd 0b1e 143c
00000160: d6f0 3fbd f807 c7bd 3c2a 63be 8b97 843c
00000170: a83d a2be 22a4 88be 3d10 b83e ffeb 7c3e
00000180: 60fc 6f3e c4b5 143d b356 6fbe 4263 68bc
00000190: 753c 9dbc 9545 b8be 7980 a3bd f223 673e
000001a0: f714 033d 2277 d7bc 8dc2 e9bd 3a1c 14be
000001b0: 8a35 b5be ae80 5a3d c34b 09be a9cb a2be
000001c0: e5c2 8a3e de90 38be a201 8bbe b33c 70bc
000001d0: 7a67 313e ed32 813e c912 fcbd 23be aa3d
000001e0: 9161 c53d 0c75 193e 01f8 79be 4e7a 423e
000001f0: 167c 87be 27fd 353d fc82 aebd d38e 9fbe
00000200: ea5c 14be f831 2e3d fe68 e53d 5428 213e
00000210: 14fe cfbd 3d8d 693e 9338 87be cb41 8bbe
00000220: acfa 2bbe d7f6 1d3e 3ad8 6d3d 5d5d 96be
00000230: 5f44 973e cd22 e73d 9a95 cfbd e5ba 51bb
00000240: 7616 bf3d e0b8 623e 9e17 883e 2d77 80be
00000250: 06ad 873d 56ba e5bd 06ce f1bd 9336 063e
00000260: d952 963d 5f11 933e 5c82 43be 45c4 47be
00000270: 241d 163d 9144 023e c330 95be 97d2 32bd
00000280: ec0b 563e bb42 313e 7416 a5be 699d 663e
00000290: 00b9 223e 21a2 9abd 46ab 293d e78a cbbe
000002a0: 3bab fc3d b7e2 2d3c 8ab4 3abd cd40 e5bc
000002b0: e25f 21bc eded 2d3e c9ca 57bd 8787 5b3b
000002c0: 9771 5dbe facd f0bd 6adc c1be 3edb 8f3e
000002d0: 2f1c a8bd a97a c23d 9a9a 9dbd 374c 57be
000002e0: c570 063e 55f7 0c3d 5678 be3d 5187 623e
000002f0: c6cb f2bd 9af1 14be 9798 67bd 8899 223e
00000300: 03cd 51bd f341 5a3e 54d1 45bd d68d 2cbe
00000310: 73d4 ba3c 31e3 90be 98f6 873e edc5 b1b9
00000320: 2651 64be cc16 94be 49b1 b1be 1d99 33bc
00000330: 1635 31bd f5a1 e03d 97aa 52be 23f3 103e
00000340: 8c30 1bbe 2e1a 58bb 3475 95be 2453 823e
00000350: e45e 1bbb c2da 0bbe d862 31bd 201e 72be
00000360: f736 5ebd 6438 14be 4a00 b73e 2aaa 423e
00000370: 012f ccbd 7c2c 683e 48dc 4abe e106 853d
00000380: 6c25 95bb 76d3 0dbc d618 763e b913 9b3e
00000390: 0ae4 3a3e 0725 bbbd 9670 b1bd 7ea2 9c3c
000003a0: e3f8 8bbd ffdb ec3d 8cef 3e3e b5fa 8bbd
000003b0: dc7f b13e 2566 52be 3645 99be 659a 4e3e
000003c0: 2462 253e baaf 2bbe d05e 23be 9921 123e
000003d0: cdd3 643e e72c 59bd 1ede 693d 0552 07bc
000003e0: 23f4 753e e0d5 673d d8e1 d23d 5a76 8d3e
000003f0: cb6c 4a3e bc66 243d 1d7c 33be 2cd1 6abe

bias_ih_l0 f4 [40]
-0.10585539 -0.056795295 0.1754089 -0.0087437155 -0.1635116 0.063142516 -0.02717585 -0.1713091
0.22023605 -0.017788155 0.34233132 -0.18693675 0.17549956 0.07232769 0.05255803 0.108638234
-0.14853084 0.38566798 0.18336731 -0.1388168 0.33712864 0.2049266 -0.14462923 -0.1453226
0.34248784 -0.31553522 -0.22501633 -0.091284424 0.25524074 0.20962489 -0.06424693 -0.16584112
0.10861084 -0.05386427 -0.12030593 0.22672363 0.11191896 0.057446085 -0.21219486 0.024542445
00000000: b6ca d8bd 2fa2 68bd 649e 333e cd41 0fbc
00000010: 966f 27be dd50 813d e39f debc a76b 2fbe
00000020: 8f85 613e 77b8 91bc 0d46 af3e 596c 3fbe
00000030: 28b6 333e 8a20 943d 1747 573d b97d de3d
00000040: 7818 18be 4676 c53e a4c4 3b3e fe25 0ebe
00000050: 209c ac3e 47d8 513e af19 14be 73cf 14be
00000060: 915a af3e d58d a1be ae6a 66be 54f3 babd
00000070: eaae 823e e8a7 563e e593 83bd 41d2 29be
00000080: 5c6f de3d c8a0 5cbd f562 f6bd 3d2a 683e
00000090: c535 e53d 964c 6b3d 9c49 59be 3d0d c93c

bias_hh_l0 f4 [40]
0.19648008 0.23366173 -0.13728696 0.35413358 0.123943694 -0.21572988 -0.09454676 0.048093874
0.34788683 0.32197782 0.1522176 0.021935506 0.23847267 0.12588525 -0.122547336 -0.07531498
-0.101323076 0.300607 0.027602213 -0.15495113 -0.17395991 -0.3378177 0.12141619 -0.06825545
0.28877404 0.05993291 -0.07094618 -0.32214054 0.0021205046 0.10946035 -0.13105646 0.36249778
-0.2288444 0.08604013 0.2908682 -0.07432448 -0.23808408 -0.22032805 -0.106226675 -0.26294708
00000000: 1332 493e 0545 6f3e f494 0cbe ff50 b53e
00000010: 31d6 fd3d 4be8 5cbe bba1 c1bd 15fe 443d
00000020: 391e b23e 47da a43e eede 1b3e 17b2 b33c
00000030: 2e32 743e 10e8 003e 19fa fabd bd3e 9abd
00000040: 7982 cfbd 29e9 993e 091e e23c 82ab 1ebe
00000050: 8c22 32be 71f6 acbe 0da9 f83d 83c9 8bbd
00000060: 31da 933e 367c 753d 3b4c 91bd 9bef a4be
00000070: 2af8 0a3b bf2c e03d aa33 06be 4f99 b93e
00000080: 3056 6abe cf35 b03d adec 943e 6f37 98bd
00000090: 50cc 73be ad9d 61be 5f8d d9bd 00a1 86be

weight_ih_l0 f4 [40, 22]
0.048240744 -0.0015778287 -0.15956686 0.2900538 -0.081745364 0.13410993 -0.26066694 -0.084901795
0.12112495 -0.11786846 0.31687436 -0.10538892 0.3292357 -0.07691074 -0.13164322 -0.1473739
0.13766356 0.17022794 -0.27597 0.044492956 -0.008889249 0.112128556 -0.09854278 -0.13563412
0.026116798 0.11702546 0.1837919 -0.17978613 0.12646449 0.07581139 -0.18340288 0.18733944
0.092738576 -0.16145971 -0.10106283 0.23033841 0.06490765 -0.16637492 -0.14909205 0.062056012
0.1534811 -0.20335284 -0.059366643 -0.22877337 -0.017651418 0.015008455 -0.2828796 -0.21756604
0.2030151 -0.3258289 -0.1737104 0.014219403 0.1746851 0.22365026 0.059531953 0.24769317
0.041894324 0.29666334 -0.14762628 -0.17274232 0.29359996 0.23415765 0.3137409 0.24037085
0.07532463 -0.15684584 0.05409371 0.3446308 -0.062872864 0.09479419 0.063057326 -0.24907246
-0.033466674 -0.15989769 0.15060598 -0.13884944 -0.084133595 -0.06861679 0.26353803 0.31957513
-0.048954803 -0.23593675 0.11638328 0.09080889 0.100946635 0.2760004 0.021107681 0.34465504
0.09909774 -0.0027448817 0.07499276 -0.0733539 0.16851334 0.15623157 0.22974823 0.01659103
-0.34076852 -0.08848838 -0.27423102 -0.1583793 0.19550523 -0.038727444 -0.06810683 -0.06314212
0.05895417 -0.29312053 -0.36342803 -0.07339773 -0.2860551 0.09663881 0.106908694 0.19893003
-0.34046134 0.36812457 -0.31799498 -0.09853421 0.18569563 -0.2364144 -0.20449522 -0.2531054
0.06617123 -0.11841473 -0.14445943 -0.053520415 -0.16457114 -0.12599424 -0.3663831 0.18909991
-0.14493774 0.13917242 0.31291327 0.20684211 -0.019521857 -0.23336953 -0.09695937 0.32733628
-0.101810224 -0.08294735 -0.22302446 0.26955009 0.22311027 -0.04374088 -0.0039253496 -0.13251716
0.26714808 -0.05403243 -0.22422421 0.1205006 -0.16413143 0.0072050462 -0.28296897 0.26888725
0.06701843 -0.14583808 0.12879397 -0.054405715 0.16610883 0.25643182 -0.19180705 -0.26731986
-0.27989742 0.14752978 0.21325265 -0.03696865 -0.2444116 -0.310294 -0.18540458 -0.2559321
0.19223753 -0.18747821 -0.20711116 0.17106628 -0.25473696 0.24782732 0.3134574 0.31358263
-0.038336705 0.28694648 -0.20511293 0.2309473 -0.023613553 -0.12602898 -0.13483804 0.21471086
-0.2180485 0.1641581 -0.20039344 0.17762962 -0.09900359 -0.03598637 0.22757307 -0.03612066
-0.2150849 -0.04001935 -0.26105517 0.31186435 0.013855651 0.28754792 0.020106543 0.06077509
-0.14526089 0.23541594 -0.24851827 0.091210105 -0.0448391 0.34288326 -0.06589184 -0.22136612
0.19226444 0.06572141 -0.17583093 0.07323876 -0.20536095 0.27197176 -0.23994464 0.06789521
-0.33471614 -0.0051930915 0.3815319 0.16655333 0.01942589 -0.33948296 -0.05593497 0.38360098
-0.34632358 0.23989913 0.16666608 -0.21253546 0.3267629 0.15454385 -0.1978577 0.27855685
-0.019830994 0.25019184 0.32159078 0.13232768 -0.106312744 0.42458817 -0.10486836 -0.0075950637
0.10536752 -0.12155821 -0.14174913 -0.17392571 -0.062731914 0.18611269 0.0035611016 -0.24012102
-0.0056548184 0.06645196 0.060692813 0.16333771 0.18454373 0.062460527 0.27835566 0.018846398
00000000: 1698 453d 25cf ceba 7f65 23be ef81 943e
00000010: 1d6a a7bd 1d54 093e 2376 85be fee0 adbd
00000020: 5c10 f83d 0565 f1bd 5b3d a23e 25d6 d7bd
00000030: 9591 a83e 6183 9dbd 7bcd 06be 2fe9 16be
00000040: adf7 0c3e 3c50 2e3e f14b 8dbe 3f3e 363d
00000050: 36a4 11bc a8a3 e53d ccd0 c9bd ace3 0abe
00000060: e5f2 d53c 0bab ef3d f233 3c3e db19 38be
00000070: e87f 013e 0143 9b3d f7cd 3bbe e9d5 3f3e
00000080: b9ed bd3d b255 25be 07fa cebd d5dd 6b3e
00000090: 4dee 843d 305e 2abe 96ab 18be 722e 7e3d
000000a0: 262a 1d3e ba3b 50be 702a 73bd 9143 6abe
000000b0: b599 90bc 06e6 753c 98d5 90be a2c9 5ebe
000000c0: 31e3 4f3e 0cd3 a6be 24e1 31be 80f8 683c
000000d0: a7e0 323e 9304 653e c7d7 733d 47a3 7d3e
000000e0: 6299 2b3d 42e4 973e 582b 17be 5de3 30be
000000f0: bc52 963e 06c7 6f3e a6a2 a03e c723 763e
00000100: cd43 9a3d 329c 20be 5e91 5d3d 7373 b03e
00000110: 7dc3 80bd 7523 c23d 3324 813d da0c 7fbe
00000120: 5a14 09bd 38bc 23be 7438 1a3e 8c2e 0ebe
00000130: 3c4e acbd f686 8cbd 75ee 863e 5a9f a33e
00000140: d584 48bd 6799 71be 5b5a ee3d 03fa b93d
00000150: 1cbd ce3d ed4f 8d3e 04ea ac3c a076 b03e
00000160: c2f3 ca3d 79e3 33bb ce95 993d 923a 96bd
00000170: c38e 2c3e 2bfb 1f3e 1f43 6b3e e9e9 873c
00000180: 3679 aebe 6539 b5bd 0268 8cbe 2f2e 22be
00000190: 8632 483e aba0 1ebd 987b 8bbd a850 81bd
000001a0: ee79 713d e513 96be 3d13 babe 8d51 96bd
000001b0: d075 92be 92ea c53d f2f2 da3d 50b4 4b3e
000001c0: f350 aebe d37a bc3e 3dd0 a2be 4ecc c9bd
000001d0: ff26 3e3e 9e16 72be 3267 51be 0897 81be
000001e0: c884 873d 6c83 f2bd 2ced 13be 3938 5bbd
000001f0: 5685 28be a204 01be 9196 bbbe 68a3 413e
00000200: 8f6a 14be 3783 0e3e 2b36 a03e 6bce 533e
00000210: 4dec 9fbc 6cf8 6ebe a292 c6bd 9f98 a73e
00000220: e181 d0bd 4de0 a9bd 8660 64be 7802 8a3e
00000230: 0577 643e a329 33bd 38a0 80bb 94b2 07be
00000240: a2c7 883e 1c51 5dbd 089b 65be 05c9 f63d
00000250: 1212 28be 4f18 ec3b 4fe1 90be 97ab 893e
00000260: f540 893d 9456 15be 91e2 033e 87d8 5ebd
00000270: 6f18 2a3e 084b 833e 1169 44be 26de 88be
00000280: b74e 8fbe 0c12 173e e75e 5a3e 706c 17bd
00000290: 0947 7abe dbde 9ebe b3da 3dbe 8809 83be
000002a0: ead9 443e 4afa 3fbe f314 54be 002c 2f3e
000002b0: e26c 82be 72c6 7d3e 7d7d a03e e78d a03e
000002c0: f306 1dbd a6ea 923e 2009 52be 737d 6c3e
000002d0: 3671 c1bc be0d 01be fc12 0abe 2add 5b3e
000002e0: 1b48 5fbe 1019 283e f033 4dbe 8ae4 353e
000002f0: 65c2 cabd 7266 13bd ea08 693e 42f3 13bd
00000300: 373f 5cbe 54eb 23bd 06a9 85be afac 9f3e
00000310: d002 633c 7b39 933e 7ab6 a43c 4def 783d
00000320: 45bf 14be e010 713e 937b 7ebe 5dcc ba3d
00000330: 34a9 37bd 658e af3e 4df2 86bd cdad 62be
00000340: f8e0 443e f298 863d 060d 34be 34fe 953d
00000350: 244a 52be e23f 8b3e 0cb4 75be a50c 8b3d
00000360: ea5f abbe cf2a aabb 2658 c33e f58c 2a3e
00000370: 0b23 9f3c b6d0 adbe 111c 65bd 5967 c43e
00000380: 5351 b1be 1ea8 753e 83aa 2a3e e5a2 59be
00000390: 784d a73e be40 1e3e 359b 4abe 019f 8e3e
000003a0: 9c74 a2bc 2519 803e 8ca7 a43e e880 073e
000003b0: 7fba d9bd 9f63 d93e 39c5 d6bd 03e0 f8bb
000003c0: edca d73d 83f3 f8bd af26 11be 9519 32be
000003d0: 9779 80bd 5394 3e3e 5f61 693b 49e2 75be
000003e0: 0e4c b9bb f717 883d 0799 783d 0042 273e
000003f0: 08f9 3c3e 9cd6 7f3d a284 8e3e c363 9a3c
