LSTM/code/model/old_model/model_mk6_250epoch_0.4382trainloss_0.5701validloss.pt (torch, 46404 bytes, 32 tensors)

weight_ih_l0 f4 [40, 22]
00000000: 75b1 fd3d 380b 1639 4546 8bbe a3e3 723e
00000010: 718f f7bc 8be6 573e 8691 4dbd 4496 d1bd
00000020: 844b 15be 3a6c 013e 2791 2e3d e859 9a3e
00000030: d923 8dbe ecfa e0ba b295 b73d 3a30 2dbe
00000040: 39d1 adbd f6ee 28be 3bb4 433e 1848 983e
00000050: 1bdf ce3d a884 dbbd b66e 033e db4d a23b
00000060: 907d be3b a8d9 ecbd fb3c 19be 3949 873e
00000070: 8887 4a3e bda5 433e e195 25bd e1e5 6d3e
00000080: 8a92 883e b89d af3e 0ee5 42be f8b0 293e
00000090: 9fac 1d3e 6568 993d 067a ca3d 4158 783e
000000a0: d190 f53d 7029 4b3d 44f7 4b3e 0bd3 0abe
000000b0: a325 8a3e 001c e83d b834 3d3d 87eb 4fbe
000000c0: e1a8 793e 200a a43e 42e6 bc3c 6be3 85be
000000d0: 7d7e 933e c039 16be f34d b9be 6203 85be
000000e0: e829 183e 1828 5abe a9c1 3e3e a576 a73e
000000f0: 24a0 3bbe d570 4f3e d942 7ebe db21 7fbe
00000100: b5ee 013e 747f 3a3e 5f0c c93d d065 b3be
00000110: ede8 e5bd c264 343e 359b 733e 6fce 2cbe
00000120: 290d 4ebd 11d7 ab3c f587 bd3d a9e3 7f3e
00000130: 6c40 7abe 650d 663d 879e 8ebe 345b aebd
00000140: 1e6c e33d 6256 6bbe 6d55 623e bd7d a6be
00000150: 82cb 1cbe 1cd4 b13e b039 4dbd cf9b 8bbd
00000160: eb70 e7bd 1fd2 9d3e 3893 90bc c8fe 0fbd
00000170: 5745 6b3e 5fda 28be 3102 ac3b 0c4b 913d
00000180: 1e11 a5be 7b76 293d 4268 543e c9c5 51be
00000190: 3657 1d3e 05cd fc3d 5d84 4dbe ec3f 893e
000001a0: 9feb f73c 9f16 5bbb 5828 4cbe ecf5 05be
000001b0: 4e75 84be bb15 fd3d 1b75 073e 3c5b 733e
000001c0: 16e4 9e3d 2ad2 613e 2dbb c43d 74ba 193e
000001d0: 585b 88be 16f0 4bbd 2185 0ebe b0e2 2dbe
000001e0: 8f29 533d f731 aa3e 531b 3cbe 2d8e 28be
000001f0: 4098 253e 41da 1c3e b1b3 fb3d df77 433d
00000200: 02c4 1fbe f3de 803e 6859 923e 1062 2b3e
00000210: 5879 4f3e 71cf 52be 0752 a0bd 9cca 093d
00000220: 7298 00bd 69d6 d5bd c7e5 793e 8be3 d83d
00000230: a00a 6ebd bebb 8c3e c4e6 283d 44c1 ee3d
00000240: 10d8 5e3d ebf8 ba3b 8990 c8bd a47a 803e
00000250: 106b f5bc 1d13 40bd 8ac5 433e 2ad3 25be
00000260: d627 28bd dabe ff3d 06f6 08be 0bf6 b0bd
00000270: 4885 0abe 9c81 0cbd 9a9f a4be 99cc 91be
00000280: 75f5 8b3e 8fbb 2a3e 3322 243e 6302 f33d
00000290: 1429 e63d db9a 7cbe 2ba3 563e 9ac1 97be
000002a0: 2222 4b3e 4478 98bd d47a 03be a226 663e
000002b0: 2c56 69be 1dee 553e 64ec 58bd bf02 87bd
000002c0: a5da 87be 0c61 97be 59c9 acbd 566b b1bd
000002d0: ea2c 72be 6043 343e 645a a4be fc96 543d
000002e0: a48d 8cbd ace5 58be 5de7 b0be 33c9 0abe
000002f0: c65d 983e ec64 82be 2e94 a4be c48b b1bd
00000300: ed29 2fbe bf3e 36be 4e70 b83d a204 b93d
00000310: b0de a4bc 6d6e 6f3e 7f8a 713e 529c 953d
00000320: 07c1 17be d93c c63e 1ac9 38be 1738 fd3d
00000330: 4873 f93c 5ab8 91bd 9c34 30be ec5e b0be
00000340: b56f 303d eeca 603e 40aa cfbd 66a6 433e
00000350: c6c3 a93c 9c4b ba3e 2b62 723d ad52 1e3e
00000360: 031e c3be fdd5 c53e f579 93bd 7b39 c83e
00000370: 26ff 6a3e 7778 093d fcff 65bd 4d7a 483d
00000380: 91d5 403e a6cc 56bd 3faa 54be c3e4 36be
00000390: 4a89 ffbd 387c aa3d ff13 373e 6b23 98bd
000003a0: 3995 8f3e 834c 94be 3e8a 413e 4d28 37be
000003b0: 3823 3bbd 1db8 a0be 097a 53be 344b c83e
000003c0: 4f2a 2f3e 9fc9 663e 09b3 43be 4dd9 8ebe
000003d0: fd17 42bc d1db cf3e 4e9c 2b3d 3859 3bbe
000003e0: 40f2 ffbd be61 fabd e2d3 2e3e e46f a63d
000003f0: 987f a6be 9193 2abe 8365 2c3e e8be ed3c
0.12387363 0.00014309294 -0.2720205 0.23719649 -0.030219765 0.21084039 -0.05018761 -0.10233739
-0.14579588 0.12638941 0.042618897 0.30146718 -0.27566412 -0.0017164624 0.08964099 -0.16912928
-0.08487172 -0.16497406 0.19111721 0.29742503 0.10101148 -0.107186615 0.12835202 0.0049531288
0.005813308 -0.11564952 -0.14964668 0.26423052 0.19778264 0.19106193 -0.04042614 0.23232223
0.266743 0.34300017 -0.1903269 0.16571414 0.15397881 0.07490615 0.098865554 0.24252416
0.11990512 0.049600065 0.19918543 -0.13557069 0.2698184 0.113334656 0.046192855 -0.2030469
0.24380828 0.32038975 0.023059014 -0.2615007 0.2880744 -0.14670467 -0.36192283 -0.25979143
0.14859736 -0.21304357 0.18628563 0.32707706 -0.18322808 0.20257886 -0.24830188 -0.24915259
0.12688716 0.18212682 0.09816813 -0.35038614 -0.11226068 0.17616561 0.23789676 -0.16875623
-0.05030552 0.020976575 0.09254447 0.24989189 -0.24438637 0.056165118 -0.27855322 -0.08513489
0.11104606 -0.22982171 0.221029 -0.32517806 -0.15312007 0.3473214 -0.050103843 -0.068168275
-0.11300834 0.30824372 -0.017648324 -0.035155088 0.2297567 -0.16489552 0.0052492847 0.07094392
-0.32239622 0.041372757 0.20742896 -0.20485605 0.153653 0.12343792 -0.20070024 0.2680658
0.03026372 -0.0033430231 -0.19937265 -0.13082093 -0.25870746 0.123576604 0.13228266 0.23765272
0.07758348 0.22052827 0.096060134 0.15012532 -0.2663219 -0.04978951 -0.13917972 -0.16981006
0.051553305 0.33241245 -0.18369798 -0.16460486 0.1617136 0.15317632 0.12290133 0.04772174
-0.15602115 0.25170097 0.28583837 0.16736627 0.20261133 -0.20586945 -0.078281455 0.03364049
-0.031395383 -0.10441286 0.2440406 0.105902754 -0.0581156 0.27486986 0.0412357 0.11657956
0.054405272 0.005705943 -0.09793193 0.25093567 -0.029958278 -0.046893228 0.19118324 -0.16193834
-0.041053616 0.12487574 -0.133751 -0.08640679 -0.13527405 -0.034303293 -0.32153016 -0.28476408
0.27335706 0.1667311 0.16028671 0.118656896 0.11238304 -0.24668448 0.20960681 -0.29639894
0.1983724 -0.07444814 -0.12839824 0.22475675 -0.22786778 0.20891614 -0.052959815 -0.06592321
-0.26534 -0.29566228 -0.084368415 -0.08663051 -0.23649946 0.17603827 -0.32100213 0.051901802
-0.06862953 -0.21181363 -0.34551516 -0.13553314 0.29759043 -0.25467622 -0.32144302 -0.08669236
-0.17105837 -0.17797373 0.090057954 0.09034087 -0.020125717 0.23381968 0.23587988 0.07305206
-0.14819728 0.38718298 -0.18045464 0.12364214 0.030450478 -0.071152404 -0.17207569 -0.3444742
0.043075282 0.21952412 -0.101398945 0.19106445 0.020723235 0.3638581 0.05917565 0.15461226
-0.38108835 0.38639823 -0.07200996 0.39106354 0.22948894 0.03356215 -0.05615233 0.04894476
0.18831469 -0.05244126 -0.20768069 -0.17860703 -0.12477358 0.08324474 0.17878722 -0.074286304
0.28043535 -0.28964624 0.18900391 -0.17886467 -0.045687884 -0.31390467 -0.20652021 0.39119875
0.17105983 0.2253785 -0.19111265 -0.27900162 -0.01184654 0.40597394 0.04189711 -0.18295753
-0.124973774 -0.12225674 0.17073014 0.0812681 -0.3251922 -0.16657855 0.16835599 0.029021695

weight_hh_l0 f4 [40, 10]
00000000: a0a7 b43d 321c ae3e 7248 6dbe c014 17be
00000010: 125b 9e3c 8900 70bd c85c 4c3e 0b80 493e
00000020: 6db6 bebd 11f2 83be 7c4b 803b d8b3 63bd
00000030: 3623 4fbe cb0e 073e 1f19 5bbe 3573 ea3d
00000040: 1871 bcbe 4456 bcbe 18ed 25be 47a9 f03d
00000050: 6697 cfbc 13b6 54be 08e9 303e f399 c5bd
00000060: 7e33 973e eae9 64be 04e2 92bc 2b44 56be
00000070: 34c8 ba3d c33c 24bd bb7a 80be e307 2e3e
00000080: 1100 853e 89df e0bd 8c6e 17be 1fc7 3b3e
00000090: b83f 9ebe af93 263e 05d3 2d3e 8fc9 44be
000000a0: 56a8 6dbe 2157 8bbd 2376 813e 22f6 8dbe
000000b0: 3e59 9d3e 857f 113d bd34 6abe 36b9 3dbe
000000c0: a2f9 efbd fdcd a1bd b9a4 5e3e 90ec 8c3e
000000d0: b5e0 3c3e bef7 733e a317 b43e 5a8b 3cbd
000000e0: 6819 973d a55e 5c3e 7c3f b33d ecab 68be
000000f0: 526c ae3e f428 173e eae2 b83d 202d 803e
00000100: 3593 85bc 5bca 353e 6afd 42be cca6 97bd
00000110: 400d 81be b86d 313e 5e04 28be 0573 40be
00000120: 6d31 71bd 1871 38be 352e 07be fd62 e63d
00000130: b8ff 9b3d 6ff7 003e 1814 483e 5f94 a83d
00000140: 7e0a 043e af6d 523e 2af9 963e dd0b c13d
00000150: 9e24 18be 56fc 6f3d fe06 88bd 1d51 a0be
00000160: e402 9a3d c152 9cbe c414 05be e1b1 533a
00000170: b78b 573e 0915 293e 7bf0 813d 787a 5bbe
00000180: 9926 bbbc bbea 27be 0e33 f23c 6b8a b5be
00000190: 3625 9a3e 583c b8bd 9623 d33e 426d 583d
000001a0: a2e9 253e c6c5 c13e 1b68 d4bd 0f45 6f3d
000001b0: 3310 b6bc 1e04 b73c a225 8e3d a5f0 d93e
000001c0: c137 153e b229 353c 76fe 823e 1eee fabd
000001d0: a760 b2bd 9dd5 52be ee90 cdbe 1eeb b4bc
000001e0: a9f7 533e e4cb e43d 7a69 af3e 6170 0d3e
000001f0: 99c9 303e f72d ae3e 4f64 f0bd 5e49 36be
00000200: 1547 b8be 2f68 0fbe 5e7a 593e b3ae cf3e
00000210: 76eb 953e 7655 adbe ca60 af3d 6e01 f1bd
00000220: eae2 f93d 6570 00be cc69 dfbe b247 cebd
00000230: 5963 c13d 371d 85be 4901 cabd 5b56 263e
00000240: 6c3c 9d3d 6190 b2bb 56f0 843e 36b7 823e
00000250: 652a 6939 2c85 21be 4c49 8dbd acfa 443e
00000260: 4e74 403e 8705 033c a4f2 953e 8a6b c9bc
00000270: bc7b aebe 4943 62bd e585 d8bc f50b cabe
00000280: d279 6d3d c3eb 253e 9788 38bd 8602 c23d
00000290: 4b83 eabd eb76 b73e 181b f7bd ae94 81bd
000002a0: 687a b23d 6e24 ab38 b8ff 483e 28eb 2cbe
000002b0: 2b3a 133e dd45 4bbd bcd8 c43e da2c f23d
000002c0: 8e6d 823e 7c4e 15bd ced7 e2bd 52ee a6be
000002d0: 892f f03c c77d 503b e8c4 d63e c8b6 51be
000002e0: 0c7a 943e 250b fc3d 74c9 febd 640d 563c
000002f0: e346 afbe b7f3 173e be80 2e3e 5df6 8f3e
00000300: 52a8 ec3d 200a 14be 331b 6dbe 694b 66bc
00000310: 4308 8abd 1bb4 4bbc cf6d 093e deab 53bd
00000320: ecf3 25be 43f5 6f3e 4307 353e cef9 ddbd
00000330: fdf4 19be 4e99 b1bc 96c1 993d f53c 153c
00000340: 661b 25bc b6e8 013d 0205 8fbe e0f7 d8bd
00000350: 0959 cb3e 121a 8ebc 7f2c 3c3e da96 14be
00000360: 06a6 79bd c117 36be 4352 893d b1fb cfbe
00000370: 8062 b5bd e9aa d6bd aa99 b53e cf5f 183c
00000380: bc8f db3d 8f83 bc3e d6d0 bebd c1b7 40be
00000390: 5390 133e 73dd 113d ea19 5fbe b5ac 66bc
000003a0: 402a 0bbe 8b9e b63d c385 a0bc 7260 5b3e
000003b0: 0aa5 a63d ea1a 82be 616e ea3d b242 bdbb
000003c0: 52cf 92be 3735 9cbd 500e ba3e d972 f73d
000003d0: 250c 4cbe 516e b3bd f606 55bd f1b0 f4bd
000003e0: ff7c dc3d 8eb3 89be 3f3e c83c 1df4 0dbe
000003f0: f7e4 9e3e c50e 9fbe 3a4e c03c 8eb5 783e
0.088210344 0.34005886 -0.23172167 -0.14754009 0.019330535 -0.05859426 0.19957268 0.19677751
-0.09312139 -0.2577062 0.0039152484 -0.055591434 -0.20228276 0.13189237 -0.21396302 0.11447755
-0.36805034 -0.36784565 -0.16203725 0.11751037 -0.025340747 -0.20772581 0.17276394 -0.09648504
0.29531473 -0.22354856 -0.017930038 -0.20924442 0.09120217 -0.04009701 -0.25093636 0.16995196
0.25976613 -0.10980136 -0.14788264 0.18337677 -0.3090799 0.16267274 0.16975029 -0.19217514
-0.23208746 -0.06803728 0.25285444 -0.27726847 0.3073215 0.035522003 -0.2287168 -0.18527684
-0.117175356 -0.07900617 0.21742524 0.27524233 0.18445094 0.23824975 0.35174283 -0.046031334
0.07377893 0.21520479 0.08752343 -0.22721833 0.34067017 0.14761716 0.090276554 0.25034428
-0.016305545 0.17752974 -0.19041982 -0.07404861 -0.2520542 0.1732701 -0.16407916 -0.18793876
-0.058885027 -0.18011892 -0.1320122 0.11249349 0.07617134 0.12594388 0.19538915 0.082314245
0.12894627 0.20549653 0.29486972 0.09426091 -0.14857718 0.058590256 -0.06641959 -0.31311885
0.075200826 -0.30531886 -0.12996203 0.0008075517 0.2104939 0.1651193 0.06344696 -0.21433437
-0.022845553 -0.16398136 0.02956536 -0.35457167 0.30106515 -0.08995885 0.41238087 0.05283857
0.16202405 0.37846202 -0.10371419 0.05841547 -0.022224521 0.02234083 0.06940772 0.4256641
0.1457205 0.011057304 0.25584763 -0.122524485 -0.08709841 -0.205893 -0.40149635 -0.022084769
0.20699944 0.111717016 0.3426016 0.138124 0.17264403 0.34019443 -0.11737882 -0.17801425
-0.3599173 -0.14004587 0.21238086 0.40562972 0.29281205 -0.33854264 0.08563383 -0.11767851
0.122014835 -0.12542875 -0.43635404 -0.100722685 0.09442777 -0.25998852 -0.098635264 0.1624388
0.0767754 -0.00544934 0.25964612 0.25530404 0.00022236405 -0.15773457 -0.06898746 0.19236249
0.18794367 0.007996923 0.29286683 -0.024587411 -0.34078777 -0.05523995 -0.026431033 -0.39462247
0.057977505 0.16203217 -0.045052137 0.094731376 -0.114508234 0.35832915 -0.120657146 -0.063271865
0.087147534 8.160701e-05 0.19628799 -0.1688658 0.14377658 -0.049627174 0.38446605 0.11824961
0.2547421 -0.0364518 -0.11076318 -0.326037 0.029319542 0.003181325 0.41947103 -0.20479882
0.28999364 0.12306813 -0.12440768 0.013064716 -0.3423377 0.14839064 0.17041299 0.28117648
0.11555542 -0.14456987 -0.23154907 -0.014056065 -0.06739857 -0.012433077 0.13420795 -0.051677577
-0.1620633 0.23433404 0.17678551 -0.10838662 -0.15034862 -0.021679547 0.07507627 0.009108772
-0.010077333 0.03171607 -0.27933508 -0.105941534 0.39716366 -0.017346416 0.18376349 -0.1451067
-0.060949348 -0.17782499 0.06705143 -0.40621713 -0.08856678 -0.10481817 0.354688 0.009300186
0.107207745 0.3681912 -0.09317176 -0.18820097 0.14410524 0.03561158 -0.21787229 -0.0140792625
-0.13590336 0.089169584 -0.019595033 0.2142351 0.081369475 -0.2541116 0.11446834 -0.005775773
-0.28673798 -0.076273374 0.36339045 0.12082452 -0.19926508 -0.087612756 -0.05200859 -0.119478114
0.107660286 -0.26894802 0.024443744 -0.13862653 0.3103406 -0.31065956 0.023474801 0.24288008

bias_ih_l0 f4 [40]
00000000: 9486 4cbd c3d4 a53e 669e de3d 323d b7bc
00000010: 7ff2 3a3d 45d5 36be 3b31 263e d6db 7cbe
00000020: ef9b b53d a514 943e c1e0 733e c1f4 9dbd
00000030: 27d6 f93d 4f10 ad3d afab ac3e 7d7d a93d
00000040: f30f 8ebc 6ac2 89be 6e6a 1bbe c612 17bd
00000050: 1505 303e bf12 b23e 5dbc aebd a05c 4dbe
00000060: 7ddc 1abd 6269 203e d1a7 3cbe 6260 13be
00000070: de61 a8be c1a2 92be 2388 37be 8d22 3bbd
00000080: 420e 8c3e 0ccf aebd 2d88 bebd 1980 79be
00000090: bb72 923b 038c 213e 4ea3 d5bd 2366 ac3e
-0.04993303 0.32388887 0.10870056 -0.022368047 0.04564142 -0.17854793 0.16229717 -0.24693236
0.088676326 0.28922 0.23816206 -0.07712699 0.121990494 0.08450376 0.33724734 0.08275888
-0.01734159 -0.2690614 -0.15177318 -0.036883138 0.17189439 0.34779927 -0.08532021 -0.20054865
-0.03780793 0.156652 -0.18423392 -0.14392236 -0.32887167 -0.28639796 -0.17923026 -0.045687247
0.27354628 -0.08535585 -0.09303317 -0.24365272 0.0044692433 0.15776066 -0.104315385 0.33671674

bias_hh_l0 f4 [40]
00000000: d2b0 eebc 33a7 153e febc 60be 5877 9e3d
00000010: 9d8a ec3d 483f 9e3e 230d 4bbe a2ed a13e
00000020: daab ebbd 1515 06be 18e3 5abd cdc0 3a3b
00000030: e29b a63e 5563 24be 9281 b33c ba6d 71bd
00000040: 6f55 233d c45c 163e efd7 733e 5c22 743e
00000050: 2f6f b53e 4685 44bd 8188 863e 0cf4 863d
00000060: 2f67 94ba cf38 a83e 5d28 b7be 0d48 593e
00000070: 0da7 aabe 3bf0 1a3e c655 b83e deb7 44bd
00000080: 7119 b7bc ff77 c63e e015 b33e d44e 563e
00000090: a7af 803e 10df 56be b481 42bd 4711 d93d
-0.029137049 0.14614563 -0.21947095 0.07737607 0.11549876 0.30907655 -0.1982923 0.31626612
-0.115073875 -0.1309398 -0.05343923 0.0028496266 0.32540804 -0.16053517 0.02191237 -0.058942534
0.039876398 0.14683825 0.23812841 0.23841232 0.3543639 -0.047978662 0.2627602 0.06589517
-0.0011322255 0.32855842 -0.35772982 0.21218891 -0.33330575 0.15130703 0.3600294 -0.048026912
-0.022350999 0.38763425 0.34977627 0.20928508 0.25134012 -0.20983529 -0.047486976 0.105989985

weight_ih_l0 f4 [40, 22]
00000000: baee 853e 5269 983e 0a02 70be a2ca 1dbe
00000010: 0403 923e 0ef0 01be ddce 05be bd7f 733e
00000020: b966 653e ffd5 823e 8f48 89be c084 ac3e
00000030: 8cae 46be c8b6 9f3e 974e c8bc 2b8d 14be
00000040: 7fdb 2fbe 84f4 3dbe d151 773e 074b a33e
00000050: 8edf 853e 8602 953e 6ffc 02be beff d23d
00000060: 40f7 7bbd 0d58 46bd a716 24be 4297 0f3d
00000070: de3e 5ebe f7d2 463d 826b 2dbe a752 4d3e
00000080: 359b e73d 8e54 963e 2375 7dbe 6437 6e3e
00000090: 7d98 0c3e aa4f 3fbe 2898 1a3e 4c3f 993e
000000a0: 027d 9dbe 69f4 f33b 635a 6d3e d84a 9ebd
000000b0: 1869 47be 3579 21be e61a d2bd fa27 8c3e
000000c0: 7055 01be fa22 463e 4d49 923e 596d 06be
000000d0: b524 8bbe 0d06 7c3e 7a9e 863e f042 82bd
000000e0: 5721 903d 0131 4c3e b16b bcbd 9b7b b43e
000000f0: 4895 2a3c 446c 60be f824 47be f173 6c3a
00000100: ef46 883e 9e5b 743e 6f3c ff3d 122f 053e
00000110: d1d7 c23d 4bf5 b93e 4149 84be bc83 743d
00000120: 8de8 e43d cbd8 18be 0fc9 e2bd d841 e33c
00000130: c1c7 143e deac 463e 20c1 21be 032b b33e
00000140: a6db a0be d7a7 a23e 4cf5 983e 65c8 81be
00000150: 6add 173e 0def 0fbc 3dff 19be c2bc 863e
00000160: 35f7 de3d e27b a43e 3f9a 7d3e 2942 4e3d
00000170: efce 663e 5324 93be 66bc 85be 20f4 4d3e
00000180: 019f 95be 3fd7 02be 4048 7c3e f5ee 3b3d
00000190: a4fc 943e 79f0 80be 2e94 a0be 06a4 1b3e
000001a0: 8875 973e c3d6 a13e bff9 42be e035 89be
000001b0: 36f5 62be 29db 3bbe b4cd 8dbd ccb4 babd
000001c0: 9b89 acbd 3dff 19be 26dc b1bd d820 853d
000001d0: dc0e 113e 7343 73be 950e 6abe f037 943e
000001e0: 9a14 9b3e 76cf 303e 8f36 453e 0c87 763e
000001f0: 59cd 9a3d 8b01 89be a8c4 40be 2267 6b3e
00000200: 595f f7bb 5928 793d 9497 e03c 6f33 f13d
00000210: 0509 4cbe a79f 3d3e 420d 323e 3a27 61be
00000220: e147 3f3e 1847 17be 0f08 683e 09c4 863e
00000230: 682d 05be 0519 3dbe 7ea9 123e 4552 943e
00000240: 6186 143e 21c6 7b3e 79d4 8cbe ef97 55be
00000250: 5d62 a1bd 258f 6abe 029a 5eba 97e5 bd3e
00000260: 61cb 923e 0cf5 943d 78c8 913d 3e34 563b
00000270: 4185 ae3e 1545 403e 1d5a cf3d 588e 2bbe
00000280: fef8 9b3e da8c dcbd e3bb 853e 355e 5dbd
00000290: d182 55be cce9 1abe e739 123e dc14 fd3d
000002a0: 09fd c33d 6f4d 2a3e ae7e 763e c822 c73c
000002b0: 2e48 483d 455b 25be 7cd1 47bd 609f 1a3d
000002c0: 4d13 3ebe 68ff 69be b7d6 82be 912b d8bd
000002d0: db96 6cbe 0d66 973e 6f5c 293d d197 f5bd
000002e0: 003b 1c3e dba1 45be 8d92 293d 3a30 dd3d
000002f0: 6053 8abe 79d1 8cbe 9349 afbe 7c6b 22be
00000300: 24b9 dfbd c83b a2be 7a7a 4dbe 27f2 4cbe
00000310: e349 a33e 07b3 48be 4a68 00be 4107 a5bd
00000320: ec62 85be 57a2 c2bd 1ffb 783e 2bcc 04bd
00000330: ce26 373e 438d b63d b025 54bc 9e10 e1bd
00000340: 99f0 893e ef4a 773e f0ff ae3e 9ffd 553e
00000350: 0101 46bd f090 6c3e a72e 5d3e 8504 a4be
00000360: 799c 94bd b6be 95be 01c9 743e e1d7 893e
00000370: 4461 debd 4f98 e0bd 621a 5bbe 2a78 433e
00000380: 6d00 03be e225 913e bdcf d9bd 9111 a43e
00000390: d4a8 333e 7887 823e 68bc 07be 6795 65bb
000003a0: 5290 80be 09d5 33be 430d b93d 4789 d23d
000003b0: 2d9d a83c c99a f73d 36e1 49bd 1857 223e
000003c0: 11c1 923d 230c 49be 8884 f33d 7d25 66be
000003d0: f78f 5bbe 4bed d63d 7a28 d3bd 805d 10bd
000003e0: 6f65 953d e7d7 4b3e c90f ae3d 0ec0 90be
000003f0: 6c49 9fbe 3c52 8d3e 695f a33e 72bd f93d
0.26158696 0.29767853 -0.23438278 -0.1540933 0.28517926 -0.1268923 -0.13067193 0.23779197
0.22402467 0.2555389 -0.2681317 0.3369503 -0.19402522 0.3119414 -0.024451537 -0.14506976
-0.17173575 -0.18550307 0.24152304 0.3189318 0.2614712 0.29103488 -0.12791608 0.10302685
-0.061515093 -0.048423816 -0.16024266 0.03505636 -0.2170367 0.048541036 -0.16935542 0.2005106
0.113089 0.29361385 -0.24751715 0.23263317 0.13730045 -0.18682733 0.15097106 0.29931104
-0.30759436 0.0074449074 0.23179011 -0.07729119 -0.19473684 -0.15768893 -0.10259037 0.2737425
-0.12630248 0.1934928 0.2857155 -0.1312765 -0.27176443 0.24611683 0.26292783 -0.063604236
0.07037609 0.19940569 -0.09200228 0.35250553 0.010411568 -0.219163 -0.19447696 0.0009019962
0.26616618 0.23863074 0.12462699 0.13006237 0.0951382 0.36319956 -0.25837138 0.059695944
0.11177168 -0.1492645 -0.11073505 0.027741358 0.14529325 0.19401881 -0.15796328 0.34993753
-0.31417578 0.31768677 0.29874647 -0.253482 0.14830557 -0.0087850215 -0.15038772 0.26315886
0.10886995 0.32125765 0.24765871 0.050356064 0.22539876 -0.2873865 -0.261203 0.20112658
-0.29222873 -0.12777422 0.24636936 0.045882184 0.29099 -0.25183466 -0.31363052 0.15199289
0.29581857 0.31609163 -0.19040583 -0.26798916 -0.22163853 -0.18345322 -0.069240004 -0.091165155
-0.08424684 -0.15038772 -0.08684568 0.06500405 0.14165825 -0.23756199 -0.22857125 0.28948927
0.30289155 0.1726664 0.19259094 0.24074954 0.07558698 -0.2675899 -0.18825018 0.22988561
-0.007549208 0.060829494 0.027416028 0.11777388 -0.19925316 0.18517934 0.1738787 -0.2198762
0.18679763 -0.14773214 0.22659324 0.26321438 -0.13005602 -0.18466575 0.14322469 0.28969017
0.14504386 0.24587299 -0.27505854 -0.2085874 -0.078800894 -0.22906168 -0.0008491577 0.37089226
0.2867079 0.072733015 0.071183145 0.0032684947 0.3408604 0.18776353 0.101246096 -0.16753519
0.30463403 -0.10769053 0.2611991 -0.05404492 -0.20850684 -0.15128249 0.142799 0.12357494
0.09569747 0.16631101 0.24071762 0.024308577 0.04889696 -0.16148098 -0.048783764 0.037749648
-0.1856205 -0.22851336 -0.2555444 -0.10555185 -0.23104422 0.29570046 0.041347917 -0.11991847
0.15256882 -0.19300024 0.041399527 0.10800214 -0.27016735 -0.27503565 -0.3423582 -0.15861315
-0.10923985 -0.31686234 -0.20066252 -0.20014249 0.3189231 -0.19599544 -0.12539783 -0.08058024
-0.26052034 -0.0950362 0.24314545 -0.032421272 0.17885897 0.08913662 -0.0129484385 -0.109894976
0.26941374 0.24149679 0.3417964 0.2089753 -0.0483408 0.23102164 0.21599828 -0.32034698
-0.07256407 -0.29247063 0.23904802 0.26922515 -0.10858396 -0.109665506 -0.21396783 0.19088808
-0.12793131 0.28349215 -0.10635326 0.32044652 0.17544872 0.2549398 -0.13255465 -0.0035031678
-0.25110108 -0.17561735 0.090357326 0.1028009 0.02058276 0.1209007 -0.049287044 0.15853536
0.07165731 -0.19633536 0.11890513 -0.22475238 -0.21441637 0.10494479 -0.10310455 -0.03524542
0.072947375 0.19906579 0.084991045 -0.28271526 -0.31110704 0.27601802 0.3190873 0.12194337

weight_hh_l0 f4 [40, 10]
00000000: 6303 41bd e505 253e af83 9c3d 06ca 28bd
00000010: ccdb 79be 7dd3 5d3e 3245 0f3d 8a8c 6abe
00000020: 5a09 3bbe f6bd bf3d 993f 803c 5c36 4c3e
00000030: 996f 863e 878c 0cbe 03fd 89be 94cd 3dbd
00000040: e064 c1bd cd31 643c 7548 98be 3e38 b13e
00000050: 9c68 923d 91fa 72be 3f31 b43e 5ea9 ed3d
00000060: 3d1e 3fbe 6cbd 323e 48c7 b0be adb4 243d
00000070: a57d 12bd 4fd7 0abe 0cad d13b e149 a3be
00000080: bee8 af3d 1006 c1bd 2aed b93d 4f2a 043e
00000090: d7c8 5bbe be0b 823e 6943 aa3d 09c0 47be
000000a0: df23 493e fab9 693e 2bbe 633e 2712 2e3c
000000b0: 5728 92be 14da a7be 3da3 2bbe ab43 8c3e
000000c0: ff55 7fbd b449 5f3e d4b8 8c3e f6a8 9cbe
000000d0: 68af 4bbd d1b8 b2be e283 a1bc 2ee7 9cbd
000000e0: 7bc6 83be a8c8 36bc fa53 90be e09e d9bd
000000f0: 0bbb 553e c723 12bd 6905 2abe defa c4bd
00000100: d3d9 d1bd d1d8 c0be 58cd 063e 4e54 42be
00000110: b8cd 2e3e 3b36 17be fbbe 65bd 9b2d 86be
00000120: b7a0 97bc 9d85 303e 9f3d 37be 2f37 5dbe
00000130: 5d57 3a3e 5023 f73d 4671 f23d 4eb6 97be
00000140: 4720 dd3d 90b2 88be 6e46 4fbd ed4c c33b
00000150: 1581 f63c 1ed1 8fbc 56d5 503d 64d4 b43e
00000160: cedf 1a3e 634d 42bc a627 863e 3796 073e
00000170: 98b4 3d3e c29f aabe 5bd7 54be 7ab1 9abe
00000180: 336c 073e fbfe 7cbe 820a 283b 43b3 9b3e
00000190: f400 7cbe 313a 8d3d 0210 8fbd f3b0 3d3d
000001a0: 5dd8 aabd 3d4f 133e 9400 2cbe 241e 67bd
000001b0: 987a 333d 1369 343e 4df8 c3be 40bd 4b3e
000001c0: 0ae3 2e3d 4281 2c3e c387 1b3e 6eea 5dbd
000001d0: 19c9 a6be f643 403e db2c 683e 7c55 d33c
000001e0: 7f6b 65bd dea6 2e3d 5c49 7d3e 72a6 2d3e
000001f0: 7ddd 323e 2925 52bd e528 afbe 4d58 da3d
00000200: 42b0 ccbb 53b3 363e 09c4 d9be bb3d dfbd
00000210: c4e4 073d 67df 233e 22ba 1d3e a817 d3bd
00000220: 239e 063e ccdf 55bd a343 b23b d824 8b3e
00000230: 5390 e8bc 7ce8 1f3e 4470 7d3c 2f79 05bd
00000240: a57f e7bd 3745 5fbd 404a 493e 62ae ba3d
00000250: 6052 1bbe 8f30 1e3e 61fd 183e 3cac 31be
00000260: bc07 223d d151 893d 944f efbd dfc6 993e
00000270: 8167 36be 50f6 f3bd cee9 fe3d 3ad7 a9bd
00000280: f142 583e 6b87 47be e87e 8a3e 1742 bfbd
00000290: 7a7c 443e ede6 2dbe dec0 babd 59ae 18be
000002a0: 42d2 853e 3af6 653e 295a bdbd 5f89 eb3d
000002b0: 9bcf 6d3e 4889 da3d 4e6a d3bd 2fc2 24be
000002c0: d7fe 6c3e 1287 69bd 47cc adbd 0812 37be
000002d0: 88e3 8abe 42c6 f93c 07ca a43e caca b7be
000002e0: c076 57bd ba83 aabc 2ade 323e 239c 983e
000002f0: 0ae6 523e 5d40 3fbe c2e6 3dbd bce7 9f3d
00000300: b1eb 9cbd d6f3 78bb ed6f c5bd 9f91 1b3c
00000310: 7398 743e a5ee 883e 15dd 593c b2b8 03bd
00000320: 9fe2 273b ca92 acbc 9d3f 33be 8d66 89be
00000330: 104c 96bb ba16 8abe 3541 a83e a101 6f3e
00000340: d261 53be f4f8 1f3e eb52 fdbd 5a17 54be
00000350: 63d5 37be adcc 133d 5e2f 80bd 01e2 3abe
00000360: d396 e03d 2e7b 5b3d 8633 823e 14be 56be
00000370: c0e8 713e 3189 88be 80a9 49be 6810 79be
00000380: dd81 21be 980b 213e b8b8 4a3e 0997 a8bd
00000390: acf5 94bd 7145 533e 2ad2 85bd b4d9 5e3e
000003a0: 50ae 243e 42f6 7e3e 3cf5 693e cd6d 7e3e
000003b0: 5620 7cbd 0015 e7bd 76b1 c83d a2b3 e6bd
000003c0: aac1 783e 28de c63d a0c5 913e 65a3 323e
000003d0: 3e5e 623e 3661 853e 8b2a 98be 03db 9fbd
000003e0: f282 6c3e 6763 81be 4ba8 f53d dfe5 353d
000003f0: 4e55 a63b e466 063e 8cb5 943d e19a 9e3d
-0.04712237 0.1611553 0.07642304 -0.04120829 -0.24400252 0.21662708 0.0349781 -0.22905174
-0.18265286 0.09362404 0.015655326 0.19942611 0.26257017 -0.13725482 -0.26950845 -0.046338633
-0.094430685 0.013927889 -0.2974278 0.34613222 0.07148859 -0.23728396 0.35193822 0.1160457
-0.18663879 0.17455071 -0.3452704 0.04021137 -0.035764355 -0.13558696 0.0063988026 -0.31892303
0.08589314 -0.094249845 0.090784386 0.12906764 -0.21463333 0.25399584 0.08313639 -0.1950685
0.1964259 0.2282485 0.22240512 0.010624445 -0.28546402 -0.32783568 -0.16761489 0.27395377
-0.06233787 0.2180546 0.27484763 -0.30597657 -0.049727827 -0.3490663 -0.019716207 -0.076612815
-0.25737366 -0.011156239 -0.2818907 -0.10626006 0.20872132 -0.03567865 -0.16603626 -0.096181616
-0.10246625 -0.37665418 0.1316427 -0.18977472 0.17070663 -0.14766781 -0.056090336 -0.2620667
-0.018509252 0.1723847 -0.178946 -0.21603082 0.18197389 0.12067282 0.118380114 -0.29631275
0.10797172 -0.26698732 -0.050604276 0.005960098 0.030090848 -0.01755577 0.050984703 0.3531829
0.15124437 -0.011859271 0.26202124 0.13240896 0.18525922 -0.3332501 -0.20785277 -0.3021353
0.13224868 -0.24706642 0.0025641029 0.30410203 -0.24609739 0.06895865 -0.06985475 0.04631133
-0.08342049 0.14385696 -0.16797096 -0.05642523 0.043818086 0.17618208 -0.38275376 0.19896412
0.04269699 0.16846183 0.15188508 -0.054178648 -0.325753 0.18775925 0.22673361 0.025797598
-0.05601072 0.042639606 0.24735016 0.16958025 0.17467304 -0.05130497 -0.34210888 0.10661373
-0.0062465975 0.17841844 -0.42532375 -0.10900446 0.033177152 0.1600319 0.15403035 -0.103072464
0.13146262 -0.052215382 0.005440192 0.27176547 -0.028389132 0.1561603 0.015468661 -0.032586273
-0.11303643 -0.054509368 0.1965723 0.09115292 -0.15168142 0.15448211 0.14940406 -0.17350858
0.039558157 0.06705058 -0.116851 0.3003454 -0.17812921 -0.11912215 0.124469385 -0.08293004
0.21119286 -0.19485252 0.27049947 -0.093387775 0.19188109 -0.16982622 -0.09118818 -0.14910258
0.26136976 0.22457209 -0.09245712 0.11500811 0.23223726 0.106707156 -0.103230104 -0.160897
0.23144089 -0.05701358 -0.084862284 -0.17877972 -0.27126718 0.030490045 0.32185385 -0.35896903
-0.052603483 -0.020814765 0.17467561 0.29806623 0.20595565 -0.18676896 -0.046362646 0.07807872
-0.07662142 -0.0037987134 -0.09640489 0.009495168 0.2388628 0.2674457 0.013297339 -0.03215856
0.0025617254 -0.021066088 -0.17504735 -0.26836053 -0.004586704 -0.26970464 0.3286225 0.23340465
-0.20642784 0.15622312 -0.12369331 -0.20712033 -0.17952494 0.036083866 -0.062590346 -0.18250276
0.109662674 0.05358427 0.25429934 -0.20970947 0.23623943 -0.2666717 -0.19693565 -0.24322665
-0.15772195 0.15727079 0.19797027 -0.08231933 -0.07273421 0.20631959 -0.06534226 0.21762735
0.1608212 0.24898627 0.22847456 0.24846573 -0.061554275 -0.11283302 0.09799473 -0.11264731
0.24292627 0.09710342 0.28471088 0.17445143 0.22106263 0.2605073 -0.29719958 -0.07805445
0.23096827 -0.2527115 0.1199499 0.044408675 0.005076087 0.13125187 0.0726119 0.077443846

bias_ih_l0 f4 [40]
00000000: aeb4 41be 481d 833e 2cfb 1b3e 518e 9abd
00000010: eef7 debd 30f3 1abc 173f 603e 5819 aebe
00000020: 7591 a03e 17a1 583d a4c7 47bd fe61 ae3e
00000030: a5b0 28bd 4a45 163e 74de 8d3e e5f7 66be
00000040: 0fc6 d2bd 8523 38bc 83e0 363e d274 e03d
00000050: 1201 9bbe f87b 3a3d 6986 b73b f923 90bc
00000060: 1cac 193d 41d8 8cbd 2d01 f7bc dc01 b5bd
00000070: 818c 883d d5b5 6bbe 9f69 373e 5493 813d
00000080: e822 00be ddf2 253e cafd c2bd 602e f13d
00000090: 0818 173b 0131 563e a6be 2f3d eb5a 88bd
-0.1891658 0.25608277 0.15232533 -0.07546676 -0.108871326 -0.0094573945 0.21899067 -0.3400371
0.31360975 0.052888002 -0.048774377 0.34059137 -0.041184086 0.14674869 0.2770878 -0.22555502
-0.10291683 -0.011238937 0.17859082 0.10959782 -0.30274254 0.045528382 0.0056007397 -0.017595278
0.037517652 -0.06877185 -0.030151928 -0.08838245 0.06667424 -0.23018582 0.17911385 0.06326929
-0.12513316 0.16205926 -0.09521063 0.117764235 0.0023055095 0.20917131 0.042906426 -0.06657966

bias_hh_l0 f4 [40]
00000000: 3066 8e3e 4c13 45be f558 3bbe ec56 19be
00000010: ad84 383e e46a 3f3d ef06 91bd 7b39 fa3d
00000020: efae 053e 0768 fbbd 3dd1 b93e 8743 5f3d
00000030: fd83 8f3e d62f 18bd 5088 c33b 0eae 29be
00000040: 4f2c d83d c0e1 9a3c d9eb 2a3e 8064 8d3e
00000050: 688b 8fbe c4d4 33bd ea72 0a3e 1a71 3fbe
00000060: 8306 8f3e a1c0 bcbd dd01 50be f84f c6ba
00000070: b7e2 113d 065e 9fbe 20df 7d3d 2a62 7bbd
00000080: 27fb 14be 9624 4f3e 76fc b93e 16d4 633e
00000090: 4ad0 493e e036 823e 5ea7 953e 5b76 5abe
0.27812338 -0.19245642 -0.18295653 -0.14974564 0.18019362 0.0467328 -0.070814006 0.12217995
0.13055013 -0.12275701 0.3629245 0.05450776 0.28030387 -0.037154995 0.0059671775 -0.16570303
0.10555326 0.018906474 0.16691531 0.27615738 -0.28036046 -0.04390408 0.13520399 -0.18695489
0.27934656 -0.092164285 -0.20313211 -0.0015130034 0.035616603 -0.31126422 0.061980367 -0.061372913
-0.14548932 0.202288 0.36325425 0.22248873 0.19708362 0.2543249 0.29229254 -0.21334212

weight_ih_l0 f4 [40, 22]
00000000: 720a a9bc 5937 77be 3f6d 91bc aaed 2abd
00000010: c4c2 5f3d 59cb 49bd 87da 123c c9db 87bc
00000020: 444e 84bd f66d 9f3e b5e3 c7bd 46bc a93d
00000030: 4924 95bd a090 5d3e de18 c63b 77cb a23e
00000040: ebcb 503d fbe7 333e 1f77 cabd 64ec d23d
00000050: e968 c7bd b4ad 4cbe 03b6 873e 5866 b93e
00000060: d45e 543e b0d4 3e3c 7c01 1e3e ead5 473d
00000070: 14be 97bd 1a45 083d 7479 37bb d488 803e
00000080: a211 75be 13af a53e 81c8 153e f39a 6dbe
00000090: f0ea 0f3e c4b1 ee3d d5ce 343e 0311 fcbd
000000a0: 24ce 85be 57e3 d03d 8290 ccbd 3458 9fbd
000000b0: f63a 4e3e 1e3e 5d3e 3ed3 833e 75f7 7dbc
000000c0: 7e73 633e 0748 de3d b539 34be a0c5 563b
000000d0: 1a19 32be 174a 2fbc 3fef 8bbe 0ea1 99bb
000000e0: 6921 8ebe 66f3 23be 6146 7fbd 7462 aa3d
000000f0: 9a44 10be b3a6 913d 117f 043e 9b99 6abe
00000100: 3dff 0a3d 0e2f c23b 6eb5 9b3d 6439 a33d
00000110: 6770 26be 249b 973e c0bf bebd 5792 efbd
00000120: 13a8 61be e3c4 253e bb54 4c3e f5d1 9c3d
00000130: bd50 babe 6d5d 90bc 6e67 9abe b361 863e
00000140: 065f f13c 6e6c 31bc 3f1f f1bc e8d3 e53c
00000150: 7416 9fbe 2c15 2a3e 1418 bd3e 45c9 a43e
00000160: 0cf5 a3be 806f 2bbe 4d0e 9c3d 3832 17be
00000170: 236a a83c 5bab 8f3e ec76 7a3e afc8 883d
00000180: c65a 20be c9ae cabd a4d5 503e c750 21be
00000190: 385d a43d 9d14 0fbd 6ea7 173e 7fdf 5fbd
000001a0: f97b 85be 978f 8a3d a804 853d a9e8 01bd
000001b0: 7e9d a0bc cf87 96be b6cc c63d c0c5 053e
000001c0: c674 2e3e a8a3 b03c 1973 6cbe 8a1f 813d
000001d0: c96b 69be a145 7abc c208 5dbe 59fb 333d
000001e0: 03b7 a53d 11a5 693e 1636 6fbd 17b4 303e
000001f0: 8f08 0dbd 3ab1 53be 3a99 5ebe 99a7 81be
00000200: f0c5 acbd b8fe 103e 404e eebd 6658 5c3e
00000210: 9c7b 0dbd 69a1 9dbe 1053 323d e304 7bbc
00000220: fde1 893d b8b4 313e e954 b13d 47fc 42be
00000230: 8fd3 24be e913 9d3c 4bbd 3c3c 0196 8f3d
00000240: 5d30 aebe c873 13be 5aa8 973d 53d8 b13e
00000250: 0203 013e 4bc5 02be ae68 553e e18a 533e
00000260: 9e4e 503e fd47 3ebe 7f46 40bc 3801 4cbb
00000270: 3339 60be 1e36 27bb 6f89 c53d 701a 8a3e
00000280: 60bf eebd 32c5 db3c 8d58 55be 2acb f23d
00000290: 4b30 e1bb 4e93 8abe 0dc0 5fbe b791 febd
000002a0: 1f3a 97be 01a6 3dbe 5ec6 0ebe 9dfa 303e
000002b0: 4585 5cbe f2db 4c3d 9764 62be 55c0 743d
000002c0: d9cb 893d 7539 90be 5adf 99be c083 953e
000002d0: 33d7 8bbe 4530 65be c166 83be 99ab 1dbe
000002e0: 8e62 a43e f95a cbbd df83 1c3e f93d bb3e
000002f0: cde3 88be 5715 3c3e 7241 323e c689 8f3e
00000300: 4392 5e3e 38cc 843e 6d4e a7bd 77ba 2b3e
00000310: ebe4 9a3e 231c 663e ec42 bdbd 8f5b 2f3e
00000320: 6f2d 8d3d 9482 8ebe 973e a0be 6aeb 5abd
00000330: 791d ea3c faee 273e 8ff3 2bbe 613d 9f3d
00000340: 97bb 0c3e 82ba 33be 5808 253e 63d5 603c
00000350: 9879 40bd f121 913e 63ca 0fbd 254f 433e
00000360: fff8 9dbd b393 2abe 9c61 a23d 3fb9 bfbd
00000370: a02b 753d e172 b13c b2ab 97be 5570 23bd
00000380: 9628 79be 92b7 a93e f978 5b3e fc90 553e
00000390: 5659 fbbd d74a 8d3e 6c74 913e 2fa0 ab3e
000003a0: d5fa 633e 778c 98bd 70b7 bcbd 1bbb d93d
000003b0: 210e a0be a312 2b3d 2f61 7d3e 2927 8d3e
000003c0: 5a57 b73e a16a 3c3e adfa 7c3d 1bd6 093e
000003d0: 7856 11be 030b d53d 05eb 72be e8bb 113c
000003e0: 7921 9abe 81d5 a5bd c526 d83d 3a13 3c3c
000003f0: c5b3 3bbe b6e6 123e 9197 433e 8cc4 4d3e
-0.020634864 -0.24142207 -0.017752288 -0.04173056 0.054629102 -0.049266193 0.008963234 -0.016584294
-0.064602405 0.3113858 -0.097602285 0.082878634 -0.072823115 0.21637201 0.006045445 0.31795856
0.05097572 0.17568962 -0.09886002 0.10298994 -0.09736807 -0.19988137 0.2650605 0.36210895
0.20739299 0.011647388 0.15430254 0.04878799 -0.074093014 0.033269025 -0.0027995976 0.25104392
-0.23932508 0.32360134 0.14627267 -0.2320364 0.14054465 0.11655 0.17657025 -0.12307932
-0.26133835 0.10199612 -0.099885 -0.07780495 0.2013968 0.21605727 0.25747102 -0.015500893
0.22212026 0.10853582 -0.17600138 0.0032771602 -0.17392388 -0.010698817 -0.27330968 -0.0046883887
-0.27759865 -0.16010818 -0.062322978 0.0831956 -0.1408867 0.071118735 0.12939097 -0.22910158
0.03393482 0.0059260195 0.07602964 0.07969931 -0.16253816 0.2961055 -0.09313917 -0.11697834
-0.22036771 0.16188388 0.19954197 0.076572336 -0.36389723 -0.017622674 -0.30157036 0.26246414
0.029464256 -0.010829074 -0.029433845 0.028055146 -0.31071818 0.16609639 0.36932433 0.32184806
-0.32022893 -0.16741753 0.07619915 -0.1476525 0.020558422 0.2806042 0.24459428 0.06678902
-0.15659627 -0.09896619 0.20393997 -0.1575347 0.080255926 -0.034931768 0.14809963 -0.0546565
-0.26071146 0.06765669 0.06495029 -0.031716023 -0.019606348 -0.2940049 0.09707014 0.13063717
0.17036733 0.021562412 -0.23090781 0.06304844 -0.22795023 -0.01527539 -0.21585372 0.043940876
0.08091547 0.22816874 -0.05840119 0.17256199 -0.03443199 -0.20673075 -0.21738139 -0.2532318
-0.08436191 0.14159667 -0.11636019 0.21518096 -0.03454171 -0.3078721 0.043536246 -0.015320989
0.06732557 0.17354095 0.086587735 -0.19041549 -0.16096328 0.019174533 0.01151974 0.07011033
-0.34021273 -0.14399636 0.074051574 0.34735355 0.12598804 -0.12770574 0.20840713 0.20658447
0.2034249 -0.18582149 -0.011735558 -0.0031128656 -0.2189682 -0.0025514434 0.09645354 0.26973295
-0.11657596 0.026827428 -0.2083456 0.11855157 -0.006872212 -0.2706551 -0.21850605 -0.12430137
-0.2953653 -0.18520357 -0.13942859 0.17283101 -0.21535213 0.050014444 -0.22108684 0.059753735
0.06728334 -0.28168836 -0.30053216 0.2920208 -0.2731262 -0.22381695 -0.25664333 -0.1539749
0.3210644 -0.09929461 0.1528468 0.3657072 -0.26736298 0.18367516 0.17407778 0.280348
0.21735482 0.25937057 -0.081692554 0.1677035 0.30252776 0.22471671 -0.0924128 0.1712477
0.068934314 -0.27833998 -0.31297752 -0.053447165 0.028578507 0.16399756 -0.16792129 0.07775379
0.13743435 -0.17551616 0.16116464 0.01372275 -0.04699096 0.28346208 -0.03510512 0.1907316
-0.07713508 -0.16657905 0.07928774 -0.09361505 0.059856057 0.021661224 -0.2962318 -0.03990205
-0.24331889 0.33147866 0.21432866 0.20856088 -0.12272899 0.2759616 0.28409135 0.33520648
0.22263654 -0.074486665 -0.092146754 0.10631391 -0.3126078 0.04176582 0.24744104 0.2756894
0.3580883 0.1840005 0.0617625 0.13460581 -0.14193141 0.10402491 -0.23722465 0.008894898
-0.30103663 -0.08097363 0.1055427 0.011479193 -0.18330295 0.14345822 0.19100787 0.20094508

weight_hh_l0 f4 [40, 10]
00000000: e62a c63c f906 95bd 3cf1 95bd e41d 4f3d
00000010: 08ed a53d 892b 89bd dec9 a23d 23a4 9fbd
00000020: 1c22 a3be a2f7 98be bd28 0f3d c19c b7be
00000030: a3fc 943e 931a acbd fb06 d1bd 906b 9fbe
00000040: ba89 6cbe 0998 c7bc 832c 823d 4fb0 9ebd
00000050: da79 313d 1dd6 6f3e c2e5 2ebd a8c4 843e
00000060: ac71 ff3c b396 15be dfe2 55be 6e64 a4be
00000070: 5986 6abe 5820 473d 3679 15bd 8451 023e
00000080: beb4 3e3d 0ccb 2e3d 885c 313e a94b 43be
00000090: e5e0 a63e 04b9 363e bad5 24bd 474e 5b3c
000000a0: 1ceb fb3b 234d eb3c d752 0bbe 9feb 2dbd
000000b0: 8531 493e 2e04 93be e8bd 72bd 312f e4bc
000000c0: 4d02 ebbc 8473 463d f140 d8bd e267 3ebe
000000d0: 0575 11bb d32e 223e 8e56 863e 2071 12be
000000e0: 2b1d 743e 11b9 293e 773d c23d 6b7e 983e
000000f0: 6685 8d3e 9ded d6bd e461 c1be 7206 ca3e
00000100: 10f1 aebd 31ca 1dbe e641 423e b3d2 42be
00000110: cfde 7dbe 8cfd 083e 8c69 213d 477a 51bd
00000120: 5b21 1fbe 5deb f53d df55 303d e218 adbe
00000130: 6a3a b7bd d8e9 5a3d d390 6d3d f878 0a3e
00000140: e211 1fbe 779d dfbd 9157 083e e10b a6bd
00000150: fc8e 80be a057 263d 7e9a 9fbd 482a e2bc
00000160: 6bd7 93bd 3ccc 6abd ed24 66be 25f5 a93c
00000170: 556c 9fbe 34fe 8abe ca64 ab3e c20e 803e
00000180: a012 6a3e 7498 1f3d 6d3c 70be c2e3 32bc
00000190: 64e2 05bd c9ab b2be 3e14 80bd e436 553e
000001a0: 4342 813b 4dab 03bc 0769 07be f64f 00be
000001b0: ce4c b1be 4c88 1e3d 8775 cfbd 55dc afbe
000001c0: bd94 723e e6dd 1bbe 0a82 46be c640 33bd
000001d0: 2c38 4d3e 4594 5f3e 09f1 1fbe 674f 053e
000001e0: 8d20 ff3d 9ab7 053e 4ccb 88be 3e63 503e
000001f0: ca0e 75be 96c5 f93c dcaa 94bd 01c8 a7be
00000200: d496 20be 8c13 973d ecff e33d 673b 223e
00000210: 3ff0 e0bd 07dc 6d3e f9ee 88be 1968 8ebe
00000220: 433f 28be 02dc 1a3e 83bf 713d bcd0 8ebe
00000230: 704f 4f3e 0769 4d3e 9aba 7dbc 15ed aabd
00000240: c484 6d3d 6e8f 9c3e 2dc0 373e f4d1 33be
00000250: ab2f 1e3e 6bf4 d4bd 377f 22be 9e97 1b3e
00000260: 38d8 ac3d f9b5 8f3e f952 47be 6891 3fbe
00000270: 0527 f33c 700d 093e dd90 8ebe 62ea 06bd
00000280: b137 483e 3eab 3e3e 3ada a2be 8975 5e3e
00000290: e248 523e 04ef 89bd 80b5 f63c e5ee c7be
000002a0: 6c75 0e3e 2a54 553d e030 35bd 4d95 a5bc
000002b0: e556 1b3c f2fb 1d3e a1ee c6bd 854e a23c
000002c0: 93a2 70be 681a c4bd 1c28 c3be a42e 7a3e
000002d0: 5e44 88bd 27dd ac3d 079b c9bd 3447 48be
000002e0: 247a 1d3e 2010 973c f225 db3d 600c 4f3e
000002f0: 85ea 09be 3b2b e3bd c8a5 8cbd 9b3d 2f3e
00000300: bdb4 0ebd d546 4c3e 3cdd adbd b329 20be
00000310: 4ec7 043c 63da 8abe 86c2 8a3e 56cd 233c
00000320: 5f40 72be 7eb1 8ebe 4010 acbe 7cf9 c0bc
00000330: 7e61 86bd 69fb fc3d d4c9 5fbe 4812 203e
00000340: 3334 14be fc39 c4bb 8da7 a8be 93ae 953e
00000350: ac16 c43c 04b2 22be c28c 7abd a9de 5bbe
00000360: 42d2 97bd 79b2 fcbd b58f c73e e263 483e
00000370: be6a edbd 83c7 713e eef2 4cbe 3dc0 913d
00000380: cd2a b9bb 4a79 8bbc 397e 803e 5827 973e
00000390: a908 3a3e 156a aebd c914 ccbd 0014 f53c
000003a0: c016 93bd c554 e93d edb1 433e b552 89bd
000003b0: 509f ae3e d2dc 4ebe 1066 8bbe 4bd8 5c3e
000003c0: 4fbb 1d3e 241d 2abe 3849 1abe 0732 0f3e
000003d0: b0c9 e03d 8888 52bd 7a88 6b3d b857 46ba
000003e0: 13d4 703e 8cdd ca3c b1e7 f53d 5c2d 8a3e
000003f0: 872c 4d3e 15cb 0b3d 063d 38be a943 63be
0.024190377 -0.072767206 -0.073214024 0.050565615 0.08101851 -0.06697757 0.07948659 -0.077949785
-0.3186196 -0.2987643 0.03495096 -0.3586178 0.29098997 -0.08403506 -0.102064095 -0.3113675
-0.23099414 -0.024364488 0.06356146 -0.07748472 0.043329097 0.23421521 -0.042699583 0.25931287
0.031182133 -0.14608268 -0.20887326 -0.32107872 -0.22902812 0.04861483 -0.03649255 0.12726408
0.046559088 0.04267411 0.17320454 -0.19071831 0.32593456 0.17844015 -0.040242888 0.013385362
0.0076879393 0.028723305 -0.1360582 -0.042461034 0.19647796 -0.28714126 -0.05926314 -0.027854534
-0.02868762 0.048450008 -0.105592616 -0.18594316 -0.0022194993 0.15838175 0.2623791 -0.14300966
0.23839252 0.16574503 0.0948438 0.2978395 0.27640837 -0.1049454 -0.37769997 0.39458042
-0.08542073 -0.15409161 0.18970451 -0.19025688 -0.24792026 0.1337797 0.039407298 -0.051142003
-0.15540068 0.120077826 0.043050643 -0.33808047 -0.089466885 0.053445667 0.057999443 0.13522708
-0.15534166 -0.10918706 0.13314654 -0.081077345 -0.25109088 0.04061091 -0.07793139 -0.027608052
-0.07218822 -0.05732368 -0.22475024 0.020746777 -0.31137338 -0.27147067 0.33475333 0.2501126
0.22858667 0.03896375 -0.2346055 -0.0109185595 -0.032686606 -0.34896687 -0.06253861 0.2082172
0.0039446666 -0.008036447 -0.13223659 -0.12530503 -0.3462891 0.0387042 -0.101298384 -0.34347787
0.23689552 -0.15221366 -0.19385543 -0.043762945 0.20040959 0.21833904 -0.15619291 0.13018571
0.124573804 0.1305832 -0.26717603 0.20350358 -0.23931423 0.030489724 -0.07259151 -0.32769778
-0.15682536 0.07376775 0.111327976 0.15842973 -0.10983323 0.23228465 -0.26744822 -0.27813795
-0.16430382 0.15122989 0.05902053 -0.27893627 0.20245147 0.20059596 -0.015486384 -0.08346001
0.057987943 0.30578178 0.17944403 -0.1756056 0.15447871 -0.103981815 -0.15868841 0.15194556
0.08439678 0.28068522 -0.19465245 -0.18707812 0.029681692 0.13384032 -0.27844897 -0.03293837
0.19552495 0.18620011 -0.3180712 0.21724524 0.20535615 -0.06735042 0.030115843 -0.3904945
0.1391198 0.05208222 -0.044236064 -0.020212794 0.0094811665 0.15428141 -0.097134836 0.019812832
-0.23499517 -0.09575349 -0.3811654 0.24431854 -0.06653665 0.08440619 -0.09844022 -0.19558412
0.15378624 0.018440306 0.10700597 0.20219564 -0.13468368 -0.1109223 -0.06867558 0.17113344
-0.034840334 0.19948895 -0.08489463 -0.15640907 0.008104159 -0.2711974 0.27101535 0.009997686
-0.23657368 -0.2786979 -0.33606148 -0.023556463 -0.06561564 0.1235264 -0.21854335 0.15631974
-0.14473037 -0.0059883576 -0.3294033 0.29234752 0.023936592 -0.1588822 -0.061169393 -0.21471657
-0.0741315 -0.123387285 0.38976827 0.19569352 -0.11592625 0.23611264 -0.20014545 0.07116745
-0.005650854 -0.017025609 0.250963 0.29522204 0.18167366 -0.08516327 -0.09964902 0.029916763
-0.071820736 0.11393122 0.19110842 -0.06705228 0.3410592 -0.20201424 -0.27226305 0.21566884
0.15403484 -0.16612679 -0.15066993 0.13983928 0.10975969 -0.051399738 0.0575032 -0.00075661717
0.235184 0.024763845 0.12007082 0.2698773 0.20036517 0.03412922 -0.17992029 -0.22193779

bias_ih_l0 f4 [40]
00000000: dae6 cbbd 2e15 37bd 9d3f 383e 4731 4cba
00000010: 7b76 87be 6376 743d 493d debc 98ba 30be
00000020: ac5f 803e 6884 a2bc 4d65 a53e 14ab 22be
00000030: 73ce 3f3e 8007 a03d 40f0 b5bc 8be5 d23d
00000040: 2910 1dbe 5ec4 bd3e a72d 4c3e 893b 1cbe
00000050: 2224 a63e 8ba0 393e 24da 10be 44c4 0abe
00000060: 8ec5 ab3e e800 a2be 08d9 5fbe 1cdd acbd
00000070: b290 7e3e 8727 593e e371 84bd 7778 37be
00000080: 96d5 cb3d 3c17 31bd 9ced 4dbe 1b7c 5c3e
00000090: d51c f13d 6016 8b3d 815a 57be 6cae d83c
-0.09956141 -0.044697933 0.17993017 -0.00077893253 -0.2645758 0.059683215 -0.027128832 -0.1725868
0.25072992 -0.019838527 0.3230385 -0.15885574 0.18731098 0.078139305 -0.022209287 0.10297688
-0.15338196 0.3706388 0.1993929 -0.15257086 0.32449442 0.18127649 -0.14145714 -0.13551432
0.3354916 -0.31641316 -0.21860135 -0.08440611 0.24859884 0.21206485 -0.06467035 -0.17917047
0.09952848 -0.04323505 -0.20110172 0.21531717 0.117730774 0.06791377 -0.21030618 0.026450358

bias_hh_l0 f4 [40]
00000000: e5a3 4f3e 35a8 7b3e bbf3 07be 0065 b93e
00000010: ff6c bb3c 4173 60be 0b89 c1bd 05c2 3f3d
00000020: 40bb c13e 7fcd a33e 631d 083e 77de 4c3d
00000030: 3e25 803e 9fdb 063e ed0c 4abe ebd6 a5bd
00000040: a171 d9bd 4137 923e 42b3 323d 0dc1 2cbe
00000050: 8212 3fbe 6f12 b9be 1f28 ff3d 0366 6fbd
00000060: 2e45 903e 7ae4 713d 1929 84bd 226a a1be
00000070: d722 94bb f22b e53d a4a2 06be 52c6 b23e
00000080: 3fa3 73be 83fa c53d 511d 573e 7093 afbd
00000090: bed8 6dbe 96e5 56be 4baf d5bd eba6 85be
0.20277365 0.24575885 -0.1327657 0.3620987 0.022879122 -0.21918966 -0.09449967 0.04681589
0.37838173 0.3199272 0.1329246 0.050016847 0.25028414 0.13169716 -0.19731493 -0.08097633
-0.10617376 0.2855778 0.043627985 -0.16870518 -0.18659404 -0.36146876 0.12458824 -0.058446895
0.2817778 0.059055783 -0.06453151 -0.31526285 -0.004520755 0.111900225 -0.1314798 0.3491693
-0.23792742 0.09666922 0.21007277 -0.08573043 -0.23227212 -0.20986018 -0.10433825 -0.2610391

weight_ih_l0 f4 [40, 22]
00000000: 7f7e 183d 2c1b 0a3b 8afb 3ebe 4bb9 963e
00000010: 5ef5 d2bd cc29 073e 6ea2 88be dc11 a5bd
00000020: 4de4 f93d a150 f3bd 3e3a 9b3e 13eb c6bd
00000030: cb89 993e bf17 9ebd 94a5 0ebe 89a0 12be
00000040: 8262 d03d fe3f 2b3e 4b8e 90be f095 493d
00000050: d4fe acbb 7057 ea3d ae34 e5bd 77a3 06be
00000060: 3c03 cf3b d64f f63d 6faf 193e f9b9 3abe
00000070: 3710 013e daef a13d 399a 42be 41ff 4a3e
00000080: ecbc ae3d 2932 18be 2b99 01be 5805 8b3e
00000090: cc28 6c3d ad1a 20be e2e2 38be 7041 b33d
000000a0: d9d6 143e c3b0 45be dd07 62bd 05ac 65be
000000b0: dcca d23c 44ef 853c 8ed7 94be 2183 60be
000000c0: 97ae 4d3e a4f5 a7be e0a9 27be ba29 4d3c
000000d0: 9cc7 373e 48ca 643e 7306 913d 4009 803e
000000e0: 7cd1 dd3c bbfa 853e 9fd2 12be 7f31 30be
000000f0: f708 8b3e ae96 583e bb64 a23e 0502 773e
00000100: adcb 9f3d 1499 1dbe e7a3 813d b986 b33e
00000110: 9718 93bd fc50 b93d 5979 7b3d 511c 7cbe
00000120: 6ae3 04bd 4425 28be 308d 143e e5e3 06be
00000130: e15e aabd 25a7 8ebd b614 743e e61c ae3e
00000140: 1e70 43bd 4e17 75be b259 b13d d0c6 c43d
00000150: 6d73 d13d 701f 8c3e 969c 9c3c 997f af3e
00000160: 7b50 d73d d30b 94ba d049 d73d b1f4 a8bd
00000170: 15d7 4f3e 1cbb 273e 5d07 7c3e a8da f33b
00000180: 226c afbe 1142 b0bd a720 88be 4e67 2dbe
00000190: 698b 643e 2039 f4bc 967e 75bd 3778 91bd
000001a0: 559e c13d 70e2 93be 8119 b6be 2354 a7bd
000001b0: e188 97be 1e04 b33d 5d8a cd3d ec3d 473e
000001c0: 5b03 a7be f1ea bb3e e7c8 98be 8ef7 c8bd
000001d0: a0a9 4d3e 833b 73be ffcf 45be 6121 86be
000001e0: 2bf9 653d aafc f3bd 5e24 f6bd 7ef6 cfbd
000001f0: ec08 32be 7224 01be 7d53 adbe 36ee 1d3e
00000200: 81d6 1cbe c2ff 0d3e 4046 9d3e 6cf9 503e
00000210: 5f07 0fbd 851b 6fbe 4716 d9bd 28a7 a83e
00000220: b77e f1bd 7b26 adbd 57bf 69be 8709 8b3e
00000230: db47 623e 1e84 7fbd f9f8 97bb dd50 01be
00000240: a820 7f3e e40d cdbd 0fa1 5abe 39f5 f73d
00000250: 67a3 3bbe 75f6 19bd d38c 8abe b354 893e
00000260: 7fcb 8e3d 06f2 0ebe d7e5 103e 2796 60bd
00000270: 5094 2e3e c15f 833e 683c 2cbe 6718 86be
00000280: 0f94 91be 983d 173e aac8 653e a701 03bd
00000290: 7f02 84be d733 9fbe 7b0f 23be c42c 86be
000002a0: f3ef 333e b905 40be 5f2d 36be 61dc 223e
000002b0: 5397 8abe 1202 7e3e cbdb 9a3e b16f 9b3e
000002c0: 39da 34bd 5081 9c3e ffc6 52be 6b80 603e
000002d0: 5006 35bc 1d34 e3bd 80cd 04be 49de 4f3e
000002e0: 862d 69be 8286 3b3e e449 57be a7f5 2b3e
000002f0: 579c eabd e65e 4ebc 4ff2 683e 29f2 4dbd
00000300: 87ac 6cbe a2e1 cabc ed31 85be 0079 993e
00000310: 34e4 32bb 4c4d 893e 94be e33c 6270 743d
00000320: 08e4 1bbe fbc3 733e 46d1 7fbe f461 ba3d
00000330: 2afa 5bbd 89e4 b03e 5a4f 67bd 8011 62be
00000340: 4909 403e dc64 933d 7b54 2abe 1cd2 843d
00000350: 1527 59be 0db0 8f3e 9003 6cbe 21f4 673d
00000360: 78ca aebe 5c58 463b d6e1 c33e a2d6 293e
00000370: 3b71 ef3c 3ab0 a9be f614 9abd 27f7 c23e
00000380: 0584 b8be ddab 783e 3bdb 223e e288 5cbe
00000390: 36ab a63e 1d79 253e 16e0 4fbe 1382 8f3e
000003a0: 1805 40bd b9fe 823e 5771 a33e b6d1 043e
000003b0: e6a7 0ebe 1c83 d63e ea86 d9bd fedd 1bbc
000003c0: 3d75 cf3d 5cd3 01be 4e8d 25be 2f5e 2ebe
000003d0: 4ba0 acbd ee17 433e fc24 17bd b97d 79be
000003e0: 558b 94bb 9327 913d 8749 593d ae8b 333e
000003f0: cae6 323e 6455 9f3d b655 803e 4909 743d
0.03723001 0.0021073325 -0.18650642 0.29438242 -0.10300706 0.13199538 -0.26686424 -0.08060047
0.12201748 -0.11880613 0.30317873 -0.097128056 0.2998794 -0.07719373 -0.1393035 -0.14319052
0.10175039 0.1672363 -0.2823356 0.049215257 -0.0052794013 0.11442459 -0.111916885 -0.13148294
0.0063175242 0.12026946 0.15008329 -0.18235005 0.12603842 0.07907076 -0.19004144 0.19823934
0.08532128 -0.14862885 -0.12656085 0.27152514 0.057656094 -0.15635176 -0.18055299 0.087527156
0.14535083 -0.1930571 -0.05518328 -0.22428901 0.025731497 0.016349442 -0.29070705 -0.21925022
0.20086132 -0.32804596 -0.16373396 0.012522155 0.17947239 0.22342789 0.07081308 0.25007057
0.027077429 0.26167855 -0.14338158 -0.17206381 0.27155277 0.2115123 0.31717476 0.24121864
0.0780252 -0.15390426 0.0633009 0.35063723 -0.071824245 0.0904865 0.061395023 -0.24620177
-0.03244344 -0.16420466 0.14506984 -0.13172872 -0.08318878 -0.06965474 0.23836026 0.34006423
-0.047714345 -0.23934671 0.08659686 0.09608233 0.10227094 0.27367735 0.019117635 0.34277037
0.10513397 -0.0011295028 0.105121255 -0.08249796 0.20296891 0.1637997 0.24612184 0.0074418373
-0.34262186 -0.08606351 -0.26587412 -0.16933939 0.22318806 -0.029812396 -0.059935175 -0.07103007
0.094540276 -0.28883696 -0.35566333 -0.08170345 -0.29596618 0.0874102 0.10036156 0.19457215
-0.32619748 0.36702684 -0.29840776 -0.09812842 0.20084238 -0.2375317 -0.19317625 -0.2619734
0.05614583 -0.11913426 -0.12018655 -0.101544365 -0.17386216 -0.12611559 -0.3385276 0.15422902
-0.15316202 0.13867095 0.3071766 0.20407647 -0.03491914 -0.23350342 -0.10599952 0.3294003
-0.11791747 -0.08454605 -0.22826897 0.27155706 0.22097723 -0.062381856 -0.004637834 -0.12628503
0.24914801 -0.10012415 -0.21350501 0.121073194 -0.18324052 -0.037588555 -0.27060565 0.26822433
0.069724075 -0.13959512 0.14150177 -0.054830696 0.17048764 0.25658992 -0.16819918 -0.26190493
-0.28433272 0.1476959 0.22439829 -0.031983998 -0.25783154 -0.31094238 -0.15923874 -0.26206028
0.17572002 -0.18752183 -0.17790745 0.1590438 -0.27068576 0.24805477 0.30245814 0.3035865
-0.044153426 0.30567408 -0.20583723 0.21923988 -0.011048868 -0.11093924 -0.12969017 0.20299639
-0.22771272 0.1831303 -0.21024281 0.16792928 -0.11455601 -0.012595868 0.22748683 -0.05027977
-0.23112689 -0.024765793 -0.26014653 0.29975128 -0.0027296664 0.26816785 0.027800836 0.05967749
-0.15223706 0.2380523 -0.24982175 0.09100714 -0.053705372 0.34549358 -0.05647216 -0.22076988
0.18753542 0.07196972 -0.16633789 0.06485388 -0.21206315 0.28064004 -0.23048234 0.056629304
-0.34138846 0.0030265069 0.38258237 0.16585782 0.029228797 -0.33142263 -0.07523529 0.38079187
-0.36038223 0.2428431 0.15903942 -0.21536592 0.325525 0.16159482 -0.20300326 0.28028926
-0.046879858 0.25584963 0.3192241 0.12970623 -0.13931236 0.41896904 -0.10621436 -0.009513376
0.10129783 -0.12678283 -0.16167185 -0.17028116 -0.08429011 0.19052097 -0.036900505 -0.24364366
-0.0045332112 0.07087626 0.053048637 0.17533752 0.17470852 0.07779959 0.25065392 0.059579168
